results/model_GCN/graph_split_/layers_4/transform_True/alpha_0.5/model.pt (torch, 36694 bytes, 15 tensors)

encoder.conv.convs.0.bias f4 [40]
-0.030184453 -0.040958382 -0.04897624 -0.03763278 0.0050916905 0.059658453 0.06761265 0.056796014
0.05386001 0.12463347 -0.04627096 -0.0123795075 0.014210214 -0.020556923 0.08081131 -0.053180978
0.027184857 0.030427221 -0.00951042 -0.07830319 0.012538934 -0.023479745 0.034556173 0.09682978
0.060966566 0.020131197 -0.0128991 0.018455354 0.13222285 -0.032823622 0.04807097 -0.047789596
-0.023444416 -0.0036596344 0.12625228 -0.0034254785 0.086258136 0.024835605 0.15712361 0.054560676
00000000: 6345 f7bc fac3 27bd 4f9b 48bd d424 1abd
00000010: 32d8 a63b 6c5c 743d 8078 8a3d f0a2 683d
00000020: 509c 5c3d d53f ff3d 9e86 3dbd 6bd3 4abc
00000030: f5d1 683c fe66 a8bc 6680 a53d 4cd4 59bd
00000040: c7b2 de3c 8242 f93c 98d1 1bbc 6c5d a0bd
00000050: 1a70 4d3c 9858 c0bc c68a 0d3d b14e c63d
00000060: 14b8 793d 2eea a43c bf56 53bc af2f 973c
00000070: 6d65 073e 1072 06bd 11e6 443d 06bf 43bd
00000080: 810e c0bc 7ad6 6fbb 4748 013e fe7d 60bb
00000090: 1ba8 b03d 0a74 cb3c 03e5 203e 047b 5f3d

encoder.conv.convs.0.lin.weight f4 [40, 40]
0.2847641 -0.22319852 0.12939438 0.25411052 -0.15430935 -0.12676173 -0.2540954 0.23675215
-0.3461656 0.3822176 -0.08707289 0.057875227 -0.07506741 0.08442592 -0.2800586 -0.023387432
-0.12987392 -0.11276664 -0.049424812 0.0828476 0.32772598 -0.3671928 0.11754336 0.25754902
0.10366489 0.15320177 0.027783213 0.045032516 0.18797897 -0.15418881 -0.10833708 0.10403629
0.36486807 -0.36240464 0.2694667 0.086205594 0.25545534 -0.11732319 0.5068454 0.11660041
-0.012278877 0.029351657 0.39927524 0.19682854 -0.16976553 0.2771023 0.25053984 -0.22869167
0.13010806 -0.1995388 -0.018380284 0.32945567 -0.18413484 -0.118267275 -0.24940768 0.008154635
0.040704105 0.1529063 -0.3658278 -0.044311225 0.31176344 -0.49220026 -0.007163712 0.35088274
-0.14331594 0.23788635 -0.13404953 -0.28425926 -0.0053381813 0.087347046 -0.21538746 -0.032650378
-0.053367846 -0.015808586 0.31120405 -0.071187906 0.18924837 -0.30346775 0.08026577 0.016852496
0.076867834 0.13422355 0.11173119 -0.11703783 -0.23878722 0.10387443 -0.2208425 0.35264242
0.087615535 0.29432783 0.026105203 0.2127122 0.08737911 0.10953014 0.10275501 -0.13337934
-0.2218635 -0.23075075 -0.097646594 0.26833194 -0.26206166 0.24463806 -0.11294763 -0.10623404
-0.23871087 0.046096954 0.037575744 0.118444204 -0.080412716 -0.14595082 0.2160297 -0.22784853
-0.30729178 -0.033505876 -0.17063893 0.034984473 0.21723318 0.21591835 0.008027716 -0.17948264
0.2922992 0.25908336 -0.10087763 -0.11730497 0.21767998 -0.12497326 0.08234393 0.07097896
0.046073727 0.2903378 -0.30727303 -0.08394295 -0.07645722 0.14131458 -0.16519082 -0.110554725
-0.27525496 -0.11693063 0.2533898 -0.09115937 0.14739396 0.33035743 -0.027226625 0.08654874
-0.19904408 0.11493936 -0.14777918 0.09294921 -0.0023887914 0.16442434 0.27049538 -0.2043993
-0.07101718 0.25544703 -0.14691037 -0.04363408 -0.08363612 -0.014178152 -0.20016812 -0.14693868
-0.0816746 -0.08168024 0.084314086 0.2623327 0.18338665 -0.1850172 -0.36537418 0.33824697
-0.22204655 0.20181185 0.13740905 -0.16662507 -0.24877363 0.10481903 -0.008246545 0.072776124
-0.18593608 -0.20870209 -0.08897147 0.23357357 -0.098206125 0.09402054 0.055065643 0.19865897
0.072512686 -0.07779007 0.25649413 -3.2056414e-05 0.251909 -0.16030675 -0.011293521 0.14128466
0.18576996 -0.08629099 -0.118413955 -0.2618421 -0.016530966 0.075487375 0.1825916 0.24460979
-0.24350032 0.2249825 0.06166572 -0.06242454 0.27716374 -0.028193198 0.24787848 0.011354341
0.2819056 -0.046937007 -0.0649452 0.10291347 -0.21831755 0.05320599 0.05034441 0.27492455
0.18896793 -0.2590917 -0.14527673 0.053587627 -0.37413168 -0.16614518 0.24291769 -0.5013164
-0.030692404 -0.13710846 -0.3795489 -0.020661078 0.026581744 -0.19772846 -0.061408006 0.26432186
0.04140901 0.35236162 -0.098962426 -0.036048066 -0.36270547 -0.0064923116 -0.3955695 0.18552275
-0.11875096 -0.37115353 0.23441777 0.017661402 -0.0032921187 -0.076444924 0.4232333 -0.24306329
0.33647057 -0.33020225 0.12883164 0.06226184 -0.32028463 0.012522037 -0.10223448 0.03449265
00000000: 9acc 913e 278e 64be f67f 043e c61a 823e
00000010: 4503 1ebe d4cd 01be cb18 82be 286f 723e
00000020: 9e3c b1be 06b2 c33e 4553 b2bd 930e 6d3d
00000030: f1bc 99bd 7fe7 ac3d d763 8fbe 0097 bfbc
00000040: abfd 04be 32f2 e6bd ac71 4abd 01ac a93d
00000050: b3cb a73e b200 bcbe 93ba f03d 77dd 833e
00000060: 424e d43d ede0 1c3e 9f99 e33c 0474 383d
00000070: 8f7d 403e ace3 1dbe d5df ddbd fa10 d53d
00000080: fdcf ba3e 1a8d b9be 8af7 893e 8f8c b03d
00000090: 0bcb 823e 2447 f0bd 9fc0 013f 32cc ee3d
000000a0: 582d 49bc e372 f03c ce6d cc3e 6c8d 493e
000000b0: 04d7 2dbe 5ae0 8d3e c246 803e 262e 6abe
000000c0: 0c3b 053e e653 4cbe 4092 96bc 6aae a83e
000000d0: d88d 3cbe 1d36 f2bd ba64 7fbe 059b 053c
000000e0: 59b9 263d 7893 1c3e c84d bbbe b07f 35bd
000000f0: 759f 9f3e ac01 fcbe 92bd eabb e7a6 b33e
00000100: 6ac1 12be 7b98 733e 4844 09be 6e8a 91be
00000110: e9eb aebb 02e3 b23d 888e 5cbe 67bc 05bd
00000120: 3e98 5abd 0281 81bc 2356 9f3e f7ca 91bd
00000130: 53ca 413e 2060 9bbe 6162 a43d 3f0e 8a3c
00000140: e26c 9d3d e671 093e 52d3 e43d 88b1 efbd
00000150: a384 74be 1ebc d43d 8924 62be 8c8d b43e
00000160: c66f b33d 23b2 963e 94da d53c 3ad1 593e
00000170: d2f3 b23d 5751 e03d 3871 d23d 9894 08be
00000180: 2f30 63be ed49 6cbe f0fa c7bd ce62 893e
00000190: f22c 86be 6682 7a3e 1651 e7bd 3b91 d9bd
000001a0: 9f70 74be 29d0 3c3d 06e9 193d e092 f23d
000001b0: 6caf a4bd 2274 15be e436 5d3e 2051 69be
000001c0: 5955 9dbe 753d 09bd f9bb 2ebe e14b 0f3d
000001d0: 6072 5e3e b319 5d3e ae86 033c 4cca 37be
000001e0: 3ea8 953e 93a6 843e ee98 cebd 973d f0bd
000001f0: 80e7 5e3e fbf1 ffbd efa3 a83d 6b5d 913d
00000200: ceb7 3c3d 28a7 943e e452 9dbe 48ea abbd
00000210: 9a95 9cbd c5b4 103e c827 29be 846a e2bd
00000220: 38ee 8cbe 5379 efbd 4fbc 813e c4b1 babd
00000230: 71ee 163e 9c24 a93e 5f0a dfbc 7740 b13d
00000240: 36d2 4bbe 5465 eb3d 6d53 17be 285c be3d
00000250: 458d 1cbb db5e 283e 5f7e 8a3e 0d4e 51be
00000260: 7571 91bd f4c9 823e ac6f 16be a6b9 32bd
00000270: 6a49 abbd 7b4b 68bc dff8 4cbe 1877 16be
00000280: 0345 a7bd f847 a7bd ddac ac3d 7950 863e
00000290: b6c9 3b3e 2675 3dbe 5312 bbbe b52e ad3e
000002a0: 2c60 63be c4a7 4e3e f5b4 0c3e c39f 2abe
000002b0: 84be 7ebe 5cab d63d 841c 07bc a60b 953d
000002c0: 0766 3ebe 00b6 55be ad36 b6bd e92d 6f3e
000002d0: 4b20 c9bd d78d c03d 838c 613d 426d 4b3e
000002e0: 8881 943d 6650 9fbd 3353 833e 5074 06b8
000002f0: 37fa 803e 7427 24be 7608 39bc edac 103e
00000300: 7b3a 3e3e 55b9 b0bd 0483 f2bd 2b10 86be
00000310: f36b 87bc 2099 9a3d 4bf9 3a3e fd7a 7a3e
00000320: 2658 79be d061 663e 3295 7c3d e0b0 7fbd
00000330: 68e8 8d3e 6cf5 e6bc dbd3 7d3e 8f07 3a3c
00000340: ee55 903e 0541 40bd fd01 85bd 4cc4 d23d
00000350: a38e 5fbe 86ee 593d f135 4e3d e9c2 8c3e
00000360: cf80 413e aba7 84be 6cc3 14be b37e 5b3d
00000370: 308e bfbe f621 2abe 6abf 783e 4656 00bf
00000380: a36e fbbc 2966 0cbe 3c54 c2be 6c41 a9bc
00000390: f5c1 d93c 5479 4abe f686 7bbd 3255 873e
000003a0: 7e9c 293d be68 b43e d0ac cabd 23a7 13bd
000003b0: 88b4 b9be 75bd d4bb 1688 cabe adf9 3d3e
000003c0: b433 f3bd d607 bebe 360b 703e a5ae 903c
000003d0: 96c0 57bb 288f 9cbd 09b2 d83e 95e5 78be
000003e0: df45 ac3e 4510 a9be 71ec 033e 4506 7f3d
000003f0: 59fc a3be 3b29 4d3c 5060 d1bd 2a48 0d3d

encoder.conv.convs.1.bias f4 [40]
0.036033858 0.013718437 -0.012141186 -0.022057625 0.06621559 -0.03848241 0.04344573 0.023656791
0.088229485 0.034739207 -0.030442797 0.022556297 0.09760711 -0.055385772 -0.061722066 -0.0018278711
0.09438516 0.014205949 -0.0580115 -0.010765929 -0.023036584 -0.0014177852 -0.037364606 -0.02728472
-0.0065115546 0.041723404 0.04024218 0.03637535 0.034117047 -0.0019381834 0.0729667 0.007483758
0.017758152 -0.03948484 0.06055246 0.011555201 0.062574014 0.033092115 -0.027288185 0.011270516
00000000: 3d98 133d 4cc3 603c d3eb 46bc 31b2 b4bc
00000010: 0a9c 873d bb9f 1dbd 26f4 313d e3cb c13c
00000020: a9b1 b43d b34a 0e3d 2c63 f9bc fcc7 b83c
00000030: 3de6 c73d 31dc 62bd 47d0 7cbd 2d95 efba
00000040: 024d c13d 12c0 683c 779d 6dbd 9463 30bc
00000050: 38b7 bcbc fad4 b9ba a10b 19bd 3584 dfbc
00000060: e15e d5bb 29e6 2a3d fcd4 243d 52fe 143d
00000070: 51be 0b3d a50a feba 916f 953d 503a f53b
00000080: 8b79 913c dbba 21bd db05 783d 0752 3d3c
00000090: ce26 803d 998b 073d 798b dfbc f8a7 383c

encoder.conv.convs.1.lin.weight f4 [40, 40]
-0.31508678 -0.4254152 0.07852099 -0.2314632 0.055187218 0.1600156 0.3188296 -0.23235047
-0.22965656 -0.4255721 -0.11204388 0.23957446 0.40087053 0.18658057 0.29194155 -0.20179787
0.12636904 -0.22895996 -0.024653774 0.22920649 -0.0001236392 0.24745618 0.037097532 0.6751984
-0.14428948 -0.3321487 0.26758227 0.09724474 0.35402024 -0.04352068 -0.3508243 -0.20803119
-0.16021664 0.2540277 0.23735599 -0.06768678 0.06783767 -0.17208903 0.53181994 -0.00110194
-0.072805904 0.02522237 0.21163242 -0.22253263 -0.027087435 -0.11426361 -0.11314136 0.29406035
0.10096292 -0.206907 -0.049486194 -0.0028379804 -0.06592171 -0.008148694 0.1659114 0.00440173
0.19829695 0.23572367 -0.06217885 -0.051876407 -0.08698936 -0.2592702 -0.17868522 0.021104252
0.13960852 0.17876361 -0.23494613 -0.22666124 -0.102117024 0.08789832 0.086943395 0.109126575
0.035630208 0.25017506 0.06555372 0.06816335 0.15148821 0.01090914 0.0972179 0.004786777
0.3948481 0.17788072 -0.20632228 -0.2828818 0.03385902 -0.33700627 0.07218963 0.01188145
0.072421044 0.41211644 -0.2899511 -0.18027034 0.19129682 -0.20441584 -0.4001159 -0.38257048
0.14648053 0.12386878 -0.31292784 -0.08674403 0.2698446 -0.0058230623 -0.55526555 -0.1971549
0.069766775 -0.045002043 -0.3237302 -0.26300666 0.07897017 -0.12563537 0.31412867 -0.063817635
-0.14155675 -0.14291102 0.42628992 0.23953861 0.25277168 0.35231704 -0.1670392 0.03510348
0.08313597 0.21452221 -0.25629225 -0.44212967 -0.14633645 -0.07716769 0.20212853 -0.09383511
0.3735603 -0.007915401 0.01858142 -0.26465887 0.021557 0.055021603 0.15184508 -0.22669508
0.109004945 0.14882246 0.23008852 -0.16436034 0.14467391 0.20038095 0.06416761 -0.08589916
0.14811568 0.21953715 -0.030100293 -0.21098429 0.26674783 0.10254745 -0.15434238 -0.16096453
0.08776493 0.2340241 -0.116499096 -0.09069441 0.24541415 -0.15829912 -0.08794612 0.20886938
-0.08495317 -0.17138463 0.057814527 0.0738804 0.10917126 0.25048828 0.13801251 0.33619457
-0.013688515 0.086456835 -0.19706033 0.021079166 0.22975032 0.040024977 0.24946532 0.3067039
0.17140362 -0.1410129 0.09020138 0.24608539 0.054201674 0.14886911 0.3084415 0.017916858
0.13882665 0.08530261 0.019496184 -0.0032590434 0.49084234 0.20125099 0.3410595 0.07213105
-0.11214062 -0.096193716 -0.09391049 0.08505694 0.13683179 -0.2938736 -0.05989478 0.33897895
-0.049035735 -0.13824363 0.12886119 0.21789078 -0.1326932 -0.111961335 -0.57291704 0.16184348
-0.12669025 0.26792192 0.008569271 -0.11292651 -0.06829001 -0.3294421 0.2890729 0.15822883
-0.21282299 0.08244065 -0.15900429 -0.20530847 -0.0120533435 0.3559449 0.27367437 0.2868388
-0.32436606 -0.2798449 0.19884093 -0.16176964 -0.1079486 0.093460105 -0.10491178 0.23973267
-0.25968373 -0.3251959 -0.018969966 -0.39389113 -0.37232295 -0.41271558 -0.012320104 -0.54888374
-0.032855205 0.07968591 0.33072427 -0.24638079 0.09263015 -0.014079187 -0.57080173 0.021387173
0.028101033 0.16816834 -0.34154475 -0.20030986 0.059663266 -0.29564658 0.07548097 0.06841161
00000000: 0e53 a1be 05d0 d9be 9dcf a03d b004 6dbe
00000010: fe0b 623d 21db 233e a23d a33e 48ed 6dbe
00000020: 172b 6bbe 96e4 d9be 4377 e5bd 0253 753e
00000030: e73e cd3e fa0e 3f3e 5d79 953e 1aa4 4ebe
00000040: e366 013e 7b74 6abe b6f6 c9bc 1bb5 6a3e
00000050: 25a5 01b9 2765 7d3e 95f3 173d cdd9 2c3f
00000060: 9fc0 13be 650f aabe 8b00 893e 4028 c73d
00000070: 2442 b53e be42 32bd 3e9f b3be 2106 55be
00000080: d50f 24be eb0f 823e 730d 733e 5e9f 8abd
00000090: 7aee 8a3d 1b38 30be 5a25 083f f96e 90ba
000000a0: 431b 95bd 259f ce3c 2bb6 583e 98df 63be
000000b0: 78e6 ddbc 0a03 eabd a8b6 e7bd 148f 963e
000000c0: a6c5 ce3d 6edf 53be 09b2 4abd 69fd 39bb
000000d0: f601 87bd 1a82 05bc aee4 293e 633c 903b
000000e0: 5b0e 4b3e 8c61 713e 40af 7ebd 5b7c 54bd
000000f0: 7a27 b2bd 10bf 84be 42f9 36be d3e2 ac3c
00000100: 89f5 0e3e cf0d 373e b895 70be e219 68be
00000110: bb22 d1bd 0904 b43d 610f b23d c17d df3d
00000120: fbf0 113d f216 803e 0741 863d 3a99 8b3d
00000130: ba1f 1b3e 40bc 323c 2e1a c73d 65da 9c3b
00000140: 8829 ca3e 5d26 363e 2646 53be e2d5 90be
00000150: c1af 0a3d 168c acbe 28d8 933d 6aaa 423c
00000160: 7c51 943d ed00 d33e 7874 94be ca98 38be
00000170: 50e3 433e 6352 51be fedb ccbe 47e0 c3be
00000180: fefe 153e eaae fd3d 1438 a0be dba6 b1bd
00000190: 1229 8a3e 63cf bebb e225 0ebf f9e2 49be
000001a0: e2e1 8e3d 1054 38bd f7bf a5be cfa8 86be
000001b0: 1dbb a13d 8fa6 00be 79d5 a03e d2b2 82bd
000001c0: 41f4 10be 4457 12be ac42 da3e 9c49 753e
000001d0: 4a6b 813e e662 b43e 530c 2bbe abc8 0f3d
000001e0: 3143 aa3d b6ab 5b3e bd38 83be d25e e2be
000001f0: 39d9 15be 180a 9ebd c8fa 4e3e 9f2c c0bd
00000200: 4c43 bf3e 99af 01bc 1038 983c 5e81 87be
00000210: 4e98 b03c 555e 613d 477d 1b3e c122 68be
00000220: fc3d df3d ea64 183e 539c 6b3e 144e 28be
00000230: 6625 143e aa30 4d3e 4f6a 833d e6eb afbd
00000240: a3ab 173e 59ce 603e e494 f6bc 440c 58be
00000250: 2c93 883e 6604 d23d ee0b 1ebe e3d3 24be
00000260: 1abe b33d 03a4 6f3e 1497 eebd febd b9bd
00000270: d94d 7b3e 2a19 22be 181d b4bd dbe1 553e
00000280: edfb adbd 747f 2fbe edce 6c3d 9b4e 973d
00000290: 2e95 df3d 0040 803e 2753 0d3e b221 ac3e
000002a0: cb45 60bc 4810 b13d 2fca 49be 37ae ac3c
000002b0: ab43 6b3e 3bf1 233d d673 7f3e 4b08 9d3e
000002c0: 6e84 2f3e b065 10be 80bb b83d cffd 7b3e
000002d0: 9302 5e3d 2571 183e 0bec 9d3e 60c6 923c
000002e0: 9328 0e3e 23b3 ae3d 76b6 9f3c ad95 55bb
000002f0: b04f fb3e bd14 4e3e 5a9f ae3e 72b9 933d
00000300: fba9 e5bd 3601 c5bd 2554 c0bd 5532 ae3d
00000310: a21d 0c3e 9a76 96be 3b54 75bd a68e ad3e
00000320: b2d9 48bd bd8f 0dbe 30f4 033e c31e 5f3e
00000330: bae0 07be fc4b e5bd b1aa 12bf 4cba 253e
00000340: 17bb 01be 102d 893e 2166 0c3c 0446 e7bd
00000350: a2db 8bbd a3ac a8be 5d01 943e bd06 223e
00000360: 45ee 59be a5d6 a83d 05d2 22be 623c 52be
00000370: 637b 45bc 693e b63e 0c1f 8c3e 89dc 923e
00000380: 4f13 a6be d547 8fbe f59c 4b3e f1a6 25be
00000390: 2814 ddbd 0368 bf3d fddb d6bd 7b7c 753e
000003a0: 44f5 84be 1480 a6be e766 9bbc 19ac c9be
000003b0: 1da1 bebe 754f d3be 43da 49bc a583 0cbf
000003c0: 2e93 06bd 5e32 a33d b154 a93e 3f4b 7cbe
000003d0: e0b4 bd3d 64ac 66bc 1020 12bf 2734 af3c
000003e0: 2334 e63c 5234 2c3e f4de aebe 071e 4dbe
000003f0: 7861 743d fd5e 97be c495 9a3d 631b 8c3d

encoder.conv.convs.2.bias f4 [40]
-0.04903582 -0.005178464 0.009801861 -0.05027631 -0.049110867 0.027261272 -0.025738917 0.032846764
0.035966314 0.049576957 0.12889501 -0.052516628 -0.026227769 0.06511694 0.0082036005 0.04718497
-0.010081831 0.018231405 0.043364078 0.060893215 0.030465184 0.07562554 0.03256963 -0.035745848
-0.06643662 -0.08397055 -0.0029952393 0.00040836388 -0.028866952 0.0008896883 0.022376502 -0.10587229
-0.008263757 -0.043852583 -0.032708216 -0.020887397 0.024937857 0.069464415 -0.07845776 0.06579985
00000000: c9d9 48bd 1bb0 a9bb fc97 203c 88ee 4dbd
00000010: 7a28 49bd 0853 df3c 6cda d2bc 548a 063d
00000020: 6a51 133d 3511 4b3d 0efd 033e ad1b 57bd
00000030: 9edb d6bc 085c 853d 6568 063c 0745 413d
00000040: 442e 25bc 075a 953c 889e 313d 2a6b 793d
00000050: 1f92 f93c 90e1 9a3d bb67 053d 3d6a 12bd
00000060: ec0f 88bd c0f8 abbd c74b 44bb ac19 d639
00000070: 637a ecbc f939 693a ed4e b73c 92d3 d8bd
00000080: b664 07bc c49e 33bd 0df9 05bd 0c1c abbc
00000090: 7a4a cc3c 5c43 8e3d 76ae a0bd 12c2 863d

encoder.conv.convs.2.lin.weight f4 [40, 40]
-0.024240684 0.03328398 -0.13097316 -0.4985419 -0.24530943 -0.27596673 -0.5709157 -0.20991051
0.19789086 0.078356296 0.09251187 -0.11447891 0.14885262 0.114934914 -0.07019626 0.19577514
6.453827e-05 -0.4314154 -0.051463045 -0.19404352 0.040534895 0.041650787 -0.16199549 -0.44755802
-0.2186583 -0.027644696 0.25407743 0.018535534 0.009295323 0.21054685 0.05637174 0.30188683
0.05964322 -0.037139244 -0.16518238 -0.17038792 -0.5395832 0.3164952 0.01506644 -0.3857462
-0.70045114 0.13711594 -0.45502225 -0.38295883 -0.015477386 -0.1697575 -0.1035977 0.27762288
0.0024667708 0.26883692 -0.0030786595 -0.3200919 0.009702226 -0.23094894 0.08864146 -0.03766312
0.0688358 -0.2209258 -0.042047963 -0.14360587 0.041950528 0.034723215 -0.2617105 0.03509798
-0.10749612 0.11461637 0.19944715 0.29712963 -0.51055616 -0.03075882 0.024923088 -0.05842138
0.18479744 -0.38925466 0.23145929 -0.18704927 0.17135249 -0.07096467 -0.24759169 -0.34903756
-0.10847729 0.10845372 -0.13593796 0.19152744 0.032375503 -0.10652984 -0.17256294 0.19837135
0.35347602 -0.09999766 -0.21254168 -0.3784986 0.1657165 0.24093586 -0.28875017 -0.07288526
-0.08866528 0.30657494 -0.1371976 0.060008146 0.13089727 -0.2082087 0.1941876 -0.2294959
-0.109292634 0.09754403 -0.2630798 -0.42950514 -0.08576001 0.12721717 0.23185658 -0.09996208
0.1985237 0.085632876 -0.1000346 -0.14399709 0.09859903 -0.13206154 -0.027563646 -0.4924237
0.20563802 -0.20603739 -0.048006024 -0.14050438 -0.05421307 -0.011365807 0.17655478 0.103880875
0.12131935 -0.20381649 0.1015596 0.18494052 -0.34549654 0.2508911 -0.117167234 0.15031658
-0.21808212 -0.11654787 0.18488991 0.23512465 -0.0032154534 -0.18200348 -0.3142627 -0.09439016
-0.13350919 -0.037433792 -0.24330482 0.01580184 -0.1312134 -0.14582776 -0.24438533 -0.12817405
-0.11194417 -0.032004192 -0.2373838 -0.07820972 -0.24262808 -6.448295e-05 -0.16348857 0.20549762
-0.2314056 0.031022834 -0.26636726 -0.2615796 -0.010043228 -0.023378843 -0.37931406 0.19630352
-0.3138755 -0.17494218 0.16647984 -0.15480757 0.16361713 -0.1903672 -0.017109182 -0.124448106
0.14446759 0.17779621 -0.16560632 -0.06163744 0.021456856 -0.10980487 0.046244174 0.16892904
-0.27112338 -0.2785155 -0.09555609 -0.03701271 0.052683745 0.053403407 -0.25209725 -0.124632016
0.20215987 -0.29000255 -0.24246432 0.07097572 -0.13691676 -0.22995666 0.15229006 0.078939274
-0.40589073 -0.13510586 -0.42292607 0.16126755 -0.14954391 0.21267322 -0.52173865 0.013041539
0.03426782 0.19062547 -0.90326595 -0.3783941 0.18245466 0.051809166 0.14427744 0.16701679
0.32681563 0.2849259 -0.14387909 -0.056812752 -0.12245333 -0.027340505 0.062596805 -0.40396073
0.1176044 0.14125623 0.1205139 -0.035002574 0.0021568513 -0.043228667 -0.07768769 0.3276619
0.13090278 -0.021182952 0.28088644 0.12392994 -0.26302695 -0.15293542 -0.24804428 -0.11921394
-0.051106464 -0.20464261 -0.2671874 -0.13069318 -0.24269864 0.21808264 -0.22160469 -0.2425466
0.14176476 -0.18970993 -0.16383478 -0.057053663 -0.10403925 -0.0019137886 -0.0267237 -0.13044816
00000000: 6694 c6bc c854 083d d41d 06be e240 ffbe
00000010: 6532 7bbe 834b 8dbe 8827 12bf c8f2 56be
00000020: e7a3 4a3e 4479 a03d dd76 bd3d eb73 eabd
00000030: d26c 183e ff62 eb3d 0fc3 8fbd 4779 483e
00000040: b858 8738 7be2 dcbe eaca 52bd 58b3 46be
00000050: eb07 263d 049a 2a3d 25e2 25be 5326 e5be
00000060: f6e7 5fbe 2177 e2bc 7016 823e d5d7 973c
00000070: 694b 183c 9899 573e 0ee6 663d e990 9a3e
00000080: 734c 743d 521f 18bd 9225 29be 2c7a 2ebe
00000090: 2022 0abf a90b a23e 3bd9 763c 8780 c5be
000000a0: c450 33bf 1f68 0c3e adf8 e8be 2e13 c4be
000000b0: dd94 7dbc e9d4 2dbe 082b d4bd 9624 8e3e
000000c0: 8ca9 213b fea4 893e 56c3 49bb 16e3 a3be
000000d0: 16f6 1e3c e17d 6cbe a789 b53d a544 1abd
000000e0: c9f9 8c3d 5f3a 62be 7c3a 2cbd 6b0d 13be
000000f0: 51d4 2b3d ee39 0e3d ebfe 85be e6c2 0f3d
00000100: ed26 dcbd fdbb ea3d e03b 4c3e 6021 983e
00000110: cfb3 02bf ecf9 fbbc 812b cc3c 424b 6fbd
00000120: 8a3b 3d3e 634c c7be aa03 6d3e d889 3fbe
00000130: 0777 2f3e ed55 91bd ad88 7dbe 0db5 b2be
00000140: 5729 debd fc1c de3d 5233 0bbe c51f 443e
00000150: 2d9c 043d 512c dabd 57b4 30be dc21 4b3e
00000160: cffa b43e 93cb ccbd 87a4 59be 92ca c1be
00000170: 96b1 293e e4b7 763e 10d7 93be de44 95bd
00000180: 2496 b5bd 64f7 9c3e 877d 0cbe 1acb 753d
00000190: ef09 063e a934 55be 1dd9 463e f900 6bbe
000001a0: d1d4 dfbd 2ac5 c73d 65b2 86be 19e8 dbbe
000001b0: f2a2 afbd 3845 023e d06b 6d3e ebb8 ccbd
000001c0: cc49 4b3e 4a60 af3d f1de ccbd f973 13be
000001d0: 4aee c93d 243b 07be 28cd e1bc f61e fcbe
000001e0: c692 523e 77fb 52be f7a1 44bd 61e0 0fbe
000001f0: 860e 5ebd a637 3abc c7ca 343e 7fbf d43d
00000200: 4876 f83d 45b5 50be 7bfe cf3d 0c61 3d3e
00000210: ece4 b0be cc74 803e 60f5 efbd 97ec 193e
00000220: eb50 5fbe a6b0 eebd c853 3d3e 84c4 703e
00000230: 5bba 52bb 1f5f 3abe 0ae7 a0be a14f c1bd
00000240: a2b6 08be 2d54 19bd e624 79be dc72 813c
00000250: ce5c 06be df53 15be 2640 7abe 0f40 03be
00000260: fc42 e5bd d416 03bd bd14 73be 6b2c a0bd
00000270: 7f73 78be 053b 87b8 8c69 27be f86d 523e
00000280: 97f5 6cbe 9923 fe3c 4a61 88be c3ed 85be
00000290: 5a8c 24bc fd84 bfbc 7435 c2be ca03 493e
000002a0: 4ab4 a0be 0b24 33be b179 2a3e e085 1ebe
000002b0: 408b 273e 9fef 42be 8e28 8cbc a6de febd
000002c0: 50ef 133e 3610 363e b494 29be 8a77 7cbd
000002d0: 4ac6 af3c 60e1 e0bd 886a 3d3d bcfb 2c3e
000002e0: afd0 8abe 9599 8ebe e9b2 c3bd a49a 17bd
000002f0: e9ca 573d 88bd 5a3d e412 81be 123f ffbd
00000300: ff02 4f3e 377b 94be 9148 78be b85b 913d
00000310: e833 0cbe c279 6bbe edf1 1b3e eaaa a13d
00000320: e9d0 cfbe 3159 0abe c489 d8be 5223 253e
00000330: 0a22 19be 02c7 593e aa90 05bf 2eac 553c
00000340: 6a5c 0c3d 5333 433e 703c 67bf dfbc c1be
00000350: 65d5 3a3e d935 543d 77bd 133e 7306 2b3e
00000360: 6154 a73e cfe1 913e 0a55 13be 7db4 68bd
00000370: d0c8 fabd 32f9 dfbc c132 803d f1d3 cebe
00000380: 93da f03d 79a5 103e fecf f63d dc5e 0fbd
00000390: f659 0d3b 8b10 31bd b91a 9fbd 4dc3 a73e
000003a0: 610b 063e df87 adbc 59d0 8f3e fbce fd3d
000003b0: 78ab 86be 1a9b 1cbe 52ff 7dbe 7026 f4bd
000003c0: 0355 51bd d58d 51be c9cc 88be 6fd4 05be
000003d0: fe85 78be 0e51 5f3e 57ec 62be 235e 78be
000003e0: c82a 113e 5243 42be 4ec4 27be 1ab1 69bd
000003f0: 8812 d5bd 17d8 faba a9eb dabc 3494 05be

encoder.conv.convs.3.bias f4 [20]
0.05763689 0.07432848 0.085537426 0.05809463 -0.045841645 0.026230939 0.035746932 0.009830989
0.051291015 -0.018048652 -0.027396442 0.053709365 0.061415344 -0.029382719 0.070506975 -0.06591503
-0.0076562054 0.0569934 0.06682491 0.022658937
00000000: a914 6c3d 8839 983d 3f2e af3d a2f4 6d3d
00000010: 73c4 3bbd 44e2 d63c 606b 123d 2812 213c
00000020: 8716 523d c4da 93bc 816e e0bc 5afe 5b3d
00000030: a88e 7b3d 07b4 f0bc f665 903d 76fe 86bd
00000040: e8e0 fabb e971 693d 80db 883d 3c9f b93c

encoder.conv.convs.3.lin.weight f4 [20, 40]
-0.28124428 0.088329 0.1326391 0.19011167 0.1643669 0.042003836 -0.07137608 0.18311878
0.019918885 0.18468806 0.2511787 -0.015925488 -0.12389567 -0.09706288 -0.15655273 -0.22680253
-0.7024745 -0.5047652 -0.3875151 -0.22321618 -0.061742965 -0.3346348 -0.5092616 0.16615379
-0.31127533 -0.28579274 0.14614117 0.25787202 -0.033715587 0.28855947 -0.019865202 -0.14502826
-0.53787524 0.2815831 0.012398035 -0.08930787 -0.4715827 0.14685155 0.19664553 0.08864973
-0.29218087 -0.29240716 -0.26968777 0.09196145 0.25748733 -0.3503708 -0.30044162 -0.5269222
0.15978946 0.3266424 0.23948207 -0.22383189 0.0866791 0.2496144 0.05757638 0.2812669
0.09273968 0.04215694 0.116127826 0.060037103 0.28101036 0.20120303 0.13536371 -0.16726163
0.09232047 -0.07143675 0.2042967 0.25609052 0.2559575 -0.1352814 0.15485366 0.10521485
0.058562838 -0.034768254 0.16536947 -0.18078406 -0.16727823 -0.2869444 -0.24441515 0.23873632
-0.26132697 -0.17953652 0.28079155 0.19859484 -0.014791046 -0.2098745 0.22328822 0.29529488
0.18682063 -0.08514209 0.102721095 -0.28742227 0.30242455 0.26464108 0.08928373 -0.45294365
0.24146032 0.09704364 -0.33637503 0.21312256 -0.13495913 0.25750497 0.2424443 -0.3441417
-0.530971 0.13513161 0.19556785 0.24342299 -0.24162601 -0.13620079 0.078305066 -0.121604554
-0.73801225 0.37423265 -0.344663 -0.17345849 -0.15994546 0.33314022 -0.23647876 -0.21022293
0.07955959 -0.26777473 -0.5151671 0.24003124 -0.15313964 -0.30166987 -0.23713094 0.21910349
0.22145887 0.26072448 -0.25744477 0.020507438 0.20346098 0.036866236 0.232021 -0.13440394
0.07933703 0.14175579 -0.240755 0.082684234 0.111823335 -0.45974702 0.027238142 0.19973458
-0.13292211 -0.01939323 0.25765702 0.09832207 0.21322943 0.19717911 0.11438944 0.22970577
0.050119665 -0.22289896 -0.12312008 0.030680796 0.12687631 -0.09296657 -0.34784055 -0.104316354
0.13805436 0.15910639 0.43128002 0.16394609 -0.115932904 0.11215062 0.09451196 -0.037373837
-0.15441212 0.22619756 0.19328511 0.21037324 -0.02531296 -0.18798213 0.28177038 0.2342645
-0.22676122 -0.029907059 -0.12120189 0.116579786 -0.00664859 -0.15600862 0.16205265 0.25713438
-0.0071918257 -0.23674788 -0.31471503 0.0649778 0.11731631 0.045558263 -0.14185299 0.18431877
0.23511212 0.31530607 -0.16223066 0.059228837 0.076413035 -0.076167665 0.24752034 -0.008397621
-0.20483647 0.051389948 -0.026169086 -0.30646333 -0.0731433 0.21762909 -0.15754767 -0.42275533
-0.28829962 0.043552153 0.32036382 0.10700983 -0.21911205 0.25699833 -0.22124745 -0.38238075
-0.021861797 -0.5727158 -0.13827313 -0.19532768 0.23759885 0.33046558 -0.25076497 0.015188999
0.0062014284 -0.49618423 -0.06048034 -0.043227304 -0.29330218 -0.39415112 0.16485263 0.33060446
-0.49772403 0.33515432 0.016788676 0.24421048 -0.51374406 -0.3204897 -0.10853103 0.1788393
-0.18609208 -0.1263162 -0.31279263 0.16218537 -0.057675365 0.24479187 -0.17445928 0.063023746
0.2668411 0.32265636 0.30310297 -0.24749888 0.004067955 0.10455737 -0.08316202 -0.3563774
00000000: 40ff 8fbe d6e5 b43d 8bd2 073e a2ac 423e
00000010: cc4f 283e 370c 2c3d 9f2d 92bd 7d83 3b3e
00000020: ee2c a33c de1e 3d3e 7f9a 803e 2b76 82bc
00000030: 03bd fdbd e7c8 c6bd 5c4f 20be ec3e 68be
00000040: 5ed5 33bf 4b38 01bf 6168 c6be c892 64be
00000050: 31e6 7cbd 4155 abbe f85e 02bf 3824 2a3e
00000060: 7b5f 9fbe 6d53 92be 08a6 153e cd07 843e
00000070: 5b19 0abd 11be 933e 59bc a2bc 4a82 14be
00000080: 31b2 09bf a92b 903e 2121 4b3c 0be7 b6bd
00000090: 4a73 f1be 4160 163e 725d 493e fd8d b53d
000000a0: bb98 95be 64b6 95be 8414 8abe 4956 bc3d
000000b0: 61d5 833e cd63 b3be 7cd3 99be 60e4 06bf
000000c0: d99f 233e ac3d a73e ca3a 753e 3034 65be
000000d0: d084 b13d eb9a 7f3e 36d5 6b3d 3702 903e
000000e0: 4dee bd3d c1ac 2c3d 6dd4 ed3d 77e9 753d
000000f0: 97e0 8f3e 2b08 4e3e c99c 0a3e a246 2bbe
00000100: 8412 bd3d 6e4d 92bd 2733 513e 4c1e 833e
00000110: dd0c 833e 3587 0abe f591 1e3e e27a d73d
00000120: 96df 6f3d 2869 0ebd 9d56 293e 751f 39be
00000130: fc4a 2bbe 60ea 92be f747 7abe 4b77 743e
00000140: a6cc 85be 6cd8 37be e9c3 8f3e 725c 4b3e
00000150: 2556 72bc 57e9 56be aba5 643e e430 973e
00000160: e84d 3f3e fa5e aebd 705f d23d 0329 93be
00000170: 64d7 9a3e 097f 873e 63da b63d 3be8 e7be
00000180: 6041 773e d1be c63d 5939 acbe cd3c 5a3e
00000190: ba32 0abe b1d7 833e 5243 783e 5733 b0be
000001a0: b7ed 07bf f15f 0a3e f042 483e e043 793e
000001b0: cf6c 77be 3878 0bbe 685e a03d cf0b f9bd
000001c0: 5fee 3cbf 6c9b bf3e ab77 b0be 1a9f 31be
000001d0: bec8 23be 5b91 aa3e 7d27 72be ae44 57be
000001e0: 23f0 a23d c519 89be fee1 03bf c0ca 753e
000001f0: a3d0 1cbe 7974 9abe 74d2 72be aa5c 603e
00000200: 1dc6 623e ae7d 853e cdcf 83be 37ff a73c
00000210: 1358 503e 0d01 173d ea96 6d3e 30a1 09be
00000220: 747b a23d 6e28 113e 7b88 76be 5a56 a93d
00000230: a203 e53d f663 ebbe 8622 df3c 3987 4c3e
00000240: bc1c 08be 8dde 9ebc 9feb 833e 155d c93d
00000250: d158 5a3e 52e9 493e 0345 ea3d fd37 6b3e
00000260: 474a 4d3d a03f 64be 6126 fcbd 4b56 fb3c
00000270: ddeb 013e 4265 bebd 2818 b2be d0a3 d5bd
00000280: 1f5e 0d3e c9ec 223e bcd0 dc3e 7ce1 273e
00000290: 3b6e edbd 39af e53d 7d8f c13d 4f15 19bd
000002a0: 361e 1ebe 55a0 673e 88ec 453e 156c 573e
000002b0: 205d cfbc 637e 40be 3544 903e 08e3 6f3e
000002c0: 1834 68be a6ff f4bc b238 f8bd 62c1 ee3d
000002d0: 6adc d9bb b9c0 1fbe 21f1 253e 1ea7 833e
000002e0: 68a9 ebbb 096e 72be 5422 a1be 1513 853d
000002f0: 8943 f03d 4d9b 3a3d e941 11be 0fbe 3c3e
00000300: 3bc1 703e cc6f a13e cb1f 26be f099 723d
00000310: 707e 9c3d cbfd 9bbd f975 7d3e 2d96 09bc
00000320: a7c0 51be 447e 523d 8d60 d6bc c3e8 9cbe
00000330: 28cc 95bd 29da 5e3e 2d54 21be 6373 d8be
00000340: 029c 93be be63 323d ba06 a43e f827 db3d
00000350: e95e 60be 4995 833e b18e 62be 69c7 c3be
00000360: 8317 b3bc 819d 12bf 7997 0dbe fb03 48be
00000370: 1d4d 733e c932 a93e 4464 80be 47db 783c
00000380: 5a35 cb3b dc0b febe 3cba 77bd 1d0f 31bd
00000390: b42b 96be 2dce c9be 21cf 283e fd44 a93e
000003a0: afd5 febe 5999 ab3e 6888 893c 5012 7a3e
000003b0: bb84 03bf 3a17 a4be 8445 debd a621 373e
000003c0: ec8e 3ebe 0959 01be 5b26 a0be ec13 263e
000003d0: 013d 6cbd b8aa 7a3e 74a5 32be 9812 813d
000003e0: 669f 883e 3733 a53e 5030 9b3e 5970 7dbe
000003f0: 7b4c 853b 2d22 d63d d950 aabd 1977 b6be

encoder.embed_x.weight f4 [28, 40]
-0.4151025 -0.44927084 -0.45587397 -0.6019932 0.5697626 0.47524232 -0.9921272 0.8485326
0.54905653 -0.49897432 0.021905731 -1.0136863 -1.2744887 2.7105808 1.3092984 0.4512976
-2.0646222 -0.5697389 1.599663 0.032566752 -0.74074644 0.8178567 -0.9400785 -0.3079244
0.4662883 -0.3408346 0.70799756 0.17226908 0.49105492 -0.4829084 1.0792634 1.0265911
-0.39204592 1.830958 0.36926115 0.15723322 0.43070093 0.9855474 -0.276807 -0.08645317
-1.329066 -0.38368696 1.3608658 1.9638616 -2.7563086 0.17523971 0.25167406 -1.5921366
-0.5301484 1.4096868 0.2947528 2.0226865 1.0520803 0.5319453 0.8143074 -1.1646972
-0.3394684 -0.40086588 -2.3883333 -1.4210577 -0.25548705 -0.8429136 1.7023287 -1.088384
1.4068185 -0.954227 -1.9369526 0.5340215 -1.050889 -2.1205602 0.5546498 -0.07832885
0.16137156 -2.0042102 0.65973645 2.6779528 -0.6365628 -1.0572684 1.0875744 1.7726992
-0.5905997 -0.54900813 -0.17695732 -0.001598743 1.0687361 0.2880454 2.3330524 -1.9113966
0.99655783 -2.237889 1.4156258 -0.6841413 -0.91661954 -0.23426072 0.74607295 0.38402408
1.8510386 -0.27116644 -1.7540689 -1.437014 -0.010111128 -1.1586926 0.9451969 -0.44113216
0.3148357 0.14260277 -0.7690828 -0.76804465 0.78330845 0.91930956 -0.3179304 1.4954734
-0.15820429 1.0637261 0.61225724 0.2771168 -0.23265395 0.3789262 -0.87883407 -0.5061981
1.776032 2.117852 1.2196795 1.0052657 -0.5451438 -0.8257074 0.9724802 0.12687258
0.29916131 -0.51486456 -3.189582 0.41833246 1.1512145 -1.5344898 -1.4177848 0.76707715
-0.66068596 0.64761716 0.18468206 -0.866071 0.21129602 -0.3795457 -1.4711661 -1.5354177
1.014417 0.8956991 1.0209248 0.80908877 -1.8923492 -1.7817782 -1.3844846 0.34525618
0.08321839 0.4570832 -2.4779322 -0.13938352 -1.122928 1.344447 0.29553542 -0.3222737
-0.16630371 -0.2198584 -0.59452844 0.39563814 0.99679375 1.8658395 0.080367036 1.4540998
-1.2217791 1.4182961 1.8514711 -1.260742 -0.31532285 0.0037284745 0.29162332 0.28246576
-0.30754247 -0.22364187 1.2776023 -0.7758698 0.004183245 0.31574365 0.6948782 1.8236245
-0.8043885 0.32498547 -1.2916886 0.6607758 1.9615643 1.2920214 -1.1691462 0.36760628
1.2933469 -0.35469204 3.3568366 1.1838564 1.7406722 -1.3204924 0.6987616 -0.18850094
-0.8632511 -0.23751517 -1.2052277 0.2186184 1.7212796 -1.3361278 -1.3885758 -2.133816
-0.2661222 0.9172351 -0.77008057 -1.5595471 0.5160398 -0.64152104 0.92922926 0.64924645
1.5432473 3.2270055 0.992441 2.1310267 -1.1578298 0.008712507 1.7734221 0.042514518
0.687453 -1.6444045 0.2467751 -1.0844418 -0.8285416 0.74242765 -0.18253513 0.9557467
1.1376114 0.10884809 0.47480974 0.050000288 -0.9001845 2.3256679 -0.16431066 0.44222194
1.1996912 1.6629348 0.7402779 -1.3494005 1.0893714 0.25452 -0.99724215 1.0806264
-0.18945652 0.11842375 -2.0569139 0.43029034 0.3510176 -0.8633739 -1.5936688 0.33144176
00000000: 5188 d4be d406 e6be 5068 e9be 3a1c 1abf
00000010: f6db 113f f652 f33e 0cfc 7dbf 6f39 593f
00000020: f88e 0c3f 9079 ffbe a673 b33c 79c0 81bf
00000030: 7222 a3bf 287a 2d40 1797 a73f 7b10 e73e
00000040: c522 04c0 69da 11bf c2c1 cc3f b764 053d
00000050: 8fa1 3dbf 0f5f 513f fca8 70bf 44a8 9dbe
00000060: 57bd ee3e df81 aebe 543f 353f 4e67 303e
00000070: 8d6b fb3e c53f f7be 4e25 8a3f 5667 833f
00000080: 3eba c8be d55c ea3f cc0f bd3e bf01 213e
00000090: d584 dc3e d64c 7c3f a6b9 8dbe 5c0e b1bd
000000a0: d61e aabf 9e72 c4be da30 ae3f d15f fb3f
000000b0: 5c67 30c0 0a72 333e 6cdb 803e 22cb cbbf
000000c0: ceb7 07bf 9e70 b43f d7e9 963e b273 0140
000000d0: 91aa 863f 912d 083f 7376 503f cc14 95bf
000000e0: cdce adbe 4b3e cdbe 74da 18c0 38e5 b5bf
000000f0: 33cf 82be 30c9 57bf e8e5 d93f 2b50 8bbf
00000100: a112 b43f 3848 74bf 10ee f7bf a2b5 083f
00000110: 8883 86bf 42b7 07c0 87fd 0d3f e06a a0bd
00000120: 963e 253e fb44 00c0 7de4 283f 9463 2b40
00000130: c8f5 22bf 9254 87bf a335 8b3f cfe7 e23f
00000140: 8b31 17bf cc8b 0cbf 4d34 35be ea8c d1ba
00000150: 58cc 883f b07a 933e bb50 1540 a5a8 f4bf
00000160: 6a1e 7f3f 9339 0fc0 3a33 b53f e223 2fbf
00000170: 94a7 6abf 0be2 6fbe a3fe 3e3f ce9e c43e
00000180: d5ee ec3f 54d6 8abe 5485 e0bf 13f0 b7bf
00000190: 25a9 25bc 0a50 94bf 6df8 713f 13dc e1be
000001a0: 2532 a13e 7606 123e 9ce2 44bf 939e 44bf
000001b0: e786 483f df57 6b3f c6c7 a2be ac6b bf3f
000001c0: 4e00 22be 2d28 883f e4bc 1c3f 41e2 8d3e
000001d0: d63c 6ebe 9d02 c23e 45fb 60bf 3396 01bf
000001e0: 0455 e33f e38a 0740 751e 9c3f 8cac 803f
000001f0: 8b8e 0bbf 8f61 53bf 76f4 783f e3ea 013e
00000200: ac2b 993e 2ace 03bf 1d22 4cc0 ac2f d63e
00000210: ff5a 933f 296a c4bf f979 b5bf 2b5f 443f
00000220: b722 29bf 3dca 253f 4b1d 3d3e d4b6 5dbf
00000230: fc5d 583e d053 c2be 2c4f bcbf 9188 c4bf
00000240: 6bd8 813f 894c 653f aaad 823f 7120 4f3f
00000250: 8038 f2bf 4f11 e4bf cb36 b1bf 6bc5 b03e
00000260: 676e aa3d cf06 ea3e 7196 1ec0 8eba 0ebe
00000270: 1bbc 8fbf d716 ac3f 6b50 973e 0f01 a5be
00000280: 854b 2abe 8f22 61be 0433 18bf 1591 ca3e
00000290: e02d 7f3f d4d3 ee3f 7997 a43d f11f ba3f
000002a0: 4263 9cbf ba8a b53f 01fd ec3f fe5f a1bf
000002b0: ff71 a1be 6c59 743b a74f 953e 5a9f 903e
000002c0: 3576 9dbe 6002 65be 7988 a33f 679f 46bf
000002d0: 9a13 893b 27a9 a13e 8ae3 313f 876c e93f
000002e0: 68ec 4dbf 7f64 a63e 0d56 a5bf 9a28 293f
000002f0: 8a14 fb3f f560 a53f 95a6 95bf e436 bc3e
00000300: 648c a53f 329a b5be 69d6 5640 9b88 973f
00000310: 59ce de3f e505 a9bf 0ae2 323f 6406 41be
00000320: 06fe 5cbf 2d37 73be e744 9abf 80dd 5f3e
00000330: e452 dc3f 3c06 abbf dabc b1bf 7190 08c0
00000340: 2b41 88be ebcf 6a3f 0024 45bf 3d9f c7bf
00000350: 2f1b 043f b93a 24bf f8e1 6d3f 0435 263f
00000360: 2189 c53f 4287 4e40 9d10 7e3f be62 0840
00000370: c433 94bf e7be 0e3c 7fff e23f b423 2e3d
00000380: ebfc 2f3f d97b d2bf 9db2 7c3e fdce 8abf
00000390: 4d1b 54bf bd0f 3e3f 7dea 3abe d1ab 743f
000003a0: 409d 913f bfeb de3d 431a f33e 1acd 4c3d
000003b0: 7e72 66bf bed7 1440 0e41 28be ea6a e23e
000003c0: 7b8f 993f 0cdb d43f da82 3d3f 28b9 acbf
000003d0: 8670 8b3f 7250 823e 434b 7fbf f751 8a3f
000003e0: e400 42be 2788 f23d 7aa4 03c0 044f dc3e
000003f0: 94b8 b33e 1206 5dbf 57fd cbbf bcb2 a93e

encoder.trans_linear.weight f4 [40, 5]
0.54187095 -0.19434378 0.16049416 0.05134097 0.11084909 -1.0847768 0.221391 -0.2249498
0.20448531 -0.13524593 0.84720653 -0.10872113 0.19020805 0.311975 0.07775334 0.8924497
0.3897377 0.30970997 -0.41428718 -0.3261616 0.49338934 0.07580489 -0.25946134 0.2542582
0.22381468 0.34262273 -0.30077288 0.21730465 -0.23858112 -0.15934047 -0.6561417 -0.0016345835
-0.36819327 -0.17415392 0.0362833 -0.013898733 0.0060077123 0.124715015 -0.0061040833 -0.15873942
-0.6710255 0.058245014 0.32078624 0.053628456 0.088554725 -0.6133587 -0.08667 -0.16525143
0.277446 -0.0075712497 -0.51628894 0.18360649 -0.42627564 -0.100140624 0.1541653 0.03290959
-0.33353332 -0.3095546 0.024842259 -0.015619691 0.61402565 -0.14393489 0.052203234 -0.323251
-0.3791517 -0.3428442 0.10897671 0.29639855 -0.031628136 -0.30249754 -0.7097757 0.10342501
-0.22549269 0.1357009 0.31653884 -0.5641141 -0.116326526 0.4939614 -0.011739748 0.24639402
0.35017848 0.04481302 0.1395743 -0.1849221 -0.11467189 0.033504516 0.12263423 0.066749275
0.23966178 -0.051306155 0.008415472 -0.095395245 0.057735942 -0.26838496 0.17574275 0.20331484
0.1879917 -0.22390883 -0.19015141 -0.030841334 0.8655284 0.114560105 -0.25986576 0.023967009
0.37194732 -0.8839339 0.042329613 0.48898402 0.20345093 -0.22562401 -0.92277306 -0.33064884
-0.30069575 -0.20196883 -0.29351816 1.182438 -0.25881162 -0.022431115 -0.365647 -0.14378518
-0.22681119 -0.23169415 -0.2441894 -0.13252594 -0.33273515 0.93787074 0.19123648 -0.11596481
-0.016420811 -0.15039742 0.9552585 -0.14142962 -0.14898382 -0.08992314 -0.32293403 -0.40001157
0.3766708 -0.17771465 -0.16285829 0.018052181 0.5480958 -0.0051763775 -0.18496756 -0.27502903
-0.23014592 0.032255754 -0.262861 0.13161564 0.22039856 -0.29489782 -0.8690795 0.058186088
-0.31438303 -0.27495125 -0.33121145 0.35773483 -0.2519735 -0.14891061 0.25578925 -0.2775737
0.6599166 -0.05666427 -0.01214854 0.3700975 0.3196083 -0.2412367 0.05061046 0.2045459
0.087795295 -0.34381875 0.36403042 -0.07887744 0.2433435 -0.05163354 -0.15100665 0.064608626
-0.13622405 0.1890963 -0.005455405 -0.036625914 0.4785696 -0.004953211 0.29694843 0.35853887
-0.11508978 -0.29967868 -0.02659241 0.17962858 -0.016120754 0.07068822 0.37062243 0.23987973
0.007840709 -0.013951162 -0.20301756 0.25635275 -0.12361614 0.1850256 -0.12546425 0.08141557
00000000: 0eb8 0a3f 0e02 47be 9558 243e e94a 523d
00000010: d904 e33d f7d9 8abf 53b4 623e 3e59 66be
00000020: 9964 513e e97d 0abe 87e2 583f 2fa9 debd
00000030: e6c5 423e 30bb 9f3e 253d 9f3d 9577 643f
00000040: b38b c73e 4e92 9e3e 731d d4be a7fe a6be
00000050: 879d fc3e 983f 9b3d 1ed8 84be 212e 823e
00000060: ad2f 653e 3f6c af3e e7fe 99be 1c85 5e3e
00000070: 9c4e 74be 262a 23be e7f8 27bf 853f d6ba
00000080: d483 bcbe 6855 32be cc9d 143d 83b7 63bc
00000090: 58dc c43b 966a ff3d c304 c8bb 968c 22be
000000a0: 54c8 2bbf 5392 6e3d 183e a43e 83a9 5b3d
000000b0: 2e5c b53d 1305 1dbf 0a80 b1bd ac37 29be
000000c0: 670d 8e3e 3f18 f8bb 832b 04bf 5703 3c3e
000000d0: cd40 dabe 8716 cdbd 82dd 1d3e 35cc 063d
000000e0: e1c4 aabe f17d 9ebe fe81 cb3c bce9 7fbc
000000f0: c930 1d3f ab63 13be 0fd3 553d 2881 a5be
00000100: 2c20 c2be 4689 afbe 2e2f df3d 8dc1 973e
00000110: 818c 01bd f5e0 9abe dcb3 35bf 7ed0 d33d
00000120: 8ee7 66be 2df5 0a3e 6111 a23e c869 10bf
00000130: 9a3c eebd 82e8 fc3e 1258 40bc b74e 7c3e
00000140: 984a b33e db8d 373d 91ec 0e3e 385c 3dbe
00000150: 19d9 eabd 083c 093d a827 fb3d d8b3 883d
00000160: e669 753e 6726 52bd 0ce1 093c 955e c3bd
00000170: 867c 6c3d c169 89be e8f5 333e c431 503e
00000180: e580 403e 5b48 65be 0db7 42be f7a6 fcbc
00000190: 4593 5d3f 7d9e ea3d 200d 85be 7656 c43c
000001a0: e16f be3e 7e49 62bf d161 2d3d 1d5c fa3e
000001b0: 7155 503e fb09 67be db3a 6cbf ce4a a9be
000001c0: cbf4 99be ebd0 4ebe 0348 96be 215a 973f
000001d0: f582 84be 75c1 b7bc 1536 bbbe 6c3c 13be
000001e0: 3141 68be 3b41 6dbe c90c 7abe e1b4 07be
000001f0: 435c aabe 4c18 703f 7fd3 433e f57e edbd
00000200: f084 86bc c801 1abe d28b 743f edd2 10be
00000210: 378f 18be a029 b8bd 9c57 a5be 51ce ccbe
00000220: ffda c03e d4fa 35be 53c4 26be 2be2 933c
00000230: 0250 0c3f 9a9e a9bb 2368 3dbe 9bd0 8cbe
00000240: 5fab 6bbe 9c1e 043d b895 86be 40c6 063e
00000250: 29b0 613e d9fc 96be fe7b 5ebf 8954 6e3d
00000260: d0f6 a0be 69c6 8cbe 8c94 a9be 0529 b73e
00000270: ac02 81be 067c 18be cff6 823e 241e 8ebe
00000280: 4bf0 283f cb18 68bd ab0a 47bc 6b7d bd3e
00000290: b3a3 a33e c106 77be ea4c 4f3d 7b74 513e
000002a0: 05ce b33d 0309 b0be 3262 ba3e 7f8a a1bd
000002b0: 0a2f 793e b17d 53bd 7da1 1abe 8751 843d
000002c0: 517e 0bbe 76a2 413e 41c3 b2bb 0e05 16bd
000002d0: 1307 f53e 8c4e a2bb a009 983e 6892 b73e
000002e0: 31b4 ebbd 7c6f 99be 53d8 d9bc 8ef0 373e
000002f0: ac0f 84bc fcc4 903d 39c2 bd3e 08a3 753e
00000300: 5176 003c 6a93 64bc d6e3 4fbe ab40 833e
00000310: 752a fdbd 5a77 3d3e b379 00be 35bd a63d

encoder.trans_linear.bias f4 [40]
-0.086208045 -0.04202064 0.11029085 -0.17855804 0.05948293 0.09589127 0.1278681 -0.20795782
-0.11841148 0.42047405 0.35309663 -0.2616856 0.040021874 0.032632213 0.34447515 0.051450077
-0.075229764 -0.15131508 -0.21309912 0.21477468 0.44608063 -0.07013005 -0.27283406 0.33603343
-0.16173013 0.24173187 -0.14028594 0.12522365 0.19757243 -0.17719352 -0.2430864 -0.1549231
0.015890827 -0.36228165 -0.18969342 -0.38930103 -0.10141288 0.15052852 0.17450343 0.1669459
00000000: d88d b0bd d61d 2cbd 2be0 e13d ebd7 36be
00000010: 5fa4 733d a462 c43d dbef 023e e5f2 54be
00000020: b881 f2bd 6048 d73e 15c9 b43e a8fb 85be
00000030: faed 233d 5ba9 053d 0c5f b03e 51bd 523d
00000040: 1012 9abd 57f2 1abe a836 5abe e5ed 5b3e
00000050: ae64 e43e 58a0 8fbd e8b0 8bbe 930c ac3e
00000060: 959c 25be 8f88 773e 1ea7 0fbe a13a 003e
00000070: 6d50 4a3e 3872 35be a4eb 78be 29a4 1ebe
00000080: 7b2d 823c fb7c b9be fe3e 42be 7752 c7be
00000090: 8eb1 cfbd 2624 1a3e 07b1 323e def3 2a3e

encoder.conv_mu.bias f4 [20]
0.017006537 0.017148254 0.116523735 0.08949295 0.0946095 -0.039799903 -0.098182596 0.06251398
0.016567035 -0.06621188 -0.0001970013 -0.0032249775 -0.018723086 0.021172862 0.05893855 0.026470425
0.0617805 -0.084590144 -0.01271404 -0.023392498
00000000: 4b51 8b3c 7f7a 8c3c ffa3 ee3d 1448 b73d
00000010: a0c2 c13d 3905 23bd f513 c9bd 5407 803d
00000020: 97b7 873c 189a 87bd 2292 4eb9 255a 53bb
00000030: 2861 99bc b672 ad3c 8d69 713d 81d8 d83c
00000040: 8d0d 7d3d 993d adbd 8d4e 50bc a0a1 bfbc

encoder.conv_mu.lin.weight f4 [20, 20]
0.0043297745 0.45934242 -0.326316 -0.097094886 -0.035993226 0.42444712 -0.04011051 -0.12806362
0.4214096 -0.30819055 0.07429801 -0.23135482 -0.30756155 -0.32628733 -0.43782827 0.2397821
0.044954542 -0.30914003 0.13117856 0.08381044 0.08118283 -0.017338585 0.24516268 -0.06261298
-0.028304527 -0.30592236 -0.18524516 -0.08293352 0.15597846 0.39623252 -0.24164593 -0.11405438
0.25876582 -0.5229382 0.59169704 0.24151075 0.3087681 -0.64830804 -0.20508485 0.39486504
-0.5912487 -0.13779473 0.3589249 0.003625845 -0.29389602 0.1626788 -0.024306836 0.022613788
0.27739367 -0.38670975 0.13535249 -0.20861602 -0.11044686 0.050924275 0.5095586 -0.33245167
-0.31602985 -0.08149448 0.02356675 0.09001111 -0.22180732 -0.31150237 -0.08469992 0.6196394
0.07756382 0.026776088 -0.10626004 0.08014262 -0.0018330875 -0.44679952 0.2536045 -0.13787606
0.4810946 -0.28068233 0.5563082 0.13816702 0.004575098 0.20704567 0.25922814 -0.22173941
0.14810175 -0.26566616 -0.33607507 0.2220065 -0.20399256 0.33060798 -0.24580052 0.16500434
-0.31428593 0.26768667 -0.015109804 0.16312881 0.11625887 0.3238693 -0.0830491 -0.15346172
0.12980536 -0.01828109 0.58244663 0.2609054 0.121421166 -0.1526681 0.12109778 0.26459074
-0.06421763 0.3611937 0.332942 -0.19497076 -0.011555575 -0.4557245 0.27727962 -0.09314569
0.064158104 0.20038922 -0.09282082 0.047828168 -0.12468531 0.044449393 -0.042376813 0.04827102
0.4933806 0.112908535 -0.13982846 -0.2470863 0.08696473 -0.29104874 0.16270414 0.10882738
0.07449819 -0.28941396 0.028784739 -0.35460085 -0.094353504 0.038650367 0.36081243 -0.27196807
0.29540503 -0.22948067 0.05773209 -0.1600098 0.11746478 -0.0040620933 -0.5218361 -0.07768629
-0.051175743 -0.31874073 0.5211694 -0.13926928 -0.06310668 0.3294942 -0.20440805 -0.20123115
0.1770196 -0.31015584 0.40677577 0.24420579 -0.01886699 0.63925624 -0.2924923 0.28976905
0.4359538 -0.21345001 -0.32392102 0.27309227 -0.2489534 0.26608735 0.09850917 -0.018440101
0.1658877 -0.0445601 0.1726579 0.4061806 -0.0682589 -0.2272825 0.34019822 0.06299896
-0.28113192 -0.22018413 0.10778658 -0.4045177 0.11424193 -0.15627857 0.08538332 -0.29727647
0.026356312 0.354186 -0.029828772 -0.056246884 0.19494809 -0.13012291 0.3425938 0.21272904
-0.08155623 0.062355027 0.4925137 -0.2167022 0.028598288 0.80026644 0.00974221 -0.71331644
0.21733426 0.0878436 0.44721097 -0.20688324 0.22010367 -0.20762095 -0.27439627 -0.10347409
0.098609105 0.088589646 0.27503008 0.095951654 -0.5312712 -0.15307906 -0.30213842 -0.2991658
-0.23604232 -0.6093715 -0.37513816 0.46991348 -0.04952556 -0.35380372 0.4236326 0.39177057
0.36854383 -0.06676441 -0.062785074 -0.2931847 0.28417426 -0.5612912 -0.25207463 -0.2714441
-0.28253946 -0.3582082 -0.051734902 -0.28338456 -0.124225564 0.008276626 0.19075064 0.49465334
-0.3693346 -0.47683436 0.15375386 -0.48695046 0.2560464 0.05660794 0.11172409 0.20855673
0.24920641 -0.15145987 0.0981099 -0.04887086 0.46583614 -0.2141887 -0.17798616 0.31436867
00000000: c8e0 8d3b ee2e eb3e e412 a7be afd9 c6bd
00000010: a26d 13bd 2251 d93e eb4a 24bd 1c23 03be
00000020: 00c3 d73e 27cb 9dbe 8e29 983d 47e8 6cbe
00000030: b578 9dbe 220f a7be 072b e0be 7089 753e
00000040: 4122 383d 9a47 9ebe ac53 063e cfa4 ab3d
00000050: 2f43 a63d a609 8ebc ed0b 7b3e 3c3b 80bd
00000060: e5de e7bc dba1 9cbe e8b0 3dbe 0dd9 a9bd
00000070: d1b8 1f3e fdde ca3e 0872 77be 5895 e9bd
00000080: f47c 843e 47df 05bf 7579 173f 984e 773e
00000090: da16 9e3e 84f7 25bf c301 52be c02b ca3e
000000a0: 135c 17bf 101a 0dbe 01c5 b73e 969f 6d3b
000000b0: 8a79 96be 4595 263e 211f c7bc 8d40 b93c
000000c0: 8b06 8e3e d2fe c5be d899 0a3e 709f 55be
000000d0: f731 e2bd f995 503d 6f72 023f 1b37 aabe
000000e0: aace a1be 94e6 a6bd 0f0f c13c bf57 b83d
000000f0: 7521 63be 3d7d 9fbe 2777 adbd b0a0 1e3f
00000100: c8d9 9e3d 8759 db3c dd9e d9bd d021 a43d
00000110: 3644 f0ba e8c2 e4be 73d8 813e 622f 0dbe
00000120: 0852 f63e 98b5 8fbe 376a 0e3f a87b 0d3e
00000130: b4ea 953b c803 543e 8db9 843e a80f 63be
00000140: fca7 173e 6505 88be 0812 acbe ac55 633e
00000150: 6de3 50be 7345 a93e 22b3 7bbe e6f6 283e
00000160: 16ea a0be 3a0e 893e 1d8f 77bc 3d0b 273e
00000170: 2119 ee3d 32d2 a53e a615 aabd 1225 1dbe
00000180: b2eb 043e 39c2 95bc 391b 153f 6595 853e
00000190: a9ab f83d 0755 1cbe 1d02 f83d 7078 873e
000001a0: 8884 83bd 61ee b83e 6077 aa3e 6aa6 47be
000001b0: 9853 3dbc b954 e9be 98f7 8d3e 2bc3 bebd
000001c0: 5365 833d d532 4d3e d818 bebd 78e7 433d
000001d0: 035b ffbd 9110 363d 4f93 2dbd d5b7 453d
000001e0: 629c fc3e 973c e73d 312f 0fbe 3104 7dbe
000001f0: 901a b23d 5704 95be ea9b 263e e4e0 de3d
00000200: 8292 983d 112e 94be f9cd eb3c 3e8e b5be
00000210: 693c c1bd d94f 1e3d 68bc b83e 663f 8bbe
00000220: 543f 973e fbfc 6abe 7c78 6c3d 9cd9 23be
00000230: 6091 f03d 4f1b 85bb 0d97 05bf fd19 9fbd
00000240: a89d 51bd fc31 a3be 5c6b 053f 9b9c 0ebe
00000250: 133e 81bd 77b3 a83e 5850 51be 8a0f 4ebe
00000260: a044 353e bfcc 9ebe ea44 d03e 1511 7a3e
00000270: f28e 9abc 4ca6 233f 8dc1 95be 9c5c 943e
00000280: 5635 df3e a492 5abe fad8 a5be c0d2 8b3e
00000290: a4ed 7ebe 9a3c 883e 2dbf c93d b20f 97bc
000002a0: 77de 293e a784 36bd 3ccd 303e e7f6 cf3e
000002b0: 52cb 8bbd bebc 68be 762e ae3e 9905 813d
000002c0: 86f0 8fbe f377 61be 36bf dc3d f21c cfbe
000002d0: acf7 e93d 7d07 20be 73dd ae3d 9f34 98be
000002e0: 31e9 d73c de57 b53e 785b f4bc 2263 66bd
000002f0: 79a0 473e f13e 05be 7468 af3e a4d5 593e
00000300: f406 a7bd fc67 7f3d c12a fc3e 2ee7 5dbe
00000310: f546 ea3c 43de 4c3f ca9d 1f3c e89b 36bf
00000320: df8c 5e3e 58e7 b33d d6f8 e43e 33d9 53be
00000330: db62 613e 969a 54be ab7d 8cbe 39ea d3bd
00000340: 92f3 c93d 7d6e b53d bed0 8c3e 4d82 c43d
00000350: 6401 08bf c2c0 1cbe e3b1 9abe 422c 99be
00000360: 14b5 71be c5ff 1bbf 1c12 c0be 8098 f03e
00000370: 50db 4abd c325 b5be 5fe6 d83e 2796 c83e
00000380: c7b1 bc3e c7bb 88bd 7695 80bd 4e1c 96be
00000390: 4a7f 913e c8b0 0fbf ed0f 81be b9fa 8abe
000003a0: 03a9 90be 1167 b7be fae7 53bd c817 91be
000003b0: f969 febd af9a 073c 2354 433e 3443 fd3e
000003c0: 6d19 bdbe a223 f4be a771 1d3e 9251 f9be
000003d0: 8418 833e badd 673d 9acf e43d e58f 553e
000003e0: f72f 7f3e 4c18 1bbe d8ed c83d d02c 48bd
000003f0: 1382 ee3e 4854 5bbe 0142 36be eef4 a03e

encoder.conv_logstd.bias f4 [20]
-0.5556762 -0.46729845 -0.4728066 -0.5296652 -0.4891504 -0.42581165 -0.5667628 -0.4583859
-0.55617213 -0.4091596 -0.42436495 -0.54292166 -0.575445 -0.40289387 -0.5242955 -0.4644757
-0.5375401 -0.5218985 -0.52863145 -0.4781245
00000000: cc40 0ebf be41 efbe b513 f2be 2398 07bf
00000010: ec71 fabe fc03 dabe 5e17 11bf 8fb1 eabe
00000020: 4c61 0ebf 5e7d d1be 5d46 d9be eafc 0abf
00000030: 5d50 13bf 1b48 cebe 3b38 06bf c2cf edbe
00000040: 3a9c 09bf 249b 05bf 6454 07bf bccc f4be
