results/model_GCN/graph_split_/layers_2/transform_False/alpha_1.0/model.pt (torch, 20917 bytes, 9 tensors)

encoder.conv.convs.0.bias f4 [40]
0	0x3d5f6080	0.05453539
1	0xbc92ead3	-0.017934239
2	0x3d27f87b	0.041008454
3	0xbd88088c	-0.06642255
4	0xbb570665	-0.0032810208
5	0x3d6a1971	0.05715317
6	0xbcb8b7da	-0.022548605
7	0xbc8130e7	-0.015770389
8	0xbd21c03f	-0.03948998
9	0x3e0ceec7	0.13762961
10	0xbe013180	-0.12616539
11	0x3b039615	0.002007847
12	0x3db25795	0.08708111
13	0x3bdaa873	0.0066729127
14	0x3df394eb	0.11893638
15	0xbd2e1817	-0.042503443
16	0xbc475824	-0.01216701
17	0xbc09a2a5	-0.008400594
18	0x3a116127	0.0005545788
19	0x3da76869	0.081742115
20	0x3d6a943c	0.057270274
21	0x3d74b356	0.05974134
22	0xbda67ae4	-0.08128908
23	0xbcd4ba67	-0.02596779
24	0x3df7e56c	0.121043056
25	0xbe05dfa0	-0.13073587
26	0x3d02a094	0.03189142
27	0x3df7919f	0.12088322
28	0x3e53fd1f	0.20702027
29	0xbbbaa5b8	-0.0056960247
30	0xbb8c3e2d	-0.004279873
31	0xbddcee9b	-0.10787698
32	0xbddcbc5d	-0.10778115
33	0xbd29c61b	-0.041448694
34	0xbcb922c2	-0.022599582
35	0xbd8a3738	-0.067488134
36	0x3d65b0ee	0.056076936
37	0x3d888c11	0.066673405
38	0xbc54b8d0	-0.012983516
39	0xbdf1a9b0	-0.117999434

encoder.conv.convs.0.lin.weight f4 [40, 40]
0	0xbdc38a73	-0.095478915
1	0xbea694f5	-0.3253552
2	0x3e1b8c8c	0.15190333
3	0xbe00f99e	-0.12595221
4	0x3ec51198	0.38489985
5	0x3de63937	0.112413816
6	0xbdc17b8e	-0.09447394
7	0x3e3c2b10	0.18375802
8	0x3df96313	0.121771
9	0x3dbd8806	0.0925446
10	0xbd66925a	-0.056291915
11	0xbe1bf536	-0.1523026
12	0x3d02f22f	0.031969246
13	0x3d7b3c79	0.061336968
14	0xbe2a09a1	-0.16605236
15	0xbe86ff8f	-0.2636685
16	0xbe56d9f4	-0.2098158
17	0xbf0552f0	-0.5207968
18	0x3dd68fea	0.10476668
19	0x3eb3be1d	0.35105982
20	0x3e81da67	0.2536194
21	0xbec80650	-0.39067316
22	0xbde71413	-0.11283126
23	0x3d8668a0	0.065629244
24	0x3ea82c6a	0.32846385
25	0xbeda165f	-0.42595193
26	0xbe616353	-0.22010545
27	0x3e90d516	0.28287572
28	0x3ed8422b	0.42237982
29	0x3d904bb8	0.07045692
30	0xbc0c3e76	-0.008559814
31	0xbe2fd62f	-0.17171548
32	0xbe7d412b	-0.24731891
33	0x3d217e9b	0.03942738
34	0x3df1129f	0.1177113
35	0xbe2554e5	-0.16145666
36	0xbe2cc11d	-0.16870542
37	0x3eb9cc84	0.36288846
38	0x3e3c926d	0.18415232
39	0xbe405e03	-0.18785863
40	0xbe3d736d	-0.18501063
41	0xbe5f4ba0	-0.21806192
42	0xbd32e6e0	-0.04367721
43	0x3d877849	0.066147394
44	0x3de1e2f3	0.11029615
45	0xbcd8631a	-0.026414443
46	0xbdd278a3	-0.10276916
47	0xbe84280f	-0.25811812
48	0x3ed1f2ea	0.4100564
49	0xbe5ee784	-0.21768004
50	0x3e2d395c	0.16916412
51	0x3deecd27	0.116602235
52	0x3dcaa70f	0.09895145
53	0x3e196723	0.1498075
54	0xbdde68e2	-0.108598486
55	0xbeac5828	-0.33661008
56	0x3e4cc6c3	0.19997697
57	0xbdf7e6e1	-0.121045835
58	0xbe9c8e47	-0.305773
59	0x3dabc713	0.0838758
60	0xbdb75dd3	-0.089534424
61	0xbe26f2e7	-0.16303597
62	0xbdfb9b0a	-0.12285431
63	0x3e8a371a	0.26995164
64	0xbe30cf08	-0.17266476
65	0xbede3aa4	-0.43404114
66	0x3dac9f60	0.08428836
67	0xbe613a11	-0.21994807
68	0x3ea38252	0.31935364
69	0x3d18eadc	0.037333354
70	0xbef849a5	-0.48493686
71	0xbea1cbbe	-0.31600755
72	0xbd2a6ba5	-0.041606564
73	0xbd5e80f5	-0.0543222
74	0xbe906e4f	-0.2820916
75	0x3e587b8b	0.21140878
76	0xbeaae96f	-0.3338122
77	0xbdec2cdc	-0.11531994
78	0xbccdbc86	-0.025114309
79	0x3ec282c2	0.37990385
80	0x3cc71538	0.02430211
81	0x3e4a7e76	0.19774804
82	0x3e81b7b8	0.2533548
83	0xbe4160e9	-0.18884625
84	0xbe97f499	-0.296788
85	0xbe53f203	-0.20697789
86	0xbe3e9bf4	-0.18614179
87	0x3dfc913d	0.123323895
88	0xbe68db79	-0.22739972
89	0xbd1f8006	-0.038940452
90	0xbd1c392a	-0.038140453
91	0x3e0adac7	0.1356002
92	0x3e5ffe4f	0.21874355
93	0x3d188fcc	0.03724651
94	0xbdffdf4d	-0.12493763
95	0xbee7d7e0	-0.45281887
96	0x3e11bab5	0.1423138
97	0x3e14b1cf	0.14520954
98	0x3e9c0826	0.30474967
99	0xbea59829	-0.3234265
100	0x3cc34bb4	0.023839809
101	0xbe909b2b	-0.28243384
102	0x3da218a6	0.079148576
103	0x3e900ac0	0.28133202
104	0x3d0d90c3	0.034561884
105	0xbe096f2e	-0.13421318
106	0x3d1b0b12	0.037852354
107	0x3e343e78	0.17601955
108	0x3e52a101	0.2056923
109	0xbe586540	-0.21132374
110	0xbed877c5	-0.42278877
111	0xbe8e86df	-0.27837273
112	0x3e93e236	0.28883523
113	0xbcfa9776	-0.0305898
114	0xbe88058d	-0.26566735
115	0xbc7cfbd1	-0.015440897
116	0xbe73650d	-0.23769017
117	0x3e30f814	0.17282134
118	0x3e889275	0.26674238
119	0x3f492313	0.78569144
120	0x3e573373	0.2101572
121	0x3e03b4d7	0.12861954
122	0x3c45eca0	0.012080342
123	0xbe216966	-0.15762863
124	0xbe439ddc	-0.19103187
125	0x3e0c9e9c	0.1373238
126	0x3e3556bb	0.17708866
127	0x3e87ea63	0.2654601
128	0xbc96d0b5	-0.018410066
129	0xbe01ab25	-0.12662943
130	0x3eb25c37	0.3483598
131	0xbd2f4815	-0.042793352
132	0xbd82e7b3	-0.06391849
133	0xbe99febc	-0.3007716
134	0x3d81037a	0.06299491
135	0x3dd603b8	0.10449928
136	0x3e1317b0	0.14364505
137	0x3e31f91a	0.17380181
138	0x3eba5221	0.36390784
139	0xbd4b49ac	-0.049630806
140	0x3e1f58d5	0.1556123
141	0xbef4e0d3	-0.47827777
142	0x3e868c88	0.26279092
143	0xbed9a6c9	-0.4251006
144	0xbebb6b0a	-0.36605102
145	0xbe9ee948	-0.31037354
146	0x3e680781	0.22659113
147	0xbe4220e1	-0.18957855
148	0xbd6d7d28	-0.057980686
149	0xbe6ef30d	-0.23334904
150	0xbdaa052f	-0.0830177
151	0xbeb166a4	-0.3464862
152	0x3e290eed	0.165096
153	0x3e3d644a	0.18495288
154	0xbe517334	-0.20454103
155	0xbe14ef9b	-0.14544527
156	0xbe69f8c9	-0.2284881
157	0xbd5046c9	-0.050848756
158	0x3e32e75a	0.17471066
159	0x3efd54ab	0.4947866
160	0x3d03ca75	0.0321755
161	0x3d8ca116	0.06866662
162	0xbe825592	-0.2545591
163	0xbec76920	-0.38947392
164	0xbd5bf675	-0.053701837
165	0x3dcda72d	0.10041652
166	0xbd89b1b4	-0.06723347
167	0x3f15dd48	0.58540773
168	0xbe303bf8	-0.17210376
169	0x3d59c2ac	0.05316417
170	0xbe1d64ce	-0.15370485
171	0x3deadea2	0.11468245
172	0xbe871bc7	-0.2638838
173	0xbe9545f5	-0.29154935
174	0xbe5d0426	-0.21583614
175	0xbdcc2f55	-0.09969965
176	0x3e7f8ec3	0.24956803
177	0xbe88d1e1	-0.26722625
178	0xbe963d31	-0.2934356
179	0xbe56d51a	-0.2097973
180	0x3e85fab8	0.26167846
181	0xbdcbc347	-0.099493556
182	0x3da19c70	0.07891166
183	0xbe3e870b	-0.18606202
184	0xbeda45bd	-0.4263133
185	0x3ef077cc	0.46966398
186	0xbe5d7145	-0.2162524
187	0x3e59e3ee	0.21278355
188	0xbda1029f	-0.07861828
189	0xbdd0c5c9	-0.101939745
190	0xbdf977ef	-0.12181079
191	0x3c07874c	0.008272003
192	0xbb9227b6	-0.0044603003
193	0xbdf84496	-0.12122457
194	0x3ea1d417	0.31607124
195	0xbd50b7be	-0.05095648
196	0x3df16ccd	0.1178833
197	0xbe47cdbf	-0.1951208
198	0xbe5bfb21	-0.21482517
199	0xbe9174d8	-0.28409457
200	0xbce6359c	-0.028101735
201	0xbd936702	-0.071973816
202	0xbdcd726e	-0.10031591
203	0xbdb5af45	-0.08871321
204	0x3d3998d5	0.045311768
205	0x3e2517c0	0.16122341
206	0xbe346ff9	-0.17620839
207	0x3e219992	0.15781239
208	0x3d9a17d4	0.07524076
209	0x3e51b675	0.20479758
210	0xbc0dea5f	-0.008661835
211	0x3ebfa816	0.37432927
212	0x3e4c458c	0.19948405
213	0xbd14600f	-0.03622442
214	0xbe5dc8dc	-0.21658653
215	0xbe855262	-0.26039416
216	0x3da4dbbd	0.08049724
217	0x3df47552	0.119364396
218	0x3ee6b5c1	0.45060542
219	0x3a3ee2a8	0.0007281699
220	0xbddae05b	-0.10687324
221	0xbda0f64d	-0.07859478
222	0x3e7fb147	0.2496997
223	0x3c8d17a5	0.017223189
224	0xbdcec242	-0.100956455
225	0xbd9442e9	-0.072393246
226	0xbda6b1de	-0.08139394
227	0xbdbb0a14	-0.091327816
228	0xbdccfc85	-0.10009102
229	0x3ea1ccbb	0.3160151
230	0xbee468db	-0.44611248
231	0xbb0a27d7	-0.0021080875
232	0xbdf0ded8	-0.11761254
233	0x3e3a455c	0.18190521
234	0x3d1f12c4	0.038836256
235	0x3e8eb9b1	0.27876046
236	0xbe213cce	-0.15745851
237	0xbda8df0f	-0.0824567
238	0xbea6291d	-0.32453242
239	0xbe5b1305	-0.21393974
240	0x3e716a25	0.23575647
241	0x3a7e5b7a	0.0009702962
242	0xbe114670	-0.14187026
243	0x3eb020cb	0.3440002
244	0x3e3cb0a4	0.18426758
245	0x3e38bb85	0.18040283
246	0xbe8c3a8d	-0.2738842
247	0x3e4e03e1	0.20118667
248	0x3e2dc4cf	0.16969608
249	0x3e58b07d	0.21161075
250	0x3ef0da95	0.47041765
251	0xbeecd7d1	-0.46258405
252	0x3e701ff1	0.23449685
253	0x3da1ac8d	0.078942396
254	0xbd5cf405	-0.053943653
255	0xbe487992	-0.19577625

encoder.conv.convs.1.bias f4 [20]
0	0x3bed469e	0.0072410842
1	0xbcbfd5a7	-0.023417307
2	0xbc8af150	-0.01696077
3	0xbd32b253	-0.043627094
4	0xbdb41c17	-0.0879442
5	0xbd9926fe	-0.0747814
6	0x3de2074e	0.110365495
7	0x3b654d56	0.0034988723
8	0x3a1fdfe0	0.00060987286
9	0x3cfcaa18	0.030842826
10	0x3de5fc8d	0.11229811
11	0xbd7b5768	-0.061362654
12	0x3ca0f320	0.019647181
13	0xbc27bbee	-0.010237677
14	0xbc42c477	-0.011887661
15	0x3d43fd04	0.047848716
16	0xbd03cb81	-0.0321765
17	0x3e54497f	0.20731162
18	0x3e121c02	0.14268497
19	0x3d953c11	0.072868474

encoder.conv.convs.1.lin.weight f4 [20, 40]
0	0x3dafec07	0.085899405
1	0x3e189894	0.14901954
2	0x3e946892	0.2898603
3	0xbcc34aaf	-0.023839323
4	0xbebc6a0b	-0.36799654
5	0x3cf2631d	0.029588277
6	0xbdc0f23c	-0.094212025
7	0xbb5fe403	-0.0034163005
8	0xbeaf34c9	-0.3421996
9	0x3e95522d	0.29164258
10	0x3ddfa790	0.10920632
11	0x3ebe755f	0.37198922
12	0x3ece9525	0.40348163
13	0xbd70ee27	-0.05882087
14	0x3e059d45	0.13048275
15	0xbec04c53	-0.3755823
16	0x3eadf983	0.33979425
17	0xbe423569	-0.18965687
18	0xbe0633d8	-0.13105714
19	0xbe342fb6	-0.17596325
20	0x3eb0449b	0.34427342
21	0xbe7f3c39	-0.24925317
22	0x3ebdcdb2	0.37070996
23	0x3d42d5e4	0.047567263
24	0xbeaff83b	-0.34369072
25	0xbe4de815	-0.20108064
26	0x3d8fc25e	0.070194945
27	0x3c8699de	0.016430791
28	0xbf784800	-0.96984863
29	0x3eb74ff4	0.35803187
30	0x3e358d4b	0.1772968
31	0xbe1f69df	-0.1556773
32	0x3e8de0c2	0.2771054
33	0x3e219794	0.15780479
34	0x3e8215b6	0.2540719
35	0xbdcbecf4	-0.099573046
36	0xbc6d4f46	-0.014484232
37	0xbe991e48	-0.29905915
38	0xbdaf9df7	-0.08575051
39	0x3db85369	0.09000284
40	0x3e375671	0.17904069
41	0xbbfcc86e	-0.007714323
42	0xbe8eeb8c	-0.27914083
43	0xbdaf4e08	-0.08559805
44	0xbed3bfab	-0.4135717
45	0x3d134b90	0.035960734
46	0x3e2172de	0.15766475
47	0x3eb09eab	0.34496054
48	0x3ec46682	0.38359457
49	0xbea0eacb	-0.31429133
50	0x3e1dad34	0.15398103
51	0x3e08df05	0.13366325
52	0xbdd5ad40	-0.104334354
53	0xbfb46a72	-1.4094985
54	0xbe4d3d3b	-0.20042889
55	0xbcd0c860	-0.025486171
56	0x3e938069	0.28808907
57	0xbee1363f	-0.439867
58	0x3e84385f	0.25824258
59	0x3eafd26a	0.3434022
60	0xbe279741	-0.16366293
61	0xbeb7760d	-0.35832253
62	0x3e4c6685	0.19960983
63	0xbe457471	-0.192827
64	0xbeee1081	-0.46496966
65	0xbe060ad6	-0.13090071
66	0x3eaffce8	0.3437264
67	0x3dbf8d4c	0.09353122
68	0xbe707b67	-0.23484574
69	0xbe21f125	-0.15814646
70	0xbd4a8bf2	-0.04944987
71	0x3dc47a13	0.09593596
72	0xbdbad8f0	-0.09123409
73	0x3e7537b5	0.23947032
74	0xbd85a8c5	-0.06526331
75	0x3e3e2c5f	0.18571614
76	0x3d54e9ef	0.05198091
77	0xbec1f735	-0.37883916
78	0xbee52d90	-0.44761324
79	0x3e5c7c29	0.21531738
80	0xbd12d7ee	-0.035850458
81	0xbd84b866	-0.06480484
82	0xbe12a328	-0.14320052
83	0xbddb15f1	-0.10697544
84	0x3e66ae18	0.22527349
85	0x3e013219	0.12616767
86	0xbe20dea2	-0.15709928
87	0x3e8d05d9	0.27543524
88	0x3dc8ecc5	0.09810785
89	0xbefc2554	-0.4924723
90	0xbdb66c2f	-0.08907353
91	0x3e430107	0.1904336
92	0xbe2db5c3	-0.16963868
93	0xbeb07334	-0.34462893
94	0xbe11b875	-0.14230521
95	0xbf067dad	-0.52535516
96	0x3e8006b7	0.25005123
97	0x3b89ff86	0.004211369
98	0xbbb451f1	-0.0055029322
99	0x3cfb7de0	0.03069967
100	0x3de791c6	0.11307101
101	0xbe06fc92	-0.13182285
102	0x3b91cfe3	0.004449831
103	0xbe4543a8	-0.1926409
104	0x3e8033d2	0.25039536
105	0x3e98512e	0.29749435
106	0x3e448f3b	0.19195263
107	0x3ec16249	0.37770298
108	0x3ed39bcf	0.4132981
109	0x3eb5f3f6	0.3553769
110	0xbe445782	-0.19174007
111	0xbe12e10f	-0.14343666
112	0x3e95fc5b	0.29294094
113	0x3de67b3d	0.112539746
114	0xbe5c360e	-0.21504995
115	0x3e57fa28	0.21091521
116	0x3dcb32f5	0.09921829
117	0xbf0f27df	-0.55920213
118	0xbe7d9884	-0.24765211
119	0x3e76813c	0.24072737
120	0x3dbfdf2a	0.09368737
121	0xbe8edb2d	-0.27901593
122	0x3e3b696b	0.18301933
123	0xbc887477	-0.016657097
124	0x3c73fe8b	0.014892231
125	0xbe3fa12c	-0.18713826
126	0xbd795a18	-0.060876936
127	0x3cb0e83a	0.02159511
128	0xbeb03357	-0.3441417
129	0xbedf7073	-0.4364048
130	0xbeac24e7	-0.33621904
131	0x3acc280c	0.00155759
132	0x3ec39401	0.38198856
133	0xbdc29bdf	-0.09502386
134	0x3c90f73c	0.017696016
135	0x3e055340	0.13020039
136	0xbdfc4ce3	-0.123193525
137	0xbe082acf	-0.1329758
138	0x3e2cfdab	0.16893642
139	0x3e38c5c7	0.18044196
140	0x3daa4008	0.08312994
141	0x3d95d246	0.07315497
142	0x3d9820df	0.07428145
143	0x3e847a28	0.25874448
144	0xbe20e90a	-0.15713897
145	0x3dc45de6	0.09588222
146	0xbead32ac	-0.33827722
147	0xbebed715	-0.3727347
148	0xbce7c9a7	-0.028294398
149	0x3e5e8f5d	0.21734376
150	0xbe8a3e61	-0.27000716
151	0xbe002e68	-0.12517703
152	0xbe49b9fd	-0.19699855
153	0x3eaa19b6	0.3322274
154	0xbd24e3ff	-0.040256497
155	0xbdd33200	-0.10312271
156	0xbdbd4524	-0.09241703
157	0x3e0bb5d7	0.13643585
158	0x3dca7590	0.098857045
159	0x3db6bb3b	0.0892243
160	0xbee71faa	-0.45141345
161	0xbe4abb49	-0.19798006
162	0xbc54e84d	-0.012994838
163	0xbd0497e4	-0.032371417
164	0xbebe9e24	-0.37230027
165	0x3cbee244	0.023301251
166	0xbf63b4ef	-0.8894796
167	0xbfa5323b	-1.2905954
168	0x3eec029c	0.4609574
169	0x3d6eedb4	0.05833216
170	0x3dabeab3	0.08394375
171	0xbd9a7e94	-0.07543674
172	0xbd2a8908	-0.04163459
173	0xbebe2ab5	-0.37141958
174	0x3cc1b43f	0.023645518
175	0x3f4fc4de	0.8115977
176	0x3e8f3e98	0.27977443
177	0xbb825802	-0.0039777765
178	0xbe42b5b2	-0.19014624
179	0xbe99b6fa	-0.30022413
180	0xbdb25b8a	-0.08708866
181	0xbe57fe3d	-0.21093078
182	0x3e9b6ce7	0.30356523
183	0x3d65a745	0.056067724
184	0x3e30dd28	0.17271864
185	0x3ec9faf1	0.39449266
186	0xbe9ebae8	-0.31001973
187	0xbd9bd1d3	-0.0760838
188	0x3e2ebd81	0.17064478
189	0x3d35ee7b	0.044416886
190	0xbea7de48	-0.32786775
191	0x3d84a0a4	0.06475952
192	0x3eb3fd70	0.35154295
193	0x3eb8b9ce	0.36079258
194	0x3e7a307b	0.24432556
195	0xbdc72751	-0.09724296
196	0xbd9684c8	-0.07349545
197	0xbd864c69	-0.06557543
198	0xbf094d0a	-0.5363318
199	0x3e7455ba	0.23860827
200	0xbf8936b1	-1.0719815
201	0x3e5ad670	0.21370864
202	0x3dc31b63	0.09526708
203	0x3eb1db4d	0.34737626
204	0xbeb4a4f2	-0.35282093
205	0xbe1e082a	-0.15432802
206	0x3d97f709	0.07420165
207	0x3e25cb74	0.16190892
208	0x3ebed84c	0.37274396
209	0x3e390e22	0.18071797
210	0x3ecb45fe	0.39701837
211	0x3ebc958e	0.3683285
212	0xbe31a4dd	-0.17348047
213	0xbee37524	-0.4442531
214	0xbef51ced	-0.4787363
215	0xbcaa0468	-0.020754054
216	0xbe3ef1ae	-0.18646881
217	0x3e0e5243	0.13898568
218	0xbeca1533	-0.394693
219	0xbe584a59	-0.21122111
220	0xbe78d067	-0.24298249
221	0xbee7716e	-0.45203727
222	0xbe207aac	-0.15671796
223	0xbce40a74	-0.027837016
224	0xc009db7e	-2.1540217
225	0x3e6de520	0.23231936
226	0x3d530736	0.05152055
227	0xbe93f180	-0.28895187
228	0x3d9d4b6a	0.076804
229	0xbdaba413	-0.08380904
230	0x3e646c6c	0.22306985
231	0x3e42810d	0.18994541
232	0x3c6004aa	0.013672987
233	0xbdfc74f0	-0.123269916
234	0x3eac794f	0.336863
235	0xbd5ea187	-0.054353263
236	0xbb6eb3f4	-0.0036423178
237	0xbe2d5ba5	-0.16929491
238	0x3ca648a8	0.020298317
239	0x3e010391	0.12599017
240	0xbd27e862	-0.040993102
241	0x3e430fad	0.19048949
242	0x3e3035e3	0.17208056
243	0xbdf45c6f	-0.11931693
244	0xbd47e7d4	-0.048805073
245	0x3eb6fc48	0.3573935
246	0x3ec7426c	0.38917863
247	0xbe533067	-0.20623933
248	0xbeefb238	-0.46815658
249	0x3e442ae9	0.19156994
250	0x3e8551c3	0.26038942
251	0xbd489eb5	-0.04897948
252	0xbebf0a41	-0.3731251
253	0x3e07f99a	0.13278809
254	0xbcdf5203	-0.027260786
255	0x3d07b988	0.03313592

encoder.embed_x.weight f4 [28, 40]
0	0x3f286005	0.65771514
1	0x3fd46d18	1.6595793
2	0xbf7d982d	-0.99060327
3	0xbf0e2522	-0.5552541
4	0xbf34270e	-0.7037209
5	0x3fa4edb8	1.2885046
6	0x3fdf1a9a	1.7429993
7	0xbe8b1b00	-0.27169037
8	0x3e87b17f	0.26502606
9	0xbf45456e	-0.77059066
10	0x3e1f87da	0.15579167
11	0x3e66c060	0.22534323
12	0x3fe81442	1.8131182
13	0x3ec00b09	0.3750842
14	0xbfb7300d	-1.4311539
15	0x3dacc3bd	0.084357716
16	0x3fc4fdab	1.5389913
17	0x3f992adf	1.1966208
18	0x3e53c5c1	0.20680906
19	0xbf59e5d8	-0.8511634
20	0x3e863363	0.2621108
21	0xbdb73578	-0.08945745
22	0xbf67b348	-0.90507936
23	0xbe89656f	-0.268352
24	0xbd849499	-0.06473655
25	0x3c85b75f	0.01632279
26	0x3f52d1f4	0.82351613
27	0xc0227f21	-2.5390093
28	0xbea592ab	-0.3233846
29	0x3f332a5d	0.69986516
30	0x3dcadcf9	0.099054284
31	0x3f246c61	0.64227873
32	0x3f0f93ad	0.5608471
33	0xbf6ae26b	-0.91751736
34	0xbe880d69	-0.2657273
35	0x3f9f4dee	1.2445657
36	0x3f15d221	0.58523756
37	0xbfa44a6b	-1.283521
38	0xbeae4fed	-0.34045354
39	0xbd3e1fc2	-0.046417005
40	0x3f10259d	0.56307393
41	0x3f1d1b9c	0.61370254
42	0xbf0c6c18	-0.5485244
43	0x3f932327	1.1495103
44	0xbf4605e2	-0.77352726
45	0x3b82eb08	0.003995303
46	0x3f09d233	0.53836364
47	0x3e95a645	0.29228416
48	0xc0376a2f	-2.865856
49	0x3f6bf2d6	0.92167413
50	0xbff57e60	-1.9179192
51	0xbf187711	-0.5955668
52	0xbfdcb728	-1.7243395
53	0x3f5d9f11	0.8657084
54	0x3eb2f337	0.34951183
55	0x3f921e03	1.1415409
56	0xbf6a15c9	-0.9143949
57	0xbe49e9e6	-0.19718131
58	0x3f051f7f	0.52001184
59	0x3fa32950	1.2746983
60	0xbe99fcfc	-0.30075824
61	0x3fe83a30	1.8142757
62	0x3fbfdd17	1.4989346
63	0x3ee3306c	0.4437288
64	0x3e80f7f5	0.25189176
65	0x3f1e0942	0.61732876
66	0xbf3efda1	-0.74605757
67	0xbfd77abb	-1.6834329
68	0x3ea800f2	0.3281322
69	0xbf7e86ca	-0.9942442
70	0x4002ef0e	2.0458407
71	0x3fcbb2a4	1.5913892
72	0x3f83f99a	1.0310547
73	0x3f883b8a	1.064317
74	0x3cd6f76e	0.02624103
75	0x3f805630	1.0026302
76	0x3fb723da	1.4307816
77	0x3dce1fc8	0.100646555
78	0x3e3c3dfa	0.18383017
79	0xbf687894	-0.9080899
80	0x3f5bb259	0.8581901
81	0x3fe07d38	1.7538214
82	0xbf017df1	-0.50582796
83	0x3ed5455a	0.41654474
84	0x3fdbd8db	1.7175554
85	0xbf2ea078	-0.68213606
86	0x3e2fd7cb	0.17172162
87	0xbf8000e1	-1.0000268
88	0x3fd0aad4	1.6302133
89	0x3f5d361d	0.86410695
90	0xbf1d7ad1	-0.6151553
91	0xbf50d813	-0.81579703
92	0x3f4ec022	0.8076192
93	0xbf7c828f	-0.98636717
94	0xbe0fcd98	-0.14043272
95	0x3cc553e7	0.02408786
96	0x3f45c702	0.77256787
97	0x3db93629	0.09043533
98	0xbf9adb43	-1.2098163
99	0x3fd46e48	1.6596155
100	0x3ed2dfe6	0.41186446
101	0x3f08b483	0.5340044
102	0x3e0b8624	0.1362539
103	0x3f568b4d	0.83806306
104	0x3fbe5aeb	1.4871496
105	0x3e531e53	0.20617037
106	0xbf3e8343	-0.7441904
107	0x3ef5a45d	0.47976962
108	0x3f9ae70d	1.2101761
109	0xbe227e7f	-0.15868567
110	0xbf9c10a3	-1.2192577
111	0x3f40f7cc	0.7537811
112	0xbfc29580	-1.5201874
113	0xbeb44519	-0.35208967
114	0xbd06d1d7	-0.032914963
115	0x3f74c0f6	0.95606935
116	0xbf30e626	-0.6910118
117	0xbf4d8e57	-0.8029532
118	0x40036f07	2.0536516
119	0xbd7c1658	-0.061544746
120	0x3edfe09e	0.43726057
121	0xbf9fa0f9	-1.2471
122	0x3e851b80	0.25997543
123	0xbf555614	-0.8333447
124	0x4022776e	2.5385394
125	0x3ff9d0da	1.9516861
126	0x3f071f8d	0.5278252
127	0xbe5d9a85	-0.21640976
128	0x3df7bf70	0.12097061
129	0xbff63ad3	-1.9236702
130	0xbfa17dd2	-1.2616522
131	0x3f285cd1	0.65766627
132	0x40196cde	2.3972697
133	0xbe6dc23b	-0.23218624
134	0xbf17c1f4	-0.59280324
135	0xbf6c422d	-0.92288476
136	0x3e9a5acd	0.301474
137	0xc01f1d6e	-2.4861712
138	0x3f12b58c	0.5730827
139	0xbea6e217	-0.32594368
140	0x3f0613e0	0.52374077
141	0xbf6c56b9	-0.9231983
142	0xbf2448a4	-0.6417334
143	0x400a84af	2.1643484
144	0x3f71042f	0.9414701
145	0xbf0349e8	-0.51284647
146	0x3f945383	1.1587986
147	0x3e88a420	0.26687717
148	0x3f3214c3	0.6956293
149	0x3f343b66	0.70403135
150	0xbf2d821c	-0.67776656
151	0x3f659cf8	0.8969264
152	0xbf8de796	-1.10863
153	0xbfe9fb95	-1.8279902
154	0x3e13b6e5	0.14425237
155	0xbe16545f	-0.14680623
156	0xbd53b9af	-0.051690754
157	0x3fe8242a	1.8136036
158	0x3f221c4b	0.6332442
159	0xbfe95481	-1.8228914
160	0xbfd17cc0	-1.6366196
161	0xbfa44c47	-1.2835778
162	0x3f8a259e	1.079273
163	0xc04d49d9	-3.2076323
164	0xbf34a3dc	-0.7056253
165	0xbf2cd625	-0.6751426
166	0x3d9712ac	0.07376608
167	0xbe3c6bdc	-0.1840052
168	0x401d6536	2.4593024
169	0x3f563cb2	0.83686364
170	0xbe3f25af	-0.18666719
171	0x3fe215d2	1.7662909
172	0xbdcd92bd	-0.10037754
173	0x3f7f9522	0.99836934
174	0x402e627f	2.7247617
175	0xc026548e	-2.5989108
176	0xbeba5fa6	-0.364011
177	0x3f8b2ff9	1.0874015
178	0x3ff31d39	1.8993293
179	0x3f3a7f3a	0.7285038
180	0xbf9f185d	-1.242931
181	0x3f21c0ef	0.6318502
182	0x3fa5c6d9	1.2951308
183	0xbf288a13	-0.65835685
184	0xbf6cdec1	-0.92527395
185	0xbfaf4dda	-1.3695633
186	0xbf76a588	-0.9634633
187	0xbe551a8c	-0.20810908
188	0x3f168b1b	0.5880601
189	0x3ef2b7ab	0.47405753
190	0xc031d742	-2.7787633
191	0xbf3b0026	-0.730471
192	0xc00dbe7a	-2.2147508
193	0xbe6b8fb1	-0.23004033
194	0xbfa97493	-1.3238701
195	0x4000fab6	2.0153022
196	0xbfcbfa88	-1.5935831
197	0xbfb7e465	-1.4366575
198	0xbfa1e497	-1.2647885
199	0xbf27c4c4	-0.65534616
200	0x3feac7ad	1.8342186
201	0xbea73b10	-0.3266225
202	0x3ecd6366	0.40114897
203	0x3eb5d135	0.35511175
204	0xbf2d08af	-0.67591375
205	0x3f83f51e	1.0309179
206	0x3f466323	0.7749502
207	0xbfa28528	-1.2696886
208	0xbf745598	-0.95443106
209	0xbb15ad76	-0.0022838986
210	0xbf7456ae	-0.9544476
211	0xbe4fa2b1	-0.20276906
212	0x3d1888a6	0.037239693
213	0xbfb1f445	-1.390267
214	0x3fd283dd	1.6446491
215	0xbf97192b	-1.1804556
216	0x3fb3f1d6	1.4058177
217	0x3f935723	1.1510967
218	0x4030b40b	2.760989
219	0xbfdf6db4	-1.7455354
220	0xbf470624	-0.77743745
221	0xc00594ee	-2.087215
222	0x3f54e893	0.8316738
223	0x3f722778	0.94591475
224	0xbf1fd9e9	-0.6244188
225	0xc0401c7b	-3.0017383
226	0x3f779cc8	0.96723604
227	0xbda2ab57	-0.07942837
228	0x3fdb4ad9	1.7132217
229	0x3e88a922	0.26691538
230	0xbf514575	-0.8174661
231	0xbdbc5180	-0.091952324
232	0x3ffda07d	1.9814602
233	0xbe6b934d	-0.2300541
234	0xc0189c5a	-2.384543
235	0xbf0b1694	-0.54331326
236	0x3ef94800	0.48687744
237	0xc01cbbc9	-2.4489615
238	0x3ff6223b	1.9229196
239	0x402db388	2.7140827
240	0xbfa7769f	-1.3083075
241	0xbfd47b02	-1.6600039
242	0x3ef59448	0.47964692
243	0x3f8c0f15	1.0942103
244	0xbf9920e0	-1.1963158
245	0xbf110977	-0.5665507
246	0x3dd9c5d2	0.10633434
247	0xbf219d76	-0.6313089
248	0xbf900bec	-1.1253638
249	0x3fbe91eb	1.4888281
250	0xbef3bc0b	-0.47604403
251	0x3f30884c	0.6895797
252	0x400cb6c8	2.198656
253	0xbf867b2b	-1.0506338
254	0xbc18c6c4	-0.009324733
255	0xc0029b68	-2.0407352

encoder.conv_mu.bias f4 [20]
0	0xbca30d12	-0.019903693
1	0x3c12737b	0.0089386655
2	0x3dc35855	0.095383324
3	0xbc994673	-0.01871035
4	0x3e22dd98	0.15904844
5	0x3dcb4f28	0.09927207
6	0xbbc9fdb1	-0.0061642756
7	0xbe3d4ac9	-0.1848556
8	0x3c0a9554	0.008458454
9	0x3d2db1c8	0.042405874
10	0x3d246482	0.040134914
11	0x3df53ad6	0.11974113
12	0x3d927e82	0.07153036
13	0xbd09a70e	-0.03360658
14	0x3d879260	0.06619716
15	0xbe2d2d07	-0.16911708
16	0x3c91d4ea	0.01780172
17	0xbe2b927d	-0.167551
18	0xbe470534	-0.19435579
19	0xbd7f59fa	-0.062341668

encoder.conv_mu.lin.weight f4 [20, 20]
0	0xbe57e71c	-0.21084255
1	0x3eb41400	0.3517151
2	0x3e5f89c0	0.21829891
3	0x3ebbd5fe	0.366867
4	0x3f091ef4	0.53562856
5	0x3e7646d3	0.24050455
6	0x3d82e228	0.06390792
7	0x3d03adf8	0.03214833
8	0x3e08083d	0.13284393
9	0x3ebd29c4	0.36945927
10	0x3dd41384	0.10355285
11	0x3d37b999	0.044854734
12	0xbe6256ae	-0.22103378
13	0xbebe3f7e	-0.37157816
14	0xbec6e0c6	-0.38843364
15	0xbec276b9	-0.37981203
16	0x3de8ebd0	0.11373103
17	0x3ede78c2	0.43451506
18	0xbea02ab5	-0.31282583
19	0xbd22ceb7	-0.03974792
20	0x3d2eac50	0.0426448
21	0x3edecf59	0.4351757
22	0x3d336195	0.043794233
23	0x3ea8ba1f	0.329545
24	0xbdc74c73	-0.097313784
25	0xbe856296	-0.26051778
26	0xbe5cc0c7	-0.21557914
27	0x3e5d8673	0.2163332
28	0xbe8c2980	-0.27375412
29	0xbe948881	-0.29010394
30	0x3dc353df	0.095374815
31	0x3e8c093d	0.27350798
32	0xbdfd2404	-0.12360385
33	0xbf2d679f	-0.6773624
34	0x3f16dd91	0.58931834
35	0x3f2c16d7	0.6722235
36	0xbe51937f	-0.20466422
37	0xbf460aaa	-0.7736002
38	0x3c70bc4c	0.014693331
39	0x3de414d2	0.11136784
40	0xbe91ff4f	-0.28515097
41	0x3e78e282	0.24305156
42	0x3eea6b2b	0.45784888
43	0x3e4d0daa	0.20024744
44	0xbe11b2ed	-0.14228411
45	0xbe540cbf	-0.20707987
46	0x3e8d8d6f	0.27646968
47	0xbcef67e3	-0.029224342
48	0x3ef64928	0.4810269
49	0xbf0cccaa	-0.5499979
50	0xbf0852d9	-0.53251415
51	0x3e6a4329	0.22877182
52	0xbee4c062	-0.44678026
53	0x3d333a13	0.043756556
54	0xbca405b8	-0.020022258
55	0x3e6a39e4	0.22873646
56	0xbe1fb160	-0.15595007
57	0x3e31e399	0.17371978
58	0x3e9ea44c	0.30984724
59	0x3e1d3c20	0.15354967
60	0x3e9cd1f1	0.30628923
61	0x3f328024	0.6972678
62	0xbdc21c95	-0.09478108
63	0x3e828dd7	0.2549884
64	0x3e041c8a	0.12901512
65	0xbedbb668	-0.42912602
66	0xbd77394c	-0.060357377
67	0x3ecb3f36	0.39696664
68	0xbe641867	-0.22274934
69	0xbe6a13d4	-0.22859126
70	0x3e1ac2e0	0.15113401
71	0xbefccf37	-0.49376842
72	0xbe165a11	-0.14682795
73	0x3f051f55	0.52000934
74	0xbd31a9b2	-0.043374725
75	0xbf0498f9	-0.5179592
76	0x3e9febe1	0.3123465
77	0xbd93f53a	-0.07224508
78	0xbea0bb77	-0.31393024
79	0xbee689e8	-0.4502709
80	0xbed2dab5	-0.41182485
81	0xbea48917	-0.3213584
82	0xbec36be3	-0.3816825
83	0xbe47b2ec	-0.19501847
84	0x3ecf1159	0.40442923
85	0xbed2a284	-0.41139615
86	0x3b88da6e	0.0041764295
87	0xbe505710	-0.20345712
88	0x3dc51013	0.096222065
89	0x3ebb936c	0.3663591
90	0x3e5bb3f7	0.2145537
91	0xbe341476	-0.1758593
92	0xbe03f88c	-0.12887782
93	0x3f063a16	0.5243238
94	0x3ecaabee	0.39584297
95	0x3f207172	0.62673104
96	0xbdae4f34	-0.085112005
97	0x3ee71074	0.4512974
98	0x3e8c5d40	0.27414894
99	0x3bd5a17e	0.0065194955
100	0x3d351daa	0.044217743
101	0xbe3e45ec	-0.1858136
102	0x3e11e480	0.14247322
103	0xbd89e8c8	-0.067338526
104	0x3ee1411f	0.43994996
105	0x3cf598c3	0.029980069
106	0x3eb12f53	0.34606418
107	0x3e3c4630	0.1838615
108	0xbe5ac13d	-0.21362777
109	0x3e7cc30b	0.24683778
110	0xbee119fa	-0.4396513
111	0xbe4ef084	-0.20208937
112	0xbe319f7d	-0.17345996
113	0xbb9d255f	-0.0047957147
114	0xbf0fa485	-0.5611041
115	0xbea5e2dd	-0.32399645
116	0xbebe73d1	-0.37197736
117	0x3ed99d05	0.4250261
118	0xbe216e90	-0.15764832
119	0x3ebeea78	0.3728826
120	0x3e80bfd6	0.2514636
121	0xbe125019	-0.14288367
122	0x3ee8681a	0.45391923
123	0xbe406c37	-0.1879128
124	0x3dd12ba2	0.102134004
125	0xbe8d6165	-0.2761337
126	0xbd38badf	-0.04510009
127	0x3e4238a6	0.18966922
128	0xbe886226	-0.2663738
129	0x3d9690e0	0.073518515
130	0xbf0fbc27	-0.5614647
131	0xbeeff517	-0.46866676
132	0x3e3581ca	0.17725292
133	0xbe1a428a	-0.15064445
134	0xbf14e6b4	-0.58164525
135	0x3e92d656	0.2867915
136	0x3d6fb3b0	0.058520973
137	0x3e79d081	0.24395944
138	0xbdeeea30	-0.116657615
139	0xbeb91567	-0.3614914
140	0x3e599ce1	0.21251251
141	0x3abe6658	0.001452635
142	0xbd5ceeb2	-0.053938575
143	0x3da010c5	0.078156985
144	0x3eb7e935	0.3592011
145	0x3e9503e7	0.2910454
146	0xbed5adce	-0.41734165
147	0x3e7ea5da	0.24867955
148	0xbe671f1e	-0.22570464
149	0x3e6c3f90	0.23071122
150	0x3ad94f1c	0.0016579363
151	0x3e671c6e	0.22569439
152	0xbc9bd6f8	-0.019023404
153	0xbb923601	-0.004462004
154	0xbcd3b846	-0.025844704
155	0xbe163aa9	-0.14670815
156	0x3c8ed984	0.017437704
157	0xbe2301ff	-0.1591873
158	0xbcd5387d	-0.026027912
159	0xbed08776	-0.40728348
160	0x3b2a3ca2	0.0025976081
161	0xbde6c4a8	-0.11267978
162	0xbd04947d	-0.032368172
163	0xbe8db529	-0.27677277
164	0x3e3b57e9	0.18295254
165	0x3e0620c2	0.13098434
166	0xbecd8f3a	-0.40148336
167	0x3e410413	0.1884921
168	0xbf0f24dc	-0.5591562
169	0xbe0f8717	-0.14016376
170	0x3f247484	0.6424029
171	0xbd8021f1	-0.06256474
172	0xbe335c15	-0.17515595
173	0x3e052214	0.13001281
174	0xbeacf777	-0.3378255
175	0xbd95bdbb	-0.07311579
176	0x3e03790f	0.12839149
177	0x3ebfb14e	0.3743996
178	0x3e200fff	0.15631102
179	0x3eab5a8e	0.33467525
180	0xbe86819b	-0.26270756
181	0x3e13a6c9	0.14419092
182	0x3f10ef45	0.56615096
183	0x3e58f656	0.2118772
184	0xbf01f532	-0.50764763
185	0xbd89a4dd	-0.06720898
186	0x3e3d19d8	0.1846689
187	0xbe5e21f4	-0.2169264
188	0xbe9382d4	-0.2881075
189	0x3e953c1a	0.29147416
190	0x3d48a281	0.0489831
191	0x3dab666b	0.08369144
192	0x3d27e72d	0.04099195
193	0x3f17b144	0.5925486
194	0x3eba6f11	0.36412862
195	0xbd1c0dea	-0.038099207
196	0x3dada471	0.0847863
197	0xbe82a64a	-0.25517493
198	0xbd0ca29e	-0.03433477
199	0xbf005f25	-0.5014518
200	0x3e2f37fb	0.17111199
201	0x3d3ffc34	0.04687138
202	0xbe3e1fbe	-0.18566796
203	0x3d52eb9d	0.05149423
204	0xbe408da2	-0.18804029
205	0xbcf64441	-0.030061843
206	0x3e087d7e	0.13329121
207	0xbe21e91d	-0.15811582
208	0xbd935cb1	-0.07195414
209	0xbe1bd264	-0.15216976
210	0xbd2666e8	-0.040625483
211	0xbefddc5f	-0.49582192
212	0xbe29b57c	-0.16573137
213	0x3ebdbd2c	0.3705839
214	0x3e0fefba	0.14056292
215	0x3ca17399	0.019708442
216	0xbf47171b	-0.7776963
217	0x3e9a1076	0.30090684
218	0x3e71adef	0.23601507
219	0x3f336c3f	0.70087045
220	0xbe9ad01d	-0.30236903
221	0x3e670aa7	0.22562657
222	0x3d070ffe	0.032974236
223	0xbf032b14	-0.51237607
224	0xbeb03636	-0.3441636
225	0x3c7d2208	0.015450008
226	0x3e86d020	0.26330662
227	0xbdc2d0e3	-0.09512498
228	0x3edef75b	0.43548092
229	0x3e017d47	0.12645446
230	0xbe2c8420	-0.16847277
231	0xbebbbcb0	-0.36667395
232	0xbe578c7f	-0.21049689
233	0x3eb38dcd	0.35069123
234	0x3c618126	0.013763702
235	0xbe5dc9a9	-0.21658958
236	0xbdfd9b35	-0.12383119
237	0xbe7bc774	-0.24587804
238	0x3ea4c16f	0.32178828
239	0x3e34ff0e	0.1767542
240	0x3decbbb9	0.11559243
241	0x3efde755	0.49590555
242	0xbdf2c5e9	-0.118541546
243	0xbe15bd0a	-0.14622894
244	0x3edfae7c	0.4368781
245	0x3d57d9aa	0.052697815
246	0x3ed210b6	0.41028374
247	0xbe90316a	-0.281627
248	0x3efb028a	0.49025375
249	0xbd97046b	-0.073738895
250	0xbe9ab43d	-0.30215636
251	0xbdbebb95	-0.09313122
252	0x3d50c85f	0.05097234
253	0xbf24e9eb	-0.6441943
254	0xbea7e441	-0.3279133
255	0x3d549429	0.05189911

encoder.conv_logstd.bias f4 [20]
0	0xbee01330	-0.4376464
1	0xbedf680f	-0.43634078
2	0xbeaedc22	-0.34152323
3	0xbebe62fd	-0.37184897
4	0xbed3c7b2	-0.41363293
5	0xbe9b6ed5	-0.30357996
6	0xbeafe697	-0.34355614
7	0xbf04d0d7	-0.51881164
8	0xbe97f30d	-0.2967762
9	0xbefbdb40	-0.49190712
10	0xbeb15529	-0.34635285
11	0xbe7af881	-0.24508859
12	0xbee42e86	-0.44566745
13	0xbeddbb69	-0.43307045
14	0xbee75f4e	-0.451899
15	0xbec2cea2	-0.38048273
16	0xbea9f652	-0.3319574
17	0xbed6279f	-0.41827103
18	0xbf01ba8a	-0.5067526
19	0xbebf5502	-0.37369543

encoder.conv_logstd.lin.weight f4 [20, 20]
0	0xbe7f11e4	-0.24909168
1	0x3d84179d	0.064498164
2	0x3b91ee51	0.0044534584
3	0xbe5ae669	-0.21376957
4	0xbda1a822	-0.07893397
5	0x3ce90d32	0.028448675
6	0xbec1288f	-0.37726256
7	0xbd71eb25	-0.059062142
8	0x3da3db55	0.08000819
9	0xbe45b361	-0.19306709
10	0x3d6cb1aa	0.05778662
11	0x3e85677a	0.2605551
12	0xbda8fcd8	-0.08251351
13	0xbceccfea	-0.028907735
14	0xbe56ff38	-0.20995796
15	0xbde2ffb1	-0.110839255
16	0xbd194e35	-0.0374281
17	0x3e8feeb2	0.28111798
18	0xbf03d693	-0.5149929
19	0xbd909137	-0.070589475
20	0xbe68e1d5	-0.22742398
21	0x3e11f2de	0.14252803
22	0xbda397af	-0.07987916
23	0xbd963937	-0.073351316
24	0xbd9d7e00	-0.07690048
25	0x3c531f84	0.012885932
26	0xbea070ea	-0.31336147
27	0xbe31acbc	-0.17351049
28	0xbde44807	-0.111465506
29	0xbe090a45	-0.13382824
30	0x3d40ded0	0.04708749
31	0x3db5e489	0.0888148
32	0xbe3f1ef6	-0.18664154
33	0x3da04112	0.07824911
34	0xbd7dbbdc	-0.061946735
35	0xbcee6388	-0.029100195
36	0xbd7c9355	-0.061663944
37	0x3cf483b3	0.029847955
38	0xbeae87c6	-0.34087962
39	0x3bbd9bf5	0.005786414
40	0xbdf5a8b8	-0.11995071
41	0x3d321d7e	0.043485157
42	0xbd8d945a	-0.069130614
43	0xbd894db8	-0.06704277
44	0xbc83aa52	-0.016072426
45	0x3dc11dd6	0.09429519
46	0xbeb6f9e8	-0.35737538
47	0xbec968cc	-0.39337766
48	0xbe76650f	-0.24061988
49	0xbe4932ff	-0.1964836
50	0x3d9dc5bc	0.077037305
51	0xbca3504a	-0.019935746
52	0xbe2a6d45	-0.16643246
53	0x3d967c11	0.073478825
54	0xbc18097d	-0.009279606
55	0xbe165418	-0.14680517
56	0x3d8e3d42	0.06945278
57	0xbd2a3b25	-0.04156031
58	0xbe36e772	-0.17861727
59	0x3e01de31	0.12682416
60	0xbec69930	-0.38788748
61	0x3d52081c	0.051277265
62	0x3d316e53	0.043318104
63	0xbdfdb15a	-0.12387343
64	0xbdd71a52	-0.10503067
65	0x3df354f7	0.1188144
66	0xbebf5b51	-0.37374356
67	0xbdd77d73	-0.105219744
68	0xbd32857a	-0.043584324
69	0xbe9b2074	-0.30298197
70	0x3c57c498	0.01316943
71	0x3e4aa97e	0.19791219
72	0xbe172955	-0.1476186
73	0x3e101d18	0.14073598
74	0xbde3a7de	-0.111160025
75	0x3d0c7ba6	0.034297608
76	0xbc6dd0da	-0.014515126
77	0x3e864abc	0.26228893
78	0xbf07b41a	-0.5300919
79	0xbaa7a14c	-0.0012789159
80	0x3d5b4514	0.053532675
81	0xbd6543e7	-0.05597296
82	0xbd8f3cab	-0.06993993
83	0xbe06096b	-0.1308953
84	0xbd134c8d	-0.035961676
85	0xbdc1d8a5	-0.0946515
86	0xbee20900	-0.4414749
87	0xbe9b867d	-0.30376044
88	0xbd757163	-0.059922587
89	0xbe1c58ca	-0.15268245
90	0x3e29758f	0.16548751
91	0x3e8f5c03	0.27999887
92	0xbdcc8424	-0.09986141
93	0x3cbe3449	0.02321829
94	0xbe3212e8	-0.17390025
95	0xbe4d3074	-0.20038015
96	0x3c7b1341	0.015324415
97	0x3e1633dc	0.1466822
98	0xbe7b512b	-0.24542682
99	0xbd8bedf7	-0.068324976
100	0xbe716259	-0.23572673
101	0x3e12e1f1	0.14344002
102	0xbcb93b69	-0.022611337
103	0xbd5403ff	-0.051761623
104	0xbd1f3add	-0.038874496
105	0x3e346aa0	0.17618799
106	0xbeb8a5a8	-0.36063886
107	0xbe6ccc97	-0.2312492
108	0xbd8e4883	-0.06947424
109	0xbe0823e2	-0.13294938
110	0x3d9728bf	0.073808186
111	0x3d372441	0.04471231
112	0xbe193cf7	-0.14964662
113	0x3c01fe6d	0.007934195
114	0xbe43ff83	-0.19140439
115	0xbc57ad37	-0.013163856
116	0xbd1804b8	-0.037113875
117	0x3dc27b3d	0.09496162
118	0xbebef4ee	-0.37296242
119	0xbe054f27	-0.13018475
120	0xbeb84ea7	-0.35997507
121	0xbb8d74a1	-0.0043168818
122	0xbe1289ca	-0.14310375
123	0xbdf92a0b	-0.12166222
124	0x3dcaf5e2	0.0991018
125	0x3e41fbb3	0.18943672
126	0xbe69c11b	-0.2282757
127	0xbee8119e	-0.4532594
128	0xbe4aa2c8	-0.19788659
129	0xbd75f07f	-0.060043808
130	0x3cc21ba7	0.023694826
131	0x3d1912a9	0.03737131
132	0xbdf65f21	-0.12029863
133	0x3d4bb053	0.049728703
134	0x3cf3745a	0.029718567
135	0xbd277371	-0.040881578
136	0x3e35211c	0.17688411
137	0xbe088669	-0.13332523
138	0xbe499e81	-0.1968937
139	0xbd5432d4	-0.051806286
140	0xbd7bb865	-0.06145515
141	0x3d1791a3	0.037004124
142	0xbe32e8e9	-0.1747166
143	0xbe980785	-0.29693237
144	0xbdf4e25d	-0.11957238
145	0xbccc91fb	-0.024971953
146	0xbed44cac	-0.41464746
147	0xbead77c4	-0.33880436
148	0xbdfdbb3a	-0.12389226
149	0xbe36b407	-0.17842112
150	0x3d85f885	0.06541542
151	0x3e250fc9	0.16119303
152	0xbe2ad36a	-0.1668221
153	0x3cc6ac32	0.024252031
154	0xbe187aaf	-0.1489055
155	0xbe541025	-0.20709284
156	0xbd587119	-0.052842233
157	0x3e2dfb1c	0.16990322
158	0xbea9da90	-0.33174562
159	0x3e34d689	0.17659964
160	0xbeb008de	-0.34381765
161	0x3e80e5b8	0.25175261
162	0xbd3702f5	-0.044680554
163	0x3e201ae4	0.15635258
164	0x3d6db211	0.058031145
165	0x3e439342	0.19099143
166	0xbe8500e0	-0.2597723
167	0xbead3da3	-0.33836088
168	0xbe6d261f	-0.23159073
169	0xba2bf5c5	-0.0006559755
170	0xbd03d6b3	-0.032187175
171	0xbe37e5a9	-0.17958702
172	0xbe822ad7	-0.2542331
173	0x3dac7288	0.084202826
174	0xbe2283e6	-0.15870628
175	0x3e436c9e	0.19084403
176	0xbd584ce1	-0.052807692
177	0xbcc8d616	-0.024516147
178	0xbe282969	-0.16422047
179	0xbe86a43e	-0.26297182
180	0xbe5fd6f4	-0.21859342
181	0x3e10f9ca	0.14157787
182	0xbe04d637	-0.12972341
183	0xbcebbe79	-0.028777348
184	0x3e0342ef	0.12818502
185	0xbe207147	-0.15668212
186	0xbea9146a	-0.33023387
187	0xbe8abb70	-0.27096128
188	0xbdd14dc5	-0.102199115
189	0xbe317595	-0.1733001
190	0x3c13cb6c	0.0090206675
191	0x3df27b45	0.11839918
192	0xbe7e64d2	-0.24843147
193	0x3dcad1ac	0.09903273
194	0xbe3e4fe6	-0.18585166
195	0xbc3260d6	-0.010887345
196	0xbd39c205	-0.045351047
197	0x3e8873b1	0.26650766
198	0xbe7472ef	-0.23871969
199	0xbe01733c	-0.12641615
200	0xbe1a86a9	-0.15090431
201	0xbc5d98f1	-0.013525234
202	0xbcc72ce7	-0.024313403
203	0xbe0ccc61	-0.1374984
204	0xbb35adb3	-0.002772194
205	0x3da452b6	0.08023588
206	0xbea07624	-0.31340134
207	0xbe42630e	-0.18983099
208	0xbdbcb736	-0.09214632
209	0xbe0c9a77	-0.13730799
210	0x3d04105e	0.03224217
211	0x3dd0e34a	0.10199602
212	0xbdc213f1	-0.0947646
213	0x3c4671fe	0.012112139
214	0xbe01e88d	-0.12686367
215	0xbd95d9cc	-0.07316932
216	0x3cd00b83	0.025396114
217	0x3da10050	0.07861388
218	0xbeaa0bc5	-0.33212104
219	0xbce6f557	-0.028193159
220	0x3c903685	0.017604122
221	0x3d739eaf	0.059477504
222	0x3e90b101	0.28260043
223	0x3df790af	0.12088143
224	0xbdfde6bb	-0.12397524
225	0x3e5a0015	0.21289094
226	0xbef84a2c	-0.4849409
227	0xbe116024	-0.14196831
228	0x3cd8c062	0.026458923
229	0xbe4e0f6d	-0.20123072
230	0x3bca821c	0.006180061
231	0x3e07576b	0.13216941
232	0xbe3c292b	-0.1837508
233	0xbe06d2a0	-0.13166285
234	0xbed8940f	-0.4230046
235	0xbdba4673	-0.09095468
236	0xba106d1f	-0.00055094244
237	0x3e4c2082	0.19934276
238	0xbf0aa4c3	-0.54157656
239	0xbe546413	-0.207413
240	0xbe333ac1	-0.17502882
241	0x3d589c13	0.05288322
242	0xbe29d02a	-0.16583315
243	0x3db48ece	0.088163
244	0x3c4de2b4	0.012566257
245	0xbc2a8395	-0.010407348
246	0xbe93d936	-0.28876656
247	0xbed04712	-0.40679222
248	0xbe9144e9	-0.28372887
249	0xbd981605	-0.07426075
250	0x3d59f74e	0.053214364
251	0xbddc2642	-0.107494846
252	0xbe8f11ed	-0.27943364
253	0x3eb08f93	0.34484538
254	0xbe04f5a8	-0.12984335
255	0xbcd4caaa	-0.025975544
