results/model_GCN/graph_split_/layers_4/transform_True/alpha_-5.0/model.pt (torch, 36694 bytes, 15 tensors)

encoder.conv.convs.0.bias f4 [40]
000000 20 62 6d bc e2 a7 bf 3d 66 d9 53 3d d1 94 81 bb
       -0.014488727 0.09358193 0.051721 -0.003954508
000010 fa cf 7f 3d 52 54 15 b8 64 19 fe 3d e7 6b 36 3d
       0.0624542 -3.5602898e-05 0.124071866 0.044536497
000020 d9 a2 59 3b c4 93 2b bd 32 80 81 bd b2 ed 95 bd
       0.0033208637 -0.041888967 -0.063232794 -0.073207274
000030 58 64 02 3d bc 9a cf 3d 78 12 4b bd 88 9f 84 bd
       0.031833977 0.10136935 -0.04957816 -0.06475741
000040 ac 2b 95 bc f7 e0 87 3d a3 cd 14 bb 4e 86 88 3d
       -0.018209301 0.066347055 -0.0022705577 0.066662416
000050 76 c6 b6 3d a1 fc 07 3d b2 70 2b bd ff ac d2 3c
       0.08924572 0.03319991 -0.04185552 0.025717257
000060 c5 53 ae 3d 57 5d ff bc e8 fc 60 3e 81 6e 8a bd
       0.085120715 -0.031172438 0.21971476 -0.06759358
000070 13 bc 38 3e 96 ec f5 3d 8f 16 27 3e 96 de 13 3c
       0.18040495 0.12008016 0.16317199 0.009025237
000080 bd 64 fe 3d 5a a8 09 bd 54 09 d1 3d 1b 4e 57 3d
       0.12421558 -0.03360782 0.10206857 0.05256472
000090 22 4e d7 3d c7 30 f9 bc 78 23 b2 3d d1 68 04 3e
       0.105129495 -0.030418767 0.086981714 0.1293061

encoder.conv.convs.0.lin.weight f4 [40, 40]
000000 74 35 92 3e c4 7a 45 bd 0e 90 b7 3c c9 31 3f 3e
       0.28556406 -0.04821278 0.022407558 0.18671335
000010 0b 44 73 3e c4 60 83 3d 3d 6b c9 3e f8 bd 28 be
       0.23756425 0.06414941 0.3933963 -0.16478717
000020 4a c3 33 3e 46 ac 13 be de 65 c9 3d 96 79 94 bd
       0.17554966 -0.14421186 0.09833883 -0.07249753
000030 b9 ac cb 3e 93 54 1b 3e 52 38 6a 3e 6e f7 9f 3d
       0.39780214 0.15168981 0.22873047 0.07810865
000040 f5 ae 06 be 6d d5 87 3e 18 9f bb 3c 2a dd 1f 3e
       -0.13152678 0.26530018 0.02290301 0.15611711
000050 9a 85 d4 be f7 cf 31 3e 7c 68 8e be a6 51 9b 3e
       -0.4150818 0.17364489 -0.2781409 0.3033573
000060 7b 3d cc be 0f ac 99 be ef e1 3b be 04 fe 2f be
       -0.39890656 -0.30014083 -0.18347906 -0.17186743
000070 48 b7 1a be 0b 91 87 bd 60 db c3 be 0c 63 3e 3d
       -0.15108979 -0.066194616 -0.38253307 0.046481177
000080 9c e9 68 be 87 10 7e be 2c b8 52 be e4 57 b7 3e
       -0.22745365 -0.24810992 -0.20578068 0.35809243
000090 40 74 84 3b e0 c8 fc 3d 1c 26 9c 3e d2 47 06 be
       0.0040421784 0.12343001 0.30497825 -0.13113335
0000a0 10 81 97 be 87 9c 0b be 16 9b e1 3e 00 f7 e0 3e
       -0.29590654 -0.13633929 0.44063634 0.43938446
0000b0 94 27 aa 3e 9e a5 26 3e 70 3a 60 be d0 d0 d9 3e
       0.3323332 0.16274115 -0.21897292 0.42542124
0000c0 0b be f5 3e b9 18 9a 3e 90 2b e9 be f1 ac 88 3e
       0.47996554 0.30096987 -0.45541048 0.26694444
0000d0 59 46 94 3d 10 00 26 3d 16 3f f2 3c 7c 6b 16 bf
       0.0723998 0.040527403 0.029571097 -0.5875776
0000e0 01 1d a8 be d5 a7 95 3e 99 8f b4 bd 7f 2c 2d be
       -0.32834628 0.29229608 -0.088164516 -0.16911505
0000f0 25 c3 47 be 29 fa 87 3e b9 04 09 3e 78 96 d4 be
       -0.19508035 0.26558045 0.13380708 -0.4152105
000100 4b 7a 62 be 28 81 2d be e4 5c c8 3d 31 61 92 be
       -0.22116964 -0.169438 0.097833425 -0.28589776
000110 b8 07 4a 3e 72 c4 02 bf 46 01 ce 3d 98 d5 06 3b
       0.19729507 -0.51081 0.10058837 0.002057409
000120 b2 ba f5 be 68 a8 ad be fc ef 98 3d ef 45 0b be
       -0.47994 -0.33917546 0.074676484 -0.13600896
000130 a1 50 10 3e 0d 9f c5 3d 1c d3 e4 3e bb b5 c8 bc
       0.14093257 0.09649477 0.44692314 -0.024500718
000140 43 28 39 bd ad 23 26 be 14 ab 50 be 09 ec 5d 3e
       -0.045204412 -0.16224547 -0.20377761 0.21672072
000150 26 bc ed bd c4 12 ef 3d fd 77 9c be 15 28 1f be
       -0.11608152 0.11673501 -0.30560294 -0.15542634
000160 27 20 e3 bd b5 94 6d bd 1f ab e0 bd 64 b0 ab 3c
       -0.11090117 -0.058003146 -0.10970139 0.020958133
000170 e4 02 83 be 8f d5 84 3d b4 00 f5 3c 06 eb cf 3d
       -0.25588143 0.064860456 0.029907562 0.10152249
000180 65 3a b1 be cc 99 1f 3d 46 8c a0 3e 28 31 c3 3e
       -0.34614864 0.03896503 0.3135702 0.3812344
000190 58 ce ea bd 5a 1a 64 bd 1e 55 10 be f3 a1 2f 3e
       -0.11465138 -0.055689193 -0.1409497 0.17151622
0001a0 a3 71 49 be 27 e4 fc 3d 91 1d 2f 3e bd 01 1e 3e
       -0.19672255 0.12348204 0.17101122 0.1543035
0001b0 86 c9 3f be 55 3c 63 3e 17 3d 2d be e3 b8 49 bd
       -0.18729219 0.22190984 -0.16917835 -0.049248587
0001c0 e5 28 7b 3e 08 3c 67 be 23 b0 8f be bf 4f 79 bd
       0.24527319 -0.22581494 -0.2806407 -0.060867067
0001d0 4e e5 8b 3e 73 35 23 3e 81 de 0e bd 32 83 9a be
       0.27323383 0.15938358 -0.034880165 -0.3017822
0001e0 79 37 35 be 52 ce 9d be 9b 8e 00 be 4a 28 90 be
       -0.17696942 -0.30821472 -0.125544 -0.28155738
0001f0 16 ab 3d bd 3a d4 92 3d a5 56 0e 3e d1 7c dd bd
       -0.04630574 0.07169385 0.1390024 -0.108148225
000200 c8 29 df 3d 30 1d a3 3e 66 ae 4a 3e 94 84 8e be
       0.10896641 0.31858206 0.1979309 -0.27835524
000210 55 f9 30 be b0 9c 74 be 1f 0c 35 be 0f 42 3d be
       -0.17282613 -0.23887897 -0.17680405 -0.1848223
000220 14 f3 2a be 32 b4 09 3e e1 64 58 be 1f b5 29 3d
       -0.1669429 0.13447645 -0.21132232 0.041432496
000230 d0 fa 08 be a5 03 9c 3c fe 06 93 be 50 54 81 3d
       -0.13376927 0.019044707 -0.28716272 0.063149095
000240 aa f6 fb 3c 9b d3 8b be 0b 6b d3 bd da 44 25 be
       0.030757267 -0.2730988 -0.10323151 -0.16139546
000250 ee b4 f9 bd f5 75 46 be e4 0d 26 3e 28 d2 24 3e
       -0.12192713 -0.19380935 0.16216236 0.16095793
000260 9a 3f 74 3d d5 7c 8c 3d fa 89 a5 bd 5a f2 51 bc
       0.059630968 0.06859747 -0.080829576 -0.012814129
000270 47 fd 84 be 5d b7 0c 3e 23 c8 f1 bd 8e 8b 84 bd
       -0.25974485 0.13741823 -0.11805751 -0.064719304
000280 7c ee 5e 3e 10 97 a3 3e 5a 05 d4 3b 4f 5b fe 3e
       0.21770662 0.3195119 0.0064703645 0.49679038
000290 88 21 ae be 1e f1 8e be 71 99 8c be 08 3e 25 3e
       -0.34009957 -0.27918333 -0.27460817 0.16136944
0002a0 ec 69 2d be ff 82 84 3e fd dd 16 3d d8 88 85 3d
       -0.16934937 0.25881192 0.0368328 0.065202415
0002b0 f4 af 74 bd e8 5d 22 be da f0 19 be 2a 82 37 3d
       -0.059738114 -0.15856135 -0.15033284 0.04480187
0002c0 01 1f 42 3e 04 f3 88 be 51 72 53 3e 59 98 a2 be
       0.1895714 -0.26747906 0.20649077 -0.31756857
0002d0 8a 8b 33 be c9 17 1d 3c 78 b4 56 bb 89 38 08 3e
       -0.17533699 0.00958819 -0.0032761376 0.13302816
0002e0 84 9a 5b 3e 30 eb 6a 3e ad 1e 83 bd 44 e0 8e 3e
       0.21445662 0.2294128 -0.06402335 0.27905476
0002f0 34 81 1e 3c 4f 41 86 bd 62 4c 1a be c3 15 67 be
       0.009674359 -0.065554254 -0.150682 -0.22566895
000300 63 47 9e 3d dd 48 e6 bd 2d f2 35 be b6 f7 4b 3e
       0.0772846 -0.11244366 -0.17768164 0.19918713
000310 f4 2c 8d 3e 32 ec 76 3e bc 60 d9 bd eb 51 4d 3e
       0.2757336 0.24113539 -0.10614154 0.2005078
000320 58 83 ba 3d fd b9 0f be 2f e7 a3 bd a9 68 87 be
       0.09107083 -0.14035793 -0.08003079 -0.26447037
000330 50 7b 03 bd 08 a2 1c 3e b4 89 89 3e 80 21 e8 3c
       -0.03210002 0.15296185 0.26862872 0.028336287
000340 e0 09 92 3c 88 36 89 be da 6b 05 be a8 0e 9d 3b
       0.017826974 -0.26799417 -0.13029423 0.004793007
000350 d3 f7 0e 3e ea 39 07 be af d7 91 bd 51 12 21 be
       0.13961725 -0.13205686 -0.071212165 -0.15729643
000360 a9 ac 80 3e ff 8f 08 3e 81 c1 57 3e 34 f5 38 be
       0.2513173 0.1333618 0.2106991 -0.18062288
000370 69 09 35 3e e0 04 40 3e 12 94 a7 3e b1 d8 8a bd
       0.17679371 0.1875186 0.32730156 -0.06779612
000380 68 a7 3f 3d ca f0 2b 3e 19 7b 6f 3e 92 bb b8 be
       0.04679051 0.16791072 0.23386802 -0.36080605
000390 d5 ee 55 3e f9 14 3c 3d 80 da 1a bc e6 e2 6a bd
       0.20891888 0.04591844 -0.0094515085 -0.057345293
0003a0 85 f4 c1 bd 53 ce e4 3d 1b 7c 30 bd b9 07 20 3e
       -0.094704665 0.11172166 -0.043087106 0.15627946
0003b0 91 28 92 3b 93 40 54 bc 26 82 b6 3d 30 2e bd bd
       0.0044604023 -0.012954849 0.089115426 -0.09237325
0003c0 e3 9e a7 3e e7 4b 84 3d b2 5f 39 be 2c 15 7a 3e
       0.32738408 0.0645979 -0.18102911 0.24422139
0003d0 ba 17 04 be f6 e5 24 be 7f fd bd bd 3b c3 0c 3f
       -0.12899676 -0.16103348 -0.09276866 0.549854
0003e0 15 a6 64 3e 29 45 9e 3c 20 b1 b8 3d 7f 8a d1 3c
       0.2232898 0.019320088 0.09018159 0.025578735
0003f0 58 3d b3 be d2 c7 7d bd ac 7e 29 be 8a a4 4f bd
       -0.3500774 -0.06195814 -0.16552228 -0.050694026

encoder.conv.convs.1.bias f4 [40]
000000 d9 76 2f 3d 13 51 ea bc 27 27 66 bc 3d 7e ad ba
       0.04283795 -0.028603112 -0.014047421 -0.0013236474
000010 47 12 9d bc 90 ba f3 3d a1 df 45 bd 79 a5 61 bd
       -0.019173754 0.11900818 -0.048308972 -0.055089448
000020 7f 90 8b 3d 93 9d 47 bc 08 a3 f3 bd a9 53 81 bd
       0.0681467 -0.012183565 -0.1189633 -0.06314785
000030 9b 4a 8e bd 57 02 ab 3d a3 e5 ad 38 d3 e8 f6 3d
       -0.069478236 0.08350056 8.292056e-05 0.120561264
000040 2c e1 00 bd 61 41 aa 3d 04 28 d0 3d b5 c2 fc 3d
       -0.03146474 0.08313251 0.101638824 0.12341825
000050 28 b8 de 3c 40 35 09 3e 92 0f fe bd 99 74 1d 3e
       0.027187422 0.1339922 -0.124053136 0.1537651
000060 3c 8c 17 3e 16 f5 ae 3c c4 43 b5 bc b9 22 70 3a
       0.14799589 0.0213571 -0.02212704 0.00091604475
000070 d1 29 c3 bc f3 1d 93 bd 56 fe 01 bd a3 82 6f 3d
       -0.02382365 -0.07183447 -0.031736694 0.058474194
000080 af 81 03 bd 30 c9 3a 3e 41 31 93 3d d1 a5 4c 3b
       -0.032106098 0.1824081 0.07187129 0.0031226764
000090 a1 4d 02 bd 4f d4 a8 3d d7 1c 28 3e 36 d5 2d 3e
       -0.031812314 0.0824362 0.16417252 0.16975865

encoder.conv.convs.1.lin.weight f4 [40, 40]
000000 0d a1 61 3e 72 71 cb 3d 1d 4e 9b 3e 4a 31 ec bd
       0.22034092 0.09933747 0.30333033 -0.11532839
000010 e5 e2 10 3e d6 95 a5 3d 57 cd 90 3d 70 0d a5 be
       0.14149053 0.080852196 0.070704155 -0.32236814
000020 26 a3 84 be da 89 7e 3e 58 70 57 bd a8 d7 04 3d
       -0.25905722 0.24857274 -0.052597374 0.03243223
000030 76 01 81 be 00 59 1e 3e 27 9b ec be 04 06 5a be
       -0.25196427 0.15463638 -0.46212122 -0.21291357
000040 1c 72 81 3e 30 c5 cd be 85 af 19 bc ef 95 6e 3e
       0.2528237 -0.40189505 -0.009380226 0.23299383
000050 2a c3 bc be 7e a6 de be 1f 16 a2 3d dd a9 a2 3e
       -0.36867648 -0.43486398 0.079143755 0.3177022
000060 cd c3 7e 3d 5c 03 b9 be 90 c8 3d 3e b2 31 10 be
       0.06219845 -0.36135375 0.1853354 -0.14081457
000070 41 21 e8 3d 8c 72 1a 3e 28 7a 41 3e 14 6b 35 3e
       0.11334468 0.15082759 0.18894255 0.17716628
000080 ab d9 c5 bd 0c 4e e4 bc 59 50 77 3e 2a 6b 7a 3e
       -0.096606575 -0.027869247 0.24151744 0.24454942
000090 c5 38 c0 3d 5e f1 8f 3d b0 a5 3a 3e c4 ea 47 3e
       0.09385828 0.07028459 0.18227267 0.1952315
0000a0 42 c2 ab 3d 07 dd 2f be 5b c3 a7 bd 7f 8b 19 3d
       0.08386661 -0.17174159 -0.08191558 0.03748655
0000b0 41 25 40 3e 36 9b 3d 3d b5 58 5b be 91 61 fa bd
       0.18764211 0.0462906 -0.21420558 -0.122256406
0000c0 fa 43 00 3c 83 9d 42 3e 08 27 0e 3e 09 30 41 bd
       0.007828707 0.19005398 0.13882077 -0.04716495
0000d0 30 53 8c be 9d 1a ec bd b7 14 00 be 05 d3 2f be
       -0.27407217 -0.115285136 -0.12507902 -0.17170341
0000e0 e9 fd 71 3e 1f a5 7d be ce 06 41 3e ef 25 a3 bd
       0.23632015 -0.2477002 0.18850252 -0.0796622
0000f0 b6 f0 bb bc e6 0f f3 be a7 67 06 3e 36 ed fd bc
       -0.022941928 -0.47473067 0.13125478 -0.0309969
000100 4f e7 68 be 6a 71 4d bc f8 fc 8c be 36 70 03 bc
       -0.22744487 -0.012539247 -0.2753675 -0.008022359
000110 f2 d1 78 be f9 d9 19 3d 50 5a 55 3e 76 3a 82 be
       -0.24298838 0.03756139 0.20835233 -0.25435227
000120 24 36 93 3e 62 8f 31 bd a6 95 87 3e 30 60 2e 3e
       0.28752244 -0.04334963 0.2648136 0.1702888
000130 4a 71 1d 3d f6 e7 62 3e e0 05 00 be a5 a0 20 3e
       0.03843812 0.22158799 -0.12502241 0.15686281
000140 52 48 43 3e 00 4a ba be 6a 8c 98 bd 5f 9f 03 be
       0.19070557 -0.36384583 -0.07448657 -0.12853764
000150 45 0b 20 be c5 40 92 bb ee 1a e3 bd 65 91 4c bd
       -0.15629299 -0.0044632875 -0.11089121 -0.049943347
000160 db 67 c9 3d bc 22 32 3e b0 d4 02 3e 58 d2 3b 3e
       0.09834262 0.17396063 0.12776446 0.18341959
000170 c6 ff 92 be b9 a6 85 be b0 30 18 3e 54 05 b4 be
       -0.28710765 -0.26103762 0.14862323 -0.35160315
000180 88 e8 95 3c a2 98 0a be ae ed 88 3e 4e 6f 9d 3d
       0.018299356 -0.13534787 0.26743835 0.07687245
000190 30 4f d3 bd 02 8a 0b bf 3f ea 49 3e 02 11 07 3e
       -0.10317838 -0.5450746 0.19718264 0.13190082
0001a0 98 34 6d 3e c6 fe 88 3d c3 ea 69 be 1f 25 60 3d
       0.23164594 0.06689219 -0.2284346 0.0547229
0001b0 11 ec b2 3d 98 dd e5 bd 3d 34 eb bc de a0 47 3e
       0.08736432 -0.11223906 -0.028711433 0.1949496
0001c0 31 7b b8 3d 68 17 90 3b 37 f3 55 3e 8d 36 51 3e
       0.09007872 0.0043973215 0.2089356 0.20430966
0001d0 ce 70 53 3d 90 71 9d 3d 5b b3 95 bd 25 69 7b 3e
       0.05162125 0.07687676 -0.073096 0.24551828
0001e0 66 3d e7 3d d2 95 77 be c2 0e 38 be 45 cd df 3a
       0.11291008 -0.24178246 -0.1797438 0.0017074725
0001f0 c8 4b 82 be 60 72 2f 3e 64 93 59 be 8f 73 4f 3e
       -0.25448442 0.17133474 -0.21247631 0.20258926
000200 da d0 b5 bd 45 e9 69 3e d7 b5 07 3e c1 b2 56 be
       -0.08877726 0.22842892 0.1325296 -0.20966627
000210 93 27 60 be c1 20 24 be 3f 52 13 bb 64 4d 51 bd
       -0.21890096 -0.1602812 -0.0022479442 -0.051099196
000220 e0 31 2b be 55 8a 8c be 3d e9 de bd cd 2e 3f be
       -0.16718245 -0.2744929 -0.108843304 -0.18670197
000230 11 ea 6c be 77 02 28 3e 94 55 34 be a1 37 b0 bd
       -0.23136164 0.1640719 -0.1761077 -0.0860436
000240 15 85 8d bd 22 f6 3b bd e8 dc d2 3c ab 1a c9 3d
       -0.06910149 -0.045889027 0.025740102 0.0981954
000250 4b a6 8c be 81 95 71 be 46 02 76 be c7 bb f2 bd
       -0.2747062 -0.23592187 -0.24024305 -0.11852222
000260 71 37 71 3e da 45 bd 3b 14 a3 de bd e6 40 8e be
       0.23556305 0.005776149 -0.108709484 -0.2778389
000270 c7 8f 52 3e 57 9b ae bb 13 1e 70 be cc 79 81 3e
       0.20562659 -0.0053285765 -0.23448972 0.25288236
000280 61 b0 6f bc 44 46 1a be d7 92 a6 be 0c e9 93 3d
       -0.014629454 -0.15065867 -0.32533905 0.072221845
000290 78 91 74 3e 49 6c 82 3d db 76 d7 bd 9c 6a 38 3d
       0.23883617 0.0636831 -0.10520717 0.045023546
0002a0 24 c6 c9 be d1 01 03 be 7b 7c a0 3e 3e 50 af 3d
       -0.39408982 -0.12793662 0.3134497 0.08560227
0002b0 ef 68 18 be 5b f4 d6 3c 07 55 2d be be 97 be 3c
       -0.14883779 0.026239565 -0.16926967 0.023265716
0002c0 48 37 64 be c6 9c cd be 9d 4f fb 3d 4d 97 1c 3d
       -0.22286713 -0.4015867 0.122710444 0.03823023
0002d0 8e 6a 1c be d4 f2 01 3e 42 12 b2 bd 18 fd 98 3e
       -0.15275022 0.12690288 -0.08694889 0.29880595
0002e0 e4 7c 27 3d 73 8c e1 3d 4a 21 3f 3e b1 1f 2e bd
       0.04089059 0.11013117 0.18665043 -0.042510692
0002f0 3f 4b a0 be c7 ee 18 3f 4d 40 c4 3c aa d5 80 3e
       -0.31307408 0.59739345 0.023956442 0.25163013
000300 2f a0 47 3d 19 2c a1 3e 3c c1 6a 3d 0a 05 9d be
       0.048736747 0.31478956 0.05731319 -0.30667907
000310 a8 4c d5 3e f9 7d 62 3f fb 85 bf 3c 67 7b 89 be
       0.41660047 0.8847347 0.023379317 -0.2685196
000320 33 5d c1 b9 bb eb 89 3e 69 e7 9e 3d d8 6e 64 3c
       -0.00036881267 0.2693766 0.07758982 0.013942443
000330 f7 f0 43 3e c7 a4 92 be e6 38 c7 3e 89 9b e1 bc
       0.1913489 -0.2864134 0.38910598 -0.027539985
000340 22 99 46 3d 49 88 2d 3e ef 8a 20 be 27 3f 87 be
       0.048485883 0.1694652 -0.15677999 -0.2641537
000350 2f 98 e3 3c f0 25 a9 3e e2 8b 9c be 43 7a c2 3c
       0.027782528 0.33036757 -0.30575472 0.02373994
000360 02 55 1d 3e 9f 0a fe be f4 b6 1c 3d 41 50 87 3e
       0.15364459 -0.49617478 0.038260415 0.26428416
000370 98 6d 51 be 93 c1 f7 3d bc 41 29 3e 27 e1 63 3e
       -0.20451963 0.12097468 0.16528982 0.22253858
000380 62 7d 9e bd 22 f8 6b be 80 6e 0d 3e 10 71 b7 be
       -0.077387586 -0.23043874 0.13811684 -0.35828447
000390 d8 82 05 be 01 e4 91 bd 40 59 83 3d 16 96 90 3e
       -0.13038194 -0.071235664 0.064135075 0.28239506
0003a0 ed 6f 3f bd 2b a6 81 3e e1 06 a3 bd 0a f7 78 3e
       -0.0467376 0.2532209 -0.079602964 0.24312988
0003b0 93 a9 4c 3e 25 4a cb be d0 ed 6d 3a fe 24 cc 3e
       0.19986562 -0.39705005 0.00090762693 0.39871973
0003c0 28 01 52 be 30 8b 64 3e eb 51 34 3e 21 e8 0b 3d
       -0.20508254 0.22318721 0.17609374 0.034156922
0003d0 74 50 b4 3d 64 93 c0 bd 87 b6 9c bf cc 1d 1e 3e
       0.08804408 -0.094031125 -1.2243203 0.15441054
0003e0 d6 b5 6b 3e 41 28 2e be 35 f6 e7 bd 4c ed 67 3d
       0.23018584 -0.17007543 -0.11326257 0.05662279
0003f0 23 a3 45 3e 5a a6 b3 be 55 67 35 3d bf a9 02 be
       0.19300513 -0.35087854 0.044288 -0.12760065

encoder.conv.convs.2.bias f4 [40]
000000 51 4a f4 bc 39 e8 1c 3e 22 df c5 3d 16 be 1e 3d
       -0.029820593 0.15322961 0.096617 0.0387555
000010 d1 3b 22 3e 45 bf 33 be 7c d4 83 3e 3d e5 41 bd
       0.1584313 -0.17553432 0.2574805 -0.04733776
000020 70 98 09 3e e4 42 05 3e 83 5b f3 bd 5a 67 01 bd
       0.13437057 0.13013798 -0.11882689 -0.031592704
000030 ab 50 40 3e 0d 86 c8 3c e6 bf 2b bd 03 16 f8 3b
       0.18780772 0.024477983 -0.041931055 0.0075709834
000040 96 e2 08 bd e8 e9 ec 3d 8c 49 47 3e fd 06 41 3d
       -0.033419214 0.115680516 0.1946165 0.047125805
000050 55 68 c0 bc 84 c7 5e bd c3 57 da 3d 1b 5d 3f 3e
       -0.02348725 -0.05438949 0.106612705 0.1868786
000060 d3 65 d4 bd 79 a7 24 3e c9 f1 85 bc 4e 71 43 3d
       -0.10370984 0.16079511 -0.016350644 0.047715478
000070 25 7c d1 3d 20 ef ca 3c c3 95 a0 3d 3e 49 67 bd
       0.10228757 0.024772227 0.07841065 -0.056466334
000080 79 7e 8f 3c 37 bc 18 3e 13 20 9d 3c 6d f5 91 bc
       0.017516362 0.14915548 0.019180333 -0.017817223
000090 68 33 19 3e 5b 10 55 3e 62 ca 28 3d 4c 6e 05 bd
       0.14961016 0.2080702 0.041208632 -0.03257589

encoder.conv.convs.2.lin.weight f4 [40, 40]
000000 98 e1 5d be 44 17 94 be 6f 99 d0 3c 41 6e 99 3d
       -0.21668088 -0.28924 0.025463788 0.074917324
000010 e3 9d 23 3e ab 16 3c 3e 4d 49 9d 3e 94 08 24 3e
       0.15978198 0.18368022 0.30719987 0.16018897
000020 98 27 38 be 18 49 83 be 02 14 9a 3c 2f 03 fe bd
       -0.17983854 -0.25641704 0.018808369 -0.12402951
000030 3d d2 a5 3e bc ca 9d bd f7 7b 0a be d9 40 75 3d
       0.32386962 -0.07704684 -0.13523851 0.059876297
000040 cd 7e 3f bd 55 34 23 be b2 97 7c be 15 53 29 3c
       -0.046751786 -0.15937932 -0.24667242 0.01033475
000050 47 f4 50 be fd 13 09 3e c2 2c 7d bd c1 1c 28 3e
       -0.20405684 0.13386531 -0.061810263 0.16417219
000060 b5 69 41 be e3 84 a3 bb 8c 6c 66 3e 5e 67 6c 3e
       -0.1888798 -0.0049902066 0.22502345 0.23086306
000070 26 d2 92 3e 97 44 47 3e f9 ca 96 3d 29 e2 a1 3c
       0.28675956 0.19459759 0.07362933 0.019761162
000080 ea e8 c2 3d f1 c2 cc 3d 37 ef 41 3c 7a 9d 2f bd
       0.09517081 0.099981196 0.011836818 -0.04287479
000090 e4 9d cc 3c c6 d2 70 bd 0f d8 2e bd 7e 18 66 be
       0.024977632 -0.05879476 -0.04268652 -0.2247028
0000a0 cf 94 26 3e 59 66 21 3e 27 5d 54 be 5e b0 06 bd
       0.16267703 0.15761699 -0.2073866 -0.03288304
0000b0 3e c8 23 bd de 5f 31 be ac 85 86 be af 0d ba 3e
       -0.039985888 -0.17321727 -0.2627386 0.36338565
0000c0 8c 2e 66 bb 59 46 ad 3e 74 c8 15 3e e2 b8 c2 3d
       -0.003512296 0.33842734 0.14627248 0.0950792
0000d0 5c da ec bd 8f fb 35 be 27 44 16 bd 85 4b 56 be
       -0.11565086 -0.17771743 -0.03668609 -0.20927246
0000e0 7b af 97 3e 9e 8c 8d 3e f8 44 0e 3e f9 74 3a 3e
       0.29626068 0.27646345 0.13893497 0.18208684
0000f0 f8 34 85 3d bc 1a 8a be 05 b4 43 3e e4 ee 17 be
       0.065042436 -0.26973522 0.19111641 -0.14837223
000100 fd 79 97 3e 87 3d 87 3e 6e fe 75 bd 06 cd 26 3e
       0.29585257 0.2641413 -0.060057096 0.16289148
000110 f6 1e d1 be 29 94 64 3e 5b b2 1a 3d 3a 5c bc 3d
       -0.40843934 0.22322144 0.03776775 0.09197278
000120 b4 59 79 bc 82 88 70 3e 51 8f ce 3e 6b 7a df 3c
       -0.015219141 0.23489574 0.40343717 0.027280053
000130 fe 4d 15 bb 0c cf e7 bc 4d 20 aa be 86 29 92 3e
       -0.0022782083 -0.02829697 -0.3322777 0.28547305
000140 17 e3 34 bd 09 09 34 bf b6 5f e0 3a 6d b8 65 be
       -0.044161882 -0.70326287 0.0017118368 -0.22433634
000150 db f3 7b be 18 02 86 bd dc e4 ad bc 51 8f 6c 3e
       -0.24604742 -0.06543368 -0.021227293 0.23101546
000160 ff 58 99 bc 06 c6 7c 3e f4 67 59 3e a5 e0 54 be
       -0.018719194 0.24684915 0.21231061 -0.2078882
000170 b7 dd bb 3d 18 d7 b2 3d 2b 24 03 b9 7b 79 ca bc
       0.09173148 0.08732432 -0.00012506607 -0.02471613
000180 90 a8 ac bd cd e4 ee bc 97 68 4a 3e 66 e5 36 be
       -0.08430588 -0.029161835 0.1976646 -0.17860946
000190 fd 54 47 3d f2 2d 4c 3e 24 7c 77 3e 13 1b bb 3c
       0.048665036 0.19939402 0.2416845 0.022840058
0001a0 53 bd 3b 3d dd 6a cf bd d4 b4 12 3e 84 53 81 3e
       0.04583485 -0.101278044 0.14326793 0.2525903
0001b0 1b 7c 77 3f a4 d4 66 bd a5 d4 80 be 6e 91 e9 bd
       0.96673745 -0.056355134 -0.25162235 -0.11404692
0001c0 25 0e 2c be 51 e4 ad be 2e 23 7f be cd e2 59 3e
       -0.1680227 -0.33963254 -0.24915764 0.21277924
0001d0 6b d1 5d 3e df 27 0c 3d 8e 5d df be f1 50 95 bd
       0.21661918 0.03421771 -0.43626064 -0.07290829
0001e0 07 f9 09 bd 68 3a 54 3e 15 9d a8 3d a0 e5 13 3e
       -0.033684757 0.20725405 0.08233086 0.14443064
0001f0 b4 0f fe ba 25 c3 e8 bd 50 1a af bc 7a 4e c7 bd
       -0.0019383342 -0.11365346 -0.021374851 -0.09731765
000200 dc c5 23 be 94 86 12 be a3 35 1b be 8b 2a fc 3c
       -0.15993446 -0.1430915 -0.1515718 0.030782005
000210 9c f3 26 3d dc 02 34 be 5c f9 ee 3d aa 71 3a 3e
       0.040759668 -0.17579216 0.11668655 0.18207422
000220 97 1c 83 be 6f 38 29 3e c3 29 87 3e cb b2 2a 3e
       -0.2560775 0.16525434 0.2639905 0.16669767
000230 41 83 03 be 5f 75 06 3c f1 d7 25 3e c3 8c 70 3d
       -0.12843038 0.008206694 0.16195656 0.05872799
000240 5a ac 53 3d 6f 69 94 3b ef 13 f0 3d 55 1d e8 ba
       0.05167804 0.00452917 0.11722552 -0.0017708937
000250 ca b8 0f 3e f6 46 04 bd 3a c9 78 3d d6 99 93 3d
       0.14035335 -0.032294236 0.06073878 0.07207076
000260 a9 a1 ce bd 08 a8 58 be 91 9c 6f 3e 60 fe 89 3e
       -0.10089428 -0.21157849 0.23399569 0.26951885
000270 45 c0 23 3e 5b c1 84 be 74 d5 c3 3c 90 cf 07 3e
       0.15991314 -0.2592877 0.023905493 0.13262773
000280 0f c2 3d be b1 1d 54 3e 08 1e c0 3e 63 d9 0e 3e
       -0.18531059 0.20714451 0.37522912 0.13950114
000290 7d 68 3d 3e e1 64 37 be e5 7c 3b bf 64 e6 0d be
       0.1849689 -0.17909576 -0.7323745 -0.13857418
0002a0 1d 2c 83 3e 41 98 dc 3d f1 0d 0e 3c 45 e6 19 be
       0.25619593 0.10771228 0.008670316 -0.15029247
0002b0 f8 b5 a6 be a1 1c 62 3e 2a bd 56 be 8d a6 d6 3e
       -0.32560706 0.22081234 -0.20970598 0.41923943
0002c0 c0 2d 75 be 6a 5e 73 3e ea 00 c9 bd f1 d4 e4 3d
       -0.23943233 0.23766485 -0.098146275 0.11173428
0002d0 b3 5a 70 3e a8 4c 06 be 18 02 9c 3d 65 f9 99 be
       0.23472099 -0.1311518 0.07617587 -0.30073085
0002e0 56 28 58 be 80 59 1f 3d f5 38 07 3d 2c f1 13 be
       -0.21109137 0.038903713 0.033013303 -0.14447469
0002f0 74 d5 ee 3c 35 4e 90 be c5 b2 16 3d 2f 6d a3 3e
       0.029154517 -0.28184667 0.03679158 0.31919238
000300 f8 f7 96 be 5e 95 2b be 00 0d a8 be 84 1b 44 3d
       -0.2948606 -0.16756198 -0.32822418 0.047877803
000310 4a 74 c6 bd 21 70 53 3e b9 b9 94 3e f2 cd f4 bb
       -0.09690149 0.20648243 0.29047945 -0.0074708397
000320 30 1b dc 3e 41 da a8 be 76 22 4c be 42 bc 4a 3e
       0.42989492 -0.32979015 -0.19935021 0.19798377
000330 18 2f aa bd cf a8 46 be 18 59 0e be 9f 43 b5 3e
       -0.08309764 -0.19400333 -0.13901174 0.35403153
000340 7f cb 93 bd d6 87 52 3e 33 a0 d8 3d 65 a4 14 be
       -0.07216548 0.2055963 0.105774306 -0.14515837
000350 99 52 9c 3d ac 77 61 bd bb 7c ae be fb 02 6e be
       0.07632942 -0.05504577 -0.34079537 -0.23243324
000360 5a 52 81 3e fa e8 7e 3d 36 cf fb bd 0e d4 4b 3d
       0.25258142 0.062233903 -0.12295382 0.049762778
000370 fe d9 01 be f3 bc 03 bf 99 e0 ee 3d 23 b8 84 be
       -0.12680814 -0.5146019 0.11663932 -0.25921735
000380 3d fd 05 bf 5a ed 81 be d8 fa 02 be 53 3e 6b bd
       -0.52339536 -0.25376397 -0.12791002 -0.057432484
000390 21 22 9b 3f 9e 9e 56 3e 63 c6 69 be 61 d0 ca be
       1.211979 0.20958945 -0.22829585 -0.39612105
0003a0 3d 2b 5b 3e bd 77 27 bf 96 d1 36 bf b4 d2 d3 3b
       0.21403213 -0.6541708 -0.7141355 0.0064643268
0003b0 84 a4 ae 3e ce 00 50 be 41 3f 15 bf 21 f8 a8 bd
       0.3410989 -0.20312807 -0.5829964 -0.08250452
0003c0 a7 f7 01 be 7b 09 5b be 9c 44 1e 3e 32 07 57 be
       -0.12692128 -0.21390335 0.1545586 -0.20998839
0003d0 f1 fa 69 be e0 8d 4f 3e 41 6b e0 bd da b0 aa 3e
       -0.22849633 0.20268965 -0.10957957 0.33338052
0003e0 1b b9 21 be dc bf 38 3e fd 46 06 3e 98 37 96 3e
       -0.15793268 0.18041939 0.13113017 0.2933929
0003f0 e6 4f 29 bc e5 3c 93 3e 89 53 57 bc 90 f6 3b 3e
       -0.010333991 0.28757396 -0.013142475 0.18355775

encoder.conv.convs.3.bias f4 [20]
000000 98 bb 33 3e f9 6d 97 bc b3 70 c5 bb a2 4c c6 3d
       0.1755203 -0.018485056 -0.0060253977 0.09682585
000010 f8 d8 4c 3e 4b 06 ff 3d 0f 09 37 3e b5 15 af 3d
       0.20004642 0.12452372 0.1787455 0.08549062
000020 86 68 9a bc 00 00 00 00 70 e2 ab 3c f4 7b 07 bd
       -0.018848669 0.0 0.020981997 -0.033077195
000030 a0 13 36 bd 6c 64 57 bb cf 87 2f be 8e 66 3a bd
       -0.04445231 -0.0032866253 -0.1714165 -0.04550796
000040 73 f6 4b bd 3b 97 65 3d 92 57 c3 bc 77 68 36 3e
       -0.04979558 0.056052428 -0.023845468 0.17813288

encoder.conv.convs.3.lin.weight f4 [20, 40]
000000 ac e0 85 be 9e ef 9b 3e ee e6 89 be f7 df 23 3e
       -0.26147974 0.3045625 -0.26933998 0.16003405
000010 36 bd 17 be b8 f3 6c 3f d1 05 7c 3e a8 63 82 bd
       -0.14818272 0.92559385 0.24611594 -0.06366664
000020 38 e5 37 3e d8 ed 89 3e c2 cd c8 be 80 0c b7 bd
       0.17958534 0.26939273 -0.3921948 -0.08937931
000030 53 4a d4 be d3 2e 40 bf 48 c2 ac be 59 86 57 bf
       -0.41462955 -0.7507145 -0.33741975 -0.84189373
000040 bb ee 09 be d1 e4 c6 3e 77 7e 43 3e 80 62 78 3d
       -0.13469975 0.38846448 0.19091211 0.060640812
000050 20 44 11 3e 22 94 66 be 1e 80 92 be 48 62 86 3e
       0.14186144 -0.22517446 -0.2861337 0.26246858
000060 e8 69 0c 3c 43 d4 d7 be 10 12 0b 3e 58 0d f4 bd
       0.008570172 -0.4215413 0.13581109 -0.119166076
000070 93 ef a4 3e 11 49 14 be 8d 66 99 3e 6b 7d 22 bf
       0.3221403 -0.14480998 0.29961053 -0.6347262
000080 ab 91 aa bd d3 1d ee 3d 89 bf dd be 91 84 83 be
       -0.08328565 0.11626782 -0.43310192 -0.25687078
000090 8d 35 1d be ad b5 a1 3b 7b 02 a7 bd b4 35 06 3e
       -0.15352459 0.0049349875 -0.0815477 0.13106424
0000a0 ff 36 39 3d 4a 07 e2 3c 9b b2 1b 3e 8a 27 6d bd
       0.045218464 0.027591366 0.15204851 -0.057899036
0000b0 31 90 7e bd ee bf b9 bd 70 dd 83 3e ed 59 16 3e
       -0.06214923 -0.09069811 0.2575488 0.14682741
0000c0 59 a5 45 3e 1f 30 b1 3e 20 ff c4 be 26 19 90 be
       0.19301356 0.34607026 -0.38475895 -0.28144187
0000d0 03 11 14 3c 2e de 72 be f4 3b c8 bb d2 97 6f be
       0.009037259 -0.23717567 -0.0061106626 -0.23397759
0000e0 d2 5a 15 bd 98 0d b1 3e 1d 5b 19 bf 26 31 ed bd
       -0.036463566 0.34580684 -0.5990465 -0.1158164
0000f0 b5 a1 4c bd 1e 78 5a 3e 80 ab 10 be 79 54 6a 3e
       -0.049958903 0.21334884 -0.14127922 0.22883786
000100 d5 92 8a 3e 31 14 69 3e 00 d5 90 3c 6f 37 00 be
       0.2706515 0.22761609 0.017679691 -0.12521146
000110 8e 24 81 3e dc bd 9b bd 8e a1 50 3e 6f 1b f2 3d
       0.25223202 -0.07604572 0.20374128 0.11821639
000120 f5 32 32 3e ed 86 a0 be 92 7a b9 bd 5d d0 53 3e
       0.17402251 -0.3135294 -0.090565816 0.20684953
000130 db 73 a4 3d 28 9c 16 be 91 ac fb bd 47 5d 24 be
       0.0802991 -0.14708006 -0.12288774 -0.16051207
000140 a7 a2 0f be 90 0a 81 be d0 bf 3e 3e ce a6 31 3e
       -0.1402689 -0.2520337 0.18627858 0.17348787
000150 7f 38 e1 3e 99 49 df bc 27 b2 39 3e c2 3a 84 3e
       0.43988416 -0.027256774 0.18134366 0.2582608
000160 75 24 62 bd bc c7 37 3e 09 e5 6e 3e ba ef 00 3e
       -0.05521055 0.17947286 0.23329557 0.12591448
000170 db 94 56 be 4b 34 cc bc cb ac 0b be 7f 8f 29 3e
       -0.20955221 -0.024927279 -0.13640134 0.16558646
000180 fb 3c 1b be 13 49 00 bf ef 10 87 be 5d 5c 72 3e
       -0.15159981 -0.501115 -0.26380107 0.23668046
000190 56 3a c8 bc a0 06 6a 3e a7 3c 9a bd 5a dc 0c 3e
       -0.02444188 0.2285409 -0.075311 0.13755932
0001a0 55 64 22 bd 01 74 a8 be 61 3a c7 3d c7 04 a9 be
       -0.039646465 -0.32901004 0.09727932 -0.33011457
0001b0 5b 77 ba 3e 3b bd 69 3c 17 a1 55 be 09 94 32 be
       0.36419186 0.0142663075 -0.20862232 -0.17439283
0001c0 7f 4e 4b be d9 7f b7 bd 84 87 91 3d 3b 0f eb bd
       -0.19854163 -0.08959932 0.07105926 -0.11477514
0001d0 7d 9b fb bd eb fc ae 3e 8f a1 8f be 7b 3d 0f 3e
       -0.122855164 0.34177336 -0.28052947 0.13988297
0001e0 be ff 08 3d 1a 76 91 3e 75 11 ca 3d ca c9 32 3e
       0.03344702 0.28410417 0.09866611 0.17459789
0001f0 27 47 92 3e c9 ef 32 be da 9a a8 3e d4 66 81 bd
       0.2856991 -0.17474283 0.32930642 -0.06318441
000200 bd eb 58 3e 07 1e 4e bd d1 be 02 be fd cb 40 bd
       0.21183677 -0.050321605 -0.12768103 -0.04706954
000210 1d bd 46 3e 38 af 36 be ab 87 5b bd 5a 46 51 be
       0.19408078 -0.17840278 -0.05359618 -0.20436993
000220 65 60 2f be 3f 1d c1 3e 55 af f5 3d 22 98 99 3e
       -0.17126615 0.37717625 0.119963326 0.2999888
000230 19 f3 15 be 75 da 28 be 71 8b 79 3c 27 74 aa bd
       -0.14643516 -0.16489585 0.015230999 -0.083229356
000240 ae ae a5 3e 9e e5 40 3e 81 6f 29 bd a3 6e 55 bb
       0.32359833 0.18837592 -0.041366104 -0.0032567165
000250 6c c6 17 bc 47 71 b8 3c 10 63 a1 3d 3c b4 1d be
       -0.009263616 0.022514952 0.07880223 -0.15400785
000260 5d de 60 3e f4 ad d1 bd e6 55 49 bd 69 08 97 be
       0.21959825 -0.10238257 -0.049154185 -0.29498604
000270 f2 fc 91 3c 13 9f 90 3e 67 c0 ad 3d 44 9d 58 3e
       0.017820809 0.28246364 0.084839635 0.21153742
000280 32 9a ee bc 76 87 87 3e 89 d1 a1 3e d7 6e af 3c
       -0.02912626 0.26470536 0.31605175 0.021415157
000290 31 a7 a9 3c 3a 28 ba be ba e7 a8 3e 63 88 81 3e
       0.020709606 -0.36358815 0.32989293 0.25299367
0002a0 7a 9b 1d bf 2a 3c d2 be 16 c9 5e bd 97 96 74 be
       -0.61565363 -0.41061527 -0.05439099 -0.2388557
0002b0 80 1d b0 3e 29 ff 02 be 89 38 10 bd f9 de 84 be
       0.34397507 -0.12792648 -0.035210166 -0.25951365
0002c0 4e 8f 67 bf cf c4 82 3d bd 6d 10 3e ce 34 28 3f
       -0.9045304 0.063851945 0.14104362 0.65705574
0002d0 ec 00 38 bd 8c 48 56 3e 54 07 a3 3d 19 7f 9e be
       -0.044922754 0.20926112 0.07960382 -0.30956343
0002e0 a2 cb 3f be 1a e6 7e 3e 26 b3 99 3e 58 fd 81 3c
       -0.18730024 0.24892464 0.30019492 0.015867874
0002f0 0e 96 63 3e 51 93 95 3e 0f ce 4e bf 8a 98 ce be
       0.2222521 0.29213956 -0.8078317 -0.40350753
000300 cf f5 d1 3b a1 49 98 be 85 5b 85 bd 53 7e 5f be
       0.0064074765 -0.29743674 -0.065115966 -0.21825533
000310 4c 47 d6 bd a1 45 cc 3c 84 8f 5b be 03 8c 49 be
       -0.104628175 0.024935545 -0.21441466 -0.19682316
000320 85 84 82 bc f6 48 57 be e4 9f 3d be 84 dc 59 3e
       -0.01593233 -0.21023926 -0.18518025 0.21275526
000330 8c 09 a6 3e bb 85 76 be 3b 01 f2 3d 5f 5f 40 3e
       0.3242916 -0.24074452 0.11816641 0.18786381
000340 f7 f9 2f bf 6b 54 23 3d 85 36 ec bd 1f 51 21 3e
       -0.6874079 0.03987543 -0.11533836 0.15753601
000350 2e 08 31 3e d9 d2 83 3e dc 77 59 be 5e c8 74 3e
       0.17288277 0.25746801 -0.21237129 0.23904559
000360 b5 99 86 bf 60 bd 68 be aa 25 82 be b3 d4 1c 3f
       -1.0515658 -0.22728491 -0.2541936 0.61262053
000370 fb 4a 97 3c 5a c3 67 be a5 ab 09 3d 15 ea 06 bf
       0.01846837 -0.22633114 0.03361096 -0.5270093
000380 dc 79 3f be bc d8 97 bb f3 1c 85 3d d6 42 0e be
       -0.1869883 -0.004633991 0.06499662 -0.13892683
000390 75 b4 2f 3e c1 30 11 be d5 7a a4 3d 24 4a c6 bc
       0.17158683 -0.14178754 0.08031241 -0.024205275
0003a0 1e 89 3e be bc 47 a1 3e f5 4f 46 3c 44 ac 97 3e
       -0.18606994 0.3150004 0.012104024 0.29623616
0003b0 45 b6 fc bd cc 5e d7 3e da 29 11 3f c9 fd 18 3d
       -0.12339453 0.42064512 0.56704485 0.037351403
0003c0 4c 33 19 3d a2 80 89 3d 73 9a c5 be b1 34 79 3e
       0.037402436 0.06713988 -0.38594398 0.24336506
0003d0 e4 14 05 3d 07 2c bc 3f 73 f1 ab 3e 47 cb 4b be
       0.032490626 1.4700936 0.3358265 -0.19901763
0003e0 12 da 3c bd f7 8a 79 3e 5e 81 50 be 01 aa 86 3e
       -0.046106406 0.24369417 -0.2036185 0.26301578
0003f0 c7 f5 06 bf 2d 42 62 bf 15 b1 05 be 56 a0 83 bf
       -0.52718776 -0.88382226 -0.13055833 -1.0283306

encoder.embed_x.weight f4 [28, 40]
000000 a5 18 7c bf 9f 3b 8f be 07 57 38 bf da 14 87 be
       -0.98475105 -0.27975175 -0.72007793 -0.26383096
000010 c3 c2 43 3c 98 a6 10 40 c4 a7 2c bf 16 71 39 bf
       0.01194829 2.260168 -0.6744349 -0.7243818
000020 6a 7b 4e bf c0 ec 6f bd c6 34 d1 bd f1 8b 0a bf
       -0.80657065 -0.05857539 -0.10215144 -0.54119784
000030 8b 68 aa bf bb dc 8c 3f c6 60 56 bf c3 e2 11 bd
       -1.3313154 1.1004862 -0.83741415 -0.035616647
000040 f5 ac a5 bf 58 a4 8a 3e f4 32 03 3f ee 46 45 3f
       -1.2943407 0.2707851 0.51249623 0.77061355
000050 99 81 98 3f d2 11 30 bf e8 33 bb bf be 51 cd bd
       1.191455 -0.6877719 -1.4625216 -0.10025357
000060 68 f4 0f 40 bf 11 ee 3f f9 ac ed bf a3 8e 0e 3f
       2.2492924 1.8599166 -1.8568412 0.55686396
000070 03 15 6a 3f db 2f 79 be 26 66 8f 3f 26 bb aa 3f
       0.9143831 -0.24334662 1.1203048 1.3338363
000080 83 bf 4d bd 02 e1 b9 bf 53 79 04 bf ce ee c1 bd
       -0.050231468 -1.4521792 -0.51747626 -0.094693765
000090 66 3a c5 3e f4 5c e6 3e 6e 1e 0d be e4 a0 2b bf
       0.38521117 0.44992793 -0.13781139 -0.67042375
0000a0 13 74 f3 bf 07 c9 42 bf 6c 78 03 bf f2 e0 db be
       -1.9019798 -0.76087993 -0.51355624 -0.42945057
0000b0 ea 41 d3 bf d2 96 dc bf 75 f9 bf bf f2 89 e9 bf
       -1.650449 -1.7233527 -1.4998003 -1.8245223
0000c0 5c 88 86 bf 70 ee a2 bf d3 e4 4e bf 16 13 bb 3f
       -1.0510364 -1.2729015 -0.8081791 1.46152
0000d0 47 fb c9 3f fe 41 ed 3e 7c d6 83 bf 8f c0 23 3e
       1.5779809 0.4633941 -1.029983 0.15991424
0000e0 a2 80 68 3f b8 8a 02 c0 e0 6b 26 bf a2 c0 0d be
       0.9082128 -2.0397167 -0.65008354 -0.13843015
0000f0 15 ae 24 3f d4 5c b2 3e e8 5f bd 3f 1e c8 ce 3c
       0.6432813 0.34836447 1.4794893 0.025241908
000100 9a 3e ec 3e 6a 13 7f 3f 09 0f 88 3f d3 18 0a c0
       0.4614151 0.99639 1.0629588 -2.1577652
000110 73 7e 5f 3f 97 2c 87 3f fe b8 9b be a9 d1 b2 3f
       0.8730232 1.0560483 -0.30414575 1.3970233
000120 39 64 26 bf 2c 4f f6 be 56 e5 79 bf 20 fd 28 3e
       -0.6499668 -0.48107278 -0.97615564 0.1650281
000130 7b af 5a 3f d1 ec 9c 3f 7e be 8b bf e7 3d 07 40
       0.8542401 1.2259771 -1.0917509 2.1131532
000140 ce 32 82 3f 36 d1 c2 3b 01 87 e8 be 37 a1 37 3f
       1.0171754 0.00594535 -0.454155 0.7173037
000150 ce be c8 bf 2b 3f 7b 3e 7f e2 29 c0 1c ad af 3f
       -1.5683229 0.24535815 -2.6544492 1.3724704
000160 b8 7d a2 3e b3 14 10 3f 66 39 fe 3e a4 20 03 40
       0.3173654 0.56281585 0.49653167 2.0488672
000170 cb 6d 35 bf 1b 72 b7 bf 8a 06 b3 3d 47 15 b3 be
       -0.70870656 -1.4331697 0.087414816 -0.3497717
000180 f0 ec 84 3f 3e 1a 82 bf 8e 01 cd 3f 01 28 df be
       1.0384808 -1.0164258 1.60161 -0.43585208
000190 a4 9c 2d be b5 0e 85 bf 91 9e ec bd d2 fa 95 be
       -0.16954285 -1.0395113 -0.11553682 -0.29292923
0001a0 af 42 91 bf c9 b8 02 3f be 36 d1 3f ae 13 b5 3f
       -1.1348475 0.5106321 1.6344831 1.4146631
0001b0 2b ab 60 3f 3d b7 15 3f a9 fb c6 3e 27 c8 78 3f
       0.8776118 0.58482724 0.38863876 0.9718041
0001c0 ac f5 87 3f 18 3b 67 3f eb 63 31 c0 44 cf e3 3f
       1.0621848 0.90324545 -2.7717235 1.7797627
0001d0 75 d0 0d 40 05 8e 63 bf 1f 70 be 3f e9 d6 3e 3f
       2.2158482 -0.8888858 1.4877967 0.74546677
0001e0 20 95 17 be 71 b8 88 3f a6 e7 d0 bc ce fc e2 bd
       -0.1480298 1.0681287 -0.025501084 -0.11083375
0001f0 21 cc 90 3f 1c 5d ed bd 3a 20 87 3f c9 7e 0a bf
       1.1312295 -0.11590025 1.055671 -0.5409971
000200 9a 09 56 3f 4a ae ce be 1b 41 58 bf 98 79 99 bf
       0.836084 -0.40367347 -0.84474343 -1.1990232
000210 b5 e8 c3 3e 6b 67 8f bd 82 bd 76 be a0 8c 81 3f
       0.3826348 -0.07002147 -0.24095729 1.012104
000220 2a 65 a8 bf 1c c5 71 3f 25 36 35 3e 96 60 66 3f
       -1.3155873 0.9444139 0.17696436 0.8999113
000230 72 4a a1 bf e1 06 b5 3f 95 5f 41 bf 3e 03 0b 40
       -1.2600844 1.4142724 -0.7553647 2.172073
000240 47 69 80 bf 8f f8 dd bf 82 0a 37 be af d0 c9 be
       -1.0032128 -1.7341479 -0.17875102 -0.39417025
000250 80 bb 3d 3d 88 1f 01 3d db 60 d9 bf 14 77 96 3f
       0.046321392 0.03152421 -1.6982683 1.175509
000260 a4 25 fb be 5b 20 93 bf 1c 92 47 bf da 21 93 3e
       -0.49052155 -1.1494249 -0.7795732 0.28736764
000270 e2 72 79 bf 7f 23 e8 3e ad 8b 11 3f 79 81 ad be
       -0.9744092 0.4533958 0.56853753 -0.33887842
000280 31 27 ed 3f 1c 2e 77 3f 81 45 b3 bf 51 81 64 3e
       1.8527585 0.9655473 -1.4005586 0.22314955
000290 a3 7a 66 bf b9 ea d1 bf 50 71 cd 3f d9 96 14 40
       -0.9003088 -1.6399757 1.6050205 2.321707
0002a0 e8 8f c1 3f 04 f7 aa 3e c0 85 61 3f 56 61 cd bd
       1.5122042 0.33391583 0.8809471 -0.10028331
0002b0 eb b8 e2 be 18 48 b2 bf a9 2d 16 3e 1b f0 65 3f
       -0.44281706 -1.3928251 0.14665855 0.89819497
0002c0 dc fb 2d 40 63 21 c7 be f2 3c 14 3f d0 6d d8 bf
       2.7184973 -0.3889266 0.57905495 -1.6908512
0002d0 96 e2 18 bf c6 f8 f0 bf d9 76 45 3f 4b 6c 18 bf
       -0.5972074 -1.882592 0.7713447 -0.5954024
0002e0 0b 4b b2 3e aa e5 c6 3f b2 41 ac 3f 7b ce 6c bd
       0.34822878 1.5538838 1.3457549 -0.057814103
0002f0 c8 8c ed 3e 96 b6 1c bf bc ce 5f 3e 6a 14 4f be
       0.4639647 -0.61216104 0.21856207 -0.20222631
000300 c9 28 53 be f8 92 87 3f d9 8c 02 3d 37 ac ec 3f
       -0.20621027 1.0591726 0.031872604 1.8490056
000310 34 70 33 3f 45 1f 87 3e 2a 04 aa 3f 0c 46 cf 3f
       0.70093083 0.26391044 1.3282521 1.6193252
000320 2f 38 b2 3e 51 2f 93 3f fa 93 fb be 70 91 b9 bd
       0.3480849 1.1498815 -0.49136335 -0.09060943
000330 bb 8f a5 3f 9a 3d 32 3f dd 6e 98 3f fc cc a1 3f
       1.2934488 0.69625247 1.1908833 1.2640681
000340 f2 1e 78 3f 36 0f bb 3d 12 57 a5 bf 25 38 e2 3e
       0.9692222 0.09133761 -1.2917197 0.4418346
000350 72 e8 cc 3f ef b7 be 3f fa 48 c7 bd 96 db d3 3f
       1.6008437 1.4899882 -0.09730716 1.6551387
000360 33 38 52 bf 09 70 54 be 64 14 c3 bf 9c 90 b6 3f
       -0.82117003 -0.20745863 -1.5240598 1.4262881
000370 fd ae f5 bf 0f 37 18 3e 4a 06 a8 bf e7 d0 4d 3f
       -1.9194027 0.14864753 -1.3126919 0.80396885
000380 1e 5f 42 3e 51 c9 1d bf a3 4b 3a 3e bb 2c c8 bf
       0.18981597 -0.6163531 0.18192916 -1.5638651
000390 2d dc c1 3f 2e 5d 35 bf 52 34 0a c0 93 2a 99 bf
       1.5145317 -0.70845306 -2.1594434 -1.1966118
0003a0 4b dc 6d be 79 70 d1 be d9 a8 c9 be c5 0e 1c 3f
       -0.23228566 -0.40906122 -0.39386633 0.60960037
0003b0 2b 89 a9 3f 0e 3f f8 bf 9d eb 5b 3f df 66 00 c0
       1.3244985 -1.9394243 0.8590639 -2.0062788
0003c0 a5 8f 10 3f ca e4 17 bf 5c 95 bd bf 78 25 77 be
       0.56469184 -0.5933348 -1.4811206 -0.24135387
0003d0 31 30 9e 3f ae b7 e2 3e d8 c6 9c 3f 2f 94 de 3e
       1.2358457 0.4428076 1.2248182 0.4347243
0003e0 52 fb f5 bd ca de 50 3e 3e f2 5b 3f 94 a8 2a 3f
       -0.12010826 0.20397487 0.8591651 0.6666348
0003f0 c7 97 68 be 19 69 38 40 ce 27 7e be 2f d1 6a 3e
       -0.22714148 2.8814147 -0.24819872 0.2293136

encoder.trans_linear.weight f4 [40, 5]
000000 d4 8e 84 3e 5d 81 5d be fc 03 c3 3d bf 8c 1f 3e
       0.2589022 -0.2163138 0.09522244 0.15581034
000010 91 47 9e be f6 c2 5b 3e 93 a1 2a 3c de 94 bf be
       -0.30913976 0.2146109 0.010414499 -0.37418264
000020 f9 01 cd 3d 34 c2 38 bd 43 eb 03 3f fc 3a e4 3d
       0.10010142 -0.04510708 0.51530856 0.11144063
000030 14 bc ea 3d 11 ac de 3c b5 fd 68 bc 9e a2 f8 be
       0.11461654 0.027181657 -0.014220645 -0.48561567
000040 ca 0a 43 3d 3d d2 39 3e d6 e2 3b be dc 6a b2 3e
       0.04761771 0.18146606 -0.1834825 0.34847152
000050 70 ec 6e 3e 6e f5 6c 3e 2c 67 a5 be 0a 69 cd 3e
       0.23332381 0.23140499 -0.32305276 0.401192
000060 b3 d7 a0 3d 85 e2 0d bf 14 b5 18 3e d5 20 59 3e
       0.07853641 -0.55423766 0.14912826 0.2120393
000070 36 b6 75 3e 47 0b 81 3a 8d 5f 0a 3f 1d 48 9d bd
       0.23995289 0.000984528 0.5405205 -0.0767977
000080 8f 3c 18 3e 7c b3 a0 3e 2a 24 1c 3d 37 1d 12 3d
       0.14866851 0.31386936 0.038120426 0.035672393
000090 3a 7a 26 3e e0 c8 88 3e e2 65 72 3c b6 90 38 be
       0.16257563 0.26715755 0.014794799 -0.18023953
0000a0 7c 9a b4 bd a9 60 a9 be 1f a5 35 3e 6f ac ca 3d
       -0.08818528 -0.33081558 0.1773877 0.0989617
0000b0 40 d2 57 be e3 9e 53 be 5e cd 70 be fb bb 3f 3e
       -0.21076298 -0.20666079 -0.23515841 0.18724053
0000c0 a0 4f dc bd 12 76 e8 be bc 1d 8a 3f b8 3b 8a be
       -0.10757375 -0.4540258 1.0790324 -0.26998687
0000d0 89 30 82 3c 3c c0 92 be 61 35 ac bb 3d 7b 40 3e
       0.015892284 -0.28662288 -0.0052553867 0.18797012
0000e0 2f 05 4f be c1 6e f6 3d ad 3b f1 be b4 d6 1d be
       -0.20216821 0.120328434 -0.47115842 -0.15413934
0000f0 b6 45 c5 3e ee 0c e1 bd 82 22 42 3e a1 1c fb bd
       0.38529748 -0.10988794 0.18958476 -0.1226132
000100 b3 b0 55 be c4 8d 78 3e 20 42 35 be f7 27 51 be
       -0.20868187 0.2427283 -0.17701006 -0.20425402
000110 4a cd ef bc 33 d4 56 be 74 37 ac be 73 0f 27 3e
       -0.029272694 -0.20979385 -0.33636057 0.16314487
000120 63 e2 b2 bc 20 6b 29 3e e6 1c 2b 3d fb 34 4e be
       -0.021836465 0.16544771 0.041775607 -0.20137398
000130 2d f5 71 3d dd f5 d0 bd 9d 2f c4 3c d4 59 a5 3d
       0.05907171 -0.10203145 0.023948485 0.08073774
000140 4e 3b 51 3e 10 05 1c be 42 9f 16 be a2 0f e1 3d
       0.20432779 -0.15236306 -0.1470919 0.1098931
000150 5e 16 be be 23 9b 0f 3f 77 e8 99 3e 0b bd fd bd
       -0.3712644 0.56096095 0.3006017 -0.12389573
000160 42 14 7e be 80 25 48 3d 0e 25 16 3e e3 21 30 3e
       -0.24812415 0.048863888 0.14662573 0.17200427
000170 2e 27 0f be 4b 69 8a be 9a a2 36 3e 83 5b 01 bf
       -0.1397979 -0.27033457 0.17835465 -0.5053026
000180 49 65 9f be 7a 89 d0 bd 91 b9 86 3d 4f 96 6d be
       -0.31131962 -0.101824716 0.06578363 -0.2320187
000190 99 0e 2a 3e 97 af d1 3d 2c 3b f4 3c 14 47 38 bd
       0.16607131 0.10238569 0.029813372 -0.04498966
0001a0 86 56 d2 bb 8c 8d 0e 3f 1a fe 45 3c 95 8a 79 bd
       -0.006419006 0.55684733 0.012084508 -0.060923178
0001b0 2c d9 a3 be 62 29 6d bc 43 23 70 3d 93 ec 16 3e
       -0.32001626 -0.014475198 0.05862738 0.14738683
0001c0 83 da 65 3d ea 88 4c 3e b7 3b 6b be 38 15 69 bd
       0.056116592 0.19974104 -0.22971998 -0.056905
0001d0 5b af a2 3d 61 78 16 3f 42 ec 23 be 28 00 a1 bc
       0.07943603 0.58777434 -0.16008094 -0.019653395
0001e0 99 66 3b be 78 2e c5 3e 27 6c 98 be 47 92 dc 3d
       -0.18300857 0.38512015 -0.29770014 0.10770088
0001f0 75 72 78 3e f6 fa 22 bd 10 8b 3b bc e1 b7 32 3e
       0.24262412 -0.039790116 -0.011446729 0.17452957
000200 e6 07 0a 3e 68 37 14 be d8 f4 b1 be 1b f9 69 3e
       0.13479576 -0.14474261 -0.34757113 0.22848932
000210 0a 8e 73 bd c9 5d e1 3d e1 00 74 bd b9 17 12 3f
       -0.05946163 0.11004216 -0.05957115 0.5706745
000220 b3 9b aa 3d 81 38 83 3d 31 41 1f 3e 96 be ff 3c
       0.083304785 0.06407262 0.15552212 0.031218808
000230 08 78 0b 3f f5 9e 68 bd 5c 37 26 be a5 48 2b 3e
       0.5448003 -0.05679222 -0.16232055 0.1672693
000240 27 b2 41 3e ac d4 43 bf f9 d6 7a 3e f7 49 f1 bd
       0.18915616 -0.76496387 0.24496068 -0.11781686
000250 ae 99 dd be ac f8 ac 3e f7 45 7c 3e 36 b0 52 bd
       -0.4328131 0.33783472 0.24636064 -0.05143758
000260 98 4e be 3d 7f e8 00 be e0 2c 16 bd e8 41 07 bc
       0.09292334 -0.1258869 -0.03666389 -0.008255459
000270 e0 b6 83 3e b5 66 87 3d 4d 35 22 3e e5 92 b3 bd
       0.2572546 0.06611387 0.15840645 -0.08768252
000280 26 68 da be e9 80 9b 3d 58 7d c1 3d be 1f a2 bb
       -0.42657584 0.07592947 0.094477355 -0.0049476316
000290 40 63 93 bd 6e cc 4b 3f 37 95 de bd e3 be ee 3d
       -0.07196665 0.7960881 -0.10868304 0.116575025
0002a0 a5 c9 77 3e cb 57 19 bd 05 b2 08 3f f9 ac c5 3c
       0.24198015 -0.03743724 0.53396636 0.024130331
0002b0 91 27 89 3d 72 ef 37 be 25 a8 b4 3d 35 3f 5d 3e
       0.06697 -0.17962435 0.088211335 0.21606143
0002c0 81 33 8d 3d 59 52 d4 bd 20 f8 90 3e 12 2c 3a 3e
       0.06894589 -0.10367269 0.28314304 0.18180874
0002d0 d5 40 37 3e fc be a5 3d d7 fb 53 be b3 57 ad 3d
       0.17895825 0.08093068 -0.20701538 0.08463993
0002e0 40 78 f1 3c 75 e8 64 3e 17 ee 51 bd 71 6b 0a bd
       0.029476285 0.223543 -0.05125245 -0.03379387
0002f0 e3 26 0f 3e 7e 49 06 bd 2e 85 0a be c4 a2 83 3d
       0.13979678 -0.03278493 -0.13527367 0.064275295
000300 6c 85 94 be 88 d6 8d 3c b3 bc d5 bd 0f 80 6a be
       -0.29008043 0.01731421 -0.10436382 -0.22900413
000310 ad 20 88 3e 46 83 c4 be e9 fe 8e be f4 bd ba 3e
       0.2658743 -0.38381404 -0.27928856 0.36473048

encoder.trans_linear.bias f4 [40]
000000 f3 1f 1d be 83 ac f8 3e 1d a2 22 3e 6a 0c 33 3e
       -0.15344219 0.48569116 0.15882154 0.17485204
000010 cb 37 a9 be 4e ae aa bd b4 30 79 be 0b c8 f3 3d
       -0.3305038 -0.08334027 -0.24334985 0.119033895
000020 14 89 db 3d 4b 2b 82 be 42 ca f4 3c 9d 39 4f 3d
       0.10719505 -0.25423655 0.0298816 0.050592054
000030 2f 19 6b 3e 14 05 b5 3e a9 af 4e be 6b 3d 03 3e
       0.22958826 0.35355437 -0.20184197 0.12816398
000040 d0 70 b9 3c 21 d4 10 3e b4 80 cd 3e cc de e9 be
       0.022636801 0.14143421 0.40137255 -0.45677793
000050 fb 97 9b 3d 25 19 ba 3c fe 4b d1 3e 48 78 a8 be
       0.07597347 0.022717068 0.4087829 -0.32904267
000060 20 cc 89 be 0b ca b4 3e f8 c4 a5 bd 7a d1 4f be
       -0.26913548 0.35310397 -0.080942094 -0.20294753
000070 41 9e c6 be ea 0b 8f be af 25 66 3e df e8 48 be
       -0.38792613 -0.27938777 0.22475313 -0.19620083
000080 c9 0a 72 3e b7 56 0d 3e b9 01 6b 3e 25 d8 8f be
       0.23636927 0.1380261 0.22949876 -0.28094593
000090 ac e1 c8 bc b1 b2 18 bd 82 43 d2 bd c3 e2 47 be
       -0.024521671 -0.03727979 -0.10266782 -0.19520096

encoder.conv_mu.bias f4 [20]
000000 ba cb 80 3c 06 36 9e 3d cc 94 0e bd 50 46 5a 3d
       0.015722144 0.07725148 -0.034809873 0.05328971
000010 d6 9b c5 3d 33 d0 2f 3e 64 2f 5e 3d 0a 22 c5 bc
       0.09648864 0.17169265 0.054244414 -0.024064083
000020 21 80 b7 bd 80 1b 44 3d 1c b8 5c be 02 c6 86 bd
       -0.089599855 0.04787779 -0.21554607 -0.06580736
000030 8e 77 ca bd 20 10 7f bd 16 40 27 bd 70 42 fa 3c
       -0.098860845 -0.062271237 -0.0408326 0.030549258
000040 4b 7b d0 bc f8 fa c0 3d 1d 83 ba bc 27 1a 44 bd
       -0.025449416 0.094228685 -0.022767598 -0.047876503
