results/model_GCN/graph_split_/layers_2/transform_True/alpha_-5.0/model.pt (torch, 22442 bytes, 11 tensors)

encoder.conv.convs.0.bias f4 [40]
000000 7e 18 3f 3d de a0 3a 3e 70 a6 ad bd 87 70 92 bd
       0.046654217 0.18225428 -0.08479011 -0.07150369
000010 05 12 94 bc 1f 67 09 bd a4 54 ae 3c e8 23 9d 3c
       -0.018074999 -0.03354561 0.021280594 0.01918216
000020 9d c5 09 3d 68 6f 92 3d 4d c2 31 3d b9 40 7a bd
       0.033635724 0.07150155 0.04339819 -0.06109688
000030 2b d8 73 3c 49 ff 34 3c eb f2 1f 3c ed 02 97 3d
       0.014883081 0.011047193 0.009762506 0.07373605
000040 6f 6c 8b 3d de 79 ec 39 72 d7 6d bd 50 e1 4c bd
       0.068077914 0.00045104226 -0.058066793 -0.050019562
000050 ad 41 87 3d e2 22 f1 3d 23 5b e3 3c 69 64 ab bd
       0.066043235 0.117742315 0.027753418 -0.08368761
000060 a4 22 8c 3d cf 2d 69 3d 7d 93 68 bd dc 8b bb 3c
       0.06842545 0.056928452 -0.05678128 0.022893839
000070 21 da 71 ba 65 87 02 3d 8c 0c 16 3e 25 4d 36 bd
       -0.0009225924 0.031867404 0.14653224 -0.044507165
000080 fb a0 b2 3c 3a 21 78 bd bd 95 c3 bd b5 05 1e bd
       0.021805277 -0.060578562 -0.09550045 -0.03857966
000090 b8 ec c3 3c 17 44 c4 3c ef 49 be ba 39 b7 0d 3d
       0.023916587 0.023958249 -0.0014517884 0.034598563

encoder.conv.convs.0.lin.weight f4 [40, 40]
000000 ca 45 24 bf 66 e7 0d 3e a1 f0 07 3f 93 c1 e6 3e
       -0.6416899 0.13857803 0.53101546 0.4506956
000010 ed ad ea 3c a5 cc 39 be 27 88 d2 3d 5c a9 96 be
       0.028647387 -0.18144472 0.10279875 -0.29426086
000020 92 2c cf bd 30 91 9a 3e a5 9b 33 3e 1b 28 9a bd
       -0.10115923 0.30188894 0.17539842 -0.07527181
000030 83 74 6f bd d3 53 cf bd 0d 8e 73 3e 55 7b 9a 3d
       -0.058460724 -0.1012341 0.23784657 0.07543055
000040 d0 01 95 3e df ad 09 3f 77 53 26 be df 51 92 be
       0.29102945 0.5378093 -0.16242777 -0.28578088
000050 b7 98 74 bd 11 4e 8e 3e 3c 78 cd be 94 39 81 be
       -0.059715953 0.27793935 -0.40130794 -0.2523924
000060 be dd 69 be 08 28 df be 7c 2e af 3e 9e 88 20 3e
       -0.22838494 -0.4358523 0.34215152 0.15677115
000070 8e 1b d4 3d 6f c7 b6 3d 2c 8c 38 be 5d aa 77 bd
       0.10356818 0.08924758 -0.18022221 -0.060465205
000080 59 a5 ba 3e 75 d6 8d be f8 b5 0d be d0 9e ea 3c
       0.36454275 -0.2770268 -0.13838947 0.02864018
000090 d7 80 d5 bd 20 1a e5 bc 77 f6 27 bf 1d e5 8e be
       -0.10424965 -0.027966559 -0.6561045 -0.27909175
0000a0 74 e9 c8 3d 48 df 0b bc b3 b9 56 be fb 53 a6 3e
       0.09810153 -0.008537121 -0.20969276 0.32485947
0000b0 81 88 e3 be d8 56 b1 be c7 7f 91 be df 53 bb be
       -0.44440082 -0.3463657 -0.284178 -0.36587426
0000c0 9a a4 bc bd 5e 6a a9 bd 50 c7 3d 3e b0 30 59 bd
       -0.09211083 -0.08272241 0.18533063 -0.053024948
0000d0 2b 61 b3 3d ff a3 23 3e ca fc 10 3e d5 82 b3 3d
       0.08758768 0.15980528 0.14158931 0.087651886
0000e0 07 d3 d6 3d 73 8e 5e 3e 51 97 9b 3d 95 c1 98 3e
       0.10489469 0.21734028 0.07597221 0.2983519
0000f0 c6 d9 0c 3e 72 4c 2a 3e fb 8b 2b 3e 68 c7 33 bd
       0.13754949 0.16630724 0.16752617 -0.04389134
000100 ff cb 29 bd b3 ca 97 3e ae 33 e9 3e d1 33 0e be
       -0.04145431 0.29646835 0.4554724 -0.13886954
000110 2a 9e e0 3d 53 15 0d 3e 7a a2 42 3e 86 ef 1f bd
       0.109676674 0.13777666 0.19007292 -0.039046787
000120 aa ac 93 3e 47 8f 3e 3e ae 6e cf 3d 3a 98 70 3e
       0.2884267 0.18609343 0.10128532 0.2349557
000130 b6 84 ce bd 4b 55 1f 3e 05 8f df 3d 61 70 80 be
       -0.10083906 0.1555988 0.10915951 -0.25085738
000140 85 b0 c3 bd 11 59 30 3e 69 f0 8f bd a6 35 de bd
       -0.09555153 0.17221476 -0.070282765 -0.108500764
000150 e9 6c 16 be 13 29 b1 bd 29 09 10 3e 60 8f 2f be
       -0.14689983 -0.086504124 0.14065994 -0.17144537
000160 cf cc 9c bd b6 4a 57 be fd 8a 53 be fa e6 86 3e
       -0.07656252 -0.21024594 -0.20658489 0.26348096
000170 ba 80 f4 bd 29 f9 8a bd 22 a4 81 bd ea f3 ab bd
       -0.11938615 -0.06785805 -0.06330134 -0.08396132
000180 78 84 29 3e 5f b2 0f be e9 ea f4 3b 54 7b b7 bd
       0.16554439 -0.14032887 0.0074742925 -0.0895907
000190 65 eb 1d 3e 73 25 ca 3e c0 48 ea 3a 0f e9 92 be
       0.15421827 0.39481696 0.0017874464 -0.28693435
0001a0 fa 4c 38 3e 69 28 7e be 89 bc 1b be d1 fd 4c 3e
       0.17998114 -0.24820103 -0.15208639 0.20018698
0001b0 eb ca 00 3e c8 bc e6 bd 22 8d ce 3a bf 50 bc 3d
       0.12577407 -0.11266476 0.0015758614 0.091950886
0001c0 34 a1 43 be af bc 44 3e 88 cf ee 3d 0d a1 0e be
       -0.19104463 0.19212602 0.11660677 -0.13928623
0001d0 44 5b 2b be 89 88 a7 bc 51 5b f8 bd 58 68 17 3e
       -0.16734034 -0.020450847 -0.12126792 0.14785898
0001e0 d1 82 80 be 6d d3 58 be 39 f5 0a 3d de f8 05 3f
       -0.25099805 -0.21174403 0.03392527 0.52332866
0001f0 82 d9 f1 be cb 48 05 bf 86 67 92 bd 37 96 0a bf
       -0.47236258 -0.520642 -0.07148652 -0.5413546
000200 06 9d 0b 3e 42 e5 f6 3d c3 89 a6 3e 31 85 f9 3d
       0.13634118 0.12055446 0.3252698 0.12183607
000210 5c 55 79 3d ab 02 cb be d4 e2 b2 3e e4 06 0a be
       0.06087242 -0.39650473 0.3493868 -0.13479191
000220 af 8b bd bc 7a 4d bc 3e b5 15 e2 be 7f 03 4e 3d
       -0.023137895 0.3677786 -0.44157186 0.050296303
000230 34 bb 8c 3c 0e 43 2b be 3d ff c9 3e 15 1f 17 bc
       0.01717911 -0.16724798 0.39452544 -0.009223719
000240 91 bd ae be b6 e0 08 3e 38 ed 8d 3e 50 d8 34 be
       -0.34129003 0.1336697 0.27720046 -0.17660642
000250 10 9f 1e 3f d9 8c 49 be ad dd a5 be 00 06 0b bf
       0.6196146 -0.19682635 -0.32395688 -0.5430603
000260 c0 09 e8 bd 68 77 a4 be 99 57 95 3e 42 fc 43 3e
       -0.11329985 -0.3212235 0.29168394 0.19139197
000270 4f 3b 84 3d 11 36 39 3a eb 52 e8 bd 45 8c 60 be
       0.06456625 0.00070652465 -0.1134394 -0.21928509
000280 b6 c3 4b 3e 52 1f f3 bd 58 7f 5c 3e b7 66 50 3e
       0.19898877 -0.11871208 0.21532953 0.20351683
000290 f3 5f 88 3e d9 5c 4d be 28 43 d1 be 7f bc 70 3e
       0.26635703 -0.2005495 -0.4087155 0.23509406
0002a0 12 8e 42 be 40 48 38 3d c5 95 7b bd d5 f9 01 be
       -0.18999508 0.044990778 -0.06142213 -0.1269296
0002b0 31 39 91 be 8b 79 39 be ec 6e 01 be 58 f2 14 3e
       -0.28363946 -0.18112771 -0.1263997 0.14545572
0002c0 e1 1e e6 3e 81 5b 46 be 0e 73 63 3d 4e 13 9d 3e
       0.44945434 -0.19370843 0.055529647 0.3067879
0002d0 7a ba b3 3d f8 55 26 be 83 a2 70 bd b3 21 c0 3e
       0.08775802 -0.16243732 -0.058748733 0.3752571
0002e0 20 3a 88 3d 01 b1 f8 3e 8a 48 ad 3e 08 88 69 3e
       0.066517115 0.48572543 0.33844405 0.22805798
0002f0 a9 79 3c 3e 74 94 16 3e c7 83 70 be cd 75 8e be
       0.18405785 0.14705068 -0.23487769 -0.2782425
000300 72 2b d0 bd 9c 7c 66 ba f0 c3 c6 bd bb c3 7a be
       -0.101645365 -0.0008792372 -0.09705341 -0.24488728
000310 55 85 3e 3e 68 16 cb 3e d7 54 ba 3e 98 2b 68 3e
       0.1860555 0.39665532 0.36392853 0.2267288
000320 58 f8 b9 3e 89 a0 8b be d9 a1 b0 3d af 01 09 3f
       0.36322284 -0.27270916 0.0862462 0.53518194
000330 e0 9a 83 be c5 84 7d be 23 2e d3 be 61 93 37 bd
       -0.25704098 -0.24757679 -0.41246137 -0.044818286
000340 74 57 fb bd 0e a7 ed 3d 75 94 c2 3d e4 12 c8 3e
       -0.1227254 0.11604129 0.09500972 0.39076912
000350 9c f8 99 3e 3a c3 04 be 88 33 8e 3e 8d c1 b1 3d
       0.30072486 -0.12965098 0.2777369 0.08679495
000360 1d d2 26 be 53 2f a6 3e a4 51 be bd 2d 19 09 3e
       -0.1629109 0.3245798 -0.092929155 0.1338851
000370 03 a0 35 3d be 64 8b 3d 79 d5 b4 3d 18 70 ad 3e
       0.044342052 0.068063244 0.08829779 0.33874583
000380 26 42 98 3c 9f 09 a0 3e 5d 72 c8 bd 2e 0b 03 be
       0.01858623 0.3125734 -0.09787438 -0.12797233
000390 2c 6f 8f 3e 35 b8 b6 bd e7 2f 04 3d a2 fd b3 3b
       0.28014505 -0.089218535 0.032272246 0.005492882
0003a0 68 05 6d bd 88 81 61 bd cb 32 71 3d cf 29 0f be
       -0.057866484 -0.05505517 0.05888633 -0.13980792
0003b0 d7 fb 91 3d 86 7b 31 bc e7 6d 65 3e b0 3f 85 3a
       0.07128113 -0.010832673 0.22405206 0.0010166075
0003c0 ff f1 fe 3c aa 1d 06 be 09 13 31 3e ef 7b 0f 3e
       0.031121252 -0.13097253 0.17292418 0.1401212
0003d0 34 fc 17 be de f9 a5 be a1 57 52 be b2 8d db bc
       -0.14842302 -0.32417196 -0.2054124 -0.026800964
0003e0 80 0e 16 3e f5 18 ff bd 29 b9 55 be 66 77 2f 3e
       0.14653969 -0.12455932 -0.20871414 0.1713539
0003f0 86 d4 bc 3c f8 42 e7 bd e8 3a a7 3d 98 c8 17 3d
       0.023050558 -0.1129207 0.08165532 0.037056535

encoder.conv.convs.1.bias f4 [20]
000000 10 8d 0d 3e 3c e2 da bc 29 29 28 be df 5c 84 bd
       0.13823342 -0.026719205 -0.16421951 -0.06463026
000010 11 0e ce 3d 16 7b 5d 3d 42 41 6d bd d2 e7 45 3c
       0.10061277 0.054072462 -0.057923563 0.012079196
000020 bd 69 0b 3e 5b 0c 68 3d fa a2 23 3c 1e 6b d1 3c
       0.13614555 0.056652408 0.009987587 0.025563773
000030 ed 7e 80 bd 42 58 13 bb b9 53 ad 3d f3 4c da 3d
       -0.06274209 -0.0022483026 0.084632345 0.10659208
000040 f7 2b 35 3e 61 5f 7b 3e ac b4 1a 3e d2 c2 6c 3c
       0.17692553 0.24548103 0.15107983 0.014450746

encoder.conv.convs.1.lin.weight f4 [20, 40]
000000 7c 1a ec be 0c 7c d0 3e a3 9b be 3d f1 96 01 3f
       -0.46113956 0.4071964 0.09307029 0.50620943
000010 02 f5 0a 3e b4 89 ee bc e8 88 d0 bd 04 c6 72 bd
       0.13570026 -0.029118396 -0.10182363 -0.059270874
000020 f1 3c d4 3e 23 02 fd bc bf 79 b3 3e 1d 2c c5 bd
       0.41452745 -0.030884808 0.35053822 -0.096275546
000030 b4 54 99 3d ed 4d 87 be 54 45 fa 3c 2e ef 89 3e
       0.07486859 -0.2642664 0.030550636 0.26940292
000040 7f e6 87 3d 2f 83 fd bd 1a f8 89 3e d2 c1 b4 3d
       0.066357605 -0.12378537 0.269471 0.08826031
000050 ee e7 c5 bd 72 04 8c 3c 59 f8 02 3e 0a 85 b5 be
       -0.09663378 0.017091963 0.1279005 -0.35453063
000060 6f b7 c7 bd 23 a7 12 be 70 2a 96 be 55 6c 5a 3e
       -0.09751784 -0.1432157 -0.29329252 0.21330388
000070 d4 2c 18 3e 5e b6 74 3e 59 32 e2 3e cd 67 33 be
       0.1486085 0.23897693 0.44179037 -0.17520066
000080 1f 60 8b 3e 5f a5 1d bc 29 1e 45 3e 90 3a 35 3e
       0.27221772 -0.009621947 0.19249786 0.17698121
000090 00 98 e8 3d 6d 34 39 3e 57 59 23 3e 14 2f c5 bc
       0.11357117 0.18086405 0.15952049 -0.0240703
0000a0 1a 26 d2 3e 20 52 32 bd c4 6f c5 3d ca d7 d0 3e
       0.41044694 -0.04353535 0.09640458 0.40789634
0000b0 77 0b 9a 3e 3f 65 77 3d 9d 56 32 be 9e e9 87 be
       0.30086872 0.06039929 -0.17415853 -0.26545423
0000c0 a1 7b 03 3e 1b b5 3c 3e 36 17 c8 3d 20 72 bd bd
       0.1284013 0.18428461 0.09770052 -0.09250283
0000d0 9d 27 82 be b2 1f 42 3e b4 50 2d 3e 9a be 81 be
       -0.25420848 0.18957403 0.16925317 -0.2534073
0000e0 a1 a9 89 be 89 e2 55 3e 56 f2 90 3a 3a 7f 76 bd
       -0.2688723 0.20887198 0.001105855 -0.060179926
0000f0 0c 07 fc bd 67 91 60 be 94 f0 a6 be d8 51 25 3f
       -0.123060316 -0.21930467 -0.32605422 0.6457801
000100 b6 24 a7 bd 1f 35 88 be 43 68 f4 3d ee 80 58 be
       -0.08161299 -0.26603028 0.11933949 -0.21142933
000110 5b 70 a9 3e 22 62 9a 3e bf a6 9e bd 97 25 9b 3e
       0.33093533 0.30152994 -0.07746648 0.30302116
000120 c5 fc 8c 3e 77 66 22 3e 7a f7 89 3d c9 ea ac be
       0.27536598 0.158594 0.067366555 -0.33772877
000130 e5 50 1b be 56 f0 46 3e 41 fd b7 3d 02 92 c4 3d
       -0.15167578 0.19427618 0.08983851 0.09598161
000140 1b ec 2d be 63 03 2a 3e 35 36 4c be 66 64 93 be
       -0.16984598 0.16602854 -0.19942553 -0.28787535
000150 db b8 17 3e 2e 7f df bd 27 cc 5d be 89 18 41 be
       0.1481661 -0.109129295 -0.21659909 -0.18857016
000160 c4 45 eb bd e2 4c 9d be c0 02 1e 3d 18 4b 4e 3d
       -0.11487916 -0.3072272 0.03857684 0.050364584
000170 25 1f 68 bd 85 36 b1 3e ca bd 77 3e a8 c1 c5 be
       -0.056670327 0.34611908 0.24193493 -0.3862431
000180 40 5c b4 bd 9c 9c 89 3e 4a 51 94 be 72 7b ae 3e
       -0.08806658 0.26877296 -0.2896827 0.34078556
000190 61 97 9b 3e 4c 34 d7 bc 5a f3 de be 48 ff ea 3d
       0.3038893 -0.026270054 -0.43545038 0.11474472
0001a0 54 6c f1 3c 29 02 e2 be f3 31 10 3e c6 05 87 3e
       0.0294706 -0.44142273 0.14081554 0.26371592
0001b0 a2 8e a8 3d 6e 2e a8 be 85 d3 a8 be 48 4b fe 3c
       0.0823033 -0.32847923 -0.32973877 0.031041756
0001c0 0c 92 10 be 00 b8 12 3e dc 33 8a bf cf 01 55 be
       -0.14118212 0.14328003 -1.0797076 -0.20801471
0001d0 14 a5 ca be 6f 40 5d 3d 04 f8 7c 3e 56 bd 3a be
       -0.3957907 0.054016527 0.24703985 -0.18236288
0001e0 a5 78 21 3f 81 64 88 bc a4 4f 65 3e cf 53 86 be
       0.63074714 -0.016649486 0.22393662 -0.26235816
0001f0 4c ca 32 be 58 e8 dd bd b8 7d 61 bf 1b db 83 3e
       -0.17459983 -0.10835332 -0.88082457 0.25753102
000200 53 c1 50 3d f2 7d 9a 3e 37 20 3d be d4 a8 3c bf
       0.05096562 0.30174214 -0.1846932 -0.7369511
000210 75 5a c5 3e 77 6a f6 be fa 25 3f be 2f 01 87 3e
       0.38545576 -0.481281 -0.1866683 0.2636809
000220 44 c1 ba 3e 2d f8 1f bd b3 96 af 3e bf 2b 30 bd
       0.36475575 -0.03905504 0.34294662 -0.04301047
000230 12 a4 14 be d1 fa 23 3e 3e b8 0f 3e 04 a1 cc bb
       -0.14515713 0.16013648 0.14035127 -0.0062447805
000240 99 31 45 3e 32 b8 b0 3e d9 4d 0a bf 2f 00 8c 3e
       0.19257201 0.3451553 -0.54025036 0.2734389
000250 0a 76 06 3e cf a1 21 3e b4 6e 95 3e f5 d5 1d be
       0.13130966 0.15784381 0.29186022 -0.1541365
000260 ce cd a2 be 3d 16 be bd 3b 8c 1d 3e 3c f2 57 3c
       -0.31797642 -0.09281585 0.15385525 0.013180312
000270 09 e6 12 be bc 16 3e bf 1b 73 9c bb 85 9f 75 3e
       -0.14345564 -0.7425344 -0.004774464 0.23986633
000280 ac fd c1 3e ca 7a e4 3c 65 e9 88 3d 7c 7d 98 3e
       0.3788885 0.027890582 0.066851415 0.29783237
000290 dc 31 14 3e d6 3c fc 3d a8 16 70 3d 3d 8d da bd
       0.14472145 0.12316291 0.058615357 -0.1067147
0002a0 c4 db 04 be 0b 1b 9b 3e cd e5 fd 3d d3 85 1f 3f
       -0.12974459 0.3029407 0.12397347 0.62313575
0002b0 f8 bd fb be 8b 32 bc 3e 9f 5b c3 3d 91 d8 da 3c
       -0.49168372 0.3675731 0.0953896 0.026714595
0002c0 60 c6 6a be 6a e8 40 3d 7f 57 bb be f1 14 40 3e
       -0.22927237 0.047096647 -0.36590192 0.18757989
0002d0 e4 af 39 bf 2a 69 b6 bd f2 f0 99 be eb 6c 28 3e
       -0.7253401 -0.08906777 -0.3006664 0.16447799
0002e0 4e 0a 69 bf 85 56 2a be 30 d9 8a be 4a 4e f6 be
       -0.9103135 -0.16634567 -0.27118826 -0.48106605
0002f0 05 48 25 be b0 84 1e bd 7f 8e 7f be 2f 1d 51 bd
       -0.16140755 -0.03870076 -0.24956702 -0.051053222
000300 f3 da 36 3f bf 6e d0 3e 2f 7e d7 3d d4 92 f6 be
       0.7142784 0.40709493 0.105221145 -0.48158896
000310 84 da cb 3c 54 22 86 bd 90 a8 69 be 82 e3 a5 3e
       0.02488447 -0.06549516 -0.22818208 0.32400137
000320 05 27 1f be 8a dd 96 3e d8 f1 80 3e 58 a7 36 3c
       -0.15542229 0.29465896 0.25184512 0.011148296
000330 10 3f 39 3e 58 a5 86 3d d5 b6 c5 bc 8d ba ea bd
       0.18090463 0.065745056 -0.024135033 -0.11461363
000340 5d 9d 33 3d 02 12 8f 3e 02 ac 7d 3e be 77 a4 3e
       0.043851245 0.27943426 0.24772647 0.32122606
000350 c5 0a 60 3e d9 38 a1 3c db 05 9e 3e ee 74 e3 3d
       0.21879108 0.019680427 0.30863842 0.11106287
000360 36 58 09 3e 70 39 65 be 96 b7 9e 3e 0f 3d 84 be
       0.13412556 -0.22385192 0.3099944 -0.25827834
000370 a3 e5 05 be 24 5d 75 3e 81 bb bd bc f8 8a be be
       -0.1307588 0.23961312 -0.023160698 -0.372154
000380 fb c1 49 3d 99 ce 84 3e a0 8e 44 3e c6 90 c0 bd
       0.04925726 0.25938872 0.19195032 -0.09402613
000390 46 4e 85 be 27 35 9f be e0 a7 31 be 00 dd c0 bc
       -0.2603628 -0.3109524 -0.17349195 -0.023542881
0003a0 47 cd 8c 3d c5 72 ab 3e 23 cc a0 3e bd 27 3d 3e
       0.06875091 0.33486 0.31405744 0.1847219
0003b0 1e ee 81 3d 66 63 27 3e 3a 17 94 3e 0d 47 aa 3e
       0.063442454 0.16346511 0.2892397 0.33257332
0003c0 1f f6 40 be cf d7 cb 3d 37 59 43 3e 9e cf 1c be
       -0.18843888 0.099532716 0.19077002 -0.15313575
0003d0 cc 14 39 3e 06 23 d4 bd 4f aa 17 be 48 56 ea be
       0.1807434 -0.10358243 -0.14811061 -0.45768952
0003e0 fe 60 b2 bd a5 83 3d 3d aa d1 85 be 55 da 7d be
       -0.08709906 0.046268124 -0.26136523 -0.24790318
0003f0 2b af ba be 8d 28 62 be 71 3d 9c 3e 01 40 8a be
       -0.36461768 -0.22085781 0.30515626 -0.27001956

encoder.embed_x.weight f4 [28, 40]
000000 1b c7 e0 3d 86 d4 4b bf 95 47 b7 be 0d ba cd bf
       0.10975476 -0.7962116 -0.357968 -1.6072403
000010 be 5d cb 3f fd 9c ee 3d b0 46 9b bf 1a 98 9c 3d
       1.5887983 0.11651037 -1.2130947 0.076461986
000020 8f 00 54 bf 8d 8f 81 bf 66 1d a3 3d 2a 7a 75 bf
       -0.8281335 -1.0121933 0.07964592 -0.9588953
000030 1e 66 31 bf 50 23 70 3e 45 eb 02 bf 81 7c 7d bf
       -0.69296443 0.2345097 -0.5114024 -0.990181
000040 b4 77 4b 3f 1a d3 8d bf 45 44 9e bc 8e f6 5c 3f
       0.7947953 -1.1080048 -0.019319663 0.8631371
000050 3b 99 91 3f fd 44 79 3e 09 75 3d 3c e9 e6 77 3d
       1.1374887 0.24342723 0.011563548 0.060522947
000060 d6 7b a4 3e bf 56 9d 3d 67 b1 3c 3e 64 7c 8f bf
       0.3212573 0.07682561 0.18427049 -1.1209836
000070 ea 57 01 bf e9 9b 93 3e 3d c6 54 3f b4 fa 8e 3e
       -0.5052477 0.28829888 0.8311499 0.27925646
000080 fd b3 c2 bf 66 0b d2 3f 7a 03 5a bf ac 41 4d bf
       -1.5211178 1.6409729 -0.85161555 -0.8017833
000090 56 1e 18 3f ae fd ff 3e 4e ab 9e 3d 13 ae 48 bf
       0.5942129 0.4999823 0.077475175 -0.78390616
0000a0 f7 50 70 bf b8 3d 3a bf dc 16 51 bc a6 3d 4f bf
       -0.9387354 -0.72750425 -0.012761798 -0.80953443
0000b0 b0 4f a3 bd b3 7c 19 3f 9f d5 10 40 52 fe 9f 3f
       -0.079741836 0.599559 2.2630384 1.2499487
0000c0 a0 36 9e 3e 82 b7 9d bf f2 a2 5a bf b0 6d ac bf
       0.3090105 -1.2321627 -0.85404885 -1.3470974
0000d0 7f 2c db 3e 58 4c e7 3f c8 da da bf ff f0 99 3e
       0.42807385 1.8070173 -1.7098017 0.30066678
0000e0 95 66 d9 bf 34 24 08 bf 6c 3f 04 3f ac 22 1c bf
       -1.698443 -0.5318024 0.51659274 -0.60990405
0000f0 c1 aa e4 be 23 d8 24 3f 8c ec bc be 5a d9 0e bf
       -0.44661525 0.643923 -0.3689922 -0.558004
000100 83 1b 65 bf 24 37 30 be 8e 7a 25 c0 6e 1d 8d bf
       -0.89495105 -0.17208534 -2.5856051 -1.1024606
000110 80 ac af bf 12 be 96 bf 36 49 16 40 8b 70 4a 3c
       -1.3724518 -1.1776755 2.3482184 0.012355934
000120 e1 68 bf 3f c8 5e 26 3f 58 01 79 3f 76 31 de 3e
       1.4953882 0.64988375 0.97267675 0.4339711
000130 5c 00 ac 3f d5 99 77 bf 4a 2f 73 bf 12 5d 0e c0
       1.343761 -0.96719104 -0.9499403 -2.2244306
000140 c4 5f 20 40 34 e9 28 be 1b fa c4 bf 95 3c db bd
       2.505845 -0.1649521 -1.5388826 -0.107049145
000150 23 f1 b7 bd 27 ed 72 3f a5 7b 1f 40 84 e5 8b bf
       -0.0898154 0.94893116 2.4919217 -1.0929418
000160 8f 7b 92 3e c9 3a 13 bf 3f 6c 9b 3f 61 f6 00 3f
       0.28609893 -0.57511574 1.2142409 0.50375944
000170 4b 26 13 40 15 cd ad 3f 27 7d 89 bf ad 56 32 bf
       2.2992122 1.3578211 -1.0741318 -0.69663507
000180 dd 51 bb be 88 ba 3e 3f bc e3 3f 3f 98 a0 73 bf
       -0.36585894 0.74503374 0.7495687 -0.9516692
000190 4c bc b2 3e d2 eb 0f bd e7 a4 86 3e 04 4c bb bf
       0.34909284 -0.035137005 0.26297686 -1.4632573
0001a0 1c 1a 60 3e 83 5c 29 c0 be 69 e7 3d 54 ae b0 3e
       0.2188496 -2.6462715 0.112994656 0.34508002
0001b0 cb 6b b8 be 4a f7 c2 3f 28 62 fb 3f 5d 98 df 3f
       -0.3601974 1.5231717 1.963933 1.7468373
0001c0 73 6b c1 be 07 41 a7 3f 11 31 94 3f d9 ff 92 3c
       -0.3777729 1.306672 1.1577474 0.017944263
0001d0 4e d1 d3 3b fb 83 fd bf 9b 26 ab be 03 61 64 bf
       0.00646416 -1.9805902 -0.3342789 -0.8921053
0001e0 e4 59 0b 40 ea ca 0c c0 af fc 36 3f 11 ac 49 3f
       2.1773615 -2.199885 0.71479315 0.7877818
0001f0 52 f0 2e bf b1 82 d1 bd 83 ce e6 be 77 97 ba bf
       -0.6833545 -0.102300055 -0.4507943 -1.4577473
000200 93 08 54 3f c5 22 c0 bf 86 af b6 bf 78 6a 0e be
       0.82825583 -1.5010611 -1.4272316 -0.13907802
000210 67 73 f0 be 9d d7 e3 3e 6b ec 0c 3f 88 5c e0 3e
       -0.46963045 0.44500437 0.55048245 0.43820596
000220 c2 d7 1a bf a0 f7 a1 3f 62 b9 91 bd 25 74 b4 be
       -0.6048547 1.2653694 -0.07115437 -0.3524486
000230 81 fe 7d bf 20 dd dc 3f e2 64 01 c0 8c da 31 bf
       -0.9921647 1.7254982 -2.0217824 -0.694741
000240 42 0a 87 bf 04 d0 69 3f bb 89 08 3f 9d 0a 8e 3f
       -1.0550005 0.9133303 0.5333516 1.1096989
000250 48 b1 18 40 10 3c 31 bf f2 e0 9f bf 2e 19 d3 3e
       2.3858204 -0.69232273 -1.2490523 0.41230148
000260 ab 13 cc bf 09 e1 03 bd 4d 07 2a bf 75 f5 ef bf
       -1.5943502 -0.032197032 -0.6641739 -1.8746783
000270 68 ec 51 be 26 60 32 40 a2 88 b2 3f 57 9e ac 3f
       -0.20500338 2.7871184 1.3947947 1.3485821
000280 79 3a 1e be c9 77 91 3f a3 01 46 be 13 22 19 bf
       -0.15451993 1.136468 -0.19336562 -0.5981762
000290 58 29 1f 3d 64 00 93 3e 1b a0 a4 3f b3 09 2c 40
       0.038857788 0.28711236 1.286136 2.688092
0002a0 48 76 97 bd 13 09 06 3e 4e 98 cd bd 91 ab 8a 3e
       -0.07395607 0.13089399 -0.100388154 0.2708402
0002b0 44 21 74 3f 43 3f 41 3f 97 99 a5 bf 2f 92 04 3f
       0.9536326 0.75487155 -1.2937497 0.5178556
0002c0 c9 0e bc be f7 93 fb 3b d6 b4 1b 3f 8a 39 5c 3f
       -0.3673003 0.007677551 0.6082281 0.860253
0002d0 45 af 34 3f f0 ef a5 bb 2c 7d e4 be f3 df d1 3f
       0.7057994 -0.005064003 -0.4462675 1.6396469
0002e0 81 43 c9 3f cf a4 67 3f 95 e8 a1 bf 6b 79 42 be
       1.5723726 0.9048585 -1.2649103 -0.1899163
0002f0 6a 7a 2d 3f 25 fd 17 3f 0d f0 c5 bf 6b bb 35 3e
       0.67764914 0.5937064 -1.5463883 0.17747276
000300 9d 07 e1 bc fb 12 bd bf df 95 82 3e d6 f7 e1 bb
       -0.02746945 -1.4771417 0.25504968 -0.0068959994
000310 88 a0 8d bf 47 77 95 3d 61 ba 1c 40 27 79 f8 3f
       -1.1064615 0.07298141 2.4488757 1.9411973
000320 0d 93 ad 3f cc 5d 3d bf 0f 30 72 bb 40 28 eb 3f
       1.3560501 -0.7397125 -0.0036954915 1.8371658
000330 03 79 87 bf ac 5a ce bf ad 6a e9 bf e8 53 20 be
       -1.0583805 -1.6121421 -1.823568 -0.15657008
000340 c8 94 0f bf 8c 00 ad 3e c7 c3 12 3f 76 21 f5 3e
       -0.560864 0.3378948 0.5732998 0.4787709
000350 0e b7 5a 3f e0 65 c3 bf 23 69 35 3f ad ad a5 3e
       0.8543557 -1.5265465 0.7086355 0.32359067
000360 94 9e dd bf d9 42 1a 3f c3 70 bf be d4 fc a9 3e
       -1.7314019 0.6025825 -0.37390718 0.33200705
000370 81 84 30 3e d5 f0 a8 be 46 99 b1 3f ac 8d e3 3f
       0.17238046 -0.3299624 1.38749 1.777761
000380 76 6f 6d bf 17 47 6b 3f 6e eb 88 3e 9e c6 b2 bf
       -0.927482 0.9190535 0.2674212 -1.3966863
000390 f7 6f d2 3f 51 4b e0 3e 2c 5b 9f be 2b 6f 42 bf
       1.6440419 0.43807462 -0.31124246 -0.7595088
0003a0 87 31 0d be d1 85 d2 be 4e fe 51 3f 08 e3 35 be
       -0.13788424 -0.4111772 0.82028663 -0.17762387
0003b0 7c 5f 98 3f 88 75 45 3f 13 d3 40 3f 5d 48 10 3e
       1.190414 0.77132463 0.75322074 0.14090104
0003c0 64 24 af 3f fc 68 e2 bf 0f cb 02 bf 67 4b 3c 3e
       1.368298 -1.7688289 -0.5109109 0.18388139
0003d0 77 94 88 3f 2d a7 39 bf 99 8d 43 3f b5 fb 4e bf
       1.0670308 -0.72520715 0.76387936 -0.80852824
0003e0 6e 3b 7c bf b0 d8 6a bf f2 ba 0d bf 0d 41 73 3f
       -0.9852818 -0.9173689 -0.5536338 0.95021135
0003f0 ea d4 53 bf 3d 26 fe be b9 62 bd 3e 71 33 5a 3f
       -0.82746756 -0.49638548 0.36989382 0.85234743

encoder.trans_linear.weight f4 [40, 5]
000000 4a 67 a9 3d 10 74 bd bd 7f 90 cb bd 51 2d ed bd
       0.08271654 -0.09250653 -0.0993967 -0.11580909
000010 6e e6 b4 3d 5c 40 65 be 47 03 0a be 39 8c 0e bd
       0.088330135 -0.22387832 -0.13477813 -0.034801695
000020 09 94 8e be 58 35 f4 bc ca 88 4a be bc f6 52 bc
       -0.27847317 -0.029810593 -0.19778743 -0.012876209
000030 25 17 7e 3e 9b 11 23 be f5 9a e2 3c a8 92 b1 3c
       0.24813516 -0.15924685 0.02766178 0.021676376
000040 64 9b 41 be 40 1f 57 be 2d 13 7a 3c 8c 7e a5 3d
       -0.18906933 -0.21008015 0.015263361 0.080807775
000050 7d ea 0a 3e a3 14 44 3e d7 a9 8d 3d 80 8c f0 bc
       0.13566013 0.19148497 0.0691716 -0.02936387
000060 b1 d7 20 be 52 1b 21 bf 28 5e 1d be 5c 8b 56 be
       -0.1570728 -0.6293231 -0.15367949 -0.20951599
000070 e9 6b 98 be 96 f7 56 3e 7b ec 08 3f 2c e8 36 3e
       -0.2976983 0.20992884 0.5348584 0.17862004
000080 0b 13 d1 bd f0 db d2 3d 47 1a 19 bd d3 28 ea be
       -0.1020871 0.10295856 -0.037378576 -0.4573427
000090 37 9c 78 3e 0b 73 69 be 16 2f c0 3e 5a ec e6 bc
       0.24278341 -0.22797792 0.37535924 -0.028188873
0000a0 e2 67 27 3f 4a c1 92 3e 09 d2 2c 3e 40 53 ce be
       0.6539289 0.28663093 0.16876997 -0.4029789
0000b0 f9 06 01 3e 29 3a c1 bd d7 bc 72 be f1 87 ba 3d
       0.12600316 -0.09434921 -0.23704849 0.0910796
0000c0 40 44 52 bd 38 14 b2 bd dc 2b 09 bf 56 c3 b7 bd
       -0.05133462 -0.08695263 -0.5358255 -0.08972804
0000d0 fb 34 8e bd 1e 31 9c bb df 19 e2 3c 79 5c 8e 3e
       -0.06943699 -0.0047665974 0.027600227 0.27804926
0000e0 4a c3 0c 3e aa 89 13 3e b1 9a 96 bc 42 63 69 bd
       0.13746372 0.14407983 -0.01838431 -0.056979425
0000f0 78 53 e5 bd 72 71 5c 3e 93 1e f9 bc 16 3f 1f be
       -0.11197561 0.21527651 -0.030410087 -0.15551409
000100 75 fa cc be 97 8f f9 be c8 9e 52 3e e7 07 a4 3c
       -0.40034834 -0.48742363 0.20568383 0.0200233
000110 c2 23 1e 3e 1b f0 b7 bd cf 17 10 3f 39 34 5e 3e
       0.15443328 -0.08981343 0.5628633 0.21699609
000120 d5 97 1e be 57 df fc 3d ea 0a 3d 3e e2 94 86 3e
       -0.15487607 0.12347286 0.18461195 0.26285464
000130 ba 3e d0 3e 8c 18 0a 3d 05 e9 0f 3c 39 9d 37 be
       0.40672857 0.033714816 0.0087835835 -0.1793107
000140 64 22 35 be bb 25 ca 3d 2a 81 bb bc 9d 97 2f be
       -0.176889 0.09870478 -0.022888739 -0.1714768
000150 f8 44 66 bd fd 84 60 be 2b 7a ff bc 72 04 eb 3c
       -0.056218117 -0.21925731 -0.031186184 0.028688643
000160 2b fe 07 3e 09 a5 0b be dc b3 5d 3f 46 0d e0 3d
       0.13280551 -0.13637175 0.8660257 0.10940032
000170 68 00 3b be 06 8f 99 3d 94 7b c2 3d 49 ce e7 be
       -0.18261874 0.07497983 0.09496227 -0.4527457
000180 4e 08 aa 3e 58 12 28 3e 00 c7 41 bd 0f c0 11 3e
       0.3320946 0.16413248 -0.04730892 0.14233421
000190 46 51 c0 3d 49 17 d1 3e de 7d 78 3e 1f ed 57 3e
       0.09390502 0.40838078 0.24266765 0.21086548
0001a0 db 8f 7d 3e b3 92 23 3f ec 9f 6c be e5 2b 1a 3e
       0.24761908 0.6389572 -0.2310788 0.15055807
0001b0 83 b4 7f be 35 04 b2 bd f9 0c f0 3e 47 e4 f2 bc
       -0.24971204 -0.08692209 0.46884897 -0.029649867
0001c0 53 02 85 bc 19 6e 78 be ac bc 7c be aa 45 cb 3e
       -0.01623646 -0.24260749 -0.24681348 0.39701587
0001d0 6a 8a 4a 3e a4 e3 32 3e 42 e8 43 3e 49 31 ab 3d
       0.19779363 0.1746965 0.19131568 0.0835901
0001e0 f5 73 a4 3e db 88 a9 be d2 8f c9 3d bc 9c 85 3e
       0.32119718 -0.33112225 0.09841885 0.2609614
0001f0 0a c3 79 be 6b 58 32 3e 5d 71 fc 3d b1 b1 18 be
       -0.24390808 0.17416541 0.1232631 -0.14911534
000200 52 25 a9 be 4b 10 31 3e 9c 85 aa 3e 5f 63 45 bd
       -0.33036286 0.17291372 0.3330506 -0.04819047
000210 c9 ce a2 3d 86 7a 49 bd 72 47 b8 bd 42 d0 9b be
       0.079495974 -0.049189113 -0.08998002 -0.30432326
000220 7c 75 ff 3d 40 17 49 3e 96 9f db bd 62 64 c0 bc
       0.1247358 0.19637775 -0.10723798 -0.023485366
000230 02 14 04 bf db 3e 90 3e 00 96 7d 3b d5 df 03 bd
       -0.5159303 0.28172955 0.0038694143 -0.032195885
000240 13 0d 4f 3e de a6 b2 bd b7 6b 22 3e bf c7 55 bd
       0.20219831 -0.08723234 0.15861402 -0.052192446
000250 e8 ba 54 3c 41 60 66 be a5 64 0d 3f 0f f5 59 3e
       0.012984015 -0.22497655 0.55231696 0.21284889
000260 ef b8 2d 3e 42 bd f9 3d fd 25 3c 3d 90 5b 22 3e
       0.16965078 0.12194301 0.045934666 0.15855241
000270 93 a2 12 3e 03 c4 1c 3c c2 d7 11 be 68 ae 68 3e
       0.1431983 0.009568217 -0.14242461 0.2272278
000280 37 0f d7 3e 32 a5 b5 be d8 01 18 be 34 9c 77 bd
       0.42003796 -0.35477597 -0.14844453 -0.0604517
000290 78 e5 6b 3d f4 2d c2 3d d8 4d 00 be c4 8c 1b 3e
       0.057591885 0.09481421 -0.12529695 0.15190417
0002a0 8f ec 12 3e b5 14 d8 3d f7 39 03 3f 1c 6c ae 3d
       0.14348052 0.105508246 0.5126032 0.08516714
0002b0 82 fd d0 3d 75 ea ca 3e 07 70 7f 3d fc e5 0b bf
       0.10204603 0.39632002 0.062362697 -0.54647803
0002c0 5f f9 7f 3e 54 ac b3 be ea 84 46 3e 5b ab c3 3d
       0.24997471 -0.35092413 0.1938664 0.09554168
0002d0 40 8f 1a bf fb 87 d2 bd 8c 32 a3 bc 60 f4 0c bd
       -0.6037483 -0.102798425 -0.019921564 -0.03441274
0002e0 ce db 03 be 3f 75 fa 3e 3b 8a 82 3d 30 18 9f be
       -0.12876818 0.48917577 0.063740216 -0.3107314
0002f0 00 88 db 3e 8a df 5c be 2a fd 8c be e7 e3 95 be
       0.42877197 -0.21569648 -0.275369 -0.29275438
000300 e0 14 24 3d 79 db a7 be d2 38 04 be 7d bc 9e be
       0.04005897 -0.32784632 -0.129123 -0.3100318
000310 85 5a 47 be b0 0e 55 be b4 18 d2 bd 05 d6 b6 3e
       -0.19468124 -0.20806384 -0.10258618 0.3571016

encoder.trans_linear.bias f4 [40]
000000 c6 0f 10 be e9 a7 ef 3e ec 30 91 3e ad 23 24 3e
       -0.14068517 0.46807793 0.28357637 0.16029234
000010 a6 ff 0f bf 8a a9 26 3e 0c cc 4e be d2 42 28 3d
       -0.56249464 0.16275612 -0.20195025 0.04107935
000020 ba dc 7d 3e dc 36 49 be 20 43 31 be ed 2a a4 3e
       0.24791232 -0.19649833 -0.17310762 0.32064
000030 86 5a 18 be 45 9e 83 3a 61 44 9d 3d 24 c6 4d be
       -0.14878282 0.0010041675 0.07679058 -0.20095116
000040 2e d1 a4 be dd a7 eb 3d 20 97 7f b6 2f 9d b1 bd
       -0.3219084 0.11506627 -3.8085927e-06 -0.086725585
000050 28 db 88 be 43 b6 8f be c3 75 58 3c 23 e6 33 3d
       -0.26729703 -0.28068742 0.01321167 0.043920647
000060 7d a0 ae bb 16 ea 2f be b2 24 c5 3e d0 f5 b1 3e
       -0.0053291903 -0.1717914 0.3850456 0.34757853
000070 f0 61 da be d6 38 15 3e 9c b2 4b 3e 80 37 0f 3e
       -0.42652845 0.14572462 0.19892353 0.13986015
000080 c0 41 d1 3e 8f 45 33 3e 1d fd 02 3e 07 a2 43 be
       0.40870476 0.17507003 0.12791868 -0.19104777
000090 9a 64 a5 be 64 08 34 3d 31 44 1e be 60 57 8e bd
       -0.32303315 0.043953314 -0.154557 -0.06950259

encoder.conv_mu.bias f4 [20]
000000 9b 2f 31 3d c7 bf c4 3b 77 e7 b9 bc 85 e2 3d be
       0.04325829 0.006004307 -0.022693379 -0.18543442
000010 fe 8f 3f bd fa eb 03 ba bc 67 a1 3b 10 37 82 3c
       -0.04676818 -0.00050324167 0.004925696 0.015895396
000020 46 69 f4 3d e0 6f 4f 3d a2 22 bf bc fb 96 74 3d
       0.11934142 0.0506438 -0.023331944 0.0597143
000030 54 15 a1 bd 13 f7 70 3d 01 80 f8 bd e0 ff ae 3d
       -0.07865396 0.05882938 -0.1213379 0.08544898
000040 4b 8b b6 bd 23 84 0d 3e 07 b4 03 be 7b 0c 7b bd
       -0.08913287 0.13819937 -0.12861644 -0.0612912

encoder.conv_mu.lin.weight f4 [20, 20]
000000 54 84 99 be 1e d7 d3 3e 43 25 9a be 18 97 8a bd
       -0.2998377 0.4137506 -0.30106553 -0.067671
000010 99 4f 82 3e 6f a9 ee 3d ca f3 06 be 23 91 96 3c
       0.25451353 0.11653411 -0.13178936 0.018379753
000020 04 3f 5d be a3 1b 2f be d8 ed 13 bf bc f0 53 be
       -0.2160607 -0.17100386 -0.57784796 -0.20697302
000030 1a 2e cb bc db 0d bd 3e 89 72 4d 3e 68 42 ac be
       -0.024802256 0.36924633 0.20063223 -0.33644414
000040 54 86 18 bb 12 41 a1 3e 36 4b a0 3e 89 aa 2d 3f
       -0.0023273425 0.31494957 0.3130738 0.6783834
000050 f4 68 35 3d 53 58 8c be ab 12 27 3e 8b b5 94 bd
       0.044289544 -0.27411136 0.16315715 -0.07261189
000060 04 06 63 be 9b e7 7b be b1 a2 bf bd f9 6d 15 ba
       -0.22170264 -0.24600069 -0.09357203 -0.0005700286
000070 90 23 ec 3e 11 65 02 3f db 08 98 3e f9 1c d4 bd
       0.46120882 0.50935465 0.29694256 -0.103570886
000080 e4 b2 d6 3c 40 26 2c be e5 dc a0 3e bc a8 b1 be
       0.026208349 -0.16811466 0.3141853 -0.34699047
000090 a0 fd b5 3e 19 bc 5e 3e ca bf 0a bd 37 65 ac 3e
       0.35545063 0.21751441 -0.03387431 0.3367097
0000a0 a8 14 df 3d 04 00 eb bd 14 ee 93 3e 3b 59 21 3e
       0.10892612 -0.11474612 0.28892577 0.15756695
0000b0 21 f3 d0 be e5 96 ba 3d f4 95 bb be ae 63 96 3c
       -0.40810493 0.09110812 -0.36637843 0.018358078
0000c0 86 84 c5 be 90 64 53 3e 9e 73 a5 3d d1 97 f0 bc
       -0.3857767 0.2064383 0.08078693 -0.029369267
0000d0 22 82 83 3e aa 38 18 3e ad 3c 9a 3d 59 9a 93 3e
       0.2568522 0.14865366 0.07531104 0.28828695
0000e0 c3 cd a4 3c c8 89 c7 be 07 a3 89 be 4f c4 f9 bd
       0.020117646 -0.38972306 -0.26882192 -0.12195646
0000f0 c3 1c d4 3d 19 fb b5 be ea 84 05 3f 5a 97 09 be
       0.10357048 -0.35543135 0.52155936 -0.13436642
000100 dc 6f 00 be 8c 60 f7 3d fe fa b7 bc 70 a8 03 3e
       -0.12542671 0.12078962 -0.02245855 0.12857223
000110 51 79 a4 3d e4 4b c1 bd aa e2 49 3e 85 70 fd bd
       0.08030952 -0.09438303 0.19715372 -0.12374977
000120 bb 34 be be 56 57 0f 3e e5 1e e1 bd 32 65 12 bd
       -0.37149605 0.1399816 -0.10992221 -0.03574104
000130 29 04 00 be 01 fd d4 3e d2 8c 8e be b4 52 96 bd
       -0.12501587 0.41599277 -0.27841812 -0.07339993
000140 59 ae 69 be 79 db 3b bd e3 2c 02 3f f8 46 fe 3e
       -0.22820415 -0.045863602 0.5084974 0.4966352
000150 b3 38 f4 3d 9f b7 ed bc ff 95 9d be dd 60 5f be
       0.11924877 -0.029018221 -0.307785 -0.21814294
000160 dd 50 83 3e 87 ef 24 3e 8b 66 04 3e 3d 02 03 bf
       0.2564763 0.16106997 0.12929742 -0.5117529
000170 fa 22 4c bf 4c 97 aa be 8f 0a eb 3e 9f 8e 94 be
       -0.7974087 -0.33318555 0.45906493 -0.2901506
000180 d4 d2 be 3d 75 fb 11 3f a9 83 cf 3d 39 5c c2 bc
       0.09317556 0.5702432 0.10132534 -0.023725616
000190 90 3f d4 bd 3c c9 03 bf d7 11 bd 3e 32 e6 82 be
       -0.10363686 -0.51478934 0.36927673 -0.2556625
0001a0 0c dc a2 be 7f d8 2d 3c db 86 74 be 77 f6 49 3e
       -0.31808507 0.010610699 -0.23879568 0.19722925
0001b0 82 77 a0 be 30 25 66 3d 87 db 2a bf 58 60 ec 3d
       -0.31341177 0.05618781 -0.6674122 0.115418136
0001c0 1f e0 58 bc b5 c0 46 3f 65 e8 ac 3e 82 5c bf 3d
       -0.013237028 0.776378 0.33771053 0.09343816
0001d0 f0 71 6b 3e a1 eb d7 3e 8f 30 28 be 43 67 80 be
       0.22992682 0.42171958 -0.16424774 -0.25078782
0001e0 c4 cf 97 3a 9d dc 87 3c c6 42 f6 3d 54 f2 33 be
       0.0011582305 0.016584689 0.12024455 -0.1757291
0001f0 dc 19 d1 3e 93 40 a4 3d c5 ce 63 3e b9 2c 94 bd
       0.40840042 0.08020129 0.22246845 -0.07235093
000200 cd b9 4c 3e dd 0f 33 be 96 b1 b6 be 65 84 16 be
       0.19992752 -0.1748652 -0.35682362 -0.14698942
000210 8f e0 6f be 06 4b 6e 3e 4e 05 98 be 71 85 e2 bc
       -0.23425506 0.23270807 -0.29691547 -0.02765152
000220 0c 85 a7 3d 1a a7 ca 3e 16 7e 81 be 4c 8b a7 bd
       0.081796736 0.39580613 -0.25291508 -0.08180866
000230 5d 9a 3b be 3e dd 37 bc 93 ee 2a 3c 1a 22 3e 3e
       -0.18320604 -0.011222182 0.010432857 0.18567696
000240 85 48 e6 3e 7a cd aa 3e cf 7c 71 be be d2 a0 3e
       0.44977203 0.3335989 -0.23582767 0.31410784
000250 68 90 8e be 4e 5d a7 be 5e 9e 57 be a7 33 12 be
       -0.27844548 -0.32688373 -0.21056506 -0.14277516
000260 f3 cf c9 3d c7 a2 1e be ca 0c d7 be 90 f8 8c 3e
       0.09854116 -0.15491782 -0.42001945 0.27533388
000270 8b 14 6b be 9b 78 72 be ee 25 d5 3c 6b 57 b4 be
       -0.22957055 -0.2367882 0.026019063 -0.35222945
000280 69 eb ab 3e d3 3a e4 bc 9c 09 c2 3e ca f0 d7 be
       0.3357804 -0.02786008 0.37897956 -0.42175895
000290 6a 59 df bd 73 2e 88 3e 53 c4 84 be 97 cc 79 3e
       -0.10905726 0.26597938 -0.25931033 0.24394451
0002a0 5c 84 96 be 69 cd 5f 3e 11 d4 ae be 08 25 25 bf
       -0.29397857 0.21855702 -0.3414617 -0.6450963
0002b0 8c e2 c7 3e d0 3a 04 3d 98 97 8f be 5f 17 10 3d
       0.3904003 0.03228265 -0.28045344 0.03517854
0002c0 18 1a 95 3d 95 7f 2b bf 91 cf 3e 3e 6b a2 8e be
       0.072803676 -0.6699155 0.18633868 -0.2785829
0002d0 1d 31 b3 bd 68 61 e9 3d f1 89 06 3f 72 97 59 bb
       -0.08749602 0.11395532 0.5255423 -0.003320184
0002e0 81 6a d2 3e a4 f3 d8 3e 13 d9 cb 3d cc c1 52 be
       0.4109688 0.42373383 0.09953513 -0.2058174
0002f0 fd 6a 34 be 79 69 00 bb cf 13 af be 4d 95 a5 3e
       -0.17618938 -0.0019594117 -0.341948 0.3234047
000300 0b c6 99 3d 9e 5a 22 3e 16 f8 1e be de 1b 3d be
       0.07508477 0.1585488 -0.15524325 -0.18467662
000310 28 46 8b be 20 de a7 bd 9f ea dc 3d 72 33 10 3f
       -0.27201962 -0.08196664 0.10786938 0.563285
000320 a6 2c af 3e f4 d2 ff 3e 87 71 da be ee 1d ed 3d
       0.34213752 0.49965632 -0.4266474 0.11577974
000330 7d 26 92 be c0 18 91 3d 33 ff 6f bd f5 92 01 be
       -0.2854499 0.07084799 -0.058592986 -0.12653716
000340 6b d2 bf 3c 03 b9 e6 be 9f 64 a9 3e 50 1a b7 3e
       0.023415765 -0.45063028 0.3308458 0.35762262
000350 b9 ed 79 3e 07 06 6d be 4c f7 79 bd 9d 2e 82 be
       0.2440709 -0.2314683 -0.061026856 -0.25426188
000360 be 0e 07 3e 6f 0c 39 bf 01 15 65 3e 14 a1 5e 3e
       0.13189217 -0.722846 0.22371294 0.21741134
000370 8a 1f 95 3e e7 d4 a7 be f5 5c b2 3e aa 28 a0 be
       0.29125625 -0.3277962 0.34836546 -0.31281024
000380 05 03 a6 be 66 12 a3 3b 35 39 42 3e 96 aa 19 3d
       -0.3242418 0.0049765585 0.18967135 0.0375162
000390 0f f0 4a 3c 94 79 19 3e e6 2f 1d 3e 36 b3 f5 3e
       0.012386336 0.14987785 0.15350303 0.4798829
0003a0 d2 50 9b bc 61 ce ab 3d 29 0e 5a be 7e c0 37 bd
       -0.018959437 0.08388973 -0.21294464 -0.04486131
0003b0 3f 42 92 3e da 61 c4 be f6 50 90 3e bd 72 25 be
       0.28566167 -0.38355905 0.28186768 -0.1615705
0003c0 8f fc 20 be 3e 55 27 3e da fa 41 be c2 22 95 be
       -0.15721343 0.16341111 -0.18943349 -0.2912808
0003d0 80 db 98 be 22 96 1b 3e 9d 3e 82 be 64 94 f0 bd
       -0.29854965 0.1519399 -0.25438395 -0.11747053
0003e0 fc f4 a9 3d 21 97 41 be 59 31 32 3e e9 b7 9a bd
       0.0829868 -0.18905307 0.17401637 -0.07554609
0003f0 58 07 c4 3d 15 36 d1 bd d0 af 15 3d 9e 8d dd bd
       0.09571713 -0.102153935 0.03654462 -0.10818027

encoder.conv_logstd.bias f4 [20]
000000 14 b8 ae be a4 f0 d0 be db 12 bd be 88 8b 8e be
       -0.34124815 -0.40808594 -0.36928448 -0.2784083
000010 1a af f4 be 10 2a cb be 31 04 ad be 3c c2 bc be
       -0.47789842 -0.3968053 -0.3379226 -0.3686694
000020 20 5c 09 bf 53 3d bd be 8a ee cf be b8 f3 cf be
       -0.53656197 -0.3696085 -0.40611678 -0.4061563
000030 c0 bc b6 be 9c 10 02 bf 9d 24 fb be f8 ae c8 be
       -0.3569088 -0.50806594 -0.4905137 -0.3919599
000040 5b bc b2 be d4 af d0 be c1 4c cd be ed f4 10 bf
       -0.3490933 -0.40759146 -0.4009762 -0.5662373

encoder.conv_logstd.lin.weight f4 [20, 20]
000000 96 d6 71 be b1 84 2a bd 78 b2 74 3e ea 95 4d bc
       -0.23617014 -0.04163045 0.23896205 -0.012547949
000010 59 4f 8c 3e 03 c6 b2 bd c3 05 50 3e b8 4f 0c be
       0.27404287 -0.08729174 0.20314698 -0.13702285
000020 62 06 30 be 00 aa 40 be 81 83 0e be a9 c8 d1 be
       -0.17189935 -0.1881485 -0.13917352 -0.40973404
000030 01 bf eb 3c 8b be 06 bc d2 22 e3 bd 69 97 b9 be
       0.028777601 -0.00822414 -0.11090626 -0.3624833
000040 a0 8d 2b be e9 97 8a 3e ed 5d bd be db 49 33 bb
       -0.16753244 0.27069023 -0.36985722 -0.0027357254
000050 01 69 ee be fc a7 e5 be 0b 7c d4 3e 7c 2c ed 3c
       -0.46564487 -0.44854724 0.41500887 0.028951876
000060 88 eb 3a be 96 af 00 be e8 92 83 3e e4 ce c6 3c
       -0.1825391 -0.1256698 0.25698018 0.024268575
000070 53 11 eb b9 bc 42 28 be 95 63 88 bc 09 86 95 be
       -0.000448356 -0.16431707 -0.016649047 -0.29203823
000080 34 a3 61 3e 52 69 62 bc 6c 54 88 bd 60 44 89 be
       0.22034913 -0.013819056 -0.06656727 -0.26809978
000090 c5 77 98 be 8a ce 3c 3e bc 46 3e 3d da 9c 21 3d
       -0.29778877 0.18438163 0.046454176 0.039456226
0000a0 23 08 68 be 9a 95 0d be 5f 03 6f 3e d8 6c 29 3e
       -0.22659354 -0.138266 0.2334113 0.16545427
0000b0 fd 7f 99 3c 9b fc 73 bd ad ca 25 3d 39 b8 b1 be
       0.018737787 -0.059567075 0.04047649 -0.34710863
0000c0 01 96 64 bd 1f c3 a0 be a5 25 15 be df a5 93 be
       -0.055807117 -0.31398866 -0.14565141 -0.28837487
0000d0 5b d1 a6 3e 03 af 18 3e bb 93 8e 3c 80 7c 97 bd
       0.325816 0.14910512 0.017404428 -0.07396793
0000e0 4e 7a 7d 3d 00 73 66 be f9 9c 1b be d2 94 b4 3d
       0.061884217 -0.22504807 -0.15196599 0.08817448
0000f0 f9 eb 6b be be f2 27 bd 2a ff e8 3e 2e 92 96 bb
       -0.23039235 -0.04100298 0.45507175 -0.0045950627
000100 0a 39 d2 3e 49 47 a4 bb f8 24 34 3e 52 e6 b3 bd
       0.41059142 -0.0050133807 0.17592227 -0.087841645
000110 09 7e 2b be 74 85 63 bd 9c 69 41 be c2 da ce be
       -0.16747297 -0.055547193 -0.18887943 -0.40401274
000120 ab b4 c5 3e 95 9f 1b be 35 e6 69 be ca 18 6c be
       0.386144 -0.15197594 -0.22841723 -0.23056331
000130 4c fa 64 3d 2a 9e c2 bd 69 a8 61 be 4c 16 cd bc
       0.055902764 -0.09502824 -0.220369 -0.025035046
000140 b6 99 3f be f6 4c c1 be fe 44 fa 3e 3e d4 64 be
       -0.1871098 -0.3775403 0.48880762 -0.22346589
000150 ed 0a ae bd 96 77 5f bd dc d6 d1 3d 00 63 95 be
       -0.08498178 -0.054557405 0.10246059 -0.29177094
000160 5e 98 46 3c 9c 45 e4 be 0e 45 c2 3d 23 97 ed be
       0.012121288 -0.44584358 0.094858274 -0.4640437
000170 68 b8 ce 3d a9 38 7f 3d a4 b8 88 3d 68 34 ad be
       0.100937665 0.062309895 0.066758424 -0.33829045
000180 b7 95 8d bd 06 0f 4d 3e 96 5a 21 be ac 70 10 3e
       -0.069133215 0.20025262 -0.15757212 0.14105481
000190 ad dd c1 bd 0f 6b b8 3d 61 ec a3 3e fd 9a 68 bd
       -0.094661094 0.09004795 0.3201628 -0.056788433
0001a0 1a 9e f9 bd 19 7f 8d be 57 c7 79 3e 43 c5 29 be
       -0.121883586 -0.2763603 0.24392448 -0.16579156
0001b0 b7 be 84 bd e1 91 33 3d 25 8a 4e be 4d f4 01 3d
       -0.064816885 0.043840293 -0.20169885 0.031727124
0001c0 30 d5 a8 3e 86 ac 79 bd a7 15 44 be 67 2a c6 be
       0.3297515 -0.060955547 -0.19148885 -0.38704225
0001d0 66 c6 4a be e7 b3 55 be ef af fc bd 1f 42 aa 3d
       -0.19802245 -0.20869409 -0.12338244 0.08313393
0001e0 1d a8 ef bd 06 e4 27 be 82 b4 85 3e 7f 6b ab be
       -0.11701987 -0.16395578 0.2611428 -0.3348045
0001f0 fb 67 c9 3e a6 8f 35 be c1 da 88 3e 1a 1a 9f 3c
       0.39337143 -0.17730579 0.26729396 0.019421626
000200 2b 9b 93 bd e7 2f 8c 3c bc c0 93 be 5e 72 7a be
       -0.0720733 0.017112685 -0.28857982 -0.2445769
000210 78 77 84 3e 78 ed 1b 3d 91 b5 82 3c be a2 a7 be
       0.25872397 0.038068265 0.015955718 -0.3274135
000220 10 79 ea bd 2d a6 13 3e 77 30 8b bd 98 db dd bd
       -0.11448872 0.1441886 -0.06796353 -0.108329
000230 7f d0 27 bc 06 4b 0f be c9 f0 a7 3e c5 30 40 3e
       -0.01024258 -0.13993463 0.32800892 0.18768604
000240 70 bf 3d 3e 6b e1 b2 be bb 5f 95 3e 92 8c 1f be
       0.18530059 -0.34937605 0.291746 -0.15580967
000250 e1 ec 44 3e 72 52 f2 bd 0d 66 c7 be 71 78 0a bc
       0.19230987 -0.118321314 -0.38945046 -0.008451567
000260 07 52 c9 3d d1 ec 82 bc 0a c2 30 be 85 4a 94 be
       0.098300986 -0.015982063 -0.1726152 -0.28963104
000270 ed 4a 81 bc 87 1a 33 be 95 04 8a bd 98 1e f7 bd
       -0.015782798 -0.17490588 -0.06739155 -0.12066382
000280 79 76 4b be 4f 0f 40 be a0 cd 5c 3d e3 f8 08 3e
       -0.19869412 -0.1875584 0.053907037 0.13376193
000290 4e f2 79 bd d8 71 18 be 81 93 34 3e c2 d0 9a be
       -0.061022095 -0.14887178 0.17634393 -0.30237395
0002a0 09 2f 47 be 13 a0 b9 be 1f 54 b6 bd fb 49 b7 be
       -0.19451536 -0.3625494 -0.089027636 -0.3579863
0002b0 24 c3 9f 3e c1 18 8a 3d fa 37 ca 3d 2b 15 41 be
       0.31203568 0.06743003 0.09873958 -0.18855731
0002c0 86 5f 63 bd 73 74 68 be 5b 18 18 be 07 88 0c 3e
       -0.05551102 -0.22700672 -0.14853041 0.13723765
0002d0 a8 fa b4 bd 85 90 9f 3c cb 80 00 be ea 92 43 3e
       -0.088368714 0.019478092 -0.1254913 0.19099012
0002e0 1b f3 8c bc 76 a9 49 be c8 2e 96 3e 33 c3 ac be
       -0.017205765 -0.1969355 0.29332566 -0.33742675
0002f0 14 61 8d bd 1a ea 8d be 3f ab 05 be 8c 0c ba be
       -0.06903282 -0.27717668 -0.13053606 -0.36337698
000300 82 9b 1e be 6a e0 87 3e a7 05 43 3d 37 c6 9e be
       -0.15489009 0.26538402 0.047612812 -0.310106
000310 3a 73 d6 bd 0a ed 71 3e 8d 16 e4 be 87 7c 12 3b
       -0.104711965 0.2362558 -0.44548455 0.0022352056
000320 29 95 39 be 51 22 86 be 80 d3 de bc fd 52 8d 3b
       -0.18123306 -0.26198056 -0.02720046 0.0043128715
000330 38 f3 a0 be 86 d0 73 be 9d 95 4e 3e 6b b6 7c be
       -0.3143556 -0.23810014 0.2017426 -0.24678962
000340 e6 68 b3 3b 7a 33 93 be 56 7c 65 3d 40 14 72 be
       0.0054751514 -0.2875021 0.05602678 -0.23640537
000350 53 cd 8c 3e 97 07 0e 3c 74 b2 92 3d f6 32 8f be
       0.275004 0.008668802 0.071629435 -0.27968568
000360 9c 8f 40 bd a4 fa 11 be 79 b2 37 3d 5e 78 a0 3c
       -0.047011957 -0.14255768 0.04484794 0.019588646
000370 83 49 21 be d2 d1 b2 bb 8a b8 02 3e 58 aa ca bc
       -0.15750699 -0.0054571414 0.12765709 -0.02473943
000380 55 5b fa bd 43 80 68 be f0 31 be 3d f4 77 13 be
       -0.122244515 -0.22705178 0.092868686 -0.14401227
000390 51 64 91 be c5 e1 1b 3d 3e fb 9b bd 98 08 2e be
       -0.28396848 0.038057107 -0.0761628 -0.16995466
0003a0 0c d1 fe 3e 8b ee fc bc ff 32 9f 3d 03 c0 53 be
       0.49768865 -0.030875465 0.077733986 -0.20678715
0003b0 35 cf b7 3d cc 7b 41 be f6 09 56 be c0 03 00 be
       0.089750685 -0.18894881 -0.20902237 -0.1250143
0003c0 ac 3b 84 be a5 a3 7c be 47 3a b1 3d ce 34 02 3d
       -0.25826776 -0.246718 0.08653694 0.03178864
0003d0 d3 6d c7 be e4 f3 5a be 36 f0 c3 3c 1c ad 83 3b
       -0.38950977 -0.213821 0.023918252 0.004018439
0003e0 60 95 2c be a0 4b 89 bc 95 d0 5e 3d 8f 49 87 bc
       -0.16853857 -0.016759694 0.054398138 -0.016514568
0003f0 25 76 fb 3e 1f 5f 2e bd fc 39 05 3e 64 15 f9 bd
       0.49113575 -0.042571183 0.130104 -0.12162283
