results/model_GCN/graph_split_/layers_4/transform_False/alpha_0.5/model.pt (torch, 35232 bytes, 13 tensors)

encoder.conv.convs.0.bias f4 [40]
000000 bf f2 b7 3d 1d a9 8b bd db 8b ab 3d 2d b3 3a 3d
       0.08981847 -0.06819365 0.08376285 0.04558103
000010 e1 50 f7 bc e0 d1 99 3b 5b 35 33 3d 34 2c 9a 3d
       -0.030189933 0.0046942085 0.043752056 0.07527962
000020 2e 1f c4 b9 e4 5a d4 bc 3e 8d ec 3c e6 47 8b 3d
       -0.00037407264 -0.025922246 0.028875943 0.06800823
000030 8c 79 80 bd f4 b7 64 bd 0c 3f df 3c 57 d1 fb bc
       -0.06273183 -0.055839494 0.027251743 -0.03073947
000040 e8 cd 48 bd 12 14 ed b9 6d e8 14 3d 5e 0a 97 3d
       -0.049024493 -0.00045219116 0.03635447 0.07375024
000050 6c 4e d4 3c 8f 97 7f 3d d4 13 c3 bc be c6 60 3d
       0.0259163 0.062400397 -0.023813166 0.054877035
000060 d4 3f c1 bc e5 73 c0 bc 83 dc 14 3d 43 30 d8 3c
       -0.023590006 -0.023492763 0.03634311 0.0263902
000070 a1 8e 85 3d 99 12 37 3e c8 9a 10 3e 0c 31 d8 bb
       0.06521345 0.17878188 0.14121544 -0.0065976437
000080 27 63 1a 3d de 6e 01 3e 4d c7 0c bd 11 a2 0b 3e
       0.037692215 0.12639949 -0.034369756 0.13636042
000090 04 3b 05 3d 42 9d 87 bd 55 64 ca bb 15 6c 8b 3d
       0.032526985 -0.066217914 -0.0061765113 0.068077244

encoder.conv.convs.0.lin.weight f4 [40, 40]
000000 4e 23 a1 3e fa d9 a8 be be 27 e9 3c 5a b7 ac 3e
       0.31472248 -0.32978803 0.028461333 0.33733636
000010 29 db ce 3d 9e ed 73 bb 57 4f 36 3d e9 e8 f9 3e
       0.10100395 -0.0037220488 0.044509258 0.4881051
000020 cc 49 09 3f c9 16 ae 3e 4f 4b 92 bd bd 01 44 3e
       0.5362823 0.3400176 -0.0714327 0.19141288
000030 f4 0d b3 3e 1f a7 28 3d 30 40 5e be cc 4f 75 be
       0.34971583 0.041175004 -0.21704173 -0.23956221
000040 71 dd be 3c 28 53 d9 3e 0f 78 c2 3d ac fb 55 3e
       0.02329895 0.42446256 0.094955556 0.20896786
000050 6d 4d 7c 3e 2e 49 59 3e 76 0e 8f be 52 71 52 be
       0.2463891 0.21219322 -0.2794072 -0.20551041
000060 d8 2b e1 3e d1 14 93 be 71 cf 2b 3f 49 64 22 bf
       0.43978763 -0.2872682 0.67113405 -0.63434273
000070 fd 97 4a bc 33 8c dc be bf 35 e2 be 4b b6 f5 bd
       -0.012365338 -0.43075714 -0.4418163 -0.1199766
000080 ca 5f 29 3e 6c 3e 81 bd 09 27 29 3e 76 e6 9c 3e
       0.16540447 -0.06310734 0.16518797 0.30644578
000090 a3 94 6e 3e a1 1b cd 3d de 02 29 bd 94 43 25 be
       0.23298888 0.100150354 -0.0412625 -0.1613906
0000a0 b0 6f 49 be 9e e6 e8 3e 24 03 1e bd d9 35 02 be
       -0.19671512 0.45488447 -0.038577214 -0.12715854
0000b0 42 16 4b be 26 8c 59 3d 26 ba 78 be ae c6 9d bd
       -0.1983271 0.05311217 -0.2428976 -0.07703911
0000c0 d7 fd b1 be 73 73 71 be d0 46 dd bd f2 92 5c 3d
       -0.34763977 -0.23579197 -0.10804522 0.053851075
0000d0 db 1e c0 3e d5 6c a4 3e 7d ac c3 bd ca bc 96 be
       0.3752354 0.32114282 -0.09554384 -0.2944091
0000e0 7e 70 56 be 4c 74 17 be 2e ee 89 3e 15 ba fc bd
       -0.2094135 -0.14790457 0.2693953 -0.1234018
0000f0 b1 f5 9f 3e a3 8a 86 be 59 c3 3c be 39 13 ff bc
       0.31242135 -0.26277646 -0.18433894 -0.031137096
000100 1d a5 f1 be 5b cc db 3c bd ec e4 be 2c f2 33 3b
       -0.47196284 0.026830843 -0.44711867 0.0027457578
000110 3d 4a 24 3d 85 ec d6 bd eb 69 24 be cd d3 06 bc
       0.04010986 -0.10494331 -0.1605603 -0.008229208
000120 e9 0e 5c be 53 2a 34 be f5 1a 70 be f9 41 0c 3e
       -0.21490063 -0.1759427 -0.23447783 0.13697042
000130 f7 a0 0e 3e a4 b6 a6 3a d3 22 f1 3d cf e0 83 be
       0.1392859 0.0012719226 0.1177422 -0.25757453
000140 8b 51 b9 be 1a 03 e9 3d 5b f5 61 be f3 44 ae be
       -0.36195025 0.11377545 -0.22066252 -0.3403698
000150 2b 46 b4 bd dd f3 87 bd 64 c2 a5 bd 10 b8 e8 bd
       -0.08802446 -0.0663831 -0.08093718 -0.11363232
000160 57 82 9a be 11 39 12 3f e7 6a 3e be e2 b8 85 be
       -0.30177566 0.57118326 -0.18595468 -0.26117617
000170 39 74 56 bd eb c8 ef bd aa 6f e3 be 24 00 87 bc
       -0.052356932 -0.11708244 -0.4442113 -0.01647956
000180 df e1 22 be 00 df cc 3d b3 92 59 3c 3a d4 2c be
       -0.15906475 0.100034714 0.013279605 -0.16877833
000190 c3 cc 2b 3e 63 00 b6 3d ae c3 da bc d5 c6 52 3d
       0.16777329 0.088867925 -0.026704635 0.051459152
0001a0 89 28 91 3e 79 b4 88 be 04 4a 04 3e 57 ca 25 3e
       0.28351238 -0.2670019 0.1291886 0.16190468
0001b0 46 34 92 3e 4a 33 56 be 86 30 1a be e3 73 ed bc
       0.28555506 -0.20918003 -0.15057573 -0.028985923
0001c0 91 5a 2e be b7 dc a4 3d 86 77 df 3e 94 b1 2d 3e
       -0.17026736 0.080499105 0.43645877 0.16962272
0001d0 8d e0 2f 3d 0d 5a 8d 3d 94 f4 ec bc 38 83 a3 bc
       0.042938758 0.069019414 -0.028925218 -0.01996003
0001e0 ec 07 b2 bd 4b bf 71 be 25 ff a3 bd 0e a7 2d be
       -0.08692917 -0.23608129 -0.08007649 -0.16958258
0001f0 34 3c 4e 3e 06 39 b1 3e 08 93 b1 3d 22 15 eb bd
       0.20140153 0.34613818 0.08670622 -0.1147864
000200 b8 1c 12 3e 27 5d 82 3b e0 24 86 bd 18 4c 1f be
       0.14268768 0.00397839 -0.06550002 -0.15556371
000210 18 e4 58 3c 71 9e 09 3e 44 91 e9 bd c3 a9 9a be
       0.013237976 0.13439347 -0.1140466 -0.30207643
000220 56 7b ef bd b4 ae ba 3e 10 8f 52 be 84 bc 23 3d
       -0.11693446 0.36461413 -0.20562387 0.039974704
000230 35 00 0a bd 9f 9b d0 3d 55 8d 04 3e 5f e9 a6 3e
       -0.033691604 0.10185932 0.12944539 0.32599923
000240 56 f9 0f bf 63 a1 52 bb e5 0f f9 be df 8f 0e 3e
       -0.5623983 -0.003213965 -0.4864494 0.1392207
000250 9a ce a4 3e e5 63 18 3e a1 0a 3b be da ed 8a 3e
       0.32188874 0.14881857 -0.18265773 0.2713459
000260 61 d8 44 be 53 19 b5 3d 82 41 32 bc 75 0f b3 3e
       -0.19223167 0.08842721 -0.010879876 0.3497273
000270 f3 c9 94 bd 5a c1 77 3e b9 86 05 be a6 17 f0 bd
       -0.07265081 0.24194852 -0.13039674 -0.117232606
000280 9b f5 a0 bc cc 3c 00 be 71 b1 6a be b4 ca db bd
       -0.019648364 -0.12523192 -0.22919251 -0.10732022
000290 3b a7 00 3e 63 4b 4e 3d 52 d7 d5 3d d3 f4 58 be
       0.12563793 0.050364863 0.1044146 -0.21187143
0002a0 17 cd 69 bd ff fa e3 3c 47 5f 04 be 10 42 9c 3c
       -0.057080355 0.027829645 -0.1292697 0.01907447
0002b0 13 9e 2f 3e d6 bc 63 be 77 2e 52 be 55 a7 5d be
       0.17150144 -0.22240004 -0.20525537 -0.21645863
0002c0 59 5c 26 be f9 1e 3a be 21 a8 61 bd 06 ed 8c bd
       -0.16246165 -0.18175878 -0.05509198 -0.06881146
0002d0 98 58 06 be 7b e1 2d bd c9 e6 0a 3e 9f 62 04 be
       -0.13119733 -0.042451363 0.135646 -0.12928246
0002e0 41 1d 0c be 42 a9 14 be 9d 82 0d bf 2b 1d 96 3d
       -0.13683034 -0.14517692 -0.55277425 0.07329782
0002f0 7e 72 e7 bd 2d 5a 49 3e ea e2 39 3d ce 03 86 3e
       -0.113011345 0.19663306 0.045382418 0.26174778
000300 59 99 31 be 3e 52 39 be 93 6b 86 be ec 86 8b 3e
       -0.17343654 -0.18097779 -0.26253948 0.27251375
000310 f6 64 09 3e 61 d0 8e be db 5e 73 be 09 a4 cf 3d
       0.1341742 -0.27893355 -0.23766653 0.10138709
000320 ca 8e fc bd 5e 27 d5 3d 43 d1 be be 12 fd 19 be
       -0.12331922 0.10407899 -0.3726903 -0.15037945
000330 8e 5f 00 3f 49 82 f1 bd ec 5c 3c bc 83 33 ae 3e
       0.50145805 -0.11792428 -0.011496764 0.34023675
000340 3a ae 04 bc 56 27 03 be 0c d2 b0 be 16 d5 21 3f
       -0.0080981795 -0.12807974 -0.34535253 0.6321577
000350 a2 5e d4 be 17 21 dd be 00 c6 69 be 4d 21 27 3f
       -0.4147845 -0.43189308 -0.22829437 0.6528519
000360 1c 93 64 3e 6a 1d cb 3e d6 ce cd be e2 ac 64 be
       0.22321743 0.3967088 -0.40196866 -0.22331575
000370 68 b4 ba 3d eb a4 48 3e 78 37 aa 3d 13 44 66 3d
       0.09116441 0.19594161 0.08311361 0.056217264
000380 12 03 07 be 81 f6 fc bd 84 7f e0 3d d7 b4 d1 be
       -0.13184765 -0.123517044 0.10961822 -0.40958282
000390 26 70 49 be 1e 88 08 bf 6d e7 ae 3e 13 6d 85 3e
       -0.19671687 -0.533327 0.3416094 0.2605978
0003a0 13 de 08 bf f6 96 56 bf 22 3e d9 3d 1e 9a 94 be
       -0.5346386 -0.838241 0.10607554 -0.29023832
0003b0 04 bd 74 be 23 87 3c 3e dd bc 0c 3f e1 19 2b 3e
       -0.23900229 0.18410926 0.5497568 0.16709091
0003c0 99 8e 42 bb 38 a8 19 be f2 a1 f4 bb 0a 44 8b be
       -0.0029687046 -0.15005577 -0.0074655944 -0.27200347
0003d0 c5 c7 2d 3e 18 62 dc 3d b0 a3 f4 3d 46 d8 26 bd
       0.16970737 0.107608974 0.119452834 -0.0407336
0003e0 2c c5 de 3d 35 b2 fe be eb ec a3 3e 59 17 21 be
       0.10877451 -0.49745336 0.32016692 -0.15731563
0003f0 bb 96 a3 3d 11 8d 1b 3e c1 94 48 3e ce cf 90 be
       0.07987734 0.15190531 0.19587995 -0.28283542

encoder.conv.convs.1.bias f4 [40]
000000 39 3d 4f 3d 50 55 46 bc a2 e6 06 3e 05 dd 01 3d
       0.050595496 -0.012105301 0.13173917 0.03170492
000010 df a3 25 bc ce c1 76 3d 5d 8d 00 bc 55 38 40 3c
       -0.010109871 0.06024342 -0.007846204 0.011732181
000020 4f 8e 92 3d 6e 47 04 3d 24 09 87 3d fd d6 79 3b
       0.071560495 0.032294683 0.0659354 0.0038122528
000030 fe b9 89 bc d0 4e 93 bc 8b 90 a5 3d cb f9 0e 3d
       -0.01681232 -0.017981917 0.0808421 0.03490619
000040 6e 5b d5 3d 87 4e 41 bc aa 3b bb 3c 72 0e aa bc
       0.104178295 -0.0117985075 0.022855598 -0.020758841
000050 53 ea 73 3c a7 df 46 3c 10 41 95 bc ea ad 11 3c
       0.01488741 0.012138284 -0.0182195 0.008891562
000060 d1 7c 9e 3c 28 b7 66 3c 17 6e 9d bc fd 47 25 3d
       0.019346626 0.014081754 -0.019217534 0.040351856
000070 8f ca 27 3d ea 55 ce bc 7a b4 7f 3d 00 eb 53 3d
       0.04096466 -0.025187451 0.062427975 0.051737785
000080 a7 fe 06 3d 63 b4 e5 bc 38 03 68 bd c8 96 3b bc
       0.0329577 -0.028040117 -0.056643695 -0.011449523
000090 06 36 37 bc d7 02 50 bc 5d c8 50 3c 4f 0a d2 3d
       -0.011182314 -0.01269599 0.012743083 0.102558725

encoder.conv.convs.1.lin.weight f4 [40, 40]
000000 4a c8 5d be af b4 41 bd e4 28 80 3d cf cb a5 3e
       -0.21658435 -0.047291454 0.06257799 0.32382056
000010 da a0 ec 3d 34 74 e1 bc 7d a0 29 3e 16 03 96 3d
       0.115541175 -0.02752123 0.16565128 0.07324807
000020 3b c5 28 be 4f 56 84 bd ac 41 43 be f6 24 9c 3d
       -0.16481487 -0.064617746 -0.1906802 0.07624237
000030 82 15 7d bd 82 1d 3d be 01 f1 00 3e 5d e6 21 be
       -0.06178809 -0.18468288 0.12591936 -0.15810533
000040 bf a8 ab 3e df 55 95 3e bd c1 90 be c8 a7 a0 3e
       0.3352718 0.29167077 -0.2827281 0.31378007
000050 1e ab 18 bf ea 84 2e bd 4f a5 6b 3e 5c d2 73 3e
       -0.59636104 -0.042607225 0.23012279 0.23810714
000060 7b e0 03 3e b7 ea ca 3d d2 95 09 bf d9 c1 83 3e
       0.12878601 0.099080496 -0.5374423 0.25733832
000070 d9 e6 c5 be 67 61 7e be b1 b0 0b be 24 a7 e7 bd
       -0.38652685 -0.24841844 -0.13641621 -0.113111764
000080 77 91 10 3e 99 5b 0e bf fc d4 00 3e 82 9e e7 be
       0.1411799 -0.55608517 0.12581247 -0.4523812
000090 59 d2 22 3e b6 58 26 3e b9 45 0d bd 18 ba 5e bf
       0.15900554 0.16244778 -0.03449032 -0.87002707
0000a0 14 5b 30 be dc 2c 79 3e de 68 aa be ec 37 00 3c
       -0.17222244 0.24333519 -0.33283132 0.007825833
0000b0 b8 89 2c 3e 84 55 8d 3e 04 e5 34 be c9 64 af be
       0.1684941 0.27604306 -0.17665488 -0.3425658
0000c0 4c c2 1c be cf 0c 25 3e e9 99 29 be aa d8 01 bf
       -0.15308493 0.16118167 -0.16562618 -0.5072123
0000d0 dd ee 3c be 04 86 2c 3d f0 4e 93 be f4 0c 41 3e
       -0.18450494 0.042119995 -0.28771162 0.18852597
0000e0 36 17 0a be 8a 33 ad 3e eb f6 9b 3c be 3c 92 be
       -0.13485417 0.33828384 0.019038638 -0.28561968
0000f0 5d 02 98 bd 72 08 b4 3d ba b1 18 bf d0 e4 9b 3e
       -0.07422326 0.08790673 -0.5964619 0.30448008
000100 11 a4 ee bd cf 6a 55 3e 38 8a c5 3d da e3 63 3e
       -0.11652387 0.20841525 0.09645504 0.22254887
000110 d5 38 9d be ed 5c 94 be 1a 08 87 bc 13 7b 2f 3e
       -0.30707422 -0.28977147 -0.016483355 0.17136793
000120 cc 13 8f bc c5 20 17 3e d3 58 3c 3d ea bb 85 3e
       -0.017465495 0.14758594 0.045983147 0.2611993
000130 27 6c 0d 3d 80 42 1a 3e 78 51 25 3e d9 02 75 bd
       0.03452697 0.1506443 0.16144359 -0.05981717
000140 41 b1 2f be 35 54 d2 bb 58 bc 73 3e 25 72 a1 3e
       -0.17157461 -0.0064187297 0.23802316 0.31532398
000150 8c 59 44 3d 8a 9c 9c 3d d1 6b 96 3e 31 65 28 be
       0.04793696 0.07647045 0.29379132 -0.16444851
000160 c6 b7 d4 3e a4 04 ac 3e 24 75 65 3e 14 3c 0c be
       0.41546458 0.3359729 0.22407967 -0.13694793
000170 4f 50 e4 bd 83 88 82 3e eb a0 c1 3d 07 5a 46 3e
       -0.1114813 0.25494775 0.09454521 0.1937028
000180 14 71 32 be 7b 14 46 bd 97 3a b3 3d b8 82 4c 3e
       -0.17425948 -0.048359375 0.087514095 0.1997174
000190 70 5a ce be 26 d6 20 ba ce d8 1d bb 3e 3c 0e be
       -0.40303373 -0.0006135426 -0.0024085524 -0.13890168
0001a0 03 1f a5 be 78 f7 f2 bd 47 37 b8 be 3a 78 40 bd
       -0.32250223 -0.11863607 -0.35979673 -0.046989657
0001b0 69 24 f9 3d 7e b1 71 be 62 52 22 bf 0f f5 2f 3e
       0.12165148 -0.23602864 -0.63406956 0.17183326
0001c0 aa 87 3e 3e dd 76 9e 3d 15 ca 06 bd 58 b2 ff be
       0.18606439 0.07737515 -0.032907564 -0.49940753
0001d0 73 b8 90 bd d8 ec 52 bd ae fd 2f 3d 3c 55 80 bc
       -0.07066431 -0.051495403 0.042966537 -0.015665643
0001e0 8e c8 78 bd ff ca 72 be 7f 85 b9 be 0f 7a 8c bb
       -0.06073814 -0.2371025 -0.36234662 -0.0042870115
0001f0 7e 29 7a 3b 78 d0 68 be 17 1d 91 3e 0f 40 29 be
       0.0038171704 -0.22735775 0.28342506 -0.16528343
000200 78 1b cb 3d dc 82 e5 3d ad b7 0b bd b6 9d 28 3e
       0.099173486 0.112066 -0.034110714 0.16466412
000210 b0 b0 50 3e e8 ab 20 bc 22 5f 7e 3e 1a 9a 4d be
       0.20379901 -0.009806611 0.24840978 -0.20078316
000220 92 ea 00 3d 33 bf bf 3c 72 27 9b be 17 1b be 3e
       0.031473704 0.0234066 -0.30303532 0.37130043
000230 f3 44 16 be fe 55 08 be a0 a9 98 3d a8 d4 8f be
       -0.1467474 -0.13314053 0.074542284 -0.2809193
000240 fc 93 6c 3d ea 71 44 3c 80 de 0d bf 94 44 23 3e
       0.057758316 0.01199005 -0.55417633 0.15944129
000250 27 21 36 3e f2 e8 a9 be 66 c6 4c 3e 19 cf b2 3d
       0.17786084 -0.33185536 0.19997558 0.08730907
000260 f8 a4 28 be 65 da e6 be 31 55 5c be cc b5 67 be
       -0.1646918 -0.45088497 -0.21516873 -0.22627944
000270 88 da 0c 3e 59 6d 64 3e 4b 0b ee 3d a0 b4 e0 be
       0.13755238 0.22307338 0.11623248 -0.43887806
000280 7d 41 93 bf 0e 03 d8 3d c4 18 6e 3e e9 b5 9c 3e
       -1.150436 0.10547458 0.23251635 0.30607536
000290 1f 0d 1e 3d 2e 29 83 3e 1d 84 fa bd 59 5a 0a be
       0.038586732 0.25617355 -0.1223223 -0.13511027
0002a0 1e ce 84 bd 19 00 e4 bd 64 39 de bd 3d 2e bb 3c
       -0.06484626 -0.11132831 -0.1085079 0.022849197
0002b0 96 74 8b 3e 97 50 84 3e 80 59 c1 3d 05 bb 9a 3c
       0.27237386 0.25842735 0.09440899 0.018888006
0002c0 37 20 3d 3e f8 ec 45 bd 07 76 69 bc b8 bf ef be
       0.1846932 -0.048321694 -0.014249331 -0.46825957
0002d0 f8 1f 65 3d a5 49 51 be 94 d4 2b be 4e 0b c6 3d
       0.05593869 -0.2043825 -0.16780311 0.09670125
0002e0 07 39 7d 3e 90 1a 8a be 71 b4 2e 3c fd b4 69 3e
       0.24728785 -0.2697339 0.010663138 0.22822948
0002f0 d9 a5 2e 3e 9e 89 0c bf 24 b5 2d be 63 72 50 3e
       0.17055453 -0.5489749 -0.16963631 0.20356135
000300 1b 29 45 3d 15 03 e4 bf 89 b9 89 bd 25 0d 95 3c
       0.048134904 -1.781344 -0.06724841 0.018194744
000310 aa f2 36 bd bc d2 08 3e 2b ae 22 be b0 75 79 be
       -0.044665016 0.13361639 -0.15886752 -0.243613
000320 61 1a b2 3d 48 b7 4b 3e f7 5b a6 be 1b de b6 bd
       0.086964376 0.19894135 -0.3249204 -0.08929082
000330 d7 35 a9 3c fd be bb be 1d 4e a4 3e 19 06 ac 3c
       0.020655556 -0.3666915 0.32090846 0.020999001
000340 b7 4f 72 be 45 a3 49 be 13 78 26 be ea c6 41 bc
       -0.23663221 -0.19691189 -0.16256742 -0.01182721
000350 ba 0d 08 3e 92 64 9b be 65 bf 9a be 59 bb 56 be
       0.13286486 -0.30350167 -0.30224147 -0.20969905
000360 de 3b 80 3c 17 19 78 3e 74 ed c1 be 13 fb 4c bd
       0.015653547 0.24228321 -0.37876475 -0.05004413
000370 5e 82 a3 bd b6 d5 ff 3d b5 3a 8f be 91 92 9a 3e
       -0.0798385 0.12491934 -0.27974477 0.30189946
000380 c2 3b 3d 3e a1 39 27 3e b3 93 88 be a5 e2 38 be
       0.18479827 0.16330577 -0.26675186 -0.18055208
000390 9f 3b a4 be c5 a9 91 3d 05 91 5c 3d 37 ee a3 be
       -0.32076737 0.07112459 0.05384924 -0.3201768
0003a0 19 5f f1 be e8 9b 2f 3e 81 6a b1 3e 45 a5 54 be
       -0.47142866 0.17149317 0.3465157 -0.2076617
0003b0 e4 b7 ac 3d 90 49 cf be d9 e3 b7 bd ef dd 39 bf
       0.08433512 -0.4048581 -0.08979005 -0.7260427
0003c0 80 58 1b be 6d a7 d2 be 93 2e 0e 3e d6 65 7b be
       -0.15170479 -0.4114336 0.13884954 -0.24550566
0003d0 f5 f7 44 bd 92 a1 e9 3e 12 c8 b8 3c 59 30 fd 3e
       -0.048088033 0.4563108 0.022556338 0.4945095
0003e0 8b fe 0e be ce ce 95 3d af 7b fa 3d 58 9c c3 3e
       -0.13964288 0.073148355 0.12230622 0.38205218
0003f0 2b ea aa be 49 a9 65 3e c5 cd 79 3e c5 60 39 3e
       -0.3338178 0.22427858 0.24394901 0.18103321

encoder.conv.convs.2.bias f4 [40]
000000 29 14 51 3c c5 3d 17 3d 5f a9 f2 bd 8e fa b5 bd
       0.012761154 0.036924142 -0.11848711 -0.0888568
000010 3c db 42 3d 28 40 c5 bc 2b c4 95 bb 1e e5 d5 3c
       0.04757236 -0.024078444 -0.004570504 0.026110228
000020 8e 8f 42 bd ce be 28 bd 19 f2 32 3b 76 a9 fd 3c
       -0.047500186 -0.04119759 0.0027304946 0.030964594
000030 72 26 c8 3d d3 52 fa 3c 72 1f 84 bb 56 87 4f 3d
       0.09772958 0.030557072 -0.004032069 0.050666176
000040 8d 25 33 3d 4d 56 2d bd 7f 52 31 3c 3f 68 a3 3d
       0.043736983 -0.04231863 0.010822891 0.07978868
000050 7e 6c 41 3d 0d f4 35 bd 77 0f 84 bc 91 b9 54 3d
       0.047222607 -0.044422198 -0.016120655 0.051934782
000060 18 0f 02 3d 33 4b a3 3d 75 65 e2 bb 53 d4 41 3c
       0.031752676 0.079733275 -0.0069090673 0.011830407
000070 fc c9 82 3c 39 e2 c1 3d 93 17 98 3d 44 a4 e9 3b
       0.015965454 0.09466977 0.074263714 0.0071301777
000080 d6 67 f2 3b 13 4e 86 bc 50 0a 71 bd 8d c7 5c bb
       0.007397632 -0.01639465 -0.058847725 -0.0033688277
000090 fb 77 e3 3d 67 75 99 bc b5 63 9d 3d 2e 97 37 bd
       0.11106869 -0.01873274 0.07685033 -0.04482191

encoder.conv.convs.2.lin.weight f4 [40, 40]
000000 ed 23 ce 3d 0c 48 f1 bd 67 8e 44 3d c7 ad 76 3e
       0.10065446 -0.1178132 0.047987368 0.24089728
000010 e0 ed 82 3d 3a 1c b3 3e 4e 90 16 be 36 db 2e 3e
       0.06393027 0.34982473 -0.14703485 0.1707581
000020 39 e0 13 3e 0a 51 80 be 4b 5f 99 3e 2b 63 1b be
       0.14441003 -0.25061828 0.29955515 -0.15174548
000030 64 7b 84 3e 07 cc aa 3e a1 6a d9 bd 18 39 03 bd
       0.2587539 0.33358786 -0.10616041 -0.03203687
000040 1b 80 1e be 5b 65 d2 3d 2a 45 17 3e 3f 7a 09 bc
       -0.15478556 0.10273238 0.14772478 -0.008390962
000050 a0 b5 5e be a6 8b bd 3e 9f 72 87 3e ab dc a4 bd
       -0.21748972 0.37020606 0.26454636 -0.080499016
000060 db c7 54 3d b3 ec 3f 3d dd 92 95 bc 5d 8d 0c 3e
       0.05194841 0.046856593 -0.018258506 0.13725801
000070 7b 17 2a be 64 5a aa bd f3 6c 58 bd 22 e0 7b bc
       -0.1661052 -0.08318022 -0.052838277 -0.015373262
000080 95 77 31 be f4 df 82 3e 81 47 f4 bd 33 73 78 be
       -0.17330773 0.25561488 -0.11927701 -0.24262695
000090 79 a2 c7 3e e2 16 a2 3d 30 01 b8 bd f5 45 5a 3e
       0.38991144 0.07914521 -0.089846015 0.21315749
0000a0 fa 53 8c bd 9d d8 79 3e ab 76 9b bd be 9a 82 bd
       -0.06851955 0.24399038 -0.075909935 -0.06377171
0000b0 24 ba 85 be 78 7e b6 bd d5 53 a6 3e cc a4 17 be
       -0.26118577 -0.08910841 0.32485834 -0.14808959
0000c0 07 da 92 3d a4 de 25 3e ab 48 ee 3d 31 f3 a4 bd
       0.07170492 0.16198212 0.11634954 -0.080541976
0000d0 6a 0c 31 bd 53 7c 12 bd 31 eb 7a 3e 4b 60 27 3e
       -0.04322473 -0.035763096 0.24503781 0.16345327
0000e0 11 33 75 be 01 aa 93 3e fc 2b 28 3b e4 1b 5e 3e
       -0.23945262 0.2884064 0.0025660982 0.21690327
0000f0 8b 6c 70 be 79 c8 5e be 01 26 82 3b 55 e5 4b bd
       -0.23478906 -0.21756162 0.0039718156 -0.049779255
000100 f7 c0 13 bf 4c 6f 86 3e 89 e4 82 be 92 6f 5c 3c
       -0.57716316 0.26256788 -0.25564983 0.013454335
000110 96 cb 7b be 8f 2d a3 3e d2 b9 13 bd 2e 01 97 3e
       -0.2458938 0.31870696 -0.036065884 0.29493088
000120 46 71 74 be 90 66 18 3e 79 aa 3a be fe 10 16 be
       -0.23871335 0.14882874 -0.18229093 -0.1465492
000130 11 1a 73 be a5 8f 41 be 04 09 f0 3d 6a 8f 46 3e
       -0.23740412 -0.18902452 0.117204696 0.19390646
000140 44 3f 9c 3d a6 96 85 be 06 28 9d 3c 04 36 4c be
       0.076292545 -0.26091498 0.019184124 -0.1994248
000150 2e 5e 4f bd 9f 70 0f 3e 0d da f9 bd 6f 29 1d 3d
       -0.050626926 0.14007805 -0.12199793 0.038369592
000160 66 91 97 3e 62 b7 ba bc 3f e1 8d bd 48 87 6a bd
       0.29603118 -0.022792522 -0.06927728 -0.05725792
000170 c9 33 0b 3e 59 41 1b bf aa 76 bd be 25 83 ce bd
       0.13593973 -0.6064659 -0.37004596 -0.100836076
000180 44 b2 7b be 9f d9 86 be db 48 c7 be 00 2d 10 be
       -0.24579722 -0.26337907 -0.38922772 -0.14079666
000190 ae 7c 35 3b bb a2 05 be 7e 15 52 3e 4c 62 5e 3e
       0.0027692723 -0.13050358 0.20516011 0.21717185
0001a0 36 94 88 3e 4a 78 81 be 7e b4 a5 3e db 77 89 bf
       0.26675576 -0.25287086 0.32364267 -1.0739702
0001b0 38 57 be 3e f7 9f b6 3c 24 80 7b bf 6f 3a 00 3e
       0.37175918 0.022293074 -0.982424 0.1252229
0001c0 e4 f6 84 3e 84 39 0b 3e 71 02 bd be 30 d5 d4 be
       0.25969613 0.13596159 -0.36915925 -0.415689
0001d0 96 9a c3 3e 75 4c 9a 3e 02 07 d9 bd 3d ba 1a bf
       0.38203877 0.30136457 -0.1059704 -0.6044043
0001e0 c3 26 99 be 97 d0 1a be 2e d7 6e be fe c9 89 be
       -0.29912385 -0.15118633 -0.23324272 -0.2691192
0001f0 23 ca 5f bb 61 22 4d 3e f9 36 d8 3d 60 2b ad be
       -0.0034147582 0.20032646 0.1055736 -0.33822155
000200 56 30 18 be 90 35 40 bc 07 ac 6f be ec 63 93 be
       -0.14862189 -0.01173152 -0.23405467 -0.28787172
000210 d7 00 46 be bf 51 87 3e cb 35 3b 3e db 72 4e be
       -0.19336258 0.26429555 0.18282239 -0.20161001
000220 21 15 4f 3e fc be 90 3c 6b 81 52 3d 3d c0 56 3e
       0.20222904 0.017669193 0.051392954 0.2097177
000230 c5 cc 1c bc f5 55 2c 3c 30 3f 39 be 7d d1 88 bc
       -0.009570305 0.010518541 -0.1809051 -0.016701454
000240 88 c0 0c be b0 14 2e be 8f 9f 0e bd 78 f5 2f be
       -0.1374532 -0.17000079 -0.034820136 -0.17183483
000250 e5 a6 87 bd 9b 0d 01 bd e8 0a 06 be 0b ac 17 be
       -0.066236295 -0.031507116 -0.13090098 -0.14811723
000260 f5 2c ad 3d b3 59 2f be 98 93 04 3d a6 49 88 be
       0.084558405 -0.17124061 0.03236732 -0.2661869
000270 1f 3f 4a be f5 f3 75 be 56 0e 99 bd 09 5b 91 be
       -0.19750641 -0.24018843 -0.074734375 -0.28389767
000280 79 06 49 bd 4e 1c 99 3e af 6d 81 be 65 8c 33 3e
       -0.04907844 0.29904407 -0.25278994 0.17534025
000290 90 96 7a bd 01 a8 7b 3e 26 66 3b be 66 e8 b0 3e
       -0.061178744 0.24575807 -0.18300685 0.34552306
0002a0 79 d4 86 bd de 71 25 3e aa dd 63 3e 5f 39 1b 3e
       -0.06583495 0.16156718 0.22252527 0.15158604
0002b0 29 65 c2 be 1c 10 76 be 6a 8d 1e 3b e9 26 84 be
       -0.37967804 -0.24029583 0.0024193176 -0.25810936
0002c0 a3 1c a4 3c d4 24 04 be 37 9b 82 3e ab 07 c0 be
       0.020033186 -0.12904674 0.25509045 -0.3750585
0002d0 d1 a4 c7 3d 03 ed d0 bd 7a 94 b3 be e4 48 19 3e
       0.09748233 -0.102014564 -0.35074216 0.14969212
0002e0 90 b2 a0 be d0 86 43 3e 6d 8e 8e 3c 34 6d 13 be
       -0.31386232 0.19094396 0.017401898 -0.14397126
0002f0 c7 ac 10 3d a6 06 e8 be 17 bc 5e 3e 74 a8 96 bc
       0.035321023 -0.45317572 0.21751438 -0.018390872
000300 ea 30 60 3c 9d a6 51 bf 94 0a 0a bc 11 f3 85 3d
       0.013683537 -0.81894857 -0.008425374 0.06540502
000310 9e df 0d bf 02 93 05 3c dc 6d 9a be fb 3b 62 be
       -0.5541934 0.008152725 -0.3016194 -0.22093193
000320 c7 3c 5d be c0 f7 5e bd 16 94 91 be e3 94 ac bd
       -0.21605216 -0.05443549 -0.28433293 -0.084268354
000330 06 56 34 be 4c bb d4 bd 21 9f 7c 3d a6 45 07 bd
       -0.1761094 -0.103872865 0.061675195 -0.033025406
000340 08 c9 56 3e b0 f7 79 be 56 87 ea bd 95 b4 4f bd
       0.20975125 -0.24410892 -0.114515945 -0.050709326
000350 7d a8 84 3d a4 74 17 3e 7f 2b 47 be 7b e4 3f 3d
       0.06477449 0.14790589 -0.19450186 0.046848755
000360 de 9a 69 3d 44 14 97 be b0 0e ec bc e2 d0 70 be
       0.05703246 -0.2950765 -0.028815597 -0.23517182
000370 b5 92 00 3e 73 b3 af 3d 17 aa d2 bd 75 11 f6 3d
       0.12555964 0.08579149 -0.10286348 0.120150484
000380 6a 48 85 be 61 c8 10 3d 9b 00 f1 bd 6e dc 8d be
       -0.2603181 0.035347346 -0.117676936 -0.27707237
000390 94 55 ab bc 98 1b e3 bc a8 55 b1 be 41 b0 31 3e
       -0.02091483 -0.027723119 -0.34635663 0.17352392
0003a0 ab 61 04 3d c4 36 49 3d 91 e7 36 3e c8 3e 51 3e
       0.032319706 0.049124494 0.17861773 0.20434105
0003b0 eb f2 8b be 9f a5 74 be a1 ac 53 be 61 86 32 be
       -0.2733377 -0.23891304 -0.20671321 -0.17434074
0003c0 7f a1 58 3d 13 67 8c 3e 74 2b 67 bd e5 ed 0b be
       0.05288839 0.2742239 -0.056437925 -0.13664968
0003d0 58 26 49 3e 07 52 93 be 14 a6 5e be 35 20 57 bd
       0.19643533 -0.2877352 -0.21743041 -0.05252095
0003e0 de 1c ca bc 4c 79 e5 3d 35 b8 93 3e 91 f6 9a 3c
       -0.024671968 0.11204776 0.28851476 0.0189164
0003f0 74 96 fb 3d 5e b5 1f 3e 91 82 b5 3a de 0d 98 bd
       0.12284556 0.1559653 0.0013848116 -0.0742452

encoder.conv.convs.3.bias f4 [20]
000000 88 05 de 3d 7a 06 25 3c 30 1d 42 3d 70 79 a1 3d
       0.10840899 0.010072345 0.047391117 0.078844905
000010 ad d8 d4 3c bf 8d f7 3c 27 f9 a1 3c ca e8 2e 3d
       0.025982225 0.030218957 0.019772125 0.042702474
000020 f0 93 81 3d 39 f5 9e 3d a5 89 3a 3c 58 fb a7 3c
       0.06327045 0.07761616 0.011385356 0.020505592
000030 a4 a6 65 bc 3a 21 72 bd 03 d9 83 3d 2c 46 47 3d
       -0.014016781 -0.05911372 0.06437876 0.048650905
000040 41 63 7b bd 18 ab 4a 3d a1 41 88 3c 49 db 69 bd
       -0.061373953 0.049479574 0.016632857 -0.057093892

encoder.conv.convs.3.lin.weight f4 [20, 40]
000000 ad f7 d8 3d dd 33 28 3d 8f 5f 2b bf b0 a9 89 be
       0.105941154 0.041065086 -0.66942686 -0.26887274
000010 b0 43 61 3d d9 22 54 be 55 dd 01 3e 3a 15 00 3e
       0.054996192 -0.20716418 0.12682088 0.12508097
000020 33 3b ff bd b1 65 19 3f f1 ab 42 3e 72 00 35 bf
       -0.12462463 0.59920794 0.19010903 -0.70703804
000030 f3 58 4b bb ca b4 23 3e e0 30 f5 be 39 40 67 3e
       -0.003102836 0.15986934 -0.4788885 0.22583093
000040 6d 72 5f bd fd 63 17 be 51 72 6e be 65 f3 b3 bb
       -0.054552484 -0.14784236 -0.23285796 -0.0054916614
000050 71 27 11 3e 26 89 8c 3e 33 25 2d bd 77 be 78 3e
       0.14175202 0.27448386 -0.042271804 0.24291407
000060 42 0f 9c be 57 42 33 3e d3 80 ff be 64 73 80 bc
       -0.3048039 0.17505775 -0.49902973 -0.015680023
000070 4a 26 a9 be 3c cc 8c be 50 8c ac 3e e8 9e b1 bd
       -0.33037025 -0.27499568 0.337008 -0.08672887
000080 a7 f1 bc be a7 f3 17 bf ff 32 94 3d 4c 82 e1 3d
       -0.36903116 -0.5935616 0.07236289 0.1101118
000090 b7 6e ca 3e 8e 48 eb bd c0 30 32 be 35 08 a1 bc
       0.39537594 -0.11488448 -0.17401409 -0.019657234
0000a0 bb bc bf be 61 70 26 be 20 08 1a be c8 95 62 3e
       -0.37448677 -0.16253807 -0.15042162 0.2212745
0000b0 8b b5 55 be c6 f2 2a be 10 02 cb 3c c4 1a a4 3d
       -0.20870034 -0.16694173 0.024781257 0.08012918
0000c0 56 89 c3 3c 80 8f 2f 3e 2d 8f a9 3e 81 60 cf 3e
       0.023869198 0.17144585 0.33117047 0.40503314
0000d0 ff 34 bf 3e 9f e2 56 be 9a 80 ef 3e 80 fa 87 be
       0.3734512 -0.20984887 0.46777803 -0.26558304
0000e0 6d 87 9e 3d d7 0e 82 3c e8 02 84 3e 57 be ba bd
       0.07740674 0.015876217 0.25783467 -0.09118336
0000f0 c4 90 20 be ec d5 52 3e 43 06 fc bd 2d af 74 bd
       -0.15680224 0.20589417 -0.12305882 -0.059737373
000100 7c 9f f4 bd e0 f5 8d be cf d5 e1 3d 29 b5 7f 3e
       -0.11944482 -0.2772665 0.11027109 0.24971451
000110 35 a2 43 3d f3 9b 85 3e 6a df 63 be 79 07 8b 3e
       0.047762115 0.26095542 -0.22253194 0.2715414
000120 71 78 bf 3d b2 a4 32 3e c9 94 8c 3e 61 51 eb 3e
       0.09349144 0.17445639 0.27457264 0.45960525
000130 b5 2d 8e be 61 70 07 3f e8 47 69 be 34 e8 3b 3e
       -0.27769247 0.5290585 -0.22781336 0.18350297
000140 c0 8a cb 3d ce 76 2c be a7 30 3e be 22 21 84 3e
       0.09938574 -0.16842195 -0.18573247 0.25806528
000150 86 de c0 be 96 a4 27 be d7 f8 16 be 33 d4 99 bb
       -0.37669772 -0.16371378 -0.14743362 -0.0046944856
000160 ea eb 7c 3d bb 9d 94 3c 8f 62 9e be b7 3a 30 3e
       0.061748423 0.018141618 -0.3093457 0.17209898
000170 f4 3d c0 bd e7 f5 bb 3e e8 80 74 3d 0b 4c a0 be
       -0.093868166 0.36711046 0.059693247 -0.31308016
000180 78 5d 20 bc a8 a2 9f 3e 36 dd cd be 5b b8 00 3f
       -0.00978791 0.31178784 -0.40207833 0.50281304
000190 8d 6b d0 3e 9e 73 3c 3e 42 84 43 be b4 58 10 bd
       0.40707055 0.1840348 -0.19093421 -0.035240844
0001a0 54 79 9c be 10 c2 4b be da 7c 4d 3e a9 76 60 be
       -0.30561316 -0.19898248 0.20067158 -0.21920265
0001b0 58 67 3b bd f2 c8 67 be 09 51 93 3d 54 73 31 be
       -0.045752853 -0.22635248 0.071931906 -0.1732915
0001c0 f7 64 8b 3e 4e 3d ee 3e 4d 48 d5 bc ff 7a 10 3e
       0.27225468 0.46531147 -0.026035452 0.1410942
0001d0 14 64 a2 3e 1a 73 a0 3e 25 3f 0f 3e b9 0f 44 3e
       0.3171698 0.31337816 0.13988931 0.19146623
0001e0 07 ec 4b 3e 9b ba 10 be de 2b 02 bd b5 4e 58 3e
       0.19914256 -0.14133684 -0.031780116 0.21123774
0001f0 91 c0 a4 3e 98 3b 6c 3e 2f 9c 99 be 7a 29 62 3d
       0.32178167 0.23069608 -0.3000197 0.055215336
000200 67 57 1f 3d 7c 33 63 be de 49 8b bf 3d fb f8 3d
       0.038901713 -0.22187608 -1.0881917 0.12157295
000210 55 22 2f bd 7d ee e1 3e 7a 91 b6 bc 0a be 4f 3e
       -0.04275735 0.44127265 -0.022286166 0.20287338
000220 49 07 85 3e ff 01 f1 3d 8f 5c 08 3e 63 dd 52 bd
       0.2598212 0.11767959 0.13316558 -0.051480662
000230 b7 f4 c3 bb 34 51 fc bd 35 7e 15 3e 3c 9d 60 bf
       -0.0059801 -0.12320176 0.14598925 -0.8773992
000240 81 e7 0a 3e 5e e2 e9 bc 53 94 91 3d 35 88 85 be
       0.13564874 -0.028550323 0.07108369 -0.2608048
000250 2d 1f 28 be 91 ca 2c 3e da 00 dd 3e 8f 0a da bd
       -0.16418143 0.16874148 0.43164712 -0.10646545
000260 2f c1 cf 3e e6 af 89 3e cb ef 90 3e df 7c 66 be
       0.40577075 0.26892012 0.28307948 -0.22508572
000270 51 35 1c be 16 7e f6 be 15 c3 64 3e 70 88 9e be
       -0.15254714 -0.4814307 0.22340043 -0.3096347
000280 f0 bf 49 be 82 0d 12 bf 96 79 b0 be fd b5 4e be
       -0.19702125 -0.5705186 -0.34467763 -0.2018661
000290 4c 82 b1 be 84 5a ca 3d 91 b3 65 bc 50 db cb be
       -0.3466972 0.09880546 -0.014019863 -0.3981576
0002a0 eb 8f 65 3e a6 53 b7 3e 60 7a 80 3e 94 c6 3b be
       0.22418182 0.35806006 0.25093365 -0.1833747
0002b0 c3 b9 c8 3e 14 d9 14 3e 30 6e 0c 3e 76 4c da bd
       0.39204225 0.14535934 0.13713908 -0.10659115
0002c0 b8 69 d2 be 17 29 45 3d 9e 4e 03 bf cb d0 7d 3e
       -0.41096282 0.04813489 -0.51291835 0.2478668
0002d0 03 50 24 3e 51 8f c7 bd 58 cf 6a 3d 5e 69 0b bf
       0.16046147 -0.09744132 0.057326645 -0.5445765
0002e0 66 49 8a 3e 41 e4 86 3e 3e b0 87 3e 95 5c 47 bd
       0.27009124 0.2634602 0.2650165 -0.048672277
0002f0 6d be 91 3d ab c3 09 bf 11 0c 24 be 6e 3d 0c be
       0.07116399 -0.5381419 -0.16020228 -0.13695309
000300 73 ef 87 be d2 79 1a bf ab 67 5d be 19 6c 2e bd
       -0.26549873 -0.60342133 -0.21621577 -0.04258356
000310 46 11 26 3e 60 91 ab 3d f9 35 a6 3e 13 bd 25 bd
       0.16217527 0.083773375 0.32463053 -0.04046352
000320 d3 19 1f 3e a4 fe 17 3d 26 43 93 be 06 c9 1a be
       0.15537195 0.03710808 -0.28762168 -0.15115747
000330 6b 30 c4 3e 59 6d 76 3e b0 a8 7e be ae e6 00 be
       0.3831819 0.2406515 -0.24869037 -0.12587997
000340 63 89 22 be 16 98 d4 3d 77 45 a8 be 90 40 77 3e
       -0.15872721 0.103805706 -0.32865497 0.24145722
000350 4a 04 60 3d 85 99 82 be 1b ae 0a be fd f9 41 be
       0.05469159 -0.2550775 -0.13542978 -0.18943019
000360 0a 87 86 be c0 a1 65 3e fd ad 1d 3e fe 00 fc 3e
       -0.26274902 0.22424984 0.15398403 0.49219507
000370 bb dd 88 be 91 31 ad be 82 8a dd 3d e4 3a 83 3e
       -0.26731667 -0.3382688 0.10817434 0.25630867
000380 c6 20 7d 3e 11 d0 9e 3e 24 19 c8 bd 68 2e 2a 3e
       0.24719533 0.31018117 -0.0977042 0.16619265
000390 16 e7 07 3e 14 1d af be 59 4e 7a 3e 78 f7 4e bb
       0.13271746 -0.34201872 0.2444395 -0.0031580608
0003a0 6a 87 86 bc 84 87 1b 3e fe 6a 2b 3d 84 22 72 3e
       -0.016421992 0.15188414 0.041850083 0.23645979
0003b0 8c 18 79 3e 42 0f a9 be fd cd 8b 3e fc d1 a2 be
       0.2432577 -0.33019453 0.27305594 -0.3180083
0003c0 f6 eb 6b 3e 97 10 34 3e 7e db 15 3e 23 62 3f bd
       0.2303923 0.17584454 0.14634511 -0.04672445
0003d0 9d e3 b8 3e b5 3c 94 be ba bb 0a bd d3 8f cf bd
       0.36111155 -0.28952566 -0.033870436 -0.10134854
0003e0 58 24 55 bd 7c bf 1f bf ca 34 12 3e ee 7f 13 3f
       -0.052036613 -0.62401557 0.1427795 0.5761708
0003f0 d4 1a d7 3c e1 e2 a5 3e d1 95 f6 3d 95 ea 82 bd
       0.02625791 0.32399657 0.12040294 -0.06392399

encoder.embed_x.weight f4 [28, 40]
000000 44 5a 28 3f 07 87 91 3e a4 db 57 be 76 9e 80 3f
       0.65762734 0.2842333 -0.2107988 1.0048358
000010 1e f4 fa bf 3a d7 38 3f f4 4e 16 be 8a 70 6d be
       -1.9605749 0.7220341 -0.14678556 -0.23187461
000020 fd 88 78 bf f0 58 8a 3c 03 d3 6e 3e e6 22 94 bf
       -0.9708403 0.016888112 0.23322682 -1.157315
000030 d3 64 96 bb 27 d3 cf 3e 70 8e b0 be 80 3d 36 bf
       -0.004589656 0.40590784 -0.3448367 -0.7118759
000040 19 64 db be c4 a7 c6 be bf 97 91 3f 53 0f bd 3f
       -0.42849806 -0.3879987 1.1374434 1.4770302
000050 ff 2a 9e be 23 9c 40 bf 4a 08 cd bf 63 e3 fe 3e
       -0.30892178 -0.75238246 -1.6018155 0.49782857
000060 74 bf d7 3d f9 09 c6 3e bf 48 f9 3c 88 58 80 3e
       0.10534564 0.38679484 0.030430196 0.25067544
000070 ce 1e b5 be 0b de d8 3e ec e1 c9 3e 1d e4 cd 3e
       -0.35375065 0.42356905 0.39430177 0.402131
000080 c2 60 1b be 8d 98 b0 3f ff cf 0d bf b4 29 af 3f
       -0.15173629 1.3796555 -0.553955 1.3684602
000090 a0 47 a9 3f 57 aa 2e bf 7b 41 04 bf e5 12 5b 3f
       1.3224983 -0.6822867 -0.51662415 0.85575706
0000a0 1e 1e 1d bf 06 16 3e bf 49 66 f8 be a8 0a 89 bf
       -0.6137408 -0.74252355 -0.48515537 -1.0706377
0000b0 bd ca e3 3e a6 91 35 3e 32 83 d4 be 19 d4 10 bf
       0.44490615 0.17731342 -0.41506344 -0.56573635
0000c0 01 c4 13 40 d6 1c 69 bd af d2 95 3f 74 6b 79 bf
       2.3088381 -0.056912266 1.170492 -0.97429585
0000d0 1a c7 f2 3e 73 3e bb 3f c0 14 6e 3e b5 ff a8 bf
       0.47417527 1.4628433 0.23250103 -1.3203036
0000e0 ba af 8e 3e a9 2a cd 3f 94 40 71 bf c8 93 11 40
       0.27868444 1.6028644 -0.94239163 2.2746449
0000f0 b4 cb d0 3f 37 75 70 bf 7a 5d 54 3f f8 5c 4e 3f
       1.6312165 -0.93928856 0.82955134 0.8061061
000100 c9 78 06 c0 24 3e a0 3f 1b fa c2 be ed ab ec 3f
       -2.1011221 1.2518964 -0.3808144 1.8489968
000110 40 f0 fa 3f d8 5b aa 3e e5 4b 8e bf cd 21 b2 3f
       1.9604568 0.33273196 -1.1116911 1.3916565
000120 9d 11 15 3f 32 6c 84 bc dc 1f 64 3e 0b 78 11 3f
       0.5823 -0.016164873 0.22277778 0.56823796
000130 63 45 15 3f 3e 07 47 3e fe fe 2e bf 05 a5 8d 3e
       0.58309 0.19436356 -0.6835784 0.27664962
000140 f2 5c c4 3d 87 c8 3b c0 ec 46 79 be 44 d5 cc 3e
       0.095880404 -2.9341142 -0.24343461 0.4000646
000150 6c a9 02 3f bd d7 38 bf f9 0a ee 3f 3a bd 11 3f
       0.5103977 -0.7220419 1.8597099 0.5692936
000160 7f 86 8d 3f a5 4f 98 bb a5 d5 c7 be e5 64 8e 3f
       1.105667 -0.0046481662 -0.39030185 1.112454
000170 05 19 e3 be 52 99 c6 bf 41 cc 95 3e bf 97 2d 3f
       -0.44355026 -1.551554 0.29257396 0.6780967
000180 8f 84 5d 3f ac e9 79 3e 9a 22 ca bf f9 57 ee 3f
       0.86530393 0.24405545 -1.579181 1.8620597
000190 f4 2c 95 bf c5 6d c2 3f df 3c 0c 40 e9 3f 6e 3f
       -1.1654344 1.5189749 2.1912153 0.9306627
0001a0 c4 6e 3c bf ac bf c1 3f a8 aa 4e bf 0f 4d 72 3e
       -0.73606515 1.5136619 -0.8072915 0.23662208
0001b0 b1 94 19 bf b6 6f 53 be c6 ff 89 3f f0 88 83 3f
       -0.5999251 -0.20648083 1.0781181 1.0276165
0001c0 9c 05 6a be 94 65 52 bf 11 09 67 3f a5 da c9 be
       -0.22853702 -0.82186246 0.9024821 -0.39424625
0001d0 df 65 2a 3f 88 50 13 40 95 aa 44 3e c3 97 52 3f
       0.6656169 2.3017902 0.19205697 0.8226282
0001e0 0a 8d b7 3f c3 df 48 bf f9 9a 65 be 5e aa 15 bf
       1.4339917 -0.78466433 -0.22422399 -0.58463085
0001f0 5f 42 c0 3f fb 5f 49 bf f4 36 04 bf 56 0b 8e be
       1.5020255 -0.7866208 -0.5164635 -0.27743024
000200 10 f5 fb 3e 19 6c bb 3f 5f 67 2d 40 4d a2 a8 3f
       0.49210405 1.4642364 2.7094343 1.317453
000210 86 d0 99 be 25 29 21 be a0 7b d7 3e ac c0 ce 3f
       -0.30041903 -0.15738352 0.42086506 1.6152549
000220 f3 0e 88 3f d3 3a 2a bf e3 f0 05 3f 02 7e be bc
       1.0629562 -0.6649601 0.5232069 -0.023253445
000230 03 e8 a0 be 0d 87 9f 3f bd 17 1b c0 87 0e 1b bf
       -0.3142701 1.2463089 -2.4233239 -0.6056904
000240 9b 03 ae 3f ad 88 2b bf 21 8b f4 be b9 68 cb bf
       1.359485 -0.67005426 -0.47762397 -1.5891334
000250 fc 16 ec bf 31 27 fb bf a0 f3 7a bf ed c5 6e bf
       -1.8444514 -1.9621335 -0.9802799 -0.9327076
000260 2e 61 19 3f 0d 4c b4 3f 3b 10 2c 3f c3 84 69 3e
       0.5991391 1.4085709 0.67212266 0.22804551
000270 94 9b 9c 3e ec f2 31 3f ef e8 78 be 09 54 94 be
       0.30587447 0.69511294 -0.24307607 -0.28970364
000280 0d a6 1f bf c3 01 fc 3e ce 19 4a 3f 76 78 95 bf
       -0.6236275 0.49220094 0.78945625 -1.1677387
000290 8d 4f 18 bb 06 ed 57 3f 5a 3c 95 be 71 73 ca 3e
       -0.0023240775 0.84346044 -0.29147607 0.395412
0002a0 0e b9 02 40 78 81 c3 bf 75 92 32 40 86 5a 8f bf
       2.0425448 -1.5273886 2.790189 -1.11995
0002b0 c8 91 45 bf a6 60 e5 3e e1 f4 d6 3e 18 a7 9e be
       -0.7717557 0.448003 0.41983703 -0.30986857
0002c0 2c d5 55 be 23 d5 40 bf da c1 63 bf 6a 69 4a bf
       -0.208821 -0.7532522 -0.8896767 -0.790671
0002d0 05 a4 03 c0 7a 5b 04 bf 08 04 62 bf 97 e8 f4 3e
       -2.056886 -0.5170208 -0.882874 0.47833702
0002e0 dd 45 84 3f fa 41 26 3f c8 a7 cb 3f 73 e7 21 bf
       1.033382 0.6494442 1.5910578 -0.6324379
0002f0 d7 c6 80 3e c2 5e 08 3e 3d 25 a0 3f 75 7c 22 be
       0.25151703 0.13317397 1.2511364 -0.15867789
000300 e8 a8 be 3f c9 8a 64 bf 3e 92 e4 3f 88 57 90 bf
       1.4895296 -0.8927427 1.785713 -1.1276712
000310 d4 6f 75 bf b0 8f 3a 3f f6 67 5b be 94 78 b4 bf
       -0.9587376 0.728755 -0.21426377 -1.4099298
000320 65 a7 84 be 09 12 cc 3e 4e a2 db 3f a2 00 21 40
       -0.25908962 0.3985751 1.7158906 2.5156636
000330 0b fd cc bf 26 91 37 3f 4b 1f 8a 3e 14 b5 1b 40
       -1.6014723 0.71705854 0.26977 2.4329271
000340 4b 3d 00 40 35 30 c2 3e 41 b9 39 bd 8d d7 8b bf
       2.003741 0.37927404 -0.045342688 -1.0925156
000350 29 a3 1a 3f 67 3d a3 bf e8 58 4a bf ac 36 23 be
       0.6040521 -1.2753114 -0.7904191 -0.15938824
000360 0f 64 06 bf 9b c5 2e 3e 1f 4b cb 3c 86 88 0b 40
       -0.5249643 0.17067568 0.024816094 2.1802077
000370 60 25 94 bf 1c 28 fa 3e 05 56 8f bf 66 2d fd bf
       -1.1573906 0.48858726 -1.1198126 -1.977948
000380 29 7c c1 3d 72 64 e3 bf 6a 5d 65 40 3f ab b9 bf
       0.0944751 -1.7765028 3.5838265 -1.4505385
000390 39 3a a0 3e bf 33 c7 bf 9b 87 42 bf be 52 7d 3f
       0.3129442 -1.5562667 -0.7598817 0.9895438
0003a0 6f cd a2 3f 8d be 9f 3f ca 67 6e 3e cf be db bf
       1.2718943 1.2480026 0.2328178 -1.7167605
0003b0 20 a5 8b 3f 47 f4 00 be 37 b2 67 3f 32 15 4d 3f
       1.0909767 -0.12593184 0.9050631 0.80110466
0003c0 11 92 8b 40 93 e6 11 c0 a9 77 e3 bf 9d 3a 76 3f
       4.3615804 -2.2796981 -1.7770892 0.96183187
0003d0 fa 66 0d 40 9d 41 bf bf 1d 90 b3 bf eb 41 1f bf
       2.2094102 -1.4941899 -1.4028355 -0.6220996
0003e0 a7 8f 10 3f 30 1d 35 bf 95 88 c3 3e 51 d1 39 40
       0.56469196 -0.7074766 0.3819014 2.9034007
0003f0 3e 65 81 bf 12 0b ec 3f 84 78 07 c0 52 4b 9f 3e
       -1.0109022 1.8440878 -2.1167307 0.31112152

encoder.conv_mu.bias f4 [20]
000000 a2 59 0d bc df 52 34 3d 70 ef c6 bd 69 c2 28 3d
       -0.008627327 0.044024345 -0.09713638 0.04120103
000010 c5 53 bf 3d 8a e3 99 bd 66 78 c2 3b c7 28 ab bd
       0.0934215 -0.07514103 0.005934763 -0.08357387
000020 70 a4 38 3d 67 e8 17 bd 7a fb 51 bc b6 da b5 3d
       0.045078695 -0.03708687 -0.012816304 0.088796064
000030 f0 33 a4 bd 9c 9f 38 3d 76 eb 1a 3c 75 cd 5b 3d
       -0.08017719 0.04507409 0.009455552 0.053662736
000040 fd 85 94 bd 5d e8 03 3d 60 9d b3 bd 1f fc cd 3c
       -0.07252119 0.03220402 -0.08770251 0.025144635

encoder.conv_mu.lin.weight f4 [20, 20]
000000 d4 66 b0 3e a0 12 4a 3e 82 27 c3 3e 71 06 01 bd
       0.34453452 0.19733667 0.3811608 -0.031500284
000010 75 ed 2b 3d b9 d9 3f 3e 8b 2d 88 be 65 9b 0f 3c
       0.041974504 0.18735398 -0.26597247 0.008765076
000020 4a b0 87 be 5d c8 31 3e 7a d7 5e 3c f8 c5 bc 3e
       -0.26501685 0.17361589 0.013601178 0.36869788
000030 fb 58 d4 bd af a4 4f be cf 27 93 3e 82 df e4 bd
       -0.10368534 -0.20277666 0.2874131 -0.11175443
000040 2e e8 ae bd 98 dd 5f be 80 ef ca be 1e 95 e6 bd
       -0.085403785 -0.21861875 -0.3963585 -0.112589106
000050 aa e5 c1 bd 3b e0 e9 3e 17 1d b7 3d 23 6d 1c 3c
       -0.09467633 0.45678887 0.08941095 0.009547505
000060 f1 6a a9 bc e4 b5 12 be e0 53 e3 bd a7 df 2f 3e
       -0.020680876 -0.14327198 -0.11099982 0.1717516
000070 64 0e ab bd 36 01 a4 3c 57 32 d7 be 9b 85 2d 3e
       -0.08352354 0.020020109 -0.42030594 0.16945498
000080 ea cb cc 3e 12 77 3f 3e 29 44 15 be 8d 13 27 3d
       0.39999324 0.18697765 -0.14576782 0.04079013
000090 fd 49 43 bc 31 42 a0 3d 56 79 9f bc 4d d8 9c be
       -0.011919496 0.07825125 -0.019467037 -0.30633774
0000a0 56 fa 0a be 2c 86 d9 3e 38 18 84 3e 79 83 e4 3e
       -0.13572058 0.42485178 0.25799727 0.44631556
0000b0 4c 2a a0 3e 38 1d 61 bc cf a4 96 be f8 5e 28 be
       0.3128227 -0.013739876 -0.29422614 -0.16442478
0000c0 6d 23 88 3d 19 65 85 3e f5 13 96 3d f7 2a 14 3e
       0.06647382 0.26053694 0.07328025 0.14469515
0000d0 97 9d 1d 3f 3e dc bb bd ec 8c 86 be 2c c2 27 bf
       0.6156859 -0.09172867 -0.2627939 -0.6553066
0000e0 44 01 67 3d a4 a3 98 3d 80 83 9c 3e 1a f7 93 3e
       0.05639769 0.07453087 0.30569077 0.2889946
0000f0 33 cb 3d be 55 11 1a 3e c1 79 c1 bd 7f 77 af 3e
       -0.18534546 0.15045674 -0.09447051 0.34270856
000100 2b 49 2d 3e 83 1b 0f 3e c4 94 59 3d 1d bd ab be
       0.16922443 0.13975339 0.05312039 -0.3354272
000110 52 0e dc bd f7 24 c3 3e 2d 59 bb be c6 f4 b6 be
       -0.10744919 0.3811414 -0.36591473 -0.35733622
000120 71 72 e5 be 8f 4e a4 bd 9d 99 2a bd 5d 1f 11 bf
       -0.44813874 -0.08022796 -0.041650403 -0.5668848
000130 bb 6e a7 be a3 fc 4f be fa d2 00 3f 05 7b c0 3d
       -0.32701668 -0.20311217 0.50321925 0.09398464
000140 2d 71 1d 3e 03 09 f3 3e 73 4f a8 3d 21 ca 35 be
       0.15375204 0.47467813 0.08218279 -0.17752887
000150 e3 e8 48 be 43 12 24 bc 56 e5 b6 3e bc 0b 83 be
       -0.19620089 -0.01001412 0.35721844 -0.2559489
000160 1d c5 86 be 45 dc 30 3d 27 4e 42 3d 7e 88 d3 3d
       -0.2632226 0.043178815 0.047437813 0.10328768
000170 18 76 7c be a1 f9 8f 3e 0f 7e 99 be 53 90 20 be
       -0.24654424 0.2812014 -0.29978988 -0.15680055
000180 15 44 88 be a4 f1 fc 3d 0b 62 ab be 94 6f a1 be
       -0.26614442 0.12350777 -0.33473238 -0.3153044
000190 f9 e7 a0 bb 21 11 f1 be 7b 76 da 3d 09 5d 42 3e
       -0.004910466 -0.4708338 0.106671296 0.18980803
0001a0 1c 73 ba be 03 55 ea be 58 fb 82 3e 09 91 f6 3d
       -0.36415946 -0.45767984 0.25582385 0.12039382
0001b0 c5 75 7b 3d 0d 4f 8b bd 5c 71 f7 3e f0 86 8a 3e
       0.06139161 -0.06802187 0.48328674 0.27056074
0001c0 ff 69 d2 3e 65 68 98 3e 50 e1 6f bd 3c f5 c4 3c
       0.41096494 0.29767147 -0.058564484 0.024042718
0001d0 5b eb d1 bd 21 9c ec be c3 d2 14 bd c8 06 48 be
       -0.102499686 -0.46212867 -0.03633381 -0.19533837
0001e0 7c 40 09 3e 98 d3 79 be 37 6f 89 bc 27 c8 59 be
       0.13403505 -0.24397123 -0.016776664 -0.21267758
0001f0 95 7e 15 bf f8 f9 b9 be c9 38 12 3d 7b 3e fd be
       -0.58396274 -0.36323524 0.035698686 -0.4946173
000200 d7 f0 ac 3e 4a c4 ca 3e f9 2e c2 bd c5 31 de be
       0.33777496 0.39602882 -0.094816156 -0.43397346
000210 3f da 87 3c cf 00 9c 3e 08 38 53 3e 73 45 c1 3e
       0.01658356 0.30469367 0.20626843 0.37748298
000220 86 8c 49 3e 44 c8 b6 be 33 ce 8d 3e 71 0f 8e be
       0.19682512 -0.35699666 0.2769638 -0.27746156
000230 b3 79 e6 bd 84 09 a7 be c9 1b 23 3e aa 96 23 3d
       -0.11253681 -0.32624447 0.15928568 0.039938606
000240 74 5e b0 3d 73 11 53 be 2d be d4 bc c9 02 0d 3e
       0.086117655 -0.20612125 -0.02596959 0.13770594
000250 5e b7 e5 bc 30 01 b8 bd 66 41 10 3f b7 95 7b 3e
       -0.028041538 -0.089846015 0.5634979 0.2456883
000260 5d ed 9c 3e c0 06 8c 3e 55 a6 4c 3c 7b 43 0b bd
       0.30649844 0.273489 0.0124908285 -0.0339999
000270 2d 6b 63 3e 90 0d 8f 3d f9 54 cd 3d b1 44 11 3e
       0.22208853 0.06985009 0.10025973 0.1418636
000280 55 5e ca be 24 26 9f bd 50 4c 8c 3d 8d 02 c7 be
       -0.39525095 -0.077709466 0.06850493 -0.38869134
000290 67 11 24 3e bd 03 8d 3e 7f 9d ac 3e bd 6c 45 be
       0.16022263 0.27541915 0.3371391 -0.19279762
0002a0 ba 41 dd bd 78 d6 81 be 5f a1 86 3c e9 7a cf 3e
       -0.10803552 -0.2535894 0.01643437 0.4052346
0002b0 f5 89 d6 be 2a 32 90 be b9 b0 5d 3e a7 a6 19 be
       -0.41902128 -0.28163272 0.21649446 -0.15004979
0002c0 25 3a 15 be 23 7e 86 be 4b fc eb be 1e 15 3e 3e
       -0.14572962 -0.2626811 -0.46090922 0.18562743
0002d0 11 b3 4c be 4c c8 61 bf 2d 0c 34 3d b2 fa 4f 3d
       -0.19990183 -0.88196254 0.043956924 0.05077619
0002e0 27 32 55 3e 2b c9 05 be 07 43 3c 3c 1c 38 c2 3d
       0.20819913 -0.1306502 0.01149059 0.09483358
0002f0 3d 7a 5c be 10 b5 30 3e f0 33 cf 3e 32 66 75 3d
       -0.21531005 0.1725657 0.40469313 0.059911914
000300 c7 ff 11 3e 06 c9 6e be 4c af 37 3e c1 80 65 be
       0.14257728 -0.23318872 0.17937964 -0.22412397
000310 b5 09 80 bd 8f b7 ee bd e5 fc b1 3e bd 03 60 3d
       -0.062518515 -0.11656105 0.34763256 0.054691065
000320 b6 f1 17 3f f3 2c 4b be 99 86 07 bf 41 0a 9f 3e
       0.59353197 -0.19841366 -0.52939755 0.3106251
000330 ae d4 e0 3e a7 10 60 be 1e ca 48 3c 7f 46 4e 3e
       0.43912262 -0.21881352 0.01225522 0.2014408
000340 6d 54 c5 be 13 e2 8e be 1b f6 67 3d 2f 1b d8 3e
       -0.38540974 -0.27906856 0.05663119 0.4220824
000350 b7 f5 8f 3d df 47 ce bb 19 08 2b 3f bd 8c 92 3d
       0.07029288 -0.006295189 0.6680923 0.0715575
000360 b0 f8 c6 bd 4a e2 8e bd e0 9f 9e 3d 3d 7c c6 3d
       -0.09715402 -0.06976755 0.077453375 0.09691665
000370 ac 84 d1 bd c9 23 16 3e 7b 4c ab bb 8d 77 fe bc
       -0.10230383 0.14662088 -0.005227623 -0.031062866
000380 4f 10 5c 3c 51 fc c8 3e d5 ec 59 3e cb da 96 be
       0.013431623 0.39255002 0.2128175 -0.294638
000390 ba fb 9e be 4f 61 9c be e3 ec 39 be 17 0e ae bd
       -0.31051427 -0.3054299 -0.18156771 -0.08498781
0003a0 b7 dc b0 bd f6 fd a2 be 6b 04 04 bf ef b7 07 3d
       -0.08635848 -0.31834382 -0.5156924 0.033134397
0003b0 b2 6f 73 3e 1a 20 24 3e 7e 33 85 3e 8c f1 19 be
       0.23773077 0.16027871 0.26015848 -0.15033549
0003c0 ef e1 da be 4a 5b 5b 3f ee ec 5a 3d 8c dd a5 3e
       -0.427505 0.8568617 0.05344861 0.3239559
0003d0 bd e6 67 be b4 18 de ba 88 e6 2f 3e 79 5a 96 3e
       -0.22646613 -0.0016944618 0.17177784 0.293659
0003e0 e8 d2 36 bd 45 12 2d be 1c 5d 0b bf 66 90 a0 3e
       -0.04463473 -0.169015 -0.5443895 0.31360167
0003f0 8a 64 fc bd b6 6b ff 3e 0f a6 09 bf f2 0e 12 be
       -0.12323864 0.49886864 -0.5376901 -0.14263514

encoder.conv_logstd.bias f4 [20]
000000 e7 34 ff be b1 c9 c3 be 8f d2 f1 be 1d a6 cd be
       -0.4984505 -0.38239816 -0.47230956 -0.40165797
000010 d3 5e 0e bf 16 29 e9 be df fd 10 bf a4 d7 c9 be
       -0.5561344 -0.4553916 -0.56637377 -0.39422333
000020 ab d6 0b bf 9b 1d d7 be 7f 66 07 bf 6d e7 08 bf
       -0.5462443 -0.42014775 -0.5289077 -0.5347813
000030 85 7e cf be ed 7c 0b bf c0 78 fd be ee d7 e2 be
       -0.40526214 -0.54487497 -0.49506187 -0.44305366
000040 89 fe 0b bf 47 22 08 bf 2c 17 e1 be c0 13 df be
       -0.54685265 -0.53177303 -0.4396299 -0.43569756
