results/model_GCN/graph_split_/layers_4/transform_True/alpha_-10.0/model.pt (torch, 36694 bytes, 15 tensors)

encoder.conv.convs.0.bias f4 [40]
000000 57 1f f3 3c 78 e2 ca 3d c3 5b b3 3d b0 4e f2 3c
       0.02967803 0.09906477 0.087577365 0.029578537
000010 6a 44 aa 3c 94 80 f4 3d dc 8d f1 3d 81 02 f7 3c
       0.020784575 0.11938587 0.11794636 0.030152561
000020 57 06 1b 3b f9 3d 57 3d c9 77 bb 3d 25 88 f2 3d
       0.0023654902 0.052549336 0.091537066 0.11842374
000030 42 e5 e0 3b f1 ec 90 3d 57 a6 7c bd 74 5e a4 3d
       0.006863267 0.07076443 -0.06168207 0.08025828
000040 39 d3 fd 3d 07 7c 8d 3d 4b c7 47 3d a3 2f 02 be
       0.12393803 0.06908422 0.048774045 -0.12713484
000050 2e 84 d8 3d 4e 41 22 3d d6 d1 c1 3d 9f 12 7f 3d
       0.10572086 0.03961306 0.09463851 0.062273618
000060 b9 9d a6 3d a7 f1 ad 3d 02 6f 0a 3e c5 ce 0a 3d
       0.08135552 0.08493357 0.13518909 0.033888597
000070 82 5d 60 3d 49 90 23 3e 73 fb 62 3d 6b 13 72 3e
       0.054776676 0.15973009 0.055415582 0.2364022
000080 aa 67 5a 3d bc 69 2d 3e bf 37 fb bc dc 39 3c be
       0.053321518 0.16934866 -0.03066623 -0.18381447
000090 23 d2 06 3e fb ae 1d bd 67 fa dd 3d ec e5 8b 3d
       0.13166098 -0.038496953 0.10838776 0.068309635

encoder.conv.convs.0.lin.weight f4 [40, 40]
000000 f9 d0 d2 3d fd 0a 80 3e 5c f5 c8 bd fc a0 6c 3e
       0.102937646 0.25008383 -0.098124236 0.23108286
000010 06 86 fe bd 75 ad b7 be d6 d5 4e 3e 32 71 40 bd
       -0.12427907 -0.35874525 0.2019876 -0.04698295
000020 e3 f3 42 3e 94 5e 8f 3d fc e4 bb 3e 0d e9 1d be
       0.19038348 0.07000461 0.3669814 -0.15420933
000030 6a d6 8b bd ef 0e 14 3f fa 51 20 bd d9 58 c1 3d
       -0.068280056 0.57835287 -0.03914068 0.094407745
000040 12 5d 01 be e0 78 b5 3e 31 90 60 bc f4 fd b0 3e
       -0.1263316 0.35443783 -0.013706253 0.3456875
000050 06 3d 49 bd 20 20 9d bd b5 ec 62 be 88 fa f8 bd
       -0.049130462 -0.07672143 -0.22160609 -0.1215716
000060 f2 ff d5 bd 8e 54 74 bd 5e 1a 0c be 45 86 cd be
       -0.10449208 -0.05965095 -0.13681933 -0.40141502
000070 0f 5a fd bc 0e a8 a6 be 9b 9d 7f 3e c0 56 08 3f
       -0.030926732 -0.3255009 0.24962465 0.5325737
000080 ba 28 ed 3c 25 07 e8 3e 45 d8 bd 3e 73 f0 20 bd
       0.028950084 0.4531795 0.37079063 -0.03929181
000090 61 89 0b bd e7 ad 4d 3d bf d6 89 be 4e 9f 60 3c
       -0.03406656 0.050214674 -0.2692165 0.013709856
0000a0 a5 7f cd 3c d4 d4 8e be d4 66 c1 bc a7 a9 ae be
       0.02508528 -0.2789675 -0.023608603 -0.3411381
0000b0 49 74 55 3e 6a 6e 97 3e aa ef 34 3e 2d ed d0 be
       0.2084514 0.29576427 0.1766955 -0.4080595
0000c0 78 4f 71 be 0c 59 14 be d9 20 a8 3e 8c 58 a8 be
       -0.23565471 -0.14487094 0.3283756 -0.32880056
0000d0 1b 62 3e 3d 93 41 4d be 2b 7f d0 3e ba f0 35 bd
       0.04648028 -0.20044546 0.4072202 -0.044419028
0000e0 69 7f 99 3d 1c 25 dc be 2e 75 ff be 0d ea e3 be
       0.07495005 -0.42997062 -0.49894089 -0.44514504
0000f0 4a 95 97 3d 17 5e 59 3e b9 ed bd 3d c1 9a 32 bd
       0.074015215 0.21227299 0.092738576 -0.043604616
000100 ad 1f 92 3d 6d fc 64 3e 3a 6c 98 be 5c f3 6e bd
       0.07134948 0.22361918 -0.2977007 -0.058337554
000110 9f 0a 48 bd c7 94 59 be c7 12 08 be 16 39 98 bd
       -0.048838254 -0.2124816 -0.13288413 -0.07432763
000120 3e b0 bb 3e 6f 65 ae be 79 96 d4 bd 44 55 1d be
       0.366579 -0.34061763 -0.10380263 -0.15364558
000130 17 43 9b 3e fb fe dc 3d 70 25 1a be d1 fc a4 3e
       0.30324623 0.10790821 -0.15053344 0.32224134
000140 b7 20 0f bf 31 a7 45 3e 87 3a 80 3e b6 fc 52 be
       -0.55909294 0.1930206 0.25044653 -0.20604214
000150 40 de 16 be 83 7b 9a bc 7d 1a 3e 3f 6f 0a a6 3d
       -0.14733219 -0.018857723 0.7425917 0.08107459
000160 88 14 46 3e c4 53 9e 3c 83 d0 cf 3e fc f5 ac be
       0.1934377 0.019327052 0.4058877 -0.3378142
000170 a9 88 1a be da 51 aa 3e 7c ac 6e bf e7 b6 26 be
       -0.15091194 0.33265573 -0.9323194 -0.16280709
000180 b7 ae 60 3e fd 96 d7 3e ce e1 06 3f 94 ce 9b 3e
       0.21941648 0.42107382 0.526883 0.30431044
000190 0b ab 3e be ed fa b9 be 9d bd 82 be e4 d3 f7 be
       -0.18619935 -0.36324254 -0.25535288 -0.48403847
0001a0 8b 4a 7e 3e 1e 5c 84 be 10 b6 f3 3d 4a a7 47 be
       0.24833123 -0.2585153 0.1189996 -0.1949741
0001b0 10 12 c6 be f0 31 1a bb ea fb 08 3f f9 d8 54 3e
       -0.38685656 -0.00235283 0.5350939 0.20785893
0001c0 09 06 be be 42 c2 3f 3f f9 0f 96 3e 40 3f c2 be
       -0.3711398 0.7490579 0.2930906 -0.3793888
0001d0 21 58 00 3f c9 32 29 bf d4 a2 4e be 61 5d 0d 3d
       0.50134474 -0.66093117 -0.20179302 0.03451288
0001e0 76 66 ae bd 60 18 15 3e 9b a1 c7 3d 9a 55 8a be
       -0.085156366 0.1456008 0.09747621 -0.27018434
0001f0 3b 9f 73 be b6 d3 f6 3b 34 85 ad 3e db 2e b8 3d
       -0.2379121 0.007532562 0.33890688 0.08993312
000200 29 6d 32 be d1 d6 01 3e 12 eb cd 3e a0 b7 82 be
       -0.17424454 0.12679602 0.40218407 -0.2553072
000210 6e 6e 08 bc 59 1e 99 3e f7 26 d2 be d2 96 4f bd
       -0.00832711 0.29905966 -0.41045353 -0.050680943
000220 5e a3 88 3c 82 5d 9e 3e c1 0a da 3d 8a a1 ae bd
       0.016679462 0.30930716 0.106465824 -0.08526905
000230 8b 03 ce 3d a5 ba c9 be 69 d3 83 3e af ee 52 be
       0.100592695 -0.3940021 0.2574723 -0.20598863
000240 fd 4a 3d bd ef d9 50 be 24 38 25 be e7 1e c7 3c
       -0.046214093 -0.20395635 -0.16134697 0.024306728
000250 9c 17 49 be 42 b4 68 bb 05 25 81 3e 2f ae 47 3e
       -0.19637913 -0.0035507833 0.25223556 0.1950004
000260 e2 43 8a be 5a 78 e2 3e 76 05 83 3e c0 ef cd bc
       -0.27004915 0.44232446 0.25590104 -0.025138736
000270 fa 16 ce 3e 5a f5 6b be 83 0b 89 bd c4 03 80 be
       0.40251905 -0.23042813 -0.06691649 -0.25002873
000280 a5 3f 2d bd ad a1 ec 3c ca 56 58 bc 75 3b 76 bd
       -0.042297024 0.028885687 -0.013204286 -0.060115296
000290 9a 60 07 be b4 e9 8f bd de 22 b3 3e 7a 91 e0 bc
       -0.13220444 -0.07026997 0.3498754 -0.027413119
0002a0 9f 9b 14 be 6b b8 3c be d1 fc 99 3e ec 01 d0 bb
       -0.1451249 -0.18429725 0.30075696 -0.0063478854
0002b0 b8 3c 59 be ac 3e e5 3e c4 56 07 bf 50 7e ab 3e
       -0.21214569 0.44774377 -0.5286677 0.33494806
0002c0 8a 9c 78 3d 53 4f 15 3e 53 4f 8f 3e e0 f8 0b 3f
       0.060696162 0.14581041 0.27990207 0.5467663
0002d0 e4 0a d8 be 65 c1 58 be e4 54 de 3d 4e cb d9 bd
       -0.4219581 -0.21167524 0.10856035 -0.106344804
0002e0 01 b2 92 bd 6a db 23 3e 12 8c 2e 3d 8b 0a 5c be
       -0.07162858 0.16001669 0.04261405 -0.21488397
0002f0 af e0 07 3e 6a 09 83 be f8 8c 9c 3e df c8 f6 3e
       0.13269304 -0.2559312 0.305763 0.48200127
000300 f5 c7 ff bd cb b9 04 3f c5 3c 1a bd ba 20 86 be
       -0.12489311 0.51846 -0.03765561 -0.26196843
000310 cd 5d 95 3e 1c d1 e7 be 72 a6 ff bd 30 8e 87 be
       0.29173127 -0.45276725 -0.12482919 -0.26475668
000320 a0 e8 9a bd 75 17 e8 3d b0 7f f3 bd 74 14 13 3e
       -0.07563901 0.11332599 -0.11889589 0.14363271
000330 a0 84 be bd eb c7 29 3d b5 90 68 3d eb 14 94 bd
       -0.0930264 0.041450422 0.05677863 -0.07230552
000340 e9 03 28 be 06 8e b9 bc 8e b3 3f be ba 96 97 bb
       -0.16407742 -0.02265073 -0.18720838 -0.0046261223
000350 ee 5f e6 bd 09 d1 ba be f8 08 a8 3e 81 ae 18 3d
       -0.11248766 -0.36487606 0.32819343 0.037275795
000360 ba e8 ac bd 0e a4 44 3e 8b d2 ca be c6 77 89 3c
       -0.084428266 0.19203207 -0.39613757 0.016780745
000370 e7 7c 11 bd a3 de 3e 3e d3 39 32 3d 4a 76 2f 3e
       -0.035519507 0.18639617 0.043512177 0.17134967
000380 70 cd 9e 3e 72 f5 10 3e f4 91 b5 bd 52 6c 05 bd
       0.3101611 0.1415613 -0.08865729 -0.032574005
000390 6f 5e b3 bd f5 90 21 3e e9 e5 8a be ae 5c cd be
       -0.08758246 0.15777953 -0.27128533 -0.4010977
0003a0 14 89 60 3e 36 99 ba be 0f 03 cb 3e 46 ce 19 be
       0.21927291 -0.36445016 0.3965077 -0.15020093
0003b0 fb c2 7e 3b 41 76 ba 3d 9f fb 89 3d 58 e5 91 be
       0.0038873542 0.091045864 0.06737446 -0.28495288
0003c0 e0 d9 b1 be 1e b1 3b 3e da 6c 71 3e dd 64 a8 3d
       -0.34736538 0.18329284 0.2357668 0.08222363
0003d0 f3 aa 6a be 2e e2 de be 7b 47 b2 3e 23 a5 a2 3e
       -0.22916774 -0.43531936 0.3482016 0.31766614
0003e0 d6 ff 88 3c fb f2 c8 be 98 80 cb 3e 05 92 bb bd
       0.016723555 -0.3924788 0.39746547 -0.091587104
0003f0 3c 18 8b bd 50 8b 35 3f 18 b9 05 bf dc 9b b2 bc
       -0.06791732 0.709157 -0.52235556 -0.021802835

encoder.conv.convs.1.bias f4 [40]
000000 9c 9a fe 3b a2 b7 f1 bc 06 3b 3e 3d 0d 60 cc 3b
       0.0077698957 -0.029506508 0.046443008 0.006237036
000010 8e ba 20 3e ac f3 a4 3b 99 5d 56 3d 8b 4b 91 3d
       0.15696165 0.0050339308 0.052335355 0.07094487
000020 38 5e 61 3d 33 d5 32 bd 73 1b d9 bd 2f c9 5a bd
       0.055021495 -0.043660354 -0.10600939 -0.05341452
000030 2a 6f 70 3d 7b 81 a6 3c c8 42 2d bc 52 97 8e bd
       0.058699764 0.020325413 -0.010575004 -0.06962456
000040 7b f0 0c bc 93 7e ab bd de 39 5b 3b 03 5f 2d 3e
       -0.008602257 -0.083737515 0.003345124 0.16930775
000050 1b ed c1 3c 9a 29 bc 3d 62 8d 93 3d 6f 78 3b 3d
       0.023672631 0.09187622 0.07204701 0.04576915
000060 40 29 0a 3d 8f bd 24 3d 3a 28 2f 3d 23 fd 7d 3d
       0.033730745 0.04021984 0.042762972 0.062008988
000070 81 82 a6 bc 99 b3 96 3d e8 aa 8a 3d 5d 15 e7 bb
       -0.020325901 0.07358474 0.06770879 -0.0070521072
000080 be c8 06 be b5 d6 f6 3d 7c 52 9b 3d 26 79 b2 3d
       -0.13162515 0.12052671 0.07584092 0.087145135
000090 4a a7 8b 3d 5b ab c9 bc bd 40 d1 3d 7b b2 26 3d
       0.06819017 -0.024617841 0.10217426 0.040697556

encoder.conv.convs.1.lin.weight f4 [40, 40]
000000 eb b3 d7 3d 92 bc d1 bd cf 98 05 be 7a d9 26 3e
       0.105323635 -0.10241045 -0.13046573 0.16293898
000010 19 57 81 3e 1b 4d 61 3e 48 1d 4e 3e 21 5f 46 3e
       0.25261763 0.2200207 0.20128357 0.19372226
000020 78 24 7e 3d 8b 8b 3c bb 43 4d 82 bd bd b7 a3 be
       0.062046498 -0.0028769698 -0.06362393 -0.3197612
000030 6b 1c 0f 3e 21 4a 01 3e 73 1a b0 bc b2 e0 9a 3e
       0.13975684 0.12625934 -0.021496987 0.30249554
000040 1e 83 52 3e 58 62 9b 3e 46 81 f0 bd 8e e7 81 be
       0.2055783 0.30348468 -0.11743407 -0.25371975
000050 4b 1e 8b be 2e a5 29 3e 64 77 20 3d 19 75 10 3e
       -0.2717155 0.16566917 0.03917636 0.14107169
000060 79 6e a2 3d 7d 30 f6 3c 07 28 0b bd a6 03 a1 3d
       0.07931227 0.030052418 -0.03397372 0.07862024
000070 64 d3 a7 bd 1e f0 a0 be 6d e8 98 3e 73 d8 3c 3d
       -0.081946164 -0.31433195 0.29864827 0.04610486
000080 78 28 c6 3d 54 8d 48 be b9 20 be be 1f 75 89 3e
       0.096756876 -0.19585162 -0.3713434 0.2684717
000090 db 2b 81 bd 89 e5 03 be 6c a8 23 be 35 35 07 bc
       -0.06307193 -0.1288053 -0.15982217 -0.008252432
0000a0 c7 d9 59 3e 82 1e a4 3d cd 8d 10 3f e3 51 60 3e
       0.21274482 0.080136314 0.5646637 0.21906237
0000b0 f4 cb 7e 3e ff a6 34 be ae 2b b5 3e ec 62 be 3e
       0.2488249 -0.17641829 0.35384887 0.37184846
0000c0 4c 3d 11 3c e2 d4 ba 3e c0 94 bf be df 2e eb bd
       0.008864712 0.36490542 -0.37418175 -0.11483549
0000d0 0e dc 20 bc c6 0f fc bd 78 23 16 be 60 83 e4 3e
       -0.00981809 -0.12307696 -0.14661968 0.4463148
0000e0 4d 1a 30 be 7d 6e 71 3e be 6d fe 3d 25 a3 59 3e
       -0.17197533 0.23577304 0.124232754 0.21253641
0000f0 17 64 1b 3d bc 2e bd be 3c f8 26 39 74 3b b7 bc
       0.03793725 -0.36949718 0.00015923468 -0.022367217
000100 38 05 c0 be 6d f3 71 3e 57 d8 81 bd c3 53 8b 3e
       -0.37503982 0.23628016 -0.06340092 0.27212343
000110 d9 fc c1 be 09 83 d1 be a1 3e 86 3e 2f c7 ef 3e
       -0.3788822 -0.40920284 0.26219657 0.46831653
000120 35 fb 85 3d 8c c8 c2 be 1a 2c 32 be 3a 97 03 bd
       0.065420546 -0.3804363 -0.17399636 -0.032126643
000130 56 06 d2 be f3 15 e0 bd 91 e7 40 be 65 b6 c2 be
       -0.4102046 -0.109416865 -0.18838336 -0.3802978
000140 cc 85 4e be 52 19 45 3e 93 df 08 3c 4c ea 0f 3c
       -0.20168227 0.1924794 0.0083540855 0.008783888
000150 7b 2d d3 bd c5 5c 8f 3c 40 ff 81 3e 01 01 9d 3e
       -0.10311409 0.01750029 0.25390053 0.30664828
000160 bd 96 11 be 00 aa 1f 3e 06 9f 73 be dc cc 0a 3e
       -0.14217658 0.15592194 -0.23791131 0.1355471
000170 48 66 4a bd 78 35 30 be ef 95 0b be ad 7e 8f 3d
       -0.04941395 -0.17207897 -0.13631414 0.07006583
000180 1c 32 76 3d d8 d3 bc 3e 76 3b ca ba c9 eb 4b 3e
       0.06010638 0.36880374 -0.0015429098 0.19914164
000190 71 01 8a be d0 df 03 bd ac 5b a0 bd 18 97 57 3e
       -0.26954225 -0.032195866 -0.07829985 0.21053731
0001a0 e8 05 41 bd 3d 84 53 3e e7 8d c8 3d 9f b5 8e 3e
       -0.047124773 0.20655914 0.09792691 0.2787294
0001b0 91 2c da 3e 3f ec 3d be 57 20 16 bd db 53 2c 3f
       0.42612126 -0.18547152 -0.036651935 0.67315453
0001c0 4f 4b b5 be e2 1a ce bd 2f 41 6c 3e 1c 34 88 be
       -0.35409018 -0.10063721 0.2307174 -0.26602256
0001d0 75 d6 86 3d a3 1d 1c be 69 36 f2 3d 7f 70 b8 3e
       0.06583873 -0.1524568 0.11826784 0.36023328
0001e0 93 ec c8 3e 5c a3 c4 be 75 3f a5 bd 91 30 4d 3e
       0.39242992 -0.38405883 -0.08068744 0.20038058
0001f0 1e 74 ba 3d 1a 43 fd 3d b8 94 c5 bd d3 c9 c0 3d
       0.09104179 0.12366314 -0.096475065 0.09413495
000200 5f 3c 7b 3d 6f e9 7b 3e f0 0d ea bd 4d ed 5b bf
       0.06133687 0.24600767 -0.114284396 -0.8590897
000210 37 21 8d 3d ea 0a 8a bd 17 47 15 3e 68 0e 80 3e
       0.06891101 -0.06740363 0.145779 0.2501099
000220 ff f9 d1 bd 3c 07 73 3e bd 58 e3 3e ec 4c dc bd
       -0.10252761 0.23733228 0.4440364 -0.10756859
000230 a9 05 ad be 82 9b 0c be 26 a5 4c 3e 96 29 83 be
       -0.3379338 -0.13731197 0.19984874 -0.25617665
000240 33 94 d3 be ec 52 a4 3d c9 53 58 3e 15 71 c0 3d
       -0.41324005 0.080236286 0.21125712 0.09396569
000250 cb c2 4b be 89 db 04 be 26 1c 8b 3e 94 2a 00 be
       -0.19898526 -0.12974371 0.27169913 -0.12516242
000260 c2 cc 4f 3e 13 a9 cc bd fc fc 23 bd 44 31 fa bc
       0.20292953 -0.09993186 -0.040036187 -0.03054107
000270 7b 36 e8 3d 4a 07 cc 3e 46 82 1b bc a2 b1 39 3d
       0.11338516 0.3984931 -0.009491509 0.04533542
000280 cd 37 cf 3d 0e a2 d2 bd 70 9d 3b 3e f6 6d b6 3c
       0.10118065 -0.10284816 0.18321776 0.02226923
000290 b1 51 b0 3d 6c 47 80 3e e8 bb 1f 3d 02 d2 61 bd
       0.086093314 0.2505449 0.03899756 -0.05513192
0002a0 b9 55 aa 3e d0 95 bc 3e 81 06 b6 bd 18 50 4c be
       0.33268526 0.36833048 -0.08887959 -0.19952428
0002b0 92 c7 c9 3e b2 89 51 3e 30 30 59 3d 1d 37 9a 3e
       0.39410073 0.20462683 0.05302447 0.30120173
0002c0 1f bf 6c 3e e0 b1 c1 3e e7 8d c4 3d 53 5f 56 3d
       0.23119782 0.3783102 0.09597378 0.052337002
0002d0 5b a1 25 3c 87 ce 77 3d c3 1e 47 3e ae 1f 9f bd
       0.010109271 0.060499694 0.19445328 -0.07769714
0002e0 8f b1 0e bc c0 cb 97 3e c3 22 c0 3d 77 76 03 3f
       -0.008709325 0.29647636 0.0938163 0.5135264
0002f0 90 df d9 3e fb 40 f4 3d d3 cc ee 3e 4d 3a 60 3e
       0.42553377 0.119264565 0.46640643 0.2189724
000300 46 05 96 3e cb a0 67 3e 19 f9 8e 3d f4 70 c0 be
       0.29300898 0.22619931 0.06981105 -0.37586176
000310 05 9c 58 3e 32 41 98 3e 42 7f 16 be f5 88 0c 3e
       0.21153267 0.2973724 -0.14696983 0.1372412
000320 65 13 1f 3e 5e ce 38 3e 46 05 23 bf 54 ff 11 be
       0.15534742 0.18047473 -0.6367992 -0.14257556
000330 29 19 20 3d 8d d8 18 3e ee 9c 97 be ad a0 58 bd
       0.039086495 0.14926358 -0.29611915 -0.052887607
000340 97 3e 20 3e 56 31 a3 be 8e b3 da 3d 4d 5c a5 3d
       0.15648876 -0.31873578 0.106787786 0.080742456
000350 6f fd a0 be 0d 60 71 3d 00 b4 3e be 5f 61 c4 be
       -0.31443354 0.05892949 -0.18623352 -0.38355538
000360 c3 fc 0d 3d f6 f2 0d bf e4 94 dc be 14 83 bb be
       0.03466488 -0.55448854 -0.43082345 -0.36623442
000370 e3 c3 e4 bd 6f 18 b1 bd a5 a1 b8 3e 6e c0 05 be
       -0.11170175 -0.086472385 0.36060825 -0.13061687
000380 e8 2f e6 be 97 70 90 3d f6 63 4d be 81 26 5b be
       -0.44958425 0.07052725 -0.20057663 -0.21401407
000390 f2 a9 1f 3d da 7c 79 3e 40 72 87 be 44 e4 68 3e
       0.03898043 0.24364033 -0.26454353 0.22743326
0003a0 24 86 88 be 7a ba 01 3e a2 be 49 3e ed 5a 0a be
       -0.2666484 0.12668791 0.19701627 -0.13511248
0003b0 73 a2 e5 3d 06 a2 7b bd 00 2b 18 3e 29 2d 73 3e
       0.11212625 -0.061433814 0.14860153 0.23747696
0003c0 39 ae c6 be 9e 56 a7 3e ae 3e 4f bf 9d a4 d3 be
       -0.38804796 0.3268327 -0.80955017 -0.41336527
0003d0 fc 1e 20 bf a2 77 42 be 9a 53 20 bf 06 05 29 be
       -0.6254728 -0.18990949 -0.62627566 -0.16505823
0003e0 53 e8 74 be f0 62 f3 be 34 5f 28 3e 90 07 bf 3e
       -0.2391675 -0.4753642 0.16442567 0.37310457
0003f0 59 1d e4 be bf 36 7a 3d 25 46 7d be fb 11 3c bf
       -0.4455364 0.061087366 -0.2473379 -0.73464936

encoder.conv.convs.2.bias f4 [40]
000000 7f cf 4f bd bf 97 b9 bc 86 da 91 3e 72 73 e9 3d
       -0.050734993 -0.022655366 0.28487033 0.113989726
000010 17 38 66 3d 29 3b f9 bd d5 6e c4 3d 2f 97 61 3c
       0.056205835 -0.12169487 0.09591452 0.013768955
000020 7f 0c 2b 3d 23 9c 3c 3d b6 13 6a bd 2e 7c 14 be
       0.041759964 0.04604734 -0.057147704 -0.14500496
000030 e3 79 d6 3d 16 f4 ac bd 52 ca 53 bc bf dd bd bd
       0.10472467 -0.08444993 -0.012926655 -0.0927081
000040 08 71 54 bd 00 00 00 00 ba 8f 45 be 78 f4 d6 bc
       -0.051865608 0.0 -0.19293109 -0.026239619
000050 7d 60 a6 bd 15 89 ed 3d f0 e4 95 bd f5 0e 9c 3d
       -0.081238724 0.11598412 -0.07319057 0.0762004
000060 c5 c9 63 3e 10 8d e2 bc d6 5e ce bc 8d ec 88 3c
       0.22244938 -0.027655154 -0.025191706 0.016714359
000070 35 63 89 3e 7a f0 01 bd 51 c5 f4 bc f2 f9 b6 3d
       0.268335 -0.031723477 -0.029879244 0.08934392
000080 98 16 7e 3d 13 e4 9b 3d cc 7b 4d 3e de 21 a8 3d
       0.062033266 0.07611861 0.20066756 0.08209585
000090 00 35 02 3e 17 15 6a bc 77 ba 67 3d c7 94 2b 3e
       0.1271553 -0.014287255 0.05657431 0.16755973

encoder.conv.convs.2.lin.weight f4 [40, 40]
000000 fc 22 cc 3c bb 4f 26 bd f8 17 fe bd 4c 31 30 be
       0.024919026 -0.04060338 -0.124069154 -0.17206305
000010 60 79 58 3e 65 79 c8 bd be a6 dd 3e e5 9d f6 3c
       0.21140051 -0.09788779 0.43291277 0.030104587
000020 e7 4a 2c be 1d b3 70 3d b1 48 a4 3e 2a ff 42 3e
       -0.16825448 0.058764566 0.3208671 0.1904265
000030 e2 c4 b7 3e bc d4 c5 3d c1 c8 85 be 20 7c 6c 3e
       0.35892397 0.096597165 -0.26129726 0.23094225
000040 ea ab 7a be ec dd 88 3e 94 f3 ec 3c 18 29 fd 3c
       -0.24479643 0.26731813 0.02892474 0.030903384
000050 1e 3d b1 3e f9 60 9b be c0 03 83 3e ea 50 f1 bd
       0.3461694 -0.30347422 0.255888 -0.11783011
000060 39 4c e4 3e c6 e5 fb be 10 d2 d8 3e 48 d4 d0 bd
       0.44589403 -0.4919874 0.42347765 -0.101967394
000070 21 80 91 be f8 73 05 3d 98 36 c3 3d 12 ce bc be
       -0.28418067 0.0325813 0.09531897 -0.3687597
000080 f6 e4 44 be f1 c7 36 3b 46 76 35 bd fc 2b 5e 3e
       -0.19227967 0.002789017 -0.044302247 0.21696466
000090 99 e0 b1 be e3 28 fa 3c 22 f6 09 3e 12 99 45 be
       -0.34741667 0.030537074 0.13472798 -0.19296673
0000a0 1a d4 dd bd 28 f2 8f be 95 81 6a be e6 1d 89 3c
       -0.10831471 -0.28114438 -0.22900994 0.01673789
0000b0 0c c8 1b 3d 94 f1 24 bd e8 d8 84 be 8a 0b 44 be
       0.038032576 -0.04026945 -0.25946736 -0.19145027
0000c0 ef bc b2 3d af aa 68 be 34 1d 5f bc 51 23 e4 3c
       0.087274425 -0.2272136 -0.013617802 0.027848871
0000d0 77 35 07 3e 66 50 8a be f6 7d 6d 3e b4 26 5e 3e
       0.13203989 -0.27014464 0.23192582 0.21694452
0000e0 20 fd 16 3e 89 78 72 be 3f 4e 64 be 89 c3 93 bc
       0.14744997 -0.23678793 -0.22295474 -0.018037574
0000f0 89 19 4d be f7 e4 2f be 01 8b f3 3d e1 a2 87 be
       -0.20029272 -0.17177187 0.11891747 -0.26491454
000100 f2 e1 d7 3d 1f 92 17 be 6c 21 bd 3d 9e fa da bd
       0.105411425 -0.14801835 0.0923489 -0.10692333
000110 b8 e8 1e 3e 60 9e 1a bc 50 cf ec 3d 5f 5d 96 bd
       0.15518463 -0.009437174 0.11562979 -0.07342028
000120 a3 c8 d0 3d 17 8b c5 bd 52 d1 10 bd 5e 6d 47 be
       0.101945184 -0.0964567 -0.035355873 -0.19475314
000130 91 93 69 3c 7b 2e 74 bc c2 0f 9c bd e8 98 78 be
       0.014256374 -0.01490366 -0.07620193 -0.24277079
000140 83 18 cc 3d 7a 28 9e 3d 67 b9 94 3e c2 2d 83 3e
       0.09965613 0.07722564 0.290477 0.25620848
000150 32 b7 47 bc 5c 5b 2b be 55 f9 1b bd dd c6 88 be
       -0.012189673 -0.1673407 -0.03807958 -0.2671422
000160 32 3c 3c bf 9a 95 15 3e dd 1e f4 be 6d f6 05 3d
       -0.7352935 0.1460785 -0.47679797 0.032705713
000170 b0 49 b3 3d 78 76 bd ba ca 54 d1 bd 91 d6 90 be
       0.08754289 -0.0014454862 -0.1022125 -0.282887
000180 af 94 e1 3d 16 90 98 be 2a a3 6e 3e 56 50 89 be
       0.11014687 -0.2979743 0.2330443 -0.26819104
000190 7b bd b3 bb cb 81 65 3e fe 19 85 3d f6 46 20 be
       -0.0054852343 0.22412793 0.06499098 -0.1565207
0001a0 6d 07 8f 3e f0 8c 54 bf b6 04 33 be 21 90 52 bf
       0.27935353 -0.83027554 -0.17482266 -0.82251173
0001b0 da d7 23 3c a9 03 35 bf a9 30 3e 3e 09 de 48 3e
       0.0100001935 -0.7070871 0.1857325 0.1961595
0001c0 da 98 a9 3c 38 8c 47 bc d3 ea 61 bf 5b 8a 3b bb
       0.020702768 -0.012179427 -0.8824894 -0.0028616402
0001d0 a8 16 4b 3e bf 1d c1 bd 87 9f ac be 9d 7a 52 3e
       0.19832861 -0.09429502 -0.3371546 0.20554586
0001e0 a5 79 4c 3a ae 0a d0 be 91 76 f7 bd f9 89 cc be
       0.0007800109 -0.40633148 -0.120831616 -0.39949015
0001f0 93 10 b6 be 35 5d 80 3e 1b d6 9c 3e b9 f4 f9 3c
       -0.3555952 0.2507111 0.306321 0.0305122
000200 7f 43 8b 3e 3c 59 0a 3e eb 5d 2d be 24 d9 41 be
       0.27199933 0.13510603 -0.16930358 -0.18930489
000210 d9 39 88 3e fa d6 cf 3e af 91 aa 3d 80 61 d3 be
       0.26606634 0.40593702 0.08328568 -0.41285324
000220 81 d6 02 be 7e ff 64 bc 84 b7 4f be 43 9b 8c 3e
       -0.12777139 -0.01397693 -0.2028485 0.27462205
000230 12 76 07 3e a7 98 8b 3e 44 71 b5 3e c1 7b 48 bd
       0.13228634 0.27264902 0.35437977 -0.048946146
000240 9a ab 12 3e 6b bb 85 3e 15 4f c9 bd 9c 27 65 bd
       0.14323273 0.2611955 -0.09829537 -0.055945978
000250 5d 04 5c be 23 6a c2 3d 5d 16 1f bf f2 88 a5 be
       -0.2148604 0.094929 -0.621435 -0.32331043
000260 11 84 46 3e f0 7b ce 3e ec eb 31 3b 2a bc 8d 3e
       0.19386317 0.40328932 0.0027148677 0.2768262
000270 f7 0a 07 bf 5c 4b e9 bd 9b 7a a4 3d e9 72 80 3e
       -0.52751106 -0.11391327 0.08031198 0.2508767
000280 08 38 b0 3d 35 b2 ae 3e c7 58 23 bd 1f 23 69 be
       0.08604437 0.34120336 -0.039879587 -0.22767304
000290 62 aa 65 3d a9 86 f5 bc ae 30 06 be 47 0f 31 3d
       0.056070693 -0.029971438 -0.13104507 0.04322746
0002a0 01 45 06 be d6 4a a2 3d 6e 10 35 be 63 f6 83 3e
       -0.1311226 0.0792443 -0.17682049 0.25773916
0002b0 2b 52 c5 bd d7 76 a1 bd 12 2b 60 be e2 6a 90 3e
       -0.09634813 -0.07883995 -0.2189143 0.28206545
0002c0 82 49 7b bd d2 0b 31 bd 20 a7 e8 bc fc 38 46 bd
       -0.0613494 -0.043224163 -0.028400004 -0.04839419
0002d0 1f 9b 2e be 24 d1 0f 3d 1c 45 12 be 73 33 ea bd
       -0.17051362 0.03511156 -0.14284176 -0.114355944
0002e0 36 d6 d0 3b c1 89 8b be 7d 1d c5 3d 5f 89 8b bd
       0.006373192 -0.27253535 0.09624765 -0.06813311
0002f0 11 cc 45 be 49 7a 85 3d c6 29 71 3e bb e2 65 3e
       -0.19316126 0.06517465 0.23551092 0.22449772
000300 f4 3c f1 bd 7c c7 96 bd 0b 2c ab bd 71 f8 8e 3e
       -0.11779204 -0.073622674 -0.0835801 0.2792392
000310 2b 81 4f 3e 93 d9 0a 3e ab 0d a0 be 96 af b7 3e
       0.20264117 0.1355956 -0.31260428 0.3587615
000320 ef 51 e3 bd b6 68 4e 3d 4d 14 49 3d d6 4c 46 3e
       -0.11099612 0.05039283 0.049091626 0.19365248
000330 c5 c2 43 3e 97 b9 4a 3e 0b bf ed 3c 10 57 2e 3e
       0.19117267 0.1979736 0.02902176 0.17025399
000340 f6 d3 5d 3e ad 7c 7a 3e e1 87 c5 3e be a4 be 3d
       0.21662888 0.24461623 0.3858023 0.09308766
000350 b3 2f 84 3e 1b ba 74 be 7c ac f2 3d 02 8f 0e 3e
       0.25817642 -0.23899119 0.11849305 0.1392174
000360 cf 58 bc bd d7 06 24 bc e6 a8 03 be 65 be a3 3d
       -0.091966264 -0.010011396 -0.12857398 0.07995299
000370 35 0d 9d 3d 3d 0e a4 bd 84 ff 35 be 54 cf 3f bd
       0.07668535 -0.08010528 -0.17773253 -0.046828583
000380 b7 27 3d 3d 40 c5 30 bd 18 f7 00 3e 0e fa 41 3e
       0.046180453 -0.043156862 0.12594259 0.18943045
000390 71 26 ed 3b 28 74 5e 3d 2c 0b 29 3e 66 8f 91 be
       0.0072372486 0.054309994 0.16508168 -0.28429717
0003a0 90 3b bd 3e 01 93 1c 3e fb 7b 07 be 94 67 2c be
       0.36959505 0.15290453 -0.13230889 -0.16836387
0003b0 a1 97 5f be 02 db 0a 3e 22 33 23 be d9 b7 2c be
       -0.21835186 0.13560107 -0.15937474 -0.16867007
0003c0 02 30 39 3e 2e fa 32 3e a5 0f 56 3e 70 75 42 be
       0.1808472 0.17478248 0.20904405 -0.18990111
0003d0 5d 78 4c bd 0e 77 a8 3b a7 63 a9 be b5 e0 5d be
       -0.049919475 0.0051411455 -0.3308384 -0.2166775
0003e0 95 1f 9a 3d 06 84 cd bd 13 5b a3 bd 9d be 79 3e
       0.07525555 -0.10034947 -0.079763554 0.2438912
0003f0 15 f5 c2 be b8 b4 2c be ea 3a 00 bc 5c e0 18 bd
       -0.38077608 -0.16865814 -0.007826546 -0.03732334

encoder.conv.convs.3.bias f4 [20]
000000 0d 9b cd bc 12 a5 89 3d 01 fc 90 bc b4 25 30 bd
       -0.025098348 0.06720938 -0.01769829 -0.043004707
000010 6d d6 c1 3d b0 1f a2 be aa bc 7b bd f2 0d ba 3c
       0.094647266 -0.316648 -0.06145922 0.022711728
000020 22 06 a1 3e 8b f8 f8 3d 86 93 30 bd 00 00 00 00
       0.3144999 0.12156781 -0.04310944 0.0
000030 47 71 5b 3d 4e a4 0f 3c 21 97 14 3e 70 9f 3b 3e
       0.053574827 0.008767201 0.14510776 0.1832254
000040 d8 78 7d 3e 96 e7 46 3e 9f 94 f2 3d 73 88 92 3e
       0.2475313 0.1942428 0.118447535 0.28619727

encoder.conv.convs.3.lin.weight f4 [20, 40]
000000 d1 59 2c be fd 66 0f be ee 17 03 be 96 39 99 3e
       -0.16831137 -0.1400413 -0.12802097 0.29926747
000010 ad 30 a4 be ef a4 30 bd 0e 07 32 be 61 0b 4d be
       -0.32068387 -0.043126043 -0.17385504 -0.20023872
000020 32 9b b2 3d 06 59 8a bd 90 e8 93 bd 37 57 a1 be
       0.087210074 -0.06755261 -0.07222092 -0.31511852
000030 92 87 a0 bd 94 98 c4 3d ed 0b 25 3d 7c 3c 8a 3e
       -0.07838358 0.095994145 0.040294576 0.2699927
000040 5e 0c b8 bc b2 c6 28 be f7 40 b2 bc 6b 8f 94 be
       -0.022466835 -0.16482046 -0.021759493 -0.2901567
000050 d7 53 7c be 22 99 f5 bd 12 38 8c 3d 8f ef 99 be
       -0.24641357 -0.119920984 0.06846632 -0.3006558
000060 aa 64 83 3e 79 b1 54 be 6d 94 2a be ff 86 46 bd
       0.25662738 -0.20770825 -0.16658182 -0.048468586
000070 b0 4e 5c 3e b8 33 45 be 5e 2c 6f be 7d 70 23 3e
       0.21514392 -0.1925801 -0.23356768 0.1596088
000080 38 c8 92 bd 37 6b 5b be 3c 3e 9f be 0f 82 7a be
       -0.07167095 -0.21427618 -0.3110217 -0.24463676
000090 dd 5a 1c be ac 78 8a 3e f7 ef 03 3e c8 1c 2d be
       -0.15269037 0.2704519 0.12884508 -0.1690551
0000a0 00 01 a1 be a4 83 33 3d 00 35 1d 3f 0e 60 0e bb
       -0.31446075 0.043826714 0.61408997 -0.0021724734
0000b0 b5 01 14 3e 8d 82 7c bd ee 72 01 3f 5e b6 d4 3d
       0.14453776 -0.06164794 0.50565994 0.10386346
0000c0 5a 32 f7 bb 4d fd 64 bd 4b 08 90 3e da ac e1 bd
       -0.007543844 -0.05590563 0.28131327 -0.11019297
0000d0 b4 84 80 3e 0e 00 70 be 60 34 9f 3b ae 07 d0 be
       0.25101244 -0.23437521 0.0048585385 -0.4063086
0000e0 76 20 e6 3c 31 61 89 bc 07 2c 09 bf 69 72 9d be
       0.02809165 -0.016769977 -0.53582805 -0.3075135
0000f0 58 6c 64 3e 19 ca 2c 3e 2c 66 0c 3e 5d ca 09 bf
       0.22306955 0.16873969 0.1371085 -0.53824407
000100 44 8f 80 3e c7 3a 1e be b9 18 5c ba 91 03 87 3e
       0.25109303 -0.1545211 -0.0008396018 0.26369908
000110 72 6d 61 3d 9b a6 19 be f4 14 89 3e de 6e af 3c
       0.055036016 -0.15004961 0.26773798 0.02141517
000120 26 dd 3d 3e 04 4d 94 be 0f 85 6d 3e 0f 17 8f 3e
       0.18541393 -0.28965008 0.23195289 0.2794728
000130 17 a4 19 3e b5 f8 0e bd a7 e1 02 3f 17 da 7a bd
       0.15004002 -0.034905154 0.5112557 -0.061243143
000140 d6 e4 4d 3e 16 d7 53 3e 92 f8 30 3d 08 f4 04 bd
       0.20106825 0.20687518 0.043205805 -0.03245929
000150 f5 69 b3 bd d4 14 85 3e 6b 4b 46 be 17 08 9f 3e
       -0.08760444 0.25992453 -0.19364707 0.3106086
000160 d9 17 40 be 80 68 cd 3d 1c fd bb 3d 91 2d 35 3e
       -0.18759097 0.100296974 0.09179136 0.17693163
000170 43 1e 70 be 6c 5d 55 be 09 a8 84 be ec 04 de bd
       -0.23449044 -0.20836419 -0.2590945 -0.108407825
000180 b7 52 4e be 7b 27 f0 bd 73 9d 65 be 95 f9 f3 3d
       -0.2014874 -0.1172628 -0.22423343 0.11912838
000190 3c 42 e4 bd 34 62 84 be 90 59 1a 3e a4 fa b3 be
       -0.11145446 -0.25856173 0.15073228 -0.3515216
0001a0 e6 61 67 bd 5a 18 fa 3e 0a ff 87 bd 81 66 a6 3c
       -0.056489848 0.48846704 -0.06640442 0.02031255
0001b0 de 99 f8 3e 01 f6 7e be 6c b3 d9 bd 47 9a 04 3e
       0.4855489 -0.2489853 -0.10629925 0.12949477
0001c0 64 71 ab bc 26 d8 73 3c 5a 5c df bd 7f 2e 23 3d
       -0.020928092 0.014883077 -0.109062865 0.039839264
0001d0 d5 ed bf 3d 7f da ce bd 78 68 13 3d 92 0e 74 bd
       0.09371535 -0.101002686 0.0359883 -0.059584208
0001e0 1b 57 2f be d9 34 71 3d 56 81 82 3e f6 ca 8c be
       -0.17123072 0.05888829 0.254893 -0.27498597
0001f0 3e c3 89 bd 14 65 a4 3d 83 eb ae be ef 10 83 be
       -0.067266926 0.080270916 -0.34164056 -0.25598857
000200 0c cd 7f 3d 11 fd f3 3c 05 4f 85 3d 48 b6 0f bc
       0.062451407 0.029783757 0.065092124 -0.008771487
000210 c6 27 3a 3e 47 9e c9 3c 04 ad ec 3d 48 ae df bd
       0.18179235 0.024611605 0.115564376 -0.109219134
000220 82 c3 76 bd 3b d7 96 3e 69 47 1e be 0f 7e bf 3d
       -0.060245045 0.29461083 -0.15456928 0.09350216
000230 ff 64 25 be ac 24 92 3e 17 d6 18 bd 83 58 93 3e
       -0.16151808 0.28543603 -0.037313547 0.28778467
000240 b6 ac 02 be 8c 75 15 be 39 29 72 3e 6a df 93 bd
       -0.12761196 -0.14595622 0.23648538 -0.07220347
000250 3a cb 25 3e ec e5 87 be c0 96 a6 3d 7a d5 a0 be
       0.16190806 -0.26542604 0.08134222 -0.3141287
000260 2e f5 4c 3e b9 6f ee 3c 7e 3a 95 bd 68 c3 15 bf
       0.20015404 0.029106008 -0.07286547 -0.5850129
000270 2b 5f 6e 3e e0 f9 c9 3d 72 75 8e 3e 0d d7 90 3e
       0.23278491 0.09862113 0.2782398 0.2828907
000280 f6 36 47 bf 5f 54 b7 bd e9 d7 1b bd 2e 41 77 3e
       -0.7781824 -0.089516394 -0.038047705 0.24145958
000290 76 19 f7 3d 96 c2 98 3e 52 cb 83 be 38 77 97 3e
       0.12065403 0.29835957 -0.2574106 0.29583144
0002a0 83 33 1c 3e 93 75 f5 bd 3b 83 70 3e 26 1c 51 3e
       0.15254025 -0.11985316 0.2348756 0.20420894
0002b0 e4 cd 93 be 94 81 ba bd 9c a6 8b be 09 d0 3b 3e
       -0.2886802 -0.09106746 -0.2727555 0.18341078
0002c0 93 ea 0a bf 15 d5 d5 bd 6c 1b 4b 3e 4a 5f 35 be
       -0.5426418 -0.10441033 0.1983468 -0.17712131
0002d0 31 41 81 3e 02 3b 3c be 40 9d 5b 3d f5 2b 31 be
       0.2524505 -0.18381885 0.053616762 -0.17301925
0002e0 5b 8c 95 3e dc 06 cb bc f9 72 f9 bd 7d fc 83 3d
       0.29208645 -0.024783544 -0.121801324 0.06444643
0002f0 a1 c6 f0 3d 10 ab aa 3d 90 78 d2 3d 91 92 83 be
       0.117566355 0.08333409 0.10276902 -0.2569776
000300 e9 a0 3c be 88 88 4a be 6f dd 1b bf 35 63 f7 be
       -0.18420757 -0.19778645 -0.60884756 -0.48317876
000310 dd 98 8e 3e 37 ac 8d 3d 37 69 41 be f1 e2 87 3e
       0.27851 0.06917613 -0.18887793 0.2654033
000320 bd 99 1b be 93 22 e8 bd 5b c1 a1 3d bc 87 d8 bc
       -0.15195365 -0.113347195 0.07898208 -0.02643191
000330 cc 51 a4 3d 63 13 86 3e 31 40 a6 bd 1d b7 57 bc
       0.08023414 0.26186666 -0.08117712 -0.013166216
000340 4c f4 a6 bd 8d 69 06 3e e1 2c 32 be d7 a8 da 3e
       -0.08152065 0.13126202 -0.17399932 0.4270694
000350 a5 cf 55 3e 27 6f 83 bd ce 32 6f 3e ec 9e 80 3d
       0.20879991 -0.06417685 0.23359224 0.06280312
000360 9c b8 24 3e 10 e4 e2 bd 6b cc cc 3e e4 04 b6 3c
       0.16086048 -0.11078656 0.3999971 0.022219129
000370 a2 1c 70 3e 7d b7 9f be b6 cf 23 3e 9f d9 b1 be
       0.23448423 -0.31194678 0.15997204 -0.34736344
000380 e1 d5 82 be b5 22 56 3d cb 5c 23 bd 9b 6c 0d 3d
       -0.25553802 0.052279193 -0.039883416 0.034527402
000390 05 d1 22 be de 6d 91 3e 48 9c ce bc f6 9a 40 be
       -0.15900047 0.28404135 -0.025221005 -0.18809113
0003a0 1f cc ab be b3 4b 0c be 4b 6f 62 be dc d6 a6 bc
       -0.3355417 -0.13700752 -0.22112767 -0.020366125
0003b0 35 67 9c ba ea 14 64 be 7c 70 0b 3e 9b bf 8c be
       -0.0011932614 -0.22273603 0.13617128 -0.27489933
0003c0 50 b3 a2 be 67 93 02 be 6e 7c f2 3e 73 50 53 3e
       -0.3177743 -0.12751542 0.47360557 0.20636158
0003d0 3b 15 2e be cb 07 e7 bc b0 b1 86 3e f1 2b 86 3e
       -0.17000286 -0.028201958 0.2630744 0.262054
0003e0 10 64 a8 bd 64 b5 01 3e ff 39 ce 3d 88 a2 a5 be
       -0.082222104 0.12666851 0.100696556 -0.32350564
0003f0 ca a9 ab bb 51 11 00 3e 7c 52 08 3d ce ea 1b bc
       -0.0052387463 0.12506606 0.03328179 -0.009516431

encoder.embed_x.weight f4 [28, 40]
000000 7b 98 76 3e 6b 45 5c 3e c6 49 c3 3f e4 a4 0c bf
       0.24081604 0.21510856 1.5256889 -0.54939103
000010 13 3c 48 bf 22 21 9b 3e 10 e4 02 c0 ad 84 c3 3f
       -0.78216666 0.30298716 -2.0451698 1.5274864
000020 84 a0 e0 3e ae a1 24 3f e8 26 e6 bf 5f 4d df 3e
       0.43872464 0.64309204 -1.7980623 0.43613717
000030 f7 d2 77 bf 44 86 a0 bf 29 78 49 3f ef 35 a3 be
       -0.9680628 -1.2540975 0.78698975 -0.31877086
000040 cb 10 f9 bf 3d b6 23 be 9b 49 3b be 88 85 ca bd
       -1.945825 -0.15987487 -0.18289797 -0.0988875
000050 11 90 0b bf 25 19 50 3f 7c 28 bf be 20 bb e3 3f
       -0.545167 0.8128837 -0.37335575 1.7791481
000060 fa 1c 68 bf f4 5a 79 3f 0b 19 66 be 50 21 a9 3f
       -0.90669215 0.9740441 -0.2247049 1.3213291
000070 c7 a8 27 bd 70 2b e0 3e c6 57 65 be 53 4b 07 bf
       -0.040932443 0.4378314 -0.22396764 -0.5284931
000080 e7 8c f5 3d dc c9 ec bf 32 65 d3 be 34 a3 c6 3d
       0.119897656 -1.8499103 -0.41288143 0.09699097
000090 41 aa e5 be 62 7d af 3e d5 35 d8 3e 99 03 60 3e
       -0.44856456 0.34275347 0.4222857 0.21876372
0000a0 e6 3a 77 bf b3 24 90 3f 48 d6 33 40 c8 f3 ed be
       -0.96574247 1.12612 2.8099537 -0.46475053
0000b0 1f a4 1c c0 b1 9a 45 be d8 5e e7 3f 20 1e 66 3f
       -2.4475172 -0.19297291 1.8075819 0.8988972
0000c0 6c a6 97 3e 3b dd f4 be 5a 6b db 3f 8b be 9b bf
       0.29619157 -0.47825035 1.7142136 -1.2167524
0000d0 68 8f a2 bf b2 37 05 40 9c bf cf bf 11 07 1f 3f
       -1.2700014 2.0815244 -1.623035 0.6212016
0000e0 bb 07 26 3f 19 d2 85 3f cd 10 a8 3f 67 83 b9 3f
       0.64855546 1.0454742 1.3130127 1.4493226
0000f0 7f 34 e8 be 58 74 35 bf 2e 0f 06 3b 57 01 21 bf
       -0.4535255 -0.7088065 0.0020455825 -0.6289267
000100 0a bb 4b bd e9 21 e2 3e 98 2e f5 3f a2 3e b8 bf
       -0.04973892 0.44166496 1.9154844 -1.4394114
000110 22 5f 5a bf 61 7b 9e be 3e 6e 98 3f b8 2f da 3d
       -0.8530141 -0.30953506 1.1908643 0.10653633
000120 65 83 49 bf 34 d3 20 40 6d 55 8d 3e 0b 9b 89 bf
       -0.7871612 2.5128908 0.27604237 -1.075044
000130 39 2a 7a be e5 0f ee bf dd 66 e4 be 08 47 26 bf
       -0.24430169 -1.8598601 -0.44609728 -0.64952135
000140 c4 c0 89 3e 75 7e 84 bf cc d3 b4 bf 56 37 52 3e
       0.2690488 -1.0351092 -1.4127135 0.20528921
000150 eb 35 d7 bd 3a ed 83 3f f8 ff ac 3f da 8f 0d c0
       -0.10508331 1.0306771 1.3515615 -2.211905
000160 85 af cf be af 84 6a bf 13 3c bb 3f 48 0f fe bf
       -0.40563598 -0.9160871 1.4627708 -1.9848413
000170 25 d9 ab bf c0 67 d8 3f c7 5e b6 3e 5c 97 72 be
       -1.3425642 1.6906662 0.35619184 -0.23690552
000180 59 d3 18 3d d5 20 14 bf c2 6b ad be 18 d9 60 bf
       0.03731093 -0.578626 -0.33871275 -0.8783126
000190 c6 fa a1 3f 68 cd a1 3f 34 84 13 c0 9d f5 89 be
       1.2654655 1.264081 -2.304944 -0.269452
0001a0 40 98 95 bf 11 40 be 3f da d2 69 be 78 4a 0b 3d
       -1.1687088 1.4863302 -0.2283434 0.034006566
0001b0 10 eb 29 3e b6 42 1a be 7d e9 2a bd 74 d5 f8 3e
       0.16593575 -0.1506451 -0.041726578 0.48600352
0001c0 18 cd 6a 3f 92 0a 0a bf 8a 40 fa 3f ef 2a 69 bf
       0.917192 -0.5392238 1.9550946 -0.91081136
0001d0 9b 27 b1 3e 42 5b e3 be c4 23 c9 3e d6 38 b4 3f
       0.3460053 -0.44405562 0.392851 1.4079845
0001e0 df c6 91 bd 47 fe 2f bf db c0 36 bf d6 f3 41 bf
       -0.0711801 -0.6874737 -0.71388024 -0.7576269
0001f0 91 32 6a bf 8f 53 0a 3f 8a 09 44 3e b1 b5 b4 3f
       -0.9148341 0.5403375 0.19144264 1.4117948
000200 74 e9 81 bf f4 0c c5 be 53 b6 cc bf d4 69 ef 3e
       -1.0149369 -0.38486445 -1.5993141 0.46760428
000210 82 5f b4 bf 76 96 77 bf 04 5a 22 bf 53 ac 82 3f
       -1.4091647 -0.9671396 -0.634186 1.0208839
000220 16 70 8a bf 57 65 58 bf 52 54 2d 3f 08 da a7 bc
       -1.0815456 -0.8452963 0.6770679 -0.020489708
000230 50 f1 24 bf 79 bf e3 bf 17 81 e1 be d5 ed 34 be
       -0.64430714 -1.7792808 -0.440438 -0.1766885
000240 dd 6d ea bd 33 c1 d5 bf 3b c6 ad bf ce cf 93 be
       -0.11446736 -1.6699585 -1.357612 -0.2886948
000250 5a e8 fc bf 9f 58 a5 3e bf d2 d6 3e ac 3d 9b 3f
       -1.9758408 0.32294175 0.41957662 1.2128196
000260 8b 76 57 bf 59 d6 28 bf b0 57 a1 3d 5e 0c 35 bf
       -0.8416526 -0.6595207 0.07878053 -0.70721996
000270 ae 9f d7 3f be fa 7f 3f 15 2e e7 3e 08 b0 48 bf
       1.6845605 0.9999198 0.45152345 -0.783936
000280 d4 86 81 be fb 33 ed 3f fc 9d 83 3f b7 e4 6a be
       -0.25298178 1.8531488 1.0282588 -0.2293881
000290 83 3f 4f 3e 4b d7 12 be 86 51 9f be da 4b 42 3f
       0.20239072 -0.1433994 -0.31116885 0.7589699
0002a0 30 e1 84 be fc 80 9a bf 1a de 64 3f 61 36 bf 3f
       -0.25953054 -1.2070613 0.894014 1.493847
0002b0 1a d3 c5 bc f9 2d f5 bf 36 f8 0e 3f 6c 41 3c 3f
       -0.024148513 -1.9154655 0.5584749 0.73537326
0002c0 db f6 fd be 02 bd 99 3f a0 3b 04 c0 95 b6 dd 3f
       -0.49602398 1.2010806 -2.0661392 1.7321345
0002d0 de a3 f7 be 3a 8a 0b 3f f6 38 aa 3e 6f 1b b5 bf
       -0.48367208 0.5450779 0.33246583 -1.4148997
0002e0 a6 c2 1b 40 22 2f eb bd 2b 08 0c bf b1 30 8a 3f
       2.4337554 -0.11483599 -0.54699963 1.079611
0002f0 67 8e be 3f 01 e9 c0 3f 77 a2 39 bf ad 80 49 bf
       1.4887208 1.5071107 -0.72513527 -0.7871197
000300 54 ec 84 3f 11 51 e2 3e 97 83 e8 3f 89 cf ac 3e
       1.0384622 0.44202474 1.8165158 0.33752087
000310 c8 a0 6d be 53 3a 8f bd 6f 3c 34 bf 89 09 eb bf
       -0.23205864 -0.06993546 -0.70404714 -1.8362285
000320 1a 07 b2 3e 4c c6 f4 be b5 a0 6a 3f 80 99 d5 3e
       0.34771043 -0.47807539 0.9165147 0.41718674
000330 db d9 ed 3e 74 25 36 3f 31 bc 83 3f 42 c9 82 bf
       0.46455273 0.711509 1.0291806 -1.0217669
000340 76 04 89 bf bd d0 52 bf 99 69 e2 3f ee 62 45 be
       -1.0704486 -0.8234976 1.7688476 -0.1927602
000350 a8 b5 ca bf 17 1c 2b bf 98 02 3d 3e 4a 28 a0 3f
       -1.5836687 -0.66839737 0.1845802 1.2512295
000360 10 e0 f4 3e 04 cc 3f bf bd 74 76 be 2d 23 48 3f
       0.47827196 -0.7492068 -0.2406797 0.78178674
000370 28 c4 95 bf 64 69 dd bc a4 c6 c4 3f c1 7a 67 3f
       -1.1700487 -0.027027793 1.537312 0.9042168
000380 45 bc dd be 07 61 6d 3f 92 53 12 3d 56 70 10 3f
       -0.433077 0.92726177 0.03572423 0.5642141
000390 24 43 86 bf fd 46 5c bf 1f 3f 0f 3f ab 03 e8 bf
       -1.048924 -0.8604582 0.5595569 -1.8126119
0003a0 bb 2f b1 bf b1 76 8e bf 23 c1 84 bf 61 b5 0b 3f
       -1.3842691 -1.1129972 -1.0371441 0.5457364
0003b0 08 18 23 40 0b 1d 2e 3f aa 5f 7e be dc 5a bd bf
       2.5483418 0.68013066 -0.2484118 -1.4793353
0003c0 ce e5 2d 3e 19 66 03 3e 00 83 51 bf 54 0e bc 3f
       0.16982195 0.12831916 -0.81840515 1.4691873
0003d0 8c a0 57 bf 70 ec af 3e 17 2f 8a bd ae a8 c6 3e
       -0.8422935 0.34360075 -0.06747263 0.38800567
0003e0 b8 ca fb be 65 84 22 3e be 97 db 3e 66 f5 60 3f
       -0.491781 0.15870817 0.42889208 0.8787445
0003f0 83 c5 32 bf e1 49 8a 3f 07 e7 0a 3f 94 53 33 bf
       -0.6983263 1.0803796 0.5425877 -0.70049405

encoder.trans_linear.weight f4 [40, 5]
000000 57 9a a3 be 62 a0 55 3d 6c e3 be be 50 e0 d3 3d
       -0.3195369 0.052154906 -0.37282884 0.103455186
000010 86 b0 d8 3d 5f 8f b8 3e 30 a9 48 be 69 a0 c5 3e
       0.10580544 0.36046883 -0.1959579 0.38598946
000020 64 52 3f 3e af 71 33 3e a0 13 d3 be f5 9f 89 3e
       0.18683773 0.17523836 -0.4122591 0.2687985
000030 e5 1d 4b be a7 08 a9 be 04 4b 9e 3e b1 2c 5c 3e
       -0.19835623 -0.33014414 0.30916607 0.21501423
000040 bf d6 23 3f 19 27 3c 3e f8 b0 bd be 8c 3d 27 be
       0.6399955 0.1837429 -0.3704908 -0.16332072
000050 c7 52 74 3e 3d 3c 36 3e b0 f3 25 3d 4e a9 84 be
       0.23859702 0.17796417 0.0405156 -0.2591042
000060 35 df 90 3d 41 86 11 bd 61 67 20 3f de 12 09 3e
       0.07073823 -0.035528425 0.62657744 0.13386104
000070 4e 5a 86 be 18 f0 0c 3e 93 45 4a be 3d 08 d6 be
       -0.26240772 0.13763463 -0.19753103 -0.4180316
000080 c9 bc b6 bc ac f5 52 be 34 0e 85 be 0a 36 71 bd
       -0.022306817 -0.20601529 -0.259874 -0.058889426
000090 be 2d db be 59 ae b7 3e cd 0b a3 3c d3 02 37 bd
       -0.42808336 0.35875204 0.019903088 -0.044680428
0000a0 9b 37 8e be b5 ad 18 3f 0e f6 51 be 79 4c 71 be
       -0.277768 0.59640056 -0.20504019 -0.23564328
0000b0 67 f9 ea 3d 24 2a 9f bd 79 7a 02 3f 63 a9 d0 bd
       0.11473351 -0.077717096 0.5096813 -0.10188558
0000c0 4b e9 57 3e b5 85 d6 be 3c 81 99 3e 8c f8 0f bf
       0.21085088 -0.41898885 0.2998141 -0.5623863
0000d0 e8 54 a6 be 3e 6a 8a bd a3 a8 60 3e 70 d7 03 be
       -0.32486653 -0.06758545 0.2193933 -0.12875152
0000e0 e5 96 ac 3e 71 4d 72 3e ed 8b 49 be e4 30 65 3e
       0.33708873 0.23662354 -0.19682284 0.22381932
0000f0 b5 f7 9e be b0 7b 15 3a 4f 1b 59 3e bd 72 28 be
       -0.3104836 0.000570233 0.21201824 -0.16450019
000100 d3 73 8e be 07 07 dc be b4 97 42 bf bc 36 d7 3d
       -0.27822742 -0.4297411 -0.7601273 0.10508487
000110 10 9a 44 be 41 8e 62 3e 95 a7 49 3e f8 c6 ff 3e
       -0.19199395 0.22124578 0.19692834 0.4995649
000120 89 69 c2 be af 95 c6 3d f5 8b e4 bd 18 14 08 3e
       -0.37971142 0.09696519 -0.11159507 0.13288915
000130 19 ff 2a be a4 e5 3a 3d d3 ce c9 bd ca fe 72 be
       -0.16698875 0.04562916 -0.09853902 -0.23730007
000140 5c 6d 65 be 74 f6 94 be 26 8a ea 3b 54 79 6c be
       -0.22404999 -0.2909428 0.007157582 -0.23093158
000150 98 25 93 3d 5d 4a fc 3c cc 2a 28 bf 88 cc b1 be
       0.07184905 0.030797178 -0.656903 -0.34726357
000160 cf 38 cb 3e e8 bb b5 3e 43 f2 cb be 04 12 ca bd
       0.3969178 0.35494924 -0.3983327 -0.098667175
000170 22 75 4f be aa f2 89 3e dc df 0d 3d 1d 71 93 be
       -0.20259526 0.2694295 0.034637317 -0.28797236
000180 5c 8c 1e be 0d 6c 5c be f2 90 86 3d da 1c 99 3e
       -0.1548323 -0.21525593 0.06570615 0.29904824
000190 af 63 21 3e 55 7f b0 3e 53 87 b1 bd ac 60 12 be
       0.15760683 0.34472147 -0.08668389 -0.1429469
0001a0 02 9c 72 be 49 74 93 be 31 73 42 bd 61 b1 6d bd
       -0.23692325 -0.28799656 -0.047473136 -0.05803049
0001b0 fb 7a af be 47 92 34 be 28 a1 f9 bc 9f d6 ba 3d
       -0.34273514 -0.17633925 -0.030472353 0.09122967
0001c0 d7 a0 1b bc 08 fc e8 bd 22 ab 43 3e a8 af 21 bd
       -0.009498796 -0.11376196 0.1910825 -0.03947416
0001d0 c4 95 aa 3e 38 22 bf be ae 91 cd bd dd 93 85 3c
       0.33317387 -0.37330794 -0.10037552 0.016305858
0001e0 c9 5e 68 3e 18 50 5a 3e a8 8e 19 3e 0f eb bd bb
       0.22692408 0.21319616 0.14995825 -0.0057958434
0001f0 4f c2 48 be f2 47 88 be 24 54 b3 3e 02 1e d6 bd
       -0.19605373 -0.2661739 0.35025132 -0.10454942
000200 94 28 0a bd 7e 7a a6 bd 4f 06 8d be 46 05 25 3c
       -0.033730105 -0.08128832 -0.27543876 0.010072058
000210 8d 59 a4 be d6 3c 9e bd 89 73 96 be 7d 40 1c be
       -0.32099572 -0.07726447 -0.2938502 -0.15258975
000220 ca 11 29 3e 41 a6 bd be 25 cc d8 be b1 66 58 3d
       0.16510692 -0.37040904 -0.4234325 0.05283231
000230 62 aa 29 3e 9f 4d b1 3e 3b 36 c4 3d 8c 90 c3 bd
       0.16568902 0.34629533 0.09580656 -0.095490545
000240 06 34 97 be 95 25 4b bc e6 0e c2 3e 27 2d 3d 3e
       -0.29531878 -0.012399097 0.37901992 0.18474256
000250 e1 dd a0 be 66 29 dd be 89 75 86 bc 41 8e f8 be
       -0.3141928 -0.43195647 -0.016413467 -0.4854603
000260 90 e8 05 3f 42 78 89 be 73 77 da 3b bd f5 c1 be
       0.5230799 -0.26849562 0.0066670715 -0.37882796
000270 89 fd 15 bf 95 8f 89 3e 04 78 81 bd ec 9a 90 3d
       -0.5858999 0.26867357 -0.06321719 0.07060799
000280 45 7b 3a be fa d1 c6 3e a2 31 b8 3d 19 6b 3c be
       -0.18211086 0.38832074 0.08993842 -0.1840023
000290 2d f2 45 3d cf 75 b8 bd 67 d4 a6 be eb b6 a7 be
       0.04832666 -0.09006845 -0.32583925 -0.32756743
0002a0 a0 ef 98 be 29 93 93 3c 11 20 28 be ef 3e a9 3c
       -0.2987032 0.018014507 -0.16418482 0.020659892
0002b0 57 d1 d7 bd 35 3d 10 be 27 f7 49 3e a5 b7 03 be
       -0.10537975 -0.14085849 0.19723187 -0.12863024
0002c0 e4 a5 31 3e 0b 4e a9 be a9 a2 b1 bd 2a f6 a7 bd
       0.17348439 -0.33067355 -0.08673603 -0.08201249
0002d0 5c 03 e7 be ff 26 cb be 93 d6 0f 3e 35 99 c9 3d
       -0.4511975 -0.3967819 0.14046697 0.09843675
0002e0 12 45 68 be ed aa a9 3d cd 19 a1 3e 7e 11 81 3d
       -0.22682598 0.08284555 0.31464997 0.063021645
0002f0 71 ef 12 be e5 dd a7 3e d6 fe ee 3e 2a 2b f2 3d
       -0.14349152 0.3278648 0.466788 0.11824639
000300 55 57 3a be 6e df 66 be 9d 94 26 be d7 ec 53 be
       -0.18197377 -0.22546169 -0.16267629 -0.20695816
000310 3b 89 a4 bc 05 c9 ad be 48 b9 cb be 42 c9 93 3e
       -0.020084968 -0.33942428 -0.39789796 0.28864485

encoder.trans_linear.bias f4 [40]
000000 f4 88 07 3e 8c d4 94 bd 25 3f 2c ba ed 0f a4 3e
       0.13235837 -0.072671026 -0.00065706886 0.320434
000010 b2 bc 03 be a9 19 2f be f9 c4 ac 3e 6c 21 f2 be
       -0.1286495 -0.17099632 0.33744028 -0.47291124
000020 ab 07 01 3f 4e db b7 be 68 d6 76 bc 37 f0 7b be
       0.50402325 -0.35909504 -0.015065767 -0.24603353
000030 30 28 f6 be 3e f4 18 3e 14 bd e6 bc 05 f7 96 bd
       -0.48077536 0.14936921 -0.028166331 -0.07371334
000040 de bd d1 bd bc 3e 91 3e cd aa 50 bd 80 aa 6f be
       -0.102412924 0.28368175 -0.05094414 -0.23404884
000050 98 c5 96 3e d5 fd b9 be 1c 73 58 ba e5 03 de be
       0.29447627 -0.3632647 -0.0008256899 -0.43362346
000060 c0 95 03 3f 1d 44 02 bf a4 09 9e be d1 ff ce bb
       0.51400375 -0.5088518 -0.3086673 -0.006317117
000070 07 6a d1 3c 65 9b b1 be 0c 55 82 bd b0 8b 84 3e
       0.025563253 -0.3468887 -0.06363878 0.25887823
000080 c6 b1 0e 3d c7 74 74 3e 07 45 31 bd 5f 8e fd 3d
       0.034837507 0.23872672 -0.04327872 0.12380671
000090 e2 e8 de 3e f7 3e 8a 3e 04 e8 9b be b7 34 6b bd
       0.4353705 0.27001163 -0.3045045 -0.05742332

encoder.conv_mu.bias f4 [20]
000000 8a 9a 02 be 24 b0 42 be 15 50 9c be 2f 10 3f be
       -0.12754264 -0.19012505 -0.30529848 -0.18658517
000010 07 a0 fa bd b1 d4 26 be dc 41 9a 3e 8e 27 bc 3d
       -0.12237554 -0.16292073 0.30128372 0.09187232
000020 e1 0d 01 3e 41 28 a1 3d ed 12 a8 be f2 eb 42 3e
       0.1260295 0.07869006 -0.3282694 0.19035318
000030 a4 56 81 3d 5c e4 3a bd 8d 5c 13 be d7 03 76 3e
       0.063153535 -0.045627937 -0.14390774 0.24024902
000040 e5 06 eb 3d ef 7c f5 3d 61 59 3e be 53 e8 25 3d
       0.114759244 0.1198672 -0.18588783 0.040504765
