results/model_GCN/graph_split_/layers_8/transform_False/alpha_0.0/model.pt (torch, 63736 bytes, 21 tensors)

encoder.conv.convs.0.bias f4 [40]
0.043329906 -0.034800667 0.056778602 -0.0290108 0.11424099 0.08902707 -0.0326006 0.055250745
-0.06840862 -0.002405801 0.1292204 0.058303103 0.05649285 0.032233596 0.028230436 0.059457395
0.03196884 -0.011220153 -0.019370636 0.004236286 0.06879369 0.06966672 0.113253586 -0.005204588
0.062682234 0.033176474 -0.0022768015 0.117489606 0.12483258 -0.08429154 0.11643971 0.01542397
0.013348968 0.01768073 -0.030521262 0.0569585 0.13964586 0.051811676 0.0542109 -0.0017454275
00000000: b37a 313d 258b 0ebd ae90 683d 0fa8 edbc
00000010: 2ef7 e93d d353 b63d 3588 05bd 9b4e 623d
00000020: d219 8cbd a5aa 1dbb 5a52 043e 3ccf 6e3d
00000030: 0c65 673d 6007 043d 8443 e73c 9989 733d
00000040: c2f1 023d bcd4 37bc 2baf 9ebc 8bd0 8a3b
00000050: b5e3 8c3d 6dad 8e3d 7ff1 e73d 408b aabb
00000060: 8b5f 803d 0ee4 073d 6436 15bb 649e f03d
00000070: 39a8 ff3d 0ba1 acbd f177 ee3d d2b4 7c3c
00000080: a1b5 5a3c 2ed7 903c ba07 fabc 514d 693d
00000090: 53ff 0e3e 7b38 543d 400c 5e3d d4c6 e4ba

encoder.conv.convs.0.lin.weight f4 [40, 40]
-0.0740218 -0.14321215 -0.16771062 0.035367332 0.07433804 -0.17136006 -0.17584278 0.027770087
0.12833291 0.09065014 0.05133471 0.4343114 -0.24398787 -0.031359803 -0.32498366 0.15926868
0.12487216 0.24708426 -0.27610332 0.06274801 -0.09833931 -0.3658304 0.21059172 -0.1393057
-0.288492 0.117745675 0.044545025 -0.22348264 0.009196041 0.017821837 -0.10876485 0.3930449
0.15649013 0.0017777123 -0.119715825 0.01541434 0.64057463 0.048610944 0.21957935 -0.03545166
0.23696473 0.18141332 0.13872993 -0.2374408 0.21210836 -0.073101886 -0.15400454 -0.098816484
-0.117499985 -0.24716549 -0.00925138 -0.31018904 0.056695525 0.27268028 0.14762631 -0.14720154
0.16488133 -0.21080646 0.17888021 0.07449707 -0.22327296 0.36406732 0.25265887 0.14511003
0.24305926 0.0962167 0.22684474 0.18993288 0.047292672 -0.28207052 -0.0075080525 0.015487857
0.0053089173 0.058570523 -0.14760675 0.1520917 -0.19876724 -0.28975406 -0.15459622 -0.0935977
-0.059913464 0.19220911 0.1681516 0.29579544 0.41014624 0.047990967 -0.14543863 0.35846278
-0.15583418 0.16664964 0.042554606 0.262577 -0.11253804 -0.17465103 0.028698327 0.38020575
0.26036078 0.0884249 -0.18733142 0.24936442 0.23446555 0.013280338 0.14530842 0.19325007
0.24996431 0.09823331 0.14512868 -0.21855284 0.26599708 0.16723175 0.19550788 0.26291516
0.09191124 0.110287234 0.035315815 -0.25752425 0.29999536 -0.042427644 0.009203368 -0.19123538
-0.005853786 -0.024029039 0.08731291 0.24392058 0.11598726 0.00059288146 -0.23347977 0.011054147
-0.004147441 -0.16328515 -0.053548157 -0.14225878 0.1775355 0.047369145 -0.21860684 -0.07916983
0.16750345 -0.25622216 -0.0069923084 -0.033952538 -0.093950495 0.14258578 0.016308654 -0.0906868
0.029432766 -0.23820283 -0.051616453 -0.0507275 -0.07900365 -0.21643654 -0.24631315 0.02289241
0.19245708 -0.056548115 0.2997244 0.064662375 -0.10289386 0.20879544 -0.016128687 -0.0585902
-0.16803779 -0.29525095 0.010286036 0.010224331 -0.09349652 -0.0069960193 0.16355292 -0.14299336
-0.48726413 -0.054166716 0.12217977 0.043138932 -0.1655691 0.18712023 -0.11322546 -0.2368137
0.03365997 0.037684515 0.09784979 0.036725175 0.14942794 0.12480576 0.25857875 0.22730313
-0.51202345 0.08739613 -0.22479719 0.009322186 0.20552666 0.15724714 -0.031433813 0.29857334
-0.10977474 0.46454763 0.31901836 0.04800292 -0.32411173 -0.08222652 0.19839896 -0.23658666
0.022184068 0.08325908 -0.08653234 -0.33591124 0.067206 0.10967087 -0.17004675 0.3969336
-0.20828943 -0.30635503 0.038972832 0.24520245 0.5104835 0.16579555 0.074423835 -0.14103463
0.18942703 -0.090468906 -0.3820753 -0.37186703 -0.036074724 -0.015676176 -0.31375492 -0.24004987
0.042931747 0.17950775 0.18667857 0.037177455 0.17479216 0.0803598 -0.12000089 0.18662673
0.23970634 0.09736738 -0.52662706 -0.2159426 0.37882265 -0.13619088 0.120629184 -0.02539299
0.17727971 0.03793334 0.03511902 0.122066736 -0.13929231 -0.11513237 0.022296894 0.16208005
-0.20766266 0.16512257 0.1616045 0.25121576 0.077275895 -0.016284803 -0.010172391 -0.095850535
00000000: be98 97bd 35a6 12be 55bc 2bbe 56dd 103d
00000010: 8b3e 983d 0379 2fbe 2110 34be 187e e33c
00000020: b469 033e c8a6 b93d 5844 523d 105e de3e
00000030: f5d7 79be 2373 00bd 4264 a6be 5417 233e
00000040: fabc ff3d a803 7d3e 6a5d 8dbe 0782 803d
00000050: 1f66 c9bd 1f4e bbbe 5ba5 573e 27a6 0ebe
00000060: 39b5 93be a524 f13d d874 363d a2d8 64be
00000070: feaa 163c 1aff 913c 1bc0 debd 2e3d c93e
00000080: f33e 203e 2002 e93a 922d f5bd 6e8c 7c3c
00000090: b3fc 233f 451c 473d 69d9 603e c335 11bd
000000a0: e2a6 723e 6ac4 393e 380f 0e3e ae23 73be
000000b0: ef32 593e 71b6 95bd 5eb3 1dbe 4c60 cabd
000000c0: d5a3 f0bd f318 7dbe 1a93 17bc 19d1 9ebe
000000d0: 9139 683d c09c 8b3e 5a2b 173e 00bc 16be
000000e0: a7d6 283e a6dd 57be 602c 373e eb91 983d
000000f0: aba1 64be 0867 ba3e 815c 813e b997 143e
00000100: 87e4 783e 430d c53d fd49 683e c47d 423e
00000110: f6b5 413d 8c6b 90be 1c06 f6bb c8c0 7d3c
00000120: 6df6 ad3b a5e7 6f3d 3926 17be edbd 1b3e
00000130: a489 4bbe a55a 94be 794e 1ebe 27b0 bfbd
00000140: d267 75bd 77d2 443e ef2f 2c3e 8072 973e
00000150: b0fe d13e 2d92 443d dded 14be 6f88 b73e
00000160: ff92 1fbe 34a6 2a3e bd4d 2e3d 7e70 863e
00000170: 587a e6bd b8d7 32be c118 eb3c 54aa c23e
00000180: 024e 853e 1d18 b53d cfd3 3fbe 6359 7f3e
00000190: bd17 703e c695 593c bbcb 143e 59e3 453e
000001a0: a5f6 7f3e 8c2e c93d 9d9c 143e 51cc 5fbe
000001b0: c530 883e cd3e 2b3e 3833 483e d19c 863e
000001c0: f63b bc3d 46de e13d 51a7 103d 38da 83be
000001d0: fe98 993e 9cc8 2dbd b9c9 163c 35d3 43be
000001e0: 1ed1 bfbb 8cd8 c4bc 1cd1 b23d 51c6 793e
000001f0: bb8a ed3d 9a6b 1b3a 5215 6fbe 741c 353c
00000200: 42e7 87bb 3934 27be 5055 5bbd 49ac 11be
00000210: decb 353e 2606 423d 79da 5fbe cb23 a2bd
00000220: 0686 2b3e 8d2f 83be bc1f e5bb d111 0bbd
00000230: 1e69 c0bd 0202 123e ba99 853c 00ba b9bd
00000240: fc1c f13c 71eb 73be c66b 53bd a4c7 4fbd
00000250: aacc a1bd 8aa1 5dbe 8439 7cbe dd88 bb3c
00000260: 7813 453e ff9e 67bd 7a75 993e b56d 843d
00000270: 04ba d2bd 79ce 553e 4f20 84bc 47fc 6fbd
00000280: 1912 2cbe 222b 97be c386 283c f483 273c
00000290: 1a7b bfbd dd3e e5bb 6b7a 273e da6c 12be
000002a0: af7a f9be ebdd 5dbd 6339 fa3d 73b2 303d
000002b0: f28a 29be 729c 3f3e c0e2 e7bd 4a7f 72be
000002c0: 09df 093d 145b 1a3d 7865 c83d 236d 163d
000002d0: a303 193e 2a9a ff3d 6f64 843e 27c2 683e
000002e0: f813 03bf befc b23d 3c31 66be 15bc 183c
000002f0: 9575 523e 6505 213e bec0 00bd 9bde 983e
00000300: 94d1 e0bd 30d9 ed3e 6056 a33e b69e 443d
00000310: f9f1 a5be 6166 a8bd 1929 4b3e c643 72be
00000320: 5dbb b53c bd83 aa3d de37 b1bd 8ffc abbe
00000330: 4da3 893d 1f9b e03d bc20 2ebe e13a cb3e
00000340: d349 55be 91da 9cbe faa1 1f3d 5a16 7b3e
00000350: 0caf 023f 4fc6 293e 866b 983d 626b 10be
00000360: 29f9 413e c347 b9bd 609f c3be 5b65 bebe
00000370: 17c3 13bd 536b 80bc 7ca4 a0be a2cf 75be
00000380: 33d9 2f3d e1d0 373e ab28 3f3e 6347 183d
00000390: b7fc 323e ae93 a43d 07c3 f5bd 141b 3f3e
000003a0: 9475 753e 8d68 c73d 08d1 06bf 0f20 5dbe
000003b0: 0bf5 c13e 9f75 0bbe 6f0c f73d f604 d0bc
000003c0: d088 353e fd5f 1b3d f6d8 0f3d 20fe f93d
000003d0: a5a2 0ebe 85ca ebbd faa7 b63c 50f8 253e
000003e0: 85a5 54be e415 293e a67b 253e 5a9f 803e
000003f0: d342 9e3d b567 85bc 1aaa 26bc 494d c4bd

encoder.conv.convs.1.bias f4 [40]
-0.019403651 -0.038272165 0.031056624 0.07731091 0.015594218 0.062419392 0.0030403128 0.033891905
0.14179704 -0.027599271 -0.037917737 -0.047478266 0.061981 0.15295148 -0.07982268 0.0025528448
0.016201036 0.008323527 0.06134495 -0.011633206 -0.0019149547 0.047276586 0.083474256 -0.031275805
0.053824317 -0.014771854 0.116708696 0.08441558 0.036233563 -0.02434466 -0.0037441098 0.06330937
0.025918236 0.005375881 -0.005018018 -0.047326155 -0.17587362 -0.041715953 -0.030850276 0.05262967
00000000: 68f4 9ebc 46c3 1cbd 766a fe3c 2f55 9e3d
00000010: e47e 7f3c 7aab 7f3d fc3f 473b 3dd2 0a3d
00000020: 3e33 113e de17 e2bc a14f 1bbd 9278 42bd
00000030: cadf 7d3d 509f 1c3e 137a a3bd a14d 273b
00000040: 09b8 843c 675f 083c d844 7b3d 3499 3ebc
00000050: 38ff faba 18a5 413d 8df4 aa3d 0f1b 00bd
00000060: e376 5c3d a505 72bc f804 ef3d 13e2 ac3d
00000070: a569 143d 746e c7bc bd5f 75bb 58a8 813d
00000080: 7b52 d43c 2928 b03b 306e a4bb 12d9 41bd
00000090: 3718 34be 59de 2abd b8b9 fcbc 3592 573d

encoder.conv.convs.1.lin.weight f4 [40, 40]
0.2366905 0.005853647 -0.13673308 0.04506058 0.22229438 0.18613945 0.07520979 -0.24365622
-0.12239934 0.088466704 -0.25314412 -0.11111743 -0.09464326 -0.1514206 -0.024231717 -0.13838194
0.07122347 -0.30935618 0.28252387 -0.28352347 0.0725639 -0.012433384 0.21195902 -0.1749664
-0.2108508 -0.20834015 0.08198987 -0.22797734 -0.29959092 -0.30401418 -0.10451718 -0.024770306
-0.06770161 0.1248057 0.13029282 -0.27578652 -0.20519257 -0.27249554 -0.12589194 -0.024647119
-0.605135 0.1348247 0.20153527 0.18427892 -0.023459466 -0.26796782 0.14369114 0.43042472
0.26276493 0.4772494 -0.17280164 -0.1286964 -0.044181954 0.31593898 0.23715302 0.23776285
0.18063053 0.32653537 -0.06909004 0.025401682 -0.04526565 0.23893352 -0.23489197 -0.28267875
-0.06392389 -0.4273069 -0.036574453 0.11314983 -0.5626066 0.23517244 0.09227407 -0.106403336
-0.22696422 0.1685581 0.078245625 -0.091240905 0.34732363 0.14683747 -0.048138525 -0.22142303
0.0749316 -0.30826175 -0.15132932 -0.078833446 0.28716552 -0.2412833 0.13540488 0.048673283
0.15367204 -0.008802011 0.02338087 0.115616456 0.23373125 -0.09925227 -0.1428378 -0.003932728
-0.21918128 -0.17049704 0.1330525 0.015334472 0.54568774 0.36199778 -0.35925937 0.22766297
0.05652554 -0.28416455 0.18166934 0.23980589 0.10134098 -0.2485807 -0.25859758 -0.072590895
0.2508896 0.12522855 -0.20865242 -0.283028 0.58269966 -0.14849043 0.21799956 0.13247089
0.31148514 0.15319644 0.3272121 0.18803392 -0.2669177 0.18536235 0.23908363 -0.14375235
-0.14304718 0.21146159 0.119616 0.14307143 0.19729392 0.25387478 0.19455601 0.29295316
0.039598987 0.23762293 -0.18505053 0.010857562 -0.28860947 -0.22114106 0.024811583 0.0031496966
-0.32726392 0.16583931 0.12845881 0.01789119 -0.15319347 0.13962664 -0.27543807 -0.20120531
0.066963345 -0.17681912 -0.09146902 0.38135746 -0.27672532 0.0866838 0.1710382 -0.14357351
-0.24224758 0.19928983 0.11812412 0.28331494 0.084091276 0.043873537 0.01518225 -0.33178306
0.064129785 0.36345193 -0.1625162 0.11774887 0.016927749 -0.0636214 0.06084255 0.15558982
-0.2596395 -0.010589228 -0.070093706 -0.03542385 0.31400046 0.18337604 -0.19145918 0.02662655
-0.26743677 -0.3740894 0.20497483 -0.1284813 -0.15840171 0.11125021 -0.09193873 0.21924292
0.28328624 0.029937483 0.24648795 -0.3521481 0.08914436 -0.22402579 0.19906038 -0.10496055
0.124759 0.28866276 -0.15017739 -0.02276797 -0.34463203 -0.019588234 -0.23863633 -0.03969686
-0.24481437 -0.020755019 0.0831726 -0.36684787 -0.29782704 -0.0686838 -0.054039482 0.3382524
-0.22289972 -0.18742886 -0.19555913 0.12237095 0.011029735 0.28907523 0.018099688 -0.1037355
-0.2809794 0.0128545845 0.088185884 -0.21360137 -0.30921867 0.2529205 -0.2828504 0.1294699
0.26335925 -0.03129078 -0.14891104 0.33133432 0.12537582 -0.13316777 -0.07931176 -0.052165724
-0.03506107 0.09920524 -0.20872627 -0.17316985 0.097364865 0.0048675234 0.12338241 -0.35581982
-0.21173768 0.22910643 -0.16772778 0.11220881 0.25262597 0.028641125 -0.12167597 -0.05684173
00000000: ff5e 723e f3cf bf3b c203 0cbe 7191 383d
00000010: 23a1 633e 579b 3e3e 9707 9a3d 0481 79be
00000020: 81ac fabd 082e b53d 1b9c 81be 8991 e3bd
00000030: 53d4 c1bd 000e 1bbe 9881 c6bc ffb3 0dbe
00000040: 9cdd 913d ef63 9ebe f8a6 903e fd29 91be
00000050: 629c 943d 64b5 4bbc c90b 593e 642a 33be
00000060: 46e9 57be 1f57 55be 4eea a73d e472 69be
00000070: fb63 99be bfa7 9bbe 1a0d d6bd 19eb cabc
00000080: 24a7 8abd 219a ff3d 7b6b 053e e433 8dbe
00000090: 001e 52be 8984 8bbe d1e9 00be c1e8 c9bc
000000a0: 21ea 1abf 7c0f 0a3e 435f 4e3e 9db3 3c3e
000000b0: 112e c0bc 1433 89be c523 133e a160 dc3e
000000c0: 2089 863e 095a f43e eaf2 30be fdc8 03be
000000d0: 23f8 34bd c1c2 a13e 3ed8 723e 1b78 733e
000000e0: 36f7 383e a52f a73e 147f 8dbd 3017 d03c
000000f0: 7968 39bd fdaa 743e 8587 70be 45bb 90be
00000100: 87ea 82bd f8c7 dabe 18cf 15bd 19bb e73d
00000110: fc06 10bf 0bd1 703e 30fa bc3d fee9 d9bd
00000120: 4f69 68be 7f9a 2c3e 3e3f a03d 83dc babd
00000130: 67d4 b13e 905c 163e e72c 45bd b8bc 62be
00000140: bd75 993d 7cd4 9dbe 13f6 1abe 6e73 a1bd
00000150: 5c07 933e f812 77be 94a7 0a3e a35d 473d
00000160: 345c 1d3e 4f36 10bc 3d89 bf3c 52c8 ec3d
00000170: 3f57 6f3e c644 cbbd 1244 12be 1dde 80bb
00000180: 0f71 60be c796 2ebe ea3e 083e 703d 7b3c
00000190: 31b2 0b3f c657 b93e d8f0 b7be 7b20 693e
000001a0: 5387 673d 047e 91be 8707 3a3e ad8f 753e
000001b0: dc8b cf3d f08b 7ebe e766 84be 89aa 94bd
000001c0: 9a74 803e ea3b 003e fba8 55be 0ce9 90be
000001d0: ce2b 153f e00d 18be 473b 5f3e 73a6 073e
000001e0: fb7a 9f3e 87df 1c3e 5888 a73e f78b 403e
000001f0: 70a9 88be a1cf 3d3e 57d2 743e d133 13be
00000200: f67a 12be 6389 583e 3cf9 f43d 5181 123e
00000210: 6b07 4a3e e0fb 813e b139 473e f5fd 953e
00000220: 8c32 223d 6d53 733e e37d 3dbe eae3 313c
00000230: 9fc4 93be cd72 62be a941 cb3c 246b 4e3b
00000240: 238f a7be c8d1 293e b58a 033e 8b90 923c
00000250: c0de 1cbe 49fa 0e3e 3806 8dbe c408 4ebe
00000260: 1424 893d 1210 35be 1c54 bbbd 4941 c33e
00000270: f1ae 8dbe 4787 b13d a324 2f3e ef04 13be
00000280: c00f 78be a212 4c3e 0feb f13d a80e 913e
00000290: 0c38 ac3d bdb4 333d f9be 783c 78df a9be
000002a0: 7a56 833d 5f16 ba3e a66a 26be 5226 f13d
000002b0: 10ac 8a3c f04b 82bd 0a36 793d f052 1f3e
000002c0: 78ef 84be 717e 2dbc 4a8d 8fbd 9918 11bd
000002d0: abc4 a03e eec6 3b3e e00d 44be ec1f da3c
000002e0: 79ed 88be a588 bfbe ece4 513e 9a90 03be
000002f0: 0f34 22be 26d7 e33d 5f4a bcbd 3781 603e
00000300: e50a 913e 743f f53c 5667 7c3e c14c b4be
00000310: 5191 b63d 0467 65be 7cd6 4b3e 8ff5 d6bd
00000320: a681 ff3d 9bcb 933e 1ac8 19be e583 babc
00000330: 9c73 b0be 8177 a0bc 155d 74be 2d99 22bd
00000340: 9eb0 7abe 6e06 aabc 6556 aa3d 7cd3 bbbe
00000350: c97c 98be 18aa 8cbd 8158 5dbd 6b2f ad3e
00000360: d33f 64be 5aed 3fbe a740 48be 9f9d fa3d
00000370: 10b6 343c ab01 943e cc45 943c 4773 d4bd
00000380: 88dc 8fbe 099c 523c cd9a b43d 51ba 5abe
00000390: e951 9ebe cc7e 813e c5d1 90be c293 043e
000003a0: 06d7 863e c32a 00bd 237c 18be a7a4 a93e
000003b0: 8562 003e 225d 08be 346e a2bd baab 55bd
000003c0: 329c 0fbd 1e2c cb3d 57bc 55be 7053 31be
000003d0: 3b67 c73d bf7f 9f3b ebaf fc3d 042e b6be
000003e0: c3d1 58be e09a 6a3e d5c0 2bbe bccd e53d
000003f0: 3158 813e cba0 ea3c 4031 f9bd e0d2 68bd

encoder.conv.convs.2.bias f4 [40]
0.056454353 0.14902486 -0.0012867905 -0.120486304 0.008647025 0.03011635 -0.016407145 -0.010811403
-0.06578272 0.09797737 -0.1102622 0.099931896 0.07608556 0.03724184 0.045278296 -0.11715893
-0.01005717 0.04988049 -0.02773582 -0.0542693 -0.057239596 0.067272805 -0.024033025 -0.0844949
0.106122725 -0.00812865 0.05438818 0.087774694 -0.02574061 0.035262626 0.041917168 0.1216309
0.0 0.0 -0.14432232 0.005989295 0.023098502 -0.027316066 -0.030999707 0.0033582053
00000000: ae3c 673d f999 183e 86a9 a8ba 86c1 f6bd
00000010: 40ac 0d3c 90b6 f63c 4768 86bc 5022 31bc
00000020: 17b9 86bd 5ca8 c83d 26d1 e1bd 18a9 cc3d
00000030: bfd2 9b3d e68a 183d bc75 393d 05f1 efbd
00000040: d4c6 24bc 7c4f 4c3d 3b36 e3bc 7c49 5ebd
00000050: 1174 6abd 53c6 893d e8e0 c4bc aa0b adbd
00000060: df56 d93d 072e 05bc 24c6 5e3d 38c3 b33d
00000070: f9dd d2bc 8b6f 103d 56b1 2b3d 9f19 f93d
00000080: 0000 0000 0000 0000 3bc9 13be d941 c43b
00000090: 1239 bd3c f1c5 dfbc 19f3 fdbc 5615 5c3b

encoder.conv.convs.2.lin.weight f4 [40, 40]
0.20613432 -0.012216056 0.13575828 0.23945476 0.22471265 -0.14992484 -0.092826165 -0.15900277
-0.34597072 -0.035359345 0.21259329 0.31318298 -0.081486456 -0.21257214 0.09979534 0.08388541
0.1944445 0.0032792338 0.32271174 -0.22300468 -0.19222641 0.19453992 -0.24647734 0.106706604
0.43472573 0.13906881 0.064695284 -0.20007163 0.2148933 0.20671402 0.28873605 0.2827426
0.022547351 -0.06941455 0.01921209 0.19102366 -0.03175189 0.16842808 0.14937311 0.19350202
-0.013103358 0.029957525 0.048761543 0.16116619 -0.18106379 -0.11889015 -0.08240305 -0.052542437
0.4543007 -0.12015057 -0.04134255 -0.032939807 -0.025609557 0.15551853 -0.23264922 0.31437743
0.29524952 0.05602686 0.06371939 -0.30305752 0.3409756 0.25625634 0.2540826 -0.3046695
0.116636634 -0.14218186 0.15144426 -0.06511687 -0.16029333 -0.18157858 -0.080989964 -0.1312177
-0.014471158 -0.14818771 -0.12675513 0.21699291 -0.6590791 0.046423517 -0.010713909 0.07875356
-0.023298666 0.280984 -0.11589516 0.25426748 0.12920551 0.04035037 0.0067884326 0.10017109
-0.21148404 -0.31676844 -0.16856067 -0.01629065 0.005163797 -0.32517314 0.12828365 -0.18305574
-0.060638055 0.0733603 -0.124768205 -0.43097878 0.004952851 0.16019253 -0.2171744 0.35661536
0.15617554 -0.1697061 -0.054261398 -0.1262545 0.22449198 0.27375215 0.19989738 -0.044002667
0.03640213 -0.29267836 -0.06400871 0.29742712 -0.34943476 0.30542818 -0.09152802 0.21833815
0.20847999 0.115550496 -0.26375368 -0.28482476 -0.81631565 0.21801992 0.1461531 -0.09375908
0.18777248 -0.37019998 -0.3465214 -0.38944924 -0.20824248 -0.132144 0.15067136 0.23201254
-0.5293843 0.06957786 -0.08224831 0.30999145 0.038386226 0.09202408 -0.06776117 0.033587042
0.41074997 0.21829352 -0.39642948 -0.04010796 0.00836995 0.32072535 0.34110802 -0.18553197
0.02307025 0.10388296 -0.27459475 -0.47754323 0.32975802 0.061558876 -0.06787912 0.14493906
-0.23133133 -0.10681437 0.13038193 0.27132902 -0.111096 0.1554416 0.09375283 -0.22827992
-0.1521344 0.05324406 -0.119229704 0.02855375 0.09965054 -0.018923476 -0.22680564 -0.050363
-0.20969255 0.18304677 0.028011685 0.005450545 0.20300706 0.2090413 -0.05158303 -0.2862628
-0.016501192 -0.19441357 0.12235447 0.3002691 -0.19749877 -0.31282791 -0.07268537 0.20511305
0.5631568 -0.16771886 -0.17451747 0.036341004 0.06868067 -0.12611483 0.22222365 0.2231468
0.09342941 0.27278897 0.28252307 0.13955294 0.25657305 0.10285511 0.02124162 -0.10338142
-0.0719895 0.07114889 -0.07910621 0.19956185 0.011954829 -0.32319608 0.073686905 0.303451
0.2790437 0.16214614 0.18834874 -0.24139476 -0.11759295 -0.012926244 -0.011250547 0.04900823
0.34044722 -0.33001593 -0.15819791 -0.23468208 -0.038718335 -0.030021358 -0.333096 0.13733037
0.11954819 0.17533253 0.07792902 -0.03569969 -0.013144245 0.15483263 -0.26959312 -0.005205907
0.18055362 0.21444452 -0.2500808 -0.22146364 -0.2513185 -0.27011195 -0.059418935 0.15659416
-0.16724145 0.2595934 0.23799205 -0.06860946 0.111959554 -0.09722421 0.19798987 0.1828184
00000000: e014 533e da25 48bc 3804 0b3e a133 753e
00000010: 131b 663e e685 19be a51b bebd 9fd1 22be
00000020: 1323 b1be f6d4 10bd 0eb2 593e 8559 a03e
00000030: 5fe2 a6bd 83ac 59be 8061 cc3d 1dcc ab3d
00000040: 761c 473e 6ae8 563b 793a a53e 575b 64be
00000050: 00d7 44be 7935 473e 8e64 7cbe fe88 da3d
00000060: 5f94 de3e 0e68 0e3e f67e 843d 94df 4cbe
00000070: fd0c 5c3e d7ac 533e 36d5 933e a3c3 903e
00000080: 39b5 b83c 3729 8ebd ac62 9d3c b59b 433e
00000090: 450e 02bd 6978 2c3e 44f5 183e 6525 463e
000000a0: 78af 56bc 7c69 f53c 2fba 473d c008 253e
000000b0: c968 39be ae7c f3bd eec2 a8bd bd36 57bd
000000c0: 1a9a e83e 8111 f6bd ce56 29bd e4eb 06bd
000000d0: 22cb d1bc 4040 1f3e 993b 6ebe 14f6 a03e
000000e0: f22a 973e 6c7c 653d 507f 823d 5b2a 9bbe
000000f0: 5b94 ae3e 0834 833e 1d17 823e a4fd 9bbe
00000100: 30df ee3d 1f98 11be 3414 1b3e fe5b 85bd
00000110: ef23 24be bcef 39be 11de a5bd ef5d 06be
00000120: 7018 6dbc 85be 17be 19cc 01be 6433 5e3e
00000130: 68b9 28bf 9626 3e3d 6489 2fbc 8c49 a13d
00000140: d8dc bebc 23dd 8f3e 715a edbd 592f 823e
00000150: 734e 043e 6e46 253d 8071 de3b 8026 cd3d
00000160: 468f 58be 792f a2be 2b9b 2cbe f873 85bc
00000170: 1235 a93b 187d a6be ca5c 033e f772 3bbe
00000180: 9c5f 78bd ed3d 963d 7986 ffbd 40a9 dcbe
00000190: 874b a23b 8309 243e f762 5ebe 4a96 b63e
000001a0: 7bec 1f3e 70c7 2dbe 3341 5ebd dc48 01be
000001b0: 3ae1 653e 3e29 8c3e e6b1 4c3e 243c 34bd
000001c0: 661a 153d f0d9 95be 0017 83bd 5e48 983e
000001d0: 1de9 b2be 1561 9c3e 0b73 bbbd 0994 5f3e
000001e0: c77b 553e bda5 ec3d b90a 87be 8dd4 91be
000001f0: 10fa 50bf 9d40 5f3e 29a9 153e c304 c0bd
00000200: 6e47 403e da8a bdbe 416b b1be e465 c7be
00000210: 843d 55be c250 07be 9849 1a3e b294 6d3e
00000220: bb85 07bf d67e 8e3d cd71 a8bd 33b7 9e3e
00000230: e03a 1d3d 1f77 bc3d 5ec6 8abd 9192 093d
00000240: d24d d23e 5688 5f3e cef8 cabe 3f48 24bd
00000250: 1d22 093c 1d36 a43e b6a5 ae3e 18fc 3dbe
00000260: d2fd bc3c 97c0 d43d af97 8cbe 8c80 f4be
00000270: 0bd6 a83e 2925 7c3d 3504 8bbd e86a 143e
00000280: 1fe2 6cbe 7ec1 dabd d782 053e a3eb 8a3e
00000290: 4d86 e3bd 152c 1f3e 7c01 c03d 36c2 69be
000002a0: 1fc9 1bbe 7216 5a3d b42e f4bd 8ee9 e93c
000002b0: 9515 cc3d 6805 9bbc bd3f 68be 6f49 4ebd
000002c0: a5b9 56be 9d70 3b3e c378 e53c 7c9a b23b
000002d0: 15e1 4f3e ec0e 563e ba48 53bd 0a91 92be
000002e0: 822d 87bc 5a14 47be fb94 fa3d dfbc 993e
000002f0: 1e3d 4abe fb2a a0be 11dc 94bd 2809 523e
00000300: 0b2b 103f 7ebe 2bbe b5b4 32be 4eda 143d
00000310: 73a8 8c3d 3f24 01be 998e 633e 9880 643e
00000320: eb57 bf3d ffaa 8b3e dda6 903e f7e6 0e3e
00000330: 8b5d 833e b3a5 d23d e802 ae3c a3b9 d3bd
00000340: 3b6f 93bd 82b6 913d 7002 a2bd f159 4c3e
00000350: 30de 433c f579 a5be 29e9 963d ee5d 9b3e
00000360: d1de 8e3e a309 263e 7ede 403e 3030 77be
00000370: 93d4 f0bd 99c8 53bc 3754 38bc dbbc 483d
00000380: 194f ae3e d9f7 a8be a2fe 21be 8050 70be
00000390: 1e97 1ebd 5aef f5bc 8f8b aabe 55a0 0c3e
000003a0: aed5 f43d 5f8a 333e 4099 9f3d d739 12bd
000003b0: f65a 57bc 728c 1e3e 1c08 8abe 5096 aabb
000003c0: 0ce3 383e 5897 5b3e 970a 80be 5dc7 62be
000003d0: d2ac 80be 1d4c 8abe 4561 73bd 385a 203e
000003e0: 5841 2bbe 6de9 843e 30b4 733e 1e83 8cbd
000003f0: 0d4b e53d 7d1d c7bd dbbd 4a3e bf34 3b3e

encoder.conv.convs.3.bias f4 [40]
-0.02859846 0.018813448 -0.011589519 -0.05195844 0.13504128 0.11797809 0.14111164 0.0
-0.030360248 0.013099248 0.010311164 -0.0037750506 0.0023427664 0.0061656507 0.12849298 -0.025985831
-0.02506896 -0.04897178 0.0 -0.0707484 -0.17475674 0.0 -0.15131652 -0.19492115
-0.12663893 0.119614266 -0.12079046 0.041624736 0.095016085 -0.034205444 -0.019927043 0.11071629
0.0731788 -0.023481436 0.075075336 0.12080047 -0.031784635 0.06061164 -0.021040699 -0.04617715
00000000: 5147 eabc a91e 9a3c f7e1 3dbc 60d2 54bd
00000010: 4348 0a3e 7f9e f13d 927f 103e 0000 0000
00000020: 0eb6 f8bc 3a9e 563c 28f0 283c d766 77bb
00000030: 1989 193b 3a09 ca3b aa93 033e 3de0 d4bc
00000040: 6b5d cdbc a296 48bd 0000 0000 8ae4 90bd
00000050: 6ef3 32be 0000 0000 b8f2 1abe 6999 47be
00000060: a3ad 01be 53f8 f43d fd60 f7bd b37e 2a3d
00000070: cb97 c23d 021b 0cbd 0a3e a3bc 39bf e23d
00000080: c4de 953d 245c c0bc 19c1 993d 3d66 f73d
00000090: 9b30 02bd e943 783d 8b5d acbc 4024 3dbd

encoder.conv.convs.3.lin.weight f4 [40, 40]
0.087540075 -0.17201066 -0.22592168 -0.2780989 0.016784895 0.19683363 0.019099787 -0.19738686
-0.0650219 -0.11831334 -0.26470023 0.044291884 -0.13473794 -0.010877468 0.14994061 0.015064686
-0.0395347 -0.28808078 0.06722371 -0.24209179 -0.15896587 -0.18298352 -0.22559908 0.19202504
-0.08281385 -0.19341195 -0.14037274 -0.25082242 -0.20924489 -0.18803278 -0.19049546 0.073010564
-0.1395753 -0.14361492 -0.28090265 -0.0064682863 0.21545742 0.21986921 0.20149142 -0.042287596
-0.15317139 0.11000763 0.0739246 -0.46917304 -0.15209712 -0.12496388 0.042761292 -0.048512913
-0.015722116 -0.033783972 -0.01184217 -0.07443307 0.19434 0.49398294 0.03921152 -0.35285106
0.25199917 0.03311084 0.08859156 0.025619717 -0.14007512 0.033091456 -0.2537093 -0.0350559
-0.019603228 -0.24664313 0.09385536 -0.112089545 0.19259886 0.18293823 0.32290858 0.09535359
-0.18502407 0.25405607 -0.28955376 -0.20143715 0.36383694 0.43352285 -0.20467043 -0.34307694
-0.12145124 0.111364216 0.02962734 0.079481386 0.111612424 -0.29176086 -0.1711784 0.15621713
-0.2281789 -0.044306863 -0.023704302 -0.25314647 -0.11084242 -0.26630005 0.19413261 0.017920373
-0.037853517 -0.17208323 -0.11286962 -0.043238413 0.06471492 0.093221456 0.19413038 -0.1834127
0.14873953 -0.2378069 0.021319095 -0.09773727 0.19352944 0.19882235 -0.120985866 -0.11443133
0.22931011 -0.023913918 -0.20799586 0.041191176 0.0018982148 -0.20466909 0.158803 0.066098794
-0.23712797 -0.0989414 -0.1602189 -0.085822344 -0.22501977 -0.19225523 -0.18580951 -0.16876131
0.0056701843 0.12728836 -0.058475364 -0.021085037 -0.14958765 0.07435107 0.16149268 -0.058496196
-0.031217761 -0.028578715 0.05117998 -0.14293122 -0.06181298 -0.044049557 -0.2678679 -0.15820168
-0.15907724 -0.14574842 0.17016736 -0.3062799 0.044914633 0.055972755 -0.0775647 -0.040507577
-0.24301094 -0.10965456 0.18662441 0.21660241 -0.11584575 -0.18015699 -0.16519557 -0.025332846
-0.131889 0.18073227 -0.2325352 0.13914973 -0.08500589 -0.19682805 0.08779426 0.20759256
-0.04367215 0.08209758 -0.34739664 -0.047235973 0.09090462 -0.19599675 0.25667074 -0.6153635
-0.0065337103 0.2739106 0.1601448 0.1569657 -0.015034924 0.13613881 0.23176181 -0.31958327
0.22332188 -0.18090925 -0.021735998 -0.047051553 -0.13015307 -0.117413074 -0.013282345 0.35208783
0.2192942 0.18053141 -0.10992904 0.17247738 -0.13177028 0.027517777 0.025125442 0.22315498
0.093007326 0.21115157 -0.083190866 -0.30069658 0.051838156 -0.097827956 0.06723636 -0.185122
-0.56829894 0.3256805 -0.5494588 0.19664752 0.015678624 -0.06858361 -0.044270787 -0.5621094
0.052837696 0.29194668 0.21127617 -0.18341717 -0.3302055 0.1210968 0.076929875 -0.13684309
0.06878028 -0.1437034 0.08938117 0.2801012 -0.021143787 0.0129082985 0.15043461 0.09061872
-0.22156793 0.0042328546 -0.37540543 -0.25024408 -0.25923187 0.0011395299 0.037197545 -0.14102407
0.26607618 0.052107222 -0.010215733 0.045561112 0.275225 0.07668776 -0.19681269 -0.054359782
-0.26585564 0.17961462 -0.19194739 0.16370758 0.066508524 -0.21381319 -0.014765589 0.15509759
00000000: 3648 b33d 9023 30be 0358 67be fb62 8ebe
00000010: 7a80 893c c18e 493e 2877 9c3c c81f 4abe
00000020: 342a 85bd 444e f2bd ca86 87be 686b 353d
00000030: bef8 09be 6837 32bc 088a 193e dfd1 763c
00000040: 23ef 21bd 537f 93be 96ac 893d e9e6 77be
00000050: f3c7 22be 0860 3bbe 7203 67be 36a2 443e
00000060: 4f9a a9bd c80d 46be dfbd 0fbe cc6b 80be
00000070: 4b44 56be aa8b 40be 3e11 43be 9086 953d
00000080: d4ec 0ebe ca0f 13be 79d2 8fbe ebf3 d3bb
00000090: dfa0 5c3e 6525 613e c453 4e3e c235 2dbd
000000a0: f6d8 1cbe ae4b e13d c865 973d 7337 f0be
000000b0: 59bf 1bbe 10ed ffbd 7726 2f3d 7ab5 46bd
000000c0: abcb 80bc 1061 0abd a905 42bc 5e70 98bd
000000d0: 1101 473e 55eb fc3e 429c 203d e5a8 b4be
000000e0: 0906 813e 3b9f 073d 7e6f b53d 71e0 d13c
000000f0: da6f 0fbe e88a 073d 2fe6 81be c796 0fbd
00000100: f396 a0bc 0490 7cbe 3d37 c03d 348f e5bd
00000110: a338 453e 2954 3b3e 4654 a53e be48 c33d
00000120: f376 3dbe a313 823e 6440 94be 8a45 4ebe
00000130: d648 ba3e b5f6 dd3e 2095 51be c8a7 afbe
00000140: 6dbb f8bd ec12 e43d 09b5 f23c 23c7 a23d
00000150: 0e95 e43d ae61 95be 6449 2fbe 62f7 1f3e
00000160: bba7 69be 1d7b 35bd 862f c2bc 6a9c 81be
00000170: 5a01 e3bd 7b58 88be b3ca 463e bfcd 923c
00000180: 4a0c 1bbd 9636 30be 3028 e7bd c31a 31bd
00000190: 4289 843d e4ea be3d 1dca 463e 8ad0 3bbe
000001a0: 2d4f 183e a783 73be 62a5 ae3c 7a2a c8bd
000001b0: 952c 463e 1698 4b3e 70c7 f7bd f95a eabd
000001c0: 45d0 6a3e 1fe7 c3bc defc 54be 14b8 283d
000001d0: 85cd f83a c694 51be 419d 223e ce5e 873d
000001e0: add1 72be caa1 cabd 6c10 24be a0c3 afbd
000001f0: 956b 66be 8ede 44be d944 3ebe c4cf 2cbe
00000200: f4cc b93b e157 023e dd83 6fbd 87ba acbc
00000210: 812d 19be 6045 983d 565e 253e b599 6fbd
00000220: 64bc ffbc e91d eabc 19a2 513d 905c 12be
00000230: 9b2f 7dbd 4f6d 34bd fb25 89be 9fff 21be
00000240: 25e5 22be 133f 15be 5a40 2e3e b8d0 9cbe
00000250: 68f8 373d b043 653d 3eda 9ebd 46eb 25bd
00000260: dcd7 78be 9292 e0bd 781a 3f3e 06cd 5d3e
00000270: 8940 edbd 137b 38be 0729 29be d486 cfbc
00000280: e90d 07be e111 393e b51d 6ebe 447d 0e3e
00000290: 9117 aebd 4b8d 49be 7acd b33d 2593 543e
000002a0: 91e1 32bd c722 a83d f9dd b1be 827a 41bd
000002b0: 342c ba3d 5fb3 48be 596a 833e 7688 1dbf
000002c0: bc18 d6bb 033e 8c3e 00fd 233e 9ebb 203e
000002d0: 0b55 76bc f967 0b3e f852 6d3e 6ba0 a3be
000002e0: 7eae 643e 4640 39be b10f b2bc 21b9 40bd
000002f0: d946 05be 4476 f0bd 319e 59bc db44 b43e
00000300: a98e 603e 3add 383e 7a22 e1bd e99d 303e
00000310: caee 06be f66c e13c dfd3 cd3c bd82 643e
00000320: a07a be3d 1e38 583e f95f aabd e7f4 99be
00000330: 3f54 543d 065a c8bd 37b3 893d 9f90 3dbe
00000340: 0a7c 11bf 98bf a63e 55a9 0cbf f85d 493e
00000350: 7570 803c 9075 8cbd 4955 35bd 67e6 0fbf
00000360: 576c 583d 097a 953e c858 583e b6d1 3bbe
00000370: b210 a9be 9901 f83d 698d 9d3d 9820 0cbe
00000380: addc 8c3d fc26 13be 7a0d b73d 6d69 8f3e
00000390: bc35 adbc 547d 533c 880b 1a3e 4f96 b93d
000003a0: b4e2 62be c2b3 8a3b 2435 c0be fe1f 80be
000003b0: 0aba 84be 475c 953a 745c 183d 9d68 10be
000003c0: 233b 883e 626e 553d e45f 27bc 4a9e 3a3d
000003d0: 4bea 8c3e 790e 9d3d 4489 49be 5da8 5ebd
000003e0: 3b1e 88be e5ec 373e db8d 44be f6a2 273e
000003f0: 9f35 883d d8f1 5abe 5eeb 71bc e7d1 1e3e

encoder.conv.convs.4.bias f4 [40]
-0.016299672 0.08013456 -0.056335878 0.0 -0.011187397 -0.019411229 -0.0229204 0.0033115195
0.09421772 -0.06666854 0.023258073 -0.059491042 -0.044436812 0.098039314 -0.009052325 0.0090792095
-0.036165386 -0.06517194 0.01922343 -0.13981064 -0.20856175 0.08505353 0.01679197 0.0024055871
0.06389835 -0.0018488246 -0.009804424 0.19970667 -0.011415814 -0.05140142 0.003566012 -0.059904315
-0.055777293 0.008926171 -0.032716606 0.03931503 -0.06960873 0.16205868 0.0009091138 -0.018627845
00000000: e486 85bc 971d a43d 73c0 66bd 0000 0000
00000010: 584b 37bc 4c04 9fbc 90c3 bbbc 1406 593b
00000020: 38f5 c03d 8489 88bd b787 be3c e1ac 73bd
00000030: 6003 36bd d6c8 c83d 3450 14bc f7c0 143c
00000040: 2822 14bd de78 85bd 747a 9d3c 852a 0fbe
00000050: 3691 55be 8c30 ae3d 508f 893c 0ea7 1d3b
00000060: 23dd 823d 4254 f2ba bca2 20bc e87f 4c3e
00000070: 6509 3bbc 4c8a 52bd c1b3 693b 3a5e 75bd
00000080: bb76 64bd 133f 123c d901 06bd cc08 213d
00000090: 068f 8ebd b6f2 253e 9851 6e3a 6c99 98bc

encoder.conv.convs.4.lin.weight f4 [40, 40]
0.095952965 0.260865 0.2095674 -0.29244107 -0.30145437 -0.07989105 0.06909209 0.05363884
-0.013967549 0.31082448 -0.21589258 0.09572813 0.29519138 0.16512987 0.18280216 -0.06262097
-0.09132327 0.19989508 -0.05030681 -0.12511533 0.595287 -0.18257089 -0.45937362 -0.39328253
-0.34746376 0.04871374 -0.3327645 -0.021263035 -0.22386555 0.018833447 0.17149834 -0.22061835
0.11621436 -0.17025669 0.14102736 -0.051410686 0.2632784 0.028317416 0.029786238 -0.22444768
-0.026456166 0.2550114 -0.20060544 -0.1532271 0.04214949 -0.1264147 0.09423109 -0.031491473
0.07323411 0.02167592 -0.020316634 0.34421042 0.32348812 0.13109948 0.28465283 -0.16367821
0.023140866 0.04606367 0.22875199 0.052285157 -0.04175423 0.21548027 0.05488258 -0.45909974
-0.43339682 -0.057799555 0.06362104 0.13335638 0.23873852 -0.0933791 0.06575697 0.08987066
0.38152736 0.18439524 0.1032308 -0.07823652 0.35687193 -0.26903918 0.0886334 -0.34028813
-0.19099112 0.029361496 0.23432349 -0.24079941 0.178068 -0.30144095 0.16123447 -0.24040373
0.2040628 0.045617588 -0.14799646 0.10005332 -0.24301122 -0.1993322 0.072686784 0.15921767
-0.13618597 0.115486026 0.056622267 0.11767837 0.06476363 -0.048712306 0.09528735 -0.15281408
-0.14140509 -0.20565584 0.12250448 0.22253491 -0.11031919 -0.23771079 -0.071155384 0.03137844
0.038108356 -0.062210847 -0.22314735 -0.233651 0.04638198 -0.18589796 0.13921033 0.09402696
-0.22418937 -0.24649984 0.24918275 0.14074418 -0.07612322 -0.18965201 -0.2562385 0.19103378
-0.06591923 -0.19989753 -0.25851566 -0.1883178 -0.020790467 -0.2558138 -0.104926 0.061518505
-0.21722864 0.046106536 0.18372348 0.17568883 -0.16191515 -0.15918921 0.096640855 0.023922896
-0.26350588 -0.1800582 -0.1456811 -0.2507263 0.002752224 -0.07869402 0.09303498 -0.16939303
0.23279086 -0.16144915 0.0091147935 -0.023589866 0.2165026 0.088973105 0.23943193 -0.086309254
0.20685737 -0.06678557 0.18241042 -0.19303592 0.04350954 0.01261227 -0.21509196 0.25006807
0.24607882 -0.17940214 -0.10186866 -0.016471615 0.18463045 0.078244455 -0.24391226 0.15076318
0.15019462 -0.21696201 0.19257717 0.27220353 0.27202868 0.27206498 0.026505977 -0.20224568
-0.0065489826 -0.2843038 -0.08025987 -0.21444482 -0.16736047 0.002637846 -0.005807639 -0.16115184
0.05978434 0.081462994 0.24888137 -0.23368223 0.17805004 -0.2612457 -0.21423562 -0.023709582
0.16653591 0.055971693 0.16243319 0.19239973 0.07442064 -0.055754855 -0.10136845 -0.15758024
-0.021403216 -0.30278787 -0.19073075 -0.012633493 0.19799496 0.119197346 -0.15463175 0.19110753
-0.01602719 0.2579697 0.0003604534 0.107523285 -0.087687984 0.08276456 -0.19477232 -0.18987809
0.066903636 -0.04171882 0.21668053 -0.023114879 -0.25685045 0.038574733 0.07274179 -0.11965364
-0.23517376 0.22092843 0.0930637 -0.17104052 0.1340439 -0.03529116 0.011452802 0.017528072
0.11539717 -0.36482593 -0.27722183 -0.06604522 -0.23621637 -0.2508976 -0.050607584 -0.24455631
0.18336317 -0.36532998 -0.019449225 -0.6478638 -0.17417213 -0.13926901 -0.20575564 0.1506354
00000000: fd82 c43d 1990 853e d698 563e d6ba 95be
00000010: 3a58 9abe eb9d a3bd 2780 8d3d 66b4 5b3d
00000020: 26d8 64bc 6324 9f3e f212 5dbe 1c0d c43d
00000030: 5323 973e ce17 293e 7d30 3b3e 6c3f 80bd
00000040: b207 bbbd 4cb1 4c3e 830e 4ebd 3c1e 00be
00000050: bb64 183f ddf3 3abe 0533 ebbe 545c c9be
00000060: c5e6 b1be 0f88 473d 1c60 aabe d12f aebc
00000070: 033d 65be 9a48 9a3c 439d 2f3e c7e9 61be
00000080: cb01 ee3d c557 2ebe 7a69 103e 0394 52bd
00000090: 6dcc 863e edf9 e73c 4502 f43c 9dd5 65be
000000a0: 9aba d8bc db90 823e 836b 4dbe 91e7 1cbe
000000b0: f2a4 2c3d db72 01be 3bfc c03d 34fd 00bd
000000c0: c4fb 953d b391 b13c 126f a6bc 593c b03e
000000d0: 3ca0 a53e f13e 063e 04be 913e 439b 27be
000000e0: ea91 bd3c 42ad 3c3d f63d 6a3e f628 563d
000000f0: 7c06 2bbd dca6 5c3e 8ecc 603d 1f0f ebbe
00000100: 30e6 ddbe 3abf 6cbd bf4b 823d 938e 083e
00000110: df77 743e 8b3d bfbd 97ab 863d 1c0e b83d
00000120: 8e57 c33e 1bd2 3c3e ab6a d33d 783a a0bd
00000130: ebb7 b63e 81bf 89be 6e85 b53d 3f3a aebe
00000140: 2d93 43be 8587 f03c 7ff2 6f3e 1f94 76be
00000150: 7557 363e 7856 9abe a61a 253e 652c 76be
00000160: d7f5 503e 82d9 3a3d 628c 17be c1e8 cc3d
00000170: efd7 78be be1d 4cbe cfdc 943d f509 233e
00000180: 5674 0bbe f083 ec3d c0ec 673d 5b01 f13d
00000190: cba2 843d 8e86 47bd 0426 c33d 4b7b 1cbe
000001a0: 7fcc 10be 7297 52be a1e3 fa3d 31e0 633e
000001b0: 07ef e1bd 756a 73be eab9 91bd ae86 003d
000001c0: 8217 1c3d cdd0 7ebd bd80 64be 3542 6fbe
000001d0: 08fb 3d3d 095c 3ebe 278d 0e3e 3591 c03d
000001e0: e691 65be 746a 7cbe c329 7f3e 3e1f 103e
000001f0: 7ee6 9bbd 2334 42be b131 83be 5c9e 433e
00000200: a900 87bd f0b1 4cbe 2a5c 84be 62d6 40be
00000210: c550 aabc 07fa 82be 71e3 d6bd d4fa 7b3d
00000220: 2f71 5ebe 35da 3c3d 0222 3c3e c6e7 333e
00000230: 16cd 25be 7f02 23be a4eb c53d f3f9 c33c
00000240: 3eea 86be 2d61 38be 6d2d 15be 335f 80be
00000250: a85e 343b 552a a1bd 2089 be3d 5e75 2dbe
00000260: ba60 6e3e ed52 25be 3756 153c 893f c1bc
00000270: dcb2 5d3e 8837 b63d a52d 753e e8c2 b0bd
00000280: 6bd2 533e dfc6 88bd ccc9 3a3e 35ab 45be
00000290: 0f37 323d b2a3 4e3c 1141 5cbe ec08 803e
000002a0: 16fc 7b3e 32b5 37be 84a0 d0bd 7bef 86bc
000002b0: c40f 3d3e a13e a03d 23c4 79be aa61 1a3e
000002c0: 9ecc 193e 4a2b 5ebe f332 453e 435e 8b3e
000002d0: 5847 8b3e 1a4c 8b3e 1023 d93c 7e19 4fbe
000002e0: d998 d6bb 4590 91be 495f a4bd 6c97 5bbe
000002f0: 8b60 2bbe b6df 2c3b 024e bebb fd04 25be
00000300: 6de0 743d 12d6 a63d c2da 7e3e 654a 6fbe
00000310: c052 363e ffc1 85be 9560 5bbe 993a c2bc
00000320: 6488 2a3e 9342 653d e354 263e 6f04 453e
00000330: d969 983d 345f 64bd 439a cfbd b75c 21be
00000340: cc55 afbc 0307 9bbe ec4e 43be b6fc 4ebc
00000350: 31bf 4a3e bd1d f43d c957 1ebe b1b1 433e
00000360: 744b 83bc 9b14 843e 3dfb bc39 2b35 dc3d
00000370: c295 b3bd 7780 a93d 6572 47be 676f 42be
00000380: c604 893d 5ae1 2abd 80e1 5d3e 6a5b bdbc
00000390: e781 83be 8a00 1e3d a6f9 943d f80c f5bd
000003a0: 64d1 70be 103b 623e 2e98 be3d 3f25 2fbe
000003b0: ce42 093e 778d 10bd 89a4 3b3c 0897 8f3c
000003c0: 5a55 ec3d 77ca babe 05f0 8dbe b742 87bd
000003d0: b4e2 71be a675 80be e649 4fbd f86c 7abe
000003e0: 8ec3 3b3e 880c bbbe fb53 9fbc 67da 25bf
000003f0: 2e5a 32be 899c 0ebe 9bb1 52be 2b40 1a3e

encoder.conv.convs.5.bias f4 [40]
-0.10569351 0.0 -0.021036506 -0.003365986 -0.0044800136 0.083379045 0.04211314 0.07658729
0.14312293 -0.031125044 0.009832422 -0.17238787 0.02164436 0.04985317 0.10669442 -0.07044694
0.034092806 0.031698257 -0.021448283 -0.03535107 0.047085352 0.14476345 0.021274284 -0.01083921
0.0 0.0757663 0.0946463 -0.023502642 -0.019475905 0.03167215 0.061931763 0.047435578
0.004244946 0.04004173 -0.07699308 0.02438648 -0.024893157 0.07883469 0.08254705 0.002781125
00000000: d775 d8bd 0000 0000 c054 acbc e097 5cbb
00000010: 14cd 92bb a2c2 aa3d d47e 2c3d ccd9 9c3d
00000020: d18e 123e f3f9 febc 2b18 213c 7286 30be
00000030: 834f b13c d632 4c3d 9b82 da3d 7c46 90bd
00000040: e6a4 0b3d 08d6 013d 4fb4 afbc 49cc 10bd
00000050: 92dc 403d df3c 143e 6847 ae3c f196 31bc
00000060: 0000 0000 5d2b 9b3d ebd5 c13d 9d88 c0bc
00000070: ef8b 9fbc a8ba 013d 29ac 7d3d cf4b 423d
00000080: 3019 8b3b cc02 243d 8cae 9dbd 28c6 c73c
00000090: bcec cbbc 1574 a13d 6e0e a93d 8943 363b

encoder.conv.convs.5.lin.weight f4 [40, 40]
0.018306307 0.16256632 -0.07900159 -0.041845832 -0.12736058 -0.05466166 0.03553745 -0.05331783
-0.055507332 -0.08413377 0.072084695 0.01835668 -0.20148335 -0.018787298 -0.021265088 -0.15594098
-0.076655634 -0.029412152 -0.37108058 -0.17600575 0.036475677 -0.30032408 0.22544947 -0.02221427
0.15384549 -0.21056862 -0.26781717 -0.2863361 -1.4935752 0.02978153 -1.2006644 -0.20619969
-0.6292295 -0.03594347 -0.09616252 -1.272917 -0.5199091 -0.15416469 0.25697893 -0.17266914
0.17001604 0.09516522 -0.17099439 -0.032274112 0.056467522 0.006748161 0.18377239 0.10005173
-0.12995778 0.11145092 -0.2517339 0.24753118 0.041805122 0.2710302 -0.1258287 -0.1588504
0.23066711 -0.09673501 -0.09118009 -0.25821427 -0.16131924 -0.25291324 -0.16473587 -0.26315004
-0.1261682 -0.18665716 0.10672288 -0.13290271 0.23702404 -0.21736586 -0.10645348 -0.10068048
-0.17111346 -0.23391171 -0.011799145 -0.06708322 -0.03681166 0.23179254 0.26743153 -0.05594328
0.2083425 -0.014795399 -0.18576917 0.0076463725 -0.19364205 0.027028546 -0.22141935 0.037736945
-0.036591433 -0.20769288 0.058443345 -0.19423482 0.1895299 0.04698952 -0.032192975 -0.2687487
0.2213682 0.32593542 0.15855685 0.14121972 -0.06068231 -0.25686163 -0.024919609 0.048441026
0.026981344 0.24496014 -0.051486857 -0.14508232 -0.1553778 0.20537527 0.0069564083 -0.19062074
0.15510961 0.062489733 -0.22809325 0.5017486 0.13406135 0.023512216 0.17154425 -0.16440734
0.24804068 0.14621119 -0.10095285 0.11506855 0.029484991 -0.24965554 0.26393732 -0.1324987
0.1350322 -0.11918519 -0.21434182 0.01621778 0.2751246 0.06179794 -0.07273146 -0.1779422
-0.2809676 0.3287831 -0.027853047 0.14106427 0.11474339 0.1778611 0.07473218 -0.35617658
-0.3157053 0.12420083 0.06458793 -0.22436868 -0.19306293 -0.020771807 -0.4598459 0.30433583
0.026458044 0.11147296 0.15098788 -0.09533041 0.011859374 0.19501553 0.15754141 -0.15686853
0.034797322 -0.19967608 -0.2646222 0.2611117 -0.2034196 -0.075309105 -0.15762399 0.108459756
-0.120458424 0.23230432 0.23691772 0.10114207 0.08339582 -0.24802153 0.13568953 -0.085407585
-0.24636902 0.26991507 -0.20186946 -0.14945367 -0.17362273 -0.07684127 -0.096102804 -0.15301901
-0.050536595 -0.06306517 0.021619534 -0.13812336 0.07662876 0.25784898 0.049964745 0.26709637
0.17616431 0.114250615 0.19503233 0.04069738 -0.1585678 -0.16222136 -0.059129186 -0.043580912
-0.33513266 -0.22228494 -0.2407885 -0.12466044 -0.19902758 -0.028640186 0.20949143 -0.213425
0.26171908 0.035800297 -0.54659295 0.06915235 -0.2721209 0.21518296 -0.25742662 0.2114546
0.038070515 0.14084876 0.06408146 -0.20900616 0.32676417 0.032586213 -0.28033683 -0.26902702
-0.110850506 -0.21266404 0.23412734 0.284304 0.4029868 -0.1439946 0.37890634 0.07622885
0.01630694 0.22691275 -0.122841775 0.40425575 -0.17467494 -0.08331511 -0.25089383 0.23653997
0.21677184 0.22509426 0.12695873 -0.23819335 0.18753487 0.23084298 0.21615441 -0.087191075
0.090742886 0.19633436 0.058172613 -0.15648481 -0.12085148 0.31255072 0.03866014 0.04167178
00000000: 1cf7 953c c977 263e 96cb a1bd 8966 2bbd
00000010: d06a 02be e8e4 5fbd b88f 113d cc63 5abd
00000020: a85b 63bd 534e acbd 24a1 933d c060 963c
00000030: a751 4ebe d2e7 99bc 1f34 aebc feae 1fbe
00000040: a1fd 9cbd c1f1 f0bc 46fe bdbe da3a 34be
00000050: 8567 153d 14c4 99be 3adc 663e b3fa b5bc
00000060: ac89 1d3e 4d9f 57be 551f 89be a59a 92be
00000070: 792d bfbf 65f8 f33c 5faf 99bf 0326 53be
00000080: 2f15 21bf 7639 13bd dbf0 c4bd f2ee a2bf
00000090: c318 05bf 59dd 1dbe be92 833e 2ed0 30be
000000a0: af18 2e3e fce5 c23d 2719 2fbe dc31 04bd
000000b0: 7d4a 673d ad1f dd3b d42e 3c3e ece7 cc3d
000000c0: a713 05be 6140 e43d 44e3 80be d078 7d3e
000000d0: d93b 2b3d 78c4 8a3e 3dd9 00be aea9 22be
000000e0: 0034 6c3e 011d c6bd a1bc babd a934 84be
000000f0: df30 25be d87d 81be 85b0 28be 9abb 86be
00000100: 3d32 01be 0e23 3fbe 8691 da3d a617 08be
00000110: 6eb6 723e 2895 5ebe 4804 dabd 9131 cebd
00000120: 5e38 2fbe 8d86 6fbe 3351 41bc ed62 89bd
00000130: d3c7 16bd 065b 6d3e c9ec 883e c824 65bd
00000140: bc57 553e 6768 72bc 463a 3ebe 6c8e fa3b
00000150: 1a4a 46be f86a dd3c c1bb 62be 0e92 1a3d
00000160: e6e0 15bd 71ad 54be 4a62 6f3d 7ee5 46be
00000170: 2014 423e 1578 403d c8dc 03bd 6e99 89be
00000180: 58ae 623e 02e1 a63e ba5c 223e e79b 103e
00000190: 048e 78bd 5e83 83be 3524 ccbc 196a 463d
000001a0: fb07 dd3c d5d6 7a3e e2e3 52bd 7690 14be
000001b0: 5c1b 1fbe e54d 523e 95f2 e33b 1532 43be
000001c0: 0ed5 1e3e 3cf5 7f3d 4791 69be 9972 003f
000001d0: 6147 093e b19c c03c 4ca9 2f3e 665a 28be
000001e0: 60fe 7d3e 63b8 153e 5ec0 cebd 0fa9 eb3d
000001f0: 828a f13c b4a5 7fbe cb22 873e bdad 07be
00000200: e245 0a3e 5d17 f4bd 6c7c 5bbe 26db 843c
00000210: 22dd 8c3e d61f 7d3d 3bf4 94bd 7b36 36be
00000220: fcda 8fbe 4256 a83e 132c e4bc 2773 103e
00000230: 95fe ea3d 3821 363e 2f0d 993d c75c b6be
00000240: 20a4 a1be 015d fe3d ad46 843d e7c0 65be
00000250: 4ab2 45be a329 aabc ec70 ebbe e8d1 9b3e
00000260: 8abe d83c ef4b e43d 919c 1a3e 973c c3bd
00000270: d24d 423c 27b2 473e 8952 213e 25a2 20be
00000280: a387 0e3d e377 4cbe 907c 87be 6fb0 853e
00000290: 3a4d 50be a93b 9abd 2f68 21be 2620 de3d
000002a0: e8b2 f6bd 2fe1 6d3e 8f9a 723e 9323 cf3d
000002b0: 6dcb aa3d 5bf9 7dbe 32f2 0a3e 2cea aebd
000002c0: 2948 7cbe 4f32 8a3e deb6 4ebe 620a 19be
000002d0: 28ca 31be f55e 9dbd 8cd1 c4bd 04b1 1cbe
000002e0: 76ff 4ebd 5028 81bd 731b b13c 3670 0dbe
000002f0: 8aef 9c3d c804 843e d5a7 4c3d dbc0 883e
00000300: 6b64 343e 3afc e93d 8eb6 473e 4cb2 263d
00000310: 995f 22be 5b1d 26be 7231 72bd e681 32bd
00000320: 8296 abbe aa9e 63be 4391 76be f94d ffbd
00000330: e3cd 4bbe d39e eabc ec84 563e 158c 5abe
00000340: 0b00 863e 55a3 123d 84ed 0bbf bf9f 8d3d
00000350: 6e53 8bbe ec58 5c3e 6ccd 83be 8e87 583e
00000360: d4ef 1b3d a83a 103e 243d 833d b605 56be
00000370: a24d a73e 1f79 053d 4f88 8fbe e9bd 89be
00000380: 9705 e3bd 9ac4 59be 14bf 6f3e 4b90 913e
00000390: 4954 ce3e 5273 13be 0300 c23e df1d 9c3d
000003a0: 2296 853c d15b 683e 7894 fbbd 9cfa ce3e
000003b0: fddd 32be 1da1 aabd 2875 80be 8937 723e
000003c0: 70f9 5d3e 1c7f 663e 7801 023e f5e8 73be
000003d0: 2409 403e 1a62 6c3e 9557 5d3e 3c91 b2bd
000003e0: 68d7 b93d e00b 493e 6846 6e3d 8e3d 20be
000003f0: fb80 f7bd a606 a03e 185a 1e3d 07b0 2a3d

encoder.conv.convs.6.bias f4 [40]
-0.07716532 0.14019533 0.0042955866 0.023121558 0.095087364 -0.02050571 -0.017299838 0.035963506
-0.04332365 -0.07466266 0.10833361 -0.09182173 0.09964612 -0.07671569 0.021073885 -0.0393438
-0.12184168 -0.030297836 -0.019449025 0.038624156 0.10866882 -0.017622374 -0.030542083 -0.030952802
-0.005395165 -0.08385418 -0.036245123 -0.009660362 0.020981027 -0.012555109 -0.030110143 -0.033424262
0.021087268 -0.012731589 -0.08940531 -0.042079166 -0.07482974 0.13516489 -0.08224375 0.012391206
00000000: da08 9ebd 5d8f 0f3e fec1 8c3b 6c69 bd3c
00000010: 2abd c23d 97fb a7bc 64b8 8dbc 784e 133d
00000020: 2474 31bd bde8 98bd 03de dd3d 080d bcbd
00000030: 4413 cc3d 1e1d 9dbd 24a3 ac3c f726 21bd
00000040: 2188 f9bd 2b33 f8bc 9053 9fbc 5d34 1e3d
00000050: c28d de3d cc5c 90bc 6433 fabc bb90 fdbc
00000060: edc9 b0bb bebb abbd c475 14bd 7f46 1ebc
00000070: 67e0 ab3c f2b3 4dbc 8ca9 f6bc e1e7 08bd
00000080: 35bf ac3c 2898 50bc 221a b7bd 345b 2cbd
00000090: 5640 99bd aa68 0a3e 696f a8bd 7c04 4b3c

encoder.conv.convs.6.lin.weight f4 [40, 40]
0.2251189 -0.23589797 -0.5633617 -0.061415397 0.06985889 -0.9518292 0.32623088 -0.34133103
-0.4653739 -0.2165429 -0.1721552 -0.07544749 0.47249085 0.030885303 -0.045503847 -0.26834485
-0.68926233 0.020428384 0.039314922 0.21597941 0.043576058 -0.69397855 -0.26428428 0.098850004
-0.046344433 -0.04013983 0.2437303 -0.06215378 0.16606039 -0.34126872 -0.12811173 -0.6855114
-0.028088173 -0.1599281 -0.21565875 -0.0338819 -1.0712085 -0.50180227 0.019233556 -0.3816916
-0.2857928 -0.11526028 -0.1110526 0.18949643 0.20360984 -0.2131024 0.046668764 -0.056815397
-0.09301826 -0.012065176 -0.067883216 -0.19710054 -0.10003103 0.28776476 0.3290613 -0.003957169
-0.0652773 0.12730356 0.02485656 0.14354753 0.06800585 0.14497423 0.035278015 -0.06531995
-0.010117018 0.08183319 0.18525173 0.007220806 -0.10431069 -0.22188506 0.069574624 0.2724485
0.15882681 0.21709464 -0.103490435 0.31938308 -0.10032321 0.24476855 -0.18948717 0.3413084
-0.3185181 -0.22522323 0.23631318 0.07844618 -0.023629662 0.22485371 0.044158284 0.1510404
0.18015367 -0.20433363 -0.31909853 -0.010422768 0.16518179 0.2063319 -0.13976541 -0.12699212
0.21097031 -0.06409065 0.0031852045 0.0134354625 0.17061578 -0.03905298 0.20798449 -0.026547695
0.09444076 0.051843017 0.12290472 0.10367245 -0.2303754 -0.12115685 0.1848297 0.17124778
-0.13994329 -0.35209328 -0.19539163 0.017280085 -0.06556242 0.11545586 -0.18476394 0.20984197
-0.45660686 -0.0049335533 -0.21383844 0.17877993 -0.083456196 -0.0916419 0.33706307 0.23762658
0.28298727 0.10345165 -0.09155514 -0.26095876 -0.30100727 0.21278517 0.054331545 0.24458094
0.18827352 -0.1577475 -0.22043344 0.10750256 0.20264252 0.2005688 -0.34428027 0.22102827
0.25277507 -0.12175756 -0.012404001 -0.07566047 0.14129204 -0.39770323 0.019615531 0.21935265
0.26499757 -0.3458936 0.21605274 0.19823888 0.021373274 -0.04001875 0.0078000524 -0.089276545
-0.074847504 0.23537207 0.10002951 0.16426413 -0.14488713 0.1694861 -0.28414634 -0.048331488
0.21887387 -0.28911522 -0.2487539 -0.23640007 -0.078857705 -0.20383853 -0.07417004 -0.20776436
0.12468475 -0.11333578 0.1858632 0.012520789 -0.029731112 0.20015877 0.0701581 0.1569139
-0.24048711 0.13487244 0.031294446 -0.025136445 -0.20109951 0.0902611 -0.24766873 -0.054432523
-0.11683263 0.30815244 -0.39844653 0.1722815 0.40163502 -0.109046705 0.11725982 -0.022519784
-0.06285258 -0.10993761 0.043883555 -0.03416191 0.037037242 -0.050428607 -0.17769077 -0.0066533447
-0.2397236 -0.26785055 -0.23552677 -0.21743171 0.03224839 -0.22291675 0.10798111 0.006889249
-0.19890155 -0.19901837 0.099936485 -0.15999205 0.13413574 -0.271634 0.03843026 0.21908586
0.00055626896 -0.004491223 -0.17044687 -0.22497942 0.09468457 -0.11626538 0.040824417 -0.00974875
-0.15019087 0.14276937 0.20771976 0.08041228 -0.2940611 0.15945376 0.016657433 -0.065950274
0.16179685 -0.20344545 0.03832654 -0.053994127 -0.1277109 0.026466139 0.023838729 -0.2672789
0.10524106 0.17227124 -0.40036297 -0.2838138 0.32410157 -0.049839277 0.15258625 -0.2755567
00000000: 9285 663e 3d8f 71be 7938 10bf b68e 7bbd
00000010: 2d12 8f3d 14ab 73bf bc07 a73e f1c2 aebe
00000020: 7d45 eebe 6cbd 5dbe 7449 30be 3784 9abd
00000030: 52ea f13e 2d03 fd3c 3e62 3abd 7f64 89be
00000040: 7f73 30bf 6d59 a73c af08 213d b529 5d3e
00000050: cf7c 323d 94a8 31bf 4550 87be df71 ca3d
00000060: a9d3 3dbd aa69 24bd 7094 793e f694 7ebd
00000070: bc0b 2a3e c6ba aebe b92f 03be ad7d 2fbf
00000080: 2b19 e6bc 31c4 23be a6d5 5cbe bfc7 0abd
00000090: 5c1d 89bf 1d76 00bf b18f 9d3c 156d c3be
000000a0: 6f53 92be 950d ecbd 8c6f e3bd 5a0b 423e
000000b0: 197f 503e 8437 5abe bf27 3f3d 43b7 68bd
000000c0: 5c80 bebd 04ad 45bc 5b06 8bbd b9d4 49be
000000d0: 12dd ccbd e755 933e b97a a83e 24ab 81bb
000000e0: 1bb0 85bd dd5b 023e fc9f cb3c 20fe 123e
000000f0: a746 8b3d 2074 143e ae7f 103d 77c6 85bd
00000100: d9c1 25bc 2998 a73d a1b2 3d3e 839c ec3b
00000110: d8a0 d5bd d635 63be 247d 8e3d 5f7e 8b3e
00000120: 7fa3 223e 0f4e 5e3e cbf2 d3bd 2e86 a33e
00000130: 4176 cdbd 9ba4 7a3e ed08 42be f9bf ae3e
00000140: ce14 a3be eba0 66be 15fc 713e 64a8 a03d
00000150: fe92 c1bc 0d40 663e 51df 343d 56aa 1a3e
00000160: 347a 383e d63c 51be e260 a3be 42c4 2abc
00000170: 6a25 293e ab48 533e aa1e 0fbe 390a 02be
00000180: 9a08 583e f541 83bd ddbe 503b 6a20 5c3c
00000190: e7b5 2e3e 04f6 1fbd e3f9 543e 8d7a d9bc
000001a0: 286a c13d 5859 543d 78b5 fb3d 3952 d43d
000001b0: 87e7 6bbe 1521 f8bd ff43 3d3e 945b 2f3e
000001c0: 4b4d 0fbe 9245 b4be be14 48be f78e 8d3c
000001d0: 9745 86bd 1f74 ec3d c232 3dbe d0e0 563e
000001e0: 60c8 e9be a5a9 a1bb 77f8 5abe 1612 373e
000001f0: 15eb aabd c0ae bbbd 8893 ac3e 6254 733e
00000200: b5e3 903e 75de d33d 4381 bbbd 639c 85be
00000210: a01d 9abe 5be4 593e c18a 5e3d 6d73 7a3e
00000220: c6ca 403e 9088 21be 4eb9 61be 4d2a dc3d
00000230: 8581 4f3e e861 4d3e 8145 b0be 3c55 623e
00000240: bc6b 813e 075c f9bd 273a 4bbc e0f3 9abd
00000250: dcae 103e c29f cbbe c0b0 a03c fb9d 603e
00000260: c3ad 873e f718 b1be ee3c 5d3e 22ff 4a3e
00000270: 0117 af3c b3ea 23bd 9597 ff3b 9fd6 b6bd
00000280: a649 99bd 6005 713e 46dc cc3d db34 283e
00000290: 4b5d 14be c48d 2d3e a17b 91be 3df7 45bd
000002a0: 7920 603e e906 94be 58b9 7ebe dc12 72be
000002b0: 2680 a1bd 0cbb 50be 76e6 97bd 2ec0 54be
000002c0: b85a ff3d 971c e8bd ec52 3e3e ff23 4d3c
000002d0: a98e f3bc 6cf6 4c3e 0daf 8f3d 0aae 203e
000002e0: 4142 76be 001c 0a3e 9b2e 003d f2ea cdbc
000002f0: 08ed 4dbe d0da b83d df9c 7dbe a3f4 5ebd
00000300: f245 efbd 28c6 9d3e 2f01 ccbe 906a 303e
00000310: 1ba3 cd3e e153 dfbd eb25 f03d 697b b8bc
00000320: dab8 80bd f826 e1bd 3ebf 333d 5ced 0bbd
00000330: 5db4 173d 3a8e 4ebd 92f4 35be 4d04 dabb
00000340: 1a7a 75be b523 89be ee2d 71be 6ba6 5ebe
00000350: e316 043d 4a44 64be 3325 dd3d 36bf e13b
00000360: d9ac 4bbe 79cb 4bbe 80ab cc3d f5d4 23be
00000370: e15a 093e 9d13 8bbe 0c69 1d3d 0b58 603e
00000380: 94d2 113a 1c2b 93bb a089 2ebe 0161 66be
00000390: fce9 c13d 8b1c eebd 8137 273d 39b9 1fbc
000003a0: a3cb 19be 2232 123e 7db4 543e 32af a43d
000003b0: 2d8f 96be d947 233e 2b75 883c f010 87bd
000003c0: 13ae 253e 0154 50be 4afc 1c3d f228 5dbd
000003d0: a5c6 02be 84cf d83c 7049 c33c c8d8 88be
000003e0: a088 d73d df67 303e 60fc ccbe 0b50 91be
000003f0: a4f0 a53e 4524 4cbd 923f 1c3e c515 8dbe
