results/model_GCN/graph_split_/layers_1/transform_True/alpha_1.0/model.pt (torch, 15093 bytes, 9 tensors)

encoder.conv.bias f4 [20]
00000000: dad0 eabd 0b36 b9bd 00c2 04be 3dfa 18bd
00000010: cc83 66bd 414e 90bd 3947 05be e712 0bbe
00000020: 0c5d c4bd 8e04 14bd 261c fa3c 474d 07bd
00000030: 0d36 d2bd 6d2a d83b 7872 d3bd 2bdd ec3c
00000040: 5250 073e 29c0 91bd 8630 543d 4079 76bd
-0.114656165 -0.09043511 -0.1296463 -0.03734802 -0.056278035 -0.07046176 -0.1301545 -0.1358143
-0.0958806 -0.036137156 0.030531 -0.03303268 -0.102642156 0.0065968544 -0.103245676 0.028914055
0.13214234 -0.0711673 0.051804088 -0.060174227

encoder.conv.lin.weight f4 [20, 40]
00000000: 4e60 f4bd 3e9a 7bbe 8393 453e 9942 a5be
00000010: 827e ecbb 4223 8fbe 9515 d0bd b9b9 4f3f
00000020: 2a1d 88be efd5 893d 099e 973e 8a0a edbd
00000030: 71d0 3c3c 03b0 07be e06c 10be a34a 8dbe
00000040: e619 70bc 3897 02be 0561 32be a90a 623e
00000050: a6cc b6bd 82f3 29be a916 62be 044a ad3c
00000060: 78d1 a6be 7858 0fbf c27d d53c 586f 3f3d
00000070: 1fff eebe 1a57 a63e 4fd3 85be b500 febe
00000080: fffb 643e 701e 263e 9ecc 93be 8080 b43e
00000090: 6ae4 12be a0cb eabd fc0e 5dbe 39f8 143e
000000a0: 4772 b8be b894 8abe 6313 ca3e 49ff 91bd
000000b0: 9f47 7b3e da31 8ebe 6403 07be 60e0 aebe
000000c0: cac4 aabe 7c9a bc3d 8f5e b63e bc9d 933d
000000d0: d7b0 673e 169b 0f3e e8ad 083f b490 833d
000000e0: 917d c83b f7f9 833e 91fb e53e 70f8 56be
000000f0: 2045 61bc 4401 f2bc 74bb e73e 1bc1 b43e
00000100: 9c74 bdbd 22cc 1ebf 0189 9abd f0a5 153e
00000110: 220f 40be 0571 e3bd 2ff5 37be 22f5 23be
00000120: 46c8 233e a220 83be 2ece 1fbe 1425 813e
00000130: 2b91 81be 2eab f5be 1ef5 48be 3dca 8c3d
00000140: 87f5 3d3d 3900 50bd 660e 2a3e 462e fd3d
00000150: ae41 8fbe f673 a4bd 441f 1abd 7f9c 9cbc
00000160: 0e13 80be 111f 1a3e 80d1 98be b94e 72bd
00000170: e0e5 333e 8a04 0abe 2c3a 863e 688b 043d
00000180: 745f ba3e 88bf cabc c1ff 733e 542a 17be
00000190: d307 8f3e 00f1 a9be 7dfa babb 55d7 913e
000001a0: 77ba 9e3e f813 1dbc 505d 4b3e 54b2 12be
000001b0: c5ad 9b3d a2ce 993e 8bdc 7c3e d00b a73e
000001c0: a3aa fc3e af4d acbd e4a2 7e3e 109b 74be
000001d0: 6195 f53c cc17 3dbe 4b76 a1be e093 55be
000001e0: 143f 10be 1c50 60be ad06 12be 7742 e23e
000001f0: 235e d33d bf4c 85be 88cb 883d 892a a9be
00000200: 3a3a 7e3e d374 ac3c ba34 c83e 521f c93e
00000210: 96bd 45bd 7e30 ddbd b4ba 013f d12e 103e
00000220: 74d0 b2bd 56aa cebd ad56 a83e 852d f3bb
00000230: 880c 40be e6db 243d 0807 98bd dfb6 943d
00000240: 0058 a43e 07f5 14be 7c85 15be bdda 17be
00000250: b6d5 003e 1086 90be 5ecc dd3e 300d a13e
00000260: 4b6e 133e ba3f b3bd 6fc2 68be 1894 c53e
00000270: 8948 2cbe ce8f 453e cc84 abbd 17a5 23be
00000280: ee7c 7b3e 6f8b 79be 3004 42be 2996 873e
00000290: 1ef4 da3d feb3 39bd b479 ba3e da4f b33e
000002a0: d14d 513e 5ae8 96be 75dd 963e 0dd9 f1bd
000002b0: d8da e03e 0d9a 81be 4af7 a13e f122 0abe
000002c0: fa81 15bd 820f 37be 2205 003d 9b9e a53e
000002d0: e8da 89bd ab49 31bd 301f d33b fdfc e83d
000002e0: b3c0 8e3e fc29 cbbd f41b 9d3e 24ed 023e
000002f0: ba28 adbe 2c04 fa3d 1211 1c3e 0a87 943d
00000300: f03d 1fbe 5536 21be c4b2 703e e0a6 7e3e
00000310: 86ce 67be 002a 84be e7cb ccbe 1ef4 a93e
00000320: ea46 5b3e 88fa 51bd 8e7e 6a3e 388f 1fbe
00000330: c114 0dbe 0294 57be 4ca9 833c 0f36 2e3f
00000340: 5752 463e 8183 8c3d 5660 ac3d d12a a4bd
00000350: 96e3 1cbe 385a 303e 5c52 83be d58e b8be
00000360: 0186 0f3b 662d a9be 61db 11bf 7254 283e
00000370: 0443 2c3e 88f0 adbe cf91 e6be 73f0 50bd
00000380: 5a13 b7bd 3357 8b3e b2da e2be 5c62 be3d
00000390: 3bef 85be 1b20 9a3e 9821 d2bd dba4 0dbb
000003a0: 8abf 9cbc 8935 a33d ea00 19bc 94c5 5abd
000003b0: fc59 453e 9bf5 1b3f e622 85bd 2f8e 0f3f
000003c0: 575d 59be b30f 273d 8f33 e13d 43dd 37be
000003d0: f07f 063e 01a8 aabd 7fee 3cbe 51fa 6cbe
000003e0: b173 6a3e 8cd8 4ebe ef72 863e 6f08 3bbe
000003f0: c620 04bd 9861 8abd 9cca 783e aa57 773e
-0.11932431 -0.24570557 0.19294553 -0.32277372 -0.0072172293 -0.27956587 -0.101603664 0.81142765
-0.2658475 0.06730258 0.2961276 -0.11574276 0.011524306 -0.13250737 -0.14104033 -0.27596006
-0.014654612 -0.12752998 -0.17419823 0.22074379 -0.08925752 -0.16596797 -0.22078957 0.021153457
-0.32581687 -0.5599437 0.026060943 0.046737045 -0.46679017 0.32488328 -0.26137778 -0.49609914
0.22361754 0.16222548 -0.28867048 0.35254288 -0.14344946 -0.1146462 -0.21587747 0.14547814
-0.36024687 -0.27066588 0.39467916 -0.0712877 0.2453904 -0.2777241 -0.13184887 -0.3415556
-0.33353263 0.09209153 0.35619017 0.0720782 0.22626053 0.14024004 0.5339036 0.06424084
0.0061184843 0.25776646 0.44918492 -0.20993209 -0.013749391 -0.02954162 0.45260203 0.35303578
-0.09250757 -0.6203023 -0.07545663 0.14614081 -0.18755773 -0.11105541 -0.17964624 -0.1601148
0.15994367 -0.25610834 -0.15605995 0.252236 -0.25306067 -0.47982162 -0.19624755 0.068745114
0.04637673 -0.050781462 0.16607055 0.123623416 -0.27979797 -0.0802993 -0.037627473 -0.019117592
-0.25014538 0.15050913 -0.29847336 -0.059157107 0.17568159 -0.13478294 0.26216257 0.03235951
0.3640095 -0.024749532 0.23828031 -0.1476224 0.27935657 -0.3319168 -0.00570613 0.28484598
0.31001636 -0.00958728 0.19859815 -0.1432584 0.07601503 0.3004046 0.24693505 0.326262
0.49348935 -0.084132545 0.24866825 -0.23887277 0.029978456 -0.18466109 -0.31535563 -0.20857191
-0.14086562 -0.2190556 -0.14260359 0.44191334 0.103206895 -0.26035115 0.066794455 -0.33040264
0.24826899 0.0210518 0.39102727 0.39281708 -0.048276506 -0.10800265 0.5067551 0.14080359
-0.087311655 -0.10091083 0.32878628 -0.007421198 -0.1875478 0.040248774 -0.07423216 0.072614424
0.3209839 -0.14546596 -0.14601701 -0.14829536 0.12581524 -0.28227282 0.43319982 0.31455374
0.14397542 -0.08752389 -0.2273042 0.3858955 -0.16824545 0.19293138 -0.08374938 -0.15980946
0.24559376 -0.24369596 -0.1894691 0.2648175 0.10691093 -0.04533767 0.36420977 0.3502186
0.20439841 -0.29474145 0.29465833 -0.11808977 0.43916965 -0.25312844 0.3163398 -0.13489892
-0.03650091 -0.1787701 0.031254895 0.3234757 -0.06731206 -0.043283146 0.006442927 0.11376379
0.27881393 -0.09920117 0.3068539 0.12785774 -0.33820134 0.12207827 0.15240887 0.07252319
-0.15550971 -0.15743382 0.23505694 0.24868345 -0.22637376 -0.25813293 -0.39999315 0.3319406
0.2141377 -0.051264316 0.2289984 -0.15581977 -0.13777448 -0.21052554 0.016071938 0.68051237
0.19367348 0.0686102 0.08416812 -0.08015979 -0.15321192 0.17221916 -0.25648773 -0.36046472
0.002189994 -0.3304245 -0.5697537 0.16438463 0.1682244 -0.33972573 -0.45033118 -0.05101056
-0.08939238 0.27214965 -0.44307476 0.09296104 -0.2615908 0.3010262 -0.10260314 -0.0021613154
-0.019134302 0.079691954 -0.009338597 -0.05341108 0.19272608 0.6092164 -0.06500797 0.5607633
-0.21227013 0.040786456 0.10996162 -0.17955498 0.13134742 -0.083328255 -0.18450354 -0.23142363
0.22895695 -0.20199794 0.26259562 -0.18264936 -0.032257818 -0.06756896 0.2429604 0.24154535

encoder.embed_x.weight f4 [28, 40]
00000000: 593d 0e3c 2bd5 36bc 26df 5140 f7a0 503e
00000010: 1a49 3ec0 bb77 35bf 2f56 3c3f bb9a ad3e
00000020: 07a6 65bf 05d2 9fbf 63f0 eb3f 926b 65be
00000030: e0de 2f3f d41f a8bf ace2 a13e af5a 0a40
00000040: d648 4b3d 281b 4dbf f9bb 5ebe c7df 17bd
00000050: a9f8 eebe 56aa 813f e78d 38bf 075d 3abf
00000060: 662a 083f dd87 e1be 49ba 31bd ed2c 5f3f
00000070: 51bc 7fbe 44d7 883e bd08 bf3e 3b1b 91bd
00000080: 9a3d 5ebd 90ac be3e 5e99 383f e6f7 3bbe
00000090: e45e 7cbf 18f5 953e 0cba 4cbf 1143 113e
000000a0: 550d 6c3f aff7 dabd 913a 8cbf b66e 853e
000000b0: a13a 97be cc7b f93e cfa4 f43e f43a 323f
000000c0: 54d8 7c40 0094 b83f bf79 d6be d5bb a8bf
000000d0: 50fd e7bf c8e3 ce3f b2e8 163f 7a33 ca3e
000000e0: e4ed 0f3f 16d0 efbe d943 c43f 0fa8 d6be
000000f0: 24b0 babe 30cb 483f 1bd9 82bf 961c 02be
00000100: 07ba 4d3e e3b5 43bd 81fa 543f 0812 21bf
00000110: cb7e fa3e 19b9 933e dc63 9d3f 99b3 edbe
00000120: e739 3fbf 38d1 afbf a336 1a3f 5d59 9fbe
00000130: 9d10 dd3e 3e9e 43bf fbe9 b2bf 4a02 ab3e
00000140: 48cc 0fbf f68b 9abc b7f7 75bf 3d7e 76bf
00000150: eee7 aa3e 8a6f 0b40 3734 0f40 e785 79bf
00000160: 9770 c93f f569 08c0 39d6 bfbf f327 253f
00000170: e31d 80bf 01aa 5bbf 7ac7 7abe 6b98 14bf
00000180: 24a1 6e3e 7843 bbbf 9c88 173d 9519 0d3f
00000190: 8bb2 c43f 42f1 e8bf e371 5abf 212f 7e3f
000001a0: aeab db3e 4097 1740 571b 8c3f 5811 9f3f
000001b0: 3bfc adbe a230 66bf 3387 dc3f 6bbd 3f3f
000001c0: f065 17bf f205 a93f 5a62 0c3d 9fdf 3fbf
000001d0: faa8 ad3f a004 073e e8fa 54bf f6af 67be
000001e0: bf94 b83d 1215 953f 8b85 8f3e 48e2 dfbe
000001f0: 9279 bb3f 4308 32bd 04b8 173f 8051 3dbf
00000200: d91a b43f ffb7 593f 3bee 48bf e6c8 8abf
00000210: f9e0 ccbf bc45 323e 2c63 343e 320e 6d3e
00000220: dad9 a4bf 5dd9 803f 5ab7 b93f efab 8d3e
00000230: 6714 46bf 3352 9e3e db3f bcbe 3754 68bf
00000240: 9cee bebe dc3c 2440 c512 3b3f 8501 813f
00000250: f0aa 00bf 4a42 883f 2a1f eabe 9fcc cdbf
00000260: 4d28 6d3e 4343 853e 2f79 52c0 d2c9 a5bf
00000270: c578 34bf 3817 46bf a031 863f abff 3dbf
00000280: 5671 903f fb21 6e40 f4ee a53d ba6b 423e
00000290: 796f 08c0 97a0 e53f 2491 b8bd 5e03 92bf
000002a0: a42d 22c0 d829 d33f dee0 e23f abdf 0240
000002b0: 640f c6bf 5337 2fbe b87e 97bf 025d d2bf
000002c0: e147 b13e 1897 8a3f 14f7 8b3e 68d6 7cbe
000002d0: 2e44 723e 43c2 113f bdf4 d0bf f6de b43e
000002e0: b8f3 e6be a721 9f3e 6dc9 c1bf 38ac 81bf
000002f0: 3698 353e 0ced 28bf 9bd4 003e 15b4 863f
00000300: 1c48 8c3e b5b7 4a3f 4a99 1ebf cbf6 c9bf
00000310: e99a 03bf 0c96 c73f b826 0fbf 6cd7 90be
00000320: a40b ed3c a28a 2e3e 9b0b 6ebf 1507 b5bf
00000330: 43d5 c4be 19b3 bcbf fb19 86bf 75ac e5bd
00000340: 7e14 8b3e 0655 d83f bac7 fcbf 3418 aebf
00000350: 67a4 e8bf 27a7 d33f 6f7a 7bbf 1164 7b3f
00000360: 86d6 8c3f 98b6 b03e 2f9a 2cbf c845 2c3d
00000370: d600 903f 593e 653f 6589 90be 83c1 eebe
00000380: e550 21bf 4b61 5ebe d2e7 e73e 83b9 8cbf
00000390: b51d 863f cf44 59bf 442b d2bf 6275 c33e
000003a0: 6436 83bf 2fc1 65be 555e 3740 2239 b0bf
000003b0: bfcb e43e d2ac 31bf de96 933f 83c9 ecbf
000003c0: 8444 713f 3e06 c7bf 5fff 83bf 36c1 8b3b
000003d0: dd24 063f a4a7 8abf 62c9 663f 73f2 98bf
000003e0: f76c 89bf 362e 303f 9ee8 a9bf 1d6d 0dbe
000003f0: 8d97 a73f 9737 063f 730a 193e 171e 22bd
0.008681619 -0.011159222 3.279245 0.20373903 -2.9732118 -0.7088582 0.73569006 0.33907112
-0.8970646 -1.2485968 1.8432735 -0.22404316 0.68699455 -1.3134713 0.3161825 2.161785
0.04963001 -0.8011956 -0.21751393 -0.037078645 -0.46674088 1.0130107 -0.72091526 -0.727982
0.53189695 -0.44048968 -0.043390546 0.87177926 -0.24974181 0.26726735 0.37311354 -0.07085272
-0.054257967 0.3724103 0.7210902 -0.18356284 -0.9858229 0.29288554 -0.79971385 0.1418574
0.92207843 -0.10691773 -1.0955373 0.26061028 -0.29536918 0.48727262 0.4778199 0.69621205
3.9507036 1.4420166 -0.4188976 -1.3182322 -1.812418 1.6163263 0.58948815 0.39492399
0.5622237 -0.46838444 1.5333205 -0.41925094 -0.3646251 0.7843504 -1.0222505 -0.12706217
0.20090495 -0.047780883 0.8319474 -0.6291814 0.4892486 0.28852156 1.22961 -0.46426085
-0.74697727 -1.3735723 0.6023962 -0.31122866 0.43176737 -0.76413333 -1.3977655 0.33400184
-0.56171083 -0.018865567 -0.9608111 -0.96286374 0.33380073 2.1786828 2.237562 -0.97469944
1.5737485 -2.131467 -1.498725 0.6451408 -1.0009121 -0.8580628 -0.24490157 -0.5804507
0.23303658 -1.4629965 0.036995515 0.5511716 1.5366987 -1.8198626 -0.8533003 0.99290663
0.4290442 2.3686066 1.0945843 1.2427168 -0.339815 -0.8991796 1.722876 0.74898404
-0.5913992 1.3204939 0.034273483 -0.74950594 1.3567193 0.13185358 -0.8319535 -0.22625718
0.09012746 1.1647055 0.28031573 -0.43727326 1.4646475 -0.04346491 0.5926516 -0.73952484
1.4070693 0.8504638 -0.7848851 -1.0842559 -1.6006156 0.17409414 0.17615956 0.23149946
-1.2878983 1.0066334 1.450908 0.27670237 -0.7737488 0.30922088 -0.36767468 -0.907535
-0.3729142 2.5662146 0.73075515 1.0078589 -0.5026083 1.064523 -0.457269 -1.607807
0.23159905 0.2602788 -3.2886465 -1.2952216 -0.7049678 -0.7737918 1.0483894 -0.74218243
1.1284587 3.720824 0.08102217 0.18986407 -2.1318038 1.7939633 -0.090120584 -1.1407278
-2.5340357 1.6497145 1.7724874 2.0449016 -1.5473447 -0.17110948 -1.1835546 -1.6434634
0.34625152 1.082736 0.27336943 -0.24691164 0.23658821 0.56937045 -1.6324688 0.35326356
-0.45107818 0.31080362 -1.5139595 -1.0130682 0.17733845 -0.65986705 0.12581103 1.0523707
0.27398765 0.79186565 -0.6195265 -1.577844 -0.5140825 1.5592666 -0.55918455 -0.28289354
0.028936215 0.17045072 -0.9298646 -1.4142786 -0.38443956 -1.4742156 -1.0476679 -0.11214534
0.27164072 1.6900947 -1.9748452 -1.3601136 -1.8175172 1.6535386 -0.98233694 0.98199564
1.1002967 0.34514308 -0.67422765 0.042058736 1.1250255 0.8954826 -0.28229824 -0.46632013
-0.6301406 -0.21716802 0.45294052 -1.0994114 1.0477816 -0.8487062 -1.6419454 0.38175493
-1.0250974 -0.22436975 2.8651326 -1.3767436 0.44686696 -0.6940433 1.1530416 -1.8498996
0.9424517 -1.554878 -1.0312308 0.004264976 0.524 -1.083241 0.90151036 -1.194899
-1.0736378 0.6882051 -1.3274114 -0.13811155 1.3093125 0.52428573 0.14945392 -0.039579477

encoder.trans_linear.weight f4 [40, 5]
00000000: db64 723d b3ef 123f 3f3f c73e 2619 7ebc
00000010: 839f 073f caf3 f53e e4d1 4fbd 16e8 0bbd
00000020: 72fc 823e 6b40 8cbe b5f2 f63e d9db 0dbf
00000030: 6bbb 1c3f dc7a 83bb 9fc7 b2be 3d8a 00bf
00000040: a0d0 48be 75f8 09bf 0129 1bbf c4f6 e83e
00000050: 3dd7 11bf 002c 91bd 4ab9 7c3e 995c a2be
00000060: 9867 e4be 1895 cabe 3ae5 903d 6cdb 63bf
00000070: e5b7 95bc db6b 803e cce8 3dbd d06c cb3e
00000080: bf81 c5be a7aa 1b3f 67a1 ca3e 2947 4a3e
00000090: b358 893f 4d9d 033e fa08 393f c6cb 843c
000000a0: 21d1 d33e 5438 9bbd 0cd2 fc3d 41b7 50bf
000000b0: b1c9 53bf cef5 b1bd 701d 403d 6511 c73e
000000c0: 449b 6f3f 2efd 923e 0532 2abe 6e12 693e
000000d0: 86e4 0c3f 790d f83d 0385 47be e65d 1bbf
000000e0: 6004 2cbe 9039 a53c cea6 9abe 086b 2ebf
000000f0: 71e3 e6be a027 d8be 3c19 efbe 5f4b 5d3f
00000100: bb72 543c 76cc 8bbe 1674 ed3e 38f4 253f
00000110: 0eba fcbe ca12 583e b2fe f0be efde 06bf
00000120: e46d 07be a33f b83e 46d9 6b3f f703 42bf
00000130: 95a0 93be c772 8c3e 031c 41bf fbe5 203f
00000140: d44f 303f 824f bcbe 8f2b efbe c07b 293f
00000150: 2eb3 173e 97d5 1d3f 7f24 69bf c160 03bf
00000160: 7768 98be e379 11bf bd13 62be 5e96 7ebf
00000170: 4691 df3e 59d5 1abe 92b5 f33e 0190 8dbd
00000180: 16be 273f 5ac6 3a3e 1db0 04bf 3b4c 85bf
00000190: 422a 1a3d d045 703e 37bb 673d 2914 b43e
000001a0: f9e7 043e bf57 3cbf 9203 b93a a2a3 133d
000001b0: e185 42bf e5c8 8dbe f22d 493e aff5 6abf
000001c0: d87b 2bbd 8ddb a7be 73ce a43f 3ce7 5dbe
000001d0: d111 0bbf 714f 373f a63a d3bd 4f2c 223f
000001e0: 53f0 14bf a779 12bf 3393 8ebe a229 523e
000001f0: 1a4a 6fbe fdd2 c13e 3a84 053f e1bc 5fbf
00000200: cc13 98be 8069 183f f1e6 4abe 1e0a aabe
00000210: 5f9c 8abe b176 483f e3f2 abbe 83e6 053f
00000220: ba00 f8be 83c4 0bbf f85e d0be be44 58be
00000230: b6cd 42bf 87dc acbe fc5f 2ebf 9473 e43e
00000240: d9fe ae3e 68d9 a43d 4c8f 223f 0454 483e
00000250: dcaf a93e d41b 8a3f 319c 2bbf 4101 c4be
00000260: 5b86 4abd 6c7f 833e c9b9 f33d 5d41 1cbf
00000270: 60cd 3ebc 6b46 c4be 5ad4 2c3f d478 5e3e
00000280: dff2 c1be cb15 18bf b6ca d13e 6cb6 763f
00000290: 34d1 b43e 1420 c9bd f55f 873e 057f 233f
000002a0: f09d 5dbd 0987 e63e 0cb5 093f 2423 95be
000002b0: 15b9 34bf 27b3 d9be cfee 8b3d 8e5d 30bf
000002c0: 1e2c 5f3e e4c3 18be 341b af3d 6a01 51bf
000002d0: 053b 9b3e 9a63 153f b459 3dbe 4c91 0a3f
000002e0: 617f f6bd 8536 33bc 9538 143f d560 c0be
000002f0: 7ba3 65bf cdf6 183f e517 c6be 3c48 e73e
00000300: 9bd1 d13e 1e37 b83d 4949 cebd fba0 0d3f
00000310: 6307 303e 7559 233f df14 e03d f473 343f
0.059178215 0.57397 0.3891544 -0.015508926 0.5297777 0.4803756 -0.050737277 -0.03415688
0.25583225 -0.27392897 0.48232046 -0.55413586 0.6122348 -0.0040124487 -0.34917924 -0.50210935
-0.19610834 -0.5389474 -0.6060944 0.45500767 -0.5696905 -0.070884705 0.24680057 -0.3171127
-0.44610286 -0.39566875 0.070749715 -0.89006686 -0.018276164 0.25082287 -0.04636459 0.39731455
-0.3857555 0.6080727 0.39576265 0.19753708 1.0730194 0.12852974 0.7227932 0.016210448
0.4137049 -0.07579103 0.12344751 -0.81529623 -0.8272963 -0.08689462 0.046903074 0.38880458
0.9359629 0.28708786 -0.16620643 0.22760937 0.550362 0.12111945 -0.19484334 -0.6069015
-0.16798544 0.02016905 -0.30205387 -0.68132067 -0.450954 -0.4221773 -0.4669894 0.8644313
0.012966807 -0.2730443 0.4637763 0.64825773 -0.49360698 0.21100917 -0.47069317 -0.5268392
-0.13225514 0.3598605 0.9212841 -0.757873 -0.28833452 0.27431318 -0.7543337 0.6285092
0.6887181 -0.3677941 -0.4671292 0.6620445 0.14814445 0.6165404 -0.91071314 -0.5131951
-0.297672 -0.5682661 -0.22077842 -0.9944819 0.43665522 -0.15120448 0.47599465 -0.06912232
0.65524423 0.18239728 -0.5183123 -1.0413889 0.037637956 0.23464131 0.056575026 0.3517163
0.12979116 -0.7357139 0.0014115444 0.036044724 -0.75985533 -0.27692333 0.19646433 -0.91781133
-0.041866153 -0.3278469 1.2875503 -0.2167024 -0.5432406 0.7160559 -0.10313921 0.6334886
-0.58179206 -0.57216877 -0.2784668 0.20523694 -0.23368111 0.37856284 0.52154887 -0.8739758
-0.29702604 0.5953598 -0.1981466 -0.33210844 -0.27072427 0.7830611 -0.33583745 0.5230486
-0.48438054 -0.5459673 -0.40697455 -0.21119973 -0.7609514 -0.33762 -0.6811521 0.4461943
0.34178808 0.080492795 0.63499904 0.195633 0.33141983 1.0789742 -0.67035204 -0.38282207
-0.049444538 0.25683153 0.1190067 -0.61037236 -0.011645645 -0.38334975 0.6751152 0.2172578
-0.37880608 -0.59408253 0.4097497 0.96372104 0.3531586 -0.098205715 0.26440397 0.6386569
-0.0541057 0.450249 0.5379188 -0.29128373 -0.7059491 -0.42519495 0.068326585 -0.68892753
0.21794173 -0.14918476 0.085501105 -0.8164278 0.30318466 0.58355105 -0.1849125 0.54127955
-0.12036014 -0.010938291 0.5789884 -0.37573877 -0.89702576 0.5975159 -0.38690105 0.45172298
0.4098023 0.08994888 -0.10072572 0.5532376 0.17190318 0.63808376 0.10941481 0.7048943

encoder.trans_linear.bias f4 [40]
00000000: 16fd 8f3e 21c5 ec3e 1d1d 61be baae 633c
00000010: 393b ca3e 7e24 97be 9aaa 303e 2132 61be
00000020: d14c 8dbe f5ea ee3e 6ff8 65be a2d5 5e3e
00000030: 5903 f43d 73b1 e6bd 43c0 9cbe 638e 69be
00000040: e7b4 bcbd 6e5a 29be 8114 c9bd 65ea 03be
00000050: 05ec b6be ac1c febd a942 003f d1a9 d1be
00000060: a104 633e cb9e e33d 0c95 b23e 9973 74be
00000070: 968d cf3e 422f b8be 4ca3 bb3d fce4 11bd
00000080: fefa c3be cd8f 3f3d 4d50 8e3e 0b09 9e3e
00000090: 771b 64bc 7140 1dbe 08ec 073f 0bd5 ce3c
0.28122777 0.46244147 -0.21983762 0.0138966385 0.39498308 -0.2952003 0.1725258 -0.21991779
-0.2759767 0.46663633 -0.22458051 0.21761182 0.11914701 -0.112643145 -0.30615434 -0.22808222
-0.09214192 -0.16538402 -0.09818364 -0.12882383 -0.35726944 -0.124078125 0.50101715 -0.40949872
0.22169735 0.11114272 0.3487934 -0.23872222 0.4053771 -0.35973555 0.09162006 -0.035618767
-0.3827743 0.046768 0.2779564 0.30866274 -0.013922564 -0.15356614 0.5309453 0.025248071

encoder.conv_mu.bias f4 [20]
00000000: 4cda a73d e1af 593d 7bde c23d f540 263d
00000010: b3ef 0ebe 62bf 8d3c ea61 f2bb 7711 c3bc
00000020: 2933 38be 185b 823d 614c 1ebd 9253 853d
00000030: 215a 0b3e b122 6dbd bef2 18bd e635 9cbd
00000040: 7030 253e 3ca7 403d e356 fc3a caaa 3fbb
0.08195934 0.053146247 0.09515091 0.04058929 -0.13958625 0.017303172 -0.007396926 -0.023812039
-0.17988266 0.06365031 -0.03864706 0.065100804 0.136086 -0.057894412 -0.037340872 -0.07627468
0.16131759 0.047034487 0.0019251968 -0.0029246085

encoder.conv_mu.lin.weight f4 [20, 20]
00000000: 147d c9bc b36e f93e 77ce 80bc 58a1 e13d
00000010: 5823 e73e f2c1 183f 2ea8 7bbe 8c33 89be
00000020: 1210 463e fc6b 943d 4ab6 eabe f287 64be
00000030: 6f98 babe e7b9 c9be 785c fe3d 5ff7 91be
00000040: d869 1c3e 3399 233f c4fb 93be d202 de3e
00000050: 0b08 dabe 354f a93e 974b c33d 7fc9 06bf
00000060: 2c23 29be b7f2 103e 76f0 1d3e 18b9 0dbe
00000070: bd70 5a3e 1dba 423d 792f cabd df39 5cbd
00000080: 75f7 853e 464f cb3e 0fce 583e 18f8 ffbd
00000090: 2f53 1b3e fcaf b8be 6248 05be bd8f b7bd
000000a0: 8689 cd3c dbce 5dbd a56a 46bd cf40 02be
000000b0: e057 bfbe 0dbf cd3e fdf9 95be 4049 2e3f
000000c0: a123 d03e 9041 d53e 83a0 053e 4d82 90bd
000000d0: da8c 783e 1bcc 62ba 48f6 84bd f78e 57be
000000e0: 89b7 c8bd f7ce 36bf 1672 e63e ef75 01be
000000f0: 5960 ca3e d205 b23d d7d3 1c3e d681 13bd
00000100: dad1 eebe 90e2 19bf a0ce 2d3e be8c 26bd
00000110: 8505 093e 0e4e 053f f4ad 8c3e 7669 7c3e
00000120: db97 e3be 3124 bebe 7139 153e f601 72bd
00000130: 08c3 fb3d 1058 89bd 6c0d 1cbe fb61 a0be
00000140: ff71 82be 5ccd 603d 54ca febe 9c96 513e
00000150: 22e6 863e b50a a1bd d7e3 2fbe db34 7bbe
00000160: 449a b0be 54b3 f43e 84cc f93e 5ed4 aebd
00000170: 7001 86be de28 dbbc 20ee 85be 49bf b63d
00000180: 1735 abbd 9746 e8be 6673 f43d 9ef9 d13d
00000190: ba99 fbbd 8683 3dbe 15e0 c23d 49e6 80bd
000001a0: ca6b f3bd efa4 533e 2831 093f 0fab e8bd
000001b0: b3f2 35bb dd4f eb3d 6dc5 86bc 8dc2 97be
000001c0: 82dc 583e 10ec bf3e 3c09 3f3e 285b 47be
000001d0: ae13 103d 56d9 96be d23d 94bd 882d 9b3d
000001e0: 29c9 2bbf d85c b3bd 20b3 a3be d0ad 153e
000001f0: 52bb d3be 6f3e 5a3e efec c03e 3a4c 29be
00000200: 5d8e c93e 521e aa3d 8e67 99bd 8d07 ca3e
00000210: 3fd1 2e3e 6273 62be 658c 4abe 8c17 2cbe
00000220: 76d4 a63e 3b13 15be 80a1 37be 67b2 853d
00000230: 175f 893e e156 fb3d 9151 d7be e864 02bf
00000240: 4807 113e 4d1b 24bf d363 d8be d429 0bbe
00000250: 4dbc 943e 0bdb 373d 5c92 61be 42a3 4a3e
00000260: fefd 60bd 3739 7abe 09ea f63d e523 ae3e
00000270: 8289 1a3e 0844 c63b f2fc 22be 07f0 803d
00000280: c4bd 12bf eb22 0cbf c552 863d 70a9 dbbe
00000290: 5089 db3e 2c23 a2bc 5b17 a23e 8ef0 55bd
000002a0: ba28 1ebe f889 e13e 68f2 97bb 3b1d dc3d
000002b0: c1db 873e ed26 00bf 9ac0 cabd c35c 82be
000002c0: a4d0 513e 30d3 9bbe 2b8e 063e 6aa3 e3be
000002d0: 807e 2b3f 8a93 bdbd c0db ae3d d666 39be
000002e0: 45c1 dc3d 2b59 943e 065b 02be 4ec1 8bbe
000002f0: b212 473f ce29 09bf 57a7 683e 9938 633e
00000300: 3fbb 0abf b0dd 123e 2fee cdbe 88cc 243d
00000310: 0986 643e 7795 c8be 9fed 37be 1dd5 e7be
00000320: 14e1 80be ed8b 97be 6ea8 393c 7467 753e
00000330: 0866 dbbe d812 953e d06d a3be 5dbf cdbe
00000340: 5204 073e b491 c03d 9053 a43e 7ca0 53be
00000350: dd28 703d 40d9 09bf 01db d23e 7474 b03e
00000360: dabe 323d 6f5c ce3e 912c efbe 1934 04bf
00000370: 1972 d13e 5495 23bf 04f3 dfbe 618b b63c
00000380: 3a09 88be 019d 9fbe 095b 283d e0bf 1b3e
00000390: dff4 1b3f 7737 8abd b7b4 8dbd 926e f2bd
000003a0: 7c8a 3b3f c18d 8cbe 03ad e8be 812c 19be
000003b0: 3c8f ca3d 52dd e63e 068d da3e 8891 38be
000003c0: 1d69 50bf b0cd 583f e4c7 b1be 254d e3be
000003d0: fd69 2f3e 131a bfbd 0d30 08bf 1b09 0cbd
000003e0: c029 0d3e 1bf4 a53d c654 0c3b f567 913e
000003f0: 5183 a33e 6b9a aebe b40f d83d 78d3 4a3e
-0.024595775 0.4871727 -0.01572345 0.11017102 0.45144153 0.5967094 -0.24575874 -0.2679714
0.19342068 0.07247159 -0.458422 -0.22317484 -0.36444423 -0.39399645 0.12419981 -0.28509042
0.15274751 0.6390564 -0.2890302 0.43361527 -0.4258426 0.33068243 0.09535902 -0.5265121
-0.16517323 0.14155088 0.1542376 -0.13840139 0.21332069 0.047540773 -0.09872336 -0.053766128
0.26165357 0.39708918 0.21172355 -0.12498492 0.15168451 -0.36071765 -0.13015893 -0.08962963
0.02508999 -0.05415235 -0.048441548 -0.12720035 -0.3737173 0.40184823 -0.29292288 0.6808052
0.40652183 0.41651583 0.13049512 -0.07056103 0.2427248 -0.000865163 -0.06492287 -0.2105063
-0.098006316 -0.71409553 0.45008916 -0.12642644 0.39526632 0.086925164 0.15315185 -0.036012493
-0.4664448 -0.6011133 0.16973352 -0.040661566 0.13381012 0.52072227 0.27476466 0.24649605
-0.44451794 -0.37136987 0.14572693 -0.0590839 0.12293059 -0.0670625 -0.15239495 -0.31324753
-0.25477597 0.054883346 -0.4976374 0.20467609 0.26347452 -0.0786337 -0.17176758 -0.24531882
-0.34492695 0.47793067 0.48788846 -0.085365996 -0.26172972 -0.026752885 -0.26158237 0.089232035
-0.083597355 -0.45366356 0.11936073 0.10252689 -0.122851804 -0.18507203 0.095153965 -0.062939234
-0.118857935 0.20668386 0.5359063 -0.11360752 -0.0027763068 0.11489842 -0.016451562 -0.29640618
0.21177867 0.3748479 0.18655866 -0.19468367 0.035175018 -0.2946269 -0.07238354 0.07577044
-0.6710382 -0.08757943 -0.319726 0.14617085 -0.41353852 0.21312879 0.37680766 -0.16532984
0.39366427 0.083065644 -0.074904546 0.39458886 0.17072009 -0.22114328 -0.19780119 -0.16805857
0.3258397 -0.14558117 -0.17932701 0.06528168 0.2683036 0.1227243 -0.42054418 -0.5093522
0.14162934 -0.6410416 -0.4226366 -0.13590175 0.29049912 0.04488663 -0.22028488 0.1978884
-0.054929726 -0.24435888 0.120563574 0.3401176 0.15091518 0.0060505904 -0.15916803 0.062957816
-0.5732081 -0.5474078 0.06558756 -0.42902708 0.428782 -0.019792162 0.31658444 -0.052231364
-0.15445223 0.44050574 -0.0046370514 0.10747763 0.26534846 -0.50059396 -0.09900017 -0.25461397
0.20489746 -0.3043456 0.1314017 -0.44460613 0.669899 -0.092566565 0.08538008 -0.18105635
0.10779051 0.2897428 -0.12730035 -0.27295917 0.777629 -0.53579414 0.22720085 0.22189559
-0.54191965 0.1434238 -0.40220782 0.04023412 0.22316755 -0.39176533 -0.17961739 -0.4527978
-0.2517172 -0.29598942 0.011331661 0.23965245 -0.4285128 0.2911594 -0.31919718 -0.4018506
0.13185242 0.09402791 0.32095003 -0.20666689 0.05863272 -0.5384712 0.41182712 0.34463847
0.04363904 0.40304896 -0.4671369 -0.51641995 0.40907362 -0.6389973 -0.43740094 0.022283258
-0.2656954 -0.31174472 0.041102443 0.15209913 0.6092052 -0.0674886 -0.06919234 -0.11837496
0.73258185 -0.274519 -0.45444497 -0.14958383 0.09890601 0.4509073 0.42685717 -0.18024266
-0.8141039 0.84688854 -0.34722817 -0.44394794 0.17130275 -0.09331145 -0.5319832 -0.03418837
0.13785458 0.081032 0.0021412834 0.28399625 0.31936124 -0.34102187 0.1054987 0.19807231

encoder.conv_logstd.bias f4 [20]
00000000: c2a9 cbbe 2d04 01bf 3bb3 01bf 72f2 0ebf
00000010: 56f9 efbe c594 3cbe dd2c 0fbf 18cc e4be
00000020: 6996 03bf 00e0 00bf b51b 8dbe 4052 a2be
00000030: 4138 ffbe 3ff5 d7be 9688 18bf 117d 1abf
00000040: 9414 23bf 658b c7be 19ef a4be 492e 5fbe
-0.39777952 -0.50396997 -0.5066411 -0.5583869 -0.46869916 -0.18416126 -0.5592783 -0.4468696
-0.5140138 -0.50341797 -0.275602 -0.31703377 -0.49847606 -0.42179295 -0.59583414 -0.60347086
-0.63703275 -0.38973537 -0.32213667 -0.21795

encoder.conv_logstd.lin.weight f4 [20, 20]
00000000: fa87 95bc 0d83 c9bd 5797 343c 79ef d1bd
00000010: fc04 a4bd 107e 8f3d d369 8a3e 5fce 913c
00000020: 0e6c 7c3d 9c12 df3d d0e5 6dbe 097f 4bbe
00000030: 1ed8 04bd 168e a73d de95 863b f9eb 35be
00000040: 4ba0 13bf a33a 953d 0cad 19bf c557 773c
00000050: 12b9 d53d 6051 013e 28bf 58be 7c3c abbe
00000060: baa8 5e3d 2e0d c2bd 8c30 5dbd f93e b5bd
00000070: c232 913e 1856 3abd eca3 34bc 4932 7dbd
00000080: 3a0e a5bc b4b5 75bd 872f cdbb 6ffc 21be
00000090: 69f3 9ebe 66b6 063d 6eb7 a4be 1c36 35be
000000a0: c1c1 e83c 227a 383e 8bde 7cbe f14a a6be
000000b0: a067 88bc 0095 0abe 6a7a e73d 6cfb 98bd
000000c0: 67b8 933e d68f c93c 8c91 0cbe 2ef0 cebd
000000d0: 4b4e 83bd 72f1 86ba 9ed2 b63d 413f 5dbd
000000e0: 1285 fcbe 36d2 073e b0f8 f7be 84cc 32be
000000f0: 81f2 b73d ee1b db3d 0ce4 1bbe ce57 a4be
00000100: 6ec3 b33c 052a 0dbd e5db d2bd c83d b1bd
00000110: 999a 603e fcd1 28bd 5e30 1abc a62c 06be
00000120: 1c05 263b 5807 b4bd 243e 333d bb72 9bbe
00000130: 60b3 cdbe e3ef 9f3d 747a cdbe 42c7 18be
00000140: 46eb 2a3d 399d 4ebd 9ca5 cc3a 8d84 5dbe
00000150: f58f 81bd 27e6 b33a b688 b73d 9154 52bd
00000160: 6ea3 013e 1ae3 f33d e627 eabd 286d 26be
00000170: bf08 6b3d d913 963b 9fb1 24be a290 b5bd
00000180: b529 07bf ced6 f53d 13f3 0abf c2f2 3cbd
00000190: 1edd 113c 639c 63bd 1449 32bd 715a 5dbd
000001a0: 608c 2abe deb0 293d dd73 8c3e d840 f4bb
000001b0: 63b0 a03c e235 1f3e 15bb 25be 2575 4fbe
000001c0: cf6c 7d3d 50b4 593d 9dd1 e2bc a70f a5bd
000001d0: 0cf2 edbe 7d6b 233e 36f0 efbe 8d4d 8cbd
000001e0: bc8a cf3d 34dc 3a3e b5f3 44bd ad34 e9bd
000001f0: 8033 0c3d 0792 ef3c bccb 69be afa1 7f3d
00000200: 95ae 0fbd 289c 3c3d c691 12bc d8d5 87bd
00000210: 092a 03be 004f f6bd 887e 2b3d 941d b6be
00000220: fab9 b5be b50d ba3b 64c0 c9be c98e 10be
00000230: 34c8 56bd 8cfe de3d 31b5 2bbe 71ac b8be
00000240: 8f4f 0b3d 11ee 243d ec17 1b3e db78 fdbd
00000250: 5300 123e 77fd 7f3d 0316 b83c baca 71be
00000260: 6c6a 493c ddab 9b3c d957 903d d246 88be
00000270: 0ab4 00bf 47e9 3fbc 76dc bbbe e1bc 99bd
00000280: 8417 353e 524a d03d 7ee8 e4bd 7c98 52be
00000290: 74f2 803b 3a1e 75bd eb98 02be 70ff 943c
000002a0: 92ca 2f3e e14a 863b f0ca 43bd 213a bdbd
000002b0: e255 13be 5e27 40bc 51e5 39bd 62ec 5fbe
000002c0: 30fc f2be 86ac 9b3c e870 ffbe 6808 00be
000002d0: 3c72 e83d 0ace d93d 6804 f6bd 2c74 95be
000002e0: e476 da3c 03ac febc bdff 13be b488 d8bd
000002f0: ced2 2a3e 3d04 2ebd ce5f 8f3c dba5 bcbd
00000300: e488 66bd 4370 debd 3ff2 53bc 0f96 83be
00000310: cba9 bebe 8993 a93d c878 c4be 38ec 0bbe
00000320: 149d 4a3d 3c83 ffbd 00f2 c63d 47b7 0abe
00000330: f98f b1bb b4e9 b43d 88bc ff3d 29e3 063d
00000340: f0ce 84bc f973 bd3d ff01 b2bd bba5 6fbe
00000350: cb82 8fbd 8cda 8f3d 5307 603c 5c58 b2be
00000360: b43d 13bf ea81 5dbb d83e 06bf 7067 8e3d
00000370: 5c80 fa3d 7195 913c 3747 353d a4a7 19bd
00000380: 05e6 543d 7ece 003e 9e42 3dbe 1e72 203d
00000390: c73c 4ebd 7f47 6e3d 145c 3cbd d0fc 2cbe
000003a0: 37d7 bebd 8028 babd a2b1 09be 7da5 93be
000003b0: c309 f5be 7d00 fd3d 9c20 fcbe 2d4c 3e3c
000003c0: 8960 243d a19a 3a3c c97e cebd 363c b4be
000003d0: d13b d93a 18a1 25bd db9f a33d 1649 d2bd
000003e0: c982 113e 8664 823d 2ab0 e43b d5e3 18be
000003f0: 2084 cf3c d7b1 ef3c 4903 fabc aa00 4ebe
-0.018253315 -0.09839449 0.01102241 -0.10250754 -0.08008763 0.070064664 0.27033862 0.0177986
0.061626486 0.10892221 -0.23232198 -0.19872679 -0.032432668 0.081813976 0.004107221 -0.17765798
-0.5766646 0.07286575 -0.60029674 0.0150966095 0.1043569 0.12628698 -0.2116667 -0.33444583
0.05436013 -0.0947517 -0.054001376 -0.08849902 0.28359038 -0.04549226 -0.01102541 -0.061815534
-0.020148385 -0.05998774 -0.006261769 -0.15818952 -0.31045082 0.032888792 -0.32171196 -0.17696422
0.028412702 0.1801534 -0.24694268 -0.3247905 -0.016650975 -0.13533401 0.113026455 -0.0746983
0.28851625 0.02460472 -0.13727397 -0.101044044 -0.064114176 -0.0010295345 0.08926891 -0.0540154
-0.49320275 0.13263783 -0.4843192 -0.17460829 0.08981801 0.106986865 -0.15223712 -0.3209824
0.021943774 -0.0344639 -0.10295848 -0.08654362 0.21933974 -0.04121588 -0.009410946 -0.1310297
0.0025332635 -0.08790463 0.043760434 -0.3036097 -0.40175915 0.07809427 -0.40132487 -0.14919761
0.04172828 -0.050442908 0.001561332 -0.21632595 -0.06326286 0.0013725207 0.089616224 -0.05135018
0.1266 0.119085506 -0.11433391 -0.16252577 0.057381388 0.0045800027 -0.16083382 -0.08865477
-0.52798015 0.12003861 -0.5427715 -0.04612995 0.008902816 -0.055569064 -0.043526724 -0.05404133
-0.16655111 0.04142844 0.27432147 -0.007454019 0.019615358 0.15547898 -0.16184647 -0.20259531
0.061871346 0.053150475 -0.027687842 -0.08059626 -0.4647373 0.15958972 -0.46862954 -0.06850729
0.10133883 0.18248063 -0.04808398 -0.11387 0.0342288 0.029244436 -0.22831625 0.062410053
-0.035078604 0.04604736 -0.008945888 -0.06632584 -0.12809004 -0.12026787 0.041868716 -0.3556944
-0.3549345 0.0056779035 -0.39404595 -0.14116968 -0.052437022 0.10888395 -0.16768338 -0.36069062
0.03401142 0.0402661 0.15145844 -0.12376567 0.14257936 0.062497582 0.022471434 -0.2361249
0.012293439 0.01900285 0.070480056 -0.26616532 -0.5027472 -0.0117133325 -0.36691636 -0.07506729
0.17684752 0.101704255 -0.11177157 -0.2056598 0.0039351527 -0.05984328 -0.12753646 0.018188208
0.17167118 0.0040982817 -0.04780096 -0.09239603 -0.1438823 -0.011728136 -0.04538471 -0.21867517
-0.4745803 0.019003164 -0.49890828 -0.12503207 0.113499135 0.10635002 -0.12012559 -0.29190195
0.02666802 -0.031087881 -0.14453025 -0.10572949 0.16681978 -0.04248451 0.017501738 -0.09211322
-0.056282893 -0.10861256 -0.012936174 -0.25700423 -0.37238917 0.08280093 -0.383734 -0.13664329
0.049466208 -0.12476203 0.097141266 -0.13546477 -0.005418774 0.08833638 0.12487131 0.03293148
-0.016211957 0.09250636 -0.08691787 -0.23403065 -0.07007369 0.070241064 0.013673621 -0.34833038
-0.57516026 -0.0033799359 -0.5243964 0.06953323 0.12231514 0.017771455 0.04425737 -0.03751339
0.051977176 0.1257877 -0.18482444 0.03917133 -0.05035093 0.058173653 -0.04598625 -0.16893315
-0.09318393 -0.09089756 -0.13446668 -0.28837195 -0.4785901 0.12353609 -0.4924363 0.011614841
0.040131126 0.0113894055 -0.10082776 -0.35202187 0.0016573613 -0.040436834 0.079894744 -0.10267846
0.14210047 0.063668296 0.006979008 -0.14930661 0.025331557 0.029259605 -0.030519145 -0.20117441
