results/model_GCN/graph_split_/layers_8/transform_False/alpha_0.1/model.pt (torch, 63736 bytes, 21 tensors)

encoder.conv.convs.0.bias f4 [40]
000000 cf 73 5e 3d de ef 54 bd b3 6b e5 3c 00 f6 60 bd
       0.054309662 -0.051986568 0.028005457 -0.054922104
000010 98 10 88 3c 91 88 7d bd 6b b9 d9 bc 7f 3e d4 3d
       0.016609475 -0.061897818 -0.026577672 0.10363483
000020 87 85 d3 bc 5a 84 80 3d 61 ed bd 3d d4 84 7f 3d
       -0.025820507 0.06275244 0.09273792 0.062382534
000030 03 e0 7f bd f4 5b 34 bd 5f 62 ba 3b 54 35 10 bc
       -0.062469494 -0.044033006 0.0056879963 -0.008801777
000040 95 ae 21 3c 8e 1f e6 bc 7e e3 9d 3d cd 57 fb 3b
       0.009868284 -0.028091218 0.07709406 0.007670379
000050 83 f7 e2 3d e2 53 26 b9 96 2b 72 bd f6 c2 ae bc
       0.11082365 -0.00015862242 -0.059123598 -0.021333199
000060 bc 8b 95 3d b4 19 d9 3d d2 39 17 3e ed 69 88 bd
       0.07302043 0.106006056 0.1476815 -0.06660829
000070 63 94 9f bd 50 f3 4f bc db 83 9d bc 48 99 8d 3d
       -0.077919744 -0.012692288 -0.019227913 0.06914002
000080 ac 52 18 3d 72 42 b8 3d fe 0d f8 3c 29 b2 d8 3c
       0.037188217 0.089970484 0.03028011 0.02645214
000090 42 a0 51 3d b3 0f 2b bd ef 69 8f bd 93 f6 91 3d
       0.051178224 -0.04176302 -0.07002627 0.071271084

encoder.conv.convs.0.lin.weight f4 [40, 40]
000000 17 71 93 bd 52 8f bd 3e 08 f1 0c be d0 ac a4 3d
       -0.071993046 0.37023407 -0.13763821 0.08040774
000010 6b 10 33 be 6b eb 31 3e 4f bf 68 3e b5 74 1c be
       -0.17486732 0.17374961 0.22729228 -0.15278895
000020 de 7e ef bd a4 c5 92 3e 4b 6c ab be 85 53 f6 bd
       -0.1169412 0.28666413 -0.33481058 -0.12027649
000030 01 ad ff 3e c7 7b 97 3e 96 19 0c bf 9f da bd 3d
       0.4993668 0.29586622 -0.5472654 0.09270214
000040 f5 46 81 3e 30 ca 39 3e 6d 98 f1 bd 3d 88 6c 3d
       0.25249448 0.18143535 -0.11796651 0.057747114
000050 61 98 c7 bd 2a c1 54 3e d3 15 46 3e 6d f4 f6 bd
       -0.09745861 0.20776811 0.19344263 -0.12058339
000060 7d dd e4 bd 5c 12 d9 3c 06 27 75 bc 58 01 a1 3e
       -0.11175058 0.026498012 -0.014962917 0.31446338
000070 c0 e3 6e be 8a 5e b8 be 98 e5 86 3e 1b 42 d6 bd
       -0.23329067 -0.36009628 0.2634704 -0.10461827
000080 a0 ee 9e be 53 25 ca be e9 3f 75 be c6 fb 69 3e
       -0.3104143 -0.394816 -0.23950161 0.2284995
000090 dd 60 26 be a1 66 62 bd 2a 4a a8 be e3 74 b0 bd
       -0.16247888 -0.055273656 -0.32869083 -0.08616044
0000a0 3c 27 c7 bd 5d ad b7 bd 4b 33 d4 bc 84 6a 9d bc
       -0.0972428 -0.08968613 -0.025903365 -0.01921583
0000b0 d4 9f 7a be a2 60 9d be 06 24 5a 3b 3c bf 30 3e
       -0.24475032 -0.30737787 0.0033285632 0.1726045
0000c0 77 e8 9d 3e 8e d9 14 bd c4 c7 41 bd 70 82 df 3d
       0.3084142 -0.03634029 -0.047309652 0.10913551
0000d0 8f d9 45 3d ab df ef bd 8f 39 21 3f f9 fb be bc
       0.048303183 -0.11712583 0.6297845 -0.02331351
0000e0 98 45 aa 3e 22 3a 94 be c2 f5 58 bc a1 4a 25 be
       0.3325622 -0.28950602 -0.013242187 -0.1614175
0000f0 80 6b 8b 3d d9 6a 5e 3e 63 4d 63 bd 7f 33 62 be
       0.068076134 0.21720447 -0.055493724 -0.22089957
000100 97 70 e8 bd 5f 8b ed bd 32 27 04 3e 8f 37 86 bd
       -0.113496 -0.115988486 0.12905577 -0.06553566
000110 c9 62 14 3e 43 a5 c3 3e 8f 8d b4 bd d2 0f 90 3d
       0.14490809 0.38212022 -0.08816063 0.070342675
000120 ed 5c 1f 3d 45 8a 2a be 33 26 dc 3d 2b e7 56 bc
       0.03890698 -0.16654308 0.107494734 -0.013116638
000130 d5 de 02 be ec 97 87 3e 2c c5 8c bc 96 d0 99 bd
       -0.12780316 0.26483095 -0.017183863 -0.07510488
000140 cd 2e d8 3d 23 23 09 be 54 7e 82 bc ce c6 99 3e
       0.105558015 -0.1339231 -0.015929379 0.30034488
000150 92 51 ef 3d a1 8b 0d 3d 65 84 dc 3d 8b e7 91 bd
       0.1168548 0.03455699 0.1076744 -0.071242414
000160 14 15 16 3d 79 4e a4 bc 80 28 41 3e 9e 1a 31 3e
       0.036641195 -0.02005695 0.18863106 0.1729531
000170 d7 5c 5a 3e 48 e5 41 3e 83 2e 94 be 84 cd 1b 3e
       0.21324478 0.1893512 -0.28941736 0.15215117
000180 ad 0f 18 be 8d a6 be 3d 39 8d 81 be 3b 70 86 3e
       -0.1484973 0.09309111 -0.25303057 0.262575
000190 b5 76 59 3e cb f8 87 3e ea 1c 67 3d 50 8b e2 bd
       0.2123669 0.26557 0.05642406 -0.11061728
0001a0 b0 57 48 3e b8 b8 ac 3d f6 3f 8e 3e 12 06 59 3d
       0.195647 0.0843367 0.27783173 0.052984305
0001b0 19 db 5f 3e bc 1f 2f be 0d f3 42 be 4a 86 2b 3b
       0.21860923 -0.1710195 -0.19038029 0.0026172572
0001c0 c8 29 0b be f9 9d 12 3e 7d 42 7e 3e 08 57 94 3d
       -0.13590157 0.14318074 0.24830051 0.072431624
0001d0 f8 ff 3a 3e 82 48 6e 3e ce 97 74 bd cd 08 4d 3e
       0.18261707 0.23269847 -0.059715085 0.20022888
0001e0 f0 50 86 3e 8e 72 b6 be e6 c7 ff 3d dd 94 b9 bd
       0.26233625 -0.35634273 0.124892995 -0.090615965
0001f0 68 3d 9d be f1 63 55 be 83 35 9d bd 5c ca 86 be
       -0.30710912 -0.20838906 -0.07676222 -0.26326263
000200 55 5a c1 3e be 2f 96 bc 38 1e 07 bd cb d7 6e 3e
       0.3776423 -0.018333312 -0.032987803 0.23324506
000210 7c 67 61 3d 97 03 35 3e b3 ec df bb fc ae 37 3e
       0.05503033 0.1767715 -0.0068336367 0.17937845
000220 d8 1e 9b be c5 5f 9d be 00 43 9a be 73 23 a4 3e
       -0.3029697 -0.3073713 -0.30129242 0.32058296
000230 1d 34 72 3d df 72 6f be ec f9 9c 3e 82 07 f8 3d
       0.05913173 -0.23383664 0.30659425 0.12110807
000240 48 71 eb bd 74 6a e4 bd 71 d0 67 3e b0 13 ba be
       -0.11496216 -0.11153117 0.22638108 -0.36343145
000250 86 bd ce 3d 34 25 2e be 98 6c b7 bd 93 2a c9 3d
       0.100947425 -0.1700638 -0.089562595 0.098225735
000260 65 4d 6e be da a1 99 bd b1 fc d8 3d 4e 3e a4 be
       -0.23271711 -0.07501574 0.10595072 -0.32078785
000270 f6 37 ae 3e cf a4 49 bd 94 13 f7 3d 1e 50 c3 3e
       0.3402707 -0.04922944 0.12064281 0.38147062
000280 b8 59 22 be 60 d1 01 3e 26 c3 a0 be 29 db 90 3e
       -0.15854537 0.12677526 -0.31398886 0.28292206
000290 36 17 dd be 8a 03 e5 bd 17 06 4d be 1a ad 80 be
       -0.4318177 -0.11182316 -0.20021854 -0.25132066
0002a0 fc d6 3a 3d eb eb 50 bd b1 db 5a be b5 47 08 be
       0.04561518 -0.05100624 -0.21372868 -0.13308604
0002b0 f6 54 71 bd 7e ef 0c 3e f2 f4 b1 3d 24 51 07 be
       -0.058918916 0.13763234 0.08689298 -0.13214546
0002c0 d7 ee 4b 3c 77 83 d6 3c 4a b4 f8 3d 1b 49 43 3e
       0.012447081 0.026185734 0.121437624 0.19070856
0002d0 e7 25 a6 be 32 38 31 be fc a5 f3 3e 3f 99 ad ba
       -0.32450792 -0.17306593 0.47587574 -0.0013244523
0002e0 27 49 bc be fd 84 58 3c 12 16 e4 be 5a fe 91 bc
       -0.3677456 0.013215301 -0.44548088 -0.01782148
0002f0 9f e3 a1 be 11 4b 77 bd 3b 59 96 3e 8d e8 a7 be
       -0.31618974 -0.060374323 0.29364952 -0.3279461
000300 93 f4 88 be 7c 8a cf bd f6 1c ca 3a 42 f9 90 bd
       -0.26749095 -0.10133836 0.0015420008 -0.07078792
000310 14 b7 4f 3d 93 8e 84 3b 9a 3e 23 bd 47 a3 c1 3e
       0.050711706 0.0040453165 -0.039854623 0.37819883
000320 85 39 12 be 61 3c 41 be a0 fa 39 be 27 22 a4 be
       -0.14279754 -0.18870689 -0.18162012 -0.32057306
000330 04 c9 21 3e 0e b4 55 be 0c ba fc bd e6 37 a7 bd
       0.15799338 -0.20869467 -0.12340173 -0.08164959
000340 7b e8 02 3e ec 67 05 3e 11 72 2b 3e a9 80 52 be
       0.12783997 0.13027924 0.16742732 -0.20556892
000350 a3 83 e1 bd fe 42 e2 be 68 d1 25 3e 71 35 28 3e
       -0.11011436 -0.44191736 0.16193163 0.16426636
000360 b6 d7 7e 3d 9c 2d 4f 3e 91 58 57 3e f9 fc da bb
       0.062217437 0.20232242 0.21029879 -0.0066829887
000370 74 57 fb bd 0e 99 c3 bd 7f 63 34 bd f2 9b 00 be
       -0.1227254 -0.09550677 -0.0440402 -0.12559488
000380 44 23 15 be 8d 66 b9 3d a6 7c 06 be b9 1e 89 be
       -0.14564234 0.09052763 -0.13133487 -0.26781252
000390 c1 68 66 be ee a5 63 bd fe 52 1f be c0 95 1e be
       -0.22500898 -0.055578165 -0.15559003 -0.15486813
0003a0 ba af 3f 3e cc 88 90 3e e1 88 62 3e 34 7e 73 be
       0.18719378 0.28229368 0.22122528 -0.23778611
0003b0 a7 6e 8b 3e d8 84 ee 3d ec 99 27 3d de 75 d0 bd
       0.2723286 0.11646432 0.040918276 -0.101787314
0003c0 12 73 1f bd af 69 8e 3e 0f c8 8b 3e ea f4 77 be
       -0.0389281 0.27815005 0.2730107 -0.24214521
0003d0 ca bf 97 be 3c 78 b1 3d a2 75 8c bd 23 26 8f bd
       -0.2963851 0.08665511 -0.06858374 -0.06989696
0003e0 51 14 38 be 16 ed 50 3e f3 1b cf 3d 54 f5 d7 bd
       -0.179765 0.20402941 0.10112753 -0.105448395
0003f0 32 0b 8a be 79 ca 5a 3e 49 f4 9a 3e c2 b0 90 be
       -0.26961666 0.213663 0.302645 -0.28259856

encoder.conv.convs.1.bias f4 [40]
000000 61 63 fd bd a3 96 e4 bc 03 d7 bc bc 59 bc 8b 3d
       -0.12372471 -0.02790386 -0.023051744 0.06823034
000010 e0 f0 24 bc f6 68 5d 3d 32 6d a8 bb b6 1d 8e 3c
       -0.010067195 0.054055177 -0.00513997 0.017348152
000020 05 30 a1 bc 03 50 c4 3c a1 9d 1d 3e c7 e1 41 3d
       -0.019676218 0.023963934 0.15392162 0.04733446
000030 a3 c8 f3 bc 33 7f 00 be 9c 29 90 3b 9d fd c4 ba
       -0.029758757 -0.12548523 0.0043994915 -0.0015029196
000040 c3 1d af bd de 03 f6 3a d6 4e 47 3d da bf 19 3d
       -0.085505985 0.0018769463 0.04865917 0.03753648
000050 61 68 88 3c 33 30 d1 3d c2 4b 91 3d 33 d6 00 3c
       0.016651334 0.102142714 0.07094528 0.007863569
000060 3d c9 21 3c 49 4d 9d bc fe 2e 4d 3c e8 5d 39 3b
       0.009874639 -0.019201891 0.012523411 0.0028284732
000070 ed c2 5b 3d ad 51 8f 3d c4 7e 32 3d 9e 78 12 3d
       0.053652693 0.06998 0.043577924 0.03575956
000080 e5 28 fe 3c 6a 48 d6 bc 85 75 39 3d f0 4c 17 bd
       0.03102536 -0.026157577 0.04527809 -0.036938608
000090 2c 55 1d 3c 1e 4d 4c bc d9 26 37 bc fb 94 94 bc
       0.009602826 -0.012469558 -0.011178696 -0.018137446

encoder.conv.convs.1.lin.weight f4 [40, 40]
000000 c3 28 bc 3d 24 c4 7c be 55 6e 85 3d 1a b7 0a 3e
       0.09187462 -0.24684197 0.06515185 0.1354641
000010 b6 8b 93 3d 02 f6 b1 bd 64 e2 f9 be d1 23 6d bd
       0.07204382 -0.086895004 -0.48805535 -0.057895485
000020 5f 07 98 be 97 00 1e 3e 5a d1 3c 3e bb 7b 6a 3e
       -0.29693124 0.15429913 0.18439236 0.22898762
000030 b8 1d 03 3f 89 d0 37 be 53 70 88 be c8 9b 8a be
       0.5121722 -0.17950644 -0.26648197 -0.27071977
000040 e4 07 fc bd 86 9d 64 3e c7 b9 d9 3d 4c 22 46 3e
       -0.123061925 0.22325715 0.10631137 0.1934902
000050 c8 75 29 be 81 fa 19 bf 47 35 b9 be 20 85 be be
       -0.16548836 -0.60147864 -0.3617346 -0.3721094
000060 9d d1 9d 3d dd c2 60 3d 48 08 70 bd 01 db ab 3e
       0.07705996 0.054873336 -0.058601648 0.33565524
000070 93 8a 81 3e a5 e2 49 be 10 43 4f be d7 16 03 3e
       0.25301036 -0.19715364 -0.20240426 0.12801681
000080 64 58 ec be 67 cb b8 bd 4d 30 69 3e 74 d5 88 3e
       -0.46161187 -0.09023171 0.22772332 0.26725352
000090 0f fd ad 3e ad 82 14 bf 56 61 59 be b6 e6 a5 3d
       0.3398213 -0.58011895 -0.21228537 0.08100645
0000a0 5f 31 83 3d d8 1e 9c be e4 7b f6 3d d7 f3 70 be
       0.06405901 -0.30492282 0.12035349 -0.23530518
0000b0 97 d3 2e 3e b1 77 89 3e c1 bc d4 3d 39 bd b7 bd
       0.17072903 0.2684913 0.103875645 -0.08971638
0000c0 a2 31 1a 3c d6 9b 3c be 91 d9 9a bd 0b 39 ee bd
       0.009411247 -0.18418822 -0.07561029 -0.11631974
0000d0 10 52 bf bd f4 10 7c 3e c4 e1 c7 3d 69 a0 f0 3c
       -0.09341824 0.24615842 0.09759858 0.029373365
0000e0 b8 01 24 be 06 37 ee bd 59 9c ad be 4a 50 ef be
       -0.1601628 -0.11631589 -0.33908346 -0.46740943
0000f0 7d 96 e1 bd 86 ce 56 3e 29 5b 99 bd 88 b0 60 3c
       -0.110150315 0.2097722 -0.074880905 0.013713963
000100 d8 e1 37 bf 10 94 cc bd 03 b2 6b be 4f af ba 3d
       -0.71828985 -0.09989178 -0.23017125 0.09115469
000110 45 85 19 3e f1 f2 92 3e fb ad 1e 3e 68 92 8f 3e
       0.14992245 0.28700975 0.15496056 0.28041387
000120 ba 5e c7 bd ec f7 94 bd ef 7c 8f be b8 d3 40 be
       -0.097348645 -0.0727385 -0.28025004 -0.18830764
000130 a3 9f b2 be 92 3d 3c 3e 69 2b 21 3e b9 d7 74 be
       -0.34887418 0.18382862 0.15739216 -0.23910417
000140 33 7d e2 ba 2b a8 4b be df 6b 1b be 4b 0e eb bd
       -0.0017279744 -0.1988837 -0.15177868 -0.114773355
000150 82 c5 88 be 81 6a 93 3d c1 1e 2d 3e 3a 08 21 bd
       -0.26713187 0.071980484 0.16906263 -0.039314486
000160 44 0d 25 3e 48 9a a7 bc ab fd 2e be 47 f2 5e be
       0.16118342 -0.02045931 -0.17088954 -0.21772109
000170 52 e3 92 be 23 df 7e be 34 6e b6 3d 06 e4 47 be
       -0.28689057 -0.24889807 0.08907738 -0.19520578
000180 b6 03 8e 3b 74 3d 2a 3d f5 77 81 3e a1 a1 fb 3c
       0.0043339385 0.041562513 0.25286832 0.03071672
000190 44 95 7f be 47 f4 80 be 4f f5 2f 3e 41 4b 3a 3c
       -0.24959284 -0.2518637 0.17183422 0.011370481
0001a0 4c 10 d6 bd af b5 94 bc 56 b4 31 3e 36 e1 c7 bb
       -0.10452327 -0.01815304 0.17353949 -0.0060998453
0001b0 94 9a 65 3e 0f e7 07 be 94 94 91 be db 29 50 3c
       0.22422248 -0.13271736 -0.2843367 0.012705292
0001c0 d1 18 fc bd 83 a7 69 be d3 ab c1 3d a2 8e bc bd
       -0.12309421 -0.22817807 0.09456601 -0.092068925
0001d0 5a b6 81 bd 2e 29 92 be 0b cb bb bd 63 40 50 3e
       -0.06333609 -0.28547043 -0.09169587 0.20337062
0001e0 59 b8 05 bf 9f 34 65 3e e0 88 13 3b b4 1a c6 bd
       -0.5223442 0.22383355 0.0022512004 -0.09673062
0001f0 57 24 e8 be 9b df fd bd c4 3f a0 3e 07 52 ff be
       -0.45340225 -0.12396165 0.3129865 -0.4986727
000200 bb 10 50 be 4d db 03 bf 5a b5 7d be 68 e5 86 3e
       -0.20318882 -0.515065 -0.24776211 0.26346898
000210 db 7d 6a 3e 81 d2 75 3e 97 1d 37 3e 8c 21 74 be
       0.22899573 0.24006082 0.17882381 -0.23840922
000220 a6 28 46 3e 2d da 26 be f3 c2 3b 3e 9e 64 29 be
       0.19351444 -0.16294165 0.18336086 -0.16542289
000230 71 c4 82 bd 25 ff 67 be e6 aa 68 be 93 03 2c be
       -0.063851245 -0.22655924 -0.22721443 -0.16798238
000240 53 55 9a 3e 40 22 0a be e5 74 e1 3d 64 29 2b 3e
       0.30143222 -0.13489628 0.11008624 0.16715008
000250 c5 58 ad bd f2 a6 4e 3e 98 37 0e be e2 d2 62 bf
       -0.08464197 0.20180872 -0.13888395 -0.8860303
000260 83 36 12 bd f0 6d 74 3e 40 bb ba bc e6 a0 68 3e
       -0.035696518 0.23870063 -0.022794366 0.22717628
000270 33 1c 09 be 7d e6 85 3e dc 78 35 3e 83 76 74 3e
       -0.13389663 0.2615241 0.17721885 0.23873334
000280 89 c6 5b be eb 4b fe 3d 62 97 2d 3d 60 e0 70 be
       -0.21462454 0.12416824 0.042380698 -0.23523092
000290 19 45 6e be 42 b9 12 be f1 e5 a0 3d 2c e2 35 be
       -0.23268546 -0.14328483 0.07856358 -0.17762059
0002a0 45 3a 0f be e4 85 dc bd 62 0e 93 be ef 0e f9 bc
       -0.13987072 -0.10767725 -0.2872191 -0.030402629
0002b0 cb dc 79 be c8 d2 85 3e 81 30 83 bc 2c d9 06 3e
       -0.24400632 0.26137376 -0.01601434 0.13168782
0002c0 45 3b 37 be bc 42 f8 bd 6d 2a 0b bd d0 a4 c7 3b
       -0.17893703 -0.121221036 -0.033976007 0.006092645
0002d0 40 a0 33 be 7a 2a a3 3e b3 f6 38 3e 1f 31 95 3e
       -0.175416 0.31868345 0.18062858 0.2913904
0002e0 9e 19 46 bd 0f dc ce 3d 0d 68 6b be 53 66 a4 be
       -0.048364274 0.101005666 -0.22988911 -0.32109317
0002f0 81 75 80 3e 6c aa f9 3d 8f 00 6f 3e 18 08 4e 3e
       0.25089648 0.121907085 0.23340057 0.20120275
000300 b9 d4 43 3d 48 64 a3 be 12 5a 40 3e 9b cc 02 be
       0.04781029 -0.31912446 0.18784359 -0.12773363
000310 7d 20 0c be 37 e5 37 3e ba 85 27 3e fb 15 c7 bd
       -0.13684268 0.17958532 0.16359606 -0.09720989
000320 b3 01 5f 3e a3 57 fb 3d 6c f9 98 be 09 8c 9c be
       0.21777992 0.12272575 -0.29877794 -0.30575588
000330 60 43 b3 be a4 e4 86 3d 60 ba 35 3e 49 f3 c5 3e
       -0.3501234 0.065865785 0.17746878 0.38662174
000340 a2 0e 0a be 32 6b a3 3e f3 ac 1e 3e 4c 76 2a be
       -0.13482144 0.3191772 0.15495662 -0.16646689
000350 36 95 83 3e c1 69 1f 3e 40 76 92 3c 2e 69 b4 3e
       0.25699776 0.15567686 0.017878652 0.35236496
000360 06 a6 c0 bc 38 58 2e 3e 5a ed cc be f4 c5 c2 3e
       -0.023516666 0.1702584 -0.40024835 0.3804165
000370 6a be 72 be 99 a7 e4 3c 65 a2 86 be a3 fb 05 bd
       -0.2370545 0.027911948 -0.26295772 -0.032710683
000380 20 30 a8 3e ef f3 91 3e 17 50 3a be 0b af 79 be
       0.32849216 0.2850642 -0.18194614 -0.2438318
000390 f4 b4 1a be ed e4 15 be 03 46 bf bd 74 13 62 3e
       -0.1510809 -0.1463811 -0.093395256 0.22077733
0003a0 15 68 72 be c7 5e 94 bd 6e b5 87 be 7f b5 1c be
       -0.23672517 -0.0724464 -0.26505607 -0.1530361
0003b0 26 f4 d5 bd e3 e7 02 3e ad 25 9f 3e 25 fe 1e bb
       -0.10446958 0.1278377 0.31083432 -0.0024260369
0003c0 4b 1f 36 be c1 2a 81 bc f8 ca 02 3d f2 4d 00 be
       -0.17785375 -0.015767457 0.031931847 -0.12529734
0003d0 e7 34 44 be 6c ef 2b be a1 14 51 3d 7d b3 50 be
       -0.19160806 -0.16790551 0.051045064 -0.2038097
0003e0 76 84 f9 bd 49 e7 42 bf 0e a4 2e 3e 89 12 70 3e
       -0.12183468 -0.76134163 0.1705477 0.2344457
0003f0 28 27 ff bc 72 73 92 3e 25 63 7f 3d f9 7a 14 3e
       -0.0311466 0.28603703 0.06235041 0.14500035

encoder.conv.convs.2.bias f4 [40]
000000 8d de 9c 3d a4 e6 d9 3c 6b 4f 88 bd ef 94 55 bd
       0.07659636 0.026599236 -0.06655773 -0.052143987
000010 b6 78 9a bb 2c d7 af 3b 96 34 00 bd e0 57 80 3d
       -0.004714097 0.0053662267 -0.03130015 0.06266761
000020 e0 91 97 bd 8a 9b 2d bc 54 13 c8 3d 49 b6 d2 3d
       -0.0740087 -0.010596165 0.097693115 0.102886744
000030 81 f6 80 bd 88 88 0c 3d 9f cc a3 bc 96 35 a5 bd
       -0.06297017 0.034309894 -0.019995032 -0.08066861
000040 f6 2c 93 3d 09 dc 32 3c 91 b2 ea 3d 87 25 f9 3c
       0.0718631 0.010916718 0.1145984 0.030413402
000050 6f cf a0 3d 38 67 95 bc cc d4 21 be 53 d7 5d 3d
       0.07852065 -0.018237695 -0.15803832 0.054160427
000060 f0 fd 95 3d 4e a6 50 bd 5d 8d fe bc 49 d7 b2 3d
       0.07323825 -0.05093985 -0.031073267 0.08732469
000070 0f d5 92 bd 47 52 5c 3d e6 02 2f 3d 5f 9f 0b be
       -0.07169544 0.053789403 0.042727374 -0.13635014
000080 be 70 f7 bc c1 ac 85 3d 3b 15 bf bc b5 0c 8e bd
       -0.030205127 0.06527091 -0.023325553 -0.069360174
000090 91 af 6d bd 4a 0f 3c bd 4f c3 2a 3d 88 f9 11 3d
       -0.05802876 -0.04591302 0.041690167 0.035638362

encoder.conv.convs.2.lin.weight f4 [40, 40]
000000 d3 09 70 be 6e e0 79 3a eb e4 90 bd 71 e2 dd 3d
       -0.23441248 0.0009532039 -0.07074913 0.10834206
000010 63 51 05 3e 2c 7a 29 3e 1d 17 8f 3d c4 84 76 be
       0.13019328 0.16550511 0.069868304 -0.24074084
000020 ed 2a 08 bd 86 c6 46 be 09 e9 b7 3e cc f4 6a 3e
       -0.033244062 -0.19411668 0.3591998 0.22944945
000030 7b 16 4c be 72 22 eb be ea 42 76 3d 38 aa c2 3d
       -0.1993045 -0.45924717 0.060122408 0.09505123
000040 db 74 33 bc 9c 11 f3 bd 58 91 18 be 9f 09 ed bc
       -0.0109531535 -0.11868593 -0.14899194 -0.028935252
000050 2c 38 ac bd 04 73 0e 3e b8 be 7b bc 6e 84 73 3e
       -0.084091514 0.13911062 -0.015365295 0.23780987
000060 52 c3 b1 3c 6f c8 ed bd d1 63 68 3d 54 93 f7 bd
       0.021699581 -0.11610495 0.056735817 -0.120886475
000070 6c f7 d2 3d 4c d3 8d 3e f8 bb f2 bc ed a6 a0 3c
       0.10301098 0.2770027 -0.029630646 0.019610846
000080 65 c4 70 3e c7 97 33 3e 4c 33 14 3d 1e af 26 ba
       0.23512419 0.17538367 0.036181733 -0.0006358492
000090 b5 db 2e 3e e7 95 18 3e ea 60 25 bf 69 3c 9c 3d
       0.17075999 0.14900933 -0.64601004 0.0762871
0000a0 de 31 30 bc 4a 37 82 bc 63 98 e9 bd 2b 50 ae 3e
       -0.010754077 -0.015895505 -0.114060186 0.34045538
0000b0 65 95 e1 bd 40 c3 b2 be 6e a3 9f bd ca ee 1e bd
       -0.11014823 -0.3491459 -0.077948436 -0.038801946
0000c0 89 1a eb bd 41 19 78 3e 75 d6 fc 3d d4 ec 92 3e
       -0.114796706 0.24228384 0.12345592 0.2869631
0000d0 db 7d 28 3d 5a 17 32 3e 71 1e b6 bd 6a ee 0a be
       0.04113565 0.1739172 -0.08892525 -0.1356751
0000e0 2c 24 17 3e 04 19 83 3e 84 54 ff be 87 36 c1 be
       0.14759892 0.25605023 -0.49869168 -0.37736914
0000f0 77 4d 4d 3e e4 44 46 3e 1c 62 d4 3d 97 a0 80 3e
       0.20049082 0.19362217 0.103702754 0.2512252
000100 a1 57 42 3e 80 19 a0 bd c7 91 ab 3d 03 19 be be
       0.1897874 -0.07817364 0.08377414 -0.37128457
000110 ca 33 4c be 1f cb 8a 3e 17 76 cf bd 9e d2 d3 3d
       -0.19941631 0.27108094 -0.10129946 0.103429064
000120 de e2 a5 3d ce 53 19 3e b5 cf 93 3d 4f 11 b6 3d
       0.08099912 0.14973375 0.07217351 0.0889002
000130 86 f5 ab bd a5 dc 50 be 8f e5 96 3e 6f 4a 28 3e
       -0.08396439 -0.20396669 0.29472014 0.16434644
000140 3e c6 d5 be 6f 33 ee bc 6b 79 8a be 02 8d d1 be
       -0.4175281 -0.02907726 -0.2704576 -0.40927893
000150 41 70 12 3d 5e 85 84 3e ed c2 55 3e 9f 6c 14 bd
       0.035751585 0.25883 0.2087514 -0.0362364
000160 15 5f 95 3d f7 c9 66 3e 91 fd 11 bf 3b 1e ee bc
       0.07293526 0.22537981 -0.57027537 -0.02906715
000170 9a 61 30 3e 63 ed 9d be 19 bb 6a bc a0 06 19 bf
       0.17224732 -0.30845174 -0.014326834 -0.59775734
000180 e9 de bc be c9 23 32 be c5 cf 17 bc 72 2c 95 3e
       -0.36888817 -0.17396463 -0.009265845 0.29135472
000190 29 ae cf 3e 8e 07 d7 bd fd e7 65 bc de 75 b1 be
       0.4056256 -0.10499488 -0.014032361 -0.34660238
0001a0 3c 98 98 be 6b 23 e7 3d 07 3e d7 bd 68 97 f5 bd
       -0.29803646 0.11286052 -0.10509878 -0.11991769
0001b0 55 c1 12 bd e0 6f fd 3d 58 55 14 bf bd e5 dc be
       -0.035828907 0.12374854 -0.57942724 -0.43144026
0001c0 61 a0 17 3e 4c e6 22 bd 43 63 ae bb d9 9a 01 3e
       0.14807273 -0.03977041 -0.0053218915 0.12656726
0001d0 ed f8 12 bd 57 83 3f 3d bd 5e 84 bf 11 80 35 bd
       -0.035881925 0.046756115 -1.0341412 -0.044311587
0001e0 79 c8 83 3e f4 4d 05 3e d6 f9 67 3e 16 61 9d 3d
       0.25738886 0.13018018 0.22653899 0.07684533
0001f0 ac 9e 41 3e f1 11 93 3a d5 06 41 3e cf ef a3 bd
       0.18908185 0.0011220557 0.18850262 -0.08004724
000200 94 9e 9e be c4 41 1d be 50 c0 49 be d5 e9 eb 3d
       -0.3098036 -0.15357119 -0.19702268 0.11519209
000210 ce 9c 73 3e 37 72 15 be fa e7 58 3e 27 0b 0e 3d
       0.23790285 -0.14594351 0.21182242 0.034678604
000220 8e 0e d4 bd 5e 63 30 be 50 66 24 bf a3 4e c7 be
       -0.103543386 -0.17225406 -0.64218616 -0.38927183
000230 2b 44 6d 3c c7 4a 47 3e 58 51 2a be b0 61 24 be
       0.014481585 0.19462119 -0.16632593 -0.1605289
000240 4a 45 43 be 68 83 79 be 03 65 d1 bd 10 14 b9 be
       -0.190694 -0.24366534 -0.102243446 -0.3614812
000250 37 29 75 3e a3 8c 0c 3e 1c 52 72 3e 60 96 09 be
       0.23941503 0.13725524 0.23664135 -0.1343627
000260 db 32 5d be d4 2d ac 3d 71 32 86 3d a0 35 01 3e
       -0.21601431 0.084071785 0.0655259 0.12618113
000270 02 83 bd 3d aa 98 14 3e ef d0 66 3f fd d7 86 bb
       0.092535034 0.14511362 0.9016256 -0.0041151033
000280 61 5c 74 3e 69 3e b8 3d 40 5a 28 be 6f 28 83 be
       0.23863365 0.08996279 -0.16440678 -0.25616786
000290 89 c5 dc 3d cc 15 87 3e 8a 12 dc bd 84 0c e5 bd
       0.10779864 0.26383817 -0.107457235 -0.11184028
0002a0 a6 9c 96 3e 04 5d c5 3c 07 bd 28 3e b1 52 b1 3d
       0.29416388 0.024092205 0.16478358 0.0865835
0002b0 97 ea 83 be fe 11 b8 3b fa 3d 65 3e 7a c6 9e be
       -0.25764915 0.005617379 0.22386923 -0.310108
0002c0 01 ed c5 be ff 14 18 be 1b f9 4b 3e 70 fe 4f bd
       -0.38657382 -0.1485176 0.19919245 -0.05077976
0002d0 3d 61 48 3e a1 78 74 be 8d 7d 90 3d 28 30 92 be
       0.19568343 -0.23874141 0.07055197 -0.28552365
0002e0 19 84 98 bd 1d c7 1b 3e 3c d6 82 be ac 00 9f 3e
       -0.07447071 0.15212674 -0.25554073 0.310552
0002f0 bd 68 4a be a4 db 55 3e 0f 76 27 be 83 1a cc bb
       -0.19766517 0.20884567 -0.1635363 -0.0062287464
000300 9d 2c 6c 3e 12 e5 58 3d cd 9b a1 bd 1e 9a a2 bd
       0.23063894 0.052952833 -0.07891045 -0.07939552
000310 57 69 4d 3e a2 86 9c 3b 16 f9 4c bf 8e 03 8c be
       0.20059715 0.0047767917 -0.80067575 -0.27346462
000320 1b 27 44 be 2c 7f 0b 3e 4a a0 30 be 22 eb ca be
       -0.19155543 0.13622731 -0.17248645 -0.39632517
000330 2f a3 f8 bd ca 76 67 3e c1 42 e6 3c 21 16 d6 3d
       -0.121405 0.22603908 0.028108003 0.104534395
000340 18 9b 79 3e fe 68 0c 3e 2c 76 5e bd a0 56 53 3e
       0.2437557 0.13711926 -0.054311916 0.20638514
000350 6c 05 33 3e 23 47 41 3e 3b 87 89 3e d8 6e 41 be
       0.17482537 0.18874793 0.26860985 -0.1888994
000360 b7 5a c4 be a4 a8 3a 3e 1a 09 79 3e 24 ae da 3d
       -0.3835046 0.18228394 0.24319878 0.10677746
000370 a1 94 3b bc d1 99 91 3e 43 9c 86 3e 73 ce a3 be
       -0.01144901 0.28437665 0.26291093 -0.31993446
000380 28 b6 6f 3d 48 40 5e bd af 05 83 3e 06 71 b5 3e
       0.058523327 -0.054260522 0.25590274 0.35437793
000390 9c 1e ac bd d2 17 28 be 15 c3 1d be 0e 94 80 be
       -0.08404276 -0.16415337 -0.15406449 -0.25112957
0003a0 6e 2f 5d 3e d0 ae bd bd 3f aa 15 3e 8f 66 79 3e
       0.21600124 -0.092618585 0.14615725 0.24355529
0003b0 23 03 6e 3e c2 05 42 3e 5f 91 22 bf c4 0a 4d 3e
       0.23243384 0.18947509 -0.6350307 0.20023638
0003c0 00 1c 44 be c6 ac 96 be 9e f0 57 be 14 f0 1a bc
       -0.19151306 -0.2942869 -0.21087882 -0.009456653
0003d0 77 7f 3a 3e 13 d7 46 be 64 32 21 3e cd ef 8f be
       0.18212686 -0.19417982 0.15741879 -0.2811264
0003e0 8d 7f a0 bd 20 fb 81 3e bf b1 e8 3e 89 d2 9d bd
       -0.078368284 0.25386906 0.4544811 -0.07706172
0003f0 05 5e 2e be 00 fe ec be 38 0e 5e 3e d7 ac 96 bd
       -0.17028053 -0.46287537 0.21685112 -0.07357185

encoder.conv.convs.3.bias f4 [40]
000000 1b 58 bd bd 52 ea 27 3d 9c 5e d6 3d 38 08 ef bc
       -0.092453204 0.04099495 0.10467264 -0.029178724
000010 9b fe 1c bd 1e e2 0a bd 66 a9 2f bd 52 bb 82 bc
       -0.03832875 -0.03390705 -0.04288616 -0.015958462
000020 6f 54 94 3d 3a 86 6a 3d 97 27 83 3d 51 a2 cd bc
       0.07242667 0.057256915 0.064040355 -0.025101813
000030 29 6a d8 3c 00 00 00 00 f0 e1 dd bc 04 c7 db 3d
       0.026417809 0.0 -0.027085274 0.107313186
000040 34 39 4e bc e1 70 2d bc 72 d5 c7 bd 3d 31 aa bc
       -0.0125868805 -0.010585994 -0.09757508 -0.020775432
000050 65 a8 2e 3d bd ee 97 bd c5 99 bb bd aa a1 50 bb
       0.042641062 -0.074185826 -0.091601886 -0.003183464
000060 c3 4b ab bd 22 e9 81 bd 0e 23 be bd 0e 28 99 bc
       -0.0836406 -0.06343295 -0.0928403 -0.018695857
000070 8c a3 07 3d 23 c3 53 bd 94 84 00 bd 9a e3 05 3e
       0.033114955 -0.05169977 -0.031376436 0.13075104
000080 df a6 6a bc 29 53 b6 bd 1e 5d 2f bd 04 1a 99 3d
       -0.014322012 -0.0890258 -0.042813413 0.07475665
000090 d9 02 f5 bc b3 50 cc 3c 29 54 a6 ba 8d de fa bc
       -0.029908584 0.024940824 -0.0012689877 -0.030623699

encoder.conv.convs.3.lin.weight f4 [40, 40]
000000 fe 6a d7 bd 01 e7 72 3d 46 0e ef bd 63 98 60 3d
       -0.10518454 0.059302334 -0.11672644 0.054832827
000010 20 91 0e be cd 9c 03 bf 36 b5 1b 3f 2d 1a 74 3e
       -0.13922548 -0.51411134 0.6082338 0.2383811
000020 0c 7d 4a be 7a 77 3e be 80 51 39 3d 46 82 9b be
       -0.19774264 -0.18600264 0.04524374 -0.30372828
000030 cc 16 77 3e 13 d0 59 3e 7d 38 e0 bd b3 7f 5c 3e
       0.2412979 0.2127078 -0.10948274 0.21533088
000040 d9 2b 88 be ad ec 27 be 46 de e8 be 46 8f 38 3e
       -0.26595953 -0.16398878 -0.4548208 0.18023404
000050 fd a9 1e 3e b9 de 06 3f 17 3f 53 be 98 3a dd 3a
       0.15494533 0.526836 -0.20629536 0.0016878424
000060 56 89 11 3d 22 15 14 be c0 a9 58 3e 60 b4 85 be
       0.035531364 -0.14461187 0.21158504 -0.26114178
000070 ae f8 27 3e 99 b3 25 bc a0 82 86 bd 22 54 77 be
       0.16403458 -0.01011362 -0.065678835 -0.24153188
000080 1a 1c 09 3e e8 ee 13 bd c0 62 e6 3d 3b d0 e0 bd
       0.13389626 -0.03611651 0.11249304 -0.10977217
000090 61 ed ca bd ae 14 2f be 0d bc 4e be 98 56 c4 be
       -0.09908558 -0.17097732 -0.20188923 -0.38347316
0000a0 41 7b 1d 3e 73 2a 92 3d 4d 11 9b 3d 87 d5 5b 3e
       0.15379049 0.07137003 0.07571659 0.21468173
0000b0 01 48 8c 3e 18 a0 70 be fa 9c eb bd 91 bf 5c 3e
       0.27398685 -0.23498571 -0.1150455 0.21557452
0000c0 80 09 2b 3d b0 73 0f 3e cf 7b 86 be 65 50 78 be
       0.041757107 0.14008975 -0.26266333 -0.24249418
0000d0 81 96 23 bd 6d 6d 01 3d 82 8e 9b 3d 84 b0 9d bd
       -0.039938454 0.031598497 0.075955406 -0.07699683
0000e0 7a 79 6f bd e7 ec 37 be 0d 17 e3 3d 40 2d ad 3c
       -0.05846546 -0.17961465 0.11088381 0.021139741
0000f0 b3 9d 6a be ae 2e 70 be 21 b5 11 be 04 9f 18 be
       -0.2291172 -0.23455307 -0.14229251 -0.1490441
000100 cd 7e 3c 3e b3 a2 86 3e 0e 6b 2f bd 4d 86 76 3e
       0.18407746 0.26296005 -0.042826705 0.24074669
000110 ad 7f ae 3a 8c 5f 37 bd c1 f9 f9 bd bb 33 4f be
       0.0013313197 -0.044768855 -0.1220584 -0.20234577
000120 79 7f 68 3e e4 d2 90 3c 96 20 5e be 68 1a 44 3e
       0.22704877 0.017678685 -0.21692118 0.19150698
000130 8c a6 a0 3d ce 89 48 bd 33 0c 04 be ff eb de 3d
       0.07844266 -0.048959546 -0.12895279 0.108848564
000140 d7 68 06 3e 48 11 03 3e ec f2 9a bd db c7 a9 bd
       0.1312593 0.12799561 -0.07565865 -0.082900725
000150 43 ac 97 3d 72 da 42 be 27 96 8d bd ec 16 a3 3e
       0.07405903 -0.19028643 -0.06913405 0.31853426
000160 14 cf 48 be 06 f9 9e 3d 2b 83 00 3d 22 2c 96 3d
       -0.19610244 0.07762341 0.03137509 0.073326364
000170 98 85 b8 bd 55 10 ab 3e e2 a6 7b 3e 4e 95 07 3e
       -0.09009856 0.33410898 0.2457538 0.13240549
000180 00 1d e4 bb bb ae 09 3e 82 62 8c be e5 9b ef 3d
       -0.006961465 0.1344556 -0.27418905 0.116996564
000190 7c c4 9c 3e ca 95 1a 3c 8e 59 26 bf 55 da e2 be
       0.30618656 0.009435127 -0.649804 -0.443072
0001a0 d4 01 af 3e 84 a3 a8 3b 4c d5 8f be 4f e0 22 3e
       0.34181082 0.0051464457 -0.2809242 0.1590588
0001b0 50 53 50 3e 3e 2f 66 3e e4 4d 36 3e fa 9c 8b be
       0.20344281 0.22478959 0.1780315 -0.272682
0001c0 97 72 3f 3e 48 2d b6 3d c1 6d 65 be 74 e6 a8 3d
       0.18696056 0.088953555 -0.22405149 0.082470804
0001d0 49 1b 11 be 82 b1 30 3e 02 25 88 3e 6f b3 4d 3e
       -0.14170565 0.17255214 0.26590735 0.2008798
0001e0 7b fa 25 3b cd 4c 94 bc 8d 6e 64 be 96 28 5b be
       0.00253263 -0.018103028 -0.22307797 -0.21402201
0001f0 45 b1 0e 3e 6c a6 13 3e b0 70 47 3d b1 9d 4d be
       0.1393481 0.14418954 0.04869145 -0.20079686
000200 35 6a 76 3e b9 b6 2c be 24 c2 95 be f5 75 2b 3d
       0.24063952 -0.16866578 -0.2924968 0.04186054
000210 b8 f3 58 3e 17 f6 47 3e df f3 75 be 89 9c 00 be
       0.21186721 0.1952747 -0.2401881 -0.12559713
000220 97 6c 18 3d b0 90 28 be 89 fd 78 bd 95 6b 17 be
       0.037212934 -0.16461444 -0.060788665 -0.14787133
000230 6b 17 ce 3d 7a cc 7e 3e 34 72 19 bb f7 03 a0 bd
       0.100630604 0.24882689 -0.0023414018 -0.07813256
000240 b5 e4 83 be 7a a7 9c bd f5 61 2e 3d e4 40 2a 3d
       -0.25760427 -0.07649131 0.042573888 0.04156579
000250 2d ea 3c 3e 8c 07 86 bd 2c 54 87 be e9 bb 2b bd
       0.18448706 -0.06544408 -0.26431406 -0.041927252
000260 27 18 b0 3d cf 37 96 be c0 54 3a be 52 ba 73 3e
       0.08598357 -0.29339454 -0.18196392 0.23801544
000270 87 d7 0e 3e 36 47 bf bb b3 55 1e be 10 45 32 be
       0.13949405 -0.0058373464 -0.15462379 -0.17409158
000280 43 d4 72 be d9 da 76 3c 50 1e 45 bc bd ba 37 be
       -0.23713784 0.015066826 -0.012031153 -0.17942329
000290 1b b1 95 be 62 2b 10 be 31 25 e9 3d c1 97 0c be
       -0.29236683 -0.14079049 0.11384047 -0.13729765
0002a0 90 b7 96 3e 74 a4 07 3e a9 c1 55 be 36 ac 4d 3d
       0.29436922 0.13246328 -0.20874657 0.05021306
0002b0 4d 71 4e be e0 c4 83 be 99 2d b8 3d 9f bf 8a be
       -0.20160408 -0.2573614 0.08993072 -0.2709932
0002c0 82 4e 5a 3e bc a2 d2 3d 2b 21 da 3d b2 a8 4a be
       0.21319011 0.10284945 0.106508575 -0.19790915
0002d0 8c c3 d3 3c ee 8d 50 bd 58 d7 94 3d 57 66 f5 bd
       0.02585008 -0.050916605 0.07267636 -0.119824104
0002e0 92 a8 28 3e f2 c4 2a bd 75 49 1c bd 38 bf 91 be
       0.16470554 -0.041691728 -0.03815599 -0.284662
0002f0 15 f1 11 3e 0e 04 9f be 54 a6 ed 3d 7f d6 11 3e
       0.14252122 -0.3105778 0.1160399 0.1424198
000300 08 d0 26 be b4 8a 39 3e 88 f0 75 3e 9c 09 83 be
       -0.16290295 0.18119317 0.24017537 -0.2559327
000310 68 cd 3c 3e 53 90 30 be c5 40 d3 3d 35 ce 32 be
       0.18437731 -0.17242555 0.10315088 -0.17461474
000320 1b ce c5 bd e0 ec 34 3e c6 b1 68 bf 4b 44 f9 bd
       -0.09658452 0.17668486 -0.9089626 -0.12171229
000330 09 84 0e bf 4a 7e fe be 27 9c 8c bf 25 19 69 3e
       -0.5567022 -0.49705726 -1.0985154 0.22763498
000340 b4 4d 12 bc ef e6 24 be 44 8c be 3d 1f 4f f9 bd
       -0.008929659 -0.16103719 0.09304097 -0.12173294
000350 4f b2 35 3e 19 33 d0 be 7f c3 c1 be e6 43 f3 bd
       0.177438 -0.40663984 -0.37844464 -0.11878185
000360 e9 7a 82 be 73 a0 92 3e e2 07 88 be d8 c9 49 3e
       -0.25484398 0.28638038 -0.26568514 0.19705904
000370 f7 10 36 be 86 be 5f be 5c da 16 3e 45 9a c0 bd
       -0.17779909 -0.21850023 0.14731735 -0.094044246
000380 ea 7a a1 3d 75 9f 62 3d 50 cf ef 3d 48 3d e0 3d
       0.07884772 0.05532785 0.117094636 0.109491885
000390 58 45 cb bc 33 fc 1f 3e a3 b5 53 bf 12 d9 a3 be
       -0.02481334 0.1562355 -0.8269903 -0.3200155
0003a0 f5 bc 6c 3d 87 62 e5 3d e6 9e a0 3d d1 41 62 3d
       0.05779739 0.11200433 0.078428075 0.05523855
0003b0 57 5d 67 3e 6c e3 a9 3c db 7f e6 bd 8c b5 88 bf
       0.225942 0.020738326 -0.11254855 -1.0680404
0003c0 4b 35 25 bd 5c 68 9d bc 41 3c bc be de ba 64 be
       -0.040334027 -0.019214801 -0.3676472 -0.22336909
0003d0 03 bd 17 be 20 66 5b 3e d6 d7 99 be fb a3 a8 be
       -0.14818196 0.21425676 -0.30047482 -0.32937607
0003e0 85 41 4a be ac da 46 be de ef 00 3d 12 a8 51 bd
       -0.19751556 -0.19419354 0.031478755 -0.051185675
0003f0 9f 1c bb 3c da 5f 41 3e bc c0 b5 3d ff d3 f3 bd
       0.022840796 0.1888422 0.08874652 -0.119056694

encoder.conv.convs.4.bias f4 [40]
000000 2f 15 52 3d dc 97 0b 3d fa 9a 75 bd 1b 6e e1 3d
       0.051289733 0.03408037 -0.05996225 0.11007329
000010 53 8d 24 bd 96 80 b8 3d 88 22 d3 bc e4 90 be bd
       -0.04017384 0.09008901 -0.025773302 -0.093049794
000020 3a fb 21 bd ca d5 31 bd 00 00 00 00 53 db b2 3d
       -0.03954623 -0.043416776 0.0 0.08733239
000030 5a 75 5d bd ce 58 82 bc 10 37 70 3d 00 00 00 00
       -0.054066993 -0.015911486 0.05864626 0.0
000040 77 ed 50 bd a1 03 b7 3c 05 b4 ff 3c 7e 75 86 bd
       -0.051007714 0.022340598 0.03121377 -0.065653786
000050 3d 4f 87 3d 08 a6 cd bd e9 35 82 bd 56 79 72 bd
       0.066069104 -0.100414336 -0.06357939 -0.059197746
000060 6f f0 2d ba b9 d1 42 3e 10 5f 12 bd fa f2 da 3d
       -0.00066352537 0.19025315 -0.03573519 0.10690875
000070 18 f3 2c 3d 1f c5 f6 bc 07 a3 b8 3d c4 d9 c2 bd
       0.04222402 -0.030123292 0.0901547 -0.09514192
000080 a4 ed e0 bc 8a ab b3 ba f0 8e a9 be bd 38 85 bd
       -0.027457066 -0.0013707739 -0.33116865 -0.065049626
000090 62 32 18 bd 3a 8d 5c bc 42 06 86 bd 3e cd 16 bd
       -0.037157424 -0.013461405 -0.06544162 -0.036816828

encoder.conv.convs.4.lin.weight f4 [40, 40]
000000 17 83 3f be ff 9d 81 be df a7 53 3e 9a 91 f4 bd
       -0.1870235 -0.25315854 0.20669506 -0.11941834
000010 64 44 32 3e 0c 9f 52 be 69 8d c8 3d df 0b 3b 3e
       0.17408901 -0.20568484 0.09792597 0.18266247
000020 5e 8c 61 3e 09 9c 94 bd 9e da 13 3e 7b 16 4e bd
       0.22026202 -0.07256324 0.14438865 -0.050314408
000030 59 ba 28 3e b3 2c 46 be ab 27 07 be 15 38 56 3c
       0.16477336 -0.19352989 -0.13198726 0.013074894
000040 37 90 21 3e 8f d2 3f be 47 48 a2 be f0 a7 32 be
       0.1577767 -0.18732665 -0.31695768 -0.17446876
000050 f7 d4 eb bd 8d 2f f9 3d 2e 74 65 be b0 37 41 3c
       -0.11515229 0.12167273 -0.224076 0.011793062
000060 19 14 85 be 0c 39 22 3e ea e9 42 be 3b 5a ce 3a
       -0.25991896 0.15842074 -0.19034544 0.0015743444
000070 67 59 29 bd f1 20 62 3d 00 74 3a be b0 05 87 3e
       -0.041345026 0.055207197 -0.18208313 0.26371527
000080 2d 08 a8 bc 82 ab 85 3e b3 df 96 be 4d 6f 85 be
       -0.020511711 0.26107413 -0.29467544 -0.26061478
000090 10 cd 40 be bb 22 87 3d df da 95 3d bc 15 bd bc
       -0.18828225 0.06598421 0.07317137 -0.023081653
0000a0 5d d1 c5 3d 45 86 16 3d ee 9a 9b be 2a a6 96 bd
       0.096590735 0.036749143 -0.3039164 -0.07355912
0000b0 a8 9f a9 be 16 99 86 be 7e 47 6a 3e f6 6e 86 bd
       -0.3312962 -0.2628867 0.22878835 -0.06564133
0000c0 5c 8a 37 be af 10 69 be b7 81 42 be f9 1e 14 3e
       -0.17923874 -0.2276027 -0.18994795 0.1446494
0000d0 75 cb 27 3e 4e a5 4e 3d c7 93 44 bd c0 c9 a6 3e
       0.16386206 0.050450616 -0.047992494 0.32575798
0000e0 c4 a4 36 be 9f 1b 1e bd 97 87 ce bc 07 3d b2 3d
       -0.1783629 -0.03860056 -0.025211139 0.08703046
0000f0 2f 34 3a 3e 95 b4 61 be d3 06 24 3e d3 83 58 3e
       0.18183969 -0.22041543 0.16018228 0.21144037
000100 b6 bc 26 3e 83 da 04 3d 32 b4 d2 3d c4 5e 4e 3d
       0.16282925 0.03243495 0.10288276 0.050383344
000110 29 47 5b 3d 8c e7 08 be e5 65 c1 bd ba 66 91 be
       0.05353466 -0.13369578 -0.09443263 -0.28398687
000120 c6 ec f5 bd 85 47 3f 3e 69 d7 1e be 9d 40 10 3e
       -0.120080516 0.18679626 -0.1551186 0.14087148
000130 70 5f 74 3e 65 29 39 bd 42 16 3b 3e 92 f0 75 3e
       0.23864532 -0.045205493 0.1827021 0.24017552
000140 91 6e 0a 3e ec a9 11 be f0 ed a3 be ad 7f 0c 3e
       0.1351874 -0.14224976 -0.3201747 0.1372058
000150 86 da 99 bc 23 92 2a 3e a8 44 19 3c b3 5f 5a be
       -0.018780958 0.16657309 0.009354748 -0.21325569
000160 88 a9 cb 3d 48 c8 5a be 6d ff 3a be d6 10 42 be
       0.09944445 -0.21365464 -0.182615 -0.18951735
000170 07 85 1c 3d 72 fe 9e bd fe a5 e3 bd a1 71 27 be
       0.038212802 -0.07763375 -0.11115645 -0.1635194
000180 ce 2f ed bd 78 5f 03 be 9d 6e 89 bc b8 74 4d 3e
       -0.11581384 -0.12829387 -0.016776377 0.20064056
000190 e3 02 a0 3d bd 97 2d be 5b b3 2e be 9f c8 5b 3e
       0.078130506 -0.16952415 -0.17060606 0.2146325
0001a0 bf ad 87 be 0b 1d 38 be de ee 24 3e da cf 9c be
       -0.26499745 -0.17979829 0.16106746 -0.30627328
0001b0 b2 ee 70 be 53 73 af bd 3f 17 8b 3e 35 fc 83 bd
       -0.23528555 -0.08566918 0.27166173 -0.06444589
0001c0 d3 83 9c 3b 46 3c 25 3e 10 cb 08 be ad bf ab 3c
       0.004776457 0.16136274 -0.13358712 0.020965422
0001d0 83 c1 f5 3d 3c 6e 3d be 73 27 3a 3e 30 d2 54 be
       0.119998 -0.18499082 0.18179111 -0.20783305
0001e0 82 4a 87 be fc f6 a9 bb 68 9b 92 3e 50 c7 39 3e
       -0.26424032 -0.0051869135 0.2863419 0.18142438
0001f0 4c 2d 3b 3e 08 7d 4e bd 34 1d f0 bd 21 5e bc 3d
       0.18278998 -0.050412208 -0.1172432 0.09197641
000200 04 3b 46 be de c3 10 3e c7 30 89 3e 87 1d 1c 3e
       -0.1935845 0.14137217 0.26795027 0.15245639
000210 f1 f4 33 be 0f a6 e5 bd c4 b4 75 3e 13 3c 66 3e
       -0.17573906 -0.11213314 0.23994738 0.22483854
000220 e4 5c 2b bb 70 01 b6 3d 23 27 9a be ee 7d a4 3d
       -0.0026147896 0.08886993 -0.30107984 0.08031832
000230 bf f0 05 3e 75 7a 58 3e ed e9 40 bd 7f 28 25 3d
       0.13080119 0.21140464 -0.04709809 0.040321823
000240 90 9b 80 3e da 1e 59 be 0f b9 b9 be 20 39 47 be
       0.25118685 -0.21203175 -0.36274 -0.19455385
000250 08 a8 ff 3d 80 e2 e9 3c ba c9 10 3e 3a 26 3e 3e
       0.12483221 0.028550386 0.14139453 0.1856927
000260 68 5b f5 bd 12 7a 05 3e 3d 1f 07 be 9e 7d 71 be
       -0.11980325 0.13034847 -0.1319551 -0.23583075
000270 bf 81 ba be 95 e1 4e 3e 84 b6 0c 3e ad 6f b4 3d
       -0.36427113 0.2020324 0.13741499 0.08810363
000280 a3 d7 80 be 6c 84 a2 3d 0f e9 cd 3d 85 e4 34 be
       -0.25164518 0.07935414 0.10054218 -0.17665298
000290 13 19 6a 3e 4f 43 db bd db 78 40 be 28 8c 78 3e
       0.22861128 -0.107061975 -0.18796103 0.24272215
0002a0 db a6 1c 3d e4 4d 70 3c 58 02 43 be f3 0f 92 3d
       0.038245063 0.014667008 -0.19043863 0.07131948
0002b0 4a 66 59 3e 05 bd 38 be d4 77 88 be 4f 99 1b 3e
       0.21230426 -0.18040855 -0.26653922 0.15195201
0002c0 08 27 20 bf c8 25 bd 3d 2f 49 7e bd 07 62 90 3e
       -0.62559557 0.09235722 -0.062081512 0.2819979
0002d0 a6 a7 2f 3e db 03 bf 3d c9 e3 07 3d 8f 66 b0 be
       0.17153797 0.09326907 0.033176217 -0.34453246
0002e0 8c 6c 8d 3e 3f 5d 3a be 03 17 e2 be 5f 28 93 bd
       0.27621877 -0.18199633 -0.44158182 -0.071854346
0002f0 c6 e4 24 bf dc e0 f3 bd 37 86 21 3e a5 29 32 3e
       -0.6441158 -0.11908123 0.15773855 0.17398699
000300 3b 92 23 3e 03 17 1f be 41 5f 04 be 1f ef 06 3e
       0.15973751 -0.15536122 -0.12926961 0.13177155
000310 d3 18 48 be bd 0e be be cf a8 9a 3e a5 1d 2a be
       -0.1954072 -0.3712062 0.30206916 -0.16612871
000320 10 59 27 3c f4 7d 93 3d c7 48 92 3c 04 df c8 bc
       0.010214105 0.07201758 0.017856969 -0.024520405
000330 f1 03 48 3e af 0d 01 bf 85 a9 18 3d 21 7b a8 be
       0.19532754 -0.50411505 0.03727104 -0.3290644
000340 65 62 46 3e 6c b6 93 be eb c5 8c 3e 58 59 88 be
       0.19373472 -0.28850114 0.2749475 -0.26630664
000350 79 7a 62 3e 72 4f 6c 3d bf 88 16 be bb 30 6f 3e
       0.22117032 0.057692952 -0.14700602 0.23358433
000360 7e d1 ec bb a8 04 09 bd 12 3d 39 bd 7b bb d3 be
       -0.007227122 -0.033451706 -0.045224257 -0.41353974
000370 40 54 83 3e dd 4e 95 bd b0 14 90 be 26 44 37 be
       0.25650215 -0.072904326 -0.28140783 -0.1789709
000380 44 6b f6 3d 8e aa d6 be a0 f5 07 be 98 0a 19 3e
       0.12032178 -0.41926998 -0.13277292 0.14945447
000390 0d 88 56 be 88 de ad 3d 44 d4 3e be 54 f9 3a 3e
       -0.20950337 0.0848971 -0.1863566 0.18259174
0003a0 ad 48 de bd 4b f6 2e 3e f1 48 1b 3e 3c d0 0e 3e
       -0.108537056 0.17086141 0.15164544 0.13946623
0003b0 e4 f4 15 be 83 f4 c6 3d 2b 6f 9b 3e 6d b9 c5 bd
       -0.146442 0.09714606 0.30358252 -0.09654508
0003c0 15 2c 8b bd 46 c2 46 be 0b 6e 88 3d 3e 82 44 be
       -0.06795517 -0.19410047 0.06661614 -0.19190308
0003d0 70 86 f3 3d 61 ca 50 bd 37 04 9b 3e ce 30 81 be
       0.11890876 -0.050974254 0.30276653 -0.25232548
0003e0 be 72 fc 3b 6a 55 38 3e 07 f6 0d 3d c8 c5 7e 3e
       0.007704108 0.18001333 0.034658458 0.24880135
0003f0 6b 3a 52 3e 7b ac 57 be 06 2e 68 3e 2b f0 97 3d
       0.20530097 -0.2106189 0.22673807 0.07418855

encoder.conv.convs.5.bias f4 [40]
000000 dc df ec 3d 90 f2 a1 3d e5 82 22 be 76 c3 58 bd
       0.11566135 0.07907593 -0.15870245 -0.05292078
000010 00 00 00 00 f8 47 14 bd fb 45 30 bc de 76 27 3d
       0.0 -0.036201447 -0.010758872 0.040884845
000020 f3 b1 99 bc ab a1 5c bd 52 09 52 bd 8d 64 4b 3d
       -0.01876161 -0.053865116 -0.05127842 0.04965644
000030 77 97 ab bd 00 00 00 00 ed 9e 8c 3b 7f 6a 9e bd
       -0.08378499 0.0 0.0042914064 -0.07735156
000040 00 00 00 00 81 27 f5 bd 0e e1 06 3d 54 a0 46 3c
       0.0 -0.119704254 0.032929473 0.012123186
000050 70 d0 97 bd 02 9e 9f bd 21 a2 78 bd b4 2a 8a bc
       -0.07412803 -0.077938095 -0.060701493 -0.016866066
000060 c2 e3 aa 3d f0 de ea bc 0b 3f 95 bd f4 b2 51 3d
       0.083442226 -0.028670758 -0.07287415 0.051196054
000070 cc 4a e7 bc 2a 8d 18 bc 28 a1 84 39 e5 7b 72 bd
       -0.028233908 -0.009311 0.00025297073 -0.059200186
000080 b6 de 3a bd 61 bd 77 bc bd fc aa 3d 15 77 ca bc
       -0.04562255 -0.015120835 0.08348987 -0.024714986
000090 62 28 e2 3d 1a c6 b9 bc b9 8e 4e 3d 64 b4 71 bd
       0.11042859 -0.02267747 0.05042908 -0.059009925

encoder.conv.convs.5.lin.weight f4 [40, 40]
000000 82 98 14 3e e3 b9 1d be bb 2c 86 be a2 a6 08 3e
       0.14511302 -0.15402941 -0.26206002 0.13344815
000010 74 f1 2f 3c d8 10 2f 3e 72 86 97 3e 0d ee 7e be
       0.010738719 0.17096269 0.2959476 -0.24895497
000020 87 8a 8a bc 43 6a 46 be ed 25 8b bd 7c 07 8b 3e
       -0.016911758 -0.19376473 -0.06794343 0.27154148
000030 4e 9b 41 3e f2 0c 0d be 33 1b 74 be 4c 33 66 3e
       0.189069 -0.1377447 -0.238385 0.22480506
000040 2b 3d a1 bc 4e fd 12 3e bb 18 2a 3e fd 2b 41 be
       -0.019682487 0.1435444 0.16610996 -0.18864436
000050 cf ba 04 3e 03 9f 8b be c2 15 78 bd 00 bb 67 be
       0.12961887 -0.27269754 -0.060567625 -0.22629929
000060 62 23 86 ba a2 19 c3 3e e0 ed 36 3e 12 68 34 be
       -0.0010233934 0.38105494 0.1786418 -0.17617825
000070 b2 76 1e 3e 08 1e 3e be e4 67 31 be 89 97 0a 3e
       0.15474966 -0.18566144 -0.17324787 0.13534369
000080 e0 e1 ea 3c 25 a7 d1 3c 16 55 76 3e 28 2b 1f be
       0.028672159 0.025592396 0.24055895 -0.15543807
000090 9e a4 d9 bd c0 d9 83 3c fd 4f 8a be c5 59 c2 be
       -0.10627101 0.016095042 -0.2701415 -0.37959114
0000a0 40 ef ea bd 1b 7f fc 3d b9 a4 dd 3d ed c8 57 3e
       -0.114714146 0.12328931 0.10822434 0.21072741
0000b0 3c c3 fa 3c dc 37 8d 3e 39 25 b4 3d 9f 15 81 be
       0.030610673 0.2758168 0.08796162 -0.25211808
0000c0 05 e5 64 3e d8 e4 b1 bd 91 6d 7a be fa 53 85 3e
       0.22352989 -0.086862266 -0.24455859 0.26040632
0000d0 14 a7 17 3e a0 fd 7f be a0 bc e5 bd da 60 28 be
       0.14809829 -0.24999094 -0.11217618 -0.16443196
0000e0 1c c6 40 3e de df 95 3d 9d 8e 94 3e 02 ea 5e be
       0.18825573 0.0731809 0.29015055 -0.21768954
0000f0 0a db 2d 3d 7a 74 8e be 8c b0 6b bd 32 6c 93 be
       0.04244522 -0.2782324 -0.057541415 -0.28793484
000100 87 bb 20 bd c1 e6 89 3d f8 ed 7b be 6b 22 09 3e
       -0.03924134 0.06733466 -0.24602497 0.13392036
000110 b6 a0 2c be 71 7c 19 be cd 9e f6 3d 0e 58 59 bc
       -0.16858181 -0.14988877 0.120420076 -0.013265623
000120 db b3 0c be 6b ed e7 bc 0a 95 ca 3d d6 64 db ba
       -0.13740484 -0.028311452 0.09891708 -0.0016738425
000130 9a 20 00 3e cf 6f 69 3d d0 16 0a bf 62 36 09 bd
       0.12512437 0.056991395 -0.5394106 -0.03349913
000140 98 59 f1 bb 14 6b 54 bf c9 5e 35 3e c5 77 29 be
       -0.0073654167 -0.8297589 0.17711939 -0.16549595
000150 0d 59 2f be 7d 58 9b be c6 31 d2 3d 7b 73 9f be
       -0.17123814 -0.3034095 0.102634 -0.31142792
000160 1d d3 01 be 09 9c c7 bd fc c3 48 3e 6c 2b 55 be
       -0.1267819 -0.09746558 0.19606012 -0.20817345
000170 58 17 24 be 88 59 05 3e 0b 64 6e 3e f4 28 88 be
       -0.1602453 0.13022435 0.23280351 -0.26593745
000180 b9 6d 65 3e fb a8 8f 3e 73 50 32 be 4c 3e b2 bd
       0.22405137 0.2805861 -0.17413501 -0.087032884
000190 84 c8 1a bf 4c e8 c4 3e eb 0e 49 bd 71 1a 78 be
       -0.6046221 0.38458478 -0.049086493 -0.24228837
0001a0 a2 8f e3 3c b0 8c 5a bf d1 bc a1 be 94 f0 2f 3d
       0.02777845 -0.8537092 -0.31589368 0.042954043
0001b0 98 79 b6 be 62 3c 04 bc ad 12 57 bd 9d 5e b8 bd
       -0.35639644 -0.008071037 -0.052508045 -0.09002421
0001c0 6e b0 20 bc 3a d0 83 be f1 6a b0 be 71 a5 19 3d
       -0.009807689 -0.25744802 -0.3445659 0.037511293
0001d0 a7 dc 80 3e 6a ac 4d 3e de a6 aa be 0d 04 81 3d
       0.25168344 0.20085302 -0.33330435 0.06299601
0001e0 e4 5d 51 be 2f 0a 90 be 35 d5 4c 3e 0b fa ef 3d
       -0.20445973 -0.2813277 0.20003207 0.11717614
0001f0 ee 89 a7 be bc 55 18 3d 06 49 7c be 8b 39 13 3d
       -0.3272242 0.037191138 -0.24637231 0.03594355
000200 43 61 c8 3d a7 64 16 3c d3 ac 2b be 62 11 48 3d
       0.09784176 0.009179271 -0.16765146 0.048844703
000210 75 e9 3e bd 6d e2 3f 3e 18 70 39 be 33 05 38 3e
       -0.04660936 0.18738718 -0.18109167 0.17970733
000220 c0 49 87 be 53 ea 7e be 5b 7d 9a be de 06 9b bc
       -0.26423454 -0.24894075 -0.30173764 -0.018924173
000230 29 64 2b bb ce 6c 8f be 77 b5 b3 bd af f2 2d 3e
       -0.002615223 -0.280127 -0.08774846 0.16987108
000240 f5 ab 4d be 05 d6 2f 3e 36 6a 4f 3e 63 1b 4a be
       -0.20085128 0.17171486 0.2025536 -0.1973701
000250 69 64 c4 3d b3 e2 46 3e d2 84 5c be b2 83 39 be
       0.09589464 0.19422416 -0.21535042 -0.18116644
000260 03 1d 6c 3e d9 3c 52 3e bc a1 03 3e 65 f9 a8 3d
       0.23057942 0.20531024 0.12854666 0.08250693
000270 4f 3d de bc 64 99 9e bb 57 f4 09 be 49 83 5e be
       -0.027128844 -0.004840063 -0.13472115 -0.21729769
000280 45 e5 7a be c6 28 45 3d 29 59 07 be 36 7b 14 be
       -0.24501522 0.048134588 -0.13217606 -0.14500126
000290 fd 75 79 3c 90 dc 83 3e a6 04 57 bd 48 99 10 3d
       0.0152258845 0.25754213 -0.052494667 0.03530243
0002a0 89 0e 8a 3e e0 61 09 be 28 48 84 be 45 b6 2b be
       0.26964214 -0.13416243 -0.258363 -0.16768749
0002b0 7b 03 25 3e 3b ca 95 bd 81 b0 82 be 1b 80 4e 3e
       0.16114609 -0.07313963 -0.25525287 0.20166056
0002c0 2c 88 31 3d 3a 71 1f be bc bc 82 be a7 10 79 be
       0.043342754 -0.15570536 -0.25534618 -0.24322759
0002d0 29 07 cf bd 81 9b 31 be 41 d9 4e be 2f f5 2f 3d
       -0.101087876 -0.17344476 -0.20200063 0.042958435
0002e0 7a db 48 bd b0 bd f3 3d f1 7e 88 be 03 c8 7e 3e
       -0.049037434 0.119014144 -0.2665935 0.24880986
0002f0 e1 76 2a be c4 13 12 3e 2d 71 b2 bd 05 6d 36 39
       -0.16646911 0.14265352 -0.08712993 0.00017397485
000300 e8 65 35 be c5 6d 36 3e 14 f7 0b 3e 9a 07 48 3e
       -0.17714655 0.17815311 0.13668472 0.1953415
000310 bd a9 f4 bd a0 54 1d be 2a b6 4f be a6 70 0c bc
       -0.119464375 -0.15364313 -0.20284334 -0.008571779
000320 35 de d6 3c a5 d1 0b bc 47 e3 55 bd 90 aa 54 be
       0.026229003 -0.00853387 -0.0522187 -0.2076819
000330 19 26 08 3e 38 34 0c 3d 48 49 88 3b f7 3d 48 be
       0.13295783 0.034229487 0.0041591264 -0.19554888
000340 0a 24 57 3d 0b 6f 89 3e d5 51 59 3e e2 68 55 3e
       0.052524604 0.26842532 0.21222623 0.20840791
000350 54 7f 80 be 10 4e 9e 3d cc 86 97 bd c8 bc b8 3d
       -0.25097144 0.07729733 -0.07398757 0.09020382
000360 42 95 a7 bd 70 1d 49 3d 62 4b 03 be 66 a4 63 be
       -0.081827655 0.04910034 -0.12821725 -0.22230682
000370 e7 8e 57 3d 68 74 c9 3b 4e 14 20 3d 3e d7 86 be
       0.052626517 0.00614791 0.039081864 -0.26336092
000380 9d 43 0f 3e e2 2a 63 be 25 e5 39 be a1 cf d3 bd
       0.13990636 -0.22184327 -0.18153818 -0.103423364
000390 db 84 77 3d df 9a 7e 3e 01 68 a9 bd a5 cf 1b 3e
       0.060429435 0.24863766 -0.0827179 0.15215929
0003a0 3f 0c 14 3e 24 d1 23 be 67 84 92 3d b0 f7 7e bc
       0.14457797 -0.1599775 0.0715416 -0.015561983
0003b0 22 62 26 be 27 90 d8 bd 67 5f 83 be d4 7f 1f bd
       -0.16248372 -0.1057437 -0.25658724 -0.038940266
0003c0 2f 6a 6e 3e 68 61 7e 3d 02 ea 07 be ce 10 18 bd
       0.23282693 0.062104613 -0.1327286 -0.0371254
0003d0 15 00 75 3e 76 31 98 be c0 b3 c4 3c 1d 8f 84 bd
       0.23925813 -0.29725236 0.024011493 -0.06472609
0003e0 8f cf aa 3d c3 19 ac 3d 5c fa 3b 3e 27 aa 85 be
       0.0834037 0.08403351 0.18357223 -0.26106378
0003f0 73 9d 9e 3d 34 23 53 be 37 6f 3a be f1 95 a1 3d
       0.07744875 -0.20618898 -0.18206488 0.07889927

encoder.conv.convs.6.bias f4 [40]
000000 d7 33 9f 3d 7f ac b9 3d 28 ec cf bb 14 06 4f bd
       0.077735595 0.09066104 -0.0063452907 -0.050542906
000010 f0 19 26 3e 01 ba 12 bd 8b f0 35 bd 10 87 52 bd
       0.16220832 -0.03582192 -0.044418853 -0.051398337
000020 e6 0d d8 3d 68 f5 f7 3d 1c 7a 14 bd c3 c6 96 3d
       0.10549526 0.121073544 -0.036249265 0.073621295
000030 a4 0c 90 3d 88 33 10 be 38 b1 d3 3b 6d 19 0f 3d
       0.07033661 -0.14082158 0.006460335 0.034936357
000040 e0 1b ea 3d 7f 85 a8 bd 02 21 4e bd 40 7d bc 3c
       0.11431098 -0.08228587 -0.050324447 0.023008943
000050 d9 cd 00 3d ef f3 fe bc 51 11 1d bc 68 de 4d 3b
       0.03144631 -0.031122176 -0.009586648 0.0031413082
000060 30 8f 05 3d 9c fe 09 bd 77 4d 95 bb 0c 34 01 3d
       0.032607257 -0.03369008 -0.0045563537 0.031543776
000070 b1 1a 45 3b a0 e4 aa 3d 46 1b 47 bc 62 5b f8 bd
       0.0030075724 0.08344388 -0.012152499 -0.12126805
000080 88 af 14 bd d4 53 af bc bf 21 bc 3c 7b 28 5d bc
       -0.036300212 -0.021402277 0.02296531 -0.013498421
000090 d7 3d 7e bd 10 c0 97 bc e2 55 dd bd bd 8f 34 3d
       -0.062070694 -0.0185242 -0.108073965 0.044082392
