results/model_GCN/graph_split_/layers_2/transform_False/alpha_-10.0/model.pt (torch, 20917 bytes, 9 tensors)

encoder.conv.convs.0.bias f4 [40]
0.04689677 0.005674538 0.08432594 0.07303562 0.04627209 -0.020034455 -0.025080392 0.024533004
0.054025624 0.1238912 0.03763761 0.13074565 0.04966602 0.04126866 0.051331326 0.00671549
0.02418565 0.10426014 0.016584707 0.096621096 0.15794408 0.059176948 -0.010881996 0.0696542
-0.11556146 0.021494512 0.055595808 0.07058725 0.18073742 0.029291067 0.2814674 0.04660562
0.024896672 0.07258564 0.09340078 0.0858946 -0.030484209 0.107480474 -0.07756288 -0.14420308
00000000: d416 403d 7af1 b93b 14b3 ac3d b393 953d
00000010: ce87 3d3d 4c1f a4bc 6575 cdbc 70f9 c83c
00000020: f949 5d3d abba fd3d e529 1a3d 30e2 053e
00000030: 996e 4b3d 5409 293d cc40 523d 9d0d dc3b
00000040: fc20 c63c 5786 d53d a7dc 873c 48e1 c53d
00000050: 18bc 213e 8763 723d 664a 32bc dca6 8e3d
00000060: 7dab ecbd 4215 b03c 6eb8 633d 0c90 903d
00000070: 3b13 393e d2f3 ef3c 7f1c 903e 89e5 3e3d
00000080: 1bf4 cb3c c8a7 943d e848 bf3d 82e9 af3d
00000090: 05ba f9bc b91e dc3d 4ad9 9ebd f9a9 13be

encoder.conv.convs.0.lin.weight f4 [40, 40]
0.2519028 0.074600354 0.04828315 -0.40911978 0.2012826 -0.097054705 -0.29715702 0.30751798
-0.15992697 0.055684894 0.5851849 -0.04632792 0.43821606 -0.23275632 0.6538251 0.096912175
-0.6588852 -0.26002085 0.26857406 0.4967716 0.25092876 0.0031080311 0.10347571 -0.015265348
0.29742768 -0.1548764 -0.17947131 -0.09437339 0.15793483 -0.29138297 -0.30312067 0.2568815
0.17173293 -0.023931993 0.35006872 0.17375533 -0.39888614 0.15207022 -0.0037633048 0.14688452
-0.15397938 -0.1534444 0.13874497 -0.14808397 0.24702258 -0.23006783 -0.3656026 -0.06771696
-0.16947249 0.14459682 -0.058241274 -0.0889184 -0.0722675 -0.33827195 0.1883046 0.27447218
0.09437877 0.035412308 0.23856181 0.17673843 -0.07785338 -0.021483637 0.06393273 0.08905882
-0.061706 0.17045583 -0.22089368 -0.09223169 0.1554588 0.2327429 -0.038954813 0.22014005
0.35367113 0.14529689 0.19721961 0.08057888 -0.11019833 -0.38553542 0.30373845 0.3130058
0.4648505 0.06403976 0.02691472 -0.21594195 -0.18822342 -0.22565109 -0.22064424 -0.24298994
-0.20734188 -0.1008663 -0.2587056 -0.3933752 0.10029895 0.7831544 -0.06870951 0.32134378
0.3696489 0.004380072 0.10027206 -0.39257404 -0.27010974 0.3606299 -0.3091854 -0.6802458
-0.09182996 -0.05165469 -0.068810426 -0.075061254 -0.1526432 0.20334949 0.43080124 0.03154494
-0.26343617 -0.24340397 -0.8111814 0.3428804 -0.21488467 0.13028672 -0.37872234 -0.3249867
0.10546081 0.30841994 -0.4576829 -0.12785944 0.072071545 -0.21500927 -0.00011707193 -0.31954882
0.078902245 0.38528112 -0.1237856 -0.05580778 0.26373255 0.11540973 0.4368839 -0.10554909
-0.24517187 0.025676396 0.102338634 -0.052714452 0.11612085 -0.43439963 -0.40977484 -0.2779065
0.12441256 -0.0008281611 0.044905737 0.5321389 -0.051348247 0.1451902 0.20122482 -0.075657696
-0.13535228 -0.19491914 0.23164392 0.03649132 -0.13447618 0.27051604 -0.34599793 0.07078851
0.5672114 0.39460042 -0.49374807 -0.010705967 -0.09386416 0.20941184 0.06607577 -0.3214269
-0.5392633 -0.18208036 -0.0111136865 -0.22526151 0.13595468 0.47958782 0.18198125 0.09321905
-0.23586152 -0.21331824 0.97283626 -0.25228873 -0.1251022 -0.14519528 -0.26391226 -0.4233491
-0.17520902 0.19132273 0.2247946 -0.026425904 -0.04133046 -0.780766 0.712325 0.6272126
-0.7294271 -0.18271701 -0.10101643 1.1799512 0.16837633 0.39078662 -0.045851413 -0.37268087
-0.009294444 -0.15148187 0.0879381 -0.16018498 0.035925504 -0.2233819 0.3116012 -0.09470448
0.19328791 0.06353603 0.06520325 0.073378965 0.14200607 -0.30610237 -0.22362153 0.15887107
0.14209555 0.101316944 -0.006007896 -0.047262665 -0.15027167 0.15345693 0.23700486 -0.071113795
0.08728984 0.00022616031 0.26457334 -0.41490003 0.12114668 0.0038870564 -0.1342658 -0.053715788
-0.042525757 -0.083476745 -0.0719587 -0.053376783 -0.157991 0.0823902 -0.4289869 -0.24084903
-0.44275674 -0.43450484 0.38903627 0.11960799 1.0946678 0.39935568 0.07167994 0.3716082
0.2155584 0.07270145 -0.07302217 0.6659079 0.7005009 -0.4444263 -0.19546923 -0.21448822
00000000: 67f9 803e 12c8 983d 8dc4 453d 2678 d1be
00000010: 071d 4e3e 9ec4 c6bd f724 98be ff72 9d3e
00000020: e5c3 23be d815 643d adce 153f 58c2 3dbd
00000030: db5d e03e ac57 6ebe 1561 273f e479 c63d
00000040: b3ac 28bf 7421 85be 8a82 893e d958 fe3e
00000050: bc79 803e 1cb0 4b3b 13eb d33d 831b 7abc
00000060: 7148 983e eb97 1ebe 54c7 37be d646 c1bd
00000070: abb9 213e 2630 95be a232 9bbe f985 833e
00000080: c2da 2f3e 070d c4bc 353c b33e ebec 313e
00000090: ce3a ccbe 4cb8 1b3e c7a1 76bb e568 163e
000000a0: c5ac 1dbe 8720 1dbe 2913 0e3e 53a3 17be
000000b0: 7df3 7c3e e796 6bbe 4430 bbbe 31af 8abd
000000c0: 328a 2dbe 3011 143e 678e 6ebd da1a b6bd
000000d0: fc00 94bd fb31 adbe ecd2 403e 9e87 8c3e
000000e0: a849 c13d 7f0c 113d 8c49 743e ebfa 343e
000000f0: 9871 9fbd 74fe afbc 2aef 823d 7864 b63d
00000100: 6ebf 7cbd f98b 2e3e f431 62be f8e3 bcbd
00000110: 9730 1f3e 2854 6e3e 158f 1fbd 656c 613e
00000120: 6214 b53e b5c8 143e f0f3 493e 8a06 a53d
00000130: a9af e1bd e664 c5be 9b83 9b3e 4c42 a03e
00000140: e200 ee3e 4727 833d 427c dc3c e31f 5dbe
00000150: a4bd 40be 1411 67be 90f0 61be 5bd2 78be
00000160: 6e51 54be fe92 cebd 0f75 84be 7968 c9be
00000170: 8969 cd3d cf7c 483f 92b7 8cbd 2c87 a43e
00000180: 9f42 bd3e b586 8f3b 705b cd3d 77ff c8be
00000190: d34b 8abe 7ba4 b83e 8c4d 9ebe 9724 2ebf
000001a0: 5911 bcbd de93 53bd 7bec 8cbd b7b9 99bd
000001b0: 804e 1cbe d93a 503e fb91 dc3e 4435 013d
000001c0: 1be1 86be e43e 79be 96a9 4fbf 058e af3e
000001d0: ba0a 5cbe e269 053e e5e7 c1be a864 a6be
000001e0: d6fb d73d 38e9 9d3e 6a55 eabe 96ed 02be
000001f0: 3f9a 933d 642b 5cbe 8484 f5b8 e79b a3be
00000200: 8097 a13d 9143 c53e 4e83 fdbd b396 64bd
00000210: f407 873e f05b ec3d 3faf df3e 1f2a d8bd
00000220: 560e 7bbe 4e57 d23c eb96 d13d 1ceb 57bd
00000230: c5d0 ed3d a169 debe 02ce d1be c349 8ebe
00000240: 03cc fe3d f318 59ba 14ef 373d 413a 083f
00000250: 8a52 52bd bdac 143e e10d 4e3e 6cf2 9abd
00000260: ca99 0abe e298 47be 1034 6d3e ec77 153d
00000270: 20b4 09be 1481 8a3e a426 b1be 91f9 903d
00000280: c434 113f 1109 ca3e 8ccc fcbe 1568 2fbc
00000290: da3b c0bd 0f70 563e bc52 873d 1192 a4be
000002a0: 290d 0abf 4673 3abe 2e16 36bc f4aa 66be
000002b0: b437 0b3e 898c f53e 4b59 3a3e a1e9 be3d
000002c0: af85 71be 1970 5abe cc0b 793f fd2b 81be
000002d0: cb1a 00be 12ae 14be 821f 87be 37c1 d8be
000002e0: fe69 33be 1bea 433e 8e30 663e 237b d8bc
000002f0: 214a 29bd 48e0 47bf ee5a 363f 0191 203f
00000300: bcbb 3abf 2b1a 3bbe b4e1 cebd a408 973f
00000310: d86a 2c3e 2f15 c83e b1ce 3bbd 07d0 bebe
00000320: b947 18bc 101e 1bbe e418 b43d 8807 24be
00000330: 9f26 133d 3abe 64be 318a 9f3e 6cf4 c1bd
00000340: 44ed 453e 2e1f 823d 4889 853d b647 963d
00000350: 0a6a 113e 73b9 9cbe 0bfd 64be 19af 223e
00000360: 7f81 113e 427f cf3d e2dd c4bb 7f96 41bd
00000370: d1e0 19be d023 1d3e 67b1 723e 1ca4 91bd
00000380: 04c5 b23d 7225 6d39 2876 873e c76d d4be
00000390: c01b f83d fcbd 7e3b f97c 09be 1605 5cbd
000003a0: 7d2f 2ebd dbf5 aabd 155f 93bd 9da1 5abd
000003b0: 65c8 21be 31bc a83d 2ca4 dbbe 21a1 76be
000003c0: 03b1 e2be 6b77 debe c32f c73e 09f5 f43d
000003d0: 131e 8c3f 5978 cc3e efcc 923d 6e43 be3e
000003e0: 57bb 5c3e 7fe4 943d a68c 95bd f178 2a3f
000003f0: 0754 333f d88b e3be 1629 48be cda2 5bbe

encoder.conv.convs.1.bias f4 [20]
0.021955889 0.0048438385 0.19695747 0.22355632 -0.052103925 -0.053613283 -0.06955479 0.46393985
0.507427 0.34879076 0.024340415 0.08672078 -0.17221318 -0.07375235 0.022147916 -0.021175785
-0.0027415087 0.07180493 0.029552808 -0.033817634
00000000: d6dc b33c 10b9 9e3b 38af 493e f3eb 643e
00000010: ed6a 55bd 9a99 5bbd be72 8ebd 8689 ed3e
00000020: bce6 013f b494 b23e 8d65 c73c aa9a b13d
00000030: a758 30be 790b 97bd 8c6f b53c d778 adbc
00000040: e2aa 33bb 770e 933d bb18 f23c 5c84 0abd

encoder.conv.convs.1.lin.weight f4 [20, 40]
-0.042486344 -0.41838488 0.26180553 0.23832327 -0.50872177 -0.16571963 0.2380932 0.028364176
-0.17092548 -0.095872894 -0.23070127 -0.2120508 0.15446632 -0.17882748 0.01122752 0.0018309455
0.16545095 0.0029622745 0.0520788 0.3190007 -0.20004672 -0.25622156 0.23879658 0.5275089
0.07143854 0.2227935 0.0053167553 0.26188338 -0.18926743 -0.013695194 -0.18489219 0.19916745
0.32145754 -0.07151395 -0.15609284 -0.16094096 0.08116244 -0.036292505 0.029164627 -0.1896321
-0.10855421 -0.2661943 -0.14148387 0.35050225 -0.24666134 0.24699911 0.04352649 0.34007484
-0.0020159853 0.43029666 -0.02407952 -0.22230111 0.3231646 -0.23726755 0.25464532 -0.10875227
0.28710958 0.23943251 -0.18443729 -0.0028384686 0.26275963 0.054298405 0.23209395 0.64611524
0.12590548 -0.26324582 0.42202795 -0.17822553 -0.020491008 0.2808872 0.2633903 -0.023819162
0.00835908 0.24177144 -0.24409485 -0.21898006 0.535197 -0.13112739 0.27004486 -0.15392503
0.06383163 -0.14133768 -0.22254555 0.086175956 0.2893815 0.14801274 -0.15529701 0.16137564
-0.19822833 -0.048551634 -0.21834439 0.4290763 -0.036498208 0.11404203 -0.16846961 0.045442134
0.22942357 0.066988654 -0.6658923 -0.05416224 0.33737436 0.51576537 0.41115868 0.12218332
-0.3776588 -0.6550685 0.30318746 -0.16576065 0.4420708 0.4209543 0.38461304 0.083113305
0.2659514 0.16653351 0.059439536 0.82453424 0.19044675 0.16986412 -0.20070292 -0.16118771
-0.07756567 -0.0077002062 -0.33673096 0.21606115 -0.38047162 -0.026172591 0.0433572 -0.08333302
-0.09194923 0.39595908 -0.24995126 0.51857406 0.1682422 0.15982993 0.12952289 0.14847113
0.26384464 -0.45461196 -0.30440372 -0.14332974 0.16972028 0.47490633 -0.12902826 0.3707305
-0.4030021 -0.5792251 0.18797283 0.23789035 0.25141397 0.28857043 -0.5666269 0.2056217
0.11936196 0.11644441 0.014015056 0.48545453 0.16865619 -0.279163 -0.96634716 -0.16134457
-1.1490281 -0.15163189 0.0033405481 -0.00096889655 0.28085977 0.0031215895 0.32255313 0.20156711
0.32547617 0.3922812 -0.17310938 0.004736049 0.048430387 -1.5839255 -0.25128707 -0.39975655
0.2772454 0.24167962 -0.2556475 0.23164979 0.07251699 -1.3699307 0.2795466 -0.44668353
-0.40395486 -0.63044405 -1.723937 0.06690282 -0.22542685 -0.38245034 -0.32956484 0.19957456
0.25585252 0.31579447 -0.17901756 -0.15912756 0.11271851 0.25868937 -0.5101937 -1.0007765
-1.1368979 -0.120219044 0.25375208 0.11696716 -0.6410018 -0.3250081 0.4311308 -0.10450193
-0.083801836 0.37259763 0.052714482 0.0054997415 -0.23306954 -1.9521672 -0.05441881 0.16509794
-0.1713406 0.16573949 -0.053988375 -0.11038854 0.04194806 -0.5618314 0.18005729 -0.15152442
-0.5957707 0.053282503 0.5985898 0.36139596 0.11537719 -0.38504645 0.10814187 -0.063119814
0.14492972 0.23834279 -0.103516996 0.2827854 0.25216946 -1.884024 0.75465554 -0.36744878
-1.2363522 -0.27363613 0.05795224 0.033548977 -0.5090229 -0.018718434 0.057985622 0.16491853
0.1184293 0.41599214 -0.17341223 -0.24009176 0.21449186 -0.41949978 -0.16104686 0.33629727
00000000: 2906 2ebd 8b36 d6be 600b 863e 040b 743e
00000010: 973b 02bf 68b2 29be b4ce 733e fd5b e83c
00000020: 1707 2fbe 0259 c4bd f43c 6cbe d823 59be
00000030: 6b2c 1e3e 8d1e 37be a2f3 373c 56fc ef3a
00000040: f96b 293e b822 423b 9450 553d 0f54 a33e
00000050: 0cd9 4cbe 792f 83be 1787 743e d30a 073f
00000060: 5f4e 923d fb23 643e 2d38 ae3b 9415 863e
00000070: 52cf 41be cf61 60bc 6154 3dbe 8df2 4b3e
00000080: 1596 a43e e875 92bd cdd6 1fbe b5cd 24be
00000090: 7e38 a63d 73a7 14bd a8ea ee3c eb2e 42be
000000a0: ab51 debd 9f4a 88be 26e1 10be 0875 b33e
000000b0: ca94 7cbe 56ed 7c3e d548 323d 4a1e ae3e
000000c0: 9f1e 04bb d84f dc3e 6a42 c5bc e7a2 63be
000000d0: d575 a53e 44f6 72be df60 823e 83b9 debd
000000e0: 0700 933e cc2d 753e 21dd 3cbe 9a05 3abb
000000f0: 6e88 863e 0168 5e3d 09aa 6d3e cf67 253f
00000100: 5eed 003e 28c8 86be 0c14 d83e c180 36be
00000110: c2dc a7bc 72d0 8f3e 18db 863e 6720 c3bc
00000120: 86f4 083c ef92 773e 00f4 79be 4f3c 60be
00000130: ac02 093f 4246 06be 5243 8a3e 869e 1dbe
00000140: 28ba 823d d3ba 10be fbe2 63be 057d b03d
00000150: d029 943e a790 173e 2e06 1fbe a83f 253e
00000160: 5efc 4abe 14de 46bd ac95 5fbe e4af db3e
00000170: 257f 15bd de8e e93d 4c83 2cbe 8821 3a3d
00000180: 03ee 6a3e 5931 893d eb77 2abf 3ad9 5dbd
00000190: 55bc ac3e 3309 043f 6483 d23e 403b fa3d
000001a0: 7f5c c1be 92b2 27bf 633b 9b3e 29bd 29be
000001b0: 1b57 e23e 5287 d73e 00ec c43e 4f37 aa3d
000001c0: c82a 883e c387 2a3e df76 733d ad14 533f
000001d0: 7904 433e dcf0 2d3e 1185 4dbe 640e 25be
000001e0: c0da 9ebd 0352 fcbb 0068 acbe 223f 5d3e
000001f0: 2dcd c2be e767 d6bc 5297 313d 81aa aabd
00000200: e14f bcbd 26bb ca3e 39f3 7fbe 45c1 043f
00000210: af47 2c3e 75aa 233e a6a1 043e d108 183e
00000220: a516 873e e6c2 e8be ceda 9bbe 08c5 12be
00000230: 27cb 2d3e ec26 f33e fc1f 04be 63d0 bd3e
00000240: 4b56 cebe 1948 14bf f37b 403e 8799 733e
00000250: 55b9 803e 81bf 933e 760e 11bf 7f8e 523e
00000260: 0b74 f43d 687a ee3d 689f 653c 7f8d f83e
00000270: 35b4 2c3e 74ee 8ebe 8762 77bf 8337 25be
00000280: 5a13 93bf 6445 1bbe 19ed 5a3b 8cfd 7dba
00000290: dacc 8f3e 9593 4c3b af25 a53e 9c67 4e3e
000002a0: d0a4 a63e 15d9 c83e 9643 31be dc30 9b3b
000002b0: f15e 463d 12be cabf b3a8 80be e4ac ccbe
000002c0: 1cf3 8d3e dd7a 773e 3be4 82be 9a35 6d3e
000002d0: ca83 943d e459 afbf bb20 8f3e b4b3 e4be
000002e0: 2cd3 cebe c864 21bf f8a9 dcbf 5804 893d
000002f0: 4cd6 66be 88d0 c3be b9bc a8be 465d 4c3e
00000300: 1aff 823e d0af a13e 6150 37be 56f2 22be
00000310: f6d8 e63d ef72 843e 0e9c 02bf 7219 80bf
00000320: df85 91bf 6735 f6bd cbeb 813e 7a8c ef3d
00000330: b218 24bf 7667 a6be 2dbd dc3e 1c05 d6bd
00000340: 4ca0 abbd 1ec5 be3e 24eb 573d 2d37 b43b
00000350: c8a9 6ebe 9de0 f9bf 42e6 5ebd 6f0f 293e
00000360: e973 2fbe 9db7 293e ea22 5dbd 6313 e2bd
00000370: bbd1 2b3d 2fd4 0fbf f060 383e 3829 1bbe
00000380: 6e84 18bf c13e 5a3d 2e3d 193f e408 b93e
00000390: e04a ec3d cf24 c5be 7c79 dd3d f644 81bd
000003a0: 7568 143e 2210 743e b800 d4bd 3fc9 903e
000003b0: 5b1c 813e b327 f1bf 1b31 413f 3f22 bcbe
000003c0: ca40 9ebf 091a 8cbe 545f 6d3d a76a 093d
000003d0: 534f 02bf 6757 99bc 5582 6d3d 67e0 283e
000003e0: 108b f23d ecfc d43e fa92 31be 9dda 75be
000003f0: c1a3 5b3e adc8 d6be 78e9 24be 282f ac3e

encoder.embed_x.weight f4 [28, 40]
0.27289268 0.15064588 0.1327662 0.5787715 -0.9120337 -2.6946068 0.28863654 -0.6928577
0.27583838 1.0478641 -2.1137254 -0.38574272 -0.9995824 -0.15864827 -0.35626328 0.90134573
2.284796 2.1993556 -0.8482397 -0.73124534 -1.7182856 0.2289788 -0.56947815 0.09131428
-1.0032288 0.06807176 -0.11861871 -0.44170636 -1.4889349 0.82307607 -0.05554434 -1.1197771
0.27279395 1.2819269 -0.2560506 -0.27205503 0.72486675 0.5447016 -0.035418432 0.62954795
-2.3778715 -1.7833544 0.4953674 0.21245001 1.4043859 1.9591643 0.4448318 0.28373742
2.1975489 1.2809846 0.2780152 1.2033145 1.2918886 -3.2865477 0.16171987 -1.6085668
-1.8458941 0.4051263 -1.8340425 1.3063414 2.2579103 -1.0841129 0.56668305 2.8085515
1.68812 0.35290787 -1.0744228 0.76488143 -0.65511364 0.4070529 -0.8326792 -1.4140929
0.4430376 0.92475736 1.1668372 -3.0700452 -0.12573735 -0.027583223 -0.11167429 1.5821782
0.09906804 1.9349979 -2.0284543 0.23085113 -1.8964233 -0.603352 0.2777837 -0.037013747
-0.8082355 1.2125303 -1.1366502 -0.021679867 0.9635529 1.9058042 0.949655 -0.4886713
-3.1634285 -0.82518846 1.3363945 -0.5566277 -0.31164715 -0.95365405 -3.072114 -1.9348443
0.21139997 1.0728598 -0.53056836 2.7345812 0.79603153 -0.9412143 0.69597024 0.8001279
-1.4266474 -0.1829163 0.40567467 0.5114282 1.1030875 1.9618015 -0.42417908 -0.15749386
1.0134574 -1.4361923 1.6561965 0.0991182 -0.26894075 -2.249494 -1.7214386 -0.8651759
2.0476794 -1.6917785 -0.4913116 1.7008159 1.4212648 -1.0738643 -1.0916141 1.9469657
-0.84360343 0.17586514 1.7132086 -1.8290056 0.5344202 -1.5416007 1.9246533 -0.7788225
-0.5328106 1.6111538 0.3177884 2.508674 -1.378519 1.8486596 0.38516125 0.48894325
-0.532087 0.09765412 -1.5913833 -0.80291396 -0.6362578 -1.9746491 1.6617225 3.1077795
0.733436 -1.0968922 1.455436 -1.4616324 -0.3874478 -2.3585541 -0.8701775 1.6458124
-2.1607573 -0.64507985 3.5641418 -0.07834859 0.38614205 -0.772373 1.9547476 0.7522259
-1.8816091 0.4192288 0.036061246 1.8396884 0.64442486 -0.1094505 0.0071230377 0.9610961
1.0560193 1.356668 -2.3939962 1.3883257 -1.1376674 -1.1577955 -0.66018397 1.0130718
1.9632277 -0.7557281 0.8500459 -0.38204047 -1.2388844 0.0065650423 0.9447752 -0.2509699
0.80192834 -0.79026514 0.72941417 -1.3387167 -3.1752439 -1.5095185 0.025373902 -1.5617293
0.8460796 -1.7130206 0.28089464 -0.94938296 -2.0043502 -1.9156612 -0.45718062 0.35975954
0.59554726 1.05101 -0.9242691 -0.561614 0.13937601 0.50518495 0.1201985 -1.2680272
-1.1135377 -1.7009008 -0.06281684 1.9605981 0.9732356 0.7698897 0.4291837 -2.7818742
0.40959042 -0.2326851 1.0953072 0.8228829 -0.461651 0.19314303 -2.441701 -1.6419368
-2.6194339 -1.4888862 0.21081688 -0.33532974 -0.0810593 1.3827957 0.11663942 0.7523239
1.399775 1.3049811 -1.2172322 0.65621805 -1.3142505 0.7561017 -0.5141011 -1.6952621
00000000: 97b8 8b3e ea42 1a3e ddf3 073e 5e2a 143f
00000010: 0a7b 69bf 7074 2cc0 2bc8 933e 1f5f 31bf
00000020: b03a 8d3e 6920 863f 4747 07c0 1280 c5be
00000030: a2e4 7fbf b174 22be 2468 b6be 98be 663f
00000040: 193a 1240 3ec2 0c40 3d26 59bf e532 3bbf
00000050: c8f0 dbbf 6b79 6a3e 52c9 11bf fb02 bb3d
00000060: cd69 80bf 3569 8b3d 5eee f2bd 5627 e2be
00000070: 6b95 bebf 1db5 523f 7682 63bd db54 8fbf
00000080: a6ab 8b3e 2e16 a43f 1019 83be cc4a 8bbe
00000090: de90 393f 9071 0b3f eb12 11bd 0e2a 213f
000000a0: 0c2f 18c0 f544 e4bf cca0 fd3e 7f8c 593e
000000b0: ebc2 b33f e5c5 fa3f fec0 e33e 0846 913e
000000c0: a4a4 0c40 4ef7 a33f 0258 8e3e 3606 9a3f
000000d0: 9b5c a53f cc56 52c0 e599 253e 84e5 cdbf
000000e0: 4246 ecbf b76c cf3e e8c1 eabf 3236 a73f
000000f0: 9a81 1040 36c4 8abf 2412 113f 4fbf 3340
00000100: 5114 d83f 57b0 b43e b086 89bf 45cf 433f
00000110: 87b5 27bf 3d69 d03e 772a 55bf ff00 b5bf
00000120: d3d5 e23e e6bc 6c3f ec5a 953f 9f7b 44c0
00000130: 4bc1 00be 36f6 e1bc 7db5 e4bd d184 ca3f
00000140: 2fe4 ca3d 03ae f73f 32d2 01c0 3d64 6c3e
00000150: 00be f2bf 4775 1abf aa39 8e3e ba9b 17bd
00000160: 86e8 4ebf 3134 9b3f c17d 91bf fa99 b1bc
00000170: 67ab 763f 64f1 f33f 971c 733f 2033 fabe
00000180: 9d75 4ac0 8d3f 53bf fa0e ab3f 277f 0ebf
00000190: 3790 9fbe ac22 74bf 849d 44c0 faa8 f7bf
000001a0: 3c79 583e 7853 893f 54d3 07bf 6103 2f40
000001b0: b9c8 4b3f 6cf3 70bf 1b2b 323f 2fd5 4c3f
000001c0: 629c b6bf 694e 3bbe 97b4 cf3e f5ec 023f
000001d0: f931 8d3f 501c fb3f 002e d9be 1246 21be
000001e0: f9b8 813f 26d5 b7bf 3ffe d33f 7cfe ca3d
000001f0: 9ab2 89be b6f7 0fc0 1a58 dcbf 2b7c 5dbf
00000200: 2e0d 0340 338c d8bf 328d fbbe 56b4 d93f
00000210: 01ec b53f 6374 89bf 03ba 8bbf 2c36 f93f
00000220: 65f6 57bf fe15 343e 6b4a db3f db1c eabf
00000230: c3cf 083f 2c53 c5bf 0a5b f63f e960 47bf
00000240: 4766 08bf 4a3a ce3f 29b5 a23e 1d8e 2040
00000250: 5073 b0bf e1a0 ec3f db33 c53e c556 fa3e
00000260: db36 08bf e2fe c73d 73b2 cbbf c58b 4dbf
00000270: cbe1 22bf 4dc1 fcbf 53b3 d43f dce5 4640
00000280: 76c2 3b3f f766 8cbf ba4b ba3f c516 bbbf
00000290: 8f5f c6be 8df2 16c0 f4c3 5ebf fba9 d23f
000002a0: d949 0ac0 f423 25bf e61a 6440 3a75 a0bd
000002b0: 69b4 c53e 3dba 45bf 2b35 fa3f e091 403f
000002c0: 91d8 f0bf 28a5 d63e f5b4 133d e97a eb3f
000002d0: 07f9 243f 9527 e0bd 5f68 e93b 650a 763f
000002e0: a42b 873f 4ca7 ad3f 3c37 19c0 a8b4 b13f
000002f0: 169f 91bf a532 94bf d101 29bf 56ac 813f
00000300: 0c4b fb3f 6677 41bf 9c9c 593f cf9a c3be
00000310: c493 9ebf 911f d73b cadc 713f 207f 80be
00000320: 2d4b 4d3f d14e 4abf e3ba 3a3f 125b abbf
00000330: 3237 4bc0 e737 c1bf eedc cf3c bfe6 c7bf
00000340: ac98 583f 4244 dbbf 6cd1 8f3e c30a 73bf
00000350: 4647 00c0 6334 f5bf 9413 eabe 6732 b83e
00000360: c975 183f 7f87 863f e69c 6cbf efc5 0fbf
00000370: 96b8 0e3e cd53 013f a22a f63d b74e a2bf
00000380: 6788 8ebf 1eb7 d9bf 1ea6 80bd e1f4 fa3f
00000390: f825 793f 7e17 453f f7bd db3e 3a0a 32c0
000003a0: d6b5 d13e 0145 6ebe 0733 8c3f 74a8 523f
000003b0: 855d ecbe 49c7 453e d444 1cc0 fc2a d2bf
000003c0: cea4 27c0 d393 bebf 61e0 573e 57b0 abbe
000003d0: 6b02 a6bd 73ff b03f a6e0 ee3d 4d98 403f
000003e0: d42b b33f 9f09 a73f 44ce 9bbf e8fd 273f
000003f0: 5c39 a8bf e28f 413f 219c 03bf 59fe d8bf

encoder.conv_mu.bias f4 [20]
-0.16670546 -0.04477748 0.00903806 0.016838154 -0.005359772 -0.45262083 0.3464113 0.35676244
-0.4165077 0.16600344 0.07113569 0.17501473 -0.14766397 -0.072196096 -0.42206755 -0.24290732
0.10768905 -0.06167982 0.21518603 -0.5086723
00000000: d6b4 2abe 9768 37bd 5f14 143c 2bf0 893c
00000010: 07a1 afbb ebbd e7be d25c b13e 91a9 b63e
00000020: 7f40 d5be cefc 293e 97af 913d 1037 333e
00000030: 3935 17be 8cdb 93bd 3d19 d8be b2bc 78be
00000040: 148c dc3d fba3 7cbd ba59 5c3e 5938 02bf

encoder.conv_mu.lin.weight f4 [20, 20]
0.16652896 0.22885951 0.10396695 -0.28893602 0.155365 0.051462434 -0.48042554 0.033330314
0.26247144 -0.7070153 -0.038690306 -0.3345066 0.32518005 0.07102722 -0.14500669 -0.2275935
0.18018642 -0.2001915 -0.045376554 0.01663304 0.6265939 0.23337814 -0.20852557 0.63968617
-0.19101511 -0.2549468 0.39328796 -0.03908193 -0.44394138 -0.09675937 0.43414786 0.12751083
-0.19354008 -0.13648418 -0.35982648 -0.3214044 -0.09434493 -0.16774239 0.035408724 -0.15163311
0.008681248 -0.3911123 0.16699347 0.57421976 0.0323505 0.13347884 0.21083565 -0.41550523
-0.043483794 0.21195316 -0.0059502753 -0.29855648 -0.3016921 0.14895579 0.7648632 0.16230766
0.43975088 -0.44549838 0.333291 -0.11121659 -0.078492075 -0.31499457 0.12348382 0.66226417
0.31330428 -0.14557521 0.70899683 0.44097185 -0.54899335 -0.08341661 0.31337994 -0.34118247
-0.43658033 0.54281884 -0.5386733 0.3292291 -0.15610632 0.11202816 -0.08513333 -0.29312947
0.16295551 -0.12449798 0.23863135 -0.47343743 -0.4368291 -0.27408427 0.017312478 1.3387071
2.471854 -0.3988481 -0.19801177 -0.10854012 -0.050439127 -0.11181437 -0.20156103 -0.28303513
-0.06284293 -0.22603731 -0.250808 0.3680161 -0.34102002 -0.31520832 0.13759783 0.221664
0.07391584 0.14902492 0.0634544 1.3506957 1.808304 -0.14399153 0.10176448 -0.31003606
-0.33553314 0.09429921 -0.04564428 -0.34882995 -0.42704254 0.0060840286 -0.41014418 0.26300067
0.30692545 -0.27240446 -0.13916308 -0.2231498 -0.4285982 0.14458562 0.05305916 -0.033314016
0.1773874 -0.49841636 0.10046337 0.11579676 0.034703072 0.33424693 0.5844678 -0.19826932
0.159727 -0.18288697 0.722653 -0.08697941 0.042595915 0.010097121 0.27360344 -0.13615823
-0.51402676 0.5478823 -0.46521917 -1.0559812 -1.7125531 -0.61474365 0.3298883 -0.049652606
-0.23422655 0.36567643 -0.10982569 0.2613012 0.23907219 -0.2784122 -0.12055402 -0.096746884
-0.21649285 0.39212224 -0.07817774 0.17287858 0.00415396 0.43958405 0.08428828 0.86412615
1.3805908 0.4258306 0.110259436 -0.34904417 0.25589564 -0.13621524 -0.25399783 0.3281843
-0.29168177 -0.04421922 -0.6809373 -0.016618744 -0.48928487 -0.1256056 0.19461954 0.46833494
0.27901685 -0.02725921 -0.21821474 -0.9831987 -1.0957284 -0.3489801 -0.06316498 0.20559959
0.02891699 0.30600062 -0.19046235 0.084130794 0.06259539 0.10165561 -0.34639275 -0.104441635
0.099947885 -0.09222534 0.114455834 -0.6949521 0.14523341 0.14644568 -0.60227054 -0.1451455
0.46718952 -0.49706116 -0.32987252 0.28816777 0.8605545 -0.22195958 0.2629824 -0.16301553
0.029787146 0.18053833 0.067959115 0.10804925 0.39631835 0.25165004 -0.1112552 0.247237
-0.5309946 0.0050665867 -0.050893202 -0.7683416 -0.9922282 -0.7054929 -0.31695485 -0.39769202
0.2576212 0.060991395 0.11866569 -0.014507221 0.029311849 0.353847 0.20215163 -0.064460084
-0.24174103 0.27072814 -0.2354487 -0.09300116 -0.0027880613 -0.46122554 -0.37192577 1.409565
1.5515863 -0.55889463 0.4154433 0.31720316 0.19750702 0.40203258 0.05041389 0.04476806
00000000: 9186 2a3e 265a 6a3e a0ec d43d 6cef 93be
00000010: 0118 1f3e 46ca 523d 56fa f5be 5e85 083d
00000020: a862 863e f4fe 34bf ba79 1ebd 7344 abbe
00000030: 007e a63e b876 913d a27c 14be 450e 69be
00000040: ca82 383e 00ff 4cbe c4dc 39bd 0342 883c
00000050: 7568 203f aefa 6e3e ba87 55be 79c2 233f
00000060: 7799 43be 6388 82be 0a5d c93e 6014 20bd
00000070: 494c e3be c729 c6bd a148 de3e 3392 023e
00000080: 5f2f 46be 82c2 0bbe 2d3b b8be 1e8f a4be
00000090: ea37 c1bd a9c4 2bbe bd08 113d b645 1bbe
000000a0: cb3b 0e3c df3f c8be 5600 2b3e 1100 133f
000000b0: f581 043d adae 083e 4de5 573e 1abd d4be
000000c0: 101c 32bd 400a 593e 87fa c2bb 65dc 98be
000000d0: 6377 9abe de87 183e 13ce 433f fb33 263e
000000e0: 0727 e13e 5d18 e4be 1ea5 aa3e 86c5 e3bd
000000f0: 74c0 a0bd f846 a1be 16e5 fc3d 258a 293f
00000100: 6b69 a03e ab11 15be d180 353f 10c7 e13e
00000110: d48a 0cbf 54d6 aabd 5673 a03e 78af aebe
00000120: 7587 dfbe 2df6 0a3f 7ee6 09bf b790 a83e
00000130: 56da 1fbe 056f e53d 625a aebd 1115 96be
00000140: cfdd 263e ccf8 febd c75b 743e 6466 f2be
00000150: 10a8 dfbe c654 8cbe e6d2 8d3c c15a ab3f
00000160: db32 1e40 d135 ccbe 99c3 4abe 484a debd
00000170: 4299 4ebd effe e4bd 0466 4ebe fbe9 90be
00000180: cbb3 80bd 5376 67be e869 80be 9b6c bc3e
00000190: 2d9a aebe fc62 a1be 72e6 0c3e e3fb 623e
000001a0: 3061 973d fd99 183e 61f4 813d 99e3 ac3f
000001b0: 8176 e73f 8472 13be e569 d03d 0cbd 9ebe
000001c0: 00cb abbe f21f c13d 7ff5 3abd d799 b2be
000001d0: 52a5 dabe 885c c73b 6bfe d1be 06a8 863e
000001e0: 5525 9d3e 9978 8bbe c480 0ebe 6281 64be
000001f0: 3971 dbbe 410e 143e 9054 593d 4774 08bd
00000200: 0ba5 353e 6e30 ffbe bdbf cd3d da26 ed3d
00000210: cf24 0e3d 6a22 ab3e af9f 153f 1d07 4bbe
00000220: 7a8f 233e b946 3bbe c9ff 383f 4322 b2bd
00000230: 0e79 2e3d 656e 253c c015 8c3e 106d 0bbe
00000240: 4297 03bf 0442 0c3f 3531 eebe 642a 87bf
00000250: f134 dbbf d75f 1dbf 1fe7 a83e 8860 4bbd
00000260: 16d9 6fbe f139 bb3e 4bec e0bd 45c9 853e
00000270: 57cf 743e 0b8c 8ebe 07e5 f6bd 3b23 c6bd
00000280: 4db0 5dbe 3fc4 c83e a71b a0bd 1507 313e
00000290: f11d 883b 2911 e13e 559f ac3d 5f37 5d3f
000002a0: 33b7 b03f 7806 da3e b3cf e13d ebb5 b2be
000002b0: c104 833e 027c 0bbe 010c 82be c607 a83e
000002c0: 5057 95be 361f 35bd e851 2ebf 0824 88bc
000002d0: 8c83 fabe c19e 00be 584a 473e 99c9 ef3e
000002e0: 4cdb 8e3e b54e dfbc af73 5fbe e9b2 7bbf
000002f0: d440 8cbf 85ad b2be a45c 81bd b388 523e
00000300: 53e3 ec3c 1dac 9c3e 9008 43be c44c ac3d
00000310: 0332 803d d130 d03d 645a b1be 7fe5 d5bd
00000320: 7ab1 cc3d a4e0 bcbd d267 ea3d 61e8 31bf
00000330: 11b8 143e dbf5 153e 672e 1abf 06a1 14be
00000340: 7733 ef3e cd7e febe 0de5 a8be ba8a 933e
00000350: 4d4d 5c3f 5f49 63be a1a5 863e 8bed 26be
00000360: 2c04 f43c 0adf 383e 262e 8b3d ed48 dd3d
00000370: 3dea ca3e 46d8 803e c4d9 e3bd b22b 7d3e
00000380: 43ef 07bf 9c05 a63b 6475 50bd 09b2 44bf
00000390: ab02 7ebf 2f9b 34bf e847 a2be 4a9e cbbe
000003a0: ede6 833e 1dd2 793d ff06 f33d b2af 6dbc
000003b0: 671f f03c 6f2b b53e d600 4f3e a603 84bd
000003c0: f68a 77be e19c 8a3e 7719 71be 6477 bebd
000003d0: e8b7 36bb c125 ecbe 0e6d bebe a06c b43f
000003e0: 619a c63f b813 0fbf fcb4 d43e 7468 a23e
000003f0: 483f 4a3e 37d7 cd3e cc7e 4e3d b75e 373d

encoder.conv_logstd.bias f4 [20]
-0.30269465 -0.3223756 -0.38112018 -0.35788652 -0.5959837 -0.64440024 -0.39098087 -0.6114759
-0.42868373 -0.39034006 -0.31668255 -0.6451305 -0.6944465 -0.5481534 -0.32218158 -0.4458777
-0.35576606 -0.1858568 -0.312283 -0.5698069
00000000: cbfa 9abe 6a0e a5be 2f22 c3be e73c b7be
00000010: 6392 18bf 6af7 24bf a52e c8be af89 1cbf
00000020: 6f7c dbbe a7da c7be 3724 a2be 4627 25bf
00000030: 3fc7 31bf c853 0cbf fcf4 a4be 154a e4be
00000040: f826 b6be 3f51 3ebe 8fe3 9fbe ddde 11bf

encoder.conv_logstd.lin.weight f4 [20, 20]
0.0719796 -0.37230623 -0.2857095 0.0074892608 -0.1456342 0.071323216 -0.024524445 0.22546734
0.36100176 0.02892403 -0.19730991 0.15049191 -0.13454723 -0.065646134 0.5210927 0.1856198
0.012733363 -0.10361357 -0.16703309 -0.0703025 -0.1819733 -0.13191341 -0.22626325 0.04782823
0.06409398 0.032736257 0.036260918 0.016059352 0.49056342 0.12906733 -0.4001133 -0.2839632
0.10363878 0.11139448 0.2962029 0.06890272 0.19220328 -0.16266024 -0.02770938 -0.2994651
0.036733832 -0.36390767 -0.2720607 -0.039393246 0.026394201 0.07221078 -0.042862628 0.34681007
0.27682844 0.29733166 -0.19233611 -0.08145142 -0.1272486 0.026195059 0.43863297 0.009433996
0.13535747 -0.3513627 -0.16581185 -0.117917046 -0.044123456 -0.10892335 -0.15824185 0.1649129
-0.06647609 -0.061527297 0.23387504 0.225526 0.29382062 0.25879517 -0.27590266 -0.28144315
-0.09852291 0.039703995 0.07342688 -0.3416689 0.11263226 -0.12727691 -0.0004364915 -0.27690113
-0.056067757 -0.45274088 -0.3886366 0.13146722 -0.035159558 0.038546406 0.2579077 0.5208042
0.51726615 -0.03666168 -0.4186592 -0.22069405 -0.21682954 -0.02188819 0.54137623 -0.34630105
0.10960335 -0.38744524 0.07025436 -0.30684632 -0.37469155 -0.16888964 -0.7875243 0.22374937
-0.049090397 -0.14883815 0.12201564 0.54751533 0.5783381 -0.011787979 -0.39610946 -0.062205438
-0.30317703 -0.1941012 0.7939733 0.27680555 -0.33299655 -0.3214772 -0.10120706 -0.15733787
-0.099166766 -0.14690122 -0.30431038 0.075912766 -0.046827275 -0.07631244 0.07877954 0.37888628
0.17703569 0.19883263 -0.054905184 -0.18324022 -0.010879422 0.09447406 0.40422693 -0.13637498
0.107509635 -0.17502345 0.19910078 -0.2980956 -0.34063828 -0.18501398 -0.47957492 0.19980259
0.004130316 -0.1483547 0.31172407 0.49439642 0.5256557 0.338546 -0.3430843 -0.4634843
-0.37202337 -0.06972312 0.45746624 -0.09731203 -0.059910152 -0.29528067 0.09161709 -0.32798567
-0.11661812 -0.3647141 -0.46168354 0.13964967 0.0025135833 -0.11362813 0.09314486 0.43945542
0.53110814 0.12815046 -0.2553038 -0.08155085 -0.13102184 -0.013893104 0.670695 0.36311004
0.052825898 -0.46917176 -0.03202218 -0.2354235 -0.29686096 -0.38471654 -0.2375058 0.10570445
0.08136169 -0.010385291 0.0885388 0.4056267 0.5025559 0.008442964 -0.044640016 -0.5048217
-0.3129773 -0.022757936 0.56026584 0.28521574 0.033734668 -0.26145035 0.11270868 -0.37987095
0.03918405 -0.24202874 -0.33431363 0.19440675 -0.079949416 0.08284656 -0.08232501 0.45251077
0.119597174 0.12345265 -0.27772135 -0.052296836 -0.19996937 0.1275465 0.49031267 0.36584935
-0.035491306 -0.3231913 -0.27838826 -0.1275813 -0.23205924 -0.2643659 -0.3798529 0.08554692
-0.057336528 -0.074450634 0.14532939 0.4652967 0.48640618 0.07188035 -0.4354023 -0.27230427
-0.20685427 0.05275328 0.5598898 -0.370745 0.07879933 -0.26564458 -0.09384225 -0.17104247
-0.2645506 -0.12919591 -0.515727 0.27105066 0.051028192 -0.26809824 0.34402615 0.42793146
0.49032348 0.19302253 -0.43270898 -0.35149166 -0.30629286 0.03688123 0.3495277 0.14872916
00000000: 0a6a 933d ec9e bebe 8448 92be 7968 f53b
00000010: 2221 15be e811 923d 7de7 c8bc e9e0 663e
00000020: 39d5 b83e 16f2 ec3c 9c0b 4abe 8d1a 1a3e
00000030: c0c6 09be 7b71 86bd 5566 053f 1e13 3e3e
00000040: 989f 503c 5a33 d4bd b90a 2bbe c2fa 8fbd
00000050: 3557 3abe 4f14 07be 8eb1 67be 89e7 433d
00000060: b443 833d 7416 063d 5486 143d e78e 833c
00000070: 212b fb3e 3a2a 043e a7db ccbe a063 91be
00000080: 9240 d43d ca22 e43d e8a7 973e df1c 8d3d
00000090: f0d0 443e 6890 26be c8fe e2bc 7d53 99be
000000a0: 3776 163d 1b52 babe 8a4b 8bbe d05a 21bd
000000b0: a738 d83c 3fe3 933d b990 2fbd 1791 b13e
000000c0: 75bc 8d3e db3b 983e c2f3 44be 01d0 a6bd
000000d0: 754d 02be 0597 d63c 8094 e03e 0c91 1a3c
000000e0: 269b 0a3e d0e5 b3be 95ca 29be 7e7e f1bd
000000f0: ccba 34bd 3513 dfbd 270a 22be edde 283e
00000100: 9e24 88bd 0c04 7cbd f07c 6f3e 4af0 663e
00000110: a86f 963e cd80 843e 1d43 8dbe 5119 90be
00000120: 61c6 c9bd a8a0 223d d560 963d 3aef aebe
00000130: beab e63d e154 02be e6d8 e4b9 fcc5 8dbe
00000140: 4ea7 65bd a7cd e7be 60fb c6be 589f 063e
00000150: 7803 10bd d6e2 1d3d 7a0c 843e 6d53 053f
00000160: 8e6b 043f 8f2a 16bd 805a d6be 9ffd 61be
00000170: 9008 5ebe dd4e b3bc a297 0a3f 5f4e b1be
00000180: b977 e03d 395f c6be 85e1 8f3d f61a 9dbe
00000190: 92d7 bfbe 68f1 2cbe 319b 49bf 8e1e 653e
000001a0: 0313 49bd 0769 18be 56e3 f93d f729 0c3f
000001b0: f70d 143f 5e22 41bc dcce cabe 21cb 7ebd
000001c0: 053a 9bbe 77c2 46be d641 4b3f 75b9 8d3e
000001d0: 867e aabe a998 a4be a645 cfbd 2e1d 21be
000001e0: f217 cbbd 466d 16be 92ce 9bbe 2778 9b3d
000001f0: f5cd 3fbd b249 9cbd 2b57 a13d 62fd c13e
00000200: d848 353e c89a 4b3e 42e4 60bd 53a3 3bbe
00000210: 9a3f 32bc 9e7b c13d d5f6 ce3e e2a5 0bbe
00000220: 032e dc3d 5939 33be 13e1 4b3e fd9f 98be
00000230: 2468 aebe 4e74 3dbe d88a f5be 0d99 4c3e
00000240: 9a57 873b 4bea 17be 4c9a 9f3e 8721 fd3e
00000250: 5f91 063f e755 ad3e bfa8 afbe d04d edbe
00000260: d979 bebe ffca 8ebd 0439 ea3e 884b c7bd
00000270: 5964 75bd 072f 97be bea1 bb3d bded a7be
00000280: 7bd5 eebd cebb babe c961 ecbe 5300 0f3e
00000290: eeba 243b ddb5 e8bd bbc2 be3d 4d00 e13e
000002a0: b4f6 073f e039 033e 2eb7 82be 2204 a7bd
000002b0: 972a 06be e79f 63bc abb2 2b3f 8fe9 b93e
000002c0: f85f 583d 4837 f0be b029 03bd dc12 71be
000002d0: 29fe 97be 91f9 c4be b834 73be 937b d83d
000002e0: f5a0 a63d 1127 2abc d553 b53d 4eae cf3e
000002f0: 81a7 003f 5c54 0a3c 73d8 36bd ff3b 01bf
00000300: 903e a0be da6e babc 956d 0f3f cc07 923e
00000310: 5d2d 0a3d d2dc 85be cfd3 e63d 727e c2be
00000320: 747f 203d 62d6 77be 282b abbe 9012 473e
00000330: 85bc a3bd 75ab a93d 049a a8bd 7eaf e73e
00000340: 5def f43d bed4 fc3d 7e31 8ebe 3535 56bd
00000350: c5c4 4cbe 8d9b 023e 430a fb3e 9b50 bb3e
00000360: 555f 11bd 5479 a5be e888 8ebe aca4 02be
00000370: f0a0 6dbe f85a 87be 147c c2be 3933 af3d
00000380: b5d9 6abd 9379 98bd 3ad1 143e 5e3b ee3e
00000390: 3b0a f93e 0136 933d 0ded debe 776b 8bbe
000003a0: 9bd1 53be d313 583d f054 0f3f 4ad2 bdbe
000003b0: 8b61 a13d 9102 88be 5e30 c0bd c225 2fbe
000003c0: 2d73 87be ef4b 04be af06 04bf 27c7 8a3e
000003d0: f002 513d 2c44 89be 3224 b03e d519 db3e
000003e0: ae0b fb3e b3a7 453e 088c ddbe b7f6 b3be
000003f0: 6bd2 9cbe c610 173d 4bf5 b23e 754c 183e
