results/model_GCN/graph_split_/layers_8/transform_True/alpha_-10.0/model.pt (torch, 65262 bytes, 23 tensors)

encoder.conv.convs.0.bias f4 [40]
000000 9c 5e e5 3c 84 e7 bb bd b9 86 7f bd 7d 3e 89 3d
       0.027999215 -0.091750175 -0.06238434 0.06701372
000010 47 b6 a4 3d cf 8d 99 bd fd 35 3b 3c c6 18 7c 3b
       0.08042579 -0.07497751 0.011426446 0.0038466915
000020 20 c8 dd bd d4 ef b2 3d ad e3 3b 3e 06 e1 3c 3e
       -0.108291864 0.0873715 0.1834857 0.18445215
000030 e5 b4 86 bd 19 7b e5 3d 07 7d fa bd 9b 12 28 3e
       -0.06577472 0.1120512 -0.12230878 0.16413347
000040 a6 00 9a bc 95 62 c2 3d 38 6e 0a bb 56 3b 36 3c
       -0.018799137 0.09491459 -0.0021122824 0.011122545
000050 00 ca cf 3d 20 a4 ec 3d f3 3a e3 bd ad 05 19 3d
       0.1014595 0.11554742 -0.11095228 0.03735893
000060 8c c1 81 3d 34 24 00 bd 85 83 1c bd 1f 70 dd bd
       0.06335744 -0.031284526 -0.038211364 -0.10812401
000070 31 18 38 3e bc ab 04 3e 1a db 33 3e 11 b0 33 3e
       0.17977978 0.12956136 0.1756405 0.17547633
000080 e4 5d b0 bd f8 db ac 3d 94 cb 38 3e 5c 0e 7c bc
       -0.08611658 0.08440393 0.18046409 -0.015384283
000090 c7 bf 8e 3d 20 ed 18 3e b1 0f 94 bd ff 21 bf bd
       0.069701724 0.14934206 -0.072295554 -0.09332656

encoder.conv.convs.0.lin.weight f4 [40, 40]
000000 45 2f 9b 3e 7e ef 2c 3e 86 d1 91 3e 7f 1f 1a 3e
       0.303095 0.16888234 0.28480166 0.15051077
000010 7a 35 88 3e b1 a4 91 3e 40 3d ad 3d 51 94 c4 bd
       0.266033 0.28445962 0.08458948 -0.095986016
000020 5c b5 26 be db 2b ad 3d 35 66 24 3e 59 db a5 3e
       -0.1628012 0.084556304 0.16054614 0.3239391
000030 72 40 14 3e c9 d4 e8 3d 2c b1 8f 3e ea 50 b8 be
       0.14477709 0.113687105 0.2806486 -0.35999233
000040 56 40 20 be 4e a7 a8 be d5 dd c8 3e 0e 35 41 3e
       -0.15649542 -0.32940143 0.39231744 0.18867895
000050 31 45 73 3e a9 83 7d 3d d4 59 03 3d 5f 41 4b be
       0.23756863 0.06189314 0.03206809 -0.19849156
000060 f5 5c fa 3d 87 b1 85 be 8b 28 0b 3d 8c 8c e3 3d
       0.122247614 -0.26112005 0.03397421 0.111107916
000070 79 b2 9c be 87 ad f1 bd 4b 0f 4a 3e c9 9d d8 3e
       -0.30604914 -0.11800676 0.19732396 0.4230788
000080 f7 69 96 3d 99 a9 24 be a7 34 7c be e9 e3 30 3e
       0.0734443 -0.16080321 -0.2462946 0.17274441
000090 d8 89 96 3d 77 16 db 3c d3 2c 0c bd 80 ae 48 3e
       0.0735051 0.02674411 -0.034222435 0.19597816
0000a0 7f b9 2f be 49 88 51 3d 52 38 04 be 48 dc 8b bb
       -0.17160605 0.051155362 -0.1291211 -0.004268203
0000b0 e2 58 35 be 91 d3 36 3e fe fc a2 be f4 4d 87 be
       -0.17709687 0.17854144 -0.31833643 -0.2642666
0000c0 e0 39 4e bc 51 a3 60 3e 52 d4 8e 3e 24 9f c4 3c
       -0.012587041 0.219373 0.27896363 0.024001665
0000d0 6e a9 9a be aa ed 12 be ce a8 74 bd a7 24 54 bc
       -0.3020739 -0.14348474 -0.059731297 -0.012948192
0000e0 31 3d e0 3d df 64 76 bd de eb 81 be 23 a6 0e 3e
       0.10949171 -0.060154792 -0.25375265 0.13930564
0000f0 76 b8 68 bc 9c 92 75 be 86 bb 87 3e 00 55 64 bd
       -0.014204135 -0.23981708 0.26510257 -0.055745125
000100 3f 3b a2 bc 69 0d 40 be a8 5f 62 be 95 c9 70 bd
       -0.019803641 -0.18755116 -0.22106802 -0.058785994
000110 64 07 d9 3d 80 f4 f2 3d 04 15 3d 3e 33 24 7c be
       0.10597113 0.11863041 0.18465048 -0.24623184
000120 f5 71 0a bc 64 ab e2 3d 92 ee b0 bc d5 ab 4c bd
       -0.008450021 0.110678464 -0.021598134 -0.04996856
000130 a0 13 ee 3d a4 ee 71 be 0f f6 01 bd d2 d0 27 be
       0.11624837 -0.2362619 -0.0317288 -0.16388252
000140 32 76 f8 3e d1 f9 17 be 63 3c b5 3d 8f 6d 34 3e
       0.48527676 -0.14841391 0.088494085 0.17619918
000150 56 fd f2 3d e3 ff b4 3e 40 ee 7e 3d b6 52 2c be
       0.11864726 0.35351476 0.06223893 -0.16828427
000160 70 65 a1 3d 79 82 78 be ef 9a 65 3e 48 7e 68 39
       0.07880676 -0.24268521 0.22422384 0.00022172288
000170 6b 18 3c 3e 5e ee c2 3d 83 62 8b 3e d4 4b 7f be
       0.1836869 0.09518121 0.27223596 -0.2493127
000180 ac 76 b5 3e 32 3e 97 be 33 e7 12 3e 07 be 12 be
       0.35442102 -0.2953964 0.14346008 -0.14330302
000190 be d0 6b be ad b1 14 3e 21 39 1f be db 51 a1 bd
       -0.23028848 0.14520903 -0.15549137 -0.07876941
0001a0 e8 09 78 3e f1 93 45 be 59 22 0b 3e c6 09 0a be
       0.24222529 -0.19294716 0.13587321 -0.13480291
0001b0 81 2e 94 bd dd af 41 3e 67 2a b7 3e eb f3 02 3f
       -0.072354324 0.18914743 0.35774538 0.5115344
0001c0 24 f2 20 be d1 aa 9e bd 35 f9 26 be 8a 46 c7 3c
       -0.1571737 -0.077474244 -0.16306002 0.024325628
0001d0 25 b4 5e 3b 01 8e dd 3d 1a ab 63 3e 77 a9 70 3d
       0.0033981886 0.10818101 0.22233239 0.058755364
0001e0 6f cd 12 bf 0e 2d 0e 3e 48 da 55 be ab 1c 44 be
       -0.57344717 0.13884374 -0.20884049 -0.19151561
0001f0 86 38 b0 be 54 d6 81 be 28 69 cf bd 9e ba 47 3e
       -0.34418124 -0.25358832 -0.10127479 0.19504783
000200 e5 c0 ed be cb 24 c7 3e 11 26 a9 3d db 79 b4 3e
       -0.4643623 0.38895258 0.08259214 0.35249218
000210 77 98 57 3e 68 6f 5b 3d 12 2c fa 3d c9 46 bc be
       0.21054254 0.053573042 0.12215437 -0.36772755
000220 4a 97 01 bd 3e 23 be 3e 32 e5 b0 bd ab 1e 9f 3d
       -0.03163842 0.37136263 -0.086374655 0.07769521
000230 26 6e a8 be 88 b2 3b be af 76 a4 3e be 69 f7 bd
       -0.32896537 -0.18329823 0.32121798 -0.120807156
000240 d7 c9 6e 3d 69 fc b1 3e ca 79 10 3e d9 e7 25 bd
       0.05829796 0.34762886 0.14108959 -0.04050431
000250 a5 a4 f0 bd 9d 01 dd bd c2 a7 fe be f1 56 80 bd
       -0.117501535 -0.10791323 -0.49737364 -0.06266583
000260 98 88 63 3e e5 4f 0f be ac eb 26 3e bd a8 b4 be
       0.22220075 -0.13995321 0.16300839 -0.35284987
000270 ef 79 c6 be 35 2e 32 bf d9 df 54 be 45 f0 83 3e
       -0.38764903 -0.69601756 -0.20788516 0.2576925
000280 4d c2 17 bf 05 09 32 3d fb 4d b8 b9 41 85 8b bd
       -0.59280854 0.043465633 -0.00035153315 -0.068125255
000290 28 c1 3c be 40 26 a2 be 94 36 12 bd 53 10 89 3e
       -0.18433058 -0.31669807 -0.03569658 0.26770267
0002a0 19 09 88 3d fd 0a 00 3d 3e 19 c0 bd e0 9c 16 3f
       0.0664236 0.03126048 -0.093798146 0.5883312
0002b0 cd 62 6a 3e d0 d1 0e be 76 32 9f bd c0 0e 6c be
       0.22889252 -0.13947225 -0.077732965 -0.23052502
0002c0 18 c3 bf be cb bf c8 3e aa 61 fc bd d2 e5 07 3d
       -0.37453532 0.39208826 -0.123233154 0.033178158
0002d0 1e e7 17 bd 53 81 67 3e 85 a3 1c be 1b 58 5a be
       -0.037085645 0.22607927 -0.15296753 -0.21322672
0002e0 b4 e9 17 be 9a 48 70 3d d0 9a b2 3e 8c c7 c1 3c
       -0.14835244 0.05866299 0.34883738 0.023654722
0002f0 c5 80 0e be c0 3b 94 3d 8d bf ae be e1 45 84 be
       -0.13916309 0.07237959 -0.34130517 -0.25834563
000300 44 cd fc 3e 0b 9a 7f be 20 51 a9 3e 34 26 4d be
       0.49375355 -0.24961106 0.33069706 -0.20034105
000310 4d e2 33 be ce 34 5a bf 31 54 95 be 49 97 05 3e
       -0.17566796 -0.85236824 -0.29165795 0.13045992
000320 f0 4e 96 bc 58 59 4d 3e 0f 86 34 3d 45 b1 7e 3e
       -0.018348187 0.20053613 0.04407316 0.2487231
000330 1f 20 93 3d a6 0e d4 3c 4f 74 4f 3e 03 6e 59 3e
       0.07183861 0.025885891 0.20259212 0.21233372
000340 fa d4 7e bd 42 bb 9a bc fb 12 6a bd 3b 25 fc 3d
       -0.06221483 -0.01888812 -0.057147007 0.12311789
000350 70 43 ca be 40 5b 59 3e ce 75 ac 3e 9f c4 2d 3e
       -0.39504576 0.21226215 0.33683628 0.16969536
000360 a1 7e 74 3e 41 c6 a0 be 17 55 4a 3e a6 04 1d 3d
       0.2387643 -0.31401256 0.19759022 0.03833451
000370 fe 0a 75 be d1 6e 8a 3e 61 be 2d be 34 3e 23 be
       -0.23929974 0.2703767 -0.16967155 -0.15941697
000380 dc e8 86 3d 77 6c 4e 3d dc 52 d6 bd 1d b1 2c be
       0.06587383 0.05039641 -0.10465023 -0.16864438
000390 a3 9a 80 3c dc 2c 8d be 4f 47 1e 3d d4 87 5c 3d
       0.015698737 -0.27573287 0.038642224 0.053840473
0003a0 82 e7 d5 bd 8e 85 d1 3e 2c 29 1a be d7 b3 4f be
       -0.10444547 0.40922207 -0.15054768 -0.20283447
0003b0 af 08 8a bc 87 4e 6c be 45 3f 00 3e 0f 5e 0c 3e
       -0.016849844 -0.23076831 0.12524135 0.13707756
0003c0 5a 1d ba 3e fc 54 4b be 9e 93 b3 3e af ed ac 3e
       0.36350518 -0.19856638 0.3507356 0.33775088
0003d0 23 eb ef 3a fd aa 35 be 73 ed 4e be e2 8c 2c bd
       0.0018304329 -0.17741008 -0.20207767 -0.042126544
0003e0 67 22 ab be 6f 42 f5 bd ca 48 c1 bc 29 f5 22 3d
       -0.33424684 -0.11975562 -0.023594279 0.039784584
0003f0 e7 01 03 be 85 58 11 be 0a f9 dd 3e 69 f8 ac 3d
       -0.12793694 -0.14193924 0.43354064 0.08445818

encoder.conv.convs.1.bias f4 [40]
000000 8e e0 78 bd 72 a7 cd 3d 14 58 19 bd bf 20 b7 bc
       -0.060761027 0.10041703 -0.037437513 -0.022354482
000010 b9 a6 73 bc 66 b4 80 bc 9f 6e 6c 3c ed c3 de 3d
       -0.014871293 -0.01571102 0.014430671 0.108772136
000020 4b cb ae bd ab 96 42 3d 19 b8 4a bd 7e 23 37 3e
       -0.08534869 0.04750697 -0.049491975 0.17884633
000030 f4 68 ec bc b0 e6 69 3e b1 0a 62 3c d2 0e ad bb
       -0.02885864 0.22841907 0.013796494 -0.0052813077
000040 9f 5a 17 bb 83 bb b9 bc 85 56 9f bd ec ba 93 3d
       -0.0023094786 -0.02267242 -0.07780174 0.07213387
000050 fc ac 52 3e f9 1e a5 bc 29 ac 87 bb 0c e8 18 bd
       0.20573801 -0.02015637 -0.004140396 -0.037330672
000060 dd 7f 8c 3d fb 7c 87 3e d2 1a 88 3c f5 55 39 3e
       0.068603255 0.2646254 0.016614351 0.18099196
000070 0c 82 7e 3d 26 a4 e7 3c 9e ee 41 bd d5 41 43 bd
       0.06213574 0.028276514 -0.047346704 -0.047670204
000080 45 93 c4 bb 6f 23 98 3d 63 8e 01 3c af bc 4c 3e
       -0.005999001 0.074286334 0.007907483 0.19993852
000090 af c8 0d 3e dc 95 85 bc ff ac b5 3d be 87 a9 bc
       0.13846086 -0.01630681 0.08870887 -0.02069461

encoder.conv.convs.1.lin.weight f4 [40, 40]
000000 4d 2e 9f be 60 cf 2f be 15 a5 41 3d ce 75 72 3d
       -0.31090012 -0.17168951 0.047276575 0.05919438
000010 8f d2 f9 3d 10 75 9d 3e 79 8f 7b 3e ca 11 92 3d
       0.12198364 0.30753374 0.24566449 0.07132299
000020 b6 e4 bf 3d 57 99 8a be ff 27 da be 07 c8 8e be
       0.09369795 -0.27070114 -0.4260864 -0.27886984
000030 dc 87 ff bd 7f 17 0d 3e fe b4 1a 3e e4 2e 34 3e
       -0.12477085 0.13778494 0.15108106 0.17596012
000040 cc b6 e5 bd 63 d9 41 be e4 67 26 3d 44 56 e4 3d
       -0.11216506 -0.18930583 0.04062642 0.11149266
000050 01 fa 85 be 28 47 0b be 62 70 4b 3d 2e 4c 36 be
       -0.261673 -0.13601363 0.049667723 -0.17802498
000060 24 a8 54 3e 05 45 01 be 37 14 f7 bd ae d8 87 3d
       0.20767266 -0.12623985 -0.120644026 0.06633125
000070 78 79 d3 bd 04 4c 36 3e 8f 21 0b 3e 0e 5f 0b be
       -0.10325903 0.17802435 0.1358702 -0.13610479
000080 d6 f2 64 3e 83 8a e7 bd 1d e5 f4 bc 77 b6 91 3e
       0.2235826 -0.11305716 -0.029894406 0.28459522
000090 7e 7c 4d 3e a5 f6 a0 3c 42 9d 73 3e cc 38 98 bc
       0.20067021 0.01964886 0.23790458 -0.01858177
0000a0 00 2a 8a 3d 9e e1 39 be 69 86 a6 3d ac 63 d0 3e
       0.06746292 -0.18152472 0.081311055 0.40701044
0000b0 15 f0 ba 3e 57 8a 18 3e e5 43 fd bc 67 bf 12 bd
       0.36511293 0.14896522 -0.030916164 -0.035827067
0000c0 36 d8 a4 be 1c 35 83 3e 8d 7c ee 3e d3 7e 26 3e
       -0.32196206 0.25626457 0.465794 0.16259317
0000d0 6b c2 0f 3e 3b e3 04 3f a8 e2 25 be 2d d1 ee 3e
       0.14039008 0.51909226 -0.16199744 0.46643963
0000e0 ce 22 d0 be 4d e1 d6 3e 5c 7c 24 bd f2 53 19 be
       -0.40651554 0.41968766 -0.04015766 -0.14973429
0000f0 aa 0d 12 bd 2a 67 19 3f 1b d1 2f be c7 f6 36 3e
       -0.035657562 0.5992304 -0.17169611 0.17867576
000100 ca 53 86 3e bd 45 78 3d f8 98 77 be 03 b2 84 bd
       0.262358 0.060613383 -0.24179447 -0.064792655
000110 4c 26 27 3e 28 93 1c 3e bc a9 ca 3e a0 83 cc 3e
       0.16323203 0.1529051 0.39582622 0.39944172
000120 6b 3b 40 3d 21 28 06 be a1 03 0e 3f 85 16 7c bd
       0.046931665 -0.13101245 0.5547429 -0.061544914
000130 dd 25 0e be 44 ab 46 37 b5 f9 5f bd 65 e9 8f bd
       -0.13881631 1.1841596e-05 -0.0546815 -0.07026938
000140 a5 62 8b be 28 47 24 bd a2 26 b9 3d 61 a6 d1 bc
       -0.27223697 -0.040106922 0.09040572 -0.025592031
000150 86 7d 90 be d5 0b 87 3e 66 8c 08 3e 81 28 3c 3e
       -0.28220767 0.26376215 0.13334808 0.18374826
000160 e8 54 a7 3e 83 fc c3 bd e0 90 41 bd d9 70 ef be
       0.32681966 -0.09569647 -0.047257304 -0.46765783
000170 d3 d2 86 3d 8d ea 8a 3d 43 71 57 bc 2d 2b 24 3e
       0.0658318 0.06783018 -0.013149562 0.16032095
000180 ed 59 23 3e 35 87 e4 3d e7 5a 6f 3e 7a a2 21 3e
       0.15952273 0.11158601 0.2337452 0.15784636
000190 cc 92 2f be db df 98 be 7a b8 c8 3d 94 50 b6 3e
       -0.17145842 -0.29858288 0.09800811 0.3560835
0001a0 4f f1 3a 3d 47 eb b6 bd 5a c8 80 3e 8d b3 69 3e
       0.045640286 -0.08931594 0.25152856 0.228224
0001b0 25 72 47 bd b8 ad 54 3c c1 06 22 3e 79 bb 85 be
       -0.04869284 0.012980871 0.15822889 -0.26119593
0001c0 51 e0 1a 3e b7 ab 5c 3e ef 32 a2 3a 78 18 9c 3d
       0.15124632 0.21549879 0.0012374799 0.076218545
0001d0 18 4f 08 be c4 e8 2f be 2f f7 80 be dc 1d e6 bd
       -0.13311422 -0.17178637 -0.25188586 -0.11236164
0001e0 f6 4e 2b 3d ab 99 20 be d1 bc 8d be df e6 48 3f
       0.04182335 -0.1568362 -0.27683118 0.7847728
0001f0 af d3 52 3f 29 56 92 be 73 3c 6f 3e c3 af fc bc
       0.82354254 -0.2858136 0.23362903 -0.030845528
000200 4c 40 4f bd 7f 70 19 3f 8d 98 0d 3e 22 7e 20 3f
       -0.050598428 0.5993728 0.13827725 0.62692463
000210 9f 29 c9 bc d4 a5 25 3f 08 c1 d3 bd 74 c7 85 3f
       -0.02455598 0.6470616 -0.10339552 1.0451493
000220 5b d0 19 3e 7b be 59 3e 47 2a 77 3d a1 72 fd be
       0.15020888 0.21264069 0.060343053 -0.49501517
000230 b8 9d 1e bc 61 23 9c 3e 6d 9c 23 bc 30 5c 97 3e
       -0.009681158 0.30495742 -0.009986025 0.2956252
000240 a0 76 12 3e 19 57 3f bd f0 26 03 bf 14 6e 3f bd
       0.14303064 -0.046713922 -0.5123129 -0.046735838
000250 fd 3d 62 be ba cf 3e 3f d2 1e 75 3e 08 cf ce 3e
       -0.22093959 0.74535716 0.23937538 0.40392327
000260 09 00 9e 3e f1 4a 51 be ed c7 0a 3f f0 51 97 3e
       0.30859402 -0.20438744 0.5421131 0.295547
000270 ef db ce bd e8 70 a0 3d a7 b1 65 be f1 7b a3 be
       -0.10100543 0.07834035 -0.2243105 -0.31930497
000280 13 57 8d bd 52 dd 22 3e 0f 32 61 be cd 43 9b 3e
       -0.06901374 0.1590474 -0.21991752 0.30325165
000290 cc f5 ae 3e 3d 26 ab 3e c2 94 8a be ee 6c a1 3b
       0.34171903 0.3342761 -0.27066618 0.0049263155
0002a0 e3 f9 80 3e 92 b1 02 3f c7 ad 98 3e 2f bb 36 3e
       0.25190648 0.510522 0.29820082 0.17844842
0002b0 af 88 87 be 28 23 3e 3e ec 91 8a be 9e 89 28 3f
       -0.2647147 0.18568099 -0.27064455 0.6583499
0002c0 86 37 84 3d f3 e6 02 3f e2 d4 fa bb 29 84 9c be
       0.06455903 0.5113365 -0.007654772 -0.3056958
0002d0 a0 7a 77 be d9 72 be 3e 9c d3 46 3e 99 e3 f3 be
       -0.24167871 0.37196997 0.1941666 -0.4763458
0002e0 b8 05 03 be 87 b8 35 be ea e9 c3 bd a8 84 20 3e
       -0.1279515 -0.17746173 -0.095661 0.15675604
0002f0 00 ab 68 be 40 70 15 3f 95 f8 ef 3d d9 56 06 3e
       -0.22721481 0.58374405 0.11717335 0.13119067
000300 03 71 12 be 2f cc 35 3c 53 2d 81 3e 89 f7 81 be
       -0.14300923 0.011096044 0.25229892 -0.25384167
000310 f8 f7 1b be 24 b6 0b 3e 91 7d 0f 3d d9 c1 02 3e
       -0.15231311 0.136437 0.03503186 0.1276926
000320 63 50 3f bd f4 83 15 bc de d7 8b be ed f6 43 3f
       -0.046707522 -0.009125698 -0.2731313 0.76548654
000330 97 92 3b 3f 74 cc 4d be 30 14 92 bd a2 b8 93 be
       0.73270553 -0.20097524 -0.07132757 -0.288518
000340 ba 08 1a be 9e ce 11 3f 0e b7 55 3e 27 f5 b2 3e
       -0.15042391 0.569559 0.20870611 0.3495266
000350 e7 0d d5 be 56 9d 14 3f 5d 3a f7 bd a5 ce 6a 3f
       -0.4161217 0.58052576 -0.12071679 0.91721565
000360 ab 39 19 be 93 ef 88 3e ad 98 50 3d 7b 1b b9 be
       -0.14963405 0.2674528 0.050926853 -0.36153778
000370 e4 9b 37 3e 33 b4 13 3f f3 db ec bd eb f3 b4 bd
       0.17930561 0.5769684 -0.115653895 -0.08835586
000380 41 cb 1d 3e 0e 34 23 be 4f 87 77 be f4 68 e7 bd
       0.15409566 -0.15937826 -0.2417271 -0.11299315
000390 a8 dd fc bc b1 80 06 3f fa 83 18 3d 45 2f b1 3e
       -0.030867413 0.5254012 0.037235238 0.34606376
0003a0 91 05 75 bd 89 b2 cc 3d 37 ff fc 3e 19 f7 4b bd
       -0.05981976 0.099949904 0.49413463 -0.049796198
0003b0 08 72 a7 bd 8c 3c c6 bd 6d 4b 71 bd 5e f5 35 3d
       -0.081760466 -0.09679517 -0.058909822 0.044423454
0003c0 4e 75 07 be 4c 2d 23 bd 8f ad 23 3e c7 81 6c bd
       -0.13228342 -0.03983812 0.15984176 -0.057740953
0003d0 67 6e 48 be 70 71 61 3e e0 76 34 3d f5 55 8c 3d
       -0.19573365 0.22015929 0.04405868 0.068523325
0003e0 47 a6 47 3e a3 54 78 3d d0 9c 36 be 94 73 b8 be
       0.19497024 0.06062759 -0.17833257 -0.3602568
0003f0 ba d9 18 3e 72 0e e7 3d e6 b7 e0 3d e2 ee 87 be
       0.14926806 0.11282052 0.10972576 -0.2654944

encoder.conv.convs.2.bias f4 [40]
000000 60 6c b4 bc 74 47 0c 3e 50 4d 22 ba de 03 b1 3d
       -0.022024333 0.13699132 -0.000619133 0.08643316
000010 75 fa e1 bd 6b 6b 06 bd e4 42 92 3c 00 00 00 00
       -0.11034099 -0.032817286 0.017854162 0.0
000020 0c ad d1 bc 45 80 4b 3e 4b 28 11 3d 35 df 81 bc
       -0.02559521 0.1987315 0.035438817 -0.015853504
000030 e4 f9 93 3d 94 63 3f bd 77 62 c1 bd 81 47 cd bb
       0.07225397 -0.046725824 -0.09442609 -0.0062646274
000040 e3 2d e7 3c 32 d0 2c bc 77 94 3b be 6b 45 0b bd
       0.028220123 -0.0105476845 -0.18318354 -0.03400175
000050 ff d0 a4 bd 8c 8e 95 bd 6a bc 8f bb 9b 3c 88 bc
       -0.08047675 -0.07302579 -0.0043864744 -0.016630461
000060 dd 9a be 3d c6 95 36 3e 98 ac 11 be e0 84 f0 3c
       0.093068816 0.17830572 -0.14225996 0.029360235
000070 8b cc 97 3d c8 33 de 3d 96 7f 32 bd a7 05 08 bd
       0.0741206 0.1084972 -0.043578707 -0.033208515
000080 7c e9 24 bd 79 52 4f bd e2 1e ba bd 67 2a 9f bc
       -0.04026173 -0.05061576 -0.09087922 -0.019429399
000090 e5 58 d6 bc 9a 2b 02 3e 78 2b de bc 25 c5 2a 3e
       -0.026165435 0.12711945 -0.027120337 0.16676767

encoder.conv.convs.2.lin.weight f4 [40, 40]
000000 48 56 0a be 09 34 0d be 0d 40 17 3e 39 ba 4b be
       -0.13509476 -0.13789381 0.14770527 -0.19895257
000010 36 ff 25 3e 68 cf c1 bd bb b6 c3 3d 01 56 38 be
       0.16210636 -0.09463388 0.095563374 -0.18001558
000020 fc 73 dc 3d 82 9a 87 be f5 18 77 be 2c b7 b1 3d
       0.1076431 -0.26485068 -0.24130614 0.086775154
000030 1e fa 4f 3c c6 78 50 be 3d 4b 93 3d 37 43 c2 3d
       0.01269391 -0.20358571 0.07192085 0.094854765
000040 8c f1 69 3e 64 98 a9 3e cb 3a 88 3e d9 97 1a bf
       0.22846049 0.33124077 0.26607355 -0.6038795
000050 8a 68 8b be ec 95 01 be 33 65 7a bd e5 fb 95 3e
       -0.27228194 -0.12654847 -0.061131667 0.29293743
000060 86 2f 83 be 2a a5 00 bb 42 52 aa bb 71 04 ef bd
       -0.25622195 -0.0019629695 -0.005197794 -0.11670769
000070 69 ef e7 3d e6 74 3d be aa 9d 3a 3e 43 61 64 3c
       0.11324961 -0.18501624 0.18224207 0.013939205
000080 2f 6b 78 bd 10 e6 31 be 90 d6 c7 bd fe 16 10 be
       -0.060649093 -0.17372918 -0.097577214 -0.14071271
000090 d8 9a 44 3e 8a a9 33 3e 6d f3 2e bc 1f d7 60 bb
       0.19199693 0.17545143 -0.010678154 -0.003430791
0000a0 c1 63 de bd b6 d0 3b 3e 20 88 5a bd 5a e4 b0 be
       -0.1085887 0.18341336 -0.053352475 -0.34549218
0000b0 4a 39 80 be 9c c2 05 3d 92 fd 87 3e 2b dd b0 3e
       -0.25043708 0.032656297 0.26560646 0.34543738
0000c0 4c 51 9e bd 6e 12 6c 3e c8 92 15 be 5b 14 d0 3e
       -0.0773035 0.23053905 -0.14606774 0.4064053
0000d0 ad 80 cc 3c ba e4 54 3e e6 fd 0b bd aa 14 87 bd
       0.024963701 0.20790377 -0.034177683 -0.06595738
0000e0 e8 f4 21 3e 46 02 57 bd fb f8 87 bd 8a a2 8f be
       0.1581608 -0.052492402 -0.06639286 -0.28053695
0000f0 21 9f 0a 3f e0 ea 83 3e 8a 07 9f bd 24 a3 ef bc
       0.5414906 0.25765133 -0.0776511 -0.029252596
000100 6c 1f de 3e 59 e6 5f 3e 2a 0f f0 3d 86 a2 dc 3e
       0.43383348 0.21865214 0.11721642 0.43092746
000110 32 f6 27 bf c6 48 22 bc ad 80 a4 3c a9 0e 56 3e
       -0.6561004 -0.009905046 0.020080889 0.2090403
000120 77 69 5d 3d 83 c3 cc 3d 60 05 85 3d 3f d0 58 3e
       0.054055657 0.099982284 0.06495166 0.2117319
000130 81 f4 ce 3e 58 4b ad be f8 b1 69 3d 17 b8 3b be
       0.40420917 -0.33846545 0.05705449 -0.18331943
000140 d8 6d 43 be bc 32 80 be fd 94 f2 bc f0 18 82 be
       -0.19084871 -0.25038707 -0.029612059 -0.2540965
000150 f2 81 69 be 28 d9 8e 3e a0 4b d4 3d f3 67 92 be
       -0.22803476 0.27900052 0.10365987 -0.28594932
000160 61 39 9f 3e 36 9d 27 be 41 ce a3 3d 81 c0 51 be
       0.31098464 -0.16368565 0.07998324 -0.2048359
000170 2c 04 22 3c b4 ed a6 3c 87 dc 66 bd 9b 2d 6a be
       0.00988869 0.020377018 -0.056362655 -0.2286896
000180 cb 02 f6 bd 1b f4 04 3e d4 3b d4 3d fd f7 98 bd
       -0.120122515 0.12983744 0.10362974 -0.07469175
000190 fd eb 24 be 96 61 90 3e f3 a5 94 be a7 d4 4b 3e
       -0.16105647 0.28199452 -0.2903286 0.19905339
0001a0 d9 d2 2e 3d 97 ab 83 bd 0a 32 53 be f9 69 0f be
       0.04268155 -0.064292125 -0.20624557 -0.14005269
0001b0 73 e6 c5 bd 90 ad 66 3e 4b d8 61 be a5 f2 70 3e
       -0.09663095 0.22527146 -0.22055165 0.23530062
0001c0 2e 8c 6a 3d 6d 74 39 3e a2 ec 06 3f 15 3a fb bd
       0.057262592 0.18110819 0.52704823 -0.12266938
0001d0 07 f7 0a 3e e6 de ac bd 22 cc 52 be cf f8 06 3e
       0.13570796 -0.08440952 -0.20585683 0.1318085
0001e0 ab 4b af 3a 36 d2 65 be 88 33 f2 3c 1b 03 f0 bd
       0.0013373991 -0.2244347 0.029565588 -0.11719342
0001f0 b9 96 b7 bd ad 0c 39 bf 85 00 1f be b9 94 73 3e
       -0.08964295 -0.72284967 -0.15527542 0.23787202
000200 43 46 3c 3e c1 28 af 3e 23 4a 61 3e 93 09 73 be
       0.18386178 0.3421078 0.22000937 -0.23734121
000210 bd b4 9a 3e 9d 9c 9d bd 51 06 a8 be 1a 9f 79 3d
       0.30216017 -0.07695887 -0.3281732 0.060942747
000220 fc 78 50 3e c6 ab 12 be 35 7c e8 3a 6b 40 e6 be
       0.20358652 -0.14323339 0.0017737212 -0.44971022
000230 06 9a 91 3d d0 76 41 3e 63 3c 50 3d 3a 6d 42 bc
       0.07109456 0.1889298 0.05083884 -0.011866862
000240 88 ef 74 3e b3 af 13 bc 45 f1 75 3e 22 8d 93 be
       0.23919499 -0.009014058 0.24017818 -0.28818613
000250 8c 29 e3 3d 81 38 90 3d d8 8d 4d be 6f 7a f8 3d
       0.11091909 0.07042027 -0.2007364 0.12132727
000260 a9 4a 31 3d 4d 8b 8f 3e 6f f8 a4 be 5d fd c6 bd
       0.043284092 0.28035966 -0.3222079 -0.09716294
000270 61 7f 44 be c7 ef 11 3e 51 ce e9 3d 34 d0 28 3e
       -0.19189216 0.14251624 0.11416305 0.16485673
000280 3e a3 9e 3d 6f 80 b9 be 82 eb 83 3d 1f 18 a7 be
       0.0774598 -0.362308 0.06441404 -0.3263559
000290 27 eb 2f 3c 3d d5 25 3e ad ad 86 3a 2c 5a 0b bd
       0.010737217 0.16194625 0.0010275148 -0.03402154
0002a0 23 93 91 3d b8 90 36 3d 1d 15 2b be 1d d1 5d be
       0.07108142 0.04457161 -0.16707273 -0.21661802
0002b0 d4 f6 95 3c ea a0 a5 bc c9 9c 86 3e eb fa cc 3d
       0.018306173 -0.020218331 0.26291493 0.10008796
0002c0 d6 6c c6 bd aa 66 d1 bd 08 84 3e 3e 64 25 ec 3c
       -0.096887276 -0.1022466 0.18605053 0.028826423
0002d0 57 6e c8 bc a7 8d f5 3d d6 3b 21 3e 7f 76 96 3e
       -0.024466677 0.11989909 0.15745482 0.2938728
0002e0 f0 21 1e 3e 0e d7 43 be f8 83 9a be 6a fc 45 be
       0.15442634 -0.19125006 -0.3017881 -0.1933457
0002f0 15 3c 72 be f6 aa 78 be d2 73 1d 3d 6d 4f 7d 3e
       -0.23655732 -0.24283966 0.038440533 0.2473733
000300 78 ea 9d 3c 45 fe b1 be fb 1f 31 3e 66 18 b6 bd
       0.019276842 -0.34764305 0.17297356 -0.088913724
000310 78 d0 f9 3b 19 05 58 3e ae b5 bc be 02 e7 b6 3d
       0.0076237284 0.21095695 -0.3685736 0.0893078
000320 0c fb 0f 3e d2 c5 e3 be 0f d1 0b bd 3d 0c 4d 3e
       0.1406061 -0.44486862 -0.03413492 0.200242
000330 d5 7b 3f bd 6e 36 11 3e 6e b8 50 3d 66 a7 9b 3d
       -0.046748955 0.1418092 0.050957136 0.07600288
000340 ee 7d 74 3e ca 5f f7 3d ca 00 4c be ef 07 d7 bd
       0.23876163 0.12078817 -0.19922176 -0.1049956
000350 ce c9 16 3e 86 6c 8f be a4 91 19 3e 1a a4 4a 3e
       0.1472542 -0.28012484 0.14996964 0.19789162
000360 60 2c 18 3e a8 00 7e 3e e3 b6 be bb 6c 2d 0b bf
       0.14860678 0.24804938 -0.0058201416 -0.54366183
000370 b9 7a 00 be a4 50 ca bd 71 81 a8 bd 0a fe b5 3d
       -0.12546815 -0.09878662 -0.08227814 0.08886345
000380 f7 4d 77 be 90 e2 e1 be fb 35 88 3e 4f d4 cc bd
       -0.24150835 -0.44118166 0.26603684 -0.10001432
000390 36 cd 78 3d 1e da 6e be 3f 1b fb 3b 03 6d 15 be
       0.06074258 -0.23325393 0.00766316 -0.14592366
0003a0 9c a3 45 3d 7a 77 5c be 58 1a a7 be f3 d4 3a be
       0.048251733 -0.21529952 -0.32637286 -0.18245296
0003b0 33 c1 33 be 98 74 18 3e 24 f4 a2 bc 3b 71 a1 3d
       -0.17554168 0.14888227 -0.019891806 0.07882925
0003c0 90 58 16 be 11 76 be bc ba 52 14 3d 16 0e b5 bd
       -0.14682221 -0.023249658 0.036211707 -0.08840577
0003d0 4c 6c a2 bd db 07 76 3d 9d 90 3e 3e 19 6a 50 3e
       -0.07930812 0.060066085 0.18609853 0.20352973
0003e0 e0 0c 5e be 48 63 82 3e 4c 33 f0 3d d1 77 22 be
       -0.21684599 0.2546637 0.11728534 -0.15866019
0003f0 3e 79 e8 bd 8d 94 47 be 37 a4 b4 bd a1 79 b8 3b
       -0.1135125 -0.19490261 -0.08820384 0.0056297337

encoder.conv.convs.3.bias f4 [40]
000000 e2 45 c3 bc 1e 6e 8f 3e 2c 9c 27 bd ce a5 57 bd
       -0.023837034 0.280137 -0.04092042 -0.052648358
000010 3c 53 b8 3b a6 08 e8 bd ce 23 e1 3d 09 54 7a bb
       0.0056251567 -0.113297746 0.10993157 -0.0038197062
000020 85 32 62 bd 00 00 00 00 83 87 e6 bd 4f 4a f1 bb
       -0.05522396 0.0 -0.112563156 -0.0073635946
000030 3d b3 07 be 65 11 f4 bc c0 1b 00 3d 93 00 09 3e
       -0.13251968 -0.02979345 0.031276464 0.13379125
000040 99 e1 58 bd 49 ad d2 bc 53 01 85 3c f1 d6 08 bc
       -0.05294952 -0.025717394 0.016235983 -0.008352027
000050 e8 5a a2 3d ec 0e 59 3d c2 ab 0f 3e 27 e6 9a bd
       0.07927495 0.052992746 0.14030364 -0.07563429
000060 3a be f5 3c 0c 45 47 3e ba c3 00 3e 9d 7b 01 bc
       0.029997934 0.19459933 0.12574664 -0.007903007
000070 05 9e b7 3c 56 d5 9e bd fb 04 38 be a8 1c c4 3d
       0.022414217 -0.07755534 -0.1797065 0.09575778
000080 34 4e b6 bd 29 23 d8 3d 24 92 2e bd fd 11 31 be
       -0.08901635 0.10553581 -0.04261984 -0.17292018
000090 e6 de c0 3e f8 f0 23 3e 84 03 b0 bd be 96 47 bd
       0.37670058 0.16009891 -0.085944206 -0.048727743

encoder.conv.convs.3.lin.weight f4 [40, 40]
000000 cf db 04 3e 2b cc e1 bc 44 66 4e be b1 ff e5 3b
       0.12974475 -0.027563175 -0.20156199 0.007019006
000010 0f cf 16 3d 5d c9 0b 3d 14 ac db bd c8 c0 b0 bd
       0.03681856 0.034127582 -0.10726181 -0.0863052
000020 b8 9d 58 be 02 55 89 be 3d 28 2c 3d af 81 4e 3c
       -0.21153915 -0.26822668 0.04203056 0.012604161
000030 e6 a5 ec bd f7 ab 46 3e de 9a 00 be f7 58 3d 3e
       -0.1155508 0.19401537 -0.12559077 0.18490969
000040 4a b6 a1 bd d4 ae 99 3d 99 95 2a bd e8 f0 7d bd
       -0.07896097 0.07504049 -0.041646574 -0.061997324
000050 ee 7b 4f be d4 7b d8 ba 88 c4 fb 3d 01 e0 2a 3d
       -0.20262119 -0.0016516396 0.12293345 0.041717533
000060 be 6d e1 bc 09 e2 e3 3d 88 d4 8a bc 20 ac 95 bd
       -0.02751815 0.11127097 -0.016947046 -0.07308221
000070 3b ab c0 bc 30 b1 00 3e 59 98 4a 3e 0f 8d 2a 3e
       -0.023519149 0.12567592 0.19784679 0.16655372
000080 6f 70 8d bd 8e 54 56 3e cf 84 89 be 00 f7 25 3e
       -0.06906211 0.20930693 -0.26859137 0.16207504
000090 13 f2 c0 3d 01 67 6d be 39 1f 1b be e6 2d 6f be
       0.09421172 -0.23183824 -0.15148629 -0.23357353
0000a0 7d 49 82 be b4 5a dd 3e e3 80 3c 3e 04 77 3b 3e
       -0.25446692 0.43233263 0.18408541 0.1830712
0000b0 75 ac 50 be de c8 34 be 8e fe f9 bd 0c c7 18 be
       -0.20378287 -0.1765475 -0.122067556 -0.1491968
0000c0 af 8e 39 3e 61 cc 40 3e 66 95 0e 3d 6e f6 ae 3e
       0.18120836 0.18827964 0.034810446 0.34172386
0000d0 3b fa 96 3e 48 7e 70 3e b6 33 92 be 60 07 2e be
       0.29487786 0.23485672 -0.28555077 -0.16995001
0000e0 ef 62 97 3d 9e cf 9b be 69 29 97 bd 7f 0a 7d be
       0.07391917 -0.30431837 -0.07380945 -0.24711035
0000f0 58 03 28 be ed 9c 54 3e af e5 6c be b3 d1 6f be
       -0.16407526 0.20762987 -0.23134492 -0.23419838
000100 b0 01 15 3e b9 8b cf 3e 9d 0b 90 3c d4 37 07 bd
       0.14551425 0.40536287 0.017583663 -0.033012226
000110 03 ba 58 3d 06 73 ba 3e 21 6a 6c 3d ff 3f bb bd
       0.05291177 0.3641588 0.0577184 -0.09143066
000120 5e 49 8a bd af 63 7c 3e b3 93 20 3e 4e a9 85 be
       -0.06752275 0.24647401 0.15681343 -0.26105732
000130 a4 b8 39 be 0f 26 7d bb 7d 6f ee bd a5 dc 3a 3f
       -0.18136841 -0.003862742 -0.116423585 0.72992927
000140 53 83 de 3d f6 f3 41 3e 81 73 b0 bb e4 55 b4 bd
       0.10864892 0.1894072 -0.005384863 -0.08805445
000150 1d b8 c2 bd 00 72 0a 3e 7e 34 32 be 5c 30 b8 3d
       -0.09507773 0.1352005 -0.17402837 0.08993599
000160 08 a8 24 3e 3a d8 74 bd 02 1f 83 be 16 ff 59 be
       0.16079724 -0.059776522 -0.25609595 -0.21288714
000170 96 a8 5f be cf db eb bd cf b5 6a 3e 5c 68 5b bd
       -0.21841654 -0.115165345 0.22920917 -0.05356632
000180 30 e8 e8 bd 35 17 b9 bd 63 91 53 be 09 f9 31 bc
       -0.11372411 -0.090376295 -0.2066093 -0.010862597
000190 f2 29 7a be 71 99 4b 3e e6 24 c6 3d 7d 93 08 3d
       -0.24430063 0.19882752 0.096750066 0.03334378
0001a0 69 57 bc 3d 9d 55 35 bd ac 85 4f 3d d8 9e 8c 3d
       0.0919636 -0.0442711 0.05066459 0.068662345
0001b0 c8 8f d6 3c 07 5c b0 bc 12 24 8b be f8 8d 2d 3d
       0.026191607 -0.021528257 -0.27175957 0.04237172
0001c0 24 92 30 3d f8 3c 18 be 04 c5 3d be ac 99 96 be
       0.04310812 -0.14867008 -0.18532187 -0.29414117
0001d0 b8 94 73 3d 0d eb a1 bd 21 ee c0 bd 0d a4 de bd
       0.059468 -0.079061605 -0.094204195 -0.10871134
0001e0 3e 46 62 3e bb f3 b6 be 2e e2 07 be 30 d8 34 3e
       0.22097108 -0.35732827 -0.13269874 0.17660594
0001f0 fe 0f 8c bd 9d 8e ea 3c cf 4e 3e 3e 77 e7 7f be
       -0.06838988 0.028632456 0.1858475 -0.2499064
000200 2d aa 59 3d 66 bb 99 be 3f 7f 28 3e 44 ae 3d be
       0.053140808 -0.30025786 0.1645479 -0.18523508
000210 dd 60 f8 bd 44 30 6b 3d 4c 86 8d 3e c5 6b 65 be
       -0.1212785 0.057419077 0.27641523 -0.22404392
000220 99 53 d8 bd 57 90 7e 3d 0c 36 a5 be e3 8f 0e be
       -0.1056282 0.062149372 -0.32267797 -0.13922076
000230 88 1c 8c 3e 78 6a 7d 3d 83 bd a5 be ad ff 18 3e
       0.27365518 0.061869115 -0.32371148 0.14941283
000240 24 3d 2a be 8a 84 8b bc df 60 f0 b9 1d 50 03 be
       -0.16624886 -0.017030973 -0.00045848542 -0.1282353
000250 02 69 b8 3c d6 6d 81 be bb 65 10 3e 88 11 d3 bd
       0.02251101 -0.2527911 0.14101307 -0.10306078
000260 d8 86 38 3e ef 52 7a 3e cb 32 83 be d7 e7 d7 3a
       0.18020189 0.24445699 -0.2562469 0.0016472292
000270 4a f0 58 3e 58 15 2b be 12 96 c8 bd a4 7c f6 bc
       0.21185413 -0.1670736 -0.09794249 -0.03008873
000280 98 61 80 3e bc 42 d4 be c6 ac ac 3d 69 62 2d be
       0.25074458 -0.41457164 0.084313914 -0.16932072
000290 99 b5 98 3d fb aa 1c 3e e0 12 87 bd ac ec 88 3c
       0.07456512 0.15299599 -0.06595397 0.016714416
0002a0 eb 0e e2 bd 2b 2f a0 be 16 a2 1b 3e b0 0d 1f be
       -0.110380016 -0.31285986 0.1519855 -0.15532565
0002b0 d2 41 85 be 39 fc 36 bd 4a e1 5a be 26 ca 28 3e
       -0.2602678 -0.044674132 -0.21375003 0.16483364
0002c0 18 34 ad bd a5 79 90 3e cf 3a 6a 3d ad 3b 21 3e
       -0.08457202 0.28217807 0.05718499 0.15745421
0002d0 80 57 22 3e 31 be 82 be b7 5a 14 be 41 af a2 3d
       0.15853691 -0.2553573 -0.1448773 0.07943583
0002e0 80 a3 f2 3c bb 9f 1c 3d db 8f 37 be f9 b1 2d 3e
       0.029618979 0.03823827 -0.1792597 0.16962422
0002f0 d8 c2 1b 3e 7f 48 15 3e f7 7d 26 3d d0 99 73 ba
       0.15211046 0.14578436 0.040647473 -0.0009292634
000300 21 fb a2 bd 48 22 0e 3e 58 0a 82 3d fc 59 dd 3d
       -0.07958055 0.13880265 0.06349629 0.10808179
000310 52 35 79 be 44 ea 10 3e 88 8a 8a be 28 74 60 be
       -0.24336746 0.14151865 -0.27058816 -0.2191931
000320 92 0d 7b bc ac 95 ca 3e a7 3b 29 be e2 e6 58 be
       -0.01532306 0.39567316 -0.16526662 -0.21181825
000330 2b 89 d2 bd b0 f3 b7 be e0 32 a8 be dc c7 86 be
       -0.10280069 -0.35928106 -0.32851315 -0.26324356
000340 d3 6e 80 be 6d d9 16 3e a8 0b 51 bd 9c c2 28 3b
       -0.25084552 0.14731379 -0.051036507 0.0025750762
000350 24 ac c6 3e 60 37 c5 bd 89 ee d5 be 82 56 b4 bd
       0.38803208 -0.096297026 -0.4178355 -0.088055626
000360 db f5 3c be 12 32 a4 be 18 63 9f be 38 89 08 bf
       -0.18453161 -0.3206945 -0.3113029 -0.5333438
000370 79 d3 25 3e 09 a6 53 be 55 d9 0e be 43 a0 04 3f
       0.16193952 -0.20668806 -0.13950093 0.5180704
000380 f4 8d 0b bd 2f 32 8b bc d6 67 c4 bd 35 ff 22 be
       -0.034070924 -0.016991703 -0.09590118 -0.15917666
000390 31 4d ab 3c 7d c8 8c 3d e6 7a 9a be 75 b3 73 bd
       0.020910831 0.068741776 -0.3017189 -0.059497315
0003a0 c6 cb d1 be 29 11 73 3e 4a 9f 31 3e 7c 6b 60 be
       -0.4097578 0.23737015 0.1734592 -0.21916002
0003b0 8a 30 01 3e 3c 2d a2 be b4 8c 4b 3e 00 a3 75 bc
       0.12616172 -0.31675136 0.19877893 -0.0149924755
0003c0 fe 87 91 bc d1 c8 03 bd 86 8c 1c 3c be a8 5f be
       -0.017765041 -0.032173935 0.009554988 -0.21841714
0003d0 b2 07 5c be 4a 4b f1 3d a9 67 ad be fe 9c 31 be
       -0.2148731 0.117819384 -0.3386815 -0.17345044
0003e0 c8 ec 92 be 49 d3 c3 3e 01 03 75 3e 35 be 27 bd
       -0.28696275 0.38247135 0.23926927 -0.04095288
0003f0 50 cc 95 3e 0e 1d 0a 3e 86 30 4a 3e 75 88 3c be
       0.2925744 0.13487646 0.19745073 -0.18411429

encoder.conv.convs.4.bias f4 [40]
000000 57 5c c4 3d 70 c7 3b bd 60 2e bb bd 01 3c 3c bc
       0.09587925 -0.045844495 -0.09139705 -0.011488915
000010 6e 6a 1f bd 91 2d d3 3b 7c ca 49 bd 53 22 ac 3c
       -0.03891986 0.006444641 -0.04926537 0.02101246
000020 f7 c0 40 3d f2 fe d1 be e4 af 09 bd a2 c0 9a bc
       0.047059026 -0.4101482 -0.033615008 -0.018890683
000030 26 ba 6c bd c8 d2 29 bc 3d 7c 98 bc dd 2e c0 3c
       -0.057794712 -0.010365196 -0.018613929 0.023459846
000040 2f 29 4b bd 60 e5 66 3d 22 60 0c 3e da 04 81 3e
       -0.049599823 0.056371093 0.13708547 0.25199014
000050 63 79 40 be 20 35 5e bc 34 0f 81 3e b6 ce 00 bd
       -0.18796305 -0.013562471 0.25206912 -0.031447135
000060 66 eb a9 bb 2e 49 48 3e 67 0b 53 bd 58 13 5b bd
       -0.0051855324 0.19559166 -0.051524546 -0.053485245
000070 2f 88 8e 3c fe 0a 79 3b 5f 23 9b 3c 1d cc 48 bd
       0.017398922 0.0038000937 0.018937765 -0.049022783
000080 7a 0f d0 3c c6 57 57 3e 7f 33 c1 bd a7 db 8e 3c
       0.025398005 0.21029577 -0.0943365 0.017438723
000090 6e 2a 18 bd 68 1f b9 3d e2 5e 54 bd 0f ba 54 bc
       -0.03714984 0.090391934 -0.0518483 -0.012983813

encoder.conv.convs.4.lin.weight f4 [40, 40]
000000 e8 2a b0 bd 6e 68 31 3c 72 55 1f 3e 11 5d eb 3d
       -0.08601934 0.010828121 0.15559939 0.114923604
000010 8e 77 ae 3d 27 4e 8e 3d 2d c4 a1 be bb f0 4e 3d
       0.08518897 0.069485 -0.31594983 0.050522547
000020 75 a6 92 3e 21 93 29 be 55 a8 23 be 34 f2 43 bd
       0.28642622 -0.16560031 -0.15982182 -0.047838405
000030 07 7a 47 bd c2 cc 07 be 58 35 a0 3e f8 b8 c7 bb
       -0.04870036 -0.13261703 0.31290698 -0.006095048
000040 fb 63 29 be 95 92 48 3d 93 ef 21 3e 3d 24 5e 3e
       -0.16542046 0.048967917 0.15814047 0.21693511
000050 b4 19 19 be 3e 46 36 3e 0e 83 0f 3e cb 58 58 3e
       -0.14951211 0.17800233 0.14014837 0.21127622
000060 ba 8c f2 bd c1 1e 8f be f8 eb 9b 3e 18 45 4a 3e
       -0.11843248 -0.2795315 0.30453467 0.1975292
000070 59 7d 83 3e 0c cc ab 3d ab 69 a2 3e 8b 4f 39 be
       0.2568157 0.08388528 0.31721243 -0.1809675
000080 28 8f eb bd 1b b0 8e be 37 15 57 3b 55 4e 51 3e
       -0.11501914 -0.27868733 0.0032819042 0.20440038
000090 a6 10 7e bd f3 75 cc 3d 7f 51 a1 be f4 3c f0 bd
       -0.062027596 0.099834345 -0.3150749 -0.11730376
0000a0 a0 dc 07 be 84 d7 3b bb 94 d5 8c 3d 1c cb aa 3d
       -0.13267756 -0.0028662393 0.06876674 0.08339521
0000b0 9c 21 8f 3d 35 8b 89 be 6f 81 3d bb 90 c9 2b 3e
       0.06988832 -0.2686402 -0.002891626 0.16776109
0000c0 e3 b3 a1 be 9e 28 42 3e 96 cc 09 3e 15 77 a1 bd
       -0.31582555 0.18960807 0.1345695 -0.07884041
0000d0 b9 ca 02 3e d5 79 3d be aa 80 d9 bd 06 eb 8b be
       0.12772645 -0.18503506 -0.10620244 -0.27327746
0000e0 18 a5 9e be 4b ee a1 be 9e c6 00 be ea 32 51 be
       -0.30985332 -0.31627116 -0.12575766 -0.20429578
0000f0 4c 3e 8e be c8 3e 32 3d 5d 32 59 3d 03 5a 4e be
       -0.27781904 0.043516904 0.053026546 -0.20151524
000100 75 be 08 bd b9 4a 9f be 86 6c c7 3d 90 4e 62 be
       -0.03338476 -0.31111696 0.09737496 -0.22100282
000110 39 db 58 be c6 4a 19 3e c5 8f 81 3c 81 27 07 be
       -0.21177377 0.1496993 0.015815625 -0.13198663
000120 b2 32 5d be e6 ea 89 bd d4 91 83 3e 14 2b 61 3e
       -0.2160137 -0.067342564 0.25697196 0.21989089
000130 86 6e 7b be d8 a6 50 3e 96 09 5d be 0c 13 3e be
       -0.2455388 0.20376146 -0.21585688 -0.18561953
000140 7e 29 7c be 5c 06 69 be 33 be a7 bd 4c ef 50 3e
       -0.24625203 -0.22756332 -0.081905745 0.20403785
000150 af 10 94 3d 8e 57 90 bb a8 be 55 3d f7 bc 54 3e
       0.07229745 -0.0044049686 0.052183777 0.2077521
000160 ef c9 c1 bd 6b 37 24 be da 82 9a 3d 37 65 05 be
       -0.09462344 -0.16036765 0.07544489 -0.13026892
000170 96 28 1a 3e ea 7a 30 3e 74 bb ea 3a 81 bb 5c be
       0.15054545 0.17234388 0.0017908649 -0.21555902
000180 02 45 7d 3e be a1 a6 3e 63 85 99 bd 90 8e ed 3d
       0.24733356 0.32545274 -0.074961446 0.11599457
000190 a8 8d 4e be 12 03 9f 3e 01 5b 1c 3d 4f 5e 2a 3d
       -0.20171225 0.3105703 0.038172726 0.041593846
0001a0 d3 2a 3f bd 97 49 e8 be fd 94 00 3e 14 83 fd 3d
       -0.0466717 -0.45368645 0.12556835 0.12378517
0001b0 f6 bb 8c be ae 4d be 3d 2c 50 e6 3c d4 82 0a bd
       -0.27487153 0.0929216 0.0281144 -0.033816174
0001c0 db e9 26 3e ce 15 03 be e6 f6 0e bd 1e 6f 6b bc
       0.16300146 -0.12801287 -0.03490343 -0.014369754
0001d0 b2 20 82 be 03 a4 e0 bd 2e a7 ea 3c f2 2f 40 3d
       -0.2541557 -0.10968783 0.02864417 0.046920724
0001e0 02 a5 6a bd 0f b0 39 3e 02 29 2d bd f8 1a 5b 3b
       -0.05728627 0.18133567 -0.042275436 0.0033432823
0001f0 25 36 6c 3e 5e 3a 1b be f2 22 81 bd 4b 90 60 be
       0.2306753 -0.15158984 -0.063054934 -0.21930043
000200 9a 49 0d 3e 02 45 f8 bd 90 3b 58 ba 97 83 19 be
       0.13797608 -0.12122537 -0.00082486216 -0.14991604
000210 d7 8b 7f be cf 53 c0 bc de 79 82 3d b0 94 8c be
       -0.24955688 -0.023477463 0.063709006 -0.2745719
000220 3e bd 18 3e 92 21 c9 bd 21 03 d1 3d da 93 27 3e
       0.1491594 -0.09820856 0.10205675 0.16364995
000230 41 56 1f be 79 49 93 bc fa 7b 46 3d fa b4 44 be
       -0.15560247 -0.01797937 0.048458077 -0.19209662
000240 31 ed 9c 3e 57 f3 84 be ac 93 33 3d 33 9f b1 3d
       0.30649713 -0.25966904 0.043842003 0.08672943
000250 af 0c 0f be bb 11 0b be fe a2 b0 3e 77 e8 21 be
       -0.13969682 -0.13580982 0.34499353 -0.15811335
000260 92 f8 03 3e d9 1c 74 3d 3e 05 fe 3d d9 e5 96 3c
       0.12887791 0.059597824 0.124033436 0.018420147
000270 3a d2 10 be 7b 58 44 bd f1 0f 43 3d 52 4c 86 3e
       -0.14142695 -0.047935944 0.047622625 0.26230103
000280 f7 9f df 3b 7c 98 b7 3c 6f 42 11 be f8 a4 46 3e
       0.006824489 0.022411577 -0.14185499 0.19398868
000290 0d b0 58 3e a1 73 ea 3d 00 d9 27 be 03 8c 78 3e
       0.21160908 0.11447836 -0.16391373 0.2427216
0002a0 b4 4d 1d be 25 28 3f 3e 81 55 29 3b 13 89 13 be
       -0.15361673 0.18667658 0.0025838318 -0.14407758
0002b0 29 50 84 3e 93 c0 83 3e e5 a4 b3 bd a4 62 ac bd
       0.25842407 0.2573286 -0.087716855 -0.08417252
0002c0 06 72 40 3e 14 f2 0a be b6 1d 1a 3e fc 22 9e 3d
       0.18793496 -0.13568908 0.15050396 0.077215165
0002d0 49 91 0a 3d e7 4a c9 3d a8 54 4f be 51 5e 21 be
       0.03382996 0.098287396 -0.20247138 -0.15758635
0002e0 9e 57 8e bd 80 a8 95 be 85 33 86 be b4 38 39 3e
       -0.069503054 -0.29230118 -0.2621118 0.18088037
0002f0 ee d9 75 3e 79 d8 e0 3d f4 3d f9 bd 5f 19 a3 bc
       0.24008915 0.10978789 -0.1217002 -0.019909559
000300 d8 16 8d 3d 20 1b 23 3e f6 5c 5d 3e 38 8b 07 3e
       0.06889123 0.15928316 0.21617493 0.13236701
000310 be 91 e7 bd 48 0a e0 bd 57 ea e4 bd 3d 7f f4 3a
       -0.11307095 -0.10939461 -0.11177509 0.0018653643
000320 0a 88 a9 39 e6 22 01 bf a9 29 c3 3c 00 44 57 be
       0.0003233555 -0.50443876 0.023823576 -0.21022034
000330 fe 21 04 3e 54 c4 bd be ae b1 b2 be 4b c9 a7 bc
       0.12903592 -0.3706385 -0.34901184 -0.020481726
000340 2b 8b 8d bd bf 4e 5d bd ff 27 2b be 19 c1 17 3e
       -0.0691131 -0.054030176 -0.16714476 0.14819755
000350 12 0a 56 3e c6 68 21 3d 15 2e c1 3d fc 34 8b be
       0.20902279 0.03940656 0.094326176 -0.2718886
000360 b7 04 7b 3e 41 7a ae 3e ea 2c e6 3d bc 6e e8 3c
       0.24513517 0.34077647 0.112390354 0.028373115
000370 c8 d9 53 be 8f 9a a7 3e a8 1c a3 3d d9 7a ab bd
       -0.20688546 0.32735106 0.0796445 -0.08373041
000380 b3 3c e5 3d 38 a6 00 bf d9 82 4d 3e 8a 8e 69 3e
       0.11193218 -0.5025363 0.20069446 0.2280828
000390 45 93 0c be 6d 05 7b be 12 d5 3a 3e 76 ec e7 3d
       -0.13728054 -0.24513789 0.18245342 0.11324398
0003a0 d6 3e 65 bd 1e 72 34 be 59 49 52 be 9d b9 72 3e
       -0.05596813 -0.17621657 -0.20535792 0.23703618
0003b0 08 fa 68 be 7d ed 1e be 03 b0 7e be b9 90 76 3d
       -0.2275163 -0.15520282 -0.2487183 0.060196612
0003c0 5b 08 7b 3e 37 be 8c bd d8 a0 a0 bd 92 af de bd
       0.24514906 -0.06872218 -0.078431785 -0.10873331
0003d0 d2 ea b8 3d 60 06 e0 be d9 0d d8 be f8 2b 26 be
       0.090291634 -0.43754864 -0.42198065 -0.1622771
0003e0 e2 d5 2e be 5b 52 d9 bd 9a a4 de bd f0 18 05 bc
       -0.17073777 -0.10611411 -0.10871239 -0.008123621
0003f0 1c 3a 4b be 53 5e 20 3e 81 93 ae bd a6 f2 00 be
       -0.19846386 0.15660982 -0.08524228 -0.12592563

encoder.conv.convs.5.bias f4 [40]
000000 3f 41 6b bc 5c 75 94 bd 78 de aa be ab b8 0f 3e
       -0.014358818 -0.07248947 -0.33372855 0.14035289
000010 8e d4 88 bc fe ad 46 3e 57 22 4f bd 9a d9 03 3e
       -0.016702916 0.1940231 -0.05056986 0.12875977
000020 ef bf 11 be 13 5c 02 3e 4b 61 c3 bd 32 03 4e 3e
       -0.14233373 0.12730436 -0.095400415 0.20118406
000030 84 94 a8 3d 6d 61 5d 3e de a8 7b bd 40 a6 5e bd
       0.08231452 0.21619196 -0.06144034 -0.054357767
000040 65 b0 23 be 0d 3b d7 3d 75 46 14 be 8b 66 c6 3e
       -0.15985258 0.1050931 -0.14480002 0.3875011
000050 75 f1 61 3e ee 6f c9 bc 6e c2 7b bc 48 ac 9d 3d
       0.22064765 -0.024589505 -0.01536618 0.07698876
000060 d6 30 36 3e 60 35 0c bd dd 8f 7f bd d2 b4 04 3f
       0.17792067 -0.03423059 -0.062393058 0.5183841
000070 f5 2a 2b 3d 80 b8 a6 3c 1b fc f5 3d da c9 ab 3e
       0.041789014 0.020351648 0.12010976 0.33552438
000080 61 52 09 bd a4 86 e3 bc 8b 54 2f 3d 80 7e 9c bc
       -0.03352583 -0.027774163 0.042805236 -0.019103289
000090 3e 69 45 3e f0 da df bc fe a5 a8 bd 00 00 00 00
       0.19278428 -0.027326077 -0.082347855 0.0

encoder.conv.convs.5.lin.weight f4 [40, 40]
000000 3a 12 a6 be df ce 45 3e 2d fb 0c be 15 c2 81 be
       -0.3243578 0.19317196 -0.13767691 -0.25343385
000010 8e 97 27 be e3 53 10 be 0b 78 0f 3e 4e a9 79 bd
       -0.16366407 -0.140945 0.14010637 -0.060952477
000020 9a 8e 88 3d d2 35 4a 3d 9f 92 05 be 91 01 d0 be
       0.06667824 0.049367733 -0.13044213 -0.40626195
000030 39 ea 73 3d 37 12 18 be c8 d0 83 3c 57 6c c3 bd
       0.059549544 -0.14850698 0.016090766 -0.095421486
000040 53 11 1a 3d 7a 27 7a be 75 97 fb 3d fe ce 93 3e
       0.037614178 -0.24429122 0.122847475 0.2886886
000050 e2 45 93 3d 30 2c e2 bc e9 55 1e 3e 6c 10 8b 3d
       0.071910635 -0.02760896 0.1546246 0.067902416
000060 3e 40 0e be 90 d8 c8 bd 41 1f 85 3e 23 2e cf bd
       -0.13891694 -0.09806931 0.26000407 -0.10116222
000070 e1 23 4a be a7 1f 87 be 6a 91 95 3d 76 3b 8a be
       -0.19740249 -0.26391336 0.07303126 -0.2699849
000080 de 70 c2 3d 73 82 b5 be 1a f3 15 3e 8b c3 14 bf
       0.09494184 -0.35451087 0.14643517 -0.58110875
000090 18 2e 8d 3d 68 43 24 3e fe 1f d0 bc 82 7a 14 39
       0.06893557 0.16041338 -0.02540588 0.00014160018
0000a0 dd 24 0d be b7 87 87 3e 61 26 66 be b8 40 73 3e
       -0.13783593 0.2647073 -0.22475578 0.23755157
0000b0 10 b4 ed 3d 98 53 24 be 75 b1 b1 ba 7c af 26 be
       0.1160661 -0.16047513 -0.0013556915 -0.1627788
0000c0 bb bc 79 be 6e d7 bc bd 4e 3e 43 be 41 7f b3 bd
       -0.24388401 -0.092207775 -0.19066736 -0.08764506
0000d0 73 3a 68 be 4a 99 cc bd e2 25 f9 3c 05 28 02 3c
       -0.22678547 -0.09990175 0.030413572 0.007944112
0000e0 ef ad 64 3e e4 b5 73 3e 9b ef 65 be 85 dd fb bb
       0.22331975 0.23799855 -0.22454683 -0.0076863193
0000f0 c5 a9 17 3e 11 53 14 be 52 70 4c be e6 db 85 be
       0.14810856 -0.14484812 -0.19964722 -0.26144332
000100 8b c5 33 be e9 12 38 bc c7 b6 40 3e 38 4a 31 be
       -0.17555825 -0.011234977 0.18819724 -0.17313468
000110 8f ec 49 3e 5f 88 3d 3e 1f 48 44 3e 0b 39 f6 3d
       0.19719146 0.18509053 0.19168137 0.12022599
000120 ca 1d d1 bc 29 68 6b be fd 4d 3e 3e 50 10 81 be
       -0.0255269 -0.22988953 0.18584438 -0.25207758
000130 12 24 85 be 6c ab 33 be f3 58 34 be a9 10 51 be
       -0.26004082 -0.17545861 -0.17612056 -0.20416512
000140 36 71 dc bd 98 bd 65 be af 59 3b bd 8d e7 55 be
       -0.10763781 -0.22435606 -0.045739826 -0.20889111
000150 fd 02 49 3e 49 b2 7a 3e ff e5 07 be 56 e7 30 3e
       0.19630046 0.24482073 -0.1327133 0.17275748
000160 b8 25 0a bd c1 92 ea bd 07 42 96 3d 4c 31 f0 bd
       -0.033727378 -0.11453772 0.073368125 -0.11728153
000170 ec f8 2c 3e 43 f2 24 bd 0d e4 36 be f2 a8 8a 3e
       0.16891831 -0.0402701 -0.17860432 0.2708202
000180 21 ac 27 be 8c 78 f9 bc 7f af 90 be 07 fd 8e be
       -0.16374256 -0.030452989 -0.28258893 -0.2792742
000190 97 69 c2 3d f4 b6 ad bd 7f b2 28 be ac b2 85 3e
       0.09492796 -0.08482161 -0.16474341 0.26112878
0001a0 9c 29 6a be dc cc 70 3e 4a 9d 5a be 2b 18 06 3e
       -0.22867435 0.23515648 -0.21349064 0.13095157
0001b0 d0 4d d0 bd b2 6d 25 bd 2b 31 5a 3e 4c 6e f6 3d
       -0.101710916 -0.040387817 0.21307819 0.12032756
0001c0 f4 8b 9b bd 90 2b 90 bd 4c 59 40 3e 0d 19 60 be
       -0.07595053 -0.07039559 0.18784064 -0.21884556
0001d0 a6 99 5e be 09 d3 7a 3d e7 3b 25 3e b6 c2 8d bc
       -0.217383 0.061236415 0.16136132 -0.01730476
0001e0 c5 af f2 3d 39 37 f8 3c d7 58 40 be e4 4a 63 bc
       0.11849932 0.03029977 -0.1878389 -0.013872836
0001f0 93 60 88 be ec 7c d2 bd fb 10 98 be b8 9c 7f 3d
       -0.2663618 -0.10277733 -0.29700455 0.062405318
000200 fc 99 17 be f6 29 e4 bd c0 e1 d5 3d 31 09 ef 3c
       -0.14804834 -0.11140816 0.10443449 0.029179187
000210 8c df 67 be e7 2d 3a 3e 28 e5 8e bd 33 3a 33 3e
       -0.2264387 0.18181573 -0.06977302 0.1750267
000220 42 3d 65 3e e4 4d 80 be d2 7c 3c 3d 9a f9 93 3e
       0.22386649 -0.25059426 0.046017475 0.28901368
000230 66 78 54 3e fe b1 06 bf 26 17 61 3e 9d fa 10 3e
       0.20749053 -0.52615345 0.21981487 0.14158101
000240 d5 b6 8b be 8b 1c f0 3e 12 5e 2d be bf b1 3a 39
       -0.27287927 0.46896777 -0.16930416 0.00017804558
000250 b6 24 2f 3d 87 76 51 3e 93 5a ca be 6e a6 1b bd
       0.04275962 0.20455371 -0.39522228 -0.038000517
000260 1d e6 2d be f2 ce cc be c6 37 79 3e f0 02 0a 3d
       -0.16982313 -0.40001637 0.24337682 0.033694208
000270 4e c6 21 be 89 7f df be 60 e7 5d 3e a9 b4 81 be
       -0.15798303 -0.4365199 0.21670294 -0.25333145
000280 a8 17 ec bd 53 44 79 3e 7d c2 09 3e 72 2c 18 3e
       -0.115279496 0.2434247 0.13453098 0.14860705
000290 40 bf 96 bd 47 64 c1 bd ff 15 64 3e a8 c1 ef bd
       -0.07360697 -0.094429545 0.22274016 -0.11706859
0002a0 93 3e 06 be 53 40 2a 3d a7 4d 3a be ca c5 cd bd
       -0.13109808 0.04156525 -0.18193685 -0.10047491
0002b0 a4 b1 14 3e da 75 04 3e 3d 51 76 be 60 d8 80 3e
       0.1452089 0.12935582 -0.24054427 0.2516508
0002c0 e9 61 61 3e 9b 11 92 be ee d8 43 be 76 61 f1 bd
       0.22010006 -0.28529057 -0.19125721 -0.11786167
0002d0 45 eb 4e be 97 b2 5c be 8e 31 6d 3d 82 2f 1c be
       -0.20206936 -0.21552502 0.057908587 -0.15252498
0002e0 e8 5b 85 3e 25 c7 12 be bf 65 9f bd 3a 76 88 3e
       0.2604668 -0.1433378 -0.077830784 0.266527
0002f0 1e 4e 53 3e a8 ea b3 3d 1d 77 4a 3d 3f 09 42 3e
       0.20635268 0.087849915 0.04943 0.1894884
000300 af 1f 17 3e 47 7a 16 3e f5 e0 bf bd 5b 4c c2 bd
       0.1475818 0.14695083 -0.09369079 -0.0948722
000310 58 6f 1b 3e 9e c4 57 3d c7 07 e0 bd 95 ad 94 be
       0.15179193 0.052677743 -0.109389834 -0.29038683
000320 51 33 37 3e 57 c7 e4 3c b3 94 52 3e 74 db 2e be
       0.1789067 0.027927084 0.20564537 -0.17075902
000330 99 d7 87 be e7 66 58 be aa 3b 46 3e dc 39 14 bd
       -0.26531675 -0.21133004 0.19358698 -0.03618799
000340 de 10 0d be 98 79 b9 be 0b 23 74 3e 6d d1 60 be
       -0.13775966 -0.3622558 0.23841493 -0.2195489
000350 1f c0 ec 3d 26 17 d9 bd eb 1c 86 3e 5e 94 76 3d
       0.11560082 -0.10600118 0.26193938 0.060200088
000360 08 29 f1 3b 9d b8 a0 be ef ee 53 3e 91 86 62 3e
       0.0073596276 -0.3139085 0.20696615 0.22121646
000370 9e 89 da 3b 7f a2 82 be 8b cf ff 3d 0e 6e 78 be
       0.0066692373 -0.255146 0.124907576 -0.24260733
000380 f8 42 70 be 19 f1 9c 3e 22 af c5 bd ee 63 20 be
       -0.23463047 0.30652693 -0.096525446 -0.1566312
000390 9d 81 e7 3d 94 fa f6 bd b5 35 63 3e 22 16 e1 be
       0.11304019 -0.12059513 0.22188456 -0.43962198
0003a0 49 46 d0 bc a3 a3 9a be 5b 1c bb bd af 80 17 be
       -0.02542414 -0.3020297 -0.09136268 -0.14795183
0003b0 ea 68 a3 3d a1 77 51 bd 8f 0e b4 3d cd 18 53 be
       0.07978995 -0.051139478 0.08791839 -0.2061493
0003c0 4e 76 1c be 59 20 ae bd 68 57 5c 3d 2c b2 80 3e
       -0.15279505 -0.085022636 0.053794295 0.25135934
0003d0 03 a5 96 3c e8 48 9d bd 22 d1 0f 3e 08 b3 c7 bd
       0.01838923 -0.076799214 0.14044622 -0.097509444
0003e0 c7 87 d1 bd 22 ce 8a be de 3d 51 3d 16 e2 06 3e
       -0.102309756 -0.27110392 0.05108439 0.13172182
0003f0 ca a8 8d bc 74 55 1d 3e b5 8d 80 3d b9 56 6e 3e
       -0.017292399 0.15364629 0.062770285 0.2327527

encoder.conv.convs.6.bias f4 [40]
000000 ea db 14 3c ef 42 4b bd 83 54 50 bd 02 5a 44 bd
       0.009085635 -0.04962438 -0.050861847 -0.0479374
000010 28 af 62 bc 44 96 3b bd ab 97 ae 3d 75 18 09 be
       -0.013835706 -0.0457976 0.08525022 -0.13388236
000020 1c 1f 02 3e d0 b4 00 3e 53 ee d9 3c 89 e4 e4 bd
       0.1270718 0.12568974 0.0266029 -0.11176402
000030 fd 39 f5 3c 35 a2 d1 3d 54 50 f1 3d 8c b7 12 36
       0.029934878 0.10236017 0.117828995 2.1862534e-06
000040 02 7b 82 3d f1 ad de 3d aa 4a 24 bc d8 38 d7 bc
       0.06371118 0.108730204 -0.010027567 -0.026272222
000050 92 20 88 ba ca cb b2 3d e3 f8 a1 3c 81 cd 9b bd
       -0.0010385683 0.08730276 0.019771999 -0.07607556
000060 b0 0d 28 be 72 15 46 bc 8a 37 8a bc 2b 75 88 3d
       -0.16411471 -0.012090074 -0.016872186 0.06662973
000070 e5 5b 73 3d 46 aa fc bb 2a f3 e2 3d b4 6d 46 3d
       0.05941381 -0.007710728 0.11081536 0.048444465
000080 54 73 e6 bd 9d d8 84 3d 6b 06 ef bd 4f 78 0b 3e
       -0.11252466 0.06486628 -0.11671146 0.13620113
000090 87 93 3a bd 6b e5 03 3e 35 44 4b be 06 55 28 be
       -0.04555085 0.12880485 -0.19850238 -0.16438684
