results/model_GCN/graph_split_/layers_8/transform_True/alpha_-5.0/model.pt (torch, 65262 bytes, 23 tensors)

encoder.conv.convs.0.bias f4 [40]
000000 6d f6 36 bd 4a 28 f2 3c 8c 72 e0 bd 05 58 81 bd
       -0.044668604 0.029560227 -0.10959348 -0.063156165
000010 f1 8d 7d bd a3 1b 4a bd cf 32 41 3d 1d 69 8f bc
       -0.061902944 -0.049342763 0.047167595 -0.017506177
000020 c1 14 f1 bc ac 20 fb 3c 23 29 b1 3c f0 00 51 3d
       -0.029428842 0.030655228 0.02162606 0.051026285
000030 83 fb a4 3d 08 5c 67 3c 0c 0c 68 3d 32 c9 81 bc
       0.080557846 0.014121063 0.056652114 -0.015843008
000040 56 ea 9a bd c9 e0 29 bd 54 71 d6 ba 91 1b c5 bd
       -0.07564227 -0.041474137 -0.0016360679 -0.096243985
000050 29 e5 fd 3c d4 53 00 3c 7c de 3c bd fa ec b1 3d
       0.030993061 0.007832486 -0.046110615 0.08687778
000060 bb ce d3 3d 2b f5 ce bd 23 40 b5 3d d2 72 4a 3c
       0.10342165 -0.10105356 0.08850124 0.012356477
000070 e3 c6 db bc c4 5c 40 3c 8e 1a 00 3e d2 2e bd 3c
       -0.026828235 0.011740867 0.1251013 0.023093615
000080 82 5f 56 3c eb 00 1f 3d ab f9 94 3c d9 d0 55 3c
       0.013084294 0.038819235 0.018185457 0.013050281
000090 a3 29 2f 3c 95 48 d6 3d db 94 1a 3b 54 b7 53 3d
       0.010691079 0.10463063 0.002358726 0.051688507

encoder.conv.convs.0.lin.weight f4 [40, 40]
000000 c8 64 d5 3d 3f 28 d2 3d d9 7f e2 3d fa cd 82 3e
       0.10419613 0.102615826 0.11059541 0.25547773
000010 9e 3b 1d 3e af a8 1c 3e 12 36 19 3e f0 89 52 3e
       0.15354773 0.15298723 0.14962032 0.20560431
000020 50 27 9c bd 56 91 6a be 49 9b c1 bd a7 89 02 3d
       -0.07624686 -0.22907004 -0.094534464 0.031869557
000030 46 9d 29 bd 7a 1e 88 be db 44 c9 bb eb 5c da bd
       -0.041409753 -0.26585752 -0.0061422414 -0.10662254
000040 ca 12 10 3b a3 8f 92 3e 4c ce f3 bd 03 58 88 bd
       0.0021983855 0.2862521 -0.119045824 -0.06657412
000050 0a 9c 1b 3c 1e 49 60 be f6 c5 92 be 27 96 1e be
       0.009497652 -0.21902892 -0.28666657 -0.15486966
000060 34 17 7c be 3e 71 2d 3e 31 47 8d be 76 bb 45 3e
       -0.24618226 0.1693773 -0.27593377 0.19309792
000070 49 21 47 bc 6f 93 be bb 9b 64 dd bd e5 c9 ed bd
       -0.012153932 -0.0058159153 -0.108102046 -0.11610774
000080 b1 20 60 3e 4e 47 f7 3c f4 d7 5f be 09 51 5d 3e
       0.21887471 0.030185368 -0.21859723 0.21612944
000090 c9 46 65 3d 1f 1c 7c be ec aa aa 3d ce ea 87 3e
       0.05597571 -0.24620102 0.08333382 0.2654633
0000a0 b3 48 8d 3d 5c a1 ae 3d be 79 3f 3d 12 88 a7 3d
       0.06898632 0.085268706 0.04674696 0.0818025
0000b0 3c 82 b2 3d 89 0f 0a 3d 4c df 73 3d 07 8a 22 3e
       0.087162465 0.03370622 0.059539124 0.15872966
0000c0 d4 dd 8f bd 4c a4 a4 3e b9 97 43 3e 83 22 8a 3e
       -0.07024732 0.321566 0.19100846 0.26979455
0000d0 42 51 1d be 53 c9 95 3e e4 bd 7d bd b9 a0 a0 be
       -0.15363029 0.2925516 -0.061948672 -0.31372622
0000e0 38 49 26 be b4 f1 51 3e cf 76 10 3e ee 51 84 3d
       -0.16238868 0.20502359 0.14107822 0.06460939
0000f0 f8 4c ca be 69 75 85 3e 14 c7 5d be 52 50 ee bd
       -0.39511847 0.2606614 -0.21657974 -0.11636414
000100 16 50 a2 3e 39 23 85 3e e7 69 d1 bc 83 c0 c6 bd
       0.31701726 0.26003435 -0.025563193 -0.097046874
000110 b7 0a bf 3d 8f f5 f2 bd df 9a a8 bd fa ec 72 3d
       0.093282156 -0.11863243 -0.08232664 0.05930803
000120 28 cf 1e bd 14 f0 4a be c6 3b 7e 3d 79 fe a8 3e
       -0.03877178 -0.19818145 0.062068723 0.33006647
000130 b5 31 78 3e 77 f3 83 bc 15 b9 5f bd c2 ca 68 be
       0.24237712 -0.016107304 -0.054619867 -0.22733596
000140 f3 63 3f 3d 78 db 76 bd f2 7e 06 3d 2b 7e 26 bd
       0.04672618 -0.060267895 0.03283591 -0.040647667
000150 9a 11 25 be 48 e0 88 bd 87 fd e0 bd 33 45 c3 3a
       -0.16119996 -0.06683403 -0.109858565 0.0014897942
000160 7b be f2 3d c9 50 64 3e f6 06 bb bd d3 43 90 be
       0.118527375 0.22296442 -0.09132187 -0.28176746
000170 da a8 26 be 9b 68 1c 3e 38 e2 6c be 9e d1 32 be
       -0.1627535 0.15274279 -0.2313317 -0.17462775
000180 2d 19 6e 3d 9f ab 89 3e 4f 5e df 3d 1d f0 ca bd
       0.05812948 0.2688875 0.1090666 -0.09909079
000190 06 0e 4c be 03 67 37 be 40 02 99 be de e6 ce 3e
       -0.19927225 -0.1791039 -0.2988453 0.40410513
0001a0 ef 4e 38 bc 4f b3 38 bd ab 25 c7 3e bf dd 08 3e
       -0.011249288 -0.045092877 0.38895926 0.1336584
0001b0 fd 1e 6f be 1b 0e 8d 3d 0d 7d be bd 24 98 0e 3e
       -0.23351665 0.06887456 -0.09301195 0.13925225
0001c0 98 50 9c bb 14 fe 4a 3d 75 03 e9 3d c9 8b 0a 3d
       -0.0047703497 0.049558714 0.113776125 0.033824716
0001d0 e8 c3 b9 3c a2 ca 97 be 90 b4 2e be f8 02 9a be
       0.022676423 -0.29646784 -0.17061067 -0.3008039
0001e0 a7 61 84 3e 73 ef a1 3d 45 67 34 be 0f 34 0b be
       0.25855753 0.079069994 -0.17617519 -0.13594078
0001f0 51 4b 98 3d 79 0f 10 bd 07 3f 91 be 48 dc 98 3e
       0.074362405 -0.035171006 -0.283684 0.2985556
000200 70 d3 38 be 1c 54 a5 bd 9b 53 2b 3e 1b 36 9b 3e
       -0.18049407 -0.08072683 0.16731112 0.30314717
000210 12 37 60 3e 0f e7 01 3e ef fd 4c be 29 7f 52 3e
       0.21896008 0.12685798 -0.20018743 0.2055632
000220 73 16 e0 3d 99 07 cb 3d b9 49 08 be a3 1b e2 bd
       0.10941782 0.099135585 -0.13309373 -0.110404275
000230 d4 bf 5a be 91 ea 85 be f2 a0 de 3d 7b 6a 0c 3e
       -0.21362239 -0.26155522 0.10870542 0.13712494
000240 04 c2 3b 3e ea f1 27 bd 6d fc 98 bc 69 6c 07 3e
       0.1833573 -0.04100219 -0.018675053 0.13224949
000250 82 38 e2 bd 32 dc 4d bd 0a c9 81 3d 4a c5 01 3e
       -0.11045934 -0.050258823 0.06337173 0.12672916
000260 37 af 2f 3e c7 93 70 3e 6a 0e 9b bd c6 51 46 be
       0.17156683 0.23493873 -0.07571109 -0.19367132
000270 f1 00 e9 3d 9a d0 7f 3d 87 1d cf bc a8 46 21 3e
       0.11377133 0.062454797 -0.025282634 0.1574961
000280 84 ff a6 bd 61 e4 0e be 8f 3b be 3d 63 ec 01 3e
       -0.081542045 -0.13954307 0.09288704 0.1268783
000290 db f4 38 3e 75 f4 27 3e 8e 75 36 be 23 1b 23 be
       0.18062155 0.16401847 -0.17818281 -0.1592832
0002a0 80 bb 5e be 60 fd e4 3d e1 f0 cb bc 74 61 0a 3e
       -0.21751213 0.1118114 -0.024895133 0.13513738
0002b0 a1 dc ee bd 7d 74 50 be 18 05 e3 bd b3 78 5f 3e
       -0.116631754 -0.20356937 -0.11084956 0.21823387
0002c0 65 52 84 3e ff 41 6f be 67 54 74 bc 03 2e 16 be
       0.25844112 -0.2336502 -0.014912701 -0.1466599
0002d0 4f 94 66 3e 59 8a cf bd b2 4b 36 bd 23 00 fd bc
       0.22517513 -0.101338096 -0.044505782 -0.030883854
0002e0 5b 3c 44 3c 93 62 02 bf 19 9c b9 be d1 18 52 be
       0.0119772805 -0.5093166 -0.36251906 -0.20517279
0002f0 ce 2f 23 bd 69 ce 74 3d 56 0e 24 bb a1 0f 71 3d
       -0.039840512 0.05976716 -0.002503296 0.058852796
000300 22 39 8b be 7b 2b 93 3c 36 78 54 3e ee 05 99 bd
       -0.27192026 0.017965069 0.20748982 -0.07471834
000310 45 db 07 be 42 58 da 3c ec c1 2a bd ba 26 f6 3e
       -0.13267238 0.026653413 -0.041688845 0.4807642
000320 3f 5d 3e 3e 5d e2 82 3c 45 62 84 3e fd c2 55 be
       0.18590258 0.015977079 0.25856224 -0.20875163
000330 73 86 b5 3b bd 3e 20 be 36 8b 6c 3e bf 9a 41 be
       0.0055397092 -0.15648933 0.2309998 -0.18906687
000340 0d 8c 4a be 2f 91 ef bc 0f e6 16 3e 07 cd 2e 3d
       -0.19779988 -0.029244034 0.14736198 0.042675998
000350 98 7a fa 3d 72 76 9f 3e 50 0f 89 be 0b 72 af 3e
       0.12230414 0.31145054 -0.26769495 0.34266695
000360 fd 94 2e be e4 78 f3 bd 54 75 8c be 5b 61 24 3e
       -0.17049022 -0.118882924 -0.27433264 0.16052763
000370 b0 2d c1 bc 91 a8 25 3d b7 d0 8f bd bd f6 a2 3e
       -0.023581356 0.04044396 -0.07022231 0.3182887
000380 61 df 03 3e b9 b9 01 3f 07 96 b3 3e 7f 28 a7 3c
       0.12878181 0.50674015 0.350754 0.020405052
000390 0e 85 1b 3e a9 c9 7a bd ff 8b 9b bd c9 94 48 be
       0.15187475 -0.061227474 -0.075950615 -0.19588007
0003a0 a9 fe 0b be 01 a3 af bc 67 d8 a1 bd 0b 27 b1 3e
       -0.13671364 -0.021440031 -0.079026036 0.346001
0003b0 7c 89 3e be 02 8d db bd 39 f5 b9 3d 36 80 49 bd
       -0.18607134 -0.107202545 0.09079976 -0.049194537
0003c0 22 c6 5c 3d a4 37 97 3e 1a 04 16 3c f4 aa 54 be
       0.05389989 0.29534638 0.009156251 -0.20768338
0003d0 9c 29 95 3c 01 78 2d be d9 71 03 be f3 1a 08 be
       0.018208317 -0.16940309 -0.12836398 -0.1329153
0003e0 0f 90 4f 3e 69 bd a4 3e 1b 5e 26 3c 9d 41 c4 be
       0.20269798 0.32175758 0.010154272 -0.3833131
0003f0 6c ea 3e 3e f2 4c 02 3d 38 1f 22 be ca ea 81 3d
       0.18644112 0.031811662 -0.15832222 0.063436106

encoder.conv.convs.1.bias f4 [40]
000000 0d c4 95 3d 38 9c a5 bd c0 27 5a bc 3d c7 1a 3d
       0.07312784 -0.08086437 -0.013315141 0.037787665
000010 77 e7 a8 3c 2f 26 be 3d 1b 41 0f 3e e8 17 26 3b
       0.020618184 0.09284627 0.1398968 0.002534384
000020 2d 14 91 bd 2f 00 61 3d 4f 3e 07 3e c3 83 b1 3d
       -0.07083926 0.054931816 0.13207363 0.0866771
000030 e4 3c f4 3c c4 c1 6b 3a 36 ea b0 3d 8f 20 97 bd
       0.029814191 0.0008993412 0.08638422 -0.07379257
000040 07 d9 ac 3c ec ce ae 3c 15 98 25 3c 7e fe 94 bc
       0.02109958 0.021338902 0.01010706 -0.018187758
000050 8e d8 01 bd 27 92 95 3c 55 e6 17 3e fa 30 70 3d
       -0.031700663 0.018258167 0.14833958 0.058640458
000060 7c 68 c8 bd 3f 98 13 3e 74 71 1a 3e 70 f8 0c bd
       -0.09785554 0.14413546 0.15082341 -0.034416616
000070 65 74 da 3d f7 91 1c 3d 97 98 ac bc 9b 0e 1a 3d
       0.10666732 0.03822514 -0.021068854 0.037611585
000080 03 ae 36 3b 4d 1d ec 3d 9c a9 93 3c 47 c3 c6 bd
       0.0027874715 0.11529026 0.018025212 -0.09705215
000090 d1 fb fd 3d 39 ec 86 bd bb eb 19 bc 2f d8 eb 3d
       0.12401546 -0.06588025 -0.009394581 0.11515843

encoder.conv.convs.1.lin.weight f4 [40, 40]
000000 49 55 6a be b4 1a 77 be a2 1d a3 3d ff 38 d9 bd
       -0.22884096 -0.2413128 0.079646364 -0.10606574
000010 00 6c ad bb bf 9c 49 3e 98 e6 18 3e 8e 1b 77 be
       -0.0052924156 0.196887 0.14931715 -0.24131605
000020 ff a1 a9 3c d4 9e 10 3e 8a 9d 80 3e 2b 75 95 3e
       0.020707129 0.14123088 0.25120193 0.29190955
000030 91 99 9e bd 2a f4 15 3e f7 0e c5 3c b9 18 ef bd
       -0.07744134 0.14643922 0.024054987 -0.11674637
000040 d4 c8 c0 bc 0c 44 6f be 6b 99 0c bc e7 cd 47 be
       -0.023533262 -0.23365802 -0.0085815 -0.1951214
000050 e8 a2 99 3d 56 08 0c 3e 0e b1 ad bd 1b 7e a2 bd
       0.07501775 0.13675055 -0.08481036 -0.07934209
000060 9a 6b 39 3e bf 9c 2c be be 5a a1 3e 63 51 61 3e
       0.18107453 -0.16856669 0.31514543 0.22003703
000070 c4 2f 8a be b6 9f 57 3e ac 92 98 3e 58 5a ae 3e
       -0.26989567 0.21057019 0.29799402 0.34053302
000080 02 21 e4 3e ba e6 2a 3e 2c cd 28 be 3c ec 9b bc
       0.44556433 0.16689578 -0.16484517 -0.019033544
000090 00 e5 17 be 4d be bf bb 6c 73 24 be b2 15 1b bf
       -0.1483345 -0.005851543 -0.16059655 -0.6057998
0000a0 5d fc f5 3c bc 62 1c 3e cd 16 58 3d 5f 8c 88 bc
       0.030027563 0.15272039 0.05275612 -0.016668497
0000b0 3b 3b 3e be e1 85 50 be 2a 36 81 3c 8a 9f 82 bc
       -0.18577282 -0.20363571 0.015772898 -0.015945215
0000c0 93 ec 0e 3e f1 92 8a 3c 00 51 8c be f1 2d a9 be
       0.13957433 0.01691577 -0.27405548 -0.33042863
0000d0 98 25 af 3d e6 5b 82 be 2a 4e 00 be 2b c9 a1 be
       0.08552092 -0.25460738 -0.12529817 -0.3159879
0000e0 e5 4d 79 3e 56 7a 90 be 31 49 25 3e 76 a4 05 be
       0.2434612 -0.28218335 0.16141202 -0.13051018
0000f0 1b ee 57 be d5 95 6f 3c ee 89 54 be 0a 3e 70 3c
       -0.21086924 0.014623125 -0.20755741 0.014663229
000100 e3 48 a3 3b b4 e7 3b be 37 95 12 3e 4f 06 f1 bd
       0.004983054 -0.18350106 0.14314733 -0.117687814
000110 a4 4b fb 3d 6d c1 11 3e 0d 64 80 be ed 34 34 3e
       0.12270287 0.14233942 -0.25076333 0.17598315
000120 51 9e 37 be 6d 39 e1 bd ac 66 9e be 23 e6 8b 3c
       -0.17931487 -0.10997281 -0.30937707 0.017077511
000130 97 80 98 be 0e 46 35 be 01 aa 7b be 5d c8 ee bd
       -0.29785606 -0.17702505 -0.2457657 -0.1165931
000140 85 4d 9a be 79 2c 79 be 52 13 55 be 3f dd ae bd
       -0.30137268 -0.24333371 -0.20808151 -0.08538293
000150 56 37 31 3e 66 46 34 3e 29 a2 6c 3e 6f b3 d3 3d
       0.17306265 0.1760498 0.23108734 0.103369586
000160 6c 31 39 be f9 a8 14 bd 70 cf 9f 3d 94 90 3b be
       -0.18085259 -0.036293957 0.078032374 -0.18316871
000170 3c 31 c2 3c 21 28 14 be 8d 7e 79 be b3 b7 7a 3c
       0.023705117 -0.14468433 -0.24364682 0.015302586
000180 9a 1c 90 3e eb 0d ec 3d 09 88 ef 3d e6 61 59 bb
       0.2814682 0.11526092 0.116958685 -0.0033169924
000190 dc a8 bc 3d a0 a0 c6 bb bd c4 ec bd d1 cc ec bd
       0.09211895 -0.0060616285 -0.11560962 -0.11562503
0001a0 d4 8e 6c 3e 29 f8 7d bd 07 29 9d bc eb f1 0b be
       0.2310136 -0.062004242 -0.019184602 -0.13666503
0001b0 dc d0 d1 3d 9d 62 6e 3e ac 79 74 be be a9 09 be
       0.10244915 0.23279805 -0.23874539 -0.13443658
0001c0 21 7c 4b be ae 2e 64 be da 5e b0 bd 94 90 e9 bd
       -0.1987157 -0.22283432 -0.086118415 -0.11404529
0001d0 5c 47 db bd 86 7c ee bd 3f 4d 1e be f3 b7 38 be
       -0.1070697 -0.11644845 -0.15459155 -0.18038921
0001e0 b2 e5 40 3e af 64 2c be a8 92 80 bc 3c 7b 53 3e
       0.18837622 -0.16835283 -0.015694931 0.20652479
0001f0 14 7c 43 3c 9b 03 b4 3d 5f ee 0e 3e 09 42 88 3c
       0.011931438 0.0878975 0.13958119 0.01663305
000200 83 c4 ce 3d 96 b5 95 3e 6b 5e e9 bd ce e9 83 3e
       0.100960754 0.29240102 -0.11394962 0.25764316
000210 7a 1e 92 3c 16 20 3c 3e be f1 5d 3e f6 92 18 3e
       0.017836798 0.18371615 0.21674249 0.14899811
000220 8a 45 42 bd 9d 88 e1 bd 71 5a 22 be 1c 81 2e be
       -0.0474296 -0.11012385 -0.15854813 -0.17041439
000230 a7 4d 08 be e1 6a 3a 3e c0 cb b0 be bd 38 17 be
       -0.13310872 0.18204834 -0.3453045 -0.14767738
000240 d3 4b 2b bf 06 6c f3 3d e8 e0 12 bf a4 f8 43 3e
       -0.66912574 0.11885838 -0.5737443 0.19137818
000250 2f fe e1 3d c0 60 fb 3d 0c a2 00 be 28 30 29 3e
       0.1103481 0.12274313 -0.12561816 0.16522276
000260 2a b0 a6 be e5 96 05 be c0 df f9 bb 07 10 dd bc
       -0.32556278 -0.13045843 -0.00762555 -0.026985181
000270 7d 25 b3 3d 95 32 ad be 4b ff a4 3e 34 41 24 be
       0.08747385 -0.33827654 0.32226023 -0.16040498
000280 81 40 8d bd 9b e7 93 3e ae 53 41 3e 33 b5 6d 3d
       -0.06897069 0.28887638 0.18879578 0.058034133
000290 f4 33 0b be e4 11 0b be fb 79 36 3e 7f e1 8e 3d
       -0.13594037 -0.13581043 0.1781997 0.06976604
0002a0 5b 34 05 3e 5e 36 9f 3e 13 93 cd be 49 9a 03 be
       0.13008253 0.31096166 -0.4015127 -0.12851824
0002b0 50 b2 3c 3d 69 3f 04 3e fb 64 4f 3e a8 07 b7 3d
       0.04606849 0.12914814 0.20253365 0.08937007
0002c0 e1 30 8a bd 71 35 11 3e 23 20 80 3d f7 70 bb bc
       -0.06747604 0.14180543 0.062561296 -0.022881014
0002d0 8c a4 f9 3d 73 ec 0a be 98 59 aa bc 0b 1e ab 3e
       0.12189588 -0.1356676 -0.020794675 0.33421358
0002e0 37 ac 22 bf dd e1 ae bd d6 ec 09 bf 21 84 92 be
       -0.6354403 -0.08539174 -0.5387701 -0.2861643
0002f0 3e ea ca bd 15 58 2d 3e ca 74 b8 be bf 05 2f 3d
       -0.099079594 0.16928132 -0.36026603 0.04273009
000300 c6 38 f1 bd 94 0b a2 3d 41 bc 8c ba d3 9e 2e be
       -0.11778407 0.079123646 -0.0010737256 -0.17052774
000310 92 5a 9e 3d 03 ad ff bd 34 d2 34 3e bd da 95 bc
       0.07732119 -0.12484171 0.17658311 -0.01829278
000320 ba 5f 53 3e 20 89 1e 3d 92 c8 21 3e 87 40 0d 3e
       0.20641986 0.03870499 0.15799168 0.13794146
000330 cd 64 10 3e c6 2b 81 3e ed 16 82 bd b6 1d fc bc
       0.14100952 0.2522871 -0.06352029 -0.030775886
000340 6b a5 18 be 16 41 12 3b d4 30 cc 3e f9 52 fc bd
       -0.14906852 0.0022316626 0.39881003 -0.12320513
000350 c1 8c a0 bd 22 f0 e6 3d 59 94 1f 3e 0a f6 ec 3b
       -0.07839347 0.112762704 0.15583934 0.0072314786
000360 46 9c ff bd 15 6c 27 be cf 08 55 3e 52 18 9d 3e
       -0.12480979 -0.16349824 0.20804141 0.30682617
000370 57 54 59 3e 26 3b 29 be 49 a4 5a 3e 12 5d 88 3e
       0.2122358 -0.1652647 0.21351732 0.26633507
000380 6f 59 08 3f 5e 1e 28 be 91 d0 a7 3e 78 b9 85 3e
       0.53261465 -0.16417834 0.3277631 0.26118064
000390 76 9b d9 bd d2 b1 3e be e8 14 9b 3e 8b ed e1 3e
       -0.10625355 -0.1862252 0.30289388 0.44126543
0003a0 1b 33 52 3e 3e 7a b9 bd 7e 40 85 3e fa 20 35 be
       0.20527308 -0.09056519 0.26025766 -0.17688361
0003b0 7f 40 25 be 16 4b cf 3e b1 e1 ad be ac 12 05 be
       -0.16137885 0.40486974 -0.3396125 -0.12995404
0003c0 e2 a0 83 be 40 39 09 3e 0c 58 fa bd 8e 09 32 bd
       -0.2570868 0.13400745 -0.12223825 -0.043466143
0003d0 c8 60 28 3e 40 6e de ba 28 0e b1 bc 30 40 14 3d
       0.16443169 -0.0016970113 -0.021613196 0.036194026
0003e0 81 2c a7 3e 57 ff 83 3e 6d 00 5c 3d cf d5 4b be
       0.3265114 0.25780746 0.053711344 -0.1990578
0003f0 eb df f3 3d b1 8e e5 bd e9 61 aa bd e6 07 a6 bc
       0.11907943 -0.11208857 -0.08319456 -0.020267438

encoder.conv.convs.2.bias f4 [40]
000000 31 df ce bc 0c 51 29 3c c8 41 87 bd c1 9b 0c 3e
       -0.02525291 0.0103342645 -0.06604344 0.1373129
000010 c0 76 f4 bc 0e 28 df 3c 24 9f c9 3d 9e 41 89 bc
       -0.02984178 0.02724078 0.09844807 -0.016754922
000020 09 8f fa 3c 1e 1a ec 3d 7f 62 13 bd 7a 8e dd 3d
       0.030585783 0.11528419 -0.035982605 0.10818191
000030 13 60 00 bd 73 03 9d bd cf 0a 1f bd dc e6 1f bd
       -0.031341624 -0.076666735 -0.038828667 -0.039038524
000040 63 8e 2e bd 1b ed 2b bd 69 85 bd 3d 19 c7 67 3e
       -0.04261626 -0.04197417 0.092539616 0.22634543
000050 b6 26 4f 3e 52 40 da 3b 20 5f df bd d7 c6 26 3e
       0.20229611 0.0066604996 -0.109068155 0.16286789
000060 38 54 5c 3e e3 08 33 bd 6d 2b 2b bc a9 93 0d 3e
       0.21516502 -0.043709647 -0.010447365 0.13825859
000070 eb 9b 13 3e d5 ee 6c 3c 4b e7 e0 bb c4 af 10 bd
       0.14414947 0.014461239 -0.00686351 -0.035323873
000080 3d 9b 30 3e 6d 2f 95 bd c3 06 6f bd 2e 4b 7d 3d
       0.17246719 -0.072844364 -0.058356058 0.061839275
000090 ee 48 d6 bc 19 c8 78 bd 7d 70 8d 3e 15 91 44 3e
       -0.026157822 -0.060737703 0.27624884 0.1919597

encoder.conv.convs.2.lin.weight f4 [40, 40]
000000 e6 dd c3 bd 50 ec 0e 3e 6a c4 3b 3e 73 d0 14 be
       -0.09563808 0.13957334 0.18336645 -0.14532642
000010 ec d4 ca 3c 6c cc 43 be 5b b7 49 3d 86 57 2d bc
       0.024759732 -0.1912095 0.049247127 -0.010579949
000020 49 f1 63 3e ca c0 0c 3e 4a ac 7d 3e 85 2a 63 bd
       0.22260012 0.13745418 0.24772754 -0.05546047
000030 c1 98 2f bd bc c1 31 3e fc 91 66 be ba 73 38 be
       -0.042870287 0.1735906 -0.22516626 -0.18012896
000040 89 31 47 bd c6 c2 83 bd 17 b0 76 bd 73 dc 14 be
       -0.048631225 -0.064336345 -0.060226526 -0.1453722
000050 33 9f 6c be 3c f0 06 3e de f6 0a be 28 4d f4 bc
       -0.23107605 0.1317758 -0.13570735 -0.029821947
000060 e0 97 89 be 89 28 b3 3d b5 ee 7e be b4 b4 a3 bd
       -0.26873684 0.08747966 -0.24895747 -0.07993451
000070 d1 71 37 be 95 35 2e be 3f c3 ac bd bc 6e 09 3e
       -0.17914511 -0.17012627 -0.08435678 0.13421148
000080 c3 18 4d 3e d7 06 5f be 25 ea 36 3e 39 0a 0a be
       0.20028977 -0.21779953 0.17862757 -0.13480462
000090 56 f1 5d be d9 35 6b 3e 2f 6c 88 be eb 11 7a be
       -0.21674094 0.2296976 -0.26645038 -0.24420898
0000a0 18 6b 53 3e 6b 47 82 3e aa 08 55 3e e0 c1 28 bd
       0.20646322 0.25445113 0.20804086 -0.04120052
0000b0 ef 41 7b 3e 07 b9 39 3e 6f 70 55 be db 1a 68 3e
       0.2453687 0.18136989 -0.20843671 0.22666495
0000c0 e4 e5 43 be 3a 9a 95 bd b3 aa 75 be 91 f1 9d 3d
       -0.19130665 -0.07304807 -0.23990898 0.07712091
0000d0 51 1e 06 be 61 47 84 be 16 f8 d2 3d 23 d9 51 3e
       -0.13097502 -0.25835708 0.10301225 0.20492987
0000e0 2e 0c 2e 3e 1b 88 4d be 77 f5 8c bc 6b 59 df 3d
       0.16996834 -0.20071451 -0.01720689 0.10905727
0000f0 e3 75 15 be 70 a0 3c be 9b 87 d1 3d fa 33 86 bd
       -0.14595751 -0.18420577 0.10230943 -0.065528825
000100 a6 97 8c bd 45 af 63 3e 1a 7e de bd 48 db 4e 3d
       -0.06864862 0.22234829 -0.10863896 0.05050209
000110 0b e7 7e be 34 dd 1f be 1b 5f 6f 3e 66 ff 82 be
       -0.24892823 -0.15611726 0.23376124 -0.2558548
000120 81 32 59 be 47 dd af bd 23 d6 4c 3e b8 48 1b be
       -0.21210672 -0.08587127 0.20003562 -0.15164459
000130 ca 83 92 bc ee be 21 3e f9 6e d5 3d 21 00 a1 be
       -0.017885108 0.1579549 0.10421557 -0.3144541
000140 9e 3b b8 bd 42 06 a1 be a9 23 a3 3d 91 67 88 3c
       -0.08995746 -0.31450087 0.07965786 0.016650947
000150 fb 7c 38 3e 2f 7a 6a 3c 54 a9 72 3e bd b9 4a 3f
       0.18016426 0.014311357 0.23697406 0.79189664
000160 f9 0e 78 3e 4b de c4 bd 43 aa ae be da 64 86 be
       0.24224462 -0.096127115 -0.34114274 -0.2624882
000170 8b 1c 97 3d c6 12 d3 3e b2 a4 cd be 65 a5 01 3f
       0.07378491 0.4122526 -0.40164715 0.50643
000180 a5 f1 ae 3e 20 6f 13 3e 1d bc 5a 3e 5d bf 33 be
       0.34168735 0.1439786 0.21360822 -0.17553468
000190 ed 78 c1 3d 8e ba 4d be 7e 3b a0 3d ff 55 ab bc
       0.09446893 -0.20090696 0.07823847 -0.02091503
0001a0 b9 d9 6b 3e 34 67 b0 be e7 fb 5d bd f0 d2 23 3f
       0.23032273 -0.34453738 -0.05419531 0.6399374
0001b0 a7 58 5a 3e 08 0c b0 3c b7 02 a7 3d 8f 53 fc bd
       0.2132288 0.021490112 0.08154815 -0.12320625
0001c0 ce 4e 36 be 4b b9 43 be bd c3 af bd 63 ef a4 3d
       -0.17803499 -0.19113652 -0.08582256 0.08053472
0001d0 0e 83 94 be 4f 6a 4d be 31 aa aa 3a 57 d6 8c be
       -0.29006237 -0.20060085 0.0013020692 -0.27507278
0001e0 72 02 37 be 5d 91 21 be 7f 4f 85 be 23 f5 a7 3e
       -0.17872027 -0.15778108 -0.26037213 0.32804212
0001f0 44 b4 87 3e df 75 cb 3d 63 2b f6 3d da 21 45 be
       0.2650472 0.099345915 0.12019994 -0.19251195
000200 1f c2 3a 3e 03 ad 86 3e 2a 45 86 bc 60 cd b0 3c
       0.18238114 0.26303872 -0.016390402 0.021582305
000210 9f 1b 96 3e 56 41 5c be ad 74 ba 3d fd 56 cf bc
       0.29317948 -0.21509299 0.091042854 -0.025310034
000220 1b 5f aa 3c 54 9a 5e bd db 17 7c 3e 33 83 41 bd
       0.020797303 -0.054346398 0.24618475 -0.047244262
000230 79 0e 07 3d d6 51 ea 3c 72 fc e4 bd d1 a2 3f bf
       0.032972787 0.028603476 -0.111809626 -0.74857813
000240 ae 4b 08 3e 41 6c f5 3d 89 2e 60 be 7d 0e 14 be
       0.1331012 0.119835384 -0.21892752 -0.14458652
000250 5e d7 2f 3e 9e 5c af 3e 69 35 aa 3e 08 09 cc 3e
       0.17172 0.3425035 0.33243874 0.3985064
000260 b6 45 60 bd 64 fd 60 be 90 06 9e 3e 8f 86 91 bd
       -0.05475398 -0.21971661 0.30864382 -0.07105743
000270 1a 71 2e be 59 4f 1a be 6b 37 80 3e a6 23 76 be
       -0.17035332 -0.15069331 0.2504228 -0.24037036
000280 13 8f 96 bd 8b b7 64 3e e3 bc 83 3e 3e 10 31 3e
       -0.07351508 0.22335641 0.25730047 0.17291352
000290 61 59 fd bc 1e 8e 24 be dd 4a 47 3e 50 5f 13 3e
       -0.030926408 -0.16069838 0.19462152 0.14391828
0002a0 4e 3f 07 3e e2 70 34 be 9b 26 8c be 25 f0 10 be
       0.13207743 -0.17621186 -0.27373204 -0.14154108
0002b0 19 91 a2 be 08 0c 7e 3d 30 a9 60 3e b2 ef 6b 3d
       -0.31751326 0.062023193 0.2193954 0.05760164
0002c0 b6 b1 2c 3e 90 c9 25 3d b7 31 af bd 2f c7 2c be
       0.16864666 0.040475428 -0.08554404 -0.16872858
0002d0 99 60 58 3e 2f 43 08 be e0 06 42 bd 5e e4 7f be
       0.21130599 -0.13306879 -0.047369838 -0.24989459
0002e0 53 17 fa 3d 6f af 97 3d 52 40 5d 3d 70 15 72 3d
       0.1221148 0.07406508 0.05401642 0.059102476
0002f0 86 7d 10 be 9c 48 8d bc 0f 51 8c 3d c6 8b 0d be
       -0.14110383 -0.017246537 0.06851398 -0.1382285
000300 08 6e 1c be e6 9d bf bc 18 f3 47 be 18 1f c4 bd
       -0.15276349 -0.023390722 -0.19526327 -0.09576243
000310 bf ee 9f bd f6 ed 8b bc 37 8a dd bd 74 27 14 bd
       -0.07809209 -0.017081242 -0.10817378 -0.036170438
000320 bc 15 81 3c d7 2a 1f be a4 ac b7 bd 51 da d2 3d
       0.015757434 -0.15543686 -0.089684755 0.10295547
000330 08 3a 98 3b 0f 5b b2 be a8 08 0a 3d 2f 18 aa be
       0.0046455897 -0.34835097 0.03369966 -0.33221576
000340 85 db 87 3d 70 ed 85 bd 39 20 2a be 5c d1 0d 3a
       0.06633667 -0.06539428 -0.16613854 0.000540992
000350 f1 7c 05 3e 17 91 a5 3e c1 99 6f be b0 71 21 3f
       0.13035943 0.32337257 -0.23398496 0.630641
000360 ce 9d 90 3e 6b 37 86 3e 24 7a 0e be b6 16 b6 bd
       0.28245395 0.26214156 -0.1391378 -0.088910505
000370 f4 62 8c bd c1 30 7f 3e bf 0b 01 3e eb ca be bd
       -0.06854811 0.24920942 0.12602137 -0.09316047
000380 0f f2 23 be 7b 47 15 be bd f6 c1 be 96 53 b3 3e
       -0.16010307 -0.14578049 -0.3788356 0.35024709
000390 dd 5d f4 bd 6f e8 2c 3b 40 f9 e4 bd 7b ec 60 3d
       -0.119319655 0.0026383658 -0.11180353 0.054913025
0003a0 f3 73 c9 3d 26 fb bb be 5f 6d 58 3e 3d 5b 64 be
       0.09836569 -0.3671505 0.21135472 -0.2230043
0003b0 b4 1b 3b be bb b9 5b 3e 8f 90 26 3e cc 9e 06 3d
       -0.18272287 0.2145757 0.16266082 0.032866284
0003c0 60 f0 18 3e 61 14 c1 bd 0e eb 4d bd 46 1a 67 3e
       0.14935446 -0.09427715 -0.050272994 0.22568616
0003d0 2d 20 96 3c fb 0c 91 3e 29 c6 80 3d 79 b8 b3 be
       0.01832589 0.28330216 0.06287796 -0.3510168
0003e0 3d db 7e 3c ca 75 04 be a6 10 a6 3e 50 9d 81 3d
       0.0155552 -0.12935558 0.32434577 0.06328833
0003f0 b4 67 47 3d 47 1e 2b bf c1 dd 58 3e 56 48 24 bf
       0.048682883 -0.66843075 0.21178342 -0.64172876

encoder.conv.convs.3.bias f4 [40]
000000 38 58 02 be 65 2b 26 3e d2 23 06 3c 7f 4c bd bd
       -0.12728965 0.16227491 0.008187251 -0.09243106
000010 6b a0 95 bb bf 08 81 bd 9c 59 0b bd a8 a2 d5 bc
       -0.0045662425 -0.06300496 -0.034021005 -0.026078537
000020 bb 71 29 3e 5f e4 0b 3e 8b 30 27 3e 5a a8 5a 3e
       0.16547291 0.13661335 0.16327111 0.21353284
000030 4c 8b e9 3d 95 c6 b5 bd f3 9e f0 3d 9a 80 46 bb
       0.11403522 -0.08875767 0.11749067 -0.0030289055
000040 7a 79 d9 3c 0d 7f 5c 3d c3 1a 42 bc e0 f2 bb 3e
       0.026547182 0.053832103 -0.011847201 0.36708736
000050 ef 9e 26 bd 9d 18 48 3d f1 e0 47 bd 09 25 a7 bd
       -0.040678915 0.048851598 -0.048798505 -0.08161361
000060 47 fd 00 bd 87 5d 6c bd 9f 13 8c bd de 33 2c bd
       -0.031491544 -0.057706382 -0.0683968 -0.042041652
000070 d0 b2 87 3e b1 75 a6 bd d1 7c b3 3d db 50 2d bd
       0.2650361 -0.081279166 0.08764041 -0.042313438
000080 12 92 dd 3b 39 19 81 bd dd 61 39 be 87 5f e5 3d
       0.0067617977 -0.06303639 -0.18103738 0.11199861
000090 7a 5a 8b 3e 86 73 19 bd 36 d1 79 3d 4f 83 c7 bd
       0.27217466 -0.037463687 0.060990535 -0.09741842

encoder.conv.convs.3.lin.weight f4 [40, 40]
000000 e7 03 56 3d 3a c6 36 3e 9e 9e 86 3e d3 6b 54 be
       0.052249815 0.17849055 0.2629289 -0.20744257
000010 5f 99 03 3e 30 56 d6 bd 2f a8 96 bd 20 51 42 bd
       0.12851475 -0.10465658 -0.07356297 -0.047440648
000020 55 b4 d7 3d 8d 3c a7 be fb 8b 61 be d0 76 26 be
       0.105324425 -0.32663384 -0.22026055 -0.16256261
000030 ad 4b e0 bb f4 dc 26 be 71 07 33 be 55 1c 8b be
       -0.0068449588 -0.16295224 -0.17483307 -0.27170053
000040 49 09 19 be ee 63 4e be 79 05 b6 be f7 f2 34 be
       -0.14944948 -0.20155308 -0.3555105 -0.17670809
000050 e2 ab 9e be 0d e8 c6 3d f5 07 22 3e 75 7f ab 3d
       -0.3099051 0.09712229 0.15823348 0.0837392
000060 ef 64 94 be 42 4e 59 3d 68 4e 82 3e dc 8f 80 3c
       -0.28983256 0.053053148 0.25450444 0.015693597
000070 5a 9e 02 be 28 1c 29 be a1 5c 87 3c 39 7f 4d 3e
       -0.12755719 -0.16514647 0.016523661 0.20068063
000080 89 35 18 3e 11 ba 8d bd e8 30 52 bd 83 98 fe 3b
       0.14864172 -0.06920255 -0.051316172 0.0077696457
000090 c8 79 65 3d e1 34 ce bd 8c 93 f0 be 37 b1 09 be
       0.056024343 -0.100686796 -0.4698757 -0.13446508
0000a0 a7 8b 82 3d d7 48 2a 3e 73 22 40 3e 35 f5 50 be
       0.06374293 0.16629349 0.18763141 -0.20406039
0000b0 21 38 3b bd 8d 03 e1 3d b5 33 0e be b5 a0 8d be
       -0.045707826 0.109870054 -0.13886912 -0.27661672
0000c0 e9 b3 e9 3d de b0 2a 3e 54 a3 9d be 40 e3 e2 bc
       0.11411268 0.16669032 -0.30788672 -0.027696252
0000d0 ac d1 e3 3d 31 83 54 be f6 d7 c7 3d 76 89 e6 bd
       0.11123976 -0.2075317 0.09757988 -0.11256687
0000e0 ba 6d d5 3d e9 88 58 bc 34 03 7c be 3f a1 fd 3d
       0.10421319 -0.013216236 -0.24610597 0.12384271
0000f0 34 80 be 3d d9 91 fe bd df e2 16 be e2 e9 c6 bd
       0.093017966 -0.12430162 -0.14734982 -0.09712578
000100 de e4 91 3d ff bb 14 3e 32 52 38 3e 4b 8a 92 be
       0.07123731 0.1452484 0.18000105 -0.28621134
000110 cb 03 28 3e 0f ef 99 3e a2 86 69 be dc 5b 31 3d
       0.16407697 0.300652 -0.22805265 0.043300495
000120 1e 69 48 3d 49 5f 96 be 66 5a 09 be 1c b7 ce 3d
       0.048928373 -0.29369572 -0.1341339 0.10093519
000130 f2 20 03 3e 94 6a 6b be 23 ad e5 be 95 f5 c5 3d
       0.12805536 -0.22989875 -0.44858655 0.09665982
000140 43 9d 3d bd 81 c2 71 be a5 58 cb be d7 7c 56 bf
       -0.046292555 -0.23609354 -0.39716068 -0.8378424
000150 a6 ec 6f 3e 8c 95 1a bf 64 9b 84 3e 7d 04 15 3c
       0.23430118 -0.6038444 0.25899804 0.009095308
000160 af 0f ee be 2a 4c a8 bd 16 df f0 bd c7 a7 ec 3e
       -0.4649634 -0.08217652 -0.117613 0.46221754
000170 56 5b 40 bf f2 35 1c 3c 03 34 6b be f6 8a c3 3d
       -0.7513937 0.009534346 -0.2296906 0.09547989
000180 0e 5b 0a bf b6 1f 4f be 12 6c cb 3e 47 d1 7b bd
       -0.5404519 -0.2022694 0.3973089 -0.06147888
000190 61 26 91 3e 58 6c 6d bf b0 27 f4 bd d6 c0 64 3e
       0.28349593 -0.92743444 -0.11921632 0.22339186
0001a0 cc d2 89 bd db de 3f be 9b e1 83 be 32 be 82 3e
       -0.067296594 -0.18737356 -0.2575806 0.25535733
0001b0 4e bf 36 3f 88 c8 85 be d9 3c 14 be bf 78 05 bd
       0.7138566 -0.26129556 -0.14476337 -0.032585856
0001c0 72 23 13 3e 1c bd 0d be e8 8e 12 bf 09 57 9a be
       0.1436899 -0.13841671 -0.5724931 -0.30144528
0001d0 af 5a 2e 3e af 2a ce 3d ba 39 1b 3f 26 77 c7 3e
       0.1702678 0.10066735 0.6063496 0.3895809
0001e0 46 16 0c 3e 7c 8b 5e 3d ea 36 85 3e 70 1c 18 bf
       0.13680372 0.05433224 0.2601846 -0.5941839
0001f0 31 7e 22 bd 55 bd 95 bc c7 da 40 be 32 fb 02 bd
       -0.039671127 -0.018278757 -0.18833457 -0.03197784
000200 ac eb 46 3e d8 03 c9 be 77 be 31 be c3 31 df 3d
       0.19425839 -0.39260745 -0.17357813 0.10898163
000210 ab 93 2b 3d 9b 3d 56 be 52 cf 8d 3d 4d be ac 3d
       0.041888874 -0.20921938 0.06924309 0.084347345
000220 11 51 6f be c0 65 a6 bc 24 35 f9 bc db 44 cc 3c
       -0.23370768 -0.02031219 -0.030420847 0.024935177
000230 3a 97 ac bd 19 a0 96 3e cb d0 5f 3e a3 59 ad 3e
       -0.08427282 0.2941902 0.21856992 0.3385745
000240 96 3a 0e be 46 8b 5d 3e 51 17 0f 3d 95 2e 78 bd
       -0.13889536 0.2163516 0.034934346 -0.0605913
000250 48 74 e0 3e b3 28 9d bd 67 de d8 3d 0a 05 fe bd
       0.43838716 -0.076737784 0.10589295 -0.12403305
000260 db 76 69 3d ad e5 57 3e 85 5e 51 bd 99 7c 68 be
       0.056998115 0.21083708 -0.05111553 -0.2270378
000270 87 17 95 3c 6f c8 ae 3d 11 88 31 be 32 a6 b9 3d
       0.018199695 0.085343234 -0.17337061 0.09064902
000280 96 14 0f 3e dc 42 58 3e 34 0d 07 bd 08 6a a6 bb
       0.13972697 0.21119255 -0.032971576 -0.005078558
000290 a3 21 5c bc 60 85 98 3d 9c 6c a6 be 05 ce b1 bd
       -0.013435754 0.07447314 -0.32504737 -0.08681873
0002a0 e0 00 49 3e 35 ea 80 be 9c 4e 49 3b 78 c2 71 be
       0.1962924 -0.25178686 0.003071702 -0.2360934
0002b0 42 ea 78 3c 19 f4 e4 bd 00 13 55 3e ec 9d 0c be
       0.01519257 -0.111793704 0.20808029 -0.13732117
0002c0 4d 44 82 3e b6 6d 40 3d ef 92 45 bf 8f 93 06 3c
       0.25442734 0.04697963 -0.7717733 0.008213892
0002d0 80 e0 52 3e fb fc 01 bd b1 b2 81 3e 64 8e a3 be
       0.20593452 -0.0317354 0.25331643 -0.31944573
0002e0 61 04 1e be 3d c1 ea be b2 a2 80 be df 88 ee bc
       -0.15431358 -0.45850554 -0.25124127 -0.029118
0002f0 d6 05 b8 bd 0c ee 8e 3e 8a 4f fd 3d 83 06 6f 3e
       -0.08985488 0.2791599 0.123686865 0.23342328
000300 6c 6b cf be 23 30 90 3c 88 7d 06 3e a4 c1 60 bd
       -0.40511644 0.017601078 0.13133824 -0.05487217
000310 0a 08 8e 3e ca 06 4a be 13 66 51 bf 5f cb 6a bf
       0.27740508 -0.19729152 -0.8179638 -0.9171657
000320 8c 19 2e 3e 61 85 27 bd a4 f3 32 bd d0 60 f3 3c
       0.17001933 -0.040898684 -0.043689385 0.02970925
000330 b7 c1 55 be 81 05 85 3d c0 a1 8d be 8e ae 4b 3e
       -0.20874678 0.064951904 -0.27662468 0.19890806
000340 5e 49 44 be 47 3e 87 3e 24 a9 85 3e 29 0f 9c be
       -0.19168612 0.264147 0.26105607 -0.30480316
000350 7f 67 31 3e c0 eb 25 be 08 8f 89 be 0a 3d 85 3e
       0.17324637 -0.16203213 -0.26866937 0.26023132
000360 29 da 4c be 72 df 00 3e f9 4d d1 bd 18 fc 86 be
       -0.20005096 0.12585238 -0.1021995 -0.26364207
000370 06 52 79 be 40 69 64 3d 40 14 ae 3d 0c c7 c3 3d
       -0.24347696 0.055764437 0.08499956 0.095594496
000380 81 b2 a5 be 62 cf d0 3d d0 34 83 3b 76 95 83 3e
       -0.3236275 0.10195805 0.0040040985 0.25699967
000390 d7 71 86 be c6 ed 87 be 24 51 9c 3d 2d e9 6d 3d
       -0.26258728 -0.26548594 0.07632664 0.058083702
0003a0 78 ac a0 be db 81 72 3e 0c 77 1c 3e 2b 55 16 3e
       -0.31381583 0.23682348 0.15279788 0.14680927
0003b0 06 88 8b 3e 5e 66 85 3e 30 5f 74 3e 1c 64 4f be
       0.27252215 0.26054662 0.23864436 -0.20253032
0003c0 48 10 f3 bd fb ce 4c 3d 32 3b 5f be 66 b9 55 3e
       -0.1186834 0.05000208 -0.21799925 0.20871505
0003d0 fb 61 05 3b 97 f7 f2 bd e8 92 da bd a2 93 f3 3d
       0.002035259 -0.1186363 -0.106725514 0.11893393
0003e0 5e 44 16 be 84 a4 7f be 3e 85 22 bd ea 7b 40 be
       -0.14674518 -0.24965101 -0.03967785 -0.1879727
0003f0 d8 23 3a be 07 aa 47 be ee 62 bb 3d a8 0b be 3d
       -0.18177736 -0.19498454 0.09149729 0.09279567

encoder.conv.convs.4.bias f4 [40]
000000 e0 4a 32 3e ff cd a0 bd cf c1 01 bd 1e c5 47 bd
       0.17411375 -0.07851791 -0.03167897 -0.04877197
000010 66 eb 26 be 7e f3 35 3e b5 27 11 be 60 05 17 bd
       -0.16300735 0.17768666 -0.14175303 -0.03687036
000020 3b 52 21 bc f7 07 ca 3e fb 22 f5 bd b6 0f 31 be
       -0.009846265 0.39459202 -0.119695626 -0.1729115
000030 aa 75 7d bd f1 38 c0 3e ae 9b b3 3e aa c2 77 bd
       -0.06187979 0.37543443 0.35079712 -0.06048838
000040 0d a3 90 bc ca 43 f0 bc d7 4a 40 3e 63 a2 6f bd
       -0.017655874 -0.0293292 0.18778549 -0.058504473
000050 34 32 66 3d 85 cc 0a 3d 23 5e 9e bd be 49 1a 3e
       0.05620022 0.03388645 -0.07732799 0.15067193
000060 cd 0c f8 bd 43 2d 05 3e 4d 1d b9 bd 5f 19 22 bd
       -0.121118166 0.13005547 -0.09038792 -0.039574977
000070 de b2 87 3c e0 1b 29 bd 4a e7 57 3e 35 0b 8e 3e
       0.016564783 -0.04128635 0.21084324 0.27742925
000080 61 50 59 3e c2 41 a5 bd 1a fa 84 3e db 91 dc 3c
       0.21222068 -0.08069183 0.25972062 0.026925018
000090 74 4a 90 be 3f 4f 19 be 7d d4 42 bd 16 d9 42 ba
       -0.28181803 -0.14971636 -0.047565926 -0.0007432861

encoder.conv.convs.4.lin.weight f4 [40, 40]
000000 28 50 e9 3d 92 1a 12 be ea c9 99 bf 32 58 be 3e
       0.11392242 -0.14267948 -1.2014744 0.37176663
000010 8a 2b ed be 57 4e 34 3e 02 3b 75 3e bd 68 d5 bd
       -0.4632228 0.1760801 0.23948291 -0.10420368
000020 10 6e 89 3e 5d 3b 49 3d f8 ed b4 3d 48 95 1b 3c
       0.26841784 0.04912888 0.088344514 0.009496041
000030 c8 1c 2f 3e 83 17 1c 3e 9a 38 af 3d 11 94 01 bf
       0.17100823 0.15243344 0.08555718 -0.50616556
000040 d8 73 bf be 2b b4 9e 3e 97 66 2f be f2 06 48 3e
       -0.3739307 0.30996832 -0.17128979 0.195339
000050 47 94 11 3e 52 3d e5 3e 05 56 d9 bc 1d 68 8f be
       0.1421672 0.44773346 -0.026530275 -0.2800912
000060 3d 0d 4d 3e e6 10 44 be dc 6f ca 3c 2a f4 d2 bd
       0.20024581 -0.19147071 0.024711542 -0.10300477
000070 66 bf 72 3d e2 9a 5b 3e dc 96 cc bc e7 3d 45 3e
       0.059264563 0.21445802 -0.02497428 0.19261895
000080 51 8c 11 3e df 74 9c be 2f 41 6d bf 58 37 54 3d
       0.14213683 -0.30557916 -0.9267759 0.051810592
000090 55 57 1e 3e 67 30 48 be ff e3 a8 be af 2b 88 be
       0.15463002 -0.19549714 -0.32986447 -0.26595828
0000a0 4d 17 82 3e 1c df 84 bd 41 f1 3f be 6f 48 81 be
       0.25408402 -0.06487867 -0.18744375 -0.25250575
0000b0 1d ba f4 bc 04 c0 62 bd 45 4b ab bd 20 5d 4e 3e
       -0.029873902 -0.0553589 -0.08363966 0.20152712
0000c0 78 25 13 3e 48 6a 82 bc b0 70 07 be 37 b0 70 be
       0.14369762 -0.01591982 -0.1322658 -0.2350472
0000d0 3c ce 43 3e ad ce e7 bd ae f5 db 3d 4f 58 3a 3e
       0.19121641 -0.11318717 0.10740219 0.1819775
0000e0 b1 3e 3a 3e 53 88 54 3e e6 b4 50 3e b8 d9 79 be
       0.18187977 0.20755129 0.20381507 -0.2439946
0000f0 1d 50 1a 3d 70 00 4c be a7 ce 42 3d a5 9a 9b bc
       0.03767406 -0.19922042 0.04756036 -0.018994639
000100 8a 97 2d be b2 01 96 be 16 76 db bd cc 93 a8 3d
       -0.16952339 -0.29298168 -0.107158825 0.08231315
000110 bb 8f 91 be ec ac 66 be 4b 22 8e bc 1f 2d 6f 3d
       -0.2842997 -0.22526902 -0.017350337 0.05839264
000120 c0 53 66 be f3 b9 23 be fe f0 31 3c a2 1f ab bb
       -0.22492886 -0.15988903 0.01086068 -0.005222277
000130 a7 0f 29 be f1 93 64 3d c2 c0 24 3e de 51 3d 3e
       -0.16509877 0.05580515 0.16089156 0.18488261
000140 10 f4 04 3e 33 42 55 be 6a b8 71 bd 62 c7 8b be
       0.12983727 -0.20826034 -0.05901376 -0.27300555
000150 69 81 af 3b 9c 40 64 be b8 85 82 be 50 22 9c bd
       0.005356003 -0.22290272 -0.25492644 -0.07623732
000160 05 9e 9f 3b 6f b3 21 be ee be 82 be 89 be 28 be
       0.0048711323 -0.15791105 -0.25536293 -0.16478933
000170 4f 3e 94 be 56 0d 36 3d 94 1b 36 bd f3 f2 b0 bd
       -0.28953788 0.044446312 -0.044459894 -0.08640089
000180 1e 32 01 be 8a af e1 3d 47 db 1b 3e 5e 4a 62 be
       -0.12616774 0.110198095 0.15220366 -0.22098681
000190 aa dd 41 3e 5f e2 53 3d 87 dc 84 be f3 a2 02 bd
       0.18932214 0.051729556 -0.259495 -0.03189368
0001a0 d7 6f 0a 3b b9 9a 8e bc 27 e9 03 3e 9b 18 2f be
       0.002112379 -0.017407762 0.1288191 -0.1709923
0001b0 f5 65 b5 bd a2 f2 f0 3d de f8 7c 3e ad ca 1b be
       -0.088573374 0.117650285 0.2470431 -0.15214033
0001c0 a1 71 4b be 3d 78 ca bd a4 66 bd bd fc 8a 02 be
       -0.19867565 -0.09886215 -0.09248093 -0.12748331
0001d0 76 ff 23 3e b2 6a 46 be 73 af 56 be 8f d1 0c be
       0.1601542 -0.19376639 -0.20965366 -0.13751815
0001e0 10 35 4b 3e c0 ae 83 be b0 be 06 3e 34 1d 0a be
       0.1984446 -0.2571926 0.13158679 -0.13487703
0001f0 a7 b7 9a be 7e 20 d1 3d cc b8 c2 3d 08 25 2b 3e
       -0.3021824 0.102112755 0.095079035 0.16713345
000200 87 eb 08 3e 62 66 78 3d 5f ed a2 be fe b8 08 be
       0.13371097 0.060644515 -0.31821725 -0.13351819
000210 87 7b 5e be a0 23 4d 3e 33 05 b9 3c f2 8b 41 3d
       -0.2172681 0.20033121 0.022585487 0.047252603
000220 f0 fe 4f be 9c ed e6 3d 0a d0 17 be b3 fc 66 be
       -0.20312095 0.11275789 -0.14825454 -0.22557335
000230 e4 eb 35 3c b6 1a 18 be 13 5f 46 3e 3a 84 d8 bd
       0.011103604 -0.1485394 0.19372205 -0.10572095
000240 06 fa 9f bd ac 02 b7 3c fa 8e 96 bd c2 99 32 3d
       -0.0781136 0.022340141 -0.07351489 0.043603666
000250 cf 00 65 3e 7e 5b 21 be 14 19 11 3e 92 e1 62 3e
       0.2236359 -0.15757558 0.14169723 0.22156361
000260 c5 f8 40 bd 50 80 40 3e 4e 94 c4 bd 35 e8 03 3e
       -0.047112245 0.18798947 -0.095985994 0.12881549
000270 14 b0 4b be b1 e4 86 bd c3 93 b4 3d 25 8f 57 be
       -0.19891387 -0.06586588 0.08817246 -0.21050699
000280 67 b4 b9 bd 3d 45 1b 3d 99 69 d6 3d a8 c0 b8 bd
       -0.09067612 0.037907828 0.1046936 -0.09021121
000290 c2 70 3d be b6 a2 e0 bd 10 2c 6b bd 25 3a c0 3d
       -0.18500045 -0.10968535 -0.05741507 0.0938609
0002a0 61 0f c7 be b3 b7 37 be d7 7c aa bd 1b e7 29 3d
       -0.3887892 -0.1794117 -0.083245926 0.041480165
0002b0 4c cb 01 bd 8e 57 85 be 42 ab 39 3e 4b 6d 10 be
       -0.03168802 -0.2604336 0.18131736 -0.14104192
0002c0 73 79 77 be 98 6c a3 3e 9d 31 c4 bc 42 ba 8f 3d
       -0.24167423 0.31918788 -0.023949439 0.07017948
0002d0 20 72 58 be 28 54 da bb 5d 56 41 3d 7e 8d c5 be
       -0.21137285 -0.0066628642 0.047201503 -0.38584512
0002e0 7a 80 42 3e af 39 52 3e a5 57 1d be 11 8a bd bd
       0.18994322 0.20529817 -0.15365465 -0.0925485
0002f0 87 6c 92 be 1f 7b 65 3e b2 8a 2b bb 02 39 49 3e
       -0.28598425 0.22410248 -0.0026175198 0.19650653
000300 34 c1 31 3e 39 ac a8 be ae e0 3d 3e 7e 04 98 be
       0.17358857 -0.32943895 0.1854274 -0.29690927
000310 60 fb 73 bd 69 c4 a1 bd 4a 4a 85 be 13 a4 1f bd
       -0.0595659 -0.078987904 -0.2603324 -0.038974833
000320 e2 82 ed bc b0 f3 18 3d d2 02 8c bf d9 bd 92 3e
       -0.028993074 0.037341774 -1.0938361 0.28660467
000330 41 a6 a8 be d8 dd 40 be 66 58 67 bc 1d ad 11 3d
       -0.32939342 -0.18834627 -0.014120197 0.035565484
000340 25 21 af 3e 6f 12 77 3e af df b6 3c 61 36 e8 3d
       0.34204975 0.24128126 0.022323458 0.11338497
000350 a0 99 09 3e e3 ed 42 be 08 38 a4 bd 8d 93 cd be
       0.1343751 -0.19036059 -0.080184996 -0.40151635
000360 f7 56 70 be c8 53 80 3e 70 4a fb 3d 7d f4 9a 3e
       -0.23470674 0.2506392 0.12270057 0.30264655
000370 cd 0c 19 3d 22 7e be 3e 7b b3 c2 3c 8e b9 07 bf
       0.037365723 0.37205607 0.023767224 -0.5301751
000380 09 10 43 be b5 8e a9 be 9c fb de be ee 01 40 3e
       -0.19049086 -0.3311669 -0.43551338 0.18750736
000390 b2 d7 79 3d d2 97 ef bd 81 5a 48 be 4b 3a 9a bd
       0.06099672 -0.11698879 -0.19565775 -0.0753065
0003a0 d7 fb 38 3e 9b 8b 77 be ae 86 7c bf 64 d2 64 bd
       0.1806482 -0.24174349 -0.98643005 -0.055864707
0003b0 73 e9 99 3e 83 0d 63 3e d8 45 a2 be e2 02 1e bd
       0.3006092 0.22173123 -0.31693912 -0.038576968
0003c0 5f a5 b9 bd 2e 3a f3 3d b7 78 76 be 50 8a 13 bd
       -0.09064745 0.11876331 -0.24069487 -0.036020577
0003d0 f8 9b c6 bd 8b fd e5 3d 97 42 16 be ba eb ed 3c
       -0.096977174 0.1123 -0.1467384 0.029043067
0003e0 0e 7b a2 bd dc 8b f9 3d 08 5d c3 3e 3f 4f 84 3d
       -0.07933627 0.12184879 0.38156915 0.064604275
0003f0 ef 37 d8 bc f3 8b 01 3e a0 bf 4a bd 25 1a 67 be
       -0.026393859 0.12651043 -0.049499154 -0.22568567

encoder.conv.convs.5.bias f4 [40]
000000 e8 b2 17 be cc 67 83 3d 82 34 e1 3d 45 25 32 bd
       -0.14814341 0.06416282 0.10996343 -0.043492574
000010 d4 04 bb 3d 61 4e dc 3e 1d 58 70 bd 34 07 91 bd
       0.0913178 0.43028548 -0.05867778 -0.07081452
000020 ba c6 46 bd b4 19 7d 3e f3 d1 24 3e 5a 5c 13 bd
       -0.048529364 0.24716836 0.16095714 -0.035976745
000030 d6 75 aa be c4 53 f7 bc 2d d9 24 bd 0b 02 b2 3b
       -0.33293027 -0.03019131 -0.040246177 0.0054323724
000040 07 a5 64 bd dc 2a d3 bd ec c8 c4 bb 04 c2 aa 3e
       -0.055821445 -0.10310909 -0.006005397 0.33351147
000050 21 10 9f bd f1 a2 35 bd 07 ac f0 bd 07 6f c9 3d
       -0.07766748 -0.044344846 -0.117515616 0.0983563
000060 ff 5d d8 bc e4 d2 bc bd d3 2e b0 3e 20 e4 6f 3c
       -0.026412008 -0.09219912 0.34410724 0.014641792
000070 b9 70 69 bd 35 b8 4b 3d 6f 67 ea 3d 40 0b 03 be
       -0.056992266 0.04973622 0.1144551 -0.1279726
000080 67 0e f8 3e e7 28 3f be b1 7a 95 3d bb c1 f6 3d
       0.48448488 -0.18667947 0.07298792 0.1204867
000090 d2 30 05 be ea 93 02 3e 19 db 2a be b2 6f f1 bd
       -0.13006905 0.12751737 -0.16685142 -0.11788882

encoder.conv.convs.5.lin.weight f4 [40, 40]
000000 2b a1 25 3e 30 e0 eb bd c0 0c 95 3d f3 e9 08 3e
       0.16174762 -0.1151737 0.072778225 0.13370495
000010 86 bb ff bd 31 c7 9a be b8 ee c4 3e 67 c6 14 bd
       -0.12486939 -0.30230096 0.38463378 -0.036322024
000020 88 af 79 be 79 b2 bd be 25 77 c2 bc 17 e1 e4 3b
       -0.24383366 -0.37050226 -0.023738453 0.0069848406
000030 c7 0f 8a be d3 11 a9 bc 33 4e 9b 3d 8d 96 22 3e
       -0.26965162 -0.020638382 0.07583275 0.15877743
000040 97 86 8a be bb 28 30 3c 4a df 6a be a1 4d 0f 3e
       -0.2705581 0.010751898 -0.2293674 0.13994457
000050 cc ef f9 3d 8f f6 bc 3d 6c 06 52 3d 1a e7 fc bc
       0.12203941 0.09226715 0.051275656 -0.030871917
000060 62 2c 7f 3d a3 b3 50 3e 04 88 d4 ba 09 a9 90 bd
       0.062298186 0.20381026 -0.0016214852 -0.07063491
000070 d3 77 1c 3e 5c 16 a7 3d a5 f2 25 3d c7 cb dd bd
       0.15280084 0.081585616 0.040514607 -0.10829883
000080 a5 14 84 be 28 e7 2d 3d 02 c6 69 be 8f b5 49 be
       -0.25797 0.042456776 -0.2282944 -0.19698165
000090 64 b1 c6 3d 6f ec 2c 3e d0 25 20 3e 2d 8d 40 3e
       0.09701803 0.16887067 0.15639424 0.18803854
0000a0 b0 cc 10 3f 4f 2e 94 bd 3e 23 28 be 62 fd 46 3d
       0.5656233 -0.07235395 -0.16419694 0.04858149
0000b0 66 c8 b8 be 9f 42 44 3f 5c 4c ec 3e b2 3b 0b 3e
       -0.36090392 0.76664156 0.46152008 0.1359699
0000c0 16 e3 17 3e 74 2b 4d 3e 69 b7 34 bd a3 53 f9 bb
       0.1483272 0.20036107 -0.044120226 -0.007608847
0000d0 7e 3d f6 bd 60 28 04 3e 16 86 be bd bd 00 9c be
       -0.120234475 0.12906027 -0.093029186 -0.30469313
0000e0 f3 a1 80 3d 4d 7c ab be 9a 25 26 3e 36 2a ea 3c
       0.06280889 -0.3349327 0.16225281 0.02858458
0000f0 43 cb 0c 3d cc fc a7 3e 65 98 64 bd 73 4b bb 3e
       0.034373533 0.32810056 -0.055809397 0.36581
000100 62 a3 2e bd 7c 6a e0 bd 47 14 af 3d 41 8d f6 bb
       -0.042636283 -0.1095781 0.085487895 -0.007524163
000110 e5 81 9d 3d 42 45 2d 3d 7a c0 7c 3f b8 a2 a3 3e
       0.07690791 0.042302378 0.98731196 0.31960082
000120 d6 2c fc bd 63 a5 36 be 84 ec ed bd 8f 37 7c be
       -0.12313239 -0.17836528 -0.116173774 -0.24630569
000130 79 63 3c be be 12 d3 bd e4 e6 8b 3e 8f 62 62 3e
       -0.18397321 -0.10306309 0.27324593 0.2210791
000140 1e bc 8d 3c f7 b6 46 3e e9 61 94 bd 1c bd 76 be
       0.017301615 0.19405733 -0.072452374 -0.24095577
000150 aa 52 b9 3b b8 14 44 3d 78 4f fc 3d ba 4f b4 bd
       0.0056556063 0.04787132 0.12319845 -0.08804269
000160 11 b5 28 3e b6 1d 02 be 6f 8a 0c 3e a4 4b c8 3d
       0.16475321 -0.12706646 0.13724683 0.09780052
000170 5a b1 1a be 8c 9c 0e 3e 1f 77 66 3e 7c 12 44 3d
       -0.15106717 0.13926905 0.22506379 0.04786919
000180 19 c8 39 be ba 44 94 3d 0a 71 84 bc 61 0d 86 3c
       -0.18142737 0.07239671 -0.016167182 0.016363801
000190 a4 d9 04 bd 1a 90 57 3d 26 a3 73 3e 54 8a 5c 3d
       -0.03243412 0.05262766 0.23792705 0.053842857
0001a0 8b 65 37 be e6 ba b6 3d 70 ee 71 be d3 c2 7f 3e
       -0.1790983 0.08922367 -0.23626113 0.24976663
0001b0 25 4f 26 bc 10 a2 10 be 2f 30 c9 be b5 44 d7 3d
       -0.010150705 -0.14124322 -0.39294574 0.10511152
0001c0 39 e1 c9 3d 86 1e cc bd a2 49 54 3d 20 2c ab 3d
       0.09857411 -0.099667594 0.051828034 0.083580256
0001d0 e2 06 84 be 08 f8 74 be ee 4a 83 be 2b 8b 94 be
       -0.257865 -0.23922741 -0.25643104 -0.29012427
0001e0 64 eb 65 be da cf c2 bd 48 62 ef 3c db cb 80 be
       -0.22453076 -0.09512301 0.029221669 -0.2515553
0001f0 db ec 12 3d c7 50 3e bd 63 c4 05 3e 2d d1 b7 3c
       0.035870414 -0.046463754 0.13063197 0.02243861
000200 0f 85 e0 bd f8 1f a0 be 6f a4 fc bd 2f 53 eb bd
       -0.10962879 -0.3127439 -0.12336051 -0.114904754
000210 81 d8 42 3d 19 27 83 be cf 42 ff 3c dc 2a bf 3d
       0.047569755 -0.25615767 0.031159787 0.09334347
000220 08 17 c4 3d 49 f9 47 be f7 09 0a be f7 9b 4a 3e
       0.09574705 -0.19528688 -0.13480364 0.19786058
000230 2f 9c 98 3d 32 71 40 be d2 f5 26 3e 62 d4 86 be
       0.07451665 -0.1879318 0.1630471 -0.2633391
000240 01 a3 81 3e 8f 8f c7 bd 9d 1f 7e be e6 81 80 3e
       0.25319675 -0.097441785 -0.24816747 0.25099105
000250 27 bd dd bd 6d 35 3d 3d 71 31 32 3c ac 9b 59 bd
       -0.108270936 0.04619353 0.010876046 -0.053126976
000260 59 93 5c 3e b3 06 64 3d 2e f5 a3 3c e2 6c 31 be
       0.21540584 0.05567045 0.020014372 -0.17326692
000270 8f 46 50 3e f4 0c 1b be 22 24 43 3e 7b fb 0c be
       0.20339416 -0.1514166 0.19056752 -0.13767807
000280 60 98 f6 3e f8 87 e5 bd b8 b3 66 3e 6f ae 2f 3e
       0.48163128 -0.112075746 0.22529495 0.17156385
000290 25 5b cb 3d 50 17 14 3f e4 46 3c 3e 57 74 81 3e
       0.09929494 0.5784807 0.18386418 0.25284073
0002a0 4a 8c ac bd 25 b1 7c 3e 47 26 6b be 54 fa 97 3e
       -0.084251955 0.2467695 -0.2296382 0.29683173
0002b0 0d ee 48 3e 2e 60 96 3d ed 99 af 3d 8a 5b 04 be
       0.19622059 0.073425636 0.08574281 -0.12925544
0002c0 99 9c a2 3d cb 97 6c be 99 c4 24 bd 89 af bc 3d
       0.07940025 -0.2310478 -0.040226553 0.09213168
0002d0 39 89 b5 be fe 19 de 3d 25 04 fe bd 1c 98 cb 3e
       -0.35456255 0.10844801 -0.12403134 0.39764488
0002e0 8d 99 34 be 72 31 c6 be 47 9f 2a 3d 5a 8c 8b be
       -0.176367 -0.387096 0.041655805 -0.27255517
0002f0 df 08 3e 3e ff 4e 7e bc f1 b7 1e 3f 03 e5 81 3d
       0.18558072 -0.015521764 0.6199942 0.06342509
000300 16 82 01 3e 34 e1 09 be 25 1f 6b 3d c5 e6 80 be
       0.1264728 -0.13464814 0.05740275 -0.25176063
000310 3b 63 92 3e 7f 4b e8 be 7b de 2d 3e c2 94 8b be
       0.28591332 -0.453701 0.16979401 -0.2726193
000320 31 fc 0d be b1 aa d7 3d ef 7c 59 ba da 33 38 be
       -0.13865735 0.10530604 -0.00082965096 -0.1798853
000330 b8 28 89 bc c2 c1 12 be e0 b6 8b bd 11 12 51 3a
       -0.016743049 -0.14331725 -0.0682199 0.00079754094
000340 18 0c 32 be d5 d2 a0 3e b8 93 62 be b4 ee 0a 3e
       -0.17387426 0.31410852 -0.22126663 0.1356762
000350 a5 d6 e1 3b 7b 35 2a 3e 54 d5 8d 3e 29 f6 c9 3d
       0.0068920427 0.16621964 0.2770182 0.098614044
000360 61 24 a0 bd 7c 6b 28 bc 65 2e c8 bc d7 1b e5 bd
       -0.07819439 -0.0102795325 -0.024436185 -0.11186951
000370 aa 4c 53 3e 0b 41 a5 3d 3b 2d 85 3d bf de 62 3d
       0.20634714 0.080690466 0.06502768 0.05538821
000380 ed 4d c5 bd 98 db 3d bd 01 96 60 3d 4d c5 61 be
       -0.09634004 -0.046352 0.054830555 -0.2204792
000390 ee 75 2f 3e 1f 60 0f be 28 d5 24 be 04 96 38 3e
       0.1713483 -0.14001511 -0.16096938 0.18025976
0003a0 1a 7e d2 3c c3 6a 75 be 46 1e 8d 3e f6 3b 9d 3d
       0.025694896 -0.23966508 0.2756216 0.07677452
0003b0 31 67 a9 bc 06 8a 36 be 7b c2 35 bd 8f 38 3d 3d
       -0.020679088 -0.1782609 -0.044374924 0.046196517
0003c0 79 8c e0 be 1f 52 3b be 82 52 0e ba 26 1e 1d be
       -0.43857172 -0.18293045 -0.0005429165 -0.15343532
0003d0 db f7 aa bd 45 1a 33 bf a1 44 14 bf 03 ad 85 be
       -0.08348056 -0.6996196 -0.5791722 -0.2610856
0003e0 3a 70 0c be ce 42 40 3e e4 19 bf 3d 00 f1 49 3d
       -0.13714686 0.18775484 0.0933111 0.0493021
0003f0 56 ed 53 be f9 74 d8 be 73 af 55 3d 2c a4 87 bd
       -0.20696005 -0.42276743 0.052169275 -0.0662311

encoder.conv.convs.6.bias f4 [40]
000000 6d 7b 87 bd 15 f3 d3 bd 3c 3f e4 3c c9 2b 99 3d
       -0.066153385 -0.103490986 0.027862184 0.074790545
000010 a0 4c b8 3d c9 35 cd bd 0b cc b7 3d d4 5d ee bd
       0.0899899 -0.10020024 0.08974465 -0.1163899
000020 87 fc 1b 3e e6 83 20 be 51 a6 90 3e 27 0c 02 bd
       0.1523305 -0.15675315 0.2825189 -0.03174987
000030 ef d3 b2 bd 00 00 00 00 3e 55 79 3e 67 c4 a3 3e
       -0.087318294 0.0 0.24348924 0.3198578
000040 7d 80 f8 3b d2 04 c3 3e bb 15 fa 3d 66 26 21 be
       0.0075836764 0.38089615 0.12211176 -0.15737304
000050 f7 10 0e be 64 b8 20 bd 28 4d 0e be 39 fa 43 3e
       -0.13873659 -0.03923835 -0.1389662 0.19138421
000060 1a 8c 9e 3e de 47 2e be 23 9c a7 bd c2 1c a2 be
       0.30966264 -0.17019603 -0.081840776 -0.31662565
000070 10 b5 64 bd 40 1e 15 be 88 7c 04 bd a1 4c fa 3d
       -0.055836737 -0.1456232 -0.032345325 0.12221647
000080 f6 c8 98 3e d7 a9 5a bd 5d 1e 01 be 25 a4 da 3d
       0.2984082 -0.05338463 -0.12609239 0.10675839
000090 b4 e9 a1 bd f0 7b 57 bd e0 0f aa bd 18 1e 26 3f
       -0.079059035 -0.05260843 -0.08303809 0.6488967
