results/model_GCN/graph_split_/layers_4/transform_False/alpha_-10.0/model.pt (torch, 35232 bytes, 13 tensors)

encoder.conv.convs.0.bias f4 [40]
0	0x3e2d7cb6	0.16942105
1	0x3e1f3999	0.15549316
2	0x3dbeedd3	0.09322705
3	0xbdaea19e	-0.0852692
4	0x3d97afb2	0.07406558
5	0x3ddc2320	0.10748887
6	0x3eaf65a8	0.34257245
7	0x3dfb2537	0.122629575
8	0xbd78a5b6	-0.06070491
9	0x3dda3df2	0.106563464
10	0xbcfb749c	-0.030695252
11	0x3d8fa6c6	0.070142314
12	0xbd45c2a3	-0.048281323
13	0x3e371406	0.17878732
14	0xbdb45a4f	-0.088062875
15	0x3e1dc705	0.15407951
16	0x3ddf38dc	0.10899517
17	0xbc84cdec	-0.016211472
18	0x3b450de9	0.0030068106
19	0x3d7cacd2	0.06168825
20	0xbac9d722	-0.0015399198
21	0xbd0ee10a	-0.034882583
22	0x3e12d169	0.14337696
23	0xbd83115d	-0.06399796
24	0x3d28f4b3	0.04124899
25	0x3d356aa0	0.04429114
26	0x3df8e66b	0.12153324
27	0xbcaa7ce2	-0.020811502
28	0x3d8967be	0.067092404
29	0x3de5b00d	0.1121522
30	0x3ceb29b6	0.028706413
31	0x3df40591	0.11915124
32	0xbd34c0c1	-0.044129137
33	0xbd463a77	-0.0483956
34	0x3e114e5a	0.14190045
35	0x3d1d81e5	0.038453955
36	0x3e0f70f0	0.14007926
37	0x3e119e8b	0.14220636
38	0x3de80584	0.11329177
39	0x3e6ce965	0.23135908

encoder.conv.convs.0.lin.weight f4 [40, 40]
0	0x3e112c27	0.14176999
1	0xbe6b12be	-0.22956368
2	0xbe31a8db	-0.1734957
3	0xbd34f0f3	-0.0441751
4	0x3e839b80	0.25704575
5	0xbddc7888	-0.10765177
6	0xbead2da2	-0.33823878
7	0x3bf9b5fe	0.007620572
8	0x3e081d3b	0.132924
9	0x3f6b059f	0.9180545
10	0xbe592255	-0.21204503
11	0x3d1f855e	0.03894555
12	0xbe1e0a3b	-0.1543359
13	0xbebcb3a0	-0.36855793
14	0x3ea0ff47	0.3144476
15	0x3ec49793	0.38396892
16	0x3e8d641a	0.27615434
17	0xbdc11287	-0.09427362
18	0x3f29f14c	0.66383815
19	0xbe8b01c2	-0.2714978
20	0xbd3df39b	-0.0463749
21	0x3f0a810e	0.5410317
22	0x3da0988e	0.078415975
23	0x3e740f62	0.23833993
24	0x3bc11cde	0.005893334
25	0x3e789a80	0.24277687
26	0x3eb8f7f7	0.36126682
27	0x3e4fd240	0.20295048
28	0xbee5f058	-0.4490993
29	0x3f13295c	0.57484984
30	0xbeb3eede	-0.3514318
31	0xbd6a63db	-0.057224136
32	0x3e4fa2a4	0.20276886
33	0xbac5a405	-0.0015078789
34	0xbe6e388b	-0.23263757
35	0x3e47139d	0.19441076
36	0xbe460b67	-0.19340287
37	0xbe4379c1	-0.19089414
38	0x3e986e5b	0.29771695
39	0xbe393fd5	-0.18090756
40	0xbc6fbc56	-0.014632305
41	0xbe433b39	-0.1906556
42	0xbe38024b	-0.17969625
43	0xbe72c6bb	-0.23708622
44	0x3eb6e172	0.35718876
45	0x3ec2edb3	0.38071975
46	0xbf0d044b	-0.55084676
47	0xbc11402e	-0.008865399
48	0xbd15f095	-0.03660639
49	0x3eda6991	0.42658666
50	0x3e69853f	0.22804736
51	0x3e8282c3	0.25490388
52	0x3d1b849d	0.037968267
53	0xbea6997f	-0.32538983
54	0x3f08c3fd	0.53424054
55	0x3e0e2252	0.1388028
56	0x3eb207db	0.34771618
57	0x3ebc7411	0.36807302
58	0x3f073133	0.5280945
59	0x3dfc82cc	0.12329635
60	0x3e5c855f	0.21535252
61	0x3c94c1ec	0.018158875
62	0xbe84dbaa	-0.2594884
63	0x3e4ef163	0.20209269
64	0x3c655677	0.013997666
65	0x3dd08817	0.10182207
66	0x3cdf393d	0.027248973
67	0xbdfeb5d9	-0.124370284
68	0xbcf8bf0d	-0.030364538
69	0x3f3f273e	0.74669254
70	0x3d98eb10	0.074667096
71	0x3d4ddf42	0.050261743
72	0xbcb84a68	-0.022496417
73	0x3e1dab9f	0.153975
74	0xbe2ba19a	-0.16760865
75	0x3e652c97	0.22380291
76	0x3d07c0e2	0.03314293
77	0x3e9c2d8a	0.30503494
78	0xbba3d8ab	-0.005000194
79	0xbca343cf	-0.019929795
80	0xbf09ce2f	-0.53830236
81	0xbedee281	-0.43532184
82	0x3f90e4b1	1.1319791
83	0xbc7c12a0	-0.0153853
84	0x3ef74ce8	0.48300862
85	0x3e6b2065	0.22961576
86	0xbe466626	-0.19374904
87	0xbe4300b3	-0.19043235
88	0xbf417160	-0.7556362
89	0xbe7b90ac	-0.24566907
90	0xbd677543	-0.056508314
91	0x3e48b3af	0.19599794
92	0xbeb04862	-0.34430224
93	0x3d77c03b	0.06048606
94	0x3f03bf63	0.5146391
95	0x3cf5e296	0.030015271
96	0x3da6a757	0.08137386
97	0x3c95d16f	0.018288342
98	0xbde17d0b	-0.11010178
99	0x3d7bdfd3	0.061492752
100	0xbe9ce3d3	-0.30642566
101	0xbf03ee77	-0.51535743
102	0xbe6651f2	-0.22492197
103	0xbe0f9160	-0.140203
104	0x3c5929c9	0.013254591
105	0x3d03ab6b	0.0321459
106	0xbea14509	-0.31497982
107	0x3e93f19d	0.28895274
108	0x3f0b56f7	0.5442957
109	0x3d94e979	0.07271094
110	0x3d7d85e8	0.06189528
111	0xbdaba135	-0.08380357
112	0xbe19db4d	-0.15025063
113	0x3e47708c	0.19476527
114	0x3f4a5e24	0.790499
115	0xbd9d899d	-0.07692263
116	0xbd838e2b	-0.06423601
117	0xbcb2550b	-0.021769067
118	0xbec47273	-0.38368568
119	0x3d5dd02a	0.0541536
120	0xbe14e3ee	-0.14540073
121	0xbe2c71b5	-0.16840251
122	0xbe991065	-0.2989532
123	0x3d509b44	0.050929323
124	0xbe825b93	-0.2546049
125	0xbde08d51	-0.10964454
126	0x3e8b18dc	0.27167404
127	0x3d161273	0.03663869
128	0x3e56430e	0.20924017
129	0x3b8b7915	0.0042563775
130	0xbd8c9dac	-0.06866011
131	0xbe5aadd7	-0.21355377
132	0x3ea61f4c	0.32445753
133	0xbe1dfc62	-0.15428308
134	0x3ca6068c	0.020266794
135	0x3e381735	0.17977603
136	0x3d9d261c	0.076732844
137	0xbd147844	-0.036247507
138	0xbe883dc2	-0.26609617
139	0xbca291ea	-0.019844968
140	0xbd4c4d13	-0.04987819
141	0xbe2fd1b8	-0.17169845
142	0xbe441928	-0.19150221
143	0xbe9f7df1	-0.31150773
144	0x3e4693c7	0.1939231
145	0xbe69b5ea	-0.22823301
146	0x3dfb4536	0.1226906
147	0x3e90cb2a	0.28280002
148	0xbeac1d9a	-0.33616334
149	0xbeaea200	-0.3410797
150	0x3e1536ac	0.14571637
151	0xbdbeeceb	-0.09322532
152	0x3e905e21	0.28196815
153	0x3e13abb4	0.14420968
154	0x3dbd833f	0.09253549
155	0xbe85253a	-0.26004964
156	0xbe0f63b8	-0.14002883
157	0xbebbc951	-0.3667703
158	0xbe4dbf07	-0.20092402
159	0x3e88cc8c	0.26718557
160	0x3d4197f2	0.047264047
161	0x3e7b0031	0.24511792
162	0x3ebb4bef	0.3658137
163	0x3e59f660	0.21285391
164	0x3ecb48ba	0.39703923
165	0x3e55d334	0.20881349
166	0x3ccd73b9	0.025079595
167	0x3eb4a603	0.35282907
168	0xbe7b4b3b	-0.24540417
169	0x3e63f75f	0.22262333
170	0x3d0e5eb4	0.034758285
171	0xbe476332	-0.19471434
172	0x3e954237	0.2915208
173	0xbe6da301	-0.23206712
174	0x3e48de35	0.19616015
175	0xbd7c7075	-0.061630685
176	0xbd1fb9eb	-0.038995665
177	0x3db24bf4	0.08705893
178	0x3e6f9722	0.23397496
179	0x3de45627	0.11149245
180	0xbe7418d8	-0.23837602
181	0x3da9c774	0.08289996
182	0x3eef1159	0.46692923
183	0xbdac746e	-0.08420645
184	0x3e281eda	0.16418019
185	0xb9be2c61	-0.0003627269
186	0xbe39e243	-0.18152718
187	0xbe3f4b01	-0.18680955
188	0xbe4285c1	-0.18996336
189	0xbde71c57	-0.11284702
190	0x3e0ca45b	0.13734572
191	0x3c903848	0.017604962
192	0x3dbc2101	0.091859825
193	0x3e37c441	0.17945959
194	0x3db2971c	0.08720228
195	0x3d0382f5	0.032107312
196	0x3ec7043d	0.3887042
197	0xbe642295	-0.22278817
198	0xbdcacd1b	-0.09902402
199	0x3e7f5b4e	0.24937174
200	0xbe63bd6a	-0.22240224
201	0xbe34e0b1	-0.17663838
202	0xbce05b36	-0.027387243
203	0xbba09075	-0.004900033
204	0x3e264d23	0.16240363
205	0x3e4eaf98	0.20184171
206	0xbe336eba	-0.17522708
207	0x3d72ef3f	0.059310194
208	0xbd3932b4	-0.04521437
209	0x3e53f0bb	0.206973
210	0x3e197d60	0.14989233
211	0xbd9516b9	-0.07279725
212	0xbe2c4e2e	-0.16826698
213	0xbd20104a	-0.039078034
214	0x3eefbd49	0.468241
215	0xbe183c28	-0.14866698
216	0x3e9f5c92	0.31125313
217	0xbb2293fb	-0.0024807442
218	0x3d420bef	0.047374662
219	0x3e6401cd	0.22266312
220	0x3e8de409	0.2771304
221	0x3daa0dec	0.08303437
222	0xbe97af4d	-0.2962593
223	0xbbf669c6	-0.0075199334
224	0xbd1f28a6	-0.038857125
225	0x3da93846	0.082626864
226	0xbe30f649	-0.1728145
227	0x3a29c1dd	0.0006475726
228	0x3e74500a	0.23858657
229	0x3eddd999	0.43330076
230	0x3dab24b4	0.0835661
231	0x3e50d1d9	0.2039255
232	0xbe99b5e1	-0.30021575
233	0xbda1eb60	-0.07906222
234	0x3e2dd843	0.16977029
235	0x3e6ea57d	0.23305316
236	0x3d1ce65c	0.038305625
237	0xbe0ec62c	-0.13942784
238	0xbe097aaa	-0.13425699
239	0xbe465283	-0.19367413
240	0xbe498318	-0.19678915
241	0x3e59c174	0.21265203
242	0x3f1526e2	0.58262455
243	0xbeb267ef	-0.3484492
244	0x3e50a232	0.20374373
245	0x3f09cf38	0.53831816
246	0xbee9ccea	-0.4566415
247	0xbf54b811	-0.83093363
248	0x3d4bc25b	0.0497459
249	0x3ebd4ef3	0.36974296
250	0x3d94da3f	0.0726819
251	0x3f2bbdbf	0.67086405
252	0xbf6c6108	-0.9233556
253	0xbf2b7901	-0.6698151
254	0x3f16572a	0.5872675
255	0xbe9eefe2	-0.3104239

encoder.conv.convs.1.bias f4 [40]
0	0x3c6a6dc8	0.0143084
1	0x3d37d323	0.04487909
2	0xbcda5d6c	-0.026655875
3	0x3e13422c	0.14380711
4	0xbd37e99d	-0.044900525
5	0x3d162db9	0.0366647
6	0x3c3c5c58	0.011496626
7	0xbd61af77	-0.055098977
8	0x3e00ea94	0.12589484
9	0xbe2d43d0	-0.169204
10	0x3c73f6b3	0.014890361
11	0x3df4a263	0.11945035
12	0x3dad0b86	0.084494635
13	0x3db797e1	0.089645155
14	0x3cfc6b99	0.030813025
15	0x3e23078f	0.15920852
16	0x3dab5003	0.083648704
17	0x3dc6fbe4	0.09716013
18	0xbdc623ae	-0.09674774
19	0x3cdf1af5	0.027234534
20	0x3db32613	0.087474965
21	0x3df00dd6	0.11721389
22	0xbd45b568	-0.048268706
23	0x3d941b11	0.07231725
24	0x3d2f791a	0.0428401
25	0x3e2cb124	0.16864449
26	0xbdbb8b3a	-0.09157415
27	0x3df6b9b3	0.12047138
28	0xbd4bb314	-0.04973133
29	0x3c665f79	0.014060848
30	0x3da2e70d	0.07954226
31	0x3dfd7a19	0.12376804
32	0xbd587a18	-0.052850813
33	0xbd24b790	-0.04021412
34	0x3d96ba2d	0.07359729
35	0x3c7e517e	0.015522359
36	0x3db8ccec	0.09023461
37	0x3de3d199	0.11123962
38	0xbce66cf5	-0.028128127
39	0xbd16f2af	-0.036852535

encoder.conv.convs.1.lin.weight f4 [40, 40]
0	0x3f1ed7cd	0.62048036
1	0x3e571453	0.21003847
2	0x3ed61a60	0.41816998
3	0x3e058c4a	0.13041797
4	0x3e0377bb	0.12838642
5	0x3ea30c70	0.31845427
6	0xbe95528c	-0.2916454
7	0x3eb74f9f	0.35802934
8	0xbe2ad574	-0.16682988
9	0x3e64c5da	0.223411
10	0x3e480847	0.19534408
11	0x3dd19ca0	0.10234952
12	0xbebd65d7	-0.3699176
13	0x3ea40b49	0.3203986
14	0xbe40c9c5	-0.18826969
15	0x3dc14759	0.094374366
16	0x3ecc583f	0.39911076
17	0xbe85f932	-0.26166683
18	0x3e8d6200	0.2761383
19	0x3e2fea7a	0.1717929
20	0xbe58db64	-0.21177441
21	0x3bf488e7	0.007462609
22	0x3eacd295	0.3375441
23	0xbe4709e7	-0.19437371
24	0x3eb164f8	0.34647346
25	0x3e51288e	0.20425627
26	0x3e8ca522	0.27469736
27	0xbe24830c	-0.16065615
28	0xbe0db03d	-0.13836761
29	0x3c1e21be	0.009651599
30	0x3d90dc13	0.07073226
31	0x3e00e5c3	0.12587647
32	0x3d8d874a	0.0691057
33	0xbfddc9a3	-1.732716
34	0x3e336e2e	0.17522499
35	0xbcbeda9e	-0.023297604
36	0x3d44f3c8	0.04808405
37	0xbdf4a0af	-0.119447105
38	0x3e9d4196	0.307141
39	0x3cb46d7d	0.022024864
40	0xbf351c20	-0.7074604
41	0xbec44af0	-0.38338423
42	0xbee5d021	-0.44885352
43	0xbe2157a1	-0.15756084
44	0xbe80fba2	-0.2519198
45	0x3db97606	0.09055714
46	0x3f2c5914	0.6732342
47	0xbe488f85	-0.19585998
48	0x3e8247e5	0.25445476
49	0xbf56bacc	-0.8387878
50	0x3e4fb421	0.20283557
51	0xbd999b94	-0.07500377
52	0x3e157af9	0.14597692
53	0xbea71830	-0.3263564
54	0xbdbd224c	-0.09235057
55	0xbe825b27	-0.2546017
56	0x3d0134a6	0.03154435
57	0x3e863927	0.2621548
58	0x3dfae3bd	0.12250469
59	0x3d942891	0.072343
60	0xbc8ba3ad	-0.01704582
61	0xbe904f42	-0.2818547
62	0xbe9a782f	-0.30169818
63	0x3e73e572	0.23817995
64	0x3d944e12	0.07241453
65	0x3da47d62	0.080317274
66	0xbe962d37	-0.2933137
67	0x3e21a160	0.15784216
68	0x3d18638b	0.037204307
69	0xbd0f2c76	-0.03495451
70	0x3e15ed47	0.14641295
71	0xbee4a95c	-0.4466046
72	0xbd57a510	-0.05264765
73	0xbe094776	-0.13406166
74	0x3e062f14	0.13103896
75	0xbe8fddba	-0.2809885
76	0xbe9adad8	-0.3024509
77	0xbe9742ea	-0.2954324
78	0x3da918d7	0.08256691
79	0xbedec6db	-0.4351109
80	0xbe09c1c0	-0.13452816
81	0xbc26f6f8	-0.010190718
82	0x3eb843dd	0.35989276
83	0xbc049e73	-0.008094418
84	0x3e58b678	0.21163356
85	0x3e8dc47f	0.27688977
86	0x3b6a70a5	0.0035772708
87	0xbdea0347	-0.11426406
88	0xbe1bce73	-0.15215473
89	0xbcf40b0c	-0.029790424
90	0x3da21e2d	0.07915912
91	0xbeb01f4c	-0.34398878
92	0x3dcd6bbf	0.100303166
93	0x3e6147be	0.22000024
94	0xbe338c4a	-0.17533985
95	0xbea70b5e	-0.3262586
96	0xbd806042	-0.0626836
97	0x3d927806	0.07151799
98	0x3cdd1aa3	0.02699024
99	0xbe312ebb	-0.17302983
100	0x3e0773cd	0.13227768
101	0xbe4b7eb4	-0.19872552
102	0xbd75a198	-0.05996856
103	0x3dfacbec	0.12245926
104	0xbe967edf	-0.2939367
105	0xbd89b020	-0.06723046
106	0xbe323e9a	-0.17406693
107	0x3e1565e5	0.14589651
108	0xbd07cfa0	-0.03315699
109	0x3cf67804	0.030086525
110	0xbd1a53b3	-0.037677478
111	0x3ea2658c	0.317181
112	0xbe71eccb	-0.23625486
113	0xbdc1223c	-0.09430358
114	0xbe477b90	-0.19480729
115	0xbe9830a4	-0.2972461
116	0x3cbe75fa	0.023249615
117	0xbe80c8ca	-0.2515319
118	0x3d55bf65	0.05218448
119	0xbea027e0	-0.31280422
120	0xbe97c4fd	-0.29642478
121	0xbe08836f	-0.13331388
122	0x3ddde125	0.108339585
123	0x3e1bcbbe	0.1521444
124	0xbe83689c	-0.25665748
125	0xbe27f7f5	-0.16403182
126	0xbdce0ef5	-0.100614466
127	0x3ea3f518	0.3202293
128	0xbd6acfe9	-0.057327185
129	0xbe474e5c	-0.19463485
130	0x3e57edbc	0.21086782
131	0x3d939fbe	0.07208203
132	0x3de81e21	0.11333872
133	0x3cdc02d8	0.026856825
134	0xbd8af9c5	-0.06785921
135	0xbca4706b	-0.020073136
136	0xbe2cb608	-0.16866314
137	0x3e2f03a4	0.17091233
138	0x3cf44902	0.02981997
139	0x3eb43c2f	0.35202166
140	0x3e0416ec	0.12899369
141	0x3e1c4142	0.15259269
142	0xbe447b1c	-0.19187587
143	0xbdff1d6a	-0.12456782
144	0xbd171f04	-0.036894813
145	0x3aac24f5	0.0013133573
146	0x3dabf57c	0.08396432
147	0xbdc434aa	-0.095803574
148	0xbe2fcfdc	-0.17169136
149	0xbe66cea9	-0.22539772
150	0x3ead80ca	0.3388732
151	0x3c9ab8af	0.018886892
152	0x3e9de7f7	0.30841038
153	0xbded88c4	-0.115983516
154	0x3da6e916	0.08149926
155	0xbe22eb50	-0.15910077
156	0x3c91520b	0.017739316
157	0xbd7d9d28	-0.061917454
158	0x3e9ede9d	0.31029215
159	0xbec73a31	-0.38911584
160	0xbe0e3104	-0.13885885
161	0xbea173aa	-0.31533557
162	0xbe4e99bd	-0.20175834
163	0xbd230e58	-0.0398086
164	0xbcbbb5f0	-0.022913903
165	0xbeaba514	-0.33524382
166	0xbe90b099	-0.28259733
167	0xbd928beb	-0.071555935
168	0xbb1af0c8	-0.0023642052
169	0xbcdff7dd	-0.02733987
170	0x3c225858	0.009908758
171	0x3e6d8a49	0.23197283
172	0xbd08fdf2	-0.033445306
173	0x3e22981d	0.15878339
174	0xbd7ea5ee	-0.06216996
175	0xbe66ae78	-0.22527492
176	0x3dcab713	0.098982
177	0x3e528315	0.20557816
178	0x3e06704c	0.13128775
179	0xbea2f65b	-0.3182858
180	0xbe884bf3	-0.26620445
181	0xbdcca4da	-0.099923804
182	0x3e397021	0.1810918
183	0xbe1d8658	-0.1538328
184	0x3bd6a247	0.0065501067
185	0xbea838f5	-0.32855955
186	0x3e1ec7aa	0.15505853
187	0x3e317b7b	0.1733226
188	0x3e2efd61	0.17088844
189	0x3e0271c2	0.12738708
190	0x3d064416	0.032779776
191	0xbe7a0be4	-0.24418598
192	0xbe968671	-0.29399446
193	0xbd44440d	-0.04791646
194	0xbccc45b2	-0.024935577
195	0xbe6a6530	-0.22890162
196	0x3e2f83fa	0.17140189
197	0x3dcdca3a	0.10048337
198	0x3e097db3	0.13426857
199	0xbe538054	-0.20654422
200	0xbf4b43f9	-0.79400593
201	0xbf03e3e1	-0.5151959
202	0xbf623e1f	-0.8837604
203	0x3ed135ff	0.40861508
204	0xbe1bb7c7	-0.15206824
205	0xbe8f1285	-0.27943817
206	0x3f73214f	0.949727
207	0xbd2f21cc	-0.04275684
208	0x3ea219fb	0.31660447
209	0xbf595620	-0.8489704
210	0xbe0bc1fc	-0.13648218
211	0x3ec2b42e	0.3802809
212	0xbe4bf5f2	-0.1991804
213	0xbe8f633b	-0.28005394
214	0x3da7f8b6	0.08201735
215	0xbee4a0cc	-0.44653928
216	0x3cd8bd99	0.026457595
217	0x3e4f0b39	0.20219125
218	0xbe3ca6b6	-0.1842297
219	0xbf1f1440	-0.62140274
220	0xbc16b187	-0.009197599
221	0xbe7d9a37	-0.2476586
222	0xbf2c1bd1	-0.67229944
223	0x3e0f88cb	0.14017026
224	0x3e37cec6	0.17949972
225	0x3e149507	0.14509974
226	0xbe8fd863	-0.28094777
227	0xbdb2f0fb	-0.087373696
228	0x3ea0dfe0	0.31420803
229	0xbe0f06f2	-0.13967493
230	0x3e9a6843	0.3015767
231	0x3da0fbdc	0.07860538
232	0x3cf9ed8e	0.030508783
233	0x3ea26391	0.31716588
234	0xbe032ea2	-0.12810758
235	0xbec7c62e	-0.39018387
236	0xbf218714	-0.6309674
237	0xbcd5f457	-0.026117487
238	0xbe2e5160	-0.1702323
239	0x3e836bf6	0.25668305
240	0x3f01d0ae	0.50709045
241	0x3e9e265e	0.30888647
242	0x3e9a7708	0.3016894
243	0xbe6501eb	-0.22364013
244	0xbc3589bc	-0.011080202
245	0x3e00b3e4	0.12568623
246	0xbe919187	-0.2843134
247	0xbda4b7f3	-0.08042898
248	0xbdc7f087	-0.09762674
249	0x3f15b55d	0.58479863
250	0x3e864e1e	0.26231474
251	0xbeb8f256	-0.36122388
252	0xbe60006b	-0.2187516
253	0xbdd5a773	-0.10432329
254	0xbdbffdeb	-0.09374603
255	0x3d1e8f45	0.03871085

encoder.conv.convs.2.bias f4 [40]
0	0x3e041d94	0.12901908
1	0x3def984b	0.116989695
2	0xbcb249b3	-0.021763658
3	0x3e0a139e	0.13484046
4	0xbd081f8e	-0.033233218
5	0x3dbd52ce	0.09244309
6	0x3dfa723c	0.1222882
7	0x3e296f03	0.16546254
8	0xbd00f63a	-0.03148482
9	0x3e81d79c	0.2535981
10	0xbca50ff5	-0.02014921
11	0x3dda9fb4	0.10674992
12	0xbdc5abdb	-0.096519195
13	0xbd397bf8	-0.04528424
14	0x3e3424d2	0.17592171
15	0x3e42f05b	0.19037001
16	0x3dfc82b6	0.12329619
17	0x3dedf154	0.11618295
18	0x3e8c9102	0.27454382
19	0x3d8d5db8	0.06902641
20	0x3e182348	0.14857209
21	0x3e09b3b5	0.13447459
22	0x3ddba588	0.10724932
23	0x3e4014ed	0.18757983
24	0x3d89b0e5	0.06723193
25	0xbdadbad8	-0.08482903
26	0x3def11ce	0.11673318
27	0x3e559885	0.20858963
28	0xbde55474	-0.11197749
29	0x3d491ab5	0.049097735
30	0x3e62498f	0.22098373
31	0x3dd07e98	0.10180396
32	0x3c5407cd	0.012941313
33	0xbc80fe5c	-0.015746288
34	0xbdc2a7cf	-0.09504663
35	0xbbc22a29	-0.005925436
36	0x3e6fdec2	0.23424819
37	0x3c72e296	0.01482453
38	0x3c9b7221	0.01897532
39	0xbc9a239d	-0.01881581

encoder.conv.convs.2.lin.weight f4 [40, 40]
0	0x3f1d968e	0.61557853
1	0xbe14aa70	-0.14518142
2	0xbe74ac93	-0.23893957
3	0xbc6407f6	-0.013917914
4	0x3d96ba1c	0.07359716
5	0x3e5fee09	0.21868147
6	0xbd2a7ace	-0.041621022
7	0x3e03c06d	0.12866373
8	0xbe78f5ee	-0.24312565
9	0xbea17fe4	-0.31542885
10	0x3e9fa988	0.3118403
11	0xbe5697f1	-0.20956399
12	0xbe644d4e	-0.22295114
13	0x3de2f75a	0.11082335
14	0x3cd038a7	0.025417639
15	0xbe4cf1d2	-0.20014122
16	0x3e82bef7	0.2553632
17	0xbf1d23ac	-0.61382556
18	0x3e9121e0	0.28346157
19	0xbdf787d6	-0.120864555
20	0x3dd86469	0.10566027
21	0xbeb60496	-0.35550374
22	0x3db6ecc0	0.08931875
23	0xbeb8f84b	-0.36126933
24	0xbd45da64	-0.048303977
25	0xbf5f31d8	-0.8718543
26	0x3f9353f1	1.1509992
27	0xbc119a8c	-0.0088869445
28	0x3e089a81	0.13340189
29	0x3de5445e	0.11194681
30	0xbe61fee5	-0.22069891
31	0xbf2d1d27	-0.6762261
32	0x3ba72be5	0.005101668
33	0x3e3f5a87	0.18686877
34	0x3da2b6b1	0.07945002
35	0xbf0428d0	-0.51624775
36	0x3e8617bd	0.26189986
37	0xbda92476	-0.082589075
38	0x3d0fa21a	0.0350667
39	0xbe80ac5a	-0.25131494
40	0x3f60393c	0.8758733
41	0x3ea8542a	0.32876712
42	0x3df2d5b6	0.118571684
43	0xbd9a52a3	-0.07535293
44	0x3d2e4efa	0.042555787
45	0x3eb9e661	0.36308578
46	0xbe48921a	-0.19586983
47	0x3dafe6b9	0.08588929
48	0xbeb893a6	-0.36050147
49	0xbeb2c5bc	-0.34916484
50	0x3ea6ecb7	0.32602474
51	0xbe880353	-0.26565036
52	0x3e3fab59	0.18717708
53	0xbe84ecb1	-0.2596183
54	0xbe5c92bc	-0.2154035
55	0xbe5fea3e	-0.218667
56	0x3cc72466	0.024309348
57	0x3d8c6d5f	0.068567984
58	0x3eaccb2c	0.33748758
59	0xbd495035	-0.049148757
60	0xbe9b0e59	-0.30284384
61	0xbe8490d4	-0.25891745
62	0xbe5b35c7	-0.21407233
63	0x3d98b988	0.07457262
64	0x3ebe664b	0.37187418
65	0xbcf03888	-0.029323831
66	0xbedeff59	-0.4355419
67	0x3d9a5383	0.0753546
68	0x3e2eafd6	0.17059264
69	0x3e1446ae	0.14480087
70	0xbe3a0ed5	-0.1816972
71	0xbea74100	-0.3266678
72	0xbe676da9	-0.22600426
73	0x3e32183e	0.1739206
74	0x3dec9444	0.11551717
75	0x3d1690b9	0.036759112
76	0x3e3d596e	0.18491146
77	0x3d843404	0.06455234
78	0x3dfc3572	0.123148814
79	0x3d946563	0.072459005
80	0x3e34d801	0.17660524
81	0x3e622a41	0.22086431
82	0x3d27df1e	0.040984266
83	0x3d6a39f8	0.05718419
84	0x3e3904ec	0.18068284
85	0x3d50c5c5	0.050969858
86	0xbd2a5ea9	-0.04159418
87	0xbe0a8db6	-0.13530621
88	0xbd308860	-0.043098807
89	0xbd07127e	-0.03297662
90	0xbe390339	-0.18067636
91	0x3cd391b1	0.025826307
92	0xbe8217bd	-0.25408736
93	0xbea050fb	-0.31311783
94	0x3e4a901e	0.19781539
95	0xbdc10bf3	-0.09426107
96	0xbe6a0fa5	-0.2285753
97	0x3e38c253	0.18042879
98	0x3e6ac15d	0.22925325
99	0x3e292d6e	0.16521236
100	0xbe812d49	-0.25229862
101	0x3d4e90c2	0.05043102
102	0x3e6237a3	0.22091536
103	0xbe7204eb	-0.23634689
104	0x3c5226e1	0.012826652
105	0xbe9002bb	-0.28127083
106	0x3d9ec258	0.07751912
107	0xbe87c731	-0.26519158
108	0x3e756f01	0.23968126
109	0x3cde864b	0.027163645
110	0x3dddd5ba	0.10831781
111	0x3d205d31	0.039151374
112	0x3d2c6678	0.04208991
113	0xbe589d5e	-0.21153781
114	0xbe454bf4	-0.19267255
115	0xbd81604b	-0.063171946
116	0xbd5a4fa4	-0.053298607
117	0x3c3d1e87	0.011542923
118	0x3d6f1ec0	0.058378935
119	0xbe4c316c	-0.19940728
120	0xbc50b6c1	-0.012738884
121	0x3d4d51ca	0.05012683
122	0x3e8ec325	0.27883258
123	0x3e390526	0.1806837
124	0x3e395ef1	0.18102624
125	0xbe1cff55	-0.15331776
126	0x3deda1b7	0.1160311
127	0x3e868e70	0.26280546
128	0xbe2773ac	-0.16352719
129	0xbd151e5b	-0.036405902
130	0xbca206f7	-0.019778712
131	0x3e810db6	0.25205773
132	0xbe054306	-0.13013849
133	0xbd789898	-0.0606924
134	0x3e8f73f7	0.28018162
135	0xbbfdca45	-0.0077450597
136	0x3e0b565c	0.13607162
137	0xbe47f1e7	-0.19525872
138	0xbe3f8208	-0.18701947
139	0xbe1509bd	-0.14554496
140	0x3e5682ba	0.20948306
141	0xbdc111f0	-0.094272494
142	0x3e68606a	0.22693029
143	0x3eff402e	0.49853653
144	0xbe2d6b7c	-0.16935533
145	0xbdc1a875	-0.09455959
146	0xbe9f9e76	-0.31175584
147	0xbc9444f7	-0.018099291
148	0xbd53f563	-0.05174769
149	0x3c8052a7	0.015664412
150	0x3efe99dc	0.4972676
151	0x3e06a3dd	0.13148446
152	0xbbf76659	-0.0075500426
153	0xbd413239	-0.047167037
154	0x3e8802a8	0.26564527
155	0xbe0b08b5	-0.1357754
156	0x3dadec00	0.08492279
157	0xbdf962e5	-0.12177066
158	0xbdd187e7	-0.102309994
159	0xbe745e72	-0.23864153
160	0xbe86ce05	-0.26329055
161	0xbe17007a	-0.14746276
162	0xbda2e8e1	-0.079545744
163	0xbe5f1951	-0.21787001
164	0x3e18c48f	0.14918731
165	0xbe5de739	-0.21670236
166	0xbe5ea01f	-0.21740769
167	0x3d3513f4	0.044208482
168	0x3dbeba9e	0.09312938
169	0x3d954ab6	0.072896406
170	0xbda24dd7	-0.07925003
171	0xbe048ed7	-0.12945114
172	0xbe1c0e35	-0.15239795
173	0xbe1979a6	-0.14987811
174	0xbe8cd1c1	-0.2750378
175	0xbe1393c5	-0.14411838
176	0x3da755ea	0.08170684
177	0x3da9a958	0.08284253
178	0xbe43d339	-0.19123544
179	0xbda29b36	-0.079397604
180	0xbe7cae47	-0.24675857
181	0xbdab5498	-0.08365744
182	0x3e11153b	0.14168255
183	0x3df24b5a	0.118307784
184	0x3e870ec6	0.2637846
185	0x3e19d063	0.150209
186	0xbe8735b4	-0.2640816
187	0xbd5b4fa6	-0.053542756
188	0xbe727042	-0.23675635
189	0x3d9164ae	0.07099281
190	0xbc12e99d	-0.008966831
191	0xbe8ce438	-0.27517867
192	0xbdb30480	-0.08741093
193	0xbe626788	-0.22109807
194	0xbe8e0902	-0.27741247
195	0xbe789c4c	-0.24278373
196	0x3dce9f1a	0.1008894
197	0xbda48bc3	-0.0803447
198	0x3db110d8	0.08645791
199	0xbdb40fa2	-0.08792044
200	0xbec57b25	-0.38570514
201	0xbe01bc9f	-0.1266961
202	0x3ea603e5	0.32424846
203	0x3e7a61bd	0.24451347
204	0x3c85ee69	0.016349034
205	0x3df57d46	0.11986785
206	0xbe31775c	-0.17330688
207	0xbeaee8dc	-0.34162033
208	0xbdf5b8ee	-0.11998163
209	0xbe0019e1	-0.12509872
210	0xbebbe80e	-0.3670048
211	0xbe723fb7	-0.23657118
212	0x3d46ea81	0.048563484
213	0xbdc3ce00	-0.09560776
214	0x3c1d6db8	0.0096086785
215	0x3e8fa84e	0.28058094
216	0x3dcfb39b	0.10141679
217	0x3cd565ae	0.026049461
218	0xbe3262d0	-0.17420506
219	0xbeb7d745	-0.35906425
220	0xbe331fdb	-0.1749262
221	0x3d989aa9	0.07451374
222	0x3d1b3958	0.037896484
223	0x3eddabe8	0.43295217
224	0xbd4c3d0e	-0.049862914
225	0xbe686a06	-0.22696695
226	0x3ed1d4d3	0.40982684
227	0x3e7a2436	0.24427876
228	0x3e48d9a1	0.19614269
229	0x3d35727c	0.044298634
230	0xbe5f562c	-0.21810216
231	0xbd7c2153	-0.061555218
232	0xbe9e0e8c	-0.30870473
233	0xbe37c577	-0.1794642
234	0x3d28de26	0.041227482
235	0xbbe2a5b5	-0.0069167265
236	0x3e832e41	0.25621226
237	0x3df369a3	0.11885383
238	0xbe479644	-0.19490916
239	0x3ceadc24	0.028669424
240	0x3d79d6ef	0.060995992
241	0x3e1f385a	0.1554884
242	0xbe537880	-0.20651436
243	0x3d99331f	0.07480454
244	0x3e070389	0.13184942
245	0xbe1d4c1e	-0.15361068
246	0x3e200d6c	0.1563012
247	0x3e9510e9	0.29114464
248	0x3e9db267	0.30800173
249	0xbe626525	-0.22108896
250	0xbe8381f3	-0.2568508
251	0xbe1ad04d	-0.15118523
252	0x3e8d09a8	0.2754643
253	0x3e791970	0.2432611
254	0x3d4167a2	0.047217973
255	0xbd5dc0a8	-0.05413881

encoder.conv.convs.3.bias f4 [20]
0	0x3e40ae5f	0.18816517
1	0x3e2f953b	0.1714677
2	0x3e3b2c29	0.18278565
3	0x3e9d8635	0.30766454
4	0x3a3227b2	0.0006796076
5	0xbdd8fd9a	-0.10595246
6	0x00000000	0.0
7	0x3e537842	0.20651343
8	0xbe1c7a53	-0.15281038
9	0xbcf5ce5b	-0.030005625
10	0xbe4e644c	-0.20155448
11	0xbb8592e4	-0.0040763486
12	0x00000000	0.0
13	0x3cd52078	0.026016459
14	0x3d9a76ac	0.07542166
15	0xbe1082e2	-0.14112428
16	0x3e7749db	0.24149267
17	0xbbdfdfc4	-0.006832095
18	0x3e820b95	0.2539946
19	0xbc887e7f	-0.01666188

encoder.conv.convs.3.lin.weight f4 [20, 40]
0	0xbddfa612	-0.10920347
1	0xbe17111e	-0.14752623
2	0xbe04b7fd	-0.12960811
3	0x3eb9fcac	0.36325586
4	0xbdca20a0	-0.09869504
5	0xbc361dd4	-0.01111551
6	0x3d12bded	0.03582566
7	0xbe86d834	-0.26336825
8	0x3e070e88	0.13189137
9	0x3ea3a8e7	0.319648
10	0xbd830005	-0.06396488
11	0x3d4cfa02	0.050043114
12	0xbe82429a	-0.25441438
13	0x3cd426e6	0.025897454
14	0x3e6062f1	0.21912743
15	0x3ef25945	0.47333732
16	0x3ea7cec3	0.32774934
17	0xbe4717f0	-0.19442725
18	0x3ea6424c	0.32472456
19	0x3e9b2b48	0.30306458
20	0x3ea2a2a7	0.3176472
21	0x3a10bf18	0.0005521639
22	0xbe728c19	-0.23686256
23	0xbe396a31	-0.18106915
24	0xbd102456	-0.035190903
25	0xbe90025f	-0.2812681
26	0xbe030541	-0.12794973
27	0xbe4d464c	-0.20046347
28	0x3d8046dc	0.06263515
29	0xbdf1cb59	-0.118063636
30	0xbe306117	-0.17224537
31	0x3d54d5b9	0.051961634
32	0x3e93b8ad	0.28851834
33	0x3d484d5b	0.048901897
34	0x3e1c62dd	0.15272088
35	0xbe27246d	-0.16322489
36	0xbe99dc20	-0.30050755
37	0xbd8b3ba4	-0.06798485
38	0xbe409ce5	-0.1880985
39	0x3e307613	0.17232542
40	0xbf10ce16	-0.5656446
41	0x3e2406f9	0.16018285
42	0x3e1ec3b6	0.15504345
43	0xbd7b6047	-0.061371114
44	0x3d8e8663	0.06959226
45	0xbd2e5b96	-0.042567812
46	0x3e96033a	0.29299337
47	0xbe4cd018	-0.20001256
48	0xbe86b078	-0.2630651
49	0xbd5a5f1a	-0.053313352
50	0x3e1cb692	0.1530402
51	0x3df59fde	0.11993383
52	0x3f072544	0.5279124
53	0xbeab6fe1	-0.33483794
54	0xbe8ba551	-0.27274564
55	0x3e82dee4	0.25560677
56	0xbd1eb211	-0.038744036
57	0xbe9f5b64	-0.31124413
58	0x3e8ac723	0.27105054
59	0xbef3e56e	-0.47635978
60	0x3d9a3ee0	0.07531524
61	0x3e486874	0.19571096
62	0xbcbdcaad	-0.023167932
63	0xbe888aee	-0.26668495
64	0xbebddd3f	-0.3708286
65	0xbe9212c8	-0.28529954
66	0x3e8442f8	0.25832343
67	0xbd8d9461	-0.06913067
68	0x3eb849de	0.35993856
69	0xbf3003fe	-0.6875609
70	0x3eb071a0	0.3446169
71	0x3e7291ba	0.23688403
72	0xbd9881eb	-0.07446655
73	0x3dc5601f	0.09637474
74	0xbe03beb9	-0.12865724
75	0xbe4773d2	-0.19477776
76	0xbd3a4339	-0.045474265
77	0xbd98a1e5	-0.07452754
78	0xbe40d564	-0.18831402
79	0x3e8c4bc0	0.27401543
80	0xbee2909e	-0.4425096
81	0xbe753496	-0.23945841
82	0xbe4ef22b	-0.20209567
83	0x3b274a71	0.0025526548
84	0x3e429254	0.19001132
85	0x3dabcd5a	0.08388777
86	0x3e813c6f	0.2524142
87	0xbde56bf2	-0.112022296
88	0xbdf6079e	-0.120131716
89	0x3e80f33c	0.25185573
90	0xbe290334	-0.16505128
91	0x3e0f7eed	0.14013262
92	0x3da5e2b5	0.080998816
93	0xbcb36071	-0.021896573
94	0x3cfb041b	0.030641606
95	0xbeb6ba3f	-0.3568897
96	0x3deb1baa	0.11479886
97	0xbe4f232e	-0.20228264
98	0x3e42e5bd	0.1903295
99	0xbe2677ef	-0.16256689
100	0x3eb21840	0.34784126
101	0xbc6fcd9d	-0.014636424
102	0x3cf6e07a	0.030136336
103	0x3e07f253	0.13276033
104	0x3d156a8e	0.03647857
105	0x3d2eaae5	0.042643446
106	0xbed72ebb	-0.4202784
107	0x3e3e43c1	0.18580534
108	0x3f0e8fd3	0.5568821
109	0xbf5ec6ab	-0.87021893
110	0xbe15bcc3	-0.14622788
111	0x3e88f0af	0.26746127
112	0x3d921d5f	0.07134508
113	0xbe79d447	-0.24397384
114	0xbe5f6c05	-0.2181855
115	0xbc0845a5	-0.008317386
116	0x3e8d7aed	0.27632847
117	0xbd0e0d0a	-0.034680404
118	0xbd4c6801	-0.049903873
119	0x3d7d295e	0.06180703
120	0x3db2ab76	0.0872411
121	0x3eb474f9	0.35245493
122	0x3e11fa8c	0.14255732
123	0x3e33032a	0.17481676
124	0xbe8ad13c	-0.27112758
125	0x3e81fce2	0.25388247
126	0x3d02d509	0.031941447
127	0xbf67c9e3	-0.9054243
128	0x3e158719	0.14602317
129	0x3ecb6544	0.39725697
130	0x3d2b21d9	0.041780327
131	0x3e2832cb	0.16425626
132	0xbed37733	-0.4130188
133	0xbf1114b2	-0.56672204
134	0xbee7681a	-0.4519661
135	0x3ec8054e	0.39066547
136	0xbeaad0c3	-0.33362398
137	0x3e764642	0.24050239
138	0xbf0c63e0	-0.548399
139	0x3d680561	0.056645755
140	0x3e5ea08d	0.21740933
141	0x3ebffb78	0.37496543
142	0x3ead899f	0.3389406
143	0xbf638237	-0.8887057
144	0x3f22d4e5	0.636061
145	0xbecaadd6	-0.3958575
146	0xbf8dc1c9	-1.1074764
147	0xbf50306b	-0.8132388
148	0xbe984529	-0.29740265
149	0xbea40e6e	-0.3204226
150	0xbf5610fd	-0.8361967
151	0x3d2fe108	0.042939216
152	0x3f341176	0.70339143
153	0xbe398e84	-0.18120772
154	0x3f23b75e	0.6395167
155	0x3e6df6af	0.23238634
156	0xbf3e1791	-0.7425471
157	0xbf38b52a	-0.72151434
158	0x3e5c6c5a	0.21525708
159	0x3d8423c2	0.06452133
160	0x3c9a358b	0.01882436
161	0x3e5246da	0.2053484
162	0xbe688f43	-0.227109
163	0x3e12d23f	0.14338015
164	0xbe031d0e	-0.12804052
165	0x3e1ec4d7	0.15504776
166	0x3db6c560	0.08924365
167	0xbe5f6913	-0.21817426
168	0x3c533a20	0.012892276
169	0xbe796813	-0.24356107
170	0xbd6e2dd9	-0.058149192
171	0xbdb1de48	-0.08684975
172	0x3d3025c5	0.04300477
173	0xbe40fd8b	-0.18846719
174	0x3d1d0da9	0.038343105
175	0xbe9859c4	-0.29755986
176	0xbda78351	-0.081793435
177	0x3d38be7d	0.04510354
178	0x3e15813e	0.14600083
179	0x3de84e46	0.113430545
180	0x3d00a9d1	0.03141195
181	0x3d531460	0.051533103
182	0x3e8bb092	0.2728315
183	0xbcf5e596	-0.030016702
184	0xbe033b45	-0.12815578
185	0xbe1afb60	-0.15134954
186	0xbe223261	-0.1583953
187	0xbdb1cf5e	-0.0868213
188	0xbe0a5511	-0.13509013
189	0xbe0911ca	-0.13385692
190	0x3e3a8dfe	0.18218228
191	0x3c74b26f	0.01493512
192	0x3ddd8f4a	0.10818346
193	0xbda14d3f	-0.07876062
194	0xbe9626b5	-0.29326406
195	0xbd98ecf0	-0.07467067
196	0xbe9ca597	-0.30595085
197	0xbdcb8873	-0.09938135
198	0xbdf2723c	-0.11838195
199	0x3d9f722f	0.07785451
200	0x3e7a8d64	0.24467999
201	0xbf221d85	-0.63326293
202	0x3e951f67	0.2912552
203	0x3d8ae8ea	0.06782706
204	0x3e26eea9	0.16301979
205	0x3d4e9701	0.050436977
206	0x3e8c3e0b	0.27391085
207	0x3e9a8ba3	0.3018466
208	0x3d234260	0.039858222
209	0xbe5747f4	-0.21023542
210	0x3e2d772a	0.16939989
211	0xbe1352d1	-0.1438706
212	0x3eba518b	0.36390337
213	0xbef2f3c9	-0.47451618
214	0xbe85b870	-0.26117277
215	0xbecc84af	-0.3994498
216	0x3ea913cc	0.33022916
217	0x3f0b493c	0.5440862
218	0x3eb30aeb	0.34969267
219	0xbf153e31	-0.5829802
220	0x3c9749f5	0.018467883
221	0xbe6bbd50	-0.23021436
222	0xbdb55ffe	-0.088562
223	0x3e050673	0.12990741
224	0xbea6f6b0	-0.32610083
225	0x3d457b50	0.048213303
226	0x3e48753f	0.19575976
227	0x3e8321dd	0.25611773
228	0x3e96b753	0.2943674
229	0x3ed77dcd	0.42088166
230	0x3ce80bd9	0.028325962
231	0x3e4e2bdd	0.2013392
232	0xbd272bc2	-0.040813215
233	0xbd8f1301	-0.069860466
234	0x3e4a88cd	0.19778748
235	0x3dac63be	0.08417462
236	0xbdebada9	-0.115077324
237	0x3ecbe5b1	0.39823678
238	0x3e529319	0.20563926
239	0x3ca0eed4	0.019645132
240	0x3c1432f4	0.009045351
241	0xbe6eba49	-0.2331325
242	0x3c36b9d5	0.011152704
243	0x3e6b79c7	0.22995673
244	0xbe91c9dc	-0.2847432
245	0xbe810da9	-0.25205734
246	0xbe8ee4f1	-0.27909043
247	0xbda52d71	-0.08065308
248	0x3e151293	0.14557867
249	0xbd4de53d	-0.050267447
250	0xbd53e02d	-0.051727463
251	0xbe20e047	-0.15710555
252	0x3daaff96	0.083495304
253	0x3c0f362f	0.008740946
254	0xbc6d8bdd	-0.014498678
255	0x3d556cce	0.052105717

encoder.embed_x.weight f4 [28, 40]
0	0x3fd13f7c	1.6347499
1	0xbe7906a3	-0.24318938
2	0xbee9021c	-0.45509422
3	0xbf33ea07	-0.7027897
4	0xbf32493f	-0.69643015
5	0xbe57ee25	-0.21086939
6	0x3e6b65c6	0.22988042
7	0x3fe01503	1.7506412
8	0x3f1c4375	0.6104043
9	0xbf20db08	-0.62834215
10	0x3fa99b9c	1.3250613
11	0xbffe60aa	-1.987325
12	0x3f423854	0.758672
13	0x3f3be9f5	0.73403865
14	0xbdc76f6e	-0.097380504
15	0xbeaaa37c	-0.33327854
16	0x3f16dda8	0.5893197
17	0x3f38abb5	0.72137004
18	0xbf425ff6	-0.75927675
19	0x3f521ff4	0.82080007
20	0x3fbd4a14	1.4788232
21	0xbe5453b4	-0.20735055
22	0xbf0cc035	-0.54980785
23	0xbf9a5636	-1.205756
24	0x3f88cf3a	1.068824
25	0x3eabdafa	0.33565503
26	0xbf896c7c	-1.0736232
27	0x3f214620	0.6299763
28	0xbf86ad72	-1.0521681
29	0xbf1d22e6	-0.61381376
30	0xbf300ca2	-0.68769276
31	0x3f66a91c	0.9010179
32	0x3ef49178	0.47767234
33	0x3f581f6b	0.8442294
34	0xbe93a734	-0.28838503
35	0xbfa30ff7	-1.2739247
36	0xbf20bbd7	-0.6278662
37	0x3e1fdf81	0.15612604
38	0x3f8d8146	1.1055076
39	0x3ea1e25c	0.3161801
40	0x3faa8b27	1.3323716
41	0x3fc352a1	1.5259591
42	0xbec1953f	-0.37809178
43	0xc00a3bc1	-2.159897
44	0xbf593eb0	-0.8486128
45	0x3ed988a1	0.42487052
46	0xbf19ff88	-0.60155535
47	0xbfa3ac6f	-1.2786998
48	0x3f2c09f2	0.67202675
49	0x3f8aa763	1.0832332
50	0x3fbb45cc	1.4630675
51	0x3e9161b7	0.28394863
52	0xbf1b077f	-0.60558313
53	0xbe3491de	-0.17633769
54	0xbd9e75ce	-0.07737313
55	0xbfc9edb0	-1.5775661
56	0x3d60185f	0.054710742
57	0x3d811163	0.063021444
58	0xbc8cd8e5	-0.017193267
59	0xbf5ca105	-0.86183196
60	0x3bad2c8d	0.005284852
61	0x3f6d899d	0.92788106
62	0xbe38fe39	-0.18065728
63	0x3f8f28b0	1.1184292
64	0xbf9898fc	-1.1921687
65	0x3e15b863	0.14621119
66	0xbfd0fd74	-1.6327348
67	0xbf18df83	-0.5971605
68	0x40089f17	2.13471
69	0x3fa0b346	1.255471
70	0x3f9b6842	1.2141192
71	0x3d4c51d0	0.04988271
72	0xbee89366	-0.45424956
73	0xbf81d6ff	-1.0143737
74	0xbf94d3e1	-1.162716
75	0xbdd1fde0	-0.10253501
76	0xbf8e8e3f	-1.113716
77	0x3fdcf142	1.7261126
78	0x3eb0372f	0.34417102
79	0xbd242dec	-0.040082857
80	0xc01784b6	-2.367475
81	0xbf60434b	-0.8760268
82	0x3fa1bee4	1.263638
83	0xbfb7ede1	-1.436947
84	0x401fd21d	2.4971993
85	0x3f40df78	0.75340986
86	0xbe4f2b6d	-0.2023141
87	0xbfa3e5d3	-1.2804512
88	0xbf872009	-1.0556651
89	0xbf65db93	-0.8978817
90	0x3eb70b92	0.35751015
91	0x3f73e41b	0.95269936
92	0xbfc324ac	-1.5245566
93	0xbee88f00	-0.454216
94	0x3f14f6b7	0.58188957
95	0xbe3ca6ef	-0.18423055
96	0x3eb22736	0.3479554
97	0x3f876b03	1.0579532
98	0x3f54fae4	0.8319533
99	0x3f9c00b6	1.2187717
100	0xbfb9cfc2	-1.4516528
101	0xbf8fef72	-1.1244948
102	0xbe89ecde	-0.26938528
103	0x3e5cb158	0.21552026
104	0x3f133662	0.57504857
105	0x3f94844b	1.1602873
106	0x3dc0f503	0.09421732
107	0x3e806ee1	0.25084594
108	0x40479dfa	3.1190171
109	0x3f27b71b	0.6551377
110	0x3f62c29f	0.8857822
111	0x3f671d27	0.9027886
112	0xc04e6ed2	-3.225514
113	0x3e6d326d	0.23163767
114	0x3f463ff6	0.77441347
115	0x3f8edaa6	1.1160476
116	0xbf4fcfaf	-0.81176275
117	0x3fbec611	1.4904195
118	0xc00a6302	-2.162293
119	0x3f73b6be	0.9520072
120	0x3f23cec5	0.6398738
121	0x3f83ad13	1.0287193
122	0xbe6501b3	-0.2236393
123	0xbfc14e24	-1.5101972
124	0x3e70e304	0.235241
125	0x3fa6d6a2	1.3034251
126	0xbf499cd5	-0.7875493
127	0xc02ae13c	-2.6699972
128	0x3f62fb52	0.88664734
129	0x3edac253	0.42726383
130	0xbf36b389	-0.713677
131	0x3f1277f2	0.5721427
132	0x3f4ffb53	0.81242865
133	0xbeb77355	-0.3583018
134	0xbf0a4ec1	-0.5402642
135	0x3f7e33b1	0.99297625
136	0x3fdb4ea7	1.7133378
137	0x3f3c57ce	0.7357148
138	0x3f81560c	1.0104384
139	0x3f8835af	1.0641383
140	0x400e198b	2.220309
141	0xbfc03b27	-1.5018052
142	0x3ec31bdb	0.3810719
143	0xbfc6b966	-1.5525329
144	0xbc4d6440	-0.0125361085
145	0xc008353e	-2.1282496
146	0x3e315bfe	0.17320248
147	0x3d96f4bb	0.073708974
148	0x3f83c5af	1.0294703
149	0x3ddd8549	0.10816438
150	0x3ec57bef	0.38571116
151	0x3e59478e	0.21218702
152	0xbe8b70f1	-0.27234605
153	0xbf76a598	-0.96346426
154	0x3f30a749	0.69005257
155	0xbe389dd0	-0.1802895
156	0xbd45106f	-0.048111375
157	0xc0126d26	-2.287912
158	0x3f83aac7	1.0286492
159	0x3f4ad145	0.7922557
160	0x3ea61651	0.324389
161	0xbf23ea32	-0.6402923
162	0x3ec0f0d9	0.37683752
163	0xbfa7fd7e	-1.3124235
164	0x3f7ea175	0.99465114
165	0x3f587301	0.8455048
166	0xbf5b3b7b	-0.85637635
167	0xbf568a33	-0.83804625
168	0x3f661755	0.8987935
169	0x3fd68db1	1.6761991
170	0x4001603e	2.0214992
171	0x400a7f6c	2.1640272
172	0xbf0a93b9	-0.54131657
173	0xbfc1de16	-1.51459
174	0x3f50708f	0.8142175
175	0x3f939321	1.1529275
176	0x3f35b93f	0.7098579
177	0x3f92cee2	1.1469386
178	0x4000279d	2.0024178
179	0x3ea42d6f	0.32065913
180	0x3d533a1b	0.051569086
181	0x3fa95d9e	1.3231695
182	0xbf04f205	-0.5193179
183	0xbf562224	-0.83645844
184	0x3fe1a770	1.7629223
185	0x3fbffde8	1.4999361
186	0x4014c2ba	2.3243852
187	0xbeec63aa	-0.46169788
188	0xbe078e59	-0.13237895
189	0x3fe59e4c	1.7938933
190	0xbf47579b	-0.7786805
191	0x3e1a36c0	0.15059948
192	0xbf6c304c	-0.92261195
193	0xbed6cb1a	-0.4195183
194	0x3e0fbc77	0.14036737
195	0x3f766719	0.96251065
196	0xbf931da2	-1.1493418
197	0x3f1e18e2	0.6175672
198	0x3ff8b5a6	1.9430435
199	0xbf58310d	-0.84449846
200	0xbd9bebe1	-0.0761335
201	0x3fc9b050	1.5756931
202	0x3fbd7c78	1.480361
203	0x400c3d97	2.1912591
204	0x3f0aace4	0.5417006
205	0xbe762191	-0.24036242
206	0xbf6b5bc0	-0.91936874
207	0x3d80364c	0.06260356
208	0xbf2ddb3e	-0.6791266
209	0x3f48be16	0.7841505
210	0x3f8c9118	1.0981779
211	0x3fc0044d	1.5001312
212	0xbe5fbcd1	-0.21849371
213	0xbf109e46	-0.56491506
214	0x3e15bcad	0.14622755
215	0x3fae73df	1.3629111
216	0xbe307dee	-0.17235538
217	0xbf3809a8	-0.71889734
218	0x3fae5ac9	1.3621455
219	0xbfa5d375	-1.2955157
220	0x3e9a64cd	0.3015503
221	0xbfc15956	-1.5105388
222	0x4014cfda	2.3251863
223	0xbf9847a3	-1.1896862
224	0x3fcd8b48	1.605813
225	0xbfa6f809	-1.3044444
226	0xbf1e6d2f	-0.6188535
227	0xbfd6d0db	-1.6782488
228	0x3fb31010	1.3989277
229	0x3e1babb5	0.1520222
230	0xbf147df0	-0.58004665
231	0xbfc637e5	-1.5485808
232	0x3f3b22ef	0.7310018
233	0x3ea3badc	0.319785
234	0xbb762842	-0.0037560617
235	0xbdf8f4ae	-0.12156044
236	0x3f0e7d2f	0.55659765
237	0x3f07bbe9	0.53021103
238	0xbfb687fd	-1.426025
239	0x3f01909e	0.50611293
240	0xbfb10b3d	-1.3831555
241	0xc003f204	-2.0616465
242	0x3eb4bfee	0.3530268
243	0xbffe0c28	-1.984746
244	0x3e6910fe	0.22760388
245	0xbf60854f	-0.8770341
246	0x3d1dbf3f	0.038512465
247	0x3e532ed4	0.20623332
248	0xbe47582b	-0.19467227
249	0xbdfdd128	-0.12393409
250	0xbe30d402	-0.17268375
251	0xbe38a1cf	-0.18030475
252	0xbeac0ae5	-0.33602062
253	0x3f728f36	0.9474977
254	0xbf831516	-1.024081
255	0x3fd7a54f	1.6847323

encoder.conv_mu.bias f4 [20]
0	0xbe0fe5f6	-0.14052567
1	0xbe1e7d45	-0.15477474
2	0x3c213ed3	0.009841639
3	0xbe37ccb9	-0.17949189
4	0x3dd44d0a	0.103662565
5	0xbe28c79d	-0.16482396
6	0xbe0c48cc	-0.13699645
7	0xbdd6e696	-0.104931995
8	0xbcc23cea	-0.023710687
9	0xbeb070c4	-0.34461033
10	0x3cba43ef	0.022737471
11	0xbdd65701	-0.104658134
12	0x38d284a2	0.00010038285
13	0x3e6b641c	0.22987407
14	0x3e0cbbc2	0.13743499
15	0xbd22073c	-0.03955768
16	0x3e716946	0.23575315
17	0x3d884c12	0.06655134
18	0x3e50082d	0.20315619
19	0x3e3982eb	0.18116347

encoder.conv_mu.lin.weight f4 [20, 20]
0	0x3b72469c	0.0036968356
1	0x3d8f6c5e	0.07003091
2	0x3df8b8d7	0.121446304
3	0xbea05a28	-0.31318784
4	0xbed96bed	-0.42465153
5	0xbe030bc3	-0.12797455
6	0x3e6661f9	0.22498311
7	0xbdb5bd4e	-0.08873998
8	0x3d6f4a2f	0.058420356
9	0xbe86aca6	-0.26303595
10	0xbd622cf1	-0.05521864
11	0x3e602a0a	0.21891037
12	0x3ebfd442	0.37466627
13	0xbea7ec43	-0.3279744
14	0x3e77a6eb	0.24184768
15	0xbda42e1e	-0.08016609
16	0xbe36c2ca	-0.17847744
17	0x3d283ed2	0.041075535
18	0xbe8b5302	-0.27211767
19	0x3da6d406	0.08145909
20	0xbd1d3706	-0.038382553
21	0xbe25b33c	-0.16181654
22	0xbe57a7d2	-0.21060112
23	0x3e6daabd	0.23209663
24	0x3e368c9a	0.17827073
25	0x3d44432a	0.047915615
26	0xbe00923f	-0.12555788
27	0xbe8d19fb	-0.27558884
28	0xbe0fde80	-0.14049721
29	0xbe08e936	-0.13370213
30	0xbea23474	-0.31680644
31	0x3e6f90a1	0.23395015
32	0x3ec13b39	0.37740496
33	0xbe4eecf3	-0.20207576
34	0x3dbf330c	0.09335908
35	0x3e4d84b3	0.20070152
36	0x3dac41a6	0.08410959
37	0xbe3e53a1	-0.1858659
38	0xbf4382aa	-0.7637125
39	0x3e4fa2a2	0.20276883
40	0xbe82d701	-0.2555466
41	0x3dd5c601	0.10438157
42	0xbe9636bf	-0.29338643
43	0x3db4ca9d	0.08827708
44	0x3eb1c1ae	0.34718078
45	0xbe5cf311	-0.21577097
46	0xbea9439b	-0.3305939
47	0xbd79ba4b	-0.06096868
48	0x3e5b5fb7	0.21423231
49	0xbe485ad4	-0.19565898
50	0xbe303fa0	-0.17211771
51	0x3e0dc581	0.13844873
52	0x3e9dacbc	0.30795848
53	0xbdfeb112	-0.12436117
54	0x3e155abb	0.14585392
55	0x3dd1699a	0.1022522
56	0x3dd89999	0.105761714
57	0xbebf4a8e	-0.37361568
58	0x3e16f4f1	0.14741875
59	0xbe074f81	-0.13213922
60	0xbee6c139	-0.45069292
61	0x3e6854fa	0.22688666
62	0x3e241f8d	0.1602766
63	0x3ea275ad	0.31730404
64	0x3e868cf1	0.26279405
65	0xbeed2250	-0.4631524
66	0x3ceab36f	0.028650014
67	0x3da6db6b	0.081473194
68	0x3f161f7a	0.5864178
69	0x3d6ef26f	0.05833667
70	0xbe214e1c	-0.15752453
71	0xbec1e453	-0.3786951
72	0xbcf72c6b	-0.030172547
73	0x3e3419f5	0.17588027
74	0x3d301b2f	0.042994674
75	0x3e9c4db2	0.30528027
76	0xbe6c58ae	-0.23080704
77	0x3e1fe400	0.15614319
78	0xbc6bd822	-0.014394792
79	0xbd2c994b	-0.04213838
80	0x3cae0e75	0.021247128
81	0x3e67bec2	0.22631362
82	0x3e00a52c	0.12563008
83	0xbe863da7	-0.26218912
84	0xbe07898c	-0.13236064
85	0x3c54146e	0.012944324
86	0x3e8d8b9c	0.27645576
87	0x3e6e8c6d	0.23295756
88	0xbc421196	-0.011845013
89	0xbe1806b2	-0.14846304
90	0x3e002bf8	0.12516773
91	0x3ea7714d	0.3270363
92	0x3c081674	0.0083061345
93	0xbe229513	-0.1587718
94	0xbcaf124b	-0.021371027
95	0xbebd2bb5	-0.36947408
96	0xbd3bb2b3	-0.045824718
97	0xbcae8133	-0.021301841
98	0xbe714cff	-0.23564528
99	0x3e9de460	0.308383
100	0x3e8c886c	0.27447832
101	0xbec776a5	-0.38957706
102	0xbeb76be2	-0.35824496
103	0x3ec2d8a8	0.3805592
104	0x3e226d7a	0.15862074
105	0x3eb1d26d	0.34730855
106	0xbce85616	-0.028361361
107	0xbe9071df	-0.28211877
108	0xbe701a86	-0.23447618
109	0x3e93b2c9	0.2884734
110	0xbf194c22	-0.59881794
111	0xbde982d5	-0.11401907
112	0xbe69a1af	-0.22815584
113	0xbe014a03	-0.1262589
114	0x3e0c74de	0.13716456
115	0x3e15d873	0.1463335
116	0xbe88bbc3	-0.2670575
117	0xbdde5529	-0.10856087
118	0xbf867b0f	-1.0506305
119	0x3eb342f8	0.3501203
120	0x3ec5f442	0.38662916
121	0xbe98b67e	-0.2982673
122	0x3daf1f06	0.08550839
123	0x3f29ccaf	0.6632795
124	0x3ea07ad2	0.31343704
125	0x3ebe2583	0.37137994
126	0xbdeb244e	-0.11481534
127	0x3d92372b	0.07139429
128	0xbe4dc7a4	-0.20095688
129	0xbe6c71a6	-0.23090228
130	0x3c4e0379	0.01257407
131	0x3de29e06	0.11065297
132	0x3eaa3b94	0.3324858
133	0x3e90ddcd	0.2829422
134	0xbe88f205	-0.26747146
135	0x3e7796c3	0.24178605
136	0xbf0de29f	-0.5542392
137	0x3e509055	0.20367558
138	0xbf66a452	-0.9009448
139	0xbe01630c	-0.1263544
140	0xbea0e74b	-0.31426463
141	0x3ed7441f	0.4204416
142	0xbd3620b1	-0.04446477
143	0x3eb1007b	0.3457068
144	0xbe14b709	-0.14522947
145	0xbbcd8caf	-0.0062728743
146	0xbe88cc58	-0.26718402
147	0x3caaee78	0.020865664
148	0xbdda2682	-0.10651876
149	0xbeca8dff	-0.3956146
150	0xbe312eeb	-0.17303054
151	0xbe32fc34	-0.1747902
152	0x3eb2ae67	0.34898683
153	0xbed51c8d	-0.41623345
154	0x3b5e0c4f	0.0033881848
155	0x3ddf6619	0.109081455
156	0xbe532f94	-0.20623618
157	0x3d93f77a	0.07224937
158	0xbe48327d	-0.1955051
159	0x3ead55b1	0.3385444
160	0xbdd8397c	-0.10557839
161	0x3d628bcb	0.0553091
162	0x3e80c06b	0.25146803
163	0x3f0380c4	0.51368356
164	0x3e64865f	0.22316884
165	0xbcc656e4	-0.024211355
166	0xbe9c9c6c	-0.3058809
167	0xbe81c82b	-0.2534803
168	0x3e6c53cd	0.23078842
169	0x3b70af04	0.0036725411
170	0x3e0f5ec6	0.14000997
171	0xbe76adee	-0.24089786
172	0xbe9ee3e6	-0.31033248
173	0x3eafb692	0.34318978
174	0xbec1e82a	-0.3787244
175	0x3ea2378c	0.31683004
176	0x3e983617	0.29728767
177	0xbe9c65b2	-0.30546337
178	0xbe79dcd7	-0.2440065
179	0xbe1f39a3	-0.1554933
180	0xbc9e8108	-0.019348636
181	0x3e80effe	0.251831
182	0xbf0deb7d	-0.5543745
183	0x3ec14ca4	0.37753785
184	0x3bdf1f69	0.0068091643
185	0xbd31d903	-0.04341985
186	0x3e8b49c6	0.27204722
187	0xbf08f376	-0.5349649
188	0x3ceed786	0.029155504
189	0x3e91cefb	0.28478226
190	0xbe00652a	-0.12538591
191	0xbec8d30c	-0.39223516
192	0x3cf2030d	0.02954247
193	0xbe30693a	-0.17227641
194	0x3e2c471b	0.16824
195	0x3ea9a3a6	0.33132666
196	0xbdb2f573	-0.08738222
197	0xbe927fbe	-0.28613085
198	0xbf8f258d	-1.1183335
199	0xbc9d24dc	-0.019182615
200	0xbdbb8148	-0.09155518
201	0x3b9f0c6e	0.0048537767
202	0x3e9f0d71	0.31064942
203	0x3dc17888	0.09446818
204	0x3e823f14	0.2543875
205	0xbe986331	-0.29763177
206	0x3ec347eb	0.38140807
207	0x3d1def2a	0.038558163
208	0x3d0672c6	0.0328243
209	0x3e951953	0.29120883
210	0x3d2c7df4	0.042112306
211	0xbe80fea2	-0.2519427
212	0x3d165f15	0.03671177
213	0xbef87282	-0.48524863
214	0xbd46d54b	-0.048543256
215	0x3e07b8b3	0.13254051
216	0xbdb64cfb	-0.089014016
217	0x3ebb0cfe	0.3653335
218	0x3e59a955	0.21256001
219	0xbbe5e7c5	-0.0070161545
220	0xbdadb291	-0.084813245
221	0xbd5a6716	-0.053320967
222	0xbec2521e	-0.37953275
223	0x3e1459d8	0.14487398
224	0x3d91eb88	0.07125002
225	0x3d2e24b6	0.04251548
226	0x3e59dda6	0.21275958
227	0x3e768d69	0.24077381
228	0x3e67460d	0.22585316
229	0xbdde6821	-0.10859705
230	0xbe404a71	-0.18778397
231	0xbea33a33	-0.3188034
232	0xbeb8c53b	-0.36087975
233	0xbe7e4f9f	-0.2483506
234	0x3d1dae26	0.03849616
235	0x3d56cbd5	0.052440483
236	0x3c3b5690	0.011434212
237	0xbe14788c	-0.1449911
238	0x3e1c81dc	0.15283912
239	0x3cec9ca0	0.028883278
240	0xbd2a1081	-0.041519646
241	0x3b242cf3	0.0025051206
242	0xbd22330c	-0.039599463
243	0xbe65cfb9	-0.22442521
244	0xbd49e4f5	-0.049290616
245	0x3e6fd822	0.23422292
246	0x3e6b28cf	0.22964786
247	0xbe251f0a	-0.16125122
248	0x3eacc616	0.33744878
249	0xbdab8b47	-0.083761744
250	0xbe207f0e	-0.15673468
251	0x3ca447be	0.02005374
252	0xbe0b96bf	-0.13631724
253	0xbef72925	-0.48273578
254	0x3e030e5d	0.12798448
255	0xbe803cd2	-0.25046402

encoder.conv_logstd.bias f4 [20]
0	0xbf0a6ca3	-0.54072016
1	0xbf1b0ffa	-0.60571253
2	0xbeec4dcd	-0.46153107
3	0xbf279bdd	-0.65472203
4	0xbed67543	-0.4188634
5	0xbefed348	-0.4977057
6	0xbf4a6250	-0.7905626
7	0xbf0efc2f	-0.5585355
8	0xbefc5319	-0.49282148
9	0xbf15986e	-0.58435714
10	0xbed75c87	-0.4206278
11	0xbef90530	-0.4863677
12	0xbed2f736	-0.41204232
13	0xbec846c8	-0.39116502
14	0xbf0365c0	-0.51327133
15	0xbf0cc311	-0.5498515
16	0xbf0efaf2	-0.5585166
17	0xbf2a1b6e	-0.66448104
18	0xbf0bbc47	-0.54584163
19	0xbf0b466c	-0.5440433
