results/model_GCN/graph_split_/layers_2/transform_True/alpha_1.0/model.pt (torch, 22442 bytes, 11 tensors)

encoder.conv.convs.0.bias f4 [40]
-0.0040389365 -0.06374477 -0.007815337 -0.030588502 0.11316093 -0.052779034 -0.06574986 -0.032407325
-0.0076846452 -0.030453943 -0.0020933044 -0.049960285 -0.05718038 -0.014186142 -0.015530478 -0.028902577
-0.01574471 0.00965407 -0.044232786 -0.08411106 -0.03180849 -0.025209786 0.08233455 0.024779027
0.0052876393 -0.01575472 -0.034053642 -0.06887146 0.001372308 -0.038650796 0.07599823 -0.046436086
0.043068904 -0.044191334 -0.022076977 -0.06943317 0.057958852 -0.035925224 -0.053743742 -0.04569557
00000000: 0e59 84bb 9e8c 82bd e60b 00bc bd94 fabc
00000010: ebc0 e73d d42e 58bd dda7 86bd 8bbd 04bd
00000020: 7acf fbbb 8c7a f9bc d22f 09bb 28a3 4cbd
00000030: f935 6abd fe6c 68bc 8c73 7ebc 19c5 ecbc
00000040: 0dfb 80bc 1b2c 1e3c 702d 35bd 6b42 acbd
00000050: 9f49 02bd c184 cebc 049f a83d 63fd ca3c
00000060: ef43 ad3b 0b10 81bc d57b 0bbd 7b0c 8dbd
00000070: 04df b33a 4c50 1ebd f6a4 9b3d c433 3ebd
00000080: 0569 303d f901 35bd c7da b4bc fa32 8ebd
00000090: 4366 6d3d 5426 13bd 6622 5cbd 472b 3bbd

encoder.conv.convs.0.lin.weight f4 [40, 40]
0.102317914 -0.36425433 0.013881722 0.2430293 0.27061924 0.024144705 0.1778025 -0.19690695
0.23729622 -0.1898743 0.21974263 -0.31514278 0.23677751 -0.20976801 -0.24900447 0.004121504
-0.22494513 -0.024157023 -0.023524811 -0.19678552 0.22731853 -0.2630292 -0.26597762 0.26355857
-0.4252692 -0.16793124 0.022598125 -0.051692925 -0.1760619 0.3840654 -0.27361012 -0.19576626
-0.26699263 -0.18897256 0.24062246 0.25318187 0.059550814 -0.108828865 -0.22836794 0.1858706
0.007620717 0.26079017 0.37726676 0.39821368 -0.2285186 0.16153127 0.41824928 0.13432582
0.014150465 0.11429023 0.11658979 -0.6067664 0.08815918 -0.2442407 -0.20133321 0.26376086
-0.2874019 0.019558286 -0.052522767 0.09654979 -0.050309874 -0.18223324 -0.4341069 0.0482288
0.40233725 -0.20696706 0.24113889 -0.10629216 -0.12414056 0.073612 0.4441301 0.16894482
0.2308505 0.30255133 0.21043754 0.13341835 0.010160543 0.084650345 -0.10910331 0.049141493
0.12345141 -0.11994151 -0.20545472 0.35173023 -0.26002824 0.03938024 -0.43339282 -0.025854971
-0.052767377 0.17436633 -0.012225621 -0.08964745 -0.16111338 -0.21614297 -0.3603475 0.089987375
0.18859795 0.06405361 -0.2844546 0.15624091 -0.028156623 0.46139976 -0.20236452 0.17987904
0.10195565 -0.12845448 0.3603433 -0.3647675 0.056272075 -0.25395033 0.11407271 0.1295304
-0.11613657 0.15564488 -0.30617744 0.17425954 -0.1185072 0.00523953 0.46734533 -0.011569238
-0.068008065 -0.3194298 -0.015769728 0.47087154 -0.13936153 0.06845257 -0.13717405 0.03233044
-0.26668823 0.13652134 -0.22089975 0.22295249 -0.19871555 -0.01714623 -0.28199074 -0.18456848
-0.26982537 0.038532197 0.009751828 0.04808539 0.34484273 0.07228373 0.049348272 -0.12082863
0.21998236 0.10498093 -0.22317062 -0.31892243 -0.098212734 0.052486584 -0.11575893 0.212444
-0.26592678 0.013616648 0.10818616 0.13662636 -0.03583247 0.26186323 0.24071133 -0.2266958
0.09204838 0.2967645 -0.14059258 -0.2919055 0.020498209 0.17773795 -0.031599835 0.06880357
0.07954011 -0.34925538 0.15458004 0.4341745 -0.16392618 -0.07014786 0.00933964 0.13989305
0.15217918 -0.12632793 0.17356835 -0.1149663 -0.024900757 0.028223438 0.1499906 0.017761994
0.25388232 -0.39055523 0.11625378 -0.14789991 0.067294724 -0.2962084 -0.23855333 -0.23906937
-0.33703986 -0.31358126 0.23300649 -0.04335366 -0.27323627 -0.32863393 0.25751907 -0.33806995
0.05208613 -0.03697376 0.17113882 0.24280997 0.26509997 0.2225185 -0.25204828 -0.19511995
-0.0655723 0.06793512 -0.10107488 0.006413149 0.03192022 -0.10988603 -0.18091197 0.24806494
-0.05543518 -0.38639686 -0.103025034 0.097614996 0.13883135 -0.085437365 -0.113744535 0.07066328
-0.037726056 0.29305524 0.022081226 0.16691692 0.29933175 0.055573843 0.0010786437 0.13751316
-0.033539105 -0.31003353 -0.24132545 0.035060015 -0.3075431 0.05977431 -0.07261862 0.148745
-0.17083365 0.010775571 0.26287818 -0.40441367 0.09774289 0.10219441 0.40335253 -0.14879435
-0.08138882 0.2902652 -0.24017575 -0.37619415 0.054028902 0.21446021 -0.34034124 -0.30796298
00000000: 0e8c d13d 8b7f babe 2a70 633c acdc 783e
00000010: 9b8e 8a3e 1ecb c53c dc11 363e faa1 49be
00000020: c8fd 723e 696e 42be 3604 613e 655a a1be
00000030: ce75 723e 6dcd 56be 07fb 7ebe ae0d 873b
00000040: 0458 66be f3e4 c5bc 1bb7 c0bc 2582 49be
00000050: 30c6 683e c3ab 86be 382e 88be 26f1 863e
00000060: e2bc d9be 2bf6 2bbe b41f b93c f6bb 53bd
00000070: 9249 34be 38a4 c43e a016 8cbe f376 48be
00000080: 42b3 88be 0682 41be bc65 763e 0ea1 813e
00000090: 8eeb 733d abe1 debd 49d9 69be dd54 3e3e
000000a0: 35b7 f93b 4a86 853e 1c29 c13e aae2 cb3e
000000b0: c800 6abe 7468 253e c524 d63e b58c 093e
000000c0: 5ad7 673c ff10 ea3d a1c6 ee3d 0b55 1bbf
000000d0: cd8c b43d 3c1a 7abe 4b2a 4ebe aa0b 873e
000000e0: 5826 93be b338 a03c 1d22 57bd e5bb c53d
000000f0: ba11 4ebd 5a9b 3abe 4243 debe 908b 453d
00000100: 26ff cd3e 2cef 53be 1ded 763e b4af d9bd
00000110: 683d febd e3c1 963d 0565 e33e dfff 2c3e
00000120: 1364 6c3e 02e8 9a3e f07c 573e d29e 083e
00000130: 6878 263c 295d ad3d 8e71 dfbd 9748 493d
00000140: 18d4 fc3d e5a3 f5bd b962 52be fc15 b43e
00000150: 6c22 85be 2d4d 213d aae5 ddbe cecd d3bc
00000160: 9b22 58bd 168d 323e f94d 48bc 1599 b7bd
00000170: e8fa 24be 9554 5dbe 787f b8be 4d4b b83d
00000180: d21f 413e 8a2e 833d 09a4 91be 9efd 1f3e
00000190: b8a8 e6bc 973c ec3e a538 4fbe 3632 383e
000001a0: 20ce d03d 9289 03be eb7e b83e cec2 babe
000001b0: 8c7d 663d c705 82be f49e e93d 9ea3 043e
000001c0: 03d9 edbd 5f61 1f3e 4ac3 9cbe 1871 323e
000001d0: e7b3 f2bd 5db0 ab3b e347 ef3e e78c 3dbc
000001e0: d047 8bbd 4e8c a3be 842f 81bc 1316 f13e
000001f0: cab4 0ebe dc30 8c3d 5b77 0cbe ec6c 043d
00000200: 5c8b 88be 40cc 0b3e 8b33 62be a84d 643e
00000210: 177c 4bbe 4076 8cbc 1761 90be 85ff 3cbe
00000220: 8d26 8abe f0d3 1d3d 22c6 1f3c 30f5 443d
00000230: 3a8f b03e 7e09 943d 6a21 4a3d 0075 f7bd
00000240: 0e43 613e 3e00 d73d d786 64be cd49 a3be
00000250: c223 c9bd 2cfc 563d 0513 edbd ec8a 593e
00000260: 8e27 88be 5c18 5f3c b590 dd3d c8e7 0b3e
00000270: 11c5 12bd f012 863e 087d 763e f222 68be
00000280: dc83 bc3d 84f1 973e 80f7 0fbe a374 95be
00000290: dceb a73c f000 363e d46e 01bd e3e8 8c3d
000002a0: ede5 a23d 9ad1 b2be 3b4a 1e3e 1f4c de3e
000002b0: 44dc 27be aea9 8fbd 4a05 193c 2040 0f3e
000002c0: dcd4 1b3e 1c5c 01be e7bb 313e 7473 ebbd
000002d0: acfc cbbc d734 e73c 2397 193e 9a81 913c
000002e0: ddfc 813e dbf6 c7be 7616 ee3d 1373 17be
000002f0: d1d1 893d a1a8 97be 5347 74be 9ace 74be
00000300: 7d90 acbe b98d a0be 4199 6e3e 9b93 31bd
00000310: a0e5 8bbe b542 a8be 8ad9 833e 8117 adbe
00000320: 4458 553d cc71 17bd 043f 2f3e 2da3 783e
00000330: 2fbb 873e e4db 633e 790c 81be 86cd 47be
00000340: c54a 86bd 9121 8b3d 5900 cfbd 6525 d23b
00000350: c7be 023d ed0b e1bd fd40 39be bc04 7e3e
00000360: 0010 63bd cfd5 c5be cafe d2bd 5fea c73d
00000370: ce29 0e3e c9f9 aebd e5f2 e8bd e9b7 903d
00000380: a386 1abd 560b 963e b0e3 b43c 45ec 2a3e
00000390: 0342 993e 66a1 633d 4761 8d3a 40d0 0c3e
000003a0: 4d60 09bd b7bc 9ebe 051e 77be 179b 0f3d
000003b0: 4a76 9dbe e8d5 743d 12b9 94bd 9c50 183e
000003c0: 04ef 2ebe 058c 303c f897 863e 4f0f cfbe
000003d0: 6d2d c83d 4e4b d13d 3984 ce3e 8c5d 18be
000003e0: 2faf a6bd a49d 943e a2f0 75be 859c c0be
000003f0: 694d 5d3d 759b 5b3e 3541 aebe 53ad 9dbe

encoder.conv.convs.1.bias f4 [20]
-0.015414336 -0.0047661145 0.013740154 -0.019385636 0.02666733 0.005204356 0.008689908 -0.027255967
-0.0059557203 0.025586654 0.010155025 -0.0017179096 0.081243716 0.06483745 0.027978234 -0.01521848
0.06888985 0.11728811 0.092326865 -0.0073750685
00000000: 698c 7cbc 112d 9cbb 621e 613c a0ce 9ebc
00000010: 7275 da3c 4d89 aa3b 1e60 0e3c e847 dfbc
00000020: 3428 c3bb 1a9b d13c 4361 263c 7b2b e1ba
00000030: 1b63 a63d 7fc9 843d 9c32 e53c ee56 79bc
00000040: 1f16 8d3d c034 f03d de15 bd3d 8faa f1bb

encoder.conv.convs.1.lin.weight f4 [20, 40]
0.201484 0.16489014 -0.16047907 0.30266047 -0.5204363 0.14150669 0.33291292 0.34160706
-0.35880834 -0.098189875 -0.16953282 0.09049027 0.40519837 -0.27497038 -0.16704601 0.28750017
0.233166 -0.24563871 0.06942431 0.07401983 0.19053052 -0.22155562 0.06865577 0.08935874
-0.5291442 -0.27595276 -0.2195778 0.014238994 -0.15726317 -0.087747194 -0.25696307 -0.12994225
-0.26888058 0.17843105 -0.25643012 0.01122522 -0.3472371 -0.19162232 0.15305756 0.19302344
0.09881517 -0.44354898 -0.063673794 0.086713724 0.48402002 0.17104828 0.3397774 0.083602786
-0.09061011 -0.18796217 -0.15929425 -0.22491471 0.13793379 -0.061103202 -0.05802637 -0.20748425
0.046962902 0.28122658 -0.47443116 0.16349302 -0.3495032 0.43375352 -0.12947042 0.017688656
0.09784482 -0.30960888 -0.23840152 -0.13687013 -0.120832734 0.12895113 0.14807798 0.050087363
-0.25622028 0.0013606906 0.0048858407 -0.09014354 0.21617264 0.021612218 -0.19307138 -0.05225876
0.32233918 -0.268403 0.43827718 0.35821834 -0.33097747 -0.20833723 -0.20530552 0.08336485
-0.1766275 0.035431582 -0.14113596 0.13010113 0.22043213 -0.0031420533 0.22929323 -0.21455562
-0.05499299 0.11640943 -0.01909925 0.1614448 -0.44529048 -0.14275742 -0.38286862 0.35707113
0.016652228 0.26000562 -0.09144932 -0.08636654 -0.44513243 -0.36661234 0.5349453 0.37333858
-0.56493664 0.30502483 0.35145482 -0.14072046 -0.29037297 0.40383658 -0.100798726 0.016036507
0.07117415 0.05144213 -0.0035989361 0.25378275 0.33139896 0.100061074 -0.06506513 0.08811245
0.054936703 0.06988707 -0.29229057 -0.2090596 -0.156932 -0.2266998 0.21359774 0.3306507
-0.30939448 0.18335477 0.008245349 0.02631747 -0.23752421 0.14387035 -0.5435146 0.14049347
-0.12016165 -0.24380043 -0.2535661 0.22995766 -1.0076226 0.23668215 -0.22081289 0.33430472
-0.06762614 -0.13331503 0.05491086 0.2770565 -0.63354146 0.1075857 0.37011823 -0.07631842
-0.099141665 0.33891836 -0.1667949 -0.1372328 0.34528294 0.27427322 -0.48553127 -0.22185327
0.12324986 0.27490777 0.17811957 -0.23705988 -0.32849067 0.27174243 -0.05531268 -0.37514403
-0.62513685 -0.13945663 -0.18828666 0.024586996 0.14841907 0.015429027 -0.083420835 0.18012773
-0.067102134 0.005984772 -0.036961433 0.16514091 -0.0062379916 -0.05369692 0.19163997 0.076464
-0.39406317 -0.17133185 0.23995945 0.14561974 0.30682838 -0.11042999 -0.006632131 0.24774677
-0.32034242 0.21534872 0.41864437 0.3495779 -0.61368066 0.14250548 -0.22645435 0.23934168
0.49553522 -0.22047162 -0.013914397 -0.067658894 0.2538288 0.10547777 -0.06444774 -0.10645144
-0.20087978 -0.040117208 -0.035122484 -0.23647045 0.27596638 -0.0075648366 -0.338357 0.17205101
-0.24885564 0.18769209 0.12244948 0.19561848 -0.006102385 -0.09886788 0.07911363 0.14280029
0.05466903 0.08163004 -0.0840367 -0.22992092 -0.09754285 -0.07140694 0.03586029 0.2393327
-0.6017257 0.08326928 0.55247176 -0.28560385 0.52652675 -0.528361 -0.3948568 -0.29057822
0.16619527 -0.049175773 -0.20908353 -0.12764975 -0.28306058 0.15590113 0.012011497 -0.1665917
00000000: d251 4e3e f6d8 283e a054 24be 50f6 9a3e
00000010: 503b 05bf 21e7 103e 9073 aa3e 1fe7 ae3e
00000020: bab5 b7be c617 c9bd 039a 2dbe f652 b93d
00000030: 2976 cf3e ebc8 8cbe 1c0e 2bbe 3933 933e
00000040: 11c3 6e3e b788 7bbe 552e 8e3d b597 973d
00000050: 6f1a 433e 7adf 62be 659b 8c3d b701 b73d
00000060: ff75 07bf ae49 8dbe 01d9 60be ab4a 693c
00000070: 9909 21be cdb4 b3bd aa90 83be 950f 05be
00000080: b7aa 89be a1b6 363e cf4a 83be fce9 373c
00000090: 10c9 b1be a438 44be 1fbb 1c3e f0a7 453e
000000a0: 9c5f ca3d da18 e3be 6867 82bd f796 b13d
000000b0: 79d1 f73e 4827 2f3e 4ef7 ad3e f037 ab3d
000000c0: cb91 b9bd 2879 40be 081e 23be 0b50 66be
000000d0: 843e 0d3e 5a47 7abd 0fad 6dbd c076 54be
000000e0: 2c5c 403d eefc 8f3e a4e8 f2be b76a 273e
000000f0: 15f2 b2be f114 de3e e593 04be cde7 903c
00000100: dd62 c83d 0e85 9ebe 871f 74be af27 0cbe
00000110: 2777 f7bd c40b 043e c1a1 173e 6828 4d3d
00000120: 4e2f 83be 3359 b23a 6719 a03b 2d9d b8bd
00000130: 5c5c 5d3e 1b0c b13c 81b4 45be 480d 56bd
00000140: a409 a53e 1e6c 89be de65 e03e 6568 b73e
00000150: e175 a9be 5b56 55be 9c3b 52be 31bb aa3d
00000160: d7dd 34be b520 113d f285 10be 3b39 053e
00000170: f6b8 613e e8ea 4dbb d8cb 6a3e 78b4 5bbe
00000180: 5440 61bd 1168 ee3d 0876 9cbc c951 253e
00000190: 1dfd e3be 002f 12be 5b07 c4be 07d2 b63e
000001a0: 416a 883c 751f 853e c849 bbbd f1e0 b0bd
000001b0: 66e8 e3be 9db4 bbbe 2df2 083f 3c26 bf3e
000001c0: b09f 10bf 372c 9c3e e3f1 b33e 0619 10be
000001d0: c4ab 94be abc3 ce3e 906f cebd fe5e 833c
000001e0: c1c3 913d fcb4 523d 21dc 6bbb d0ef 813e
000001f0: 20ad a93e d2ec cc3d de40 85bd 4d74 b43d
00000200: 4f05 613d f420 8f3d 1ca7 95be b813 56be
00000210: c8b2 20be fe23 68be 5eb9 5a3e 0c4b a93e
00000220: f468 9ebe 5ac1 3b3e 8017 073c bc97 d73c
00000230: 8c39 73be c052 133e c623 0bbf 85dd 0f3e
00000240: 5017 f6bd d2a6 79be 6ad3 81be 057a 6b3e
00000250: c7f9 80bf ce5c 723e c61c 62be fd29 ab3e
00000260: 937f 8abd bc83 08be 36ea 603d 59da 8d3e
00000270: c62f 22bf e455 dc3d 2380 bd3e d54c 9cbd
00000280: c90a cbbd b586 ad3e 48cc 2abe c186 0cbe
00000290: edc8 b03e 8a6d 8c3e 8e97 f8be 812d 63be
000002a0: 6c6a fc3d b6c0 8c3e fa64 363e d3bf 72be
000002b0: ee2f a8be d321 8b3e 8c8f 62bd e112 c0be
000002c0: f808 20bf b8cd 0ebe 38ce 40be ab6a c93c
000002d0: 2bfb 173e 08ca 7c3c 8bd8 aabd 6773 383e
000002e0: d86c 89bd e81b c43b df64 17bd b31a 293e
000002f0: 1168 ccbb 4df1 5bbd 453d 443e 2899 9c3d
00000300: a6c2 c9be 9e71 2fbe eeb7 753e 571d 153e
00000310: 9c18 9d3e 1e29 e2bd 5952 d9bb 54b1 7d3e
00000320: ec03 a4be 6084 5c3e 8e58 d63e e0fb b23e
00000330: 2d1a 1dbf f5ec 113e a6e3 67be fc15 753e
00000340: cbb6 fd3e 50c3 61be 36f9 63bc bf90 8abd
00000350: d9f5 813e bb04 d83d 2dfd 83bd 3603 dabd
00000360: 6eb3 4dbe f151 24bd 98dc 0fbd 4f25 72be
00000370: 774b 8d3e 73e2 f7bb 213d adbe 242e 303e
00000380: 03d4 7ebe 5b32 403e cbc6 fa3d 3650 483e
00000390: 84f6 c7bb 3e7b cabd 5406 a23d 3d3a 123e
000003a0: a2ec 5f3d a72d a73d 6f1b acbd 6470 6bbe
000003b0: 8cc4 c7bd cd3d 92bd 3de2 123d a213 753e
000003c0: b20a 1abf 1689 aa3d ca6e 0d3f ab3a 92be
000003d0: 75ca 063f ab42 07bf ac2a cabe abc6 94be
000003e0: 182f 2a3e 896c 49bd fe19 56be 9eb6 02be
000003f0: 51ed 90be 8ca4 1f3e dfcb 443c 0497 2abe

encoder.embed_x.weight f4 [28, 40]
-1.2964044 -0.15884393 0.6624626 -0.12070286 0.51628304 0.31481314 0.6588807 -0.55778944
-0.1009577 0.042190555 0.057804085 -0.6424307 -0.4121951 0.90380216 0.41104716 -0.2452029
0.5878347 1.2102073 -0.7414756 0.90771776 1.4575887 -0.018723646 -1.0091126 1.2233974
0.5986239 -0.78574187 -0.03970425 0.4107854 -0.9446636 0.32218015 0.07378747 0.78312784
-1.3130287 0.24433117 1.1438577 0.36301652 -0.78990096 1.0898843 -0.04477842 0.013125861
-0.97618306 1.0037986 -0.9669923 -0.39547938 0.5506584 -0.06196881 -0.16579582 -0.9039465
1.4738837 -0.17962544 -0.06069024 -0.6977017 1.1413486 0.25429904 1.5878036 -0.103256434
1.0930285 1.1328094 1.4658713 1.4546093 1.6793995 0.7904259 1.2184094 -0.24387982
-0.4225685 0.030679373 -0.867775 1.7430869 -1.3392409 -0.029007204 -0.33362654 -0.5135468
-1.199283 0.14679785 -1.5791332 -1.5845947 1.1967089 0.77127755 -1.800402 -1.5002326
0.47959077 -0.51671064 0.31547698 0.27398908 1.151955 1.0045412 -0.008780344 -1.7298433
1.113829 0.92575836 -1.6640899 0.054973222 0.20985678 -0.29005384 -1.1591796 1.9637723
-2.6536152 -1.6789602 -0.49160287 1.0093279 -0.009776392 0.19889556 0.8986472 0.957076
-0.43652982 0.7290028 0.24741611 0.10264845 0.66401476 1.8029485 -0.7715534 1.1206803
-0.8837013 -0.105307706 1.5431173 0.061036784 0.028312173 0.023284432 0.004064373 -1.3815762
-3.1102731 0.7578546 1.3178358 -1.1522238 -0.172872 -0.094934165 0.21594371 -2.545358
1.8801985 1.7321483 0.49672553 -0.7050945 -1.2488105 -0.5658935 -0.36970913 -1.6208621
-2.255345 -1.4670334 0.4463676 0.031882815 -2.4524684 0.8408502 -0.12045214 -0.24995276
-1.4757453 2.6337643 -0.44187272 2.5385659 0.93410665 -0.9331776 -0.55202913 1.0692258
1.4263835 0.55488694 -0.51090175 0.91480696 1.5932267 -0.02667781 -1.9561542 -1.2028387
0.91109955 0.6542761 -0.85942096 -1.7093902 1.3950615 -0.33294508 -0.14226012 -0.81456345
-0.22205156 0.24178192 -1.3765081 1.4928119 0.17192633 -0.8455703 -0.19609827 1.5500318
1.267736 -0.45482144 2.9595082 0.16924746 -1.5000762 0.960275 1.0748758 -0.5519033
2.075797 -1.6727821 1.3214618 0.65464336 -1.4176924 0.15691645 0.4829116 0.49003163
0.8181244 -0.6896551 -0.59419614 -0.54867136 -2.5465422 -1.9020025 0.501173 -0.71965116
-0.48196292 -0.9869215 -1.509901 1.1740232 -0.049766634 0.23544571 -2.5023205 -0.36073095
0.6306829 1.3650761 -0.57303673 0.58684504 0.8757005 1.0124501 1.3316076 0.9007594
0.15782109 0.9409803 -1.7891868 1.5911787 0.0743913 3.3490605 -0.33649045 -0.5162387
1.4542289 1.5319327 -1.2888764 -1.5874839 -0.9430249 -2.0772145 0.7358048 1.195419
1.3810751 0.69993466 -1.4233301 -0.54297465 -0.87965745 1.4780008 -0.091162324 -0.5164479
0.94067883 0.47570586 -0.8505474 0.37861446 -1.1480893 0.3387669 -0.04542389 -0.49969277
-0.337515 3.5824242 -0.57389224 0.30173835 -0.3095371 -0.8635283 0.81271666 -0.07555019
00000000: 94f0 a5bf fca7 22be 2697 293f 1033 f7bd
00000010: 202b 043f 302f a13e 68ac 283f 4acb 0ebf
00000020: e9c2 cebd 01d0 2c3d fac3 6c3d 5776 24bf
00000030: 3c0b d3be 945f 673f c674 d23e 7816 7bbe
00000040: 567c 163f 13e8 9a3f 58d1 3dbf 3160 683f
00000050: 4492 ba3f 5562 99bc 9a2a 81bf 4998 9c3f
00000060: 6a3f 193f 6126 49bf eca0 22bd 7752 d23e
00000070: 79d5 71bf ccf4 a43e e31d 973d 117b 483f
00000080: 5311 a8bf f331 7a3e ee69 923f 4ddd b93e
00000090: f336 4abf 5481 8b3f 9469 37bd da0d 573c
000000a0: 22e7 79bf 797c 803f cf8c 77bf 467c cabe
000000b0: f3f7 0c3f 02d3 7dbd 61c6 29be 0a69 67bf
000000c0: 39a8 bc3f bbef 37be 5496 78bd 949c 32bf
000000d0: b617 923f 7c33 823e 263d cb3f 1c78 d3bd
000000e0: 5ce8 8b3f e6ff 903f aca1 bb3f a330 ba3f
000000f0: 90f6 d63f 5a59 4a3f d7f4 9b3f a2bb 79be
00000100: e65a d8be 4f53 fb3c 8126 5ebf 791d df3f
00000110: 3f6c abbf 84a0 edbc 19d1 aabe ce77 03bf
00000120: 1b82 99bf 2d52 163e 0921 cabf 00d4 cabf
00000130: c22d 993f 7272 453f 9373 e6bf 9f07 c0bf
00000140: ec8c f53e 2647 04bf 3386 a13e 4c48 8c3e
00000150: 4373 933f ce94 803f 6fdb 0fbc 816b ddbf
00000160: f391 8e3f 80fe 6c3f e600 d5bf 9a2b 613d
00000170: b2e4 563e f081 94be ff5f 94bf e45c fb3f
00000180: d5d4 29c0 2be8 d6bf 5fb3 fbbe a831 813f
00000190: 292d 20bc 47ab 4b3e be0d 663f ef02 753f
000001a0: d680 dfbe ed9f 3a3f a65a 7d3e 5a39 d23d
000001b0: dffc 293f 04c7 e63f 8684 45bf 7472 8f3f
000001c0: 403a 62bf 91ab d7bd de84 c53f b501 7a3d
000001d0: eeee e73c febe be3c 6f2e 853b 7dd7 b0bf
000001e0: b70e 47c0 c202 423f d8ae a83f 127c 93bf
000001f0: 5c05 31be d86c c2bd 5920 5d3e 25e7 22c0
00000200: 58aa f03f 09b7 dd3f cf52 fe3e 1381 34bf
00000210: 06d9 9fbf 65de 10bf 844a bdbe 6978 cfbf
00000220: 9357 10c0 c0c7 bbbf 4b8a e43e 8e97 023d
00000230: 3ef5 1cc0 f541 573f 9daf f6bd 9ef3 7fbe
00000240: 39e5 bcbf 988f 2840 243d e2be dd77 2240
00000250: 9d21 6f3f bae4 6ebf c851 0dbf 64dc 883f
00000260: bc93 b63f 120d 0e3f 75ca 02bf ca30 6a3f
00000270: daee cb3f 6c8b dabc 4363 fabf 9ef6 99bf
00000280: d23d 693f a37e 273f 0303 5cbf 4ccd dabf
00000290: 6091 b23f c777 aabe a3ac 11be 3b87 50bf
000002a0: 7c61 63be ae95 773e 6b31 b0bf 7614 bf3f
000002b0: 750d 303e 4c77 58bf fccd 48be 7167 c63f
000002c0: 2c45 a23f 5bde e8be 9568 3d40 354f 2d3e
000002d0: 7f02 c0bf 95d4 753f 8895 893f 8949 0dbf
000002e0: dcd9 0440 b91d d6bf a925 a93f b596 273f
000002f0: f276 b5bf b5ae 203e 3040 f73e 6de5 fa3e
00000300: 9a70 513f 3d8d 30bf 3d1d 18bf ba75 0cbf
00000310: 8cfa 22c0 d174 f3bf e04c 003f 0f3b 38bf
00000320: d8c3 f6be e3a6 7cbf 7044 c1bf 6446 963f
00000330: 19d8 4bbd ae18 713e 0526 20c0 bab1 b8be
00000340: 6f74 213f d0ba ae3f 89b2 12bf 7a3b 163f
00000350: e82d 603f f797 813f 1e72 aa3f 2b98 663f
00000360: da9b 213e 16e4 703f 1304 e5bf beab cb3f
00000370: 775a 983d 0257 5640 7a48 acbe 3828 04bf
00000380: 2c24 ba3f 5f16 c43f e7f9 a4bf ac32 cbbf
00000390: 146a 71bf 15f1 04c0 b45d 3c3f 7d03 993f
000003a0: 12c7 b03f eb2e 333f ae2f b6bf 6300 0bbf
000003b0: 3b31 61bf 212f bd3f 50b3 babd ee35 04bf
000003c0: 54d0 703f b88f f33e 79bd 59bf c1d9 c13e
000003d0: 97f4 92bf db72 ad3e 670e 3abd bbd7 ffbe
000003e0: c4ce acbe 7046 6540 9aea 12bf 737d 9a3e
000003f0: a67b 9ebe 3110 5dbf 330e 503f 0fba 9abd

encoder.trans_linear.weight f4 [40, 5]
0.37863964 0.9627331 -0.57497215 -0.4453571 0.055265445 0.49468693 -0.3472336 0.15888892
-0.37563747 -0.40582258 0.09068461 -0.2753429 -0.16318524 0.21276097 -0.44699952 0.14827254
-0.53723395 -0.6155602 0.8146342 -0.13517982 0.4782331 1.009851 0.69887877 -0.22911596
0.18406747 0.5866095 0.5829948 -0.36203292 -0.31384102 -0.3549556 -0.2968778 -0.013398898
0.24357304 -0.73742044 0.110312246 0.63074297 0.30053332 -0.32798198 -0.7108554 0.16799112
0.31884894 -0.07734492 0.7588974 -0.41178134 -0.10695266 -0.948551 0.39844602 -0.098330505
-0.2421752 -0.14356843 0.75380766 0.2259777 -0.33012542 -0.5140469 -0.09399261 0.19839492
1.0353323 0.3035709 0.8001292 0.36662644 -0.16331242 -0.4686924 -0.59554577 -0.46038267
-0.2456048 -0.4668891 1.0361419 -0.052814618 -0.017105753 -0.047686547 -0.0034909013 -0.69143564
0.78678894 0.19048944 0.13822056 0.8705419 -0.6379073 -0.2975141 -0.39319775 0.15846132
0.42039496 -0.27440602 -0.081357464 0.16404273 0.106858395 -0.3760947 0.04061073 -0.06800681
-0.5476186 0.09213196 0.047740765 -0.21695589 0.19703859 0.47073942 -0.35671803 -0.38104862
0.27121538 0.022039356 -0.3969389 0.39588666 -0.46088874 -0.017569566 0.39163303 0.7573487
0.30114055 0.25478783 -0.031416416 0.037226826 0.13225931 0.426463 -0.39456707 0.25425786
0.4665059 -0.74538875 0.03254903 0.2034102 -0.04726481 0.38914874 0.1441522 0.06477263
0.33319756 -0.6921979 -0.9802854 -0.20303002 0.2507487 -0.07172372 -0.4811336 0.27992475
0.4667421 0.033132512 0.56531304 -0.23053518 0.5678533 0.24318108 -0.33353963 -0.39946342
-0.09044863 -0.12554194 0.0050464696 0.15788406 -0.4295195 0.13645813 -0.048541382 -0.09456072
0.29079422 -0.52377206 -0.8105333 -0.35615736 -0.16150443 0.14235856 0.09899107 -1.094124
-0.16840334 0.09855512 -0.059622824 -0.23425972 -0.82613355 0.59860265 -0.5192074 0.14964826
-0.6031202 -0.68639433 0.28274822 -0.14026207 0.22790124 -0.6633878 -0.6936597 0.14241636
-0.03189305 -0.36276904 -0.5821616 -0.2017521 -0.07260441 0.0030881343 0.23630415 -0.49439704
0.39691094 0.027813373 0.5350099 0.11899321 -0.3142376 -0.49268836 -0.46071738 -0.06603453
0.2153195 0.25413814 -0.7713005 0.6937216 0.18763141 0.5363253 -0.44184482 0.25969586
-0.14075145 -0.14852867 -0.27196008 -0.32336804 -0.3193495 0.35542172 -0.93826514 -0.06579294
00000000: 0edd c13e ad75 763f 6031 13bf d905 e4be
00000010: 055e 623d 9b47 fd3e 9ac8 b1be c7b3 223e
00000020: 8e53 c0be fac7 cfbe dab8 b93d bff9 8cbe
00000030: 081a 27be 03de 593e 1fdd e4be c2d4 173e
00000040: 2a88 09bf 5a95 1dbf de8b 503f 946c 0abe
00000050: f8da f43e cc42 813f b8e9 323f 609d 6abe
00000060: 2f7c 3c3e 0a2c 163f 263f 153f 615c b9be
00000070: c5af a0be bebc b5be 5e00 98be 0d87 5bbc
00000080: 366b 793e 96c7 3cbf 63eb e13d 5f78 213f
00000090: 81df 993e 41ed a7be 9ffa 35bf dd05 2c3e
000000a0: 2b40 a33e 0367 9ebd 1a47 423f 01d5 d2be
000000b0: ff09 dbbd 3dd4 72bf 1e01 cc3e 8161 c9bd
000000c0: c7fc 77be 9a03 13be 8af9 403f b366 673e
000000d0: 3306 a9be 9498 03bf 337f c0bd 0a28 4b3e
000000e0: c585 843f a56d 9b3e 44d5 4c3f 76b6 bb3e
000000f0: 5f3b 27be 73f8 efbe b075 18bf 47b7 ebbe
00000100: d37f 7bbe 170c efbe 4ca0 843f 2454 58bd
00000110: 5d21 8cbc f852 43bd 9bc7 64bb ed01 31bf
00000120: 006b 493f aa0f 433e b189 0d3e d5db 5e3f
00000130: e54d 23bf c553 98be 3751 c9be af43 223e
00000140: 023e d73e f27e 8cbe be9e a6bd d1fa 273e
00000150: 93d8 da3d 7c8f c0be 7057 263d 2847 8bbd
00000160: bc30 0cbf aeaf bc3d d28b 433d af29 5ebe
00000170: 7cc4 493e c204 f13e bfa3 b6be ce18 c3be
00000180: bedc 8a3e e18b b43c 933b cbbe a8b1 ca3e
00000190: 9cf9 ebbe 0dee 8fbc 2084 c83e 9be1 413f
000001a0: 182f 9a3e 8d73 823e 80ae 00bd 287b 183d
000001b0: fc6e 073e 5c59 da3e b204 cabe 162e 823e
000001c0: dcd9 ee3e ccd1 3ebf 2252 053d c34a 503e
000001d0: bf98 41bd 813e c73e a29c 133e 83a7 843d
000001e0: df98 aa3e e233 31bf fcf3 7abf 1ae7 4fbe
000001f0: 2262 803e e3e3 92bd 2557 f6be 4c52 8f3e
00000200: d2f8 ee3e f5b5 073d 5bb8 103f 6a11 6cbe
00000210: d55e 113f 7604 793e b5c5 aabe 7886 ccbe
00000220: 223d b9bd 118e 00be db5c a53b 5cac 213e
00000230: fbe9 dbbe aebb 0b3e 54d3 46bd 0da9 c1bd
00000240: fbe2 943e ed15 06bf 1c7f 4fbf 425a b6be
00000250: 6b61 25be 71c6 113e d5bb ca3d 410c 8cbf
00000260: ed71 2cbe 44d7 c93d 1037 74bd c8e1 6fbe
00000270: 7d7d 53bf 063e 193f c7ea 04bf 653d 193e
00000280: 1666 1abf 8ab7 2fbf 60c4 903e dca0 0fbe
00000290: f15e 693e c8d3 29bf af93 31bf 98d5 113e
000002a0: 49a2 02bd ddbc b9be 8b08 15bf 1a98 4ebe
000002b0: 9fb1 94bd 4c62 4a3b b7f9 713e 9c21 fdbe
000002c0: e937 cb3e dfd8 e33c 69f6 083f b6b2 f33d
000002d0: c0e3 a0be a641 fcbe 26e3 ebbe 1d3d 87bd
000002e0: b77c 5c3e 651e 823e f373 45bf bd97 313f
000002f0: 7322 403e 9d4c 093f 7c39 e2be dbf6 843e
00000300: 2621 10be e617 18be 5a3e 8bbe 7f90 a5be
00000310: c781 a3be d6f9 b53e 2532 70bf 73be 86bd

encoder.trans_linear.bias f4 [40]
-0.04548193 0.00028122682 -0.39815956 0.13151841 0.16408822 -0.26767704 -0.45633766 0.16524158
-0.11309274 -0.37620673 -0.23750585 0.38197356 0.24027717 -0.019084146 -0.41338503 0.12882765
0.05204284 -0.2560026 0.27920994 0.20466678 -0.40077174 -0.22628842 0.4845128 0.08309325
-0.40925306 0.16703692 0.26099724 0.2324549 -0.13455625 -0.103735015 -0.070879966 -0.5331817
-0.2239496 0.104322314 0.07522104 -0.05614438 0.27268678 -0.38654032 0.23053025 -0.27704963
00000000: 434b 3abd a071 9339 92db cbbe c3ac 063e
00000010: be06 283e f70c 89be 17a5 e9be 1735 293e
00000020: 2b9d e7bd 2b9e c0be bc34 73be 0a92 c33e
00000030: 380b 763e 5b56 9cbc 34a7 d3be 65eb 033e
00000040: df2a 553d c612 83be 9bf4 8e3e 2b94 513e
00000050: f431 cdbe 27b8 67be 1012 f83e cb2c aa3d
00000060: 9e89 d1be ba0b 2b3e 6ea1 853e a808 6e3e
00000070: 1dc9 09be 0673 d4bd 8429 91bd 997e 08bf
00000080: 0b53 65be f0a6 d53d 7d0d 9a3d a6f7 65bd
00000090: 9a9d 8b3e 9de8 c5be 1f10 6c3e 73d9 8dbe

encoder.conv_mu.bias f4 [20]
-0.013342475 0.041949302 -0.0016829385 0.032930173 -0.032179352 0.0688448 -0.029003182 0.0018263644
0.03830172 -0.015204938 0.047627855 0.04171378 -0.09228916 0.020858338 -0.07485752 0.007518759
0.044753745 -0.03463273 0.008083709 0.033186223
00000000: 659a 5abc 08d3 2b3d 0c96 dcba cae1 063d
00000010: 7fce 03bd 81fe 8c3d 1598 edbc 9f62 ef3a
00000020: 44e2 1c3d 221e 79bc 6d15 433d 12dc 2a3d
00000030: 1902 bdbd 1bdf aa3c e64e 99bd ec5f f63b
00000040: b44f 373d 0ddb 0dbd 8871 043c 47ee 073d

encoder.conv_mu.lin.weight f4 [20, 20]
0.10072725 0.33990029 0.26366687 -0.18922287 0.5706969 -0.26216158 -0.3441593 -0.59585834
-0.38645178 -0.36552098 -0.2833256 -0.19761857 0.31987062 -0.2977943 0.16188501 -0.519059
-0.37156403 0.28534102 0.020641744 0.40763992 -0.17557509 -0.05424751 0.19395053 -0.07360908
-0.036272697 0.22640133 -0.2605763 -0.37904927 0.07299227 -0.2706721 0.4987299 -0.017266419
0.3471012 -0.5994425 -0.3249912 -0.09093995 0.19925688 0.051691525 0.047518186 0.0615837
0.13538112 -0.17103532 0.024703229 -0.44718754 0.6145093 0.40431142 0.045628976 0.19541839
0.25064296 0.48416436 -0.48263314 0.1854993 0.055375922 -0.1206205 -0.030291982 -0.11486473
0.11421711 -0.34984365 0.4261121 -0.16000997 -0.10830782 0.20411974 0.03923836 -0.09030778
-0.15628481 0.27749735 -0.23899172 -0.18000251 0.046765998 0.4338184 0.32476303 -0.050296746
-0.26145315 -0.55099005 -0.12800507 0.1582969 0.009698599 0.041908633 0.6211706 -0.13737935
-0.07803539 0.21086147 -0.09299865 0.39885885 0.11860064 0.38796812 0.09120763 -0.28806105
0.5222862 0.16847777 0.021956509 -0.3106533 -0.4402707 -0.097062714 0.27598011 -0.29744112
-0.32742155 0.07315433 -0.10984979 0.034155495 0.30214822 0.07703199 -0.29254553 0.29467037
-0.011254521 -0.18861417 -0.08522571 -0.027056666 0.38972947 -0.029739128 0.21527697 -0.29200414
-0.1255201 -0.08623851 0.23385686 0.38921952 -0.13161306 -0.19780903 0.64543307 -0.055446915
-0.13999489 0.084827185 -0.09367203 -0.31397817 -0.5815181 -0.255065 0.5130802 0.3312109
-0.20233339 0.23945363 0.12136057 0.15898085 0.18008465 -0.804488 -0.012620376 -0.044111464
0.1421823 0.24064368 -0.28447828 -0.51230365 0.2567784 -0.3949398 0.003341739 -0.12466162
-0.3350002 0.5626603 0.5227108 0.14610489 -0.33205822 -0.15259679 -0.16705996 -0.21713722
0.48573416 -0.16315518 -0.05126749 0.27150136 -0.40091577 0.14733243 0.07197334 -0.039469022
0.14922507 0.4687736 -0.1510698 -0.15846692 -0.06619689 0.23128545 -0.0038216494 -0.20119196
-0.47372994 0.51448715 0.33723018 0.120176345 -0.055278774 0.48181596 -0.52469677 -0.23682982
0.1205162 0.17537665 -0.066533566 -0.050804403 -0.48762554 0.47010097 -0.14434181 -0.61082727
-0.38194028 0.13771684 0.35643223 0.5986392 -0.1913811 -0.06569628 0.30806753 -0.09007434
0.17086297 0.060289446 0.016856216 -0.07823562 -0.40537766 0.20189008 0.24584162 -0.15145417
0.39325175 -0.23596643 -0.31306505 -0.23652978 0.40142265 -0.5524818 -0.30500314 0.20108508
-0.029581962 -0.4058952 -0.16116051 -0.10012967 -0.002768438 0.49588332 -0.10641065 0.017053692
0.47397295 0.11532903 -0.040646765 0.19291338 -0.24956247 0.018233856 -0.2527907 -0.3155756
-0.32838097 0.50677955 -0.30995575 -0.35166624 -0.09260497 -0.32002896 -0.32034075 -0.3414165
0.06541767 0.24891579 0.27035144 0.416277 0.42053252 0.22952153 -0.009521268 -0.008451259
0.0844512 -0.45510015 0.2652029 -0.28172103 0.2230391 -0.11878383 -0.022504255 -0.18008474
0.20578179 0.29999346 0.14575052 0.2751634 -0.058585446 -0.15962446 -0.045851354 -0.38930392
00000000: 174a ce3d 6907 ae3e 58ff 863e a4c3 41be
00000010: 3119 123f 0b3a 86be a635 b0be 2c8a 18bf
00000020: 02dd c5be 9125 bbbe 0e10 91be 865c 4abe
00000030: 15c6 a33e 7f78 98be 2fc5 253e 0de1 04bf
00000040: a43d bebe 3818 923e e018 a93c 2eb6 d03e
00000050: f5c9 33be a332 5ebd f89a 463e 5bc0 96bd
00000060: ae92 14bd c0d5 673e 426a 85be bf12 c2be
00000070: f97c 953d 8995 8abe 8759 ff3e 4e72 8dbc
00000080: 40b7 b13e 1075 19bf 3f65 a6be b93e babd
00000090: ff09 4c3e 7eba 533d 6ea2 423d 313f 7c3d
000000a0: 59a1 0a3e e223 2fbe 6d5e ca3c c4f5 e4be
000000b0: 7b50 1d3f e801 cf3e 73e5 3a3d c21b 483e
000000c0: 4654 803e 64e4 f73e b11b f7be 87f3 3d3e
000000d0: ddd1 623d e107 f7bd e426 f8bc 333e ebbd
000000e0: a9ea e93d b51e b3be 5d2b da3e a7d9 23be
000000f0: 7ed0 ddbd c404 513e 67b8 203d 49f3 b8bd
00000100: 2009 20be 2214 8e3e 3fba 74be 9452 38be
00000110: b48d 3f3d 721d de3e 5747 a63e f603 4ebd
00000120: 30dd 85be af0d 0dbf c313 03be 9518 223e
00000130: dfe6 1e3c 63a8 2b3d 0905 1f3f 2cad 0cbe
00000140: 05d1 9fbd 12ec 573e 1476 bebd 3a37 cc3e
00000150: e4e4 f23d c2a3 c63e 11cb ba3d bd7c 93be
00000160: 8cb4 053f 7085 2c3e 23de b33c f30d 9fbe
00000170: 296b e1be d1c8 c6bd 444d 8d3e 344a 98be
00000180: cca3 a7be f0d1 953d edf8 e0bd a2e6 0b3d
00000190: 2cb3 9a3e f3c2 9d3d 87c8 95be 09df 963e
000001a0: e264 38bc 1324 41be d18a aebd f1a5 ddbc
000001b0: 9f8a c73e 799f f3bc 9171 5c3e 9181 95be
000001c0: 5788 00be d19d b0bd 2c78 6f3e c847 c73e
000001d0: 93c5 06be 738e 4abe 1a3b 253f 4e1c 63bd
000001e0: d25a 0fbe e0b9 ad3d 1fd7 bfbd bfc1 a0be
000001f0: 5fde 14bf e197 82be 3959 033f 7a94 a93e
00000200: 7c30 4fbe 5533 753e e48b f83d e0cb 223e
00000210: 1c68 383e edf2 4dbf b2c5 4ebc 39ae 34bd
00000220: 3d98 113e 4c6b 763e 23a7 91be 5526 03bf
00000230: 7578 833e 8d35 cabe 1401 5b3b 974e ffbd
00000240: 2585 abbe 810a 103f 60d0 053f 859c 153e
00000250: 8903 aabe 5542 1cbe c411 2bbe 3859 5ebe
00000260: 26b2 f83e 2712 27be dcfd 51bd 3a02 8b3e
00000270: d544 cdbe 50de 163e c266 933d 45aa 21bd
00000280: 75ce 183e 1803 f03e 0bb2 1abe 2745 22be
00000290: 3c92 87bd 18d6 6c3e a374 7abb 4405 4ebe
000002a0: bb8c f2be 6eb5 033f 6fa9 ac3e 041f f63d
000002b0: ff6b 62bd 95b0 f63e 8752 06bf 8483 72be
000002c0: 33d1 f63d f095 333e c042 88bd 4718 50bd
000002d0: 0eaa f9be 13b1 f03e 57ce 13be 2d5f 1cbf
000002e0: ad8d c3be a505 0d3e 497e b63e 6b40 193f
000002f0: 68f9 43be c58b 86bd 07bb 9d3e e578 b8bd
00000300: b4f6 2e3e 11f2 763d 0c16 8a3c ff39 a0bd
00000310: a98d cfbe 46bc 4e3e e8bd 7b3e cd16 1bbe
00000320: 4b58 c93e 2fa1 71be 104a a0be dd34 72be
00000330: 4587 cd3e 726f 0dbf 5f29 9cbe 3fe9 4d3e
00000340: df55 f2bc 7fd1 cfbe 4307 25be c910 cdbd
00000350: af6e 35bb 6be4 fd3e d4ed d9bd 2fb4 8b3c
00000360: 95ac f23e a031 ec3d 397d 26bd 168b 453e
00000370: 4e8d 7fbe 2b5f 953c c86d 81be 2093 a1be
00000380: 8d21 a8be 4ebc 013f 85b2 9ebe 990d b4be
00000390: ada7 bdbd d6da a3be b403 a4be 25ce aebe
000003a0: b3f9 853d c8e3 7e3e 816b 8a3e 4222 d53e
000003b0: 0a50 d73e b107 6b3e 18ff 1bbc 2677 0abc
000003c0: c0f4 ac3d e302 e9be adc8 873e bd3d 90be
000003d0: 5d64 643e f044 f3bd d85a b8bc 2268 38be
000003e0: 76b8 523e be98 993e a03f 153e 38e2 8c3e
000003f0: 4bf7 6fbd 9874 23be a1ce 3bbd d852 c7be

encoder.conv_logstd.bias f4 [20]
-0.45246813 -0.4637042 -0.5581374 -0.42191646 -0.37653634 -0.4447748 -0.5042733 -0.4873477
-0.4648456 -0.53687704 -0.38189387 -0.45989275 -0.42079297 -0.46351224 -0.41768274 -0.42230806
-0.35983798 -0.45859823 -0.28515637 -0.45262617
00000000: e7a9 e7be a36a edbe 18e2 0ebf 6f05 d8be
00000010: 5fc9 c0be 86b9 e3be 0e18 01bf a385 f9be
00000020: 3e00 eebe c670 09bf 9887 c3be 1077 ebbe
00000030: 2d72 d7be 7a51 edbe 83da d5be c338 d8be
00000040: af3c b8be 63cd eabe 0400 92be 9ebe e7be

encoder.conv_logstd.lin.weight f4 [20, 20]
-0.20381643 -0.09584606 0.010587406 0.054910444 0.26848435 -0.17079893 0.22503337 -0.1431341
-0.19327389 -0.26570332 -0.3935795 0.06592164 -0.21330062 -0.3318061 -0.34052393 0.10573476
-0.35686022 -0.2172833 -0.08482595 -0.0863883 -0.07119445 0.09528267 -0.23113509 -0.0690977
0.14143522 -0.046404514 0.20511574 -0.031012397 -0.03527122 -0.048759278 -0.24565908 0.035440635
-0.16663104 -0.14632213 -0.16455948 0.021750826 -0.22302741 -0.427046 -0.3448546 -0.07026925
-0.02462694 0.036502346 -0.085425034 -0.15665919 -0.104810044 -0.16034245 0.15294227 0.0053383927
-0.12090659 0.041242845 -0.16306351 -0.2566059 -0.24403995 -0.15220542 -0.18002966 0.13077435
-0.1936373 -0.18356313 -0.18046498 -0.034954075 0.055844337 0.029397357 -0.10563462 -0.052694865
0.08741789 -0.15393126 0.051045902 -0.06669132 0.004385732 0.0410655 -0.19457154 -0.22001548
-0.24225411 -0.20736171 -0.09309415 0.114728734 -0.20140286 -0.27807978 -0.1532157 0.060978718
0.008402022 0.12552746 -0.17904224 -0.1030622 -0.052597437 -0.15516962 0.045597684 -0.04188451
0.086884096 0.0150060095 -0.14322452 -0.37534782 -0.4000729 -0.22934972 0.003464738 0.109910324
-0.23404361 -0.34647074 -0.22984652 0.011803583 -0.16401742 0.006290775 -0.08408804 -0.054011587
0.012970722 -0.13876013 0.17363396 -0.060461454 -0.16500571 -0.13804148 -0.27317053 -0.11633305
-0.14610137 -0.23998873 -0.23292582 0.14105581 -0.27813727 -0.19260274 -0.16536666 -0.09978891
-0.090006806 -0.0127529735 0.0073075844 -0.10831038 -0.056685537 -0.17868698 0.12867287 -0.04393514
-0.12513816 -0.094969556 -0.2232331 -0.32382482 -0.26076132 -0.3909348 -0.15969825 0.18025987
-0.29711667 -0.13795136 -0.041918047 -0.046281915 0.012482847 -0.0013684322 -0.13423541 -0.13743794
0.10682932 -0.22788975 0.1458493 -0.0011278711 0.0060023805 0.045825552 -0.17422305 -0.17404409
-0.31042707 -0.16185124 -0.16329026 0.07544681 -0.2010376 -0.3725942 -0.24906327 -0.060074378
-0.09080583 0.016374158 0.01184815 -0.059666194 0.012065645 -0.16158552 0.19774258 -0.06180359
-0.14327526 -0.10894205 -0.30796903 -0.22509658 -0.2902902 -0.29452026 -0.20607664 0.16915461
-0.33132142 -0.14143308 -0.10291031 -0.029714625 -0.109069414 -0.00067006703 -0.08207459 -0.21479928
-0.0169419 -0.13864323 0.18752949 0.0064365813 -0.082528256 -0.00032059164 -0.18144505 -0.24648985
-0.27390587 -0.23136139 -0.19802827 0.11127813 -0.2055428 -0.20044348 -0.14520752 -0.13386637
-0.0526729 0.024130624 -0.17554018 0.025082203 0.32579038 -0.08547676 0.19849597 -0.12877128
-0.122576535 -0.20302445 -0.36474445 0.11410867 -0.13963307 -0.19841011 -0.2618383 0.08150945
-0.31998304 -0.4339018 -0.2615069 -0.036819942 -0.1275809 0.07443597 0.017965738 -0.10087585
-0.048267223 -0.24004577 0.14470716 0.020738585 -0.14939071 0.029982578 -0.27357656 -0.25971606
-0.28050423 -0.26375905 -0.22888084 0.15969461 -0.28918836 -0.1462743 -0.014521099 -0.017114876
-0.10313898 -0.029321106 -0.08872902 -0.03422472 0.08507008 -0.10106324 0.27260146 -0.055950545
-0.116258934 -0.114078365 -0.2968691 -0.04929029 -0.14821981 -0.12436526 -0.206692 0.1271092
00000000: 41b5 50be f04a c4bd cd76 2d3c c6e9 603d
00000010: c876 893e eae5 2ebe 266f 663e bf91 12be
00000020: 97e9 45be 440a 88be 4183 c9be ed01 873d
00000030: 7a6b 5abe 7de2 a9be 2759 aebe 778b d83d
00000040: 62b6 b6be 837f 5ebe 3ab9 adbd 59ec b0bd
00000050: 65ce 91bd 8f23 c33d adae 6cbe 1883 8dbd
00000060: 65d4 103e a912 3ebd dc09 523e b60d febc
00000070: 8e78 10bd cfb7 47bd 0e8e 7bbe 332a 113d
00000080: 54a1 2abe 78d5 15be 4882 28be ca2e b23c
00000090: 4c61 64be c6a5 dabe c890 b0be 53e9 8fbd
000000a0: 70be c9bc 7c83 153d 52f3 aebd 446b 20be
000000b0: a6a6 d6bd d030 24be e69c 1c3e afed ae3b
000000c0: e09d f7bd 42ee 283d 1ffa 26be d961 83be
000000d0: 9ce5 79be bddb 1bbe b259 38be b6e9 053e
000000e0: db48 46be f9f7 3bbe d0cb 38be 012c 0fbd
000000f0: 08bd 643d bad2 f03c f756 d8bd 92d6 57bd
00000100: 2708 b33d 28a0 1dbe 8215 513d 7595 88bd
00000110: 30b6 8f3b 4c34 283d c33d 47be bd4b 61be
00000120: 7611 78be a156 54be 25a8 bebd e6f6 ea3d
00000130: 8d3c 4ebe 7960 8ebe 94e4 1cbe d2c4 793d
00000140: a2a8 093c 458a 003e d956 37be 4612 d3bd
00000150: 6970 57bd c9e4 1ebe a3c4 3a3d 188f 2bbd
00000160: 4af0 b13d c4db 753c 73a9 12be 972d c0be
00000170: 5bd6 ccbe a7da 6abe a810 633b aa18 e13d
00000180: 21a9 6fbe 9d64 b1be e35c 6bbe d163 413c
00000190: 2ff4 27be d822 ce3b 5a36 acbd 413b 5dbd
000001a0: 2783 543c 2317 0ebe 1acd 313e 6ea6 77bd
000001b0: 42f7 28be bf5a 0dbe 02dd 8bbe 0640 eebd
000001c0: 999b 15be 9bbf 75be 1b84 6ebe ef70 103e
000001d0: 0268 8ebe a739 45be e155 29be 215e ccbd
000001e0: 7d55 b8bd d9f1 50bc 7674 ef3b d5d1 ddbd
000001f0: 182f 68bd b8f9 36be d2c2 033e 55f5 33bd
00000200: 3824 00be 667f c2bd 3897 64be 5ecc a5be
00000210: 8282 85be 9b28 c8be f087 23be 0b96 383e
00000220: ad1f 98be 1f43 0dbe 42b2 2bbd 1b92 3dbd
00000230: db84 4c3c f75c b3ba 0275 09be 88bc 0cbe
00000240: 55c9 da3d ee5b 69be 8559 153e 13d5 93ba
00000250: 9eaf c43b 93b3 3b3d 8767 32be 9d38 32be
00000260: 4cf0 9ebe 55bc 25be 9035 27be db83 9a3d
00000270: cddc 4dbe abc4 bebe 710a 7fbe 8d10 76bd
00000280: 68f8 b9bd 1923 863c be1e 423c 8a64 74bd
00000290: fcae 453c ad76 25be 087d 4a3e c325 7dbd
000002a0: c0b6 12be 021d dfbd 1eae 9dbe b87f 66be
000002b0: eba0 94be 5ccb 96be c105 53be de36 2d3e
000002c0: f6a2 a9be d5d3 10be a4c2 d2bd 166c f3bc
000002d0: c95f dfbd 70a7 2fba b916 a8bd 58f4 5bbe
000002e0: bdc9 8abc 7ef8 0dbe bb07 403e f5e9 d23b
000002f0: 9304 a9bd 1515 a8b9 bbcc 39be d667 7cbe
00000300: 643d 8cbe 00ea 6cbe ecc7 4abe cae5 e33d
00000310: d079 52be 0e41 4dbe 48b1 14be 4414 09be
00000320: 8abf 57bd 96ad c53c cec0 33be 3179 cd3c
00000330: ffcd a63e 710e afbd 8742 4b3e 9edc 03be
00000340: 6809 fbbd a4e5 4fbe c9bf babe ceb1 e93d
00000350: f9fb 0ebe 052c 4bbe ab0f 86be 6dee a63d
00000360: d1d4 a3be 6028 debe 3be4 85be 82d0 16bd
00000370: 91a4 02be e371 983d e22c 933c ff97 cebd
00000380: dab3 45bd 8fce 75be 1d2e 143e f7e3 a93c
00000390: e1f9 18be 069e f53c 3a12 8cbe 81f9 84be
000003a0: 409e 8fbe 6d0b 87be bd5f 6abe fc86 233e
000003b0: 7f10 94be eec8 15be e7e9 6dbc 7f34 8cbc
000003c0: 883a d3bd d132 f0bc 8fb7 b5bd 382f 0cbd
000003d0: 3939 ae3d 3efa cebd 6b92 8b3e 662c 65bd
000003e0: 2a19 eebd eba1 e9bd 3aff 97be 9de4 49bd
000003f0: efc6 17be 37b3 febd 11a7 53be ea28 023e
