results/model_GCN/graph_split_/layers_4/transform_True/alpha_1.0/model.pt (torch, 36694 bytes, 15 tensors)

encoder.conv.convs.0.bias f4 [40]
0	0xbcdbcd26	-0.02683122
1	0xbcc26a56	-0.023732346
2	0xbd5a6d9d	-0.05332719
3	0xbd6c259b	-0.05765305
4	0x3cbffb64	0.023435302
5	0xbd8b8279	-0.06811995
6	0xbd3ef903	-0.046624195
7	0xbd22a373	-0.03970666
8	0xbc082d8c	-0.0083116405
9	0xbd93cffd	-0.07217405
10	0xbd53870d	-0.051642466
11	0x3d6ceb5f	0.057841655
12	0x3c8612ac	0.016366325
13	0x3c560ec8	0.013065048
14	0xbd155454	-0.036457375
15	0x3a5f9ed2	0.0008530441
16	0x3d06403f	0.032776114
17	0xbd18daf9	-0.037318204
18	0xbd88fff2	-0.06689443
19	0xbc909e52	-0.017653618
20	0xbd15b7b7	-0.036552157
21	0x3d9683fb	0.07349392
22	0x3c7520d9	0.014961445
23	0xbd1def81	-0.038558487
24	0x3cc445fe	0.023959156
25	0x3d689d10	0.05679041
26	0x3dbe6bb4	0.092978865
27	0xbd94f6ee	-0.072736606
28	0xbcb2cc2b	-0.02182587
29	0x3d369716	0.04457768
30	0xbcd0fb60	-0.02551049
31	0xbce1e11a	-0.027573157
32	0x3d600498	0.05469188
33	0x3d0a0e8c	0.03370528
34	0xbd120dc4	-0.03565766
35	0xbcf1edbb	-0.029532304
36	0x3d67a37a	0.056552388
37	0x3d571aaf	0.05251568
38	0x3c871f71	0.016494485
39	0x3d392e72	0.04521031

encoder.conv.convs.0.lin.weight f4 [40, 40]
0	0xbdf9dee1	-0.12200714
1	0x3e18be32	0.14916304
2	0xbeab4aea	-0.33455592
3	0xbe544c50	-0.20732236
4	0x3e5e6455	0.21717961
5	0x3e2bfaf9	0.16794957
6	0xbea26595	-0.31718126
7	0x3e4c0682	0.19924358
8	0xbda0d080	-0.07852268
9	0x3e278d91	0.16362597
10	0xbe93272a	-0.28740817
11	0x3e1e4974	0.15457708
12	0xbbbec3af	-0.005821667
13	0xbe9af414	-0.30264342
14	0xbde4e1c7	-0.11175876
15	0xbe0ad6fd	-0.13558574
16	0x3e6484c0	0.22316265
17	0xbe1c8a8c	-0.15287226
18	0xbc821542	-0.015879277
19	0xbc730757	-0.014833293
20	0x3e1e0238	0.15430534
21	0xbe56e389	-0.20985235
22	0x3e172de3	0.14763598
23	0x3e28e591	0.16493823
24	0x3d8d4e80	0.06899738
25	0x3d121460	0.035663962
26	0x3dce33af	0.100684516
27	0x3db5289d	0.08845637
28	0xbe59c6e7	-0.21267281
29	0x3d9830f7	0.07431214
30	0x3e124a62	0.14286187
31	0xbe37b919	-0.17941703
32	0xbd8caa31	-0.06868399
33	0x3d157522	0.03648866
34	0x3e21eaf7	0.15812288
35	0x3d8f3cea	0.0699404
36	0x3e49bc89	0.19700827
37	0x3dec7c90	0.11547196
38	0xbe95412b	-0.29151282
39	0x3e5ac5cd	0.21364518
40	0xbd712ea2	-0.058882363
41	0x3d122f8f	0.035689887
42	0x3f053d81	0.5204697
43	0xbddeaea6	-0.10873155
44	0xbc1fc7bf	-0.009752213
45	0xbd423eee	-0.047423296
46	0x3e785819	0.24252357
47	0x3e2820d7	0.16418777
48	0xbe0d8c3d	-0.13823028
49	0xbf07f9bb	-0.53115433
50	0x3e86bd5c	0.26316345
51	0x3e8580b5	0.26074758
52	0xbe9ce7f3	-0.30645713
53	0x3ee1746d	0.44034138
54	0xbdea7eb0	-0.11449945
55	0x3e80dd51	0.2516885
56	0xbc796d1f	-0.01522377
57	0x3da4ed62	0.0805309
58	0x3e328427	0.17433225
59	0xbe097a32	-0.1342552
60	0x3d5a7baf	0.05334061
61	0x3e88e46f	0.2673678
62	0xbe6f1cae	-0.23350784
63	0x3e136517	0.14394031
64	0xbe68f2ea	-0.22748914
65	0x3cead11b	0.028664162
66	0x3e8e7659	0.27824667
67	0xbeba3475	-0.36368147
68	0xbdd877bc	-0.105697125
69	0xbe9eb526	-0.3099758
70	0xbe089ae2	-0.13340333
71	0xbe651e93	-0.22374944
72	0xbe2ee54a	-0.17079654
73	0x3e088aff	0.13334273
74	0x3ea6715b	0.32508358
75	0xbddfd0be	-0.10928486
76	0x3de7a647	0.11311012
77	0x3d5607ee	0.052253656
78	0x3d7c34c3	0.061573755
79	0xbe2fe854	-0.1717847
80	0x3d26f6da	0.04076276
81	0x3e0eb256	0.13935217
82	0xbe1b2795	-0.15151818
83	0x3e306d73	0.17229252
84	0x3e81a3b1	0.253202
85	0xbe4f96ee	-0.20272419
86	0xbd03a695	-0.032141287
87	0xbe88e0fa	-0.26734143
88	0x3e0493e4	0.12947041
89	0xbe60d9aa	-0.21958032
90	0x3ea16298	0.31520534
91	0xbe8b87e6	-0.2725212
92	0x3db881ba	0.090091184
93	0xbd80be10	-0.062862515
94	0x3e8608ef	0.2617869
95	0xbb47cdfc	-0.0030487766
96	0xbe37418f	-0.17896102
97	0xbe44b105	-0.19208153
98	0xbe7407a0	-0.23831034
99	0xbe26adff	-0.16277312
100	0xbe240386	-0.16016969
101	0x3e420f5f	0.18951176
102	0xbe55dba9	-0.20884575
103	0x3d747508	0.059681922
104	0xbdc45bb0	-0.095878005
105	0xbe700ae8	-0.2344166
106	0x3eab0467	0.33401796
107	0x3cab561d	0.020915085
108	0xbdb74400	-0.08948517
109	0xbdd10ab6	-0.10207121
110	0xbda8d1cd	-0.08243141
111	0x3dd73851	0.105087884
112	0xbd89545f	-0.06705546
113	0xbe93b2c6	-0.2884733
114	0x3e0c3908	0.1369363
115	0xbc4d4479	-0.012528532
116	0x3cb4bd56	0.022062939
117	0x3eb4b35e	0.35293096
118	0x3e1a92bf	0.15095042
119	0xbe8e2550	-0.27762842
120	0xbea889c0	-0.32917595
121	0xbe06e898	-0.13174665
122	0xbe7258b2	-0.23666647
123	0xbda4198c	-0.08012685
124	0x3eb53f6c	0.3539995
125	0xbf0ea0e0	-0.55714226
126	0x3ea9e30c	0.33181036
127	0x3dd51028	0.10403472
128	0xbe069f91	-0.13146807
129	0x3da934da	0.08262034
130	0x3c5ba8c8	0.01340694
131	0x3de5d8f1	0.11223019
132	0x3dec479c	0.11537096
133	0xbdd484da	-0.10376902
134	0x3e048b15	0.1294368
135	0xbe179429	-0.14802612
136	0x3e0c222a	0.13684908
137	0xbdf3332e	-0.11874996
138	0x3c85f19f	0.016350565
139	0xbeafacc1	-0.34311488
140	0x3bddea84	0.006772341
141	0xbd01e1e4	-0.031709567
142	0xbd259450	-0.040424645
143	0x3e71f0ce	0.23627016
144	0xbe15a7d0	-0.14614797
145	0xbe7629fa	-0.2403945
146	0xbe617c87	-0.2202016
147	0xbdd71833	-0.105026625
148	0xbe97caa9	-0.29646805
149	0x3d8187b7	0.06324714
150	0x3e58656a	0.21132436
151	0xbda9b354	-0.08286157
152	0xbe8973b6	-0.26846093
153	0xbe0b5f0a	-0.13610473
154	0xbec0b522	-0.37638193
155	0xbd68297b	-0.056680184
156	0x3e728e18	0.23687017
157	0xbded038c	-0.11572942
158	0xbe8a269c	-0.26982582
159	0xbe78f696	-0.24312815
160	0xbdc02671	-0.09382332
161	0x3d0ba329	0.03409115
162	0x3e55ed98	0.20891416
163	0xbe259954	-0.16171771
164	0xbd60009d	-0.054688085
165	0xbebbf4f0	-0.3671031
166	0x3ec0a440	0.37625313
167	0xbc5493c9	-0.012974688
168	0xbe8a7fd1	-0.2705064
169	0x3e7e2e66	0.24822387
170	0x3d8e0ee0	0.06936431
171	0xbe6b2d58	-0.22966516
172	0xbed573f6	-0.41690034
173	0xbe786390	-0.2425673
174	0x3d17af08	0.037032157
175	0x3ead313e	0.3382663
176	0x3e539900	0.20663834
177	0x3e7413dc	0.23835701
178	0xbd75e470	-0.060032308
179	0x3e056c91	0.13029696
180	0xbe34d84f	-0.1766064
181	0x3e19be2f	0.15013956
182	0xbdc3b518	-0.09556025
183	0xbd958447	-0.073006205
184	0xbb8d61b1	-0.0043146242
185	0x3e94c43f	0.29055974
186	0xbd5eb077	-0.05436751
187	0x3e50e628	0.20400298
188	0xbe4c7ec6	-0.19970235
189	0x3d42378c	0.047416255
190	0xbe67e755	-0.2264684
191	0x3d4976cf	0.04918557
192	0x3cd426a7	0.025897337
193	0xbdb2511c	-0.08706877
194	0x3d887314	0.066625744
195	0xbe242793	-0.16030721
196	0x3ce3c3e8	0.027803376
197	0xbe524349	-0.2053348
198	0xbe46275a	-0.19350949
199	0x3dee79b1	0.116443045
200	0xbe242461	-0.16029502
201	0x3e67c6de	0.22634456
202	0x3e47d617	0.19515263
203	0xbbdeed74	-0.006803209
204	0xbd409a77	-0.04702231
205	0x3e958747	0.2920477
206	0x3e45ad80	0.19304466
207	0xbea3664f	-0.31913993
208	0xbcb6a7bf	-0.022296784
209	0xbd41d2b5	-0.047320087
210	0xbe576f67	-0.2103859
211	0xbe745f4f	-0.23864482
212	0xbe88187f	-0.2658119
213	0xbd8608da	-0.06544657
214	0xbe05c845	-0.13064678
215	0xbe342125	-0.17590769
216	0x3daa25a0	0.08307958
217	0x3e068b1a	0.13139
218	0xbe16b002	-0.14715579
219	0xbddddaaf	-0.10832726
220	0x3e40aa46	0.18814954
221	0x3dbd7b31	0.092520125
222	0x3e60b17d	0.21942706
223	0x3d83964a	0.0642515
224	0x3e261d1d	0.16222043
225	0xbeba528a	-0.36391097
226	0xbe2d1a81	-0.16904642
227	0x3d82f1e4	0.06393793
228	0x3e2ebdff	0.17064665
229	0x3c5586f8	0.013032667
230	0x3e70603c	0.2347421
231	0x3cd35434	0.025796987
232	0xbcb94123	-0.022614067
233	0xbe675c7e	-0.22593877
234	0xbd5d1b27	-0.053980973
235	0xbe6b74f7	-0.22993837
236	0xbdaea751	-0.08528007
237	0xbdd828ef	-0.105546825
238	0x3d8de1d9	0.06927843
239	0x3da9fd53	0.08300271
240	0xbd1bf6c2	-0.038077123
241	0xbd3c0228	-0.045900494
242	0x3e162035	0.14660724
243	0xbc0a79b2	-0.008451866
244	0x3e6f9cde	0.23399684
245	0xbd22deb2	-0.03976316
246	0x3ea7fb85	0.32809082
247	0x3e916f98	0.28405452
248	0xbe4a21a7	-0.197394
249	0xbefc740a	-0.4930728
250	0x3e0cb9a3	0.1374269
251	0x3dab0d13	0.08352103
252	0xbe180604	-0.14846045
253	0x3e5975c5	0.21236332
254	0x3e00e2ca	0.12586513
255	0x3e86db7a	0.26339322

encoder.conv.convs.1.bias f4 [40]
0	0x3d334a1f	0.04377186
1	0x3c77f435	0.015133907
2	0x3d11915e	0.035539024
3	0x3d5808df	0.052742835
4	0xbc80cbd5	-0.015722195
5	0xbb300731	-0.0026859755
6	0x3c38fe76	0.011291137
7	0x3d9d73cd	0.07688103
8	0x3c81d351	0.015847834
9	0x3d2d9eb9	0.042387698
10	0xb9c082b3	-0.00036718472
11	0xbd13b067	-0.036056902
12	0xbd9746e0	-0.07386565
13	0x3d1c7442	0.03819681
14	0x3be7a2d9	0.0070689735
15	0xbc84623e	-0.016160127
16	0x3c869865	0.01643009
17	0x3d8783ef	0.06616961
18	0x3d349317	0.04408559
19	0xbd39b371	-0.045337144
20	0x3d547693	0.051870894
21	0x3d518561	0.05115259
22	0xbc6b1431	-0.014348076
23	0x3cf8bc27	0.030363156
24	0x3bf03993	0.007331082
25	0x3cfb4b5d	0.030675584
26	0xbc5e9588	-0.013585456
27	0xbd1ceba0	-0.038310647
28	0xbd29fddd	-0.04150187
29	0x3bd78d29	0.006578107
30	0x3d33ca97	0.043894377
31	0x3db946b4	0.09046689
32	0x3cdd63f4	0.0270252
33	0xbd09c8ae	-0.03363865
34	0x3d7fad6a	0.06242124
35	0xbcab9251	-0.020943793
36	0xbd205683	-0.039145004
37	0x3b1a1e51	0.0023516605
38	0x3d7afdf4	0.061277345
39	0xbbe1076c	-0.00686734

encoder.conv.convs.1.lin.weight f4 [40, 40]
0	0x3ea1750f	0.3153462
1	0xbb1e69ed	-0.0024172023
2	0xbeb58dfc	-0.35459888
3	0xbe2f57e6	-0.17123374
4	0xbe8ed097	-0.27893516
5	0xbb9e6e6f	-0.004834942
6	0x3d9a2815	0.07527176
7	0xbd27b1d1	-0.040941063
8	0x3e7d43ee	0.24732944
9	0x3d819ac8	0.0632835
10	0xbd3bd8f2	-0.045861192
11	0x3e671258	0.22565591
12	0xbd152b2d	-0.03641813
13	0x3da4d480	0.08048344
14	0xbe13e570	-0.14442992
15	0x3e1f6ef1	0.15569665
16	0xbd6d090d	-0.05786996
17	0x3e6f2349	0.23353304
18	0x3e6b4da7	0.22978841
19	0xbd8f8853	-0.07008424
20	0xbe6d38c9	-0.23166193
21	0xbe53371d	-0.20626493
22	0xbe12ddab	-0.14342372
23	0x3e1bbf33	0.15209655
24	0x3e950b8f	0.2911038
25	0xbf0767f9	-0.52893025
26	0x3d8f4024	0.06994656
27	0x3e2a70be	0.1664457
28	0x3e4d41fa	0.200447
29	0x3d8adf93	0.06780925
30	0xbed5a0e6	-0.41724318
31	0xbdadfea6	-0.08495836
32	0xbe58c53d	-0.2116899
33	0x3dd71089	0.10501201
34	0x3e3c8f07	0.18413936
35	0xbe363b56	-0.17796072
36	0xbe116056	-0.14196905
37	0xbf8cecb1	-1.1009732
38	0x3e7d8452	0.24757507
39	0xbdeea522	-0.1165259
40	0xbddbc812	-0.1073152
41	0x3d3c98cb	0.046044152
42	0x3e88db12	0.26729637
43	0xbe454080	-0.19262886
44	0x3e6ec947	0.23318969
45	0xbdd0cb61	-0.101950414
46	0x3cf1a7d7	0.029498978
47	0xbda348b7	-0.07972854
48	0x3e4cf68d	0.20015927
49	0xbe1b78d6	-0.15182814
50	0x3de12e2e	0.10995136
51	0x3e860876	0.2617833
52	0x3e69a63d	0.22817321
53	0xbebdd3ac	-0.37075555
54	0x3c7e1f05	0.015510325
55	0x3e64a5d6	0.22328886
56	0x3e6dfdeb	0.23241393
57	0xbe9dbace	-0.30806583
58	0xbd9128a8	-0.07087833
59	0x3e7d8c44	0.24760538
60	0x3d70644a	0.058689393
61	0x3ea56867	0.32306215
62	0x3e1d897f	0.15384482
63	0xbc56e43f	-0.013115942
64	0xbcd5fbb7	-0.026121004
65	0x3f43645a	0.76325
66	0x3ef4c261	0.4780455
67	0xbcdc51f7	-0.026894553
68	0xbdb028d2	-0.08601536
69	0xbe866a60	-0.26253033
70	0xbec081a9	-0.37598923
71	0xbe093446	-0.13398847
72	0x3d9681e0	0.073489904
73	0x3e4697c6	0.19393834
74	0xbe7a8194	-0.24463493
75	0x3d56f879	0.052483056
76	0x3e3b3d72	0.18285158
77	0x3eb781ad	0.35841122
78	0xbe0267ca	-0.12734905
79	0xbe0d6a6b	-0.13810126
80	0x3cb5e550	0.022204071
81	0xbeb73224	-0.35780442
82	0xbd96b9c8	-0.07359654
83	0x3d9eaef8	0.077482164
84	0x3c904907	0.017612947
85	0x3e869d1e	0.26291746
86	0xbe6601c0	-0.22461605
87	0x3dd0af38	0.1018967
88	0xbe92709c	-0.2860154
89	0x3e820798	0.2539642
90	0x3d507369	0.050891314
91	0xbc761242	-0.015019001
92	0xbe220cc7	-0.15825187
93	0xbd731988	-0.05935052
94	0xbdd0e86f	-0.10200583
95	0xbd93b350	-0.072119355
96	0xbcdc3fb2	-0.026885841
97	0xbdcf89db	-0.10133716
98	0x3e661c9c	0.22471851
99	0xbe27c392	-0.16383198
100	0x3d9cc560	0.07654834
101	0x3d972b51	0.07381309
102	0x3e96c291	0.29445317
103	0xbe43d20e	-0.19123098
104	0xbea2605d	-0.31714144
105	0xbe4bc515	-0.198994
106	0xbea61b2e	-0.3244261
107	0x3e82563a	0.2545641
108	0xbe71db74	-0.23618871
109	0xbd9038d6	-0.070420906
110	0xbed12878	-0.40851188
111	0x3e8ec075	0.27881208
112	0xbe27057f	-0.1631069
113	0x3eaac337	0.33352062
114	0x3e03a542	0.1285601
115	0xbe353c0a	-0.17698684
116	0xbd602ed7	-0.05473217
117	0x3d614666	0.054998778
118	0x3e3052dc	0.17219108
119	0xbeb23e37	-0.3481309
120	0x3e88ff93	0.26757488
121	0x3e158b76	0.14603981
122	0xbcd2c8a7	-0.025730444
123	0xbd78bc91	-0.060726706
124	0xbe349572	-0.17635134
125	0x3d7db509	0.061940227
126	0xbdaf2c20	-0.08553338
127	0x3e547f78	0.2075175
128	0xbe6ae939	-0.2294053
129	0xbc7a693f	-0.015283882
130	0x3e0e5422	0.13899282
131	0x3e955a4a	0.29170448
132	0xbe48e7ad	-0.19619627
133	0x3e857e3a	0.26072866
134	0xbe2fe2cd	-0.17176361
135	0xbd913616	-0.07090394
136	0x3e2cd987	0.16879855
137	0xbd5fa35a	-0.054599144
138	0x3d5fe08a	0.054657497
139	0x3e054616	0.13015017
140	0x3e7fca50	0.2497952
141	0xbd2bdd00	-0.04195881
142	0x3e71adab	0.23601405
143	0x3de6443b	0.11243483
144	0x3d636ff1	0.055526678
145	0xbe596f45	-0.21233852
146	0x3e81c2b3	0.25343856
147	0xbd03126c	-0.03199999
148	0x3e429d0b	0.1900522
149	0xbe01ef04	-0.12688833
150	0x3e20ad4f	0.15691112
151	0xbe7dbfa9	-0.24780144
152	0xbe2646e2	-0.16237977
153	0x3d8b724a	0.06808908
154	0xbe6f7dc5	-0.23387821
155	0xbe618152	-0.22021988
156	0xbaa7c338	-0.0012799269
157	0xbdfcf982	-0.12352277
158	0xbdbfb4ad	-0.09360633
159	0xbcede722	-0.029040877
160	0xbe8583ec	-0.2607721
161	0xbd204ab4	-0.039133742
162	0x3d08dbbb	0.033412676
163	0x3d4ef24b	0.050524037
164	0x3dc98f8a	0.09841831
165	0xbd11735f	-0.035510417
166	0xbe9b89ac	-0.30378473
167	0xbe2c4bb5	-0.16825755
168	0xbdb587a1	-0.0886376
169	0xbdb667eb	-0.089065395
170	0x3e2978bb	0.16549961
171	0xbee4c67b	-0.4468268
172	0xbe24176a	-0.16024557
173	0xbea9a55d	-0.33133975
174	0x3d86df3c	0.06585547
175	0x3e56a759	0.20962276
176	0x3e257bdf	0.16160534
177	0x3daca800	0.08430481
178	0x3e927ea8	0.28612256
179	0x3e49572a	0.19662157
180	0x3e576dea	0.21038023
181	0x3d6aecd9	0.05735478
182	0xbe6198ba	-0.22030917
183	0x3cc60914	0.02417425
184	0x3e0fd733	0.14046936
185	0xbf0f0211	-0.5586253
186	0xbe5d5a4a	-0.21616474
187	0x3db01d79	0.085993715
188	0x3deb59ba	0.11491723
189	0xbe25c014	-0.16186553
190	0xbd507c26	-0.050899647
191	0x3e083c1f	0.13304184
192	0x3ddbd7d7	0.107345276
193	0x3e382bd9	0.17985477
194	0xbe4c93f5	-0.19978316
195	0x3e64fbdd	0.22361703
196	0xbec5a07b	-0.38599
197	0xbeddecf4	-0.43344843
198	0x3ea11652	0.31462342
199	0xbd1697a2	-0.036765702
200	0xbe2d04dc	-0.16896385
201	0xbee9c591	-0.45658544
202	0xbdad30c6	-0.084565684
203	0xbeafde16	-0.34349126
204	0xbdc7c784	-0.097548515
205	0x3dae7246	0.0851789
206	0xbdcf550b	-0.101236425
207	0xbe4f82b2	-0.202647
208	0x3e222b2b	0.1583678
209	0x3ddf1995	0.10893551
210	0x3ce2b050	0.027671963
211	0x3df3f0cf	0.11911165
212	0xbeb151b0	-0.34632635
213	0x3e0f0062	0.1396499
214	0x3e2bb1c3	0.1676703
215	0x3e656e7d	0.22405429
216	0xbdcf84b2	-0.101327315
217	0xbe63fb59	-0.2226385
218	0x3e6aaef4	0.22918302
219	0xbe4d7c5f	-0.20066975
220	0xbd92705f	-0.07150339
221	0xbe34627f	-0.17615698
222	0x3e80a8b8	0.25128722
223	0xbe08868e	-0.13332579
224	0xbdd60653	-0.10450425
225	0xbd907e30	-0.07055318
226	0x3ec95b02	0.39327246
227	0xbd9582c8	-0.07300335
228	0x3e756fa6	0.23968372
229	0x3da4727a	0.08029647
230	0xbedede8c	-0.43529165
231	0x3ddd34db	0.10801097
232	0x3d99f837	0.07518046
233	0x3d68e829	0.05686203
234	0x3e88a270	0.2668643
235	0x3e1bf971	0.15231873
236	0xbe99cd8d	-0.30039635
237	0xbf247901	-0.6424714
238	0xbe5b0d2c	-0.21391743
239	0x3eb74ecb	0.35802302
240	0xbe15cc5c	-0.14628738
241	0xbddebb7b	-0.10875603
242	0x3eaef96e	0.34174675
243	0xbe6ed2df	-0.23322628
244	0xbe3514bf	-0.17683695
245	0x3e30d2f5	0.17267974
246	0x3db6e074	0.0892953
247	0xbe14c9fe	-0.14530179
248	0xbe8ac3ad	-0.27102414
249	0x3e9fbf06	0.31200427
250	0x3d56e627	0.052465584
251	0x3db31655	0.08744494
252	0x3e89f686	0.26945895
253	0xbcfbfb8a	-0.030759592
254	0xbd039af5	-0.0321302
255	0xbd4b415e	-0.049622886

encoder.conv.convs.2.bias f4 [40]
0	0x3d879a92	0.06621279
1	0x3db7b265	0.08969573
2	0xbd31b4df	-0.043385383
3	0x3d9b6652	0.075878754
4	0x3c87fcdf	0.01660007
5	0xbc22d886	-0.0099393185
6	0xbc0658d2	-0.008199887
7	0x3cea3182	0.02858806
8	0x3d39007f	0.04516649
9	0x3bb20ce6	0.0054336665
10	0xbc5bdd19	-0.013419413
11	0x3aa0e171	0.0012274218
12	0xbd0ab8b8	-0.033867568
13	0x3d0c5d2b	0.03426854
14	0x3ce75315	0.028237859
15	0x3d86bdad	0.065791465
16	0x3dd99192	0.106234685
17	0x3d834dde	0.06411336
18	0xbc1c50d0	-0.009540752
19	0xbc6c47da	-0.014421428
20	0xbd33b9f8	-0.043878525
21	0x3ce89eff	0.028396128
22	0x3d6797d0	0.056541264
23	0x3d84b6f7	0.0648021
24	0x3d3e0517	0.046391573
25	0x3d82c78d	0.063857175
26	0x3d624e3b	0.055250388
27	0x3c42653f	0.011864959
28	0xbc33468b	-0.010942112
29	0x3cf87318	0.030328318
30	0x3d5a584a	0.053306855
31	0x3d5b4356	0.053531013
32	0x3c0f511a	0.008747363
33	0x3be4350a	0.0069643306
34	0x3d962434	0.07331124
35	0xbcdffd91	-0.02734259
36	0x3bd54705	0.0065087103
37	0x3ccd5ef5	0.025069693
38	0xbcf7dcb5	-0.030256609
39	0x3d35bd5f	0.04437005

encoder.conv.convs.2.lin.weight f4 [40, 40]
0	0x3e7c2182	0.24622157
1	0x3dc0293e	0.09382866
2	0x3deec70f	0.11659061
3	0xbda5fa6d	-0.081044056
4	0xbe3891f8	-0.18024433
5	0xbe3c47a2	-0.18386701
6	0xbd6b235e	-0.057406776
7	0x3e4e0aca	0.20121303
8	0x3d26c167	0.040711787
9	0xbe6ae3ea	-0.22938505
10	0x3e556b84	0.20841795
11	0xbdfae65c	-0.12250969
12	0xbdf75652	-0.12077011
13	0xbdd1bf8d	-0.102416135
14	0x3d9af8ad	0.075669624
15	0xbe4c29b1	-0.19937779
16	0xbe868ad6	-0.26277798
17	0xbe89f513	-0.2694479
18	0xbe0ca618	-0.13735235
19	0xbd5f04be	-0.054447882
20	0x3d39dae9	0.045374785
21	0x3e3d8945	0.18509395
22	0x3e8d5b10	0.27608538
23	0xbc0aae70	-0.008464441
24	0x3e9191eb	0.2843164
25	0x3e476f66	0.19476089
26	0xbef1500b	-0.4713138
27	0x3d8688dd	0.06569073
28	0xbe6f6418	-0.23378026
29	0xbe0322c6	-0.12806234
30	0x3db33a30	0.08751333
31	0x3cb300e0	0.021851003
32	0xbd998e15	-0.07497803
33	0xbe01b2d9	-0.12665881
34	0x3d0c9626	0.03432288
35	0xbebfdfe7	-0.3747551
36	0xbddd3649	-0.1080137
37	0x3e26858b	0.1626188
38	0xbd81f616	-0.06345765
39	0xbd7906b4	-0.06079741
40	0x3cf2890c	0.029606365
41	0x3e915cc7	0.28391096
42	0xbdd268bc	-0.10273883
43	0x3dfd17aa	0.12358029
44	0x3d9ff239	0.07809872
45	0xbdf42f05	-0.11923031
46	0xbf074c58	-0.52850866
47	0x3d88baeb	0.06676277
48	0xbeced037	-0.4039323
49	0xbe8d5a9d	-0.27608195
50	0x3e974c09	0.29550198
51	0x3d437033	0.047714423
52	0xbd47d93f	-0.048791166
53	0xbd574259	-0.05255351
54	0xbd4e6bdc	-0.05039583
55	0x3c502c6f	0.012705906
56	0x3e017ff1	0.12646462
57	0x3e5b1b2a	0.21397081
58	0xbe2a30a7	-0.16620122
59	0xbade32a0	-0.0016952343
60	0x3e4daaa4	0.20084625
61	0x3d5f2c20	0.05448544
62	0xbe43dfef	-0.19128393
63	0x3e2aad35	0.16667636
64	0xbde667d2	-0.11250271
65	0x3e8fd67e	0.28093332
66	0xbeb8a1ef	-0.36061046
67	0xbe32c897	-0.17459331
68	0x3df73066	0.12069778
69	0x3e82a55f	0.25516793
70	0x3d2e598e	0.042565875
71	0x3e02e475	0.12782462
72	0x3dce03c8	0.10059315
73	0x3ea2478a	0.31695205
74	0x3e47f8d6	0.19528517
75	0xbe136ac8	-0.14396203
76	0x3e109465	0.14119108
77	0x3ca43c05	0.02004815
78	0xbe1610d6	-0.1465486
79	0x3e68ba72	0.22727373
80	0xbe98af1c	-0.29821098
81	0x3e90a5fe	0.28251642
82	0xbdaf2306	-0.08551602
83	0xbd93a5c6	-0.07209353
84	0xbe584ad4	-0.21122295
85	0x3c8602c5	0.016358742
86	0xbec06503	-0.37577066
87	0xbf5125c1	-0.8169823
88	0xbe60c5e3	-0.21950488
89	0xbe84c12b	-0.25928625
90	0x3c9f76a5	0.019465754
91	0xbf342ce6	-0.7038101
92	0x3e1174c0	0.14204693
93	0xbe409ad2	-0.1880906
94	0xbf23927f	-0.6389541
95	0xbe13c76a	-0.14431539
96	0x3d0c0bd3	0.034190964
97	0x3e859b5f	0.260951
98	0x3e987861	0.29779342
99	0x3e89be01	0.26902774
100	0xbefabe27	-0.489732
101	0xbca477fa	-0.02007674
102	0x3ee11563	0.4396163
103	0x3d21d1dc	0.039506778
104	0x3db5197b	0.08842751
105	0xbdb980c9	-0.09057767
106	0xbdb24d4f	-0.08706152
107	0xbf38e41c	-0.7222307
108	0xbf365b91	-0.7123347
109	0xbe68cddc	-0.22734779
110	0xbddb1b40	-0.10698557
111	0x3e9081a1	0.282239
112	0xbdf934d9	-0.12168283
113	0x3dbe833a	0.09302373
114	0xbe7ae598	-0.24501646
115	0xbe53788e	-0.20651457
116	0xbe7372f5	-0.23774321
117	0x3d8b78fe	0.06810187
118	0xbce4cae3	-0.027928775
119	0x3ec01201	0.37513736
120	0xbe7e2ac8	-0.24821007
121	0x3e8fa2db	0.28053936
122	0xbe0f3af2	-0.1398733
123	0x3daef94b	0.085436426
124	0xbe0fe517	-0.14052235
125	0xbdc1db38	-0.09465641
126	0xbe0465df	-0.12929486
127	0x3e6a0f7d	0.22857471
128	0x3e2e660c	0.17031115
129	0x3d509b47	0.050929334
130	0xbe029c6d	-0.12754984
131	0x3b1c6825	0.0023865786
132	0x3c960265	0.018311689
133	0x3e0cb3e5	0.137405
134	0x3e77911c	0.24176449
135	0xbe5a6954	-0.21329242
136	0xbecef7db	-0.40423474
137	0x3d8c1d36	0.06841509
138	0x3eb9180c	0.3615116
139	0xbe9a9a86	-0.30196017
140	0x3e385b66	0.18003616
141	0x3dca8f79	0.098906465
142	0xbdd2609f	-0.10272335
143	0xbe53f376	-0.20698342
144	0x3ea72c7c	0.32651126
145	0xbddda851	-0.108231194
146	0x3d116e10	0.035505354
147	0x3dc75ff0	0.097350955
148	0xbe9293db	-0.2862843
149	0xbe9c6640	-0.3054676
150	0x3e5d8a48	0.21634781
151	0x3e293b45	0.16526516
152	0xbe4ce5a6	-0.20009479
153	0xbe2a7b21	-0.16648532
154	0x3e9ca7ea	0.30596858
155	0xbea52247	-0.32252714
156	0xbe562871	-0.20913865
157	0x3cf78279	0.030213581
158	0x3e170691	0.14748599
159	0x3e44aaff	0.19205855
160	0xbc1eb42e	-0.009686513
161	0xbdcc074f	-0.099623315
162	0xbe608864	-0.21927029
163	0xbdf8c850	-0.121475816
164	0x3e1311ef	0.1436231
165	0xbe12b5ee	-0.14327213
166	0x3c3604ab	0.011109511
167	0x3e8045e9	0.25053337
168	0x3ce26186	0.027634393
169	0x3db650b9	0.089021154
170	0x3e68cc09	0.22734083
171	0x3e3dec7a	0.1854724
172	0x3dfddaa9	0.12395222
173	0xbb391cfe	-0.002824604
174	0x3e3c9122	0.18414739
175	0x3e6a4ce5	0.22880895
176	0x3d079486	0.033100627
177	0x3d045591	0.032308165
178	0xbe19b7b7	-0.15011488
179	0x3e2cff58	0.16894281
180	0xbd9e3087	-0.077240996
181	0x3e4561f9	0.19275655
182	0xbe7f2477	-0.24916254
183	0x3dcce8ab	0.100053154
184	0x3c94d57a	0.0181682
185	0xbe0e42c8	-0.13892663
186	0xbe710d71	-0.23540284
187	0xbe9dcbc9	-0.30819538
188	0xbcf14801	-0.02945328
189	0x3e381b5c	0.17979187
190	0x3e303966	0.17209396
191	0x3e25c8dd	0.16189905
192	0xbe047ae7	-0.12937509
193	0xbd022bcb	-0.031780045
194	0x3d11d0b9	0.035599444
195	0xbeafe1f5	-0.3435208
196	0x3d843c6a	0.064568356
197	0xbe0161fe	-0.12635037
198	0x3e2750cf	0.1633942
199	0xbe465142	-0.19366935
200	0xbcc0e456	-0.023546379
201	0x3c9b69cc	0.018971346
202	0x3e4e1f3c	0.20129102
203	0x3d01dc7f	0.031704422
204	0xbda931a0	-0.08261418
205	0x3e307675	0.17232688
206	0x3e7aeaad	0.24503584
207	0x3db8022d	0.0898479
208	0x3e2fef1f	0.17181061
209	0x3f04e1df	0.5190715
210	0xbcec1f0e	-0.028823402
211	0xbe464017	-0.19360386
212	0xbe7b2b7b	-0.24528305
213	0xbe7ede62	-0.2488952
214	0x3e0d7a2e	0.13816139
215	0xbdff4812	-0.12464918
216	0xbf51f00b	-0.820069
217	0x3ecb00ba	0.39648992
218	0xbd9146fd	-0.07093618
219	0x3ea5e16e	0.32398552
220	0xbe8d00ca	-0.27539665
221	0xbf04f62e	-0.5193814
222	0x3ced7b8d	0.028989578
223	0xbddac255	-0.10681597
224	0xbe232e1b	-0.15935557
225	0x3e0ef72a	0.13961473
226	0x3e987527	0.2977688
227	0xbd685f7f	-0.056731697
228	0xbe54a561	-0.20766212
229	0xbde34d51	-0.11098731
230	0x3e2543f1	0.16139199
231	0x3d1dfb8b	0.03856997
232	0x3e6397e3	0.22225909
233	0x3d23a9e6	0.03995695
234	0xbe8dcd53	-0.27695712
235	0x3e56d1de	0.20978495
236	0x3e4bd91c	0.1990704
237	0x3ccffd96	0.025389474
238	0x3e2bff48	0.16796601
239	0x3e91752e	0.28409714
240	0xbe83b98b	-0.25727496
241	0xbc8eb7ae	-0.01742157
242	0x3e17d246	0.14826307
243	0x3e1bf064	0.1522842
244	0xbe04b256	-0.12958655
245	0x3dd5162c	0.104046196
246	0x3c4c9250	0.0124860555
247	0x3da751f6	0.0816993
248	0xbe346e8d	-0.17620297
249	0xbf276a4b	-0.65396565
250	0x3df7cae1	0.12099243
251	0xbed1a042	-0.4094258
252	0xbd387f73	-0.04504342
253	0x3d8c35f5	0.06846229
254	0xbdb8c16a	-0.09021266
255	0xbe34c3e3	-0.1765285

encoder.conv.convs.3.bias f4 [20]
0	0x3d42b3b0	0.047534645
1	0x3d4efa58	0.050531715
2	0x3d7e0466	0.062015913
3	0x3d847a66	0.06468658
4	0x3d8e8487	0.06958871
5	0x3cf80d9a	0.030279923
6	0x3e0b91f6	0.13629898
7	0x3c27c57e	0.010239957
8	0x3cc25738	0.02372323
9	0x3db0fcdd	0.0864198
10	0x3d7bb464	0.06145133
11	0x3d8401ee	0.064456806
12	0x3d8ef1a8	0.06979686
13	0xbc978082	-0.018493894
14	0x3cfe3dbf	0.031035302
15	0x3d2075ba	0.039174773
16	0x3d2aae22	0.041669972
17	0x3d833ed1	0.06408466
18	0xbd52d0e0	-0.05146873
19	0x3d29fa1f	0.0414983

encoder.conv.convs.3.lin.weight f4 [20, 40]
0	0xbe9ac8bf	-0.30231282
1	0x3d2f666d	0.04282229
2	0xbe2dc473	-0.1696947
3	0x3ecc6517	0.39920875
4	0xbe03b400	-0.12861633
5	0x3d4f0bf2	0.0505485
6	0xbde9b194	-0.114108235
7	0x3eab19c5	0.33418098
8	0x3d8181d6	0.06323592
9	0x3e7cfe8d	0.24706478
10	0xbc0f04d2	-0.008729177
11	0x3e439769	0.19100727
12	0x3c6f3b2e	0.014601512
13	0x3da9c89c	0.08290216
14	0xbd584f44	-0.05280997
15	0xbeb1966f	-0.34685084
16	0x3e46ad8e	0.19402143
17	0x3e93a284	0.28834927
18	0x3ed78696	0.42094868
19	0xbe69e561	-0.22841407
20	0xbe193415	-0.14961274
21	0xbda44282	-0.08020498
22	0xbe0f6ec4	-0.14007097
23	0xbeb36c6c	-0.35043657
24	0x3d808d77	0.06276982
25	0x3e2c9381	0.16853143
26	0xbe9b5adf	-0.30342767
27	0x3df2f08a	0.118622854
28	0xbaa2eefe	-0.0012430844
29	0x3e35d27e	0.17756078
30	0x3ea468f2	0.32111317
31	0x3e12f1c0	0.14350033
32	0xbea75a79	-0.32686213
33	0x3d95f451	0.0732199
34	0x3f021fa6	0.5082954
35	0xbe680ff9	-0.22662343
36	0xbc1aa91b	-0.009439732
37	0x3e90c26c	0.28273332
38	0xbd68dae7	-0.056849387
39	0x3e89e5a7	0.26933023
40	0xbdc67f49	-0.096922465
41	0x3ebc26dc	0.36748397
42	0xbe99d8fa	-0.30048352
43	0x3d42d271	0.047563974
44	0x3e54ce96	0.20781931
45	0x3eb40435	0.3515946
46	0x3e4003da	0.18751469
47	0xbe55ead7	-0.20890366
48	0x3e826b02	0.25472265
49	0x3e5f2b17	0.21793781
50	0x3e6c8564	0.2309776
51	0x3d8947de	0.06703161
52	0xbe95966e	-0.2921633
53	0x3dba0e80	0.09084797
54	0xbe99d864	-0.30047905
55	0x3e1de23f	0.15418337
56	0x3d8ef114	0.06979576
57	0x3e416152	0.18884781
58	0x3e65446d	0.22389384
59	0xbe055707	-0.1302148
60	0xbe2bec6b	-0.16789405
61	0xbe5aca76	-0.21366295
62	0xbce2307a	-0.027611006
63	0x3eb11bd3	0.3459154
64	0x3c300991	0.010744468
65	0xbdc5b30c	-0.09653291
66	0x3e7d2a26	0.2472311
67	0xba2e973a	-0.0006660108
68	0xbe7f320a	-0.24921432
69	0xbd598b37	-0.05311128
70	0x3e7aaa12	0.24478939
71	0xbe6ed48f	-0.23323272
72	0x3e89f0cc	0.26941526
73	0x3d636ed5	0.05552562
74	0x3da1a5d1	0.07892955
75	0x3e89847e	0.26858896
76	0xbcb8afeb	-0.022544822
77	0xbd299f2d	-0.041411567
78	0xbe3f0dd7	-0.18657623
79	0xbe514c9f	-0.20439385
80	0x3e914845	0.2837545
81	0x3dee1c3c	0.11626479
82	0xbd8002fc	-0.06250569
83	0x3e913a19	0.28364637
84	0x3da55fda	0.08074923
85	0x3d0e3d3b	0.034726363
86	0xbea11f37	-0.31469128
87	0xbeb0b349	-0.34511784
88	0x3eb314f4	0.34976923
89	0x3e886b16	0.266442
90	0x3e866aa4	0.26253235
91	0x3e599541	0.21248342
92	0xbdf9679e	-0.121779665
93	0x3e22a510	0.15883279
94	0x3db88cee	0.09011255
95	0xbe80e17c	-0.2517203
96	0x3df45cb6	0.11931746
97	0x3b949b88	0.0045351423
98	0x3ea21a93	0.316609
99	0x3e939132	0.28821713
100	0x3e2c1f57	0.1680883
101	0xbeacc571	-0.33744386
102	0xbe9cc4f0	-0.30619
103	0x3d094bdc	0.03351961
104	0xbe9e8b96	-0.3096587
105	0x3ebf247e	0.3733253
106	0xbe2b2520	-0.16713381
107	0xbd005b84	-0.031337276
108	0xbde7d677	-0.11320203
109	0x3df61acc	0.1201683
110	0x3dd38890	0.103287816
111	0xbeba6ee9	-0.36412743
112	0xbeb8e637	-0.3611314
113	0xbc5342d2	-0.012894349
114	0x3abb944e	0.0014311166
115	0x3d476917	0.048684206
116	0xbec03ab3	-0.37544784
117	0x3e4c9794	0.19979697
118	0xbe0c2136	-0.13684544
119	0xbe97eab3	-0.2967125
120	0x3e57095b	0.20999663
121	0x3d61e3aa	0.055148758
122	0xbf100e46	-0.5627178
123	0x3eaabb92	0.3334623
124	0x3e112311	0.14173533
125	0xbea1dc85	-0.31613556
126	0x3eae68ab	0.3406423
127	0xbee27dfb	-0.4423674
128	0xb8f7e424	-0.00011820372
129	0xbea94bb8	-0.3306558
130	0xbe707654	-0.23482639
131	0xbd0b49f7	-0.034006085
132	0x3e9093ab	0.28237662
133	0xbd3bdbde	-0.04586398
134	0xbf293e55	-0.66110736
135	0x3c878a5e	0.01654547
136	0x3dac97df	0.084274046
137	0x3e039b2e	0.12852165
138	0x3d8892d5	0.06668631
139	0xbda967dd	-0.082717635
140	0xbec62b2c	-0.38704813
141	0x3e1517d3	0.1455987
142	0x3d8e01ae	0.06933914
143	0xbe3721ad	-0.1788394
144	0xbeaf6ad5	-0.34261194
145	0x3e9eb086	0.30994052
146	0x3eb6f2b0	0.3573203
147	0xbdf5a024	-0.11993435
148	0x3d54d9ca	0.051965512
149	0x3e9cd9f5	0.30635038
150	0x3e7bf3f1	0.24604775
151	0x3d4366dc	0.047705516
152	0xbe86cd60	-0.26328564
153	0x3e928f7e	0.286251
154	0xbececd84	-0.4039117
155	0xbd027c3c	-0.03185676
156	0xbee052d0	-0.4381318
157	0xbc990e39	-0.01868354
158	0xbce5dfca	-0.028060813
159	0xbe17e3c2	-0.14832976
160	0xbf263c90	-0.6493616
161	0xbefcc1f6	-0.4936673
162	0x3e7fdc73	0.24986438
163	0xbe1906fb	-0.14944069
164	0x3e665dad	0.22496672
165	0x3ecf47e7	0.40484545
166	0xbe3dd4b3	-0.1853817
167	0xbda2e033	-0.07952919
168	0xbef2e0b8	-0.47437072
169	0xbf025f03	-0.50926226
170	0x3d9bc4fb	0.076059304
171	0xbc4d855f	-0.012544005
172	0x3e982779	0.29717615
173	0x3e040833	0.12893753
174	0xbe9b810c	-0.30371892
175	0xbee61d7c	-0.4494437
176	0x3d8ed677	0.069745
177	0x3c967b6b	0.018369397
178	0xbe0406db	-0.1289324
179	0x3e1f435c	0.1555304
180	0x3e4fe06b	0.20300452
181	0x3d62c395	0.055362303
182	0x3e70a207	0.23499309
183	0xbce4a9e2	-0.027913038
184	0x3e1118ba	0.14169589
185	0xbe9f6837	-0.31134197
186	0x3d27fcb5	0.041012485
187	0xbda481ef	-0.08032595
188	0x3c501896	0.012701174
189	0x3e952646	0.29130763
190	0x3dd47637	0.1037411
191	0x3e20f1ba	0.15717211
192	0xbe0c9d44	-0.13731867
193	0x3cd8470d	0.026401067
194	0xbf0de00a	-0.5541998
195	0x3e9d36b4	0.30705798
196	0xbdabea14	-0.08394256
197	0x3e5a31f1	0.21308114
198	0x3de55519	0.11197872
199	0xbe9b99cc	-0.30390775
200	0x3e4ecead	0.20196028
201	0xbd8ea634	-0.069652945
202	0xbe405888	-0.18783772
203	0xbd9e746c	-0.077370495
204	0xbd8af893	-0.06785693
205	0xbb62147d	-0.0034497075
206	0xbea32ca3	-0.31869993
207	0xbe27a8c8	-0.16372979
208	0xbee83491	-0.45352605
209	0xbe802231	-0.25026086
210	0xbeb3e038	-0.35132003
211	0x3df6289f	0.120194666
212	0x3dc91b62	0.09819676
213	0x3dbde66f	0.09272467
214	0x3e826ea2	0.2547503
215	0x3eb0411f	0.34424683
216	0x3e000d8c	0.12505168
217	0x3e1380cd	0.14404602
218	0xbe122527	-0.14271985
219	0xbd61f59e	-0.05516588
220	0x3c910240	0.017701268
221	0xbd5d0ce6	-0.05396738
222	0x3ec3fec0	0.38280296
223	0x3e08b32a	0.13349596
224	0xbf2d5052	-0.67700684
225	0xbe9abaeb	-0.30220732
226	0x3ed87932	0.42279965
227	0x3dcac222	0.09900309
228	0x3e48a573	0.19594364
229	0xbe95de25	-0.29271045
230	0x3cbf37c8	0.023342028
231	0xbe8ac2bc	-0.27101696
232	0xbb0690b8	-0.0020533036
233	0x3e5219ce	0.20517656
234	0x3e871268	0.2638123
235	0xbdade741	-0.08491374
236	0xbe94f212	-0.29090935
237	0xbd2184fd	-0.039433468
238	0xbccbf0cc	-0.024895094
239	0x3de794bf	0.11307668
240	0xbf24e455	-0.6441091
241	0x3e91b1d4	0.28455985
242	0x3e15df01	0.1463585
243	0x3de1392d	0.109972335
244	0x3dcedaa0	0.10100293
245	0xbcaef00a	-0.021354694
246	0xbea04f82	-0.3131066
247	0x3e9c63e1	0.30544952
248	0xbe0988bb	-0.13431065
249	0x3e408ae8	0.18802989
250	0xbecb3840	-0.39691353
251	0xbbd61e91	-0.0065344055
252	0xbe9d9f66	-0.30785674
253	0xbd041a58	-0.032251686
254	0xbedfd9bd	-0.4372081
255	0x3dcfca6b	0.1014603

encoder.embed_x.weight f4 [28, 40]
0	0x3eacf45a	0.33780175
1	0x40033437	2.050062
2	0x3e6b2b5b	0.22965758
3	0xbf81744f	-1.011362
4	0xbd22dac2	-0.039759405
5	0x3e90f7c8	0.28314042
6	0xbe39a3c7	-0.18128882
7	0x3eac9a1e	0.33711332
8	0xbfc58e61	-1.5434076
9	0x3f3dd87f	0.7415847
10	0xbf17ae9a	-0.59250796
11	0x3f74f580	0.95687103
12	0xbeb661bf	-0.3562145
13	0x3f95311e	1.1655614
14	0x3f2cc80e	0.6749276
15	0x3ea331fc	0.31874073
16	0xbf865862	-1.0495722
17	0xbf710509	-0.9414831
18	0x3e907856	0.2821681
19	0x3efefdfd	0.49803153
20	0x3da4c589	0.08045489
21	0x3f325019	0.6965347
22	0x3f46b9e7	0.77627414
23	0x3f60f4da	0.87873614
24	0x40289573	2.6341217
25	0x3d8419e7	0.06450253
26	0xbebd9ff6	-0.37036103
27	0x3e216a8a	0.15763298
28	0x3f9ff7d6	1.2497509
29	0xbf0ca167	-0.5493378
30	0x402be069	2.685572
31	0x3f0aafaf	0.5417432
32	0x3e70eef8	0.2352866
33	0x3f5dc6de	0.8663157
34	0x3f717dc1	0.9433251
35	0xbec186c4	-0.3779813
36	0x3f43f95a	0.76552355
37	0xbf67327f	-0.90311426
38	0x3f3a9372	0.72881234
39	0x3f6523fa	0.8950802
40	0x3ef14dcf	0.47129676
41	0xbf259849	-0.64685494
42	0x3fbb5469	1.4635135
43	0x3fb78b7b	1.4339441
44	0xbfd3a1a2	-1.6533701
45	0x3fc07376	1.5035236
46	0xbf788b99	-0.9708801
47	0xbea72c25	-0.32650867
48	0xbf889843	-1.0671467
49	0x3e61565d	0.22005601
50	0xbf551996	-0.83242166
51	0xbf5633ba	-0.8367268
52	0xbfc1fe5c	-1.5155749
53	0xbfba46ed	-1.4552895
54	0xbfdd8ef0	-1.7309246
55	0x3f46320a	0.77420104
56	0x3e5be817	0.21475254
57	0xbf6e209b	-0.930185
58	0x3e04ecf3	0.12981014
59	0x3efd9db8	0.49534392
60	0x3ea2c18b	0.31788287
61	0xbf577e2e	-0.8417691
62	0x400ed44c	2.2317076
63	0x3f18d63e	0.5970191
64	0xbfcba955	-1.5911051
65	0xbdabbe84	-0.08385947
66	0xbfe848c7	-1.814721
67	0xc00281c9	-2.0391715
68	0x3fad32cb	1.3531126
69	0x3f88144d	1.0631195
70	0x3f8bc5bf	1.0919722
71	0x3f532a12	0.8248607
72	0xbf0cc436	-0.54986894
73	0xbf9c6792	-1.2219107
74	0x3e9681c9	0.29395893
75	0x3f35e3af	0.7105054
76	0x3f41a3c3	0.75640506
77	0x3e30ed37	0.1727799
78	0x3badb276	0.005300815
79	0x3fabf1d9	1.3433181
80	0xbee73522	-0.45157725
81	0xbeab1633	-0.33415374
82	0x3ea931dc	0.33045852
83	0xbf9d69e9	-1.2297946
84	0x3f3420b9	0.7036243
85	0xbf6f7528	-0.9353814
86	0xbf5951e8	-0.84890604
87	0xbf7c5046	-0.9855999
88	0xbe868ff7	-0.2628171
89	0xbf9bf5de	-1.2184408
90	0xbf606287	-0.8765034
91	0x3fb0c68c	1.3810592
92	0x3ee238a4	0.44183838
93	0xbfa0b074	-1.2553849
94	0x40013fe3	2.0195243
95	0xbea56e90	-0.32310915
96	0xbe886347	-0.26638243
97	0xbf5a7f16	-0.8535017
98	0x3fb68f1a	1.4262421
99	0x3d933756	0.07188289
100	0xbfa7614a	-1.3076565
101	0x3f5b00fa	0.85548365
102	0xbfcbd8c8	-1.5925531
103	0x3f84edc9	1.0385066
104	0xbf5a24f4	-0.85212636
105	0xbf558314	-0.83403134
106	0x3f67484e	0.90344703
107	0x3e481d4c	0.19542426
108	0x3fe669fd	1.8001095
109	0x3b1ed398	0.0024235006
110	0x3f09cd4d	0.5382889
111	0x40100303	2.2501838
112	0xbe8a09f4	-0.2696072
113	0xc001d7c9	-2.0287955
114	0xbe9d3cb7	-0.30710384
115	0xbd462185	-0.04837181
116	0x3f88c2bb	1.0684427
117	0x3f1042f3	0.56352156
118	0xc06ae377	-3.6701334
119	0xbf34935a	-0.7053734
120	0xbff0059c	-1.8751712
121	0x3f53395e	0.8250941
122	0xbefc0be6	-0.49227828
123	0xbf258491	-0.64655405
124	0xbf832eec	-1.0248694
125	0xc0232af4	-2.5494967
126	0xbfa886e8	-1.316617
127	0x3f062cdd	0.52412206
128	0x3f2781e7	0.6543259
129	0x4042d59a	3.0442872
130	0xbfb23297	-1.3921689
131	0xbe2be4dd	-0.16786523
132	0xc00dfd23	-2.2185752
133	0xbf74b1e5	-0.95583946
134	0x3f89e72d	1.0773674
135	0xbf18f618	-0.5975051
136	0x3e261d43	0.162221
137	0xbf898922	-1.0744975
138	0x3ff3667a	1.9015648
139	0x3fb8e18a	1.4443829
140	0x3ffeb505	1.9898993
141	0x3e3569dc	0.17716163
142	0xbf118099	-0.5683685
143	0xbf5e4a9e	-0.86832607
144	0xbf79d672	-0.9759284
145	0x3e3a29ae	0.18179962
146	0x3fca9c8f	1.5829028
147	0x3c5e7d3e	0.013579665
148	0xbf0c110c	-0.5471351
149	0x3fbce713	1.4758018
150	0x3c9687ef	0.018375365
151	0xbeb04748	-0.34429383
152	0x3fa7ef52	1.311991
153	0x3feb35ee	1.8375833
154	0x3ff40e7f	1.9066924
155	0x3f5735e0	0.8406658
156	0x3f711058	0.94165564
157	0xbfa10321	-1.257908
158	0x3f1be1d2	0.6089145
159	0xbe49e298	-0.19715345
160	0x3ee35370	0.44399595
161	0x3d8a8614	0.067638546
162	0xbf15e649	-0.5855451
163	0x3f913a16	1.1345851
164	0x3a0c6a7f	0.00053564453
165	0x3fc2590d	1.5183426
166	0x3e12c4dd	0.1433291
167	0xc00ad4dd	-2.1692421
168	0x3fbb3e45	1.4628378
169	0xbf9d1ca0	-1.2274361
170	0x3fa1a3d4	1.2628121
171	0xbf147fc1	-0.58007437
172	0xbe495ce3	-0.1966434
173	0xbe924cfb	-0.28574356
174	0x3e69a859	0.22818126
175	0xc00cb851	-2.1987498
176	0x3f86d0f8	1.0532522
177	0xbf8030b4	-1.0014863
178	0xbfb336df	-1.400112
179	0xbf97ad52	-1.1849768
180	0x4000a273	2.009915
181	0x3fb39d22	1.4032328
182	0x3de350a4	0.11099365
183	0xbf2e53cf	-0.6809663
184	0x3e59ed28	0.21281874
185	0x3f578369	0.8418489
186	0x3f74f538	0.95686674
187	0xbec099c5	-0.37617317
188	0x403b3b89	2.9255087
189	0x3f7c151e	0.9846972
190	0xbf5c2629	-0.8599573
191	0xc00d8605	-2.211305
192	0x3fd5a12e	1.6689813
193	0x3f048973	0.5177223
194	0xbf390c2f	-0.72284216
195	0xbed02ddb	-0.40659985
196	0xbee2523d	-0.44203368
197	0xbddbe08b	-0.107361875
198	0xbf5d6f99	-0.8649841
199	0xbff411a9	-1.906789
200	0x3f4d8631	0.80282885
201	0xbf65ff12	-0.8984233
202	0x403458f9	2.8179305
203	0x3e8804c4	0.26566136
204	0xbf415bba	-0.7553059
205	0xbf1032e3	-0.56327647
206	0x3f8910c7	1.0708245
207	0x3f6eae3d	0.93234617
208	0xbf9ce297	-1.225665
209	0xbf1bcc14	-0.60858274
210	0x3eef79b0	0.46772528
211	0x3f94d99e	1.1628911
212	0xbfecdfdb	-1.8505815
213	0x3d7e57ed	0.06209557
214	0x3f9fe7e0	1.2492638
215	0x3fcaa320	1.5831032
216	0xbe4dbf7f	-0.20092581
217	0x3dd0954b	0.101847254
218	0x3fde8add	1.7386128
219	0x3faf81fb	1.3711542
220	0xbe58ef3b	-0.21185009
221	0x3ece3e79	0.40282038
222	0xc0371ce9	-2.8611395
223	0xbef77a9b	-0.48335728
224	0xbffb5fa8	-1.9638567
225	0x3fff7dcd	1.9960266
226	0x3f25268e	0.64511955
227	0xc01b686b	-2.4282482
228	0x3f45e871	0.773078
229	0xbf7ac31e	-0.97953975
230	0xbe91ebe5	-0.28500286
231	0x3f268dcf	0.6506013
232	0xbee9db2b	-0.45675024
233	0x3f475561	0.7786465
234	0x4005fdd7	2.0936182
235	0x3f5e32e2	0.8679639
236	0x3f5e60c1	0.86866385
237	0xc027df90	-2.6230202
238	0x3fe170ac	1.761251
239	0xbf5ae5e1	-0.8550702
240	0xc01fcd91	-2.4969218
241	0x3ef25d07	0.473366
242	0x3f9840c5	1.1894766
243	0x3f9ac6ce	1.209192
244	0xbf6632a7	-0.8992104
245	0xbf78bb93	-0.97161216
246	0x3f3b5363	0.73174113
247	0x3f23a42e	0.63922393
248	0xbeffe84f	-0.49981925
249	0xc0130e14	-2.2977343
250	0xbf5f8e16	-0.8732618
251	0x3fba8018	1.4570341
252	0x40038f95	2.0556386
253	0x3e4ce326	0.20008525
254	0x40019b4f	2.0251043
255	0x3f118fda	0.56860125

encoder.trans_linear.weight f4 [40, 5]
0	0xbf3b1e44	-0.73093057
1	0xbf048ef1	-0.5178061
2	0x3e83c4e4	0.25736153
3	0x3e5823e9	0.21107449
4	0x3d9306dc	0.07179043
5	0xbef0c989	-0.4702876
6	0xbe9e752d	-0.30948773
7	0xbe3cd8e5	-0.18442114
8	0x3e5e6c28	0.21720946
9	0x3e3bbea3	0.18334441
10	0xbec24bba	-0.379484
11	0x3eee3d5b	0.46531186
12	0xbe90e3ed	-0.28298894
13	0xbdd2b674	-0.102887064
14	0xbe27aeb3	-0.16375236
15	0xbe707c44	-0.23484904
16	0x3ee25b3e	0.44210237
17	0x3d89e228	0.06732589
18	0x3e094ba3	0.1340776
19	0xbddae0bc	-0.10687396
20	0xbe9a5658	-0.30144
21	0xbe67adcc	-0.22624892
22	0xbea54594	-0.32279646
23	0xbe2bfb18	-0.16795003
24	0xbee973c1	-0.45596126
25	0xbf1f17b2	-0.6214553
26	0x3e9cb142	0.30603987
27	0xbed5b735	-0.41741338
28	0xbe65fb1f	-0.22459076
29	0xbdb3692a	-0.08760293
30	0x3f31fcaf	0.6952619
31	0xbf0b115f	-0.5432338
32	0x3d915585	0.0709639
33	0x3e8713d6	0.2638232
34	0xbe8057a0	-0.25066853
35	0xbe8ce2d9	-0.2751682
36	0x3e3a0005	0.1816407
37	0x3e41b8ff	0.18918227
38	0xbe942c7c	-0.2894019
39	0xbe4014fa	-0.18758002
40	0x3eb519d7	0.35371277
41	0x3e04227b	0.12903778
42	0xbeba3f54	-0.3637644
43	0x3ec0e9f0	0.3767848
44	0xbe74f25f	-0.23920582
45	0x3d4bc16b	0.049745005
46	0xbf1fc4c5	-0.6240962
47	0x3f0e7466	0.5564636
48	0xbbd0e5ae	-0.006375036
49	0x3e13354b	0.14375798
50	0x3ee77f1f	0.45214173
51	0xbf40dfc0	-0.75341415
52	0xbf0af827	-0.542849
53	0x3ea35c49	0.31906345
54	0x3e3efbf7	0.18650804
55	0xbe2712f9	-0.16315831
56	0xbdb43771	-0.08799637
57	0x3f117943	0.56825656
58	0xbcc34368	-0.023835853
59	0x3e5f0f82	0.2178326
60	0xbf0ab6d9	-0.54185253
61	0x3f283c46	0.6571697
62	0xbf08538b	-0.53252476
63	0x3dde4190	0.10852349
64	0x3ec1334a	0.37734443
65	0x3ec50408	0.38479638
66	0x3f36980b	0.7132575
67	0xbe4ee450	-0.20204282
68	0xbd9ccbc9	-0.076560564
69	0x3e3393f0	0.17536902
70	0xbebccec7	-0.3687651
71	0xbe95be7a	-0.29246885
72	0x3f3b7e09	0.7323919
73	0xbe675733	-0.22591858
74	0x3ee9a505	0.45633712
75	0x3f015513	0.5052044
76	0xbecf4977	-0.40485737
77	0x3f87c195	1.0605952
78	0xbd99b290	-0.07504761
79	0x3e248cef	0.16069387
80	0x3c8405b0	0.016115993
81	0xbee0c393	-0.4389921
82	0x3f27cdbd	0.65548307
83	0x3e02b6af	0.12765001
84	0x3e4a1959	0.19736232
85	0xbef27bb9	-0.47360018
86	0x3f17ccb6	0.5929674
87	0x3e89fcce	0.26950687
88	0xbe4519b6	-0.19248089
89	0xbd6317d8	-0.05544266
90	0x3c39895b	0.011324252
91	0xbf10a9d0	-0.56509113
92	0x3f0accbe	0.5421866
93	0xbe5d388b	-0.216036
94	0xbdc98b35	-0.09841005
95	0xbf5b6217	-0.8569655
96	0xbf2c89d8	-0.6739783
97	0xbea79667	-0.32731935
98	0x3e97fc20	0.29684544
99	0x3ce2cb90	0.027684957
100	0x3edf69df	0.4363546
101	0x3ead6cb9	0.3387201
102	0x3ee9cce5	0.45664135
103	0xbe5e10cb	-0.21686094
104	0x3ccd4a98	0.025059983
105	0x3ecc3977	0.39887592
106	0xbf240287	-0.64066356
107	0xbd96ebd0	-0.073691964
108	0xbe29fc0d	-0.16600056
109	0x3e9ef6c4	0.31047642
110	0x3e898fc0	0.26867485
111	0x3dedf184	0.11618331
112	0x3ecf440a	0.40481597
113	0x3ea71057	0.32629654
114	0xbd167ced	-0.036740232
115	0x3d9155c4	0.070964366
116	0x3c55633c	0.013024148
117	0xbf49414a	-0.7861525
118	0x3e55b81f	0.20871018
119	0x3b0d56f1	0.0021566714
120	0x3f18d0f5	0.59693843
121	0x3f3518ef	0.7074117
122	0x3e3151bc	0.17316335
123	0xbc6a09c0	-0.014284551
124	0xbd0eaac8	-0.03483084
125	0xbe98f546	-0.2987463
126	0xbc6e5e41	-0.014548839
127	0x3dc24506	0.094858214
128	0x3e3e5123	0.18585639
129	0x3e824d56	0.25449628
130	0xbd6df18e	-0.058091693
131	0x3f185d7d	0.5951765
132	0x3eb395db	0.35075268
133	0x3e4c1449	0.19929613
134	0xbe53af4f	-0.20672344
135	0x3efbd9f0	0.4918971
136	0xbf0ce1e8	-0.55032206
137	0xbd18dc8d	-0.03731971
138	0xbe5d7249	-0.21625628
139	0xbe91902f	-0.28430316
140	0x3e9e6e0b	0.3094333
141	0xbf512b1a	-0.8170639
142	0xbe8dae14	-0.27671874
143	0xbd5588c8	-0.052132398
144	0x3e9344e1	0.28763488
145	0x3f0cb357	0.5496115
146	0x3f0c4ed5	0.5480779
147	0x3ebb64c6	0.36600322
148	0xbd7b372b	-0.06133191
149	0x3e49ef08	0.1972009
150	0x3e7a876b	0.2446572
151	0x3f12478d	0.5714043
152	0xbec54b93	-0.3853422
153	0x3e984eab	0.2974752
154	0x3e877c35	0.2646195
155	0xbba94b6b	-0.005166461
156	0x3e9ca06f	0.3059115
157	0xbee6b032	-0.450563
158	0xbc797546	-0.015225714
159	0xbe4e9378	-0.20173442
160	0xbe6873d2	-0.22700432
161	0x3d051959	0.032494877
162	0x3eaa1d0f	0.33225295
163	0xbeb300b1	-0.34961465
164	0xbe1c292d	-0.15250082
165	0xbdf401d1	-0.11914409
166	0x3deb9172	0.11502351
167	0x3cca090a	0.024662513
168	0x3ec12d0c	0.3772968
169	0x3e7a5cba	0.24449435
170	0xbf3d2e74	-0.73899007
171	0x3e7d9143	0.24762444
172	0x3cc20068	0.023681834
173	0x3ed11694	0.40837538
174	0x3e78f150	0.24310803
175	0xbe8886e4	-0.26665413
176	0x3ed2e2b8	0.41188598
177	0x3f70b7b2	0.94030297
178	0xbe9bba89	-0.30415753
179	0xbe87e36d	-0.265407
180	0x3f2ccf15	0.6750348
181	0x3e8e52a3	0.27797422
182	0x3f1381fc	0.57620215
183	0x3e1e6154	0.15466815
184	0x3eb64d82	0.3560601
185	0xbeb648cc	-0.35602415
186	0xbe83e3f1	-0.25759843
187	0x3e5fd4b2	0.2185848
188	0xbe7ff317	-0.24995075
189	0x3e834e55	0.256457
190	0xbb27b27d	-0.0025588565
191	0x3da04592	0.078257695
192	0xbf2632e7	-0.6492142
193	0xbdc00105	-0.093751945
194	0xbe820047	-0.25390837
195	0xbefcb6c3	-0.49358186
196	0xbe60d658	-0.21956766
197	0xbcb301a5	-0.02185137
198	0x3e9e9433	0.30972442
199	0x3e68f860	0.22750998

encoder.trans_linear.bias f4 [40]
0	0xbeb6c1b0	-0.35694647
1	0x3e7bf0b3	0.24603538
2	0xbeb08cab	-0.3448232
3	0xbe8f845f	-0.2803068
4	0xbe6ad26e	-0.22931835
5	0x3ca5f6ca	0.02025928
6	0xbca81248	-0.02051653
7	0x3e57bb48	0.21067536
8	0xbe3163ab	-0.17323177
9	0xbeaa9b3f	-0.33321568
10	0xbeafc0f7	-0.34326908
11	0xbf03af4a	-0.51439345
12	0x3ecfc117	0.40577003
13	0xbe0b8db1	-0.1362827
14	0xbe36c231	-0.17847516
15	0x3e2ca614	0.16860229
16	0xbe14601f	-0.14489792
17	0x3ea074e8	0.31339192
18	0x3dddd370	0.10831344
19	0xbd8796c2	-0.06620552
20	0xbe5eac2a	-0.21745363
21	0x3d9a4688	0.07532984
22	0xbce35cd5	-0.027754227
23	0xbce2f83e	-0.027706262
24	0xbe20ae4c	-0.15691489
25	0x3ea32dac	0.31870782
26	0xbdc84d0a	-0.09780319
27	0x3ea81e91	0.3283582
28	0xbec1f0a0	-0.37878895
29	0x3a878ffe	0.0010342596
30	0xbee56b8c	-0.44808614
31	0xbe9f6210	-0.31129503
32	0xbd8adacc	-0.067800134
33	0x3eb78d60	0.35850048
34	0xbd18b4bc	-0.037281737
35	0x3e628b18	0.22123373
36	0xbeae3d8e	-0.34031337
37	0xbde8f518	-0.11374873
38	0xbecd108c	-0.40051687
39	0xbdfb6a5b	-0.12276145

encoder.conv_mu.bias f4 [20]
0	0x3bc01249	0.0058615548
1	0xbc5841e8	-0.013199307
2	0xbca8ea30	-0.020619482
3	0xbe1af8c0	-0.15133953
4	0xbc99434e	-0.018708851
5	0xbc91939a	-0.017770577
6	0xbd0a4e7c	-0.033766255
7	0x3b762201	0.003755689
8	0x3c2d139d	0.010563758
9	0x3db1a4db	0.08674022
10	0x3b8cab6d	0.0042928965
11	0xbcaf04e5	-0.021364639
12	0xbd5947f0	-0.05304712
13	0x3c4e74c0	0.012601078
14	0x3c7009ee	0.014650805
15	0xba861de4	-0.0010232297
16	0x3d55cdcf	0.052198227
17	0xbd423b58	-0.047419876
18	0xbb1df482	-0.0024102037
19	0xbcced60f	-0.025248555
