results/model_GCN/graph_split_/layers_1/transform_True/alpha_-5.0/model.pt (torch, 15093 bytes, 9 tensors)

encoder.conv.bias f4 [20]
0	0x3dd14e61	0.10220028
1	0x3ef2af5e	0.4739942
2	0x3db56761	0.088576086
3	0x381ad044	3.6910424e-05
4	0xbe40a80c	-0.18814105
5	0x3e52e96b	0.20596854
6	0x3e9d2280	0.30690384
7	0x3dbf5dd2	0.09344067
8	0x3dbbc580	0.091685295
9	0xbe3e5a6b	-0.18589179
10	0x3c5754ef	0.013142808
11	0x3e44cf2f	0.1921966
12	0x3d2be9c9	0.041971
13	0x3dfd9c6d	0.123833515
14	0x3de5324f	0.11191236
15	0xbe57d856	-0.2107862
16	0x3d6a2234	0.057161525
17	0x3ecd47a3	0.40093717
18	0xbd733a1a	-0.05938158
19	0x3da6b561	0.08140064

encoder.conv.lin.weight f4 [20, 40]
0	0x3e969990	0.29414034
1	0x3d233f2a	0.03985516
2	0x3e2e0102	0.16992572
3	0x3dd9ce7c	0.10635087
4	0xbdb87cad	-0.09008155
5	0xbea3ea4a	-0.32014686
6	0x3d76f2b5	0.060290057
7	0x3d374cc2	0.044750936
8	0x3e827991	0.25483373
9	0xbe3bc2e6	-0.18336067
10	0x3e7e86c8	0.24856102
11	0xbbe183b9	-0.0068821576
12	0x3d8cab17	0.0686857
13	0x3e80bc5e	0.25143713
14	0x3d120784	0.0356517
15	0xbe731af2	-0.23740748
16	0xbe261982	-0.16220668
17	0xbe954cc0	-0.29160118
18	0xbe81e016	-0.25366277
19	0xbe11bb07	-0.14231502
20	0xbd310e43	-0.04322649
21	0xbe35e3f6	-0.17762741
22	0xbdb19773	-0.08671465
23	0x3d015142	0.031571634
24	0x3eb4f605	0.35343948
25	0xbde972b0	-0.11398828
26	0x3e3feae0	0.18741941
27	0x3da6e673	0.081494235
28	0x3e4f775e	0.20260379
29	0xbeb6cafa	-0.35701734
30	0xbe2dfb15	-0.16990311
31	0x3eb2a69e	0.34892744
32	0x3e213763	0.15743785
33	0x3eb9c9ab	0.36286673
34	0xbe9af688	-0.30266213
35	0x3e4ed621	0.20198871
36	0x3e798530	0.24367213
37	0x3e82cce8	0.25546956
38	0xbe044069	-0.12915196
39	0xbe1ac4ad	-0.15114088
40	0x3e5af6aa	0.21383157
41	0x3edf8a24	0.4366008
42	0xbe2a2349	-0.16615023
43	0xbd9e2d46	-0.07723479
44	0xbd48dbba	-0.049037673
45	0xbee42a2b	-0.44563422
46	0xbe5379eb	-0.20651977
47	0xbeb43e05	-0.35203567
48	0xbe6eba3f	-0.23313235
49	0x3de8ab74	0.11360827
50	0xbea26bbf	-0.3172283
51	0xbe17ac88	-0.14811909
52	0xbe253eca	-0.16137233
53	0x3dcf2e7d	0.10116289
54	0xbdd416c3	-0.10355904
55	0xbe5811fd	-0.21100612
56	0xbdc3aec9	-0.09554822
57	0x3e446e50	0.19182706
58	0xbe4d6673	-0.20058613
59	0xbee97bbd	-0.45602217
60	0xbe1e7079	-0.15472592
61	0x3d85cbf8	0.065330446
62	0x3e18cf84	0.14922911
63	0x3e8f45de	0.27982992
64	0xbe68b370	-0.227247
65	0xbd856795	-0.06513897
66	0x3e84d9d5	0.25947443
67	0xbc2bfd20	-0.010497361
68	0xbe2b97c0	-0.16757107
69	0xbeef524d	-0.46742478
70	0x39e82d18	0.00044284086
71	0xbdf1e286	-0.11810784
72	0x3ec7873d	0.38970366
73	0x3eb4bd6c	0.35300767
74	0x3e89f3ff	0.26943967
75	0xbeb57071	-0.35437348
76	0xbf104fcb	-0.56371754
77	0xbe036ed9	-0.12835254
78	0x3e8d5a2c	0.27607858
79	0x3e903cde	0.28171438
80	0xbe3d34ce	-0.18477175
81	0x3e41d5ed	0.18929262
82	0x3e7d4014	0.24731475
83	0x3ea28fdd	0.31750384
84	0x3ed96d2a	0.42466098
85	0x3dff38a1	0.12461973
86	0xbdebe731	-0.11518706
87	0x3e86b605	0.26310745
88	0x3e748901	0.23880388
89	0xbe10dc90	-0.14146638
90	0x3e91a4c0	0.28446007
91	0xbdb26e8c	-0.087124914
92	0x3e625716	0.22103533
93	0xbec4f03f	-0.38464543
94	0x3e8375f4	0.2567593
95	0x3dcb7247	0.09933906
96	0xbd9dacf0	-0.07699001
97	0x3e916f0e	0.2840504
98	0x3dc77711	0.09739507
99	0x3dda0043	0.10644581
100	0xbd07a170	-0.033112943
101	0x3e4a7bbc	0.19773763
102	0xbe5e5d98	-0.2171539
103	0xbe7af366	-0.24506912
104	0x3dbea30e	0.09308444
105	0xbe79c203	-0.24390416
106	0xbe57ff56	-0.21093497
107	0x3ceb71c5	0.028740773
108	0x3eaa8463	0.33304128
109	0xbe33d7b0	-0.17562747
110	0x3dbad548	0.091227114
111	0x3d5ce34b	0.0539277
112	0xbe0eb733	-0.13937072
113	0x3d42b687	0.047537353
114	0xbdfc09c3	-0.123065494
115	0xbde7b802	-0.113143936
116	0x3e69cd68	0.22832263
117	0xbe37f97f	-0.17966269
118	0xbc096ac6	-0.008387273
119	0xbe84e79b	-0.2595795
120	0x3e843dca	0.2582839
121	0xbe10553a	-0.14095011
122	0xbe3ce5f7	-0.184471
123	0x3dd0cc05	0.10195164
124	0xbe210b44	-0.15726954
125	0x3da938b3	0.08262768
126	0x3b6f2766	0.003649199
127	0xbe9866e6	-0.29766005
128	0x3d9ca694	0.0764896
129	0xbea1e16e	-0.31617302
130	0xbe2c4354	-0.16822559
131	0xbe05f025	-0.13079889
132	0x3e6239db	0.22092383
133	0x3d9f2ef1	0.07772625
134	0x3e82c5a6	0.2554142
135	0x3e43e877	0.19131647
136	0x3ea4e46b	0.3220552
137	0xbd658427	-0.056034233
138	0xbccb89c9	-0.024845975
139	0xbe60c699	-0.21950759
140	0xbe98d65d	-0.29851046
141	0x3e63d886	0.22250566
142	0xbc0b01a8	-0.008484282
143	0x3cfe1d33	0.031019783
144	0xbe62d893	-0.22152929
145	0x3e976b1d	0.29573908
146	0x3c8b8750	0.017032295
147	0x3e0c8c94	0.13725501
148	0x3e55d135	0.20880587
149	0x3d82dedd	0.06390164
150	0xbb454c87	-0.0030105428
151	0xbe18e63e	-0.1493158
152	0xbe7674f2	-0.24068049
153	0xbda3a20b	-0.079898916
154	0xbe92cd57	-0.28672287
155	0xbde7393a	-0.11290212
156	0x3ea6c3c3	0.3257123
157	0xbdf9e6a9	-0.12202198
158	0xbeec2021	-0.46118262
159	0x3d9a9679	0.07548232
160	0x3e19cc10	0.1501925
161	0xbe8809bb	-0.26569924
162	0xbdd5d8d5	-0.10441748
163	0xbe4c38a6	-0.19943485
164	0xbdd91b1f	-0.10600876
165	0xbe6a094d	-0.2285511
166	0x3e439c6f	0.19102643
167	0x3e04f386	0.12983522
168	0xbecc0f5e	-0.39855474
169	0x3db5d19a	0.08877869
170	0xbd8f1eac	-0.06988272
171	0x3bb2ef6c	0.00546067
172	0xbedae1b6	-0.4275033
173	0xbee2295a	-0.44172174
174	0x3e9772dd	0.2957982
175	0x3e4b836b	0.1987435
176	0xbbd53d8d	-0.0065075816
177	0x3eab19cb	0.33418116
178	0x3d9e5d00	0.07732582
179	0x3e750aff	0.23929976
180	0x3e163ed8	0.1467241
181	0x3e366e6c	0.1781556
182	0xbde18d98	-0.11013335
183	0x3ea75cf9	0.3268812
184	0xbeb36807	-0.35040304
185	0x3e4dac6b	0.20085303
186	0x3e0b4df9	0.13603963
187	0x3f08599d	0.5326174
188	0x3e6fad8e	0.2340605
189	0x3e567305	0.20942314
190	0xbd62d686	-0.055380367
191	0xbe8daf6b	-0.27672896
192	0x3e31bb6d	0.17356654
193	0xbeec2032	-0.46118313
194	0x3ea33fa1	0.31884483
195	0x3dcc7b8d	0.09984503
196	0x3eb3dacd	0.3512787
197	0xbe429c68	-0.19004977
198	0xbd71adef	-0.059003767
199	0x3e660df5	0.22466262
200	0xbe3feaab	-0.18741862
201	0xbc314ece	-0.010822011
202	0x3e513848	0.20431626
203	0x3d9f479a	0.07777329
204	0xbc1e42ed	-0.009659511
205	0x3e41f67f	0.18941687
206	0x3e883b08	0.26607537
207	0x3dcd0b45	0.10011915
208	0x3e4f0a5f	0.202188
209	0x3ca2e368	0.019883826
210	0x3e37db4e	0.17954752
211	0x3dd72fb4	0.105071455
212	0xbdf5b883	-0.119980834
213	0x3d919ee7	0.07110386
214	0x3e938ae0	0.2881689
215	0xbe602e7a	-0.2189273
216	0x3e826050	0.25464106
217	0x3e0fab4d	0.1403019
218	0x3e77ed8e	0.24211714
219	0xbe37cdec	-0.17949647
220	0x3e99ee38	0.3006456
221	0x3dbe0f01	0.092802055
222	0xbe416a1c	-0.18888134
223	0xbe362f98	-0.17791593
224	0x3ca73cc7	0.020414723
225	0x3ded44c8	0.115853846
226	0x3e79b970	0.24387145
227	0xbe6cd6c0	-0.23128796
228	0xbe1a9c5f	-0.15098713
229	0xbc9baba3	-0.019002741
230	0x3d032e55	0.032026608
231	0xbe1d4ee1	-0.15362121
232	0xbe016cbe	-0.12639138
233	0xbd028959	-0.031869266
234	0x3cd6b921	0.026211323
235	0x3e811a09	0.25215176
236	0xbec62520	-0.387002
237	0x3d41a9b1	0.04728097
238	0x3eb33869	0.35003975
239	0xbec4df7d	-0.38451758
240	0xbdb24f66	-0.0870655
241	0x3eaef956	0.34174603
242	0xbecf1a54	-0.40449774
243	0xbe4ccec6	-0.20000753
244	0xbdc805b9	-0.097667165
245	0xbe132f2e	-0.14373466
246	0xbe5064b1	-0.2035091
247	0xbe47dfbf	-0.19518946
248	0xbea68e0a	-0.32530242
249	0xbe1405fe	-0.14455411
250	0xbf0f648d	-0.56012803
251	0xbe9de971	-0.30842164
252	0x3f0905e3	0.5352461
253	0x3dfa4059	0.122193046
254	0xbef901c5	-0.48634163
255	0xbeb321a5	-0.34986606

encoder.embed_x.weight f4 [28, 40]
0	0x3ccebff5	0.025238017
1	0xbeea531d	-0.45766535
2	0x3f77717b	0.9665753
3	0xbf52ae52	-0.8229724
4	0xbe80a3b9	-0.2512491
5	0xbf23c323	-0.6396963
6	0x3c666b81	0.014063717
7	0x3f9b7621	1.2145425
8	0x3f2a6153	0.66554755
9	0xbf9f6c7a	-1.245498
10	0x3fad6d7c	1.3549037
11	0x3e82fb8c	0.2558254
12	0xbf009cd2	-0.5023929
13	0x3e23e4b1	0.16005208
14	0x3e8e8892	0.2783857
15	0xbd62d4cd	-0.055378724
16	0x3d80b6c8	0.06284863
17	0xbf48c3da	-0.78423846
18	0x3e0edb42	0.13950828
19	0xbe2c6c44	-0.16838175
20	0xbed32a0d	-0.4124302
21	0x3fa3df39	1.2802497
22	0xbf18d351	-0.59697443
23	0xbff10b33	-1.8831543
24	0x3f2a99ec	0.66641116
25	0x3d28fd2a	0.04125706
26	0xc01eab1b	-2.4791934
27	0x3d77ce2d	0.06049936
28	0xbda8472b	-0.08216699
29	0x3e281375	0.16413672
30	0xbe8f9fe6	-0.2805168
31	0x3e905419	0.2818916
32	0xbfd85aee	-1.690275
33	0x3fb9487b	1.4475244
34	0xbece630d	-0.40309945
35	0x3f8192bf	1.0122908
36	0x3f0c0d1d	0.5470751
37	0x3ecdda30	0.40205526
38	0xbe896648	-0.26835847
39	0x3d16f7de	0.03685748
40	0xbf2cf160	-0.6755581
41	0x3f78a38c	0.9712455
42	0x3e93b270	0.28847075
43	0xc002c891	-2.0434916
44	0x3f63b508	0.88948107
45	0xbf263407	-0.6492314
46	0x3ecb53e5	0.39712444
47	0xbeeaac90	-0.4583478
48	0xbf6a84e5	-0.9160903
49	0x3ecf49cc	0.4048599
50	0xbfb83475	-1.4391009
51	0x3f75b4eb	0.95979184
52	0x3ebfb1a0	0.37440205
53	0x3f757fff	0.9589843
54	0xbf2c0de9	-0.67208725
55	0xbee7e42e	-0.45291275
56	0x3ff87cce	1.9413087
57	0x3e69a22b	0.22815768
58	0xbfade99f	-1.358692
59	0xbf83e238	-1.0303411
60	0x3d8c0f54	0.06838861
61	0x3ee3807f	0.44433972
62	0xbe0ca42d	-0.13734503
63	0xbf7d9a29	-0.99063355
64	0x3eab454d	0.3345131
65	0xbd35872a	-0.044318356
66	0x401a41c2	2.4102635
67	0xbf3b932a	-0.7327143
68	0xbf940132	-1.1562865
69	0xc010de8e	-2.2635837
70	0xbf0e5a4e	-0.55606544
71	0x3f4f1195	0.80886203
72	0x3ed84c42	0.4224568
73	0x3fd19c9f	1.6375922
74	0x3ee51e2b	0.4474958
75	0xbf8fe5e8	-1.1242037
76	0xc0053d5f	-2.0818708
77	0x3f74bef2	0.9560386
78	0x4019b0ee	2.401424
79	0xbd1032f3	-0.03520484
80	0x3ea5c133	0.32373962
81	0x3fb6e708	1.4289255
82	0xbfbed2d2	-1.4908087
83	0xbe95918d	-0.2921261
84	0xbf439526	-0.7639946
85	0xbeff334d	-0.49843827
86	0x3dd7bca6	0.10534029
87	0xc02c6515	-2.6936696
88	0x3ec274f0	0.3797984
89	0xbf043157	-0.51637787
90	0xbf448e0a	-0.76779234
91	0xbfd107a3	-1.6330456
92	0x3eb07b2f	0.34468982
93	0x3fa1adfe	1.2631223
94	0xbf623818	-0.8836684
95	0xc01ca118	-2.4473324
96	0xbf363b64	-0.7118437
97	0x3e82e31a	0.2556389
98	0x3ddfa3fc	0.109199494
99	0xbfc3a388	-1.5284281
100	0xbecc7a07	-0.3993685
101	0xbef49fb8	-0.47778106
102	0x3ffe06ef	1.9845866
103	0x3fda788c	1.7068038
104	0x3d94886c	0.07252583
105	0x3f6958ed	0.91151315
106	0x3f95a274	1.1690202
107	0xbfba14ac	-1.4537559
108	0xbd253a69	-0.040338907
109	0xbdd06437	-0.101753645
110	0x3f882897	1.0637387
111	0x3e639c38	0.22227561
112	0x3fdb1971	1.7117139
113	0x3e306dae	0.1722934
114	0xbe7b848d	-0.24562283
115	0xbf92697d	-1.1438442
116	0xbfa7548b	-1.3072675
117	0xbd7e7ba9	-0.06212965
118	0x3e32a624	0.1744619
119	0xbec1ed53	-0.37876377
120	0x3d385012	0.044998236
121	0x3f2d8af4	0.6779015
122	0xbf05f90f	-0.5233316
123	0x3dab4804	0.08363345
124	0xbf87622b	-1.0576833
125	0x3f397378	0.72441816
126	0xbe581d7d	-0.21104999
127	0xbe836d95	-0.25669542
128	0x3f1f8207	0.6230778
129	0x3f68a53a	0.90877116
130	0xc0275a99	-2.6149046
131	0x3f8e3a6d	1.111158
132	0xbde76840	-0.11299181
133	0xbfa6a720	-1.3019753
134	0xbf39c2b5	-0.72562724
135	0x3f1be5b8	0.608974
136	0xbeaff865	-0.34369197
137	0x3e1b7410	0.15180993
138	0xbe897894	-0.26849806
139	0xbf055968	-0.5208955
140	0x3f85946b	1.0435919
141	0x3f2d1fb0	0.67626476
142	0xbf1ff8ff	-0.6248931
143	0x3e688af1	0.22709252
144	0xbeffca5f	-0.49959084
145	0x3f0d9727	0.55308765
146	0x3f75a8f5	0.9596093
147	0x3e95d54b	0.29264292
148	0x3e388af2	0.18021753
149	0xbf30cda6	-0.69063795
150	0xbfd2dcf3	-1.6473678
151	0xbe1e4d65	-0.15459211
152	0x3f7388c6	0.95130575
153	0x3f264fac	0.6496532
154	0x3f1bd0fd	0.60865766
155	0x3efb71bc	0.4911021
156	0x3f8bd8a6	1.0925491
157	0x3f76b5f3	0.9637138
158	0xbeb9e6a4	-0.36308777
159	0x3d79fe92	0.061033793
160	0x3fb5b710	1.4196491
161	0x3ffaceeb	1.9594396
162	0xbf9c52a1	-1.2212716
163	0xbf5a9582	-0.8538438
164	0xbf9a71d4	-1.2065988
165	0xbdd83159	-0.10556287
166	0x3ecc1fef	0.39868113
167	0xc00fbb7a	-2.2458177
168	0xc00431b5	-2.0655339
169	0x3f1b3e59	0.6064201
170	0xbf2b23f5	-0.6685174
171	0x3de45a3b	0.111500226
172	0x3f13b938	0.57704496
173	0x3f2154f8	0.6302028
174	0xbf465298	-0.7746978
175	0xbea96f4d	-0.33092728
176	0x3fc48824	1.5354047
177	0x3fe6c73f	1.8029555
178	0xbf102821	-0.5631123
179	0xbed4b1ff	-0.4154205
180	0xbf1d14ee	-0.6136006
181	0x3e2ad27e	0.16681859
182	0x3f25de9b	0.64792794
183	0x3fb02886	1.3762367
184	0xbf020858	-0.5079398
185	0x408085b8	4.016323
186	0x3efac581	0.4897881
187	0x400c2224	2.1895838
188	0x3f261c0b	0.6488654
189	0x3ee1dcc7	0.44113752
190	0xbfe78ed9	-1.8090469
191	0x3ed45452	0.4147058
192	0xbf15fdb7	-0.58590263
193	0xbfda5132	-1.7056029
194	0xbf734255	-0.9502309
195	0xbfb2417b	-1.3926233
196	0x3f63ba49	0.88956124
197	0x3c2beb19	0.010493063
198	0xbfb8c7ff	-1.4436034
199	0x3fe4ff7e	1.789047
200	0x3d94ff7a	0.07275291
201	0xbe78d900	-0.24301529
202	0xbe91bd41	-0.28464702
203	0xbee848a1	-0.4536791
204	0x3f126b6e	0.57195175
205	0xc02eb428	-2.7297459
206	0xbfedf2f0	-1.8589764
207	0xbf03a7bb	-0.5142781
208	0xc01f0bab	-2.4850872
209	0x3f685dac	0.9076793
210	0xbfbba854	-1.4660745
211	0x3d8e4831	0.06947363
212	0xbfdb6a7b	-1.714187
213	0x3d42fa46	0.04760196
214	0xbfcc58b7	-1.5964574
215	0x3e8c7ebf	0.2744045
216	0xbf8ca7fe	-1.0988767
217	0x3f9c49da	1.2210038
218	0xbe624ab4	-0.2209881
219	0x3f1b64d7	0.60700744
220	0x3ee3a0ff	0.44458768
221	0xbf5781d8	-0.841825
222	0x3ed1d03d	0.40979186
223	0x401a14c3	2.4075172
224	0x3fa94d3d	1.3226696
225	0x3fdb05ef	1.7111186
226	0x3fb85d54	1.4403481
227	0x3f56c630	0.8389616
228	0x3ed20f3c	0.41027248
229	0xbfbc8e45	-1.4730917
230	0x3cc600c9	0.024170296
231	0xbf636434	-0.8882477
232	0x4037fe95	2.8749135
233	0xbf10bad6	-0.5653509
234	0x3f3557ed	0.7083729
235	0xc00c6f71	-2.1943018
236	0x3e219480	0.15779305
237	0xbecb6bd3	-0.397307
238	0x3f59370c	0.8484962
239	0x4003b83f	2.0581205
240	0x3f56353c	0.8367498
241	0x3f5f7e48	0.87302065
242	0x3f137d55	0.57613117
243	0x3dccf589	0.100077696
244	0xbfc0f61e	-1.5075109
245	0xbf3b6bd9	-0.7321144
246	0xbcb8897e	-0.022526499
247	0x3f9666c1	1.1750108
248	0xbf00a7c8	-0.50256014
249	0x3f3aa369	0.72905594
250	0xbf80112c	-1.000524
251	0xbe6ded94	-0.2323516
252	0xbf0a19ff	-0.53945917
253	0xbfad4b7e	-1.3538663
254	0x3c31ffaf	0.010864182
255	0x3e29576e	0.16537258

encoder.trans_linear.weight f4 [40, 5]
0	0x3e19d51e	0.15022704
1	0xbdb519fc	-0.08842847
2	0x3e46a1e0	0.19397688
3	0xbdd76f71	-0.10519303
4	0x3cd990a8	0.026558235
5	0x3ec61690	0.3868909
6	0xbdae1415	-0.08499924
7	0xbdac43d4	-0.08411375
8	0xbe94764b	-0.289965
9	0x3e778f06	0.24175653
10	0x3efaaf12	0.48961693
11	0x3e2b204a	0.16711536
12	0xbdf68022	-0.12036158
13	0x3d11d4bc	0.03560327
14	0x3e8c7d9a	0.27439576
15	0xbefcd9a1	-0.49384788
16	0x3e8f6628	0.28007627
17	0x3ebf297e	0.37336344
18	0x3e8bd3a9	0.2730992
19	0x3e6e004c	0.23242301
20	0x3e68d115	0.22736008
21	0x3e9dfd3c	0.30857265
22	0xbf1fe29d	-0.6245516
23	0xbea99881	-0.33124164
24	0xbe935450	-0.28775263
25	0xbec72759	-0.38897207
26	0xbe4fcb81	-0.20292474
27	0xbe8d626c	-0.27614152
28	0x3c2eeacd	0.010676098
29	0x3eb2fdd8	0.34959292
30	0x3e93a903	0.28839883
31	0x3f015490	0.5051966
32	0xbe50497c	-0.20340532
33	0x3d573a76	0.052545987
34	0xbebcf1a2	-0.369031
35	0x3de03041	0.10946704
36	0xbe0b6c73	-0.13615589
37	0xbed727ee	-0.4202265
38	0x3e112e45	0.14177807
39	0x3e922efb	0.28551468
40	0x3f277401	0.6541138
41	0xbe3d4a55	-0.18485387
42	0x3e9efd6a	0.31052715
43	0x3dd45370	0.10367477
44	0x3e80c149	0.25147465
45	0x3f1b59e6	0.6068405
46	0xbed62932	-0.41828305
47	0x3ebe1b86	0.37130374
48	0x3dff7fa0	0.124755144
49	0x3e8ec07d	0.27881232
50	0xbc96f1af	-0.01842579
51	0xbddd85d3	-0.108165406
52	0x3e25ee9b	0.16204302
53	0x3d3b0038	0.045654505
54	0xbda90ac9	-0.0825401
55	0x3db774ab	0.089577995
56	0xbceae823	-0.028675145
57	0x3e965542	0.29361922
58	0xbe8aaced	-0.27085057
59	0x3e5c5fb4	0.21520883
60	0xbd39d740	-0.045371294
61	0x3eb70e56	0.35753125
62	0x3c95560c	0.018229507
63	0x3e8f436a	0.2798112
64	0xbc80f2ca	-0.01574077
65	0x3eca76f7	0.39543888
66	0xbc4fe5e4	-0.012689088
67	0x3e04c16c	0.1296441
68	0xbd633316	-0.05546864
69	0xbefa212e	-0.4885344
70	0xbd928ddc	-0.07155964
71	0xbeb937b5	-0.36175314
72	0xbe0ee149	-0.13953127
73	0x3e8fad5e	0.28061956
74	0x3ddf3888	0.10899454
75	0x3ed0ebcc	0.408049
76	0x3d5f25e6	0.054479502
77	0x3ef5172b	0.47869238
78	0x3e2f3dee	0.17113468
79	0x3d3273cc	0.043567464
80	0x3eee751d	0.46573725
81	0x3edd48ed	0.432197
82	0x3cf3bc45	0.02975286
83	0xbd937d22	-0.072016016
84	0x3e0116a8	0.12606299
85	0xbe5629ea	-0.20914426
86	0xbe2d4b32	-0.16923216
87	0x3f0cf70b	0.5506446
88	0x3e0b9c6b	0.13633887
89	0x3d0b965c	0.03407894
90	0x3e022c95	0.12712319
91	0x3f0e6b63	0.5563261
92	0xbea88dba	-0.3292063
93	0xbe7f44b6	-0.24928555
94	0x3e37fa0b	0.17966478
95	0x3da6205c	0.08111641
96	0x3e9d04ed	0.3066782
97	0xbf031407	-0.51202434
98	0xbe212338	-0.15736091
99	0xbe101391	-0.14069964
100	0x3f174582	0.59090436
101	0xbf2f2e78	-0.6843028
102	0x3ea1ddb9	0.31614473
103	0x3ca03834	0.01955805
104	0x3ecb0535	0.3965241
105	0x3ec13c39	0.3774126
106	0x3ea30eb7	0.31847164
107	0x3f0f81d7	0.56057495
108	0xbe097a4a	-0.13425556
109	0x3d7aed94	0.06126173
110	0xbd7f17c2	-0.062278517
111	0x3ea67e7d	0.32518378
112	0x3ef3e625	0.47636524
113	0x3e0ff032	0.14056471
114	0x3e866c34	0.26254427
115	0x3ea3d990	0.32001925
116	0xbca706be	-0.020388957
117	0xbde9adc0	-0.11410093
118	0xbd8af3d9	-0.067847915
119	0x3ea22aae	0.31673187
120	0x3d357bcf	0.044307526
121	0xbe83992a	-0.25702792
122	0x3ec2577f	0.3795738
123	0xbda2032f	-0.079107635
124	0xbd2bd88e	-0.04195457
125	0x3b09d47b	0.002103119
126	0x3d16f80f	0.03685766
127	0xbe35fff7	-0.17773424
128	0x3da7f885	0.08201698
129	0x3c863990	0.01638487
130	0xbe19f51f	-0.15034913
131	0xbe867618	-0.26261973
132	0x3eb0256b	0.34403548
133	0xbe0b9d91	-0.13634326
134	0xbeb22a5e	-0.3479795
135	0x3ecd75f3	0.4012905
136	0xbed02eaf	-0.40660617
137	0xbc057726	-0.008146083
138	0xbd3ac067	-0.045593645
139	0x3eb00864	0.34381402
140	0x3d05cdc3	0.032666933
141	0x3efcdd0c	0.49387395
142	0x3f680cd3	0.9064457
143	0xbe9befe1	-0.3045645
144	0xbf33b483	-0.70197314
145	0x3d23539e	0.039874665
146	0x3dd2da46	0.102955386
147	0x3ee5a2ed	0.44850865
148	0xbdd72d95	-0.10506741
149	0x3e65b242	0.22431281
150	0x3e274c7c	0.1633777
151	0x3e0299e0	0.12754011
152	0x3ec47d87	0.3837702
153	0x3e8ba99f	0.27277848
154	0x3e81f386	0.25381106
155	0xbe8b1b3b	-0.27169213
156	0xbe8be207	-0.27320883
157	0x3ebede4c	0.37278974
158	0x3e00d34c	0.12580603
159	0x3ed66db5	0.41880575
160	0x3e663b31	0.22483517
161	0x3d9a2e5e	0.07528375
162	0xbee4aa71	-0.44661286
163	0x3e99102c	0.2989515
164	0xbd868e69	-0.06570131
165	0x3cc9d102	0.024635796
166	0xbdd86c88	-0.10567576
167	0x3dcf918d	0.101351835
168	0xbd59484e	-0.05304747
169	0xbec66979	-0.38752344
170	0xbf7cbaf1	-0.9872275
171	0x3ebe7ea2	0.37205988
172	0x3d26a700	0.040686607
173	0x3be13654	0.0068729315
174	0xbc8c6e48	-0.01714243
175	0xbedc31d9	-0.4300678
176	0x3efdbf22	0.49559885
177	0x3ece463d	0.40287963
178	0x3d8870e8	0.0666216
179	0xbedb786b	-0.4286531
180	0x3e23d184	0.15997893
181	0xbed8100c	-0.42199743
182	0x3dd167cf	0.10224878
183	0x3da81e4b	0.08208903
184	0xbe7f8a81	-0.24955179
185	0x3df3f809	0.11912543
186	0xbec24e50	-0.37950373
187	0x3e8e3486	0.27774447
188	0x3e8e5428	0.2779858
189	0x3ef7cfcb	0.4840072
190	0x3e810b99	0.2520416
191	0x3e9a6270	0.30153227
192	0x3ee81346	0.45327204
193	0x3d71a21d	0.058992494
194	0xbb9c06e2	-0.0047615627
195	0x3e9b70b3	0.3035942
196	0x3ee72d14	0.4515158
197	0x3eb7c12b	0.35889563
198	0x3e77dc46	0.24205121
199	0x3ea3f3e3	0.32022008

encoder.trans_linear.bias f4 [40]
0	0x3ea0c283	0.313984
1	0xbd149688	-0.03627637
2	0x3e296e6f	0.16546033
3	0x3dd6a0d8	0.10479897
4	0x3e4860bb	0.1956815
5	0x3dba23e2	0.09088875
6	0xbde88665	-0.11353759
7	0x3e5340c8	0.20630181
8	0xbed799db	-0.4210957
9	0x3e1e50e9	0.15460552
10	0xbed00039	-0.4062517
11	0xbe807224	-0.25087082
12	0x3e9569f2	0.29182392
13	0x3ecc91ac	0.3995489
14	0xbe6fd76b	-0.23422019
15	0x3ec11118	0.37708354
16	0x3d59b85b	0.05315433
17	0x3ee5db7c	0.44894016
18	0xbe9aed1b	-0.30259022
19	0xbd541d0e	-0.05178552
20	0xbeb4d623	-0.35319623
21	0xbeb631bf	-0.35584828
22	0x3ece1d36	0.4025666
23	0x3d94c085	0.07263283
24	0xbed51543	-0.41617784
25	0x3df94bad	0.12172637
26	0xbcddc6db	-0.02707236
27	0x3ee08c83	0.43857202
28	0x3dda7eb4	0.10668698
29	0x3dc8d254	0.09805742
30	0xbd632c9f	-0.055462476
31	0x3ec3d5ac	0.38248956
32	0x3e0d5d50	0.13805127
33	0x3e5e4c21	0.21708728
34	0x3e1f4acc	0.15555876
35	0xbd8e71c9	-0.069552965
36	0x3e25f8b6	0.16208157
37	0x3ec2d622	0.38053995
38	0x3dabed96	0.08394925
39	0x3d07c8c7	0.03315046

encoder.conv_mu.bias f4 [20]
0	0xbca7a017	-0.020462079
1	0xbe3cd1b1	-0.18439366
2	0xbdba0034	-0.0908207
3	0xbd978321	-0.07398058
4	0x3e2cba3e	0.16867921
5	0x3c3dd389	0.011586078
6	0x3d06219d	0.0327469
7	0x3e4b8fba	0.19879046
8	0xbe9366c1	-0.28789333
9	0x3d6d939b	0.058002096
10	0x3e261df8	0.1622237
11	0x3b9e664e	0.004833973
12	0xbc50a8cb	-0.012735556
13	0xbddac806	-0.10682683
14	0x3e2552f1	0.16144921
15	0x3e1a5f74	0.15075475
16	0xbe368616	-0.17824587
17	0xbd8f5c21	-0.06999994
18	0xbe8e90ab	-0.27844748
19	0x3e7355e8	0.2376324

encoder.conv_mu.lin.weight f4 [20, 20]
0	0x3e1d802e	0.15380928
1	0x3e65f4d7	0.2245668
2	0x3e26a95f	0.16275547
3	0x3e07d746	0.13265714
4	0x3ec4e94d	0.38459244
5	0x3e5e2c81	0.21696664
6	0x3eb04223	0.34425458
7	0xbdc2dec1	-0.09515143
8	0xbe253d65	-0.16136701
9	0xbeed1b8c	-0.4631008
10	0xbe84666b	-0.2585939
11	0x3e3a2666	0.1817871
12	0xbe890ce4	-0.26767647
13	0x3e880362	0.2656508
14	0x3e512a36	0.20426258
15	0x3ef21084	0.47278225
16	0x3e15c333	0.14625244
17	0xbebe97fc	-0.3722533
18	0xbe870486	-0.2637064
19	0xbe19a73b	-0.150052
20	0xbe55b46e	-0.2086961
21	0xbe1906dc	-0.14944023
22	0x3f05b3e9	0.52227646
23	0xbef88b8c	-0.48543966
24	0x3e05b179	0.13055982
25	0x3dfe6ab3	0.12422695
26	0xbe4f7b09	-0.20261778
27	0x3e100a50	0.14066434
28	0x3de731cd	0.112887956
29	0xbf00dd82	-0.50337994
30	0x3dfa23c8	0.12213856
31	0xbe896864	-0.26837456
32	0x3b9051d7	0.0044042873
33	0x3e82e95e	0.2556867
34	0xbd9199e4	-0.071094304
35	0x3d877464	0.066139966
36	0xbea1b2d9	-0.31581762
37	0x3b2a64fe	0.0026000137
38	0x3e82cf6e	0.2554888
39	0x3ebc8448	0.36819673
40	0x3e882698	0.26591945
41	0xbe38e840	-0.18057346
42	0x3d02a4b8	0.03189537
43	0xbe7d72c0	-0.24750805
44	0x3e3a4ff2	0.18194559
45	0x3e9b6554	0.30350745
46	0x3ede04ee	0.43363136
47	0xbeb3a1d6	-0.3508441
48	0xbe9d0c19	-0.30673292
49	0xbd98766e	-0.07444464
50	0xbda42872	-0.08015527
51	0x3e80bb89	0.25143078
52	0x3db5ad76	0.08870976
53	0xbb6c35ac	-0.0036042733
54	0x3d8826f3	0.06648054
55	0x3d8771f1	0.066135295
56	0xbdbfeffc	-0.09371945
57	0xbde2a924	-0.11067417
58	0xbd2ebe78	-0.042662114
59	0x3d9d918c	0.076937765
60	0xbe3296e8	-0.17440379
61	0xbed0e100	-0.4079666
62	0xbd9d8edf	-0.07693266
63	0x3dcde931	0.10054243
64	0x3e599f3b	0.21252148
65	0x3e10f25b	0.14154951
66	0xbed7c7f8	-0.42144752
67	0x3e16b34d	0.14716835
68	0x3e60b9d2	0.21945885
69	0xbe511d0e	-0.2042124
70	0x3ecfe50e	0.40604442
71	0x3e00bae2	0.1257129
72	0x3bab9c3c	0.0052371304
73	0x3e0b5c7a	0.13609496
74	0x3eccff9d	0.40038767
75	0xbea76079	-0.3269079
76	0xbe5c5d0d	-0.21519871
77	0xbf2454e1	-0.64192015
78	0x3f11fe75	0.57028896
79	0x3e8e1099	0.27747038
80	0xbdef7572	-0.11692323
81	0x3e58bd75	0.21166022
82	0xbe77a51c	-0.24184078
83	0x3dd8114f	0.10550176
84	0x3e43a8f9	0.19107427
85	0xbd0bf2e2	-0.034167178
86	0x3e73f36e	0.2382333
87	0xbdd253f6	-0.102699205
88	0x3d0573ef	0.032581266
89	0x3db4f131	0.08835066
90	0xbd076937	-0.033059325
91	0x3e3d912b	0.18512408
92	0xbe473a44	-0.1945582
93	0x3ec63636	0.38713235
94	0xbf1a0598	-0.60164785
95	0xbe8521d3	-0.26002368
96	0xbe8c71b5	-0.27430502
97	0x3db53318	0.08847636
98	0xbdc0c28f	-0.09412109
99	0xbe97b3ed	-0.2962946
100	0xbea6aa68	-0.32551885
101	0xbe88e3e0	-0.26736355
102	0x3db46b8f	0.08809578
103	0x3eda1f1d	0.42601863
104	0xbf800ae4	-1.0003324
105	0x3eb1d1e0	0.34730434
106	0x3e602f8f	0.21893142
107	0x3d667c94	0.05627115
108	0x3e167597	0.14693294
109	0xbecdf572	-0.40226322
110	0xbeb0a4d8	-0.34500766
111	0x3ee6b36e	0.4505877
112	0x3e7c1250	0.2461636
113	0x3e243819	0.16037025
114	0xbeb433d5	-0.35195795
115	0xbe8e80f1	-0.2783275
116	0x3cf46cb8	0.029836997
117	0xbecc478f	-0.39898345
118	0x3c8c27a2	0.017108742
119	0x3e80068c	0.25004995
120	0xbe3ea2a9	-0.18616737
121	0x3ea44e1c	0.32090843
122	0xbc0d7cc5	-0.008635704
123	0xbdcc449f	-0.09974026
124	0xbdfa02d7	-0.12207573
125	0xbead23e3	-0.33816442
126	0x3ec92ccf	0.39292
127	0x3e9e9539	0.30973223
128	0x3ec1eb6e	0.3787493
129	0xbe110d90	-0.1416533
130	0xbdb52688	-0.0884524
131	0x3e6502e5	0.22364385
132	0xbd42f8d0	-0.047600567
133	0x3d1666ca	0.03671912
134	0xbd77107d	-0.06031846
135	0x3e3f7599	0.18697204
136	0xbec614f4	-0.3868786
137	0xbd31e14a	-0.043427743
138	0xbef7ea4c	-0.48420942
139	0x3d58b8c3	0.052910578
140	0x3daca638	0.08430141
141	0x3e5ecf1f	0.21758698
142	0xbf14b7ee	-0.58093154
143	0xbdd2042c	-0.10254702
144	0x3a916934	0.0011093975
145	0x3ee37cfc	0.44431293
146	0x3ebfe551	0.37479642
147	0x3cae0cb9	0.021246301
148	0x3ec6289b	0.38702855
149	0x3ed98472	0.4248386
150	0x3e2a397f	0.16623496
151	0x3d75bd0b	0.05999474
152	0xbdd8e8aa	-0.10591252
153	0xbed2100f	-0.41027877
154	0xbe24193f	-0.16025256
155	0x3ddeb8e1	0.108751066
156	0x3f003086	0.5007404
157	0x3e8e9acf	0.27852485
158	0xbf26ad52	-0.65108216
159	0xbe1de352	-0.15418747
160	0x3e99ec66	0.3006317
161	0xbf10ea35	-0.5660737
162	0x3e95258d	0.2913021
163	0xbda383a2	-0.07984091
164	0xbf2e0de0	-0.6798992
165	0xbee9bca3	-0.4565173
166	0xbf2ff68f	-0.68735594
167	0x3eb44bee	0.3521418
168	0x3ea48e49	0.32139805
169	0xbd494a9b	-0.049143415
170	0x3dfdf92c	0.124010414
171	0xbf1f93a6	-0.6233467
172	0xbe079abb	-0.13242619
173	0xbc9926c8	-0.01869525
174	0xbd900a6c	-0.07033238
175	0xbdffbf26	-0.124876305
176	0x3ea19eca	0.3156646
177	0xbe0f04cd	-0.13966675
178	0x3f3e8498	0.7442107
179	0xbe6243ff	-0.22096251
180	0xbd5983d9	-0.053104255
181	0x3df72557	0.12067669
182	0x3d1675e7	0.036733534
183	0xbe2d0fa9	-0.16900505
184	0x3ecc8701	0.3994675
185	0xbdb9f79d	-0.090804316
186	0x3e2ebd07	0.17064296
187	0x3da0cc9b	0.078515254
188	0xbecc1e9b	-0.398671
189	0x3e95de3b	0.2927111
190	0xbe07f60e	-0.13277456
191	0x3c2e137b	0.010624762
192	0xbe958a42	-0.29207045
193	0x3d4812b0	0.048845947
194	0xbdcf034a	-0.10108049
195	0xbed72402	-0.4201966
196	0x3e8f3182	0.2796746
197	0x3f61d15e	0.88210094
198	0xbece6f0e	-0.40319103
199	0xbcfaac3e	-0.03059971
200	0x3e954d5e	0.2916059
201	0x3f022b6f	0.50847524
202	0xbec5d002	-0.3863526
203	0xbd560e8b	-0.052259963
204	0xbef33ecf	-0.47508857
205	0xbef9b23c	-0.48768795
206	0x3e727004	0.23675543
207	0xbe6005d9	-0.2187723
208	0xbd0a0777	-0.033698525
209	0x3ea6f5d1	0.32609418
210	0xbecfbfba	-0.40575963
211	0x3e17ebba	0.14836016
212	0xbe3400ec	-0.17578477
213	0xbeb5e6e8	-0.3552773
214	0x3f088d03	0.53340167
215	0xbe214d08	-0.15752041
216	0xbe380882	-0.17971995
217	0x3edda031	0.4328628
218	0xbee2ebe1	-0.44320586
219	0x3db54935	0.08851854
220	0x3e543717	0.2072414
221	0xbe24e91d	-0.1610455
222	0x3e84d050	0.2594018
223	0x3dcfc334	0.10144654
224	0xbdad90e0	-0.08474898
225	0x3db3c1e8	0.08777219
226	0x3e35ba3f	0.17746828
227	0xbe013ec2	-0.12621596
228	0xbe767196	-0.24066767
229	0xbe0b8526	-0.13625011
230	0x3ea29bf9	0.31759623
231	0x3e877f00	0.2646408
232	0x3d074edc	0.03303419
233	0xbe721a7a	-0.23642913
234	0x3e4b88d8	0.1987642
235	0x3e186c1f	0.14884995
236	0xbe851fcd	-0.26000825
237	0x3e2bd61a	0.16780892
238	0x3bf55fec	0.0074882414
239	0xbdefc804	-0.11708072
240	0xbe40109e	-0.18756339
241	0xbea373ed	-0.31924382
242	0xbd8ae576	-0.067820475
243	0xbde09fa6	-0.109679505
244	0x3e5dd2b4	0.21662408
245	0xbeee26c8	-0.46513963
246	0xbe9aa472	-0.30203587
247	0x3e63ca62	0.22245172
248	0x3ef40611	0.47660878
249	0x3dbdcf20	0.092680216
250	0xbcc8a4d6	-0.024492662
251	0x3eacfb27	0.33785364
252	0xbea1e532	-0.31620175
253	0x3e0626a6	0.1310068
254	0xbe89ca43	-0.26912126
255	0x3e853bf8	0.26022315

encoder.conv_logstd.bias f4 [20]
0	0xbe9e4c24	-0.30917466
1	0xbed96027	-0.4245617
2	0xbec07280	-0.37587357
3	0xbe6a8644	-0.22902781
4	0xbeb57573	-0.3544117
5	0xbeec9f70	-0.4621539
6	0xbec1a055	-0.37817636
7	0xbef23ef9	-0.4731367
8	0xbeefd87e	-0.46844858
9	0xbea3e773	-0.3201252
10	0xbf057634	-0.5213349
11	0xbe642482	-0.22279552
12	0xbe926896	-0.28595418
13	0xbea408ee	-0.32038063
14	0xbede5ac2	-0.43428618
15	0xbecce77f	-0.40020368
16	0xbf00b9ad	-0.5028332
17	0xbefed77a	-0.4977377
18	0xbf02cb9d	-0.5109194
19	0xbe8e3523	-0.27774915

encoder.conv_logstd.lin.weight f4 [20, 20]
0	0xbe844d84	-0.2584039
1	0xbe0e4514	-0.13893539
2	0x3dec2551	0.11530555
3	0xbe40b0e8	-0.18817484
4	0x3e02b537	0.1276444
5	0x3e4977c1	0.19674589
6	0x3e356952	0.17715958
7	0xbe89aef6	-0.26891297
8	0xbe40712d	-0.18793173
9	0x3d8d12c3	0.06888344
10	0xbdd277a3	-0.10276725
11	0x3ccbf8bc	0.02489888
12	0xbecb90ce	-0.39758915
13	0xbcbe553d	-0.023234004
14	0xbe1f2087	-0.15539752
15	0xbe075ac4	-0.13218218
16	0xbe42d1ef	-0.19025396
17	0xbe1387e7	-0.14407311
18	0x3d31c3dd	0.04339968
19	0xbea66933	-0.32502136
20	0xbe4fcbfb	-0.20292656
21	0xbd096f5b	-0.033553462
22	0x3db9b1c0	0.09067106
23	0xbe466181	-0.19373132
24	0x3e3c9dc9	0.18419565
25	0xbeff0ad5	-0.49812952
26	0xbe4103bc	-0.18849081
27	0xbe6fa597	-0.23403011
28	0xbe8f4256	-0.27980298
29	0xbea60939	-0.3242891
30	0xbe10dee2	-0.14147523
31	0x3d598cf6	0.053112946
32	0x3e3e969b	0.18612139
33	0xbe01855e	-0.12648532
34	0xbe9d231f	-0.30690858
35	0xbe54afe0	-0.20770216
36	0xbe12f1e8	-0.14350092
37	0xbd83bbc9	-0.064323016
38	0x3e0778a3	0.13229613
39	0xbeeec2ba	-0.4663294
40	0xbef555e7	-0.479171
41	0xbe10dee6	-0.14147529
42	0xbe5b3ad2	-0.21409157
43	0xbe3abdea	-0.18236509
44	0x3e356c85	0.17717178
45	0xbe948190	-0.29005098
46	0xbe1e4194	-0.15454704
47	0xbe734842	-0.23758033
48	0xbe698c5c	-0.22807449
49	0xbdfebecf	-0.124387376
50	0xbdf17c04	-0.11791232
51	0x3da17548	0.07883698
52	0x3e16ec83	0.1473866
53	0x3deebabf	0.11656713
54	0xbe143d34	-0.14476472
55	0xbdcc1aae	-0.09966026
56	0x3df0bd8d	0.11754904
57	0xbe73c3af	-0.23805116
58	0x3e410f12	0.18853405
59	0xbd3b8d98	-0.04578933
60	0xbf144856	-0.57922876
61	0xbe17b7ef	-0.14816259
62	0xbe3da07b	-0.1851825
63	0xbe4f9e3a	-0.20275202
64	0x3e91f14f	0.28504416
65	0xbe005337	-0.12531744
66	0xbd917f58	-0.07104367
67	0xbea9b416	-0.33145207
68	0xbe956f12	-0.29186302
69	0x3d546aa0	0.051859498
70	0xbe8796b5	-0.26482168
71	0x3c2a43ce	0.010392142
72	0xbdedbeb2	-0.11608638
73	0x3db3bfb9	0.087768026
74	0xbe2a4562	-0.1662803
75	0x3e5f610d	0.21814366
76	0x3e401891	0.18759371
77	0xbea32c6a	-0.31869823
78	0x3e12c6e0	0.14333677
79	0xbb900bec	-0.0043959524
80	0xbe8535d8	-0.26017642
81	0xbeb7a63b	-0.3586901
82	0xbe551816	-0.2080997
83	0xbeb2495c	-0.34821594
84	0x3e0733c9	0.13203348
85	0xbe595e57	-0.21227394
86	0x3e5176df	0.20455502
87	0xbe205659	-0.15657939
88	0xbe20b97b	-0.15695755
89	0x3af3c487	0.0018597998
90	0xbe324c68	-0.17411959
91	0xbdc52f6a	-0.09628184
92	0x3d306ed2	0.043074436
93	0xbdad315b	-0.084566794
94	0x3c80dc45	0.015730033
95	0x3e8f5bbc	0.27999675
96	0xbd36168a	-0.04445509
97	0xbeb11993	-0.34589824
98	0x3e5283c5	0.20558079
99	0xbedb013f	-0.42774388
100	0xbe43a538	-0.19105995
101	0xbe7b55d7	-0.24544464
102	0xbee5745e	-0.44815344
103	0xbe8d5ac7	-0.2760832
104	0x3e85627d	0.26051703
105	0xbed6112f	-0.41809985
106	0xbea69427	-0.32534906
107	0xbdb4769f	-0.08811688
108	0xbe408a67	-0.18802796
109	0xbe5cd7f1	-0.2156675
110	0xbdeefcfe	-0.11669348
111	0x3e06ae6f	0.13152479
112	0x3dcdba49	0.10045297
113	0x3de77c86	0.11303048
114	0xbeca05f9	-0.39457682
115	0xbdd934cc	-0.10605773
116	0xbde3bc47	-0.111198954
117	0x3cce44c3	0.025179273
118	0x3ea3bb13	0.31978664
119	0xbe6e9fa5	-0.23303087
120	0xbe57ec3e	-0.21086213
121	0x3c984a9b	0.018590262
122	0x3e912fa3	0.28356656
123	0xbe4c6ca5	-0.1996332
124	0x3e0153de	0.12629649
125	0xbe9ddafd	-0.30831137
126	0x3d6b8e30	0.057508647
127	0xbe3c2237	-0.18372427
128	0xbe82f6ac	-0.2557882
129	0xbe1c045f	-0.15236042
130	0xbe2c28b5	-0.16812404
131	0x3bfbc53b	0.007683424
132	0x3d37c189	0.044862304
133	0xbe46cb14	-0.19413406
134	0xbe188dcf	-0.14897846
135	0x3df1f7e2	0.11814858
136	0xbd8d37bf	-0.06895398
137	0x3cae0108	0.021240726
138	0xbd36b76f	-0.04460853
139	0xbedd0e6b	-0.43175063
140	0xbf029790	-0.51012516
141	0xbe5b5a3a	-0.21421137
142	0x3e549c51	0.20762755
143	0xbcbbe064	-0.022934146
144	0xbe22623d	-0.15857787
145	0x3d87e402	0.06635286
146	0xbe9383ab	-0.28811392
147	0xbe74a75c	-0.23891968
148	0xbddcd6f6	-0.10783188
149	0xbd2b48eb	-0.041817587
150	0xbdcdcb44	-0.100485355
151	0xbddb2aa1	-0.1070149
152	0xbe8112ae	-0.25209564
153	0xbe30ac46	-0.17253217
154	0xbe14ddd7	-0.1453775
155	0xbcd63626	-0.026148867
156	0xbe4c3ba2	-0.19944623
157	0xbefe624f	-0.49684379
158	0x3eb89470	0.3605075
159	0xbe4f8c3c	-0.20268339
160	0xbebcf6b2	-0.36906964
161	0x3d99f08c	0.07516584
162	0xbebcbf67	-0.36864778
163	0xbde70fe9	-0.112823315
164	0xbddf8e0b	-0.109157644
165	0x3e03cd29	0.12871231
166	0x3d503d29	0.050839577
167	0xbe525aa8	-0.20542395
168	0xbe2febd8	-0.17179811
169	0xbd94ef6d	-0.07272229
170	0xbe06061a	-0.13088265
171	0xbcc63f6f	-0.02420017
172	0x3e0c1d17	0.13682972
173	0x3e1eeddb	0.15520422
174	0xbe2aec12	-0.16691616
175	0xbd91930d	-0.07108126
176	0xbe639643	-0.22225289
177	0xbd92efb0	-0.07174623
178	0xbdc85558	-0.09781903
179	0xbf00f187	-0.5036854
180	0xbe46e65d	-0.19423814
181	0xbde7953d	-0.11307762
182	0x3db5322e	0.08847462
183	0xbe48f605	-0.19625099
184	0xbd581e53	-0.052763294
185	0x3e52b8b8	0.20578277
186	0x3e1a9e82	0.15099528
187	0xbe3711a3	-0.17877822
188	0xbdcc0c93	-0.09963336
189	0xbd8f805a	-0.07006903
190	0xbe0d8ffc	-0.13824457
191	0x3e27f381	0.16401483
192	0x3d1edbee	0.03878396
193	0xbdd45b57	-0.10368984
194	0xbe19f31b	-0.15034144
195	0x3e2a9dc5	0.16661747
196	0xbe7d2225	-0.24720056
197	0xbd83a2ab	-0.06427511
198	0x3cc8487e	0.02444863
199	0xbf1a30bf	-0.6023063
200	0xbe92dca8	-0.28683972
201	0xbee9b973	-0.456493
202	0xbea4d29d	-0.32191935
203	0xbebc7b1e	-0.3681268
204	0x3e008580	0.12550926
205	0xbe93c179	-0.28858545
206	0xbde75a3f	-0.1129651
207	0xbe670df0	-0.2256391
208	0xbe562bed	-0.20915194
209	0x3d41cf0d	0.0473166
210	0xbe0c3ef6	-0.13695893
211	0xbd8222d3	-0.063542984
212	0xbe4756d7	-0.1946672
213	0x3ccbe700	0.024890423
214	0xbedfec24	-0.43734848
215	0xbd373bfb	-0.044734936
216	0xbe497f32	-0.19677427
217	0xbe441b88	-0.19151127
218	0x3eac3e00	0.33641052
219	0xbe58f43d	-0.2118692
220	0xbec4efd0	-0.38464212
221	0xbcdf6917	-0.02727179
222	0x3e39057e	0.18068501
223	0xbe97547b	-0.2955664
224	0x3d9f5943	0.07780697
225	0xbe095335	-0.13410647
226	0x3e71fe79	0.2363223
227	0xbe6b5e0e	-0.22985098
228	0xbe40f48e	-0.1884329
229	0x3cbfd159	0.023415254
230	0xbe62b366	-0.22138748
231	0x3e36ec8f	0.17863677
232	0x3e828923	0.25495252
233	0xbe4a0fb4	-0.19732553
234	0xbd9155c3	-0.07096436
235	0x3e9d70a4	0.3075
236	0x3b72aefd	0.003703057
237	0xbdde877e	-0.10865687
238	0xbdb7a18f	-0.08966362
239	0xbf05a434	-0.5220368
240	0xbf0b5183	-0.5442125
241	0x3e1e5383	0.15461545
242	0x3d7896ba	0.06069062
243	0x3dc353eb	0.095374905
244	0x3e7c4e6e	0.24639294
245	0x3dbd524d	0.09244213
246	0xbe87f380	-0.26552963
247	0xbe9b2552	-0.3030191
248	0xbe8fdc40	-0.28097725
249	0xbdd7ca38	-0.10536617
250	0xbe1eda7e	-0.15513036
251	0xbd0e76ef	-0.034781393
252	0x3ba86140	0.005138546
253	0xbd033139	-0.032029364
254	0xbc6d02b9	-0.014465981
255	0xbe49a9b6	-0.19693646
