results/model_GCN/graph_split_/layers_4/transform_True/alpha_0.0/model.pt (torch, 36694 bytes, 15 tensors)

encoder.conv.convs.0.bias f4 [40]
000000 17 4b a0 3d b2 05 61 bd b4 58 24 bd 6a 1d 0a bd
       0.07826822 -0.054937072 -0.040123656 -0.033719458
000010 4c b2 34 bd 7b 18 b8 3b d1 a5 fe 3c 98 95 58 3c
       -0.04411535 0.0056181527 0.031084927 0.01321926
000020 43 3c 00 bd f0 c4 70 bb 88 24 ee bc 7b e7 80 bd
       -0.03130747 -0.0036738478 -0.029070154 -0.062941514
000030 5c d3 39 bd 83 e9 77 3d 01 29 c1 3c 94 a3 07 bc
       -0.045367584 0.06052543 0.023579122 -0.008278746
000040 84 a4 55 3d 0a ab 37 bd ab 0e eb b8 7a 51 8e bd
       0.052158847 -0.04484085 -0.00011208405 -0.06949134
000050 bb 00 34 3c c4 88 b1 3c 38 c8 16 3c c8 a5 96 3b
       0.010986502 0.02167166 0.009203009 0.0045973994
000060 71 d7 b8 bc 46 b3 e2 3b 19 3f 93 3c 62 e1 e5 3a
       -0.022563668 0.0069183437 0.017974423 0.0017538483
000070 01 ea aa 3c 45 ed 18 bd 1b 6a 45 bc 4d 5d ac 3d
       0.020863535 -0.037335653 -0.012049223 0.08416233
000080 d1 fc 61 3d 24 e7 85 bd 89 9b a3 bd 7a 48 71 3d
       0.055172745 -0.06538227 -0.0798865 0.05890701
000090 98 58 e8 3d 1e 31 00 bd 6a 96 2c 3c 88 fa 7e 3d
       0.11345023 -0.03129684 0.010533908 0.062250644

encoder.conv.convs.0.lin.weight f4 [40, 40]
000000 c5 c4 53 bd 5d 08 a0 be 0f 4e 21 be 42 f5 11 3e
       -0.051701326 -0.3125638 -0.15752433 0.14253715
000010 3b 00 09 3b 3c 68 95 be 64 8e f9 bd 2c 2b f4 bd
       0.0020904678 -0.29181087 -0.12185362 -0.11922297
000020 3f b8 cc 3e 4f 28 9b 3e 72 b0 d5 bc 50 0c 13 b9
       0.3998432 0.3030419 -0.026085112 -0.00014023599
000030 4f b0 32 3e 32 2b 60 be 0f c0 9a 3e ad 98 21 bd
       0.17450069 -0.21891478 0.30224654 -0.039452244
000040 47 aa ea 3d bc 1e e4 be 8f 4f 17 3f 58 a9 d0 be
       0.11458259 -0.44554698 0.5910577 -0.407542
000050 c8 07 70 bd ab bc 01 bd ad 52 24 3f 14 c5 bf 3d
       -0.05860117 -0.03167407 0.64188653 0.093637615
000060 c1 96 3f be 6e b8 d3 bc f0 56 03 3e 89 88 92 be
       -0.18709852 -0.025844779 0.12826133 -0.28619793
000070 88 89 fb be d8 65 2c 3e 62 3e 81 3f ef 6d 51 3e
       -0.49128366 0.16835725 1.0097163 0.20452093
000080 b0 b6 03 bf 66 2d c5 3c 28 f4 96 3d cd b6 64 3e
       -0.51450634 0.0240695 0.07370788 0.22335358
000090 0f 9b 77 3e 51 64 71 3e 44 51 64 be 83 03 b8 3e
       0.24180244 0.23573424 -0.22296625 0.3594018
0000a0 a7 8d c7 bd 5e c4 71 3e 43 82 6b be c8 1a cf 3c
       -0.09743815 0.23610064 -0.2299891 0.025281325
0000b0 f7 51 10 bf 5d 57 ee bc f0 86 c1 3d 31 b4 33 be
       -0.5637507 -0.029094392 0.094495654 -0.17549206
0000c0 39 e4 30 3e c8 ba 24 bd ce cd f2 3c 24 ea dc 3e
       0.1727456 -0.04021719 0.029639151 0.43147385
0000d0 4c 37 33 3d 3a b7 96 be 27 61 01 3e 75 1f cd 3d
       0.043753907 -0.29436666 0.12634717 0.100157656
0000e0 d2 73 4b 3d f9 d5 2e 3e db 79 5c 3e d3 96 50 3e
       0.049671 0.17073812 0.21530859 0.20370035
0000f0 cd 8c 8c be c5 fc f6 bd 91 4a 83 be c2 72 be 3d
       -0.27451172 -0.12059931 -0.25642827 0.09299232
000100 d2 86 50 be 8d 4a 0f 3e 9e 42 d9 3d 9f cf 18 3e
       -0.2036393 0.13993283 0.10608409 0.14922951
000110 13 dc 6f bd 1c 0d 56 3e e9 48 54 be c2 53 06 3d
       -0.05855949 0.20903438 -0.20730938 0.03279472
000120 fb 5b 1d bb bd ee 60 3e 5a bd 28 3e 05 27 7e be
       -0.0024011123 0.21966071 0.16478482 -0.24819572
000130 8b c5 b1 3b 28 4c 5b be ab 1f cc bd 24 9b 18 3a
       0.0054251603 -0.2141577 -0.09966978 0.00058214576
000140 95 33 16 be 06 41 60 be d6 47 0e be de cb 4d 3d
       -0.14668114 -0.21899804 -0.1389459 0.05024325
000150 31 85 8e 3d 3e 1f 5f bd 66 92 c4 bd 55 39 cf bd
       0.06958998 -0.054473154 -0.09598236 -0.10118357
000160 00 0b 84 3e 9e dc 10 be f4 10 87 be 55 d4 60 be
       0.25789642 -0.14146659 -0.26380122 -0.21955998
000170 a6 1c ef be 7a 59 0d 3e e8 eb 3d 3e 7f 36 b8 bd
       -0.46701545 0.13803664 0.18547022 -0.08994769
000180 00 93 43 3e 7e 8a 9d be 94 6c 60 3e 82 98 de 3d
       0.19099045 -0.30769724 0.2191642 0.10868932
000190 b3 3e 70 3d a0 5f 20 3d 43 62 c5 3d 71 69 18 3e
       0.058653545 0.039153695 0.096378826 0.14883973
0001a0 1a 79 b5 bd d7 7c 20 be ed bd 72 be 1e 44 b0 bc
       -0.08860989 -0.15672623 -0.23705263 -0.021516856
0001b0 cf 9e 0a bf 79 3c 32 3f 25 0e 8d bb 68 0c 6a be
       -0.5414857 0.69623524 -0.0043046647 -0.22856295
0001c0 f2 09 9a 3d 87 8f 95 3e 14 93 0b 3e fe 80 90 3e
       0.07521428 0.29211065 0.13630325 0.28223413
0001d0 25 10 23 be a9 68 05 be d9 85 9e 3e e9 4a 95 be
       -0.15924127 -0.13028206 0.30961493 -0.29158714
0001e0 14 cb 91 bd 6e 53 c8 bd e9 70 0a bd 84 7a da bd
       -0.07118812 -0.09781538 -0.033799086 -0.10667899
0001f0 d9 89 61 3e 9c e9 c4 3e 5f 28 bb 3d 86 f8 5a be
       0.22025241 0.3845948 0.091385596 -0.21383867
000200 50 1e a7 be 1b 45 58 be 65 c9 83 be fc fc 38 be
       -0.32640314 -0.21120112 -0.2573959 -0.18065256
000210 80 e5 53 be b1 79 83 3e d9 a2 82 be 32 d6 56 be
       -0.20693016 0.2567878 -0.25514868 -0.20980147
000220 45 b6 0b be ec 36 15 be b5 e4 90 3d ce 94 66 be
       -0.13643749 -0.14571732 0.070748724 -0.22517702
000230 31 3d 90 3e 07 f3 be be d9 f9 71 3e ef 82 2a be
       0.28171685 -0.3729479 0.23630466 -0.1665151
000240 af 7e 9c 3d 8c 45 2d 3e ad e2 68 bd 4b 9d 86 3e
       0.076413505 0.16921061 -0.0568568 0.2629188
000250 89 64 85 be 14 78 24 3f 44 00 e5 3e 4c 57 2e 3e
       -0.26053265 0.64245725 0.44726765 0.17025489
000260 3a e7 56 be da 7c 3f bd d8 74 74 bd a9 8c 95 3e
       -0.20986643 -0.046749927 -0.059681743 0.29208878
000270 aa 13 e6 be c0 de e1 bd c2 d7 19 3e f5 f1 d2 be
       -0.44936877 -0.11028814 0.15023711 -0.41200224
000280 7a ce d5 bd 39 02 44 3c 02 85 53 3e f5 ab 12 3e
       -0.10439773 0.011963421 0.20656207 0.14323409
000290 55 2a 0e be b3 c7 46 3e 8e 71 bc 3d 74 c7 8e 3a
       -0.13883336 0.19412117 0.09201346 0.0010893182
0002a0 94 f7 e1 bd 3c dd 20 be 74 b0 1c be 3e 19 9b 3e
       -0.1103355 -0.15709394 -0.15301687 0.30292696
0002b0 55 14 94 3d 78 c2 22 3e 36 b2 52 bb 57 89 f2 3d
       0.072304405 0.15894496 -0.003214968 0.11842602
0002c0 69 f1 89 bd d7 58 7c be 4e 0e 46 be e3 43 68 3e
       -0.067354985 -0.24643265 -0.19341394 0.22682147
0002d0 2a 76 97 bd 6c d0 8f be 9b 72 1a 3d 6f da 38 be
       -0.07395585 -0.280887 0.037706953 -0.18052076
0002e0 4f a8 1f 3c f5 21 e5 3d 63 50 31 3d 5c 62 30 3e
       0.009744718 0.111881174 0.043289553 0.17225021
0002f0 3e 32 7c be 81 bc b9 3e 9d 02 93 3e 4b 70 07 3d
       -0.24628541 0.3627663 0.2871293 0.033066075
000300 47 97 51 3e 3d c5 8d be 86 1a 16 3e 48 72 08 be
       0.20467864 -0.27689543 0.14658555 -0.13324845
000310 b2 68 ae 3d a0 95 74 be 46 f9 36 3e 9f fb ee 3d
       0.08516063 -0.23885202 0.17868528 0.11669087
000320 0a 13 2f 3e 9d b1 a0 be 61 db 2f 3e 21 75 89 3e
       0.17097107 -0.31385508 0.1717353 0.26847175
000330 12 08 0f be e6 3f f8 3d 03 bc 2f bd 6b 50 1c 3e
       -0.13967922 0.12121563 -0.04290391 0.15265052
000340 91 51 03 be f4 e7 41 be 4a d3 9a 3e ac ef a6 3d
       -0.12824084 -0.1893614 0.30239326 0.081511825
000350 f1 f3 2a 3e 18 35 1a bd 46 07 24 3e 94 3c 0d be
       0.16694619 -0.03764829 0.160184 -0.1379264
000360 99 ba 7b 3e fa fa 5c 3e a7 7a 8f be 25 1d 9a be
       0.245829 0.21580115 -0.28023264 -0.3010036
000370 60 07 96 3e 61 64 90 3e a3 c8 5f be 1a 53 98 3e
       0.29302502 0.28201583 -0.2185388 0.297509
000380 f1 eb 8b 3e a5 ec 31 be 57 a8 a9 3d 08 31 50 be
       0.27328447 -0.17375429 0.082840614 -0.20331204
000390 d0 ce 3c 3e f0 e0 12 bf 2e 40 85 be b5 c3 af 3d
       0.18438268 -0.5737448 -0.26025528 0.0858225
0003a0 b7 9e 32 be 6f ad 6e be c7 31 27 3e c9 86 09 3e
       -0.17443357 -0.23308347 0.16327582 0.13430323
0003b0 54 0e 1a be e3 22 f1 bd b9 2d f7 3e fe dc 5f 3e
       -0.15044528 -0.11774232 0.4827707 0.21861646
0003c0 f4 fe ba bd 94 68 d0 3d 9c 21 09 3e 1f 7c 32 be
       -0.0913066 0.10176197 0.13391727 -0.17430161
0003d0 2f 3e 1c be 47 62 61 be 50 2f 91 3c a9 6d 9f bd
       -0.15258096 -0.22010146 0.017722756 -0.07784588
0003e0 a3 62 0a 3e 86 c7 77 3e 23 ac 5c 3e 00 2d 4c be
       0.1351419 0.24197206 0.2155004 -0.19939041
0003f0 df 99 0c 3f 8e 5c 6c be fe dc 4d 3e e1 80 b5 bd
       0.5492229 -0.23082182 0.20103833 -0.08862472

encoder.conv.convs.1.bias f4 [40]
000000 be 9b 3b 3c 52 a3 f4 bb 31 b6 1d bd 75 e1 74 bc
       0.011450706 -0.0074657584 -0.03850383 -0.014946331
000010 15 b4 d2 3b 29 89 e0 3c 14 85 36 3c 10 37 17 3d
       0.006430159 0.027409153 0.011140127 0.036917746
000020 ef 29 62 3c a6 1d 69 3c 7e 6a 2a bc b3 ce c9 bd
       0.013803943 0.01422826 -0.010401366 -0.09853878
000030 7a 71 00 bd 95 42 f5 3c 2d 5a ab 3c 17 8a 29 bd
       -0.03135822 0.029938975 0.020917023 -0.04139146
000040 49 60 64 bc e7 5f a8 3d 56 f3 a9 3b a3 83 bf bc
       -0.013938972 0.08221417 0.0051864786 -0.023378199
000050 1e b2 e4 3c 9e 28 26 bc d7 e4 81 3d 00 e6 20 3c
       0.027916964 -0.01014152 0.06342476 0.009820461
000060 1f 17 06 3d 12 b0 4b bc 86 91 d5 3c 3c bf c4 bc
       0.032736894 -0.012432115 0.026070368 -0.024016969
000070 6a cc b0 3d 7a 37 20 bd 55 9e cc 3c 00 00 00 00
       0.08632739 -0.039115407 0.024977842 0.0
000080 a2 cb 85 3d 53 4f 98 3c 17 74 78 bd 2e 57 ee 3b
       0.065329805 0.018592512 -0.060657587 0.007273576
000090 0c 1a d4 3b 95 10 a9 bc 45 12 f4 3c 87 de e1 3c
       0.0064728316 -0.02063779 0.029793868 0.02757193

encoder.conv.convs.1.lin.weight f4 [40, 40]
000000 01 72 6a 3e 05 7c df 3d 44 92 88 3d 5d db ce be
       0.22895052 0.10912327 0.06668523 -0.40401736
000010 c9 d8 96 3d 52 d5 bf bc 67 8b 51 be 91 88 42 bf
       0.07365567 -0.023417149 -0.20463334 -0.75989634
000020 40 8a 53 3e 84 a2 28 be 10 a5 a7 bd ec 74 ce 3d
       0.20658207 -0.16468245 -0.0818578 0.10080895
000030 83 5c 97 bd c7 2b de bd 01 bc 81 3e ef 15 76 bd
       -0.07390692 -0.108481936 0.25338748 -0.06007951
000040 62 e2 bb be f4 67 58 bd 0c 2d 79 3e 05 87 6f be
       -0.36696154 -0.052833512 0.2433359 -0.2339135
000050 6f bf 5e 3e e1 d5 d4 bd 53 a0 fe 3d 09 76 87 3e
       0.21752714 -0.10392357 0.12432923 0.2645724
000060 b7 8c 3d 3e e3 42 fd 3d 64 bf 6a bd 3a 45 02 3e
       0.1851071 0.12366273 -0.05731143 0.1272172
000070 53 dd b1 3e 2e 95 67 3d 58 4f a3 bd 12 b8 dc be
       0.3473917 0.056538753 -0.07974118 -0.43109185
000080 d2 c9 f1 3b dc 3a a4 3e 73 b2 46 be c4 7f ee be
       0.007378795 0.32076156 -0.1940401 -0.46581852
000090 34 4c c3 3e b8 d2 91 be 30 06 97 bd 39 bb 4d be
       0.38144076 -0.28481078 -0.07374227 -0.20090951
0000a0 2f 46 72 3e 80 0e 3d be 42 08 2d bc 0e 8c 51 be
       0.23659585 -0.18462563 -0.010561051 -0.20463583
0000b0 d0 d3 07 be 4d 92 84 be 82 57 94 be 27 70 a8 be
       -0.13264394 -0.2589287 -0.28973013 -0.32898065
0000c0 56 be d7 3e 3d 1a 9c 3e 03 ad 75 3d 54 b7 9d 3e
       0.42137402 0.30488768 0.05997945 0.3080393
0000d0 5a 9d 1f 3d a9 f5 33 bd 0e 83 99 3e 45 65 09 3e
       0.03896842 -0.04393545 0.299828 0.13417538
0000e0 e2 32 15 3e 2e 8a 19 3e 3e 29 72 3e 63 42 3e 3d
       0.14570192 0.14994118 0.23648545 0.04645003
0000f0 c5 16 b4 bd 5a 85 00 3d 40 c8 12 3d 2e 98 50 be
       -0.087934054 0.031377174 0.035835505 -0.20370552
000100 b9 9b 05 3e ed 9a 26 bd 82 c4 08 be 7d 7d 1b be
       0.13047685 -0.040675092 -0.13356212 -0.15184589
000110 fd 5d 4e be 05 c8 d5 3c ef 67 3f 3b 15 5d de be
       -0.20153041 0.026096353 0.0029206236 -0.4343039
000120 2e e1 af 3e 1e d7 bc 3d e7 20 58 3d 95 fb 0c 3e
       0.34351486 0.09220718 0.052765753 0.13767846
000130 96 4a 60 3e 25 97 54 bb 24 e7 f8 bd 7a 7d 88 be
       0.21903452 -0.0032438722 -0.121534616 -0.2665823
000140 d9 fb d8 bd c8 e4 41 be 9e dc eb 3d 9d 14 91 3d
       -0.10594911 -0.1893493 0.11516689 0.0708401
000150 b0 6f 01 be d5 b4 62 be f4 ab ae 3d f6 0a 65 be
       -0.12640262 -0.22139294 0.08528891 -0.22367463
000160 e1 27 0f be 52 b2 98 3b 59 b6 4c 3e 97 19 35 bd
       -0.13980056 0.0046599293 0.19991435 -0.044213858
000170 15 11 3f be 9d b3 57 3d 63 8a 92 3d 7f b0 22 3d
       -0.1865886 0.052661527 0.071553014 0.0397191
000180 56 c6 ed 3d 13 3d 00 3d 2b be 79 be f9 07 2f be
       0.11610095 0.031308245 -0.2438895 -0.17092885
000190 27 f8 1d be ee 30 0f 3e 2b 25 05 be bd 6f 90 be
       -0.15426694 0.13983509 -0.1300246 -0.2821025
0001a0 1a 17 9d 3d 85 32 bb bd 62 16 8e be b3 e0 1f 3c
       0.07670422 -0.09140495 -0.27751452 0.009758162
0001b0 ea 00 51 3e 3d 16 37 3e 32 27 50 3d 19 41 96 be
       0.20410505 0.17879577 0.05081863 -0.2934654
0001c0 23 b2 8a be d5 36 65 bd 50 6a 1d be 03 fe 27 be
       -0.27089033 -0.055960495 -0.15372586 -0.16405492
0001d0 a4 2d 0f be 5a 45 77 bd e1 24 ad be 44 27 8b 3e
       -0.13982254 -0.060368873 -0.338172 0.27178395
0001e0 1c 67 40 3e ca f5 4a bd d5 9b ea 3d 56 30 c9 be
       0.18789333 -0.04955081 0.11455504 -0.3929469
0001f0 b0 3f 11 bd ce 49 14 3e 5d 06 48 3e 9d ab 71 be
       -0.035461128 0.14481279 0.19533677 -0.23600622
000200 06 76 70 be 54 98 a7 3e c7 fc 78 be 2f a0 bc bd
       -0.23482522 0.32733405 -0.24315177 -0.0921024
000210 37 da 2a be 9b 57 3c be ce f4 33 3e 36 02 40 3e
       -0.16684805 -0.18392794 0.17573854 0.18750843
000220 a5 0c 20 3f 8b ec 15 3e 76 ac fd 3d 0f 70 bc be
       0.62519294 0.14641015 0.1238641 -0.36804244
000230 22 29 47 be 71 f2 94 be 07 48 e7 bd 00 33 97 3d
       -0.19449285 -0.29091218 -0.11293035 0.07382774
000240 90 88 a1 bc 70 57 4d 3d c9 90 2f bd e6 e5 2d 3e
       -0.019718438 0.050132215 -0.042862687 0.1698223
000250 c5 e2 28 bc 8c 43 b9 3d 28 18 69 be 64 0c da 3e
       -0.010307972 0.09046087 -0.22763121 0.42587578
000260 1d a8 c7 3d 1c ad af be 91 9c 94 be ad 3c 2d 3d
       0.09748862 -0.3431176 -0.290257 0.042294193
000270 a0 f0 33 3f d5 ab 95 3d 48 19 3b 3e 3b 82 7e 3e
       0.7028904 0.07308165 0.18271363 0.24854366
000280 85 c0 77 bf 1a c8 10 3e 50 fb 81 be 96 3c a5 3b
       -0.96778136 0.14138833 -0.2538705 0.005042623
000290 18 7d 0f be 9f f3 25 be b1 72 bc 3e 2f ea 1a be
       -0.14012563 -0.16206215 0.36806253 -0.15128396
0002a0 4b 02 53 bd 6c 82 12 3e 90 d7 02 3e ca 67 5e 3d
       -0.05151586 0.14307564 0.12777543 0.0542982
0002b0 8b 59 a6 3d 02 af 69 be dd 26 a1 be 4e 19 4c 3e
       0.08122548 -0.22820666 -0.31474963 0.19931528
0002c0 58 0a d2 3d 97 27 6e bd f3 ef ea 3c 48 39 16 bd
       0.10255879 -0.058143225 0.02867887 -0.03667572
0002d0 d2 75 64 be 82 84 96 3e dc 35 7e 3d dd 51 53 3e
       -0.2231057 0.2939797 0.062063083 0.20636697
0002e0 11 51 5b 3e a8 f5 a8 3d af 93 c1 be 83 56 00 be
       0.21417643 0.0824998 -0.37807986 -0.12533002
0002f0 50 c2 5a bf cb 30 4b bf a2 1d 6e be f5 46 00 3e
       -0.8545275 -0.7937133 -0.23253492 0.12527068
000300 8f f4 88 be cd ff bc be 5e 07 11 be 12 bc d1 3d
       -0.26749083 -0.3691391 -0.14162967 0.1024095
000310 07 8e 4d be c5 5e 6e 3e 5a dd 99 bd 83 98 25 3e
       -0.2007371 0.23278339 -0.075129226 0.1617146
000320 6b a3 89 3e 96 cf 84 3e 62 64 6f 3d 7f 1a 1d bf
       0.2688249 0.25939626 0.058445342 -0.61368555
000330 ca aa 0d 3e ea bb 8e 3c c1 35 83 3e b9 61 9d be
       0.13834682 0.017423589 0.25626948 -0.3073862
000340 ff 5b b9 3d 3e 55 99 be 9c dc e3 be e2 4f 27 be
       0.0905075 -0.29947847 -0.4450425 -0.16339067
000350 9d ae 59 bd 31 aa 01 3f 80 d2 5e be c9 a8 4a 3e
       -0.05314504 0.50650316 -0.21759987 0.19790949
000360 4d eb fd 3e 85 9e 36 be 3c ee 61 3e 7d 0e c5 be
       0.49593583 -0.17833908 0.22063535 -0.38487616
000370 98 bf 11 3e 83 1a b6 3c b1 27 61 3e 61 cd d6 3d
       0.14233243 0.022229439 0.21987797 0.10488392
000380 19 5e 4d 3e 1f 96 a0 3e 30 7e 19 bc af 8b 38 be
       0.20055427 0.31364533 -0.009368464 -0.18022035
000390 88 1a 78 bd 19 e2 90 bd fa 25 8b be 13 13 e4 bd
       -0.060572177 -0.07074375 -0.2717741 -0.111364506
0003a0 c9 fa e5 3a de 80 a0 3d c2 cb 4c be 02 8d e4 be
       0.0017546053 0.078370795 -0.19999602 -0.4463883
0003b0 09 8e 00 3e ff a3 21 be 78 c6 0a be 04 47 a8 bd
       0.12554182 -0.15785216 -0.13552272 -0.0821667
0003c0 f8 45 06 be 1b 7c 08 3e b0 c4 aa bd a3 25 a8 be
       -0.13112628 0.13328592 -0.083382964 -0.32841215
0003d0 02 62 1d be 54 d1 b6 3e 24 b6 5d 3e f2 43 72 bd
       -0.15369418 0.3570658 0.21651512 -0.05914683
0003e0 47 f8 d2 3b ba 06 20 bd 73 04 6a 3d b0 97 aa 3e
       0.0064382884 -0.039068915 0.05713315 0.33318853
0003f0 30 fc cf bd 88 e9 43 be 46 b1 97 be 86 48 34 be
       -0.10155523 -0.19132054 -0.29627436 -0.1760579

encoder.conv.convs.2.bias f4 [40]
000000 02 ed af bd 1e 11 0b 3d c3 76 77 3c d5 7c 1e 3c
       -0.085901275 0.03395187 0.015103999 0.009673317
000010 a2 af 8a bc 0e 62 4a bd 43 04 52 bd 65 68 7e bd
       -0.016929451 -0.04940992 -0.051273596 -0.062111277
000020 2f b7 9a bc 5c 5e 72 bc 58 f7 3c bd 0d 09 b9 bc
       -0.018886177 -0.014793005 -0.046134323 -0.022587324
000030 da 2b 21 bd 6c 30 bc bd 07 0e 2e 3c 12 2a a6 bb
       -0.03934846 -0.09188923 0.010623462 -0.005070933
000040 ac 3b f3 bc 44 9e 26 bd 95 a3 3c 3d 0a 0d 8d 3d
       -0.02969154 -0.040678278 0.04605444 0.06887253
000050 1b c0 4f 3d 10 c5 91 3d 71 ac 48 bc fc fb 2a 3d
       0.050720315 0.07117665 -0.0122481445 0.041744217
000060 f4 af bc 3a a5 b2 30 3d 70 3a 4f 3d 36 31 8c 3c
       0.00143957 0.04313912 0.05059284 0.01711331
000070 99 f2 0b 3e 83 65 d9 bc e9 b9 71 bd eb 97 4a bd
       0.13666762 -0.026537662 -0.05901519 -0.049461287
000080 75 88 49 3d 0a 1f 1c bc 94 22 8c bd 92 7c 7c 3d
       0.0492024 -0.009528885 -0.06842533 0.061642237
000090 7c 27 2c bd 53 ae 38 bd 95 92 a1 3c 2f 55 76 3c
       -0.042029843 -0.045088124 0.019723216 0.015034958

encoder.conv.convs.2.lin.weight f4 [40, 40]
000000 bf 69 0e bd d2 72 3f 3e 02 8c 09 bd 46 15 81 bc
       -0.034768816 0.18696144 -0.033580787 -0.015757214
000010 21 67 90 3e 99 bf 86 3e dc 03 cb 3e 17 a8 37 bd
       0.2820368 0.26318052 0.39651382 -0.044838037
000020 6f 1e 64 be 47 3f 3e 3d 7f a2 28 bd 47 fd d1 3d
       -0.22277234 0.046447065 -0.041170593 0.10253387
000030 0f b1 35 3c 05 5d e7 be b0 48 ff 3e cf ae 64 bd
       0.011089577 -0.45188156 0.49860144 -0.055830773
000040 96 d2 b0 bd 27 91 f1 bd f0 34 57 3e 69 0f 9e 3e
       -0.08633916 -0.11795264 0.21016288 0.30871132
000050 d5 4f d9 bd 66 7c 02 3e 18 aa 5b bd 7d 86 6c be
       -0.1061093 0.12742767 -0.05362901 -0.23098178
000060 07 87 ee 3c 47 3d 50 bd b7 0c 1e 3e 7c 72 c1 3d
       0.02911712 -0.05083969 0.15434538 0.09445664
000070 d6 08 46 be 22 c1 01 be c3 42 2d be ca 6c 10 3e
       -0.19339308 -0.1267133 -0.16919999 0.14104
000080 cf 42 be be b8 c5 84 be 43 92 06 3d 26 c3 8c 3d
       -0.37160346 -0.25932097 0.03285433 0.06873159
000090 7c 04 2f 3e f4 00 c7 3d 1b 67 90 3d f9 e6 8e be
       0.17091554 0.09716979 0.07050916 -0.27910593
0000a0 4c 55 4e be 81 bf 6e be 3e 77 94 3d 25 2b 4b 3c
       -0.20149726 -0.2331524 0.07249306 0.012400423
0000b0 71 52 b5 3d 67 ff 43 be e0 6a bc be 70 33 6d 3e
       0.08853615 -0.19140397 -0.3680029 0.23164153
0000c0 bd b7 41 3e 82 fe 74 be ed 56 38 3e 15 77 de be
       0.18917747 -0.23925212 0.1800191 -0.43450227
0000d0 9d 0f 2a be 1e 01 d8 3d b5 bb a2 be 07 76 91 bd
       -0.16607518 0.10547088 -0.31783834 -0.0710259
0000e0 88 19 54 3e b5 9d 46 be db ae d4 3e a5 30 d4 3d
       0.20712864 -0.19396098 0.41539654 0.10360841
0000f0 ff e8 59 be d0 d0 80 3e 9e 04 5e be 21 39 1a be
       -0.21280287 0.2515931 -0.21681449 -0.15060855
000100 46 fd 72 3e a3 53 34 be 4d 58 a1 bd 26 98 6a 3e
       0.23729429 -0.1761003 -0.0787817 0.22909603
000110 28 2b c9 3d 05 93 a9 3e bd d6 eb 3d 02 a5 40 3e
       0.098226845 0.3311998 0.115155675 0.18812945
000120 c3 a0 81 3d 48 69 54 3d fb c6 78 bd 70 81 94 bc
       0.06329491 0.051858217 -0.060736638 -0.018128127
000130 0a d2 3d bd 24 29 11 bf 5d 41 db 3c 56 93 8b 3e
       -0.046342887 -0.567034 0.026764566 0.27260846
000140 92 88 13 3e 0c 43 53 3e a8 49 90 bd dd 92 5b 3d
       0.14407566 0.20631045 -0.07045299 0.053606857
000150 b0 0c 80 3e 91 f6 ca bd 7d 7c 6d be e0 17 80 3e
       0.2500968 -0.0991031 -0.2319202 0.25018215
000160 c5 59 3f 3e 32 d8 86 3e b3 80 46 be 2a e7 1c 3d
       0.18686588 0.2633682 -0.19385032 0.038306393
000170 a2 38 a6 3a aa 47 5e 3c 4d 73 b5 be bf 2f 70 3e
       0.0012681673 0.013566891 -0.3543953 0.23455714
000180 67 49 5a be 46 67 07 be 5f 19 34 be d6 e6 b5 bc
       -0.21317063 -0.1322299 -0.17587803 -0.022204798
000190 2e b3 50 be 6b 8d 27 3d ec 7a 77 be 06 6f d8 3d
       -0.20380852 0.04090635 -0.24167985 0.10568051
0001a0 73 d1 99 3d 9e 3f b6 3c 41 3d 0a bf f8 a5 16 3b
       0.075106524 0.022247132 -0.53999716 0.0022987109
0001b0 63 9b 81 3d fd e9 6e 3d c6 d2 38 be e9 04 28 3e
       0.06328466 0.058328617 -0.18049154 0.16408123
0001c0 32 c3 7b 3e 29 af e5 be 04 fe 49 3e 89 ba 0f be
       0.2458618 -0.448602 0.19725806 -0.14036001
0001d0 9a 63 4a 3d 43 e8 13 bd a6 9f 8d bc 01 95 51 3e
       0.049411394 -0.036110174 -0.01728804 0.20466997
0001e0 2a ae b1 bd 9f d8 94 3d 1a 20 89 bc ee 6f 14 3e
       -0.08675797 0.0726788 -0.01673894 0.14495823
0001f0 2b ba 4f be 03 10 af be c8 fd 0a be e7 1e 28 be
       -0.20285861 -0.34191903 -0.13573372 -0.16418038
000200 06 2d 44 3e c6 28 8b be e6 83 b4 3e ca ae 6c be
       0.191578 -0.27179545 0.3525688 -0.23113552
000210 2c 8f f1 3d 26 6f 93 bd a8 4a a9 bc 86 21 da 3d
       0.11794886 -0.07198934 -0.020665482 0.10650925
000220 cd 9a 9f 3c 8d 5e b3 bc d7 e3 df bd d1 53 34 3e
       0.019482994 -0.021895671 -0.10932129 0.17610098
000230 77 2c ea be e7 0e 81 3e ca 68 91 3d 17 2f 3b 3e
       -0.4573705 0.25206682 0.07100065 0.18279682
000240 ad 3a 0d be 68 a9 0e 3e b7 01 23 3e cc 49 89 3e
       -0.13791914 0.13931811 0.15918623 0.26814115
000250 74 86 3f 3e 09 80 32 be c9 c4 04 be b9 9e 71 3d
       0.18703634 -0.17431654 -0.12965693 0.05898926
000260 7c 14 c4 3d 89 63 28 be eb b9 39 3e 0b 81 9c be
       0.095742196 -0.1644422 0.18137328 -0.30567202
000270 51 30 9d 3e 1b fa c4 bd f0 8c 33 bd bc 66 81 3e
       0.30700925 -0.09618016 -0.04383558 0.25273693
000280 2f 4f 70 3e 45 03 af 3d ee 5f 06 be a3 e1 36 3d
       0.23467706 0.085455455 -0.13122532 0.044648778
000290 24 dd e8 3c 77 37 a0 bd 58 57 d9 3d cf df 02 3d
       0.02842576 -0.07823079 0.106123626 0.03195172
0002a0 9f e2 62 be 35 5d 91 be b9 3a 61 3e 6e c9 ea 3d
       -0.22156762 -0.28391424 0.21995057 0.11464201
0002b0 a1 a7 06 be f8 92 69 3d 7d 69 6f bd 9d 2b b8 3e
       -0.13149883 0.057024926 -0.05845021 0.35970774
0002c0 a2 02 31 be 5f 0c f4 bd 4b 43 7c be c5 cf 3b 3e
       -0.1728616 -0.11916422 -0.24635045 0.18340977
0002d0 b7 3c 5c 3d 2d 38 06 3e ac e4 d0 3d e5 21 e9 3d
       0.05376884 0.13107367 0.10199866 0.11383418
0002e0 af 09 e0 3d fd 0d c5 3d 6f 90 3b 3e f9 a6 ca bd
       0.10939347 0.09621809 0.18316816 -0.09895129
0002f0 48 25 1b bd 01 39 43 be af 7f 7a be ab 63 68 be
       -0.03787735 -0.19064714 -0.2446277 -0.2269427
000300 5f 87 13 be b3 94 2f bd 94 11 9d 3d cf 4b 33 bd
       -0.14407109 -0.04286642 0.076693684 -0.04377347
000310 38 cc 26 3e c3 c3 8d 3e 3c 0f db 3d ec 72 0d 3e
       0.16288841 0.27688417 0.10696265 0.1381337
000320 7c 8c 33 be 7e cc 42 3d 4b 64 15 3e 13 a5 4e 3e
       -0.1753406 0.0475583 0.1458904 0.20180158
000330 02 00 8b 3d c9 d9 15 bc ca 37 86 3e f5 a6 ea be
       0.06787111 -0.009146162 0.2621444 -0.45830503
000340 af 26 54 be a7 93 81 be a4 dd 8f 3d d4 2b 1e 3d
       -0.20717882 -0.25307962 0.070246965 0.038616017
000350 32 5b 57 be b6 e1 db 3d 3d f2 b5 3e df 76 83 3e
       -0.21030882 0.1073641 0.35536376 0.2567663
000360 b4 d4 f8 bc 78 2c 8d 3c 26 75 9a bd 5e 34 e0 be
       -0.030374862 0.017233118 -0.075418755 -0.43789953
000370 85 87 f8 bd 88 3f bd be 58 26 5b 3e 6d 0e 47 bd
       -0.12135223 -0.36962533 0.21401346 -0.048597742
000380 ee e3 12 be 52 27 52 be 09 04 c0 3d 4a 1d 85 3c
       -0.14344761 -0.20522812 0.0937577 0.016249318
000390 84 72 05 3e ea 02 f6 3d 6f ec 38 bd 16 d9 82 3e
       0.13031965 0.120122746 -0.045147356 0.25556248
0003a0 b8 5c 39 be 2e a0 c7 bd 26 8a b8 bc 64 a0 1b be
       -0.18101776 -0.09747349 -0.022526812 -0.15197903
0003b0 e3 23 4f 3e 7b 49 62 3d 88 27 6f be d6 5d f6 bd
       0.20228533 0.055245858 -0.23354924 -0.120296165
0003c0 d1 49 b4 3e 32 e2 9b 3d 67 a1 e1 3b f8 c8 c3 3d
       0.35212567 0.07611503 0.0068856957 0.09559816
0003d0 62 11 7c 3e 64 10 3a be 18 e6 ba 3e 43 f2 f5 3c
       0.24616006 -0.18170315 0.36503673 0.030022746
0003e0 92 1d 4d be f3 ae c5 bd 3d 97 aa 3e 86 9e 8d 3e
       -0.20030811 -0.096525095 0.3331851 0.27660006
0003f0 d9 8f 76 3d c3 6f e0 bd 96 09 e5 3e d7 98 d4 3e
       0.060195778 -0.10958817 0.44733876 0.41522858

encoder.conv.convs.3.bias f4 [20]
000000 88 7d b4 3c 51 0a e6 bc c3 e3 08 bd d8 bf 99 bd
       0.022032514 -0.028081091 -0.033420336 -0.075072944
000010 b8 d4 8d 3c 2e 73 9f 3d 74 5d 7a bd ae 48 6e 3d
       0.017313346 0.07785641 -0.06112428 0.05817478
000020 4d e8 1f bd 4e 5b 92 bc 8a b2 37 bd fa 7b da bc
       -0.0390399 -0.017865803 -0.044848002 -0.026670445
000030 40 e7 82 3c 0a 0d 98 3d 23 10 02 bd f2 c2 e8 3c
       0.01597941 0.07424362 -0.03175367 0.02841327
000040 96 67 8e 3d 22 7c 41 3d bd 6f e6 bc 4e cc 65 3d
       0.06953351 0.047237523 -0.028129453 0.056103043

encoder.conv.convs.3.lin.weight f4 [20, 40]
000000 7f 98 2e 3e 50 bb ad 3e f9 2d da 3b 7a 72 5b be
       0.1705036 0.3393197 0.0066583124 -0.21430388
000010 5a 5e e7 3d 62 a1 9c 3d 6e 97 c8 be 70 60 cb be
       0.11297293 0.07647969 -0.39178032 -0.39722013
000020 0d de 17 be b2 79 5a be 0e 77 df 3e 36 65 92 3e
       -0.148308 -0.21335486 0.4364552 0.28592843
000030 5d 42 02 3f 9e 9d 3f 3b d9 7c 0e be 99 b3 70 be
       0.5088251 0.0029238234 -0.13914813 -0.23506011
000040 bf 67 58 3e 25 57 10 3e b3 aa 80 3e 8f 15 ae bc
       0.21133326 0.14095743 0.25130233 -0.021250514
000050 1f 76 18 3e 78 94 15 3e e1 98 1b 3e 6b 84 d8 3d
       0.1488881 0.14607418 0.15195037 0.10572132
000060 d6 52 34 be 55 bd 94 3d 1d 36 41 be c6 10 66 3e
       -0.17609724 0.07262675 -0.18868299 0.22467336
000070 94 b9 dd 3d 05 58 3b 3e d7 b1 69 3e d4 cd 59 be
       0.10826412 0.18295296 0.22821747 -0.21269923
000080 6a 06 80 3e 7c 11 0d be bb 2d 93 be 96 f4 96 3d
       0.25004894 -0.13776201 -0.28745827 0.0737087
000090 80 f9 ca bc ee 12 63 3c 81 df 61 bd 14 32 3a 3e
       -0.024777174 0.013859494 -0.05514479 0.18183166
0000a0 2f ff 38 bc 84 ec 0e 3e f4 42 6e 3d 4f 3e e5 3d
       -0.011291309 0.13957411 0.05816932 0.11193525
0000b0 25 c7 b1 3d f5 79 a0 3e c2 d6 27 3e a8 80 a7 3e
       0.08680562 0.31343046 0.16390517 0.32715344
0000c0 78 14 0f 3f 5a 05 b2 be 54 86 23 3e ad f1 e0 3d
       0.5589061 -0.34769708 0.15969211 0.10983596
0000d0 3c 7e 6a be 3a 82 01 3f 3a 20 81 3d d0 e0 1e bc
       -0.22899717 0.50589335 0.06304975 -0.009697154
0000e0 c1 40 bc 3d ce 88 90 bc 11 80 84 3e 6d 90 19 be
       0.09192038 -0.017643359 0.25878957 -0.149965
0000f0 a2 25 6d be 05 e3 7b 3e ed dd 8d bd ed cc 19 3e
       -0.23158887 0.2459832 -0.069270946 0.15019579
000100 80 5b c2 be 8b 33 c7 3d 9b 25 8f be 67 17 8b 3d
       -0.37960434 0.09726628 -0.27958378 0.06791573
000110 9a 8f 71 3e 82 c4 0b 3e a1 43 8e be 9a da 4f 3d
       0.23589936 0.1364918 -0.27785972 0.050745584
000120 47 c9 71 3d f1 7e b7 3d df 1c 0f 3e 34 57 98 bd
       0.059029844 0.08959759 0.13975857 -0.07438508
000130 ad 98 49 bd 48 c2 4b 3e 8a d1 73 3e 31 66 f2 bd
       -0.04921787 0.19898331 0.23810402 -0.11835898
000140 60 d7 40 be 1d f0 af 3b fb b3 a3 be c6 dc 87 be
       -0.18832159 0.0053692 -0.31973252 -0.26535624
000150 09 39 8b be 5e 65 7c 3e fb 59 6c be 89 e5 96 3e
       -0.27191952 0.24648044 -0.230812 0.29471996
000160 1a 95 a6 be 09 92 40 3e bc 55 44 be 7b 78 a0 3e
       -0.3253563 0.18805708 -0.1917333 0.3134192
000170 71 84 6d 3e 70 9e 7d be 80 2a b1 be 56 ff 34 3c
       0.23195054 -0.2476747 -0.34602737 0.011047205
000180 3b 7e 18 bd 4a 0a 60 be 51 0c 02 3e 4b fe 08 3e
       -0.037229758 -0.21878925 0.12700011 0.13378255
000190 eb 23 57 be b5 d0 be bd 7c 5c b1 bd 39 93 29 3e
       -0.21009795 -0.093171515 -0.08660218 0.16560067
0001a0 e1 9e 77 be 13 2f 26 be 89 5e 7e 3d 81 36 af 3c
       -0.24181701 -0.16228895 0.062101875 0.021388294
0001b0 7b f1 8a bd 4a 1a 87 bb 2f 25 64 3e 56 28 24 be
       -0.0678434 -0.004123007 0.2227981 -0.16031012
0001c0 19 8f 79 be 59 b3 ce bd 19 72 61 bc ca 85 71 be
       -0.24370994 -0.100928016 -0.013760113 -0.23586193
0001d0 90 e9 7d 3d b4 ce 54 be 12 e0 9f be 78 40 29 be
       0.06199032 -0.20781976 -0.3122564 -0.16528499
0001e0 5c 4d 3a be 64 b8 52 be ba 9c 38 be 62 11 25 3e
       -0.18193573 -0.20578152 -0.18028536 0.16119912
0001f0 0d ef 73 be b9 54 65 3d 1f ca 30 be 3f f4 84 3d
       -0.2382166 0.055989 -0.17264603 0.06491899
000200 04 d0 50 be 69 b3 62 3e 87 4f 54 bc 23 a0 34 be
       -0.20391852 0.22138752 -0.012958414 -0.17639212
000210 25 e1 8a 3e 9a 95 78 3d a5 b4 52 3e a3 24 96 be
       0.27124897 0.060689546 0.20576723 -0.29324827
000220 cc b5 a2 be fc 70 a1 be 80 73 b7 3d 7e ee 70 be
       -0.31779325 -0.31531513 0.08957577 -0.23528478
000230 85 e5 60 be 02 b5 20 3e 83 45 be be c1 b4 db bc
       -0.21962555 0.15694049 -0.37162408 -0.026819589
000240 d2 b2 88 be 42 db 32 3d 4e 83 82 be 2e 77 9f 3d
       -0.2669893 0.04366613 -0.25490803 0.077864036
000250 96 2f 29 be 46 f5 0a be 24 fd de 3d ad 24 0c be
       -0.16522059 -0.13570127 0.108881265 -0.13685866
000260 02 01 a6 be 14 a9 13 bc c7 ae 30 be 31 35 5e be
       -0.32422644 -0.009012479 -0.17254172 -0.21699978
000270 dd db 86 be 60 0d 52 3e 3e 18 85 be 0f c1 20 3d
       -0.26339617 0.20512915 -0.25995058 0.039246615
000280 bb b2 12 bf 6e 2e b2 be 00 18 18 3e 43 38 8e be
       -0.5730397 -0.34801048 0.14852905 -0.277773
000290 f4 9d 9e 3e 4d ac de bd 11 f1 58 3e 00 2d 88 3e
       0.30979884 -0.108727075 0.2118571 0.26596832
0002a0 40 18 0a 3e dc d0 13 be e8 70 89 3c 5d 27 13 3e
       0.13485813 -0.14435142 0.01677747 0.14370485
0002b0 50 be 15 3e e1 4d 8d be 65 24 09 bd 0c ab 85 bd
       0.1462338 -0.2759848 -0.033481974 -0.06526765
0002c0 7e 1a 30 be 14 62 59 be e6 03 68 be c6 17 49 be
       -0.17197606 -0.2122882 -0.22657737 -0.19637975
0002d0 5c ad 34 3e 49 1a 7a 3e 90 7f 91 bd 73 93 7f 3d
       0.17644256 0.2442409 -0.07104409 0.062396478
0002e0 c8 8c 95 3e 64 23 8a 3e 8d 73 d2 3d fd 1e 88 3e
       0.2920897 0.26980126 0.10275946 0.26586142
0002f0 a9 37 82 3d b4 69 57 3e 60 1e 61 3c eb c8 4a be
       0.063582726 0.21036416 0.013740152 -0.19803207
000300 46 e7 17 3d 39 37 a0 3e 38 44 82 bd e8 5a a8 be
       0.037085794 0.31292132 -0.06360668 -0.32881856
000310 46 73 5d be 15 3c d5 bd 97 15 e4 3d b4 de 25 3e
       -0.21626005 -0.1041185 0.111369304 0.16198236
000320 7e 0f 41 3e 7d 33 6d 3b db 5d a7 3d c8 1a 7d 3e
       0.18853566 0.003619402 0.081721984 0.24717247
000330 13 e5 12 3e 04 0a 85 bd 65 70 19 3e ed bc 20 3d
       0.14345197 -0.06496051 0.14984281 0.039242674
000340 f1 a4 44 be 1d 3f 8b 3d 0e c1 ec 3d e1 9e 1f 3b
       -0.19203545 0.06799147 0.1156026 0.0024356174
000350 83 80 21 3d fd 58 ab be 7f d7 24 be 3e af 8f be
       0.0394292 -0.3346633 -0.1609783 -0.28063387
000360 13 77 20 3e 26 dc cb be ff 9c 03 be c2 85 0f 3e
       0.15670423 -0.39816397 -0.12852858 0.14015868
000370 12 e0 b7 be 1c e7 35 3e 93 53 d1 bd 87 4a 62 3e
       -0.3591314 0.17763942 -0.10221019 0.22098742
000380 17 0f 89 3d 6b 8f 67 bd 08 2f 59 3e ad 6f ed 3d
       0.06692331 -0.05653326 0.21209347 0.11593566
000390 56 9e bf 3e ad 55 89 be 18 1b aa 38 da bb 12 3d
       0.37425488 -0.26823178 8.111278e-05 0.03582368
0003a0 62 d2 b2 3e 00 81 97 be da 86 ee bc 7f 84 4f 3e
       0.34926134 -0.29590607 -0.029117037 0.20265387
0003b0 e0 34 f8 be 14 34 a4 be 64 86 70 bb 39 0b c0 3e
       -0.4847784 -0.32070982 -0.0036701197 0.37508562
0003c0 6c af 84 bd ce fd fa 3d 4a c4 97 be 95 c7 35 3e
       -0.064787716 0.12255441 -0.29641944 0.17751916
0003d0 20 ff 33 3e c3 51 91 be 32 33 7d be 18 31 97 3d
       0.17577791 -0.28382692 -0.2472656 0.07382411
0003e0 d8 1f 33 be 73 13 ce bd a8 0d a6 be e3 c3 3d 3e
       -0.17492616 -0.100623034 -0.32432294 0.18531756
0003f0 c8 ef c1 bd a3 99 25 be e9 59 37 be 9e 8f 43 be
       -0.09469563 -0.16171889 -0.17905392 -0.19097754

encoder.embed_x.weight f4 [28, 40]
000000 c8 41 15 c0 1e 55 86 3f 8d 10 54 3f 5a 8f 9a 3f
       -2.33214 1.0494726 0.82837754 1.2074997
000010 01 36 a7 3e ce 0a ae be ff 61 0c bf 3f 0c 63 bf
       0.3265839 -0.33992618 -0.5483703 -0.8869056
000020 fb 63 c1 bd 2b af 62 bf 5c c6 cb bd b1 b0 51 3c
       -0.09442898 -0.88548535 -0.099499434 0.012798474
000030 45 37 06 bf 84 8c 35 bf c8 1f 63 3f 2f a0 bf bf
       -0.52428085 -0.70917535 0.8872037 -1.4970759
000040 22 e8 db 3e ba 29 dc bf 61 11 38 be 42 fd 3a 3f
       0.4295054 -1.7200234 -0.1797538 0.7304269
000050 99 fb b5 bf 86 1a 2e 3f 43 b9 5a be 50 9f 4d 3e
       -1.4217407 0.6800922 -0.21359734 0.20080304
000060 f3 0a b9 3f dd 48 28 3f c1 63 b2 bf 83 e0 02 bf
       1.4456466 0.6573618 -1.3936692 -0.5112383
000070 97 dd 30 3f 99 fb 21 3f 20 19 a0 3d a0 ca cd 3f
       0.6908812 0.6327453 0.07817292 1.6077461
000080 c3 df 8e 3f 55 5b 1b 3f a5 e2 8d 3f d8 48 28 bf
       1.1162037 0.60686237 1.1084791 -0.6573615
000090 87 61 9d bc 6b b9 55 3f 8b 66 cc 3d bd b8 b2 3e
       -0.019211544 0.8348605 0.09980496 0.3490657
0000a0 2c 71 b1 3f 76 51 92 3f ae 46 b4 3f 2e 98 90 be
       1.3862662 1.143111 1.408407 -0.28241104
0000b0 fb 58 4b 40 66 88 13 bf 9a 68 de bf f1 d9 19 40
       3.177306 -0.5763 -1.7375672 2.403927
0000c0 a0 f7 0f bf c6 43 3d bf 55 25 46 bf 87 90 c9 bf
       -0.5623722 -0.7393154 -0.77400714 -1.5747231
0000d0 31 3f 6e 3f b1 40 5f 3f 6f d9 2b 3e 4c 5b 4d be
       0.9306517 0.87208086 0.16782163 -0.20054358
0000e0 1f 4b 3c 3f 9e 01 a8 3f 1f 6c ce 3f c7 43 ad 3f
       0.73552126 1.3125494 1.6126746 1.3536309
0000f0 77 16 50 3f dc 34 0c 3f 71 5c 15 3f 5b 4d 83 bf
       0.8128428 0.54768157 0.5834418 -1.0257982
000100 95 b1 b5 bf 96 12 a3 3f 5f 7b b0 bf d1 14 5b bf
       -1.4194819 1.2740047 -1.378765 -0.8557864
000110 31 c2 1f 3f ad c2 a7 3e 9d d5 9d bf c3 14 53 bf
       0.6240569 0.32765713 -1.2330815 -0.82453555
000120 d0 0a ea bf a8 6f 86 3e cb 47 4d bf e3 33 28 bf
       -1.828455 0.26257062 -0.8018767 -0.6570417
000130 62 d9 b5 bf 06 99 9b 3e f7 70 5b be 24 04 70 bf
       -1.4206965 0.30390185 -0.21429811 -0.9375632
000140 2b 70 2a bf 0d e1 aa bf e1 eb fd 3d f1 3e 5b 3f
       -0.66577405 -1.334993 0.12398506 0.85642916
000150 c4 8c 4d 3e ba 8b ad be a6 9e c5 be 92 b4 49 bf
       0.20073229 -0.33895665 -0.38597602 -0.78791153
000160 39 d4 bc bd 9d bb a6 3d c6 e7 0f bf 18 fc fa bd
       -0.09220166 0.08141253 -0.56213033 -0.12255114
000170 a0 35 0a 3f ab b4 76 bf 61 cc d7 3f 11 b3 ab 3f
       0.53988075 -0.9636943 1.6859246 1.3414022
000180 2c 10 08 3f 96 99 8b bf d4 a6 b0 3f 76 81 d1 bf
       0.53149676 -1.0906246 1.3800912 -1.6367633
000190 50 25 80 3e 6a 38 f2 3e 82 fb 26 3f a8 5f 27 3f
       0.25028467 0.47308666 0.6522752 0.65380335
0001a0 74 5c fd bd 35 d5 08 bf 68 eb c6 3e 87 22 9c bf
       -0.1237115 -0.5345033 0.38851476 -1.2198037
0001b0 8c 05 b1 bf a1 cd ac bd 48 0d 14 40 8b f7 34 3f
       -1.3829818 -0.08437658 2.3133106 0.7069022
0001c0 85 1d a2 bf a0 5e 82 3f 2e 05 11 bf a6 9f 35 3f
       -1.2665259 1.0185127 -0.5664853 0.7094673
0001d0 9a 83 40 3d a3 c0 36 3f 99 ae f4 3e fb 55 a4 3f
       0.047000505 0.7138769 0.47789457 1.2838739
0001e0 f9 53 e3 bf 96 a2 38 be ad f8 bd be 6f 0e 79 bf
       -1.7760001 -0.18030772 -0.37103787 -0.9728765
0001f0 92 94 3a bf ab c8 c4 bf 6d a2 0d 3e b6 2d 18 3f
       -0.7288295 -1.5373739 0.13831492 0.5944475
000200 1e 44 cc 3e 93 80 bc 3e 95 a3 90 3f da 0c 4d 3f
       0.3989572 0.36816844 1.1299921 0.80097735
000210 78 ed 7b 3e 3c de d4 3f 0b f8 18 be 00 7b f8 b5
       0.24602306 1.663032 -0.14938371 -1.8513238e-06
000220 bb 47 5e 3f d9 f9 c9 3f 6b 87 cd be 49 e7 8c bf
       0.868282 1.5779372 -0.40142378 -1.1008083
000230 5d a1 cc 3e 7f d8 60 3e 4a a1 56 bf 48 2a cd be
       0.3996686 0.21957587 -0.8383986 -0.4007132
000240 ec 73 43 bf cc 8d 06 3e f7 70 b4 be 90 c9 8c 3e
       -0.7634876 0.13140029 -0.35242435 0.2749753
000250 f8 af 22 bf 81 ac 4a 3f eb b6 0b 3f a4 19 74 3f
       -0.63549757 0.7916947 0.54575986 0.95351624
000260 12 51 14 bf fe 41 44 bf 70 4c eb 3e c3 c3 1c c0
       -0.57936203 -0.76663196 0.45956755 -2.4494483
000270 f4 65 32 bf 09 1a aa 3e 1a 0f 35 3f 59 79 b2 3e
       -0.6968682 0.33222988 0.7072617 0.34858206
000280 03 d3 1b 3f 52 84 60 bf e7 20 ef 3e d6 5c b2 3f
       0.60868853 -0.87701905 0.4670479 1.3934581
000290 bf 68 9e 3f 37 c3 12 bc bc 1f 35 3e fa b9 cb bf
       1.2375716 -0.008957676 0.17687887 -1.591613
0002a0 ec cb 30 c0 7d b4 44 c0 26 5e 80 3f a7 e1 0c be
       -2.7624464 -3.0735161 1.0028732 -0.13757955
0002b0 38 ed 30 bf 68 4f a8 3e c6 95 de 3e 58 b2 4c 3f
       -0.6911197 0.32873082 0.43473643 0.7995963
0002c0 0e b2 bc bf 8a 93 8a 3f 48 fb 8f bf cf 7c a8 bf
       -1.4741838 1.0826275 -1.124856 -1.3163089
0002d0 78 ca 08 40 34 3d 79 3f c6 09 01 c0 29 b5 2b 3f
       2.1373577 0.97359014 -2.0162215 0.67073303
0002e0 0c 75 d0 3f 06 4d d7 3e a0 32 da bb 7b a3 c1 3f
       1.628572 0.42050952 -0.006658867 1.5128015
0002f0 f7 cb c6 3f 0d a1 0b c0 34 40 ae bf 88 66 02 3f
       1.5530995 -2.1817048 -1.3613343 0.509377
000300 57 34 c5 3e 69 d5 9b bf f1 05 0c c0 40 86 f2 3e
       0.38516495 -1.2174503 -2.1878626 0.4736805
000310 64 a5 ed 3a 0e 16 9a 3f fc 32 9a 3f 11 9a d7 bc
       0.0018130955 1.203798 1.2046809 -0.026318582
000320 cd 90 f1 bb 85 43 6c bf 77 e8 3f 3f 66 b5 cb be
       -0.007371998 -0.92290527 0.7496409 -0.39786834
000330 5a c1 9c 3d 9a 3e d3 3d 25 6d c1 bf a7 fe 96 be
       0.076540664 0.10314675 -1.5111433 -0.2949116
000340 92 20 18 be a8 d1 e2 3f 97 54 45 3d d8 96 11 c0
       -0.14856175 1.7720232 0.048176374 -2.2748318
000350 e1 87 cf 3e df b4 8f 3f 99 ad 7e bf 61 cd b0 bd
       0.40533355 1.1227072 -0.9948364 -0.08632923
000360 a4 b9 a6 3e 0a b0 7d be da f3 d5 3d 45 71 8e be
       0.32563508 -0.24774185 0.104469016 -0.27820793
000370 a6 90 05 3f 90 10 20 be df d1 86 3f f5 39 3f bf
       0.5217384 -0.15631318 1.0532798 -0.7469781
000380 3c 2f e3 bc 05 9a 14 40 06 44 86 bf 15 f9 83 bf
       -0.027732484 2.3219006 -1.0489509 -1.0310389
000390 00 eb bf 3e 35 32 96 bf 9e a1 aa be b3 05 fa be
       0.37483978 -1.1734072 -0.3332643 -0.48832473
0003a0 ba 1b 22 bf 67 fc 57 be f2 a3 1c bf b5 a1 47 bf
       -0.6332356 -0.21092378 -0.6118766 -0.7798112
0003b0 25 2a 79 bf f8 49 ba bf 98 2a 11 c0 37 1b 20 c0
       -0.9732993 -1.4553823 -2.2682247 -2.501661
0003c0 36 ab c2 be 28 15 05 40 b9 f4 77 bf 05 cc 81 3f
       -0.3802125 2.0794163 -0.9685779 1.0140387
0003d0 da f2 75 bf 49 1d 83 3f ad b2 83 bf 43 d4 d3 be
       -0.9607369 1.0243312 -1.0288903 -0.4137288
0003e0 e9 9e 05 be 64 a8 bb 3f 65 53 c4 3e 6e a0 a7 3f
       -0.130489 1.4660764 0.38344875 1.3095834
0003f0 69 84 c1 3f a9 3f a5 3e e3 fe 03 3d fa cd 4d bd
       1.5118533 0.3227513 0.0322255 -0.050245263

encoder.trans_linear.weight f4 [40, 5]
000000 20 5e 07 bf bf 36 8c bc cf 71 ba 3e de 6b 8c be
       -0.52878 -0.017115949 0.36414954 -0.27426046
000010 03 48 45 be 24 73 f8 be b0 3d 78 bd c0 73 36 be
       -0.19265752 -0.48525345 -0.060605705 -0.17817593
000020 60 95 07 3e 67 23 7b bd f9 7f f0 be 43 16 d4 bd
       0.13240576 -0.06131306 -0.46972635 -0.103558086
000030 02 92 f4 bd 89 54 f7 ba 26 74 e3 3d 3f 9d 28 bf
       -0.11941911 -0.0018869798 0.11106138 -0.6586494
000040 44 52 1e 3f 10 4a 89 3e 96 c0 91 3e 44 e1 c7 be
       0.6184428 0.26814318 0.28467244 -0.39039052
000050 e8 a8 c4 be 80 da a6 be 4b f0 7f bd 73 1e 98 be
       -0.38410115 -0.32588577 -0.06248502 -0.2971073
000060 a1 f1 4a 3e e3 f6 12 bf c6 d9 c1 3d 87 e7 b2 be
       0.19818737 -0.5740797 0.09465365 -0.34942266
000070 3e 86 f6 be db 38 0b 3e fc b5 db be 00 d5 c9 be
       -0.48149294 0.13595907 -0.4291228 -0.3942032
000080 55 73 7a 3e ba 69 98 bd f4 91 7a be a2 6d 3d 3f
       0.24458058 -0.07442041 -0.24469739 0.7399541
000090 4d c1 81 3e 8c 9d 82 3d 02 71 74 bd 55 6f 07 3e
       0.2534279 0.06377706 -0.059678085 0.13226064
0000a0 4f e2 0b 3f 7c 90 4f 3d 73 de 7d be e8 b2 cb bc
       0.54642195 0.0506749 -0.24791889 -0.024865583
0000b0 ed be 08 3e a1 29 59 3f 26 0e 1d be 6d f5 81 3e
       0.13354082 0.84829146 -0.15337428 0.25382558
0000c0 3b 23 10 be 3d d0 3e 3e 7f 54 34 3f 6a 10 8d bd
       -0.1407594 0.18634124 0.7044143 -0.06887896
0000d0 ec 63 cc 3e 49 1a b7 3d 32 2d ac 3e 95 cd 13 3f
       0.39919984 0.0894056 0.3362823 0.5773557
0000e0 de dc 18 be d5 d1 c7 bb 84 7c 44 3d b5 be 5f be
       -0.14928004 -0.006098012 0.04797031 -0.21850093
0000f0 af e7 97 3f 0b 2a 85 bd 7b 41 2a be 80 49 ad 3e
       1.1867579 -0.0650216 -0.16626541 0.3384514
000100 9b 8e cf 3c 33 e5 43 bf c0 f6 b7 3e 45 97 10 be
       0.025336554 -0.76521605 0.35930443 -0.14120205
000110 e4 6c a2 3e 55 ec 68 be 45 fc 9b 3d 96 6b 3b bc
       0.31723702 -0.22746404 0.07616476 -0.011439225
000120 b0 24 c8 bc 24 88 8b bd 65 0b ac 3b f1 47 2e 3f
       -0.024431556 -0.06813076 0.005250382 0.68078524
000130 cb 9a 2d 3e 83 df 25 be c3 e3 a2 bc a5 6b dd bc
       0.1695358 -0.16198544 -0.019883996 -0.027028868
000140 07 d4 b3 3e 2c a0 85 be 9c a7 41 3d 31 2d 05 be
       0.35122702 -0.26098764 0.047278985 -0.1300552
000150 9a b2 81 3d a7 1c 37 3f a8 80 9e be 44 ef 1f be
       0.06332894 0.71528095 -0.30957532 -0.15618616
000160 5c ae 73 3e 1c b6 27 be e6 e1 99 3e 90 19 82 3e
       0.23796982 -0.16378063 0.3005516 0.25410128
000170 5e 32 4d 3e 38 b0 35 be 75 42 df bd d2 fb e1 3e
       0.20038745 -0.17743003 -0.109013475 0.44137436
000180 b8 57 2c be bb c5 07 3e 77 9f 4e bc 09 3b 17 3d
       -0.16830337 0.13259022 -0.012611262 0.036921535
000190 24 b6 34 be fd ad b0 3d 85 2b 9f bc 60 8e 2c 3e
       -0.17647606 0.08626936 -0.019429931 0.16851187
0001a0 ce 6f 90 3e e2 4b 79 3f 64 8f 06 be 34 b3 35 3e
       0.282103 0.97381413 -0.13140637 0.17744142
0001b0 97 8d 0b 3d f0 00 d1 3d 0d 28 60 bd 3a ca 4a 3e
       0.034070577 0.10205257 -0.054725695 0.19803706
0001c0 d2 82 8e 3c ea b6 c0 be 1c 0d d4 bd 7f a0 6b be
       0.017396364 -0.37639552 -0.10354063 -0.23010443
0001d0 d3 ef e8 bd 84 12 8c be 67 c8 60 3e c1 7b 87 be
       -0.11373868 -0.27357876 0.21951447 -0.26461604
0001e0 ec cf d7 be e6 e1 05 3f 9a c6 9c 3e 61 69 46 3e
       -0.4215082 0.5229782 0.3062027 0.19376136
0001f0 d9 14 8d bd ff c8 23 3f 6e 35 93 3d 8b f9 b5 3e
       -0.06888742 0.6397857 0.07187925 0.3554195
000200 9b 29 63 be 52 49 e4 bd 7e ad 19 3f 76 ad b2 be
       -0.2218384 -0.11146797 0.60030353 -0.34897965
000210 8c f0 2e 3e f2 16 03 bb ff 53 eb bd e5 86 40 bf
       0.17083949 -0.002000269 -0.1149063 -0.7520583
000220 cc 93 3f 3e d4 ea 74 be 58 4a 78 be cc ac a0 bd
       0.18708724 -0.23917705 -0.2424711 -0.078454584
000230 9a 0e 34 3f 03 be 26 3e cf 46 c9 bd 89 48 3f be
       0.7033478 0.16283421 -0.09827959 -0.18680014
000240 a7 d6 54 bd 43 c5 92 bf 4c 80 4c be b5 14 3b bd
       -0.05196252 -1.146645 -0.19970816 -0.045674045
000250 42 1b 74 3e 8e 1c b8 3d bc 4f 6c bf d5 23 d5 3d
       0.23838523 0.089898214 -0.92309165 0.10407225
000260 17 b4 ed bc 1a 9f 23 3e 30 4a 0d bc c0 93 65 be
       -0.029016538 0.15978661 -0.008623645 -0.22419643
000270 bd 0e 15 3e 30 79 e1 3d 42 0f fc 3d 68 1e 22 bd
       0.14556403 0.11009443 0.12307598 -0.03957978
000280 d9 2a 97 3e 8d 3d 57 3e f5 c5 34 3e 0a 3e 02 3d
       0.29524878 0.21019574 0.1765364 0.031797446
000290 10 6d 3d 3e 83 d5 5d bf a8 b9 85 be 83 84 51 be
       0.18498635 -0.8665392 -0.26118207 -0.20460705
0002a0 9d 87 09 be 5d 7e 5b 3e 0c 2f 58 3f 45 39 de 3d
       -0.13430639 0.21434923 0.8444679 0.10850767
0002b0 e1 75 2f 3d f8 06 9a be 7f f2 56 be d5 ea 32 bf
       0.042837027 -0.30083442 -0.20990942 -0.69889575
0002c0 9f fe 64 be 40 ea a6 be a8 94 28 3d 34 87 56 3d
       -0.22362755 -0.32600594 0.041157395 0.052375033
0002d0 27 25 73 3f a7 62 7b 3e b4 a9 25 bd 51 e4 ae bd
       0.94978565 0.24549352 -0.040445045 -0.08539642
0002e0 a2 4d b8 bd 24 d2 bb 3e 75 fd 1d be ad 3b a6 3e
       -0.08999182 0.36683762 -0.15428717 0.32467404
0002f0 71 8b cb 3c d6 13 8e bd f2 52 28 bf 2b 23 83 bd
       0.024846764 -0.06937377 -0.65751565 -0.06403192
000300 c1 02 3b 3e d6 6e 5f be 48 d7 e4 3d 21 e3 53 3f
       0.1826277 -0.21819624 0.11173874 0.82768446
000310 c1 84 61 be ff 0d a7 be e3 15 d2 bd f9 d9 3f 3e
       -0.22023298 -0.32627866 -0.10258081 0.18735494

encoder.trans_linear.bias f4 [40]
000000 1d 22 27 3e 09 6d 2c 3e 02 21 08 3d ee e9 a7 bd
       0.16321607 0.16838469 0.033234604 -0.081989154
000010 58 61 6c be 31 cf c6 3e 93 58 b4 be bc c6 ca 3c
       -0.23084009 0.3882995 -0.35223827 0.024752967
000020 95 80 a4 3e c6 ba a6 3e a3 a2 7c be 38 55 65 be
       0.3212935 0.32564372 -0.24671416 -0.2239579
000030 58 42 aa 3e 02 9d b4 3d 38 ba ef be 3d f9 ad 3e
       0.3325374 0.08819009 -0.4682176 0.33979216
000040 6a 64 ac 3e 93 51 f3 3e 92 ad 47 be 32 3a d3 be
       0.3367036 0.47523174 -0.19499806 -0.41255337
000050 a8 d4 ac be a9 9a 07 be 8d 71 df bd 6e 46 94 bd
       -0.33755994 -0.13242592 -0.1091033 -0.07239996
000060 cf c0 f2 bd f6 cd c4 3e 5e 31 51 be 5b 67 80 be
       -0.118531816 0.38438386 -0.20428988 -0.25078854
000070 6a 9d d9 be 2f 64 e4 be bf 56 ca be 52 eb fd be
       -0.4250291 -0.44607684 -0.39519307 -0.49593598
000080 04 d8 c5 be 34 2e 91 3e b9 7d 54 3e 49 62 3b 3e
       -0.3864137 0.28355563 0.20751084 0.18299212
000090 55 65 99 bd e6 74 a5 be 2f b8 1f be a9 8a ad 3c
       -0.07490031 -0.3231575 -0.15597604 0.021184282

encoder.conv_mu.bias f4 [20]
000000 36 73 9b 3a 8a ae f3 3d aa 9c 2f 3d 2d 67 57 3d
       0.0011859897 0.11898525 0.042874016 0.05258863
000010 1e 96 0e bd 73 f3 41 3d 20 4a 3c bd cc 5b 5f 3b
       -0.03481113 0.047351312 -0.04596913 0.0034081815
000020 62 17 99 3d 88 91 76 bd f8 6a 16 bc a3 0f 0c be
       0.07475163 -0.060197383 -0.009180777 -0.1367784
000030 78 1f 8d bc 6f b9 8a 3d 2b 4b 91 bd e4 5a 98 bd
       -0.01722692 0.0677365 -0.07094415 -0.07439211
000040 50 f4 d7 bc f7 9c a3 bc 85 25 79 3d b3 7b b6 bc
       -0.026361614 -0.019972308 0.060826797 -0.022275781
