results/model_GCN/graph_split_/layers_1/transform_False/alpha_1.0/model.pt (torch, 13633 bytes, 7 tensors)

encoder.conv.bias f4 [20]
00000000: aecc 36be b414 7bbd 7194 0b3c 5ce9 60bc
00000010: c476 8a3c 80f2 66bd 3913 e9bd 10d7 453e
00000020: afd0 aebd e217 493e b029 1dbd 6207 54be
00000030: b3b8 b1bd e570 c1bd 47ad 583d 16d5 c4bd
00000040: 009f ec3d fbbd 73bd a2c9 5e3e 2463 2f3e
-0.17851517 -0.06129904 0.008519278 -0.013727512 0.016902335 -0.05638361 -0.113806196 0.19320321
-0.08535897 0.19638017 -0.038369834 -0.20705941 -0.08677807 -0.09445361 0.052899625 -0.096109554
0.11553764 -0.05950735 0.21756604 0.17127663

encoder.conv.lin.weight f4 [20, 40]
00000000: 0711 103e 1756 9dbe 5512 63be 8bd2 40be
00000010: 857a 7e3e 1cf3 a1be 3dd4 68be 0004 7f3e
00000020: 0963 863d e84a 303e 09a3 bebe 501c 10be
00000030: 9d71 2ebf 8219 dbbc fe58 8f3d 2ce9 d0be
00000040: 268a 6fbe 07a2 92bd dca9 073f 64b7 873e
00000050: fe6c 4f3d e723 f73d 3fb1 4ebc 25fa 2ebd
00000060: 5ede f03d e748 e43e 99d7 913e fc55 883e
00000070: 714f bebe 1a7f b93d 9c45 2d3e 1f30 b73d
00000080: fd24 843e 4881 df3e fd16 dcbd 39d9 d93e
00000090: 32fb 56be ce20 1d3e 61c3 0bbd 03ba 043e
000000a0: 47e5 cabd 25a8 a6be e1ec 38be 817b c93d
000000b0: 6529 d7be 7467 1fbe afc1 76be 43f0 103e
000000c0: 3430 06be e147 1b3e c85b 7ebe 793a c1bc
000000d0: ebf4 5dbd f7b9 503e 4062 95be bd55 2ebe
000000e0: 0d6b 61be b1d1 103d 4309 b03e 9a1d f1bd
000000f0: 8236 de3c 844f 61bd ff7f d03e 338f 1e3e
00000100: f948 81be 46d7 2bbe 8002 17bd 4c37 353e
00000110: 915e a1be ba8f ffbd 7398 72be 7b6e 88be
00000120: b60d 23be ec92 a03d 9c9a 713e 868d ab3e
00000130: 5c35 373e 28ea 9e3e 4825 7cbe 9bbb 8fbe
00000140: 996e 7c3e 8145 f63d aa59 213e 6346 9dbe
00000150: 0d02 f6bd 9b66 1e3d 6ce1 1ebe 4be4 5bbe
00000160: 5f1d 073b a076 283e e6c5 813e f9de 813e
00000170: 5344 523e a0e4 593e ab1c bd3e 1597 d13d
00000180: a783 13be 423c 8bbd 6f2c 65bc 4830 663e
00000190: e2b6 453e 3bd0 b4bd 925a 4a3e 802a f1bd
000001a0: 0dd5 97bc 73e6 a8be f695 9cbe 844b 0cbe
000001b0: e3f8 d5bd 9349 20bd a43e 8cbe 3982 4f3d
000001c0: f1c6 a73e 7c0e 4f3e dcf1 05bd 3971 a73d
000001d0: 3f4a 473e a260 3e3e 6137 f5bd 1024 c0be
000001e0: 4d65 0d3d 5c10 2dbc 92b9 723e 598e 46bd
000001f0: ef56 72be d005 51bd 851d 3c3e c4c9 7cbe
00000200: c3d3 acbd c8ac 583e a2dd 6c3d 87a1 0f3d
00000210: 3fd3 e5bd 9574 dc3d 914b 973e 4b41 f33e
00000220: 0d9f 7fbe 5c8e fd3e 4936 db3d 4b86 643e
00000230: e084 9d3e 9d05 e2bd 47f2 a4be 1e2b dc3e
00000240: 3a65 d0be 1dba bd3d d413 513e 56f6 1f3e
00000250: 8f58 84bd a562 2dbe d6d3 00bd 22fa 9f3d
00000260: 7971 f9bd 8af0 7fbd c39e 763c 8158 1f3e
00000270: 1019 a93d 9fc6 31be 3999 8fbe 9118 4a3e
00000280: d24e 5ebd a74c e53d fa1d 67be 3a28 6dbe
00000290: 5b26 963e 9781 a63e 1893 eabd 021e f9bd
000002a0: a1f5 ddbb f94c b5bb dfe9 873e cf90 d43d
000002b0: d771 443e 568b ed39 fc95 dcbe 6cb8 35be
000002c0: c685 ce3e 60c7 963e d53f a3bd 50f7 49be
000002d0: 1be8 713e 5d49 54be 0f20 81bc 63be 8dbe
000002e0: f1fc 0bbe 2fec d4be 3ad4 16bd 4a24 8ebe
000002f0: b1cd 34be 8a37 ba3e 04e9 ac3d f659 e6be
00000300: b2fa 603e 54ca cfbd 2db7 193d 4a1f 2d3d
00000310: bc87 09be 77a2 a43e e7b4 13be 3c05 ef3d
00000320: 894c 58be 4e69 afbd 9614 363e 473d 4e3e
00000330: 1668 05bd 557d 4b3e 5c62 2a3e 3582 eb3e
00000340: b72d 043f 517c 193e bdb6 74be 5878 a53d
00000350: 301f f3be 8cfb 5c3d 4fb2 ea3e ceaf d7bc
00000360: ff27 9dbe 9e3b beb8 2abe 973d 596b a73b
00000370: 89b5 5b3e 2316 823e 11b8 a9be 6723 ea3c
00000380: add4 93bd 88e5 673e 2d21 d33e 085d 2fbe
00000390: a999 3f3d 8006 833e 58f2 8c3e d0b5 743e
000003a0: ea54 7d3d 3beb 083f 2373 95be 390d 4cbe
000003b0: cfbe 64be 2129 8f3e bd60 6d3e eb4e bfbd
000003c0: 4901 f1bd d5a2 febd ab0f 99be ef67 833d
000003d0: 84aa a2be daaa 24bd 1337 babe e0fb 7b3e
000003e0: caca 973d 9162 6abe ccb6 143e 9c8f a8be
000003f0: 11d1 b03e 49fe ac3e a8bc d33e 4ba7 bd3d
0.14068995 -0.30729744 -0.22174962 -0.18830316 0.24851425 -0.3163079 -0.22737212 0.2490387
0.06561858 0.17216074 -0.3723376 -0.140733 -0.6814211 -0.026745562 0.06999396 -0.40802896
-0.23392543 -0.071598105 0.5299356 0.26507103 0.050641052 0.12067395 -0.012615501 -0.042719025
0.11761163 0.4458687 0.284848 0.266281 -0.37169984 0.09057446 0.16921085 0.08944725
0.2580947 0.4365332 -0.10746572 0.4254854 -0.20994261 0.15344545 -0.034121875 0.12961583
-0.099070124 -0.3255016 -0.18059112 0.098380096 -0.4202377 -0.15566808 -0.24097322 0.14154153
-0.13104326 0.15164138 -0.248397 -0.023587452 -0.05418865 0.2038344 -0.2917652 -0.17024894
-0.22013493 0.035356227 0.34382066 -0.11773224 0.0271256 -0.055007473 0.40722653 0.15484314
-0.25250986 -0.16781339 -0.03686762 0.17696875 -0.3151746 -0.124785855 -0.23690967 -0.2664679
-0.15923199 0.07840523 0.23594135 0.3350641 0.17891449 0.31038022 -0.24623597 -0.2807282
0.24651565 0.120249756 0.1575686 -0.30717763 -0.1201211 0.03867207 -0.15515679 -0.21473806
0.0020616872 0.16451502 0.25346297 0.25365427 0.20533876 0.2127862 0.36935934 0.10233895
-0.1440569 -0.06798603 -0.013987645 0.22479355 0.19308046 -0.08828779 0.19761112 -0.11775684
-0.018534208 -0.3298832 -0.3058316 -0.13700682 -0.10447862 -0.039132666 -0.2739154 0.0506613
0.32768968 0.20220369 -0.03270136 0.081758924 0.19461916 0.1859155 -0.11973453 -0.37527514
0.034520436 -0.010562982 0.23703602 -0.048475597 -0.23665975 -0.051030934 0.18370636 -0.24686342
-0.08438828 0.21159661 0.057828553 0.035066154 -0.112219326 0.10764424 0.2954984 0.47510752
-0.24963017 0.49522674 0.107037134 0.22316854 0.30765438 -0.11036227 -0.32216093 0.43001646
-0.4070223 0.09264014 0.2041772 0.15621313 -0.06462204 -0.16932161 -0.031452022 0.07811381
-0.12179846 -0.062485255 0.0150525 0.15561105 0.082567334 -0.17360924 -0.28046587 0.19735934
-0.054274388 0.11196261 -0.22570029 -0.23159876 0.29326138 0.32520744 -0.11453837 -0.12163927
-0.006773666 -0.0055328575 0.26545617 0.103791825 0.19184051 0.00045307976 -0.4308318 -0.17746133
0.40336436 0.29448986 -0.07971159 -0.19723248 0.23623697 -0.20731111 -0.015762357 -0.27684316
-0.13670708 -0.41586444 -0.03682349 -0.2776206 -0.1765659 0.36370498 0.08442882 -0.4499051
0.21970633 -0.10146013 0.037528206 0.042266168 -0.13430685 0.321552 -0.14424478 0.1167092
-0.21122946 -0.08565007 0.1778129 0.20140563 -0.032569967 0.19872029 0.16639084 0.45997778
0.51632255 0.14988829 -0.23897834 0.080795944 -0.47484732 0.05395083 0.45839164 -0.026328947
-0.30694577 -9.0710106e-05 0.07409318 0.0051092324 0.21455969 0.25407514 -0.33148244 0.028581334
-0.07218299 0.22646153 0.4123625 -0.17125332 0.0467774 0.25590897 0.27528644 0.23897481
0.06184856 0.53483933 -0.29189405 -0.19926919 -0.22338413 0.27961066 0.23181434 -0.09341224
-0.11767823 -0.124334015 -0.29894766 0.06416308 -0.31770718 -0.040202 -0.36370143 0.24607801
0.07411726 -0.22889163 0.14522856 -0.32922065 0.34534505 0.33787754 0.4135487 0.09260424

encoder.embed_x.weight f4 [28, 40]
00000000: c0e0 ca3e e4d7 0bc0 26f8 1a40 63ca adbf
00000010: 75cb 3ebf 7fd9 82bf fbb6 d53f 8714 cf3e
00000020: 6370 20bd f204 2fbf 995e 83bf 115e 9b3e
00000030: 0194 49bd 1906 fd3e 6713 bb3e 1e27 a13e
00000040: a116 cbbf 71a4 123e 564e 893c 0351 57bf
00000050: f0f2 673e 6a56 c6bf d1b9 4bbe e7a7 2cbf
00000060: 1b6f f23e 5fe5 c63e de27 9e3f 33ea fd3e
00000070: dbbe debe 98cd 853e adfa 40bf b9e3 253f
00000080: d606 1940 cc04 c13d 801d 453f e069 1a3f
00000090: ecdf 1f3f edd7 b4bd a58b 6fbd 1842 4fbf
000000a0: a622 363f cf83 b0be dc8e 70be 71f3 b6bf
000000b0: d260 f7be 30e7 6ebf 5951 ca3f a9a6 91bf
000000c0: 6ea1 483f ce8d 50bf 6e65 ba3f 9947 1f3f
000000d0: 59e2 efbe af54 e2bd f624 1cc0 b1a3 a9bf
000000e0: 7685 1c3f 48fc a53f 53fd 0cbf 9240 8fbf
000000f0: 7e19 913f 6ffa ccbf 5f4b 2f3f 93eb 73be
00000100: 12a3 433f 0be2 23be a02a c43f 6f9a a93e
00000110: ecdd 81be 5474 aa3f ec11 8cbf 6cca a4bf
00000120: e180 a03e 327f b3bf a91c f13f 31da 18bf
00000130: 5de6 883f c272 953f 8b60 0bc0 a795 453d
00000140: 5061 b73e f6a8 26bf ec8e aa3f d136 95bf
00000150: 21bb b43f 0cb4 3540 b135 c73f b9f6 2ec0
00000160: d708 9fbf 4e27 39bf 533b 8bbf 3e0e 45bd
00000170: ce35 a43f 0670 d93f f09f a5be 8520 b53f
00000180: 3fd3 ae3f 870b 813f 258b 88bf 6c8e 4bbd
00000190: 2dd2 3e3f 77b8 3ebf 9a25 9fbd 9593 003d
000001a0: 302b 483e 2844 8abd f0f3 3dbf cf51 2240
000001b0: ab70 0140 d6a1 98bf 43d3 8a3f a928 c43f
000001c0: 65b1 4a3f 6257 0cc0 3726 273f 0d84 06c0
000001d0: 9b54 98be 785c cfbf 2695 f9be cbbc 9d3f
000001e0: 3c67 cfbd ff35 813f cce0 62bf 6baa 4c3f
000001f0: 82e3 b2be b6ed 973f caa7 c13f 57ce 143f
00000200: d9e1 473f 9785 20bf b003 ed3f c458 913e
00000210: db14 513f d5eb ca3e f8dc d53f dc8f 383f
00000220: 2a58 88bf 9d75 2d3f 10e1 0ec0 ed1f 56bf
00000230: 6cbc fe3f b2a7 4cbd 269d 52bf b490 79bf
00000240: e983 b73f c0df 193e 13be a2be 39e9 493d
00000250: 3766 dcbe 03bc 8c3f 70a0 a73f 3d6b a33d
00000260: e724 75bf 6a2e f3be 866a af3e eee8 8abf
00000270: 0266 233f 09bd 9a3f f66f d6bf c032 83bf
00000280: b63b 7ebd 6666 553f 7718 353f 6c10 313f
00000290: 9727 f8bf 9969 d2be b417 b93d e3d4 1bc0
000002a0: 1695 ecbe d404 57be 33d1 163f 78cc b43e
000002b0: 6168 f13f 1b46 c03e c6c3 403f fc73 1340
000002c0: 6fae 58bf 197e 093f 3220 263e c956 b7be
000002d0: d8a1 fa3f 304c 9dbf df93 d63f 42fb 973f
000002e0: 6b7e f4be 32f5 8cbf 4f7e b5bf 1bca 04bf
000002f0: 46fb d03e 61c8 163f a886 153f 5ec7 0fbf
00000300: d94d fbbf f65f df3f fedd ff3f 6251 853f
00000310: b1a4 c53f b5bb 463f 679e c3bf e7b2 18c0
00000320: 8fab 273f 251d 6bbd 35b1 a4be 3c51 aebe
00000330: 22c6 50bf 3dd2 b3be e06b babf 39c9 ea3e
00000340: 6974 4dbf dd5d a4bf d9b6 5e3e 659f fabb
00000350: 7422 d63e 6cfc 55bf 3eb3 9a3d 5b6f 82be
00000360: ec71 f83e 8ce2 eebf d688 793e 2809 73bf
00000370: 11ba 4e3d 62ff b7be a14b 353f e4dd 57c0
00000380: bb6c 1240 4bf3 39c0 21ba e6bf 01fe c2bf
00000390: 57f5 73bf 43ff afbd afed 74bf 3b5f 72be
000003a0: 1fd6 1540 4d0b 0dbd 2ef7 bd3f 4e2c a9be
000003b0: 4b5c c43f 697f 24bd 0d0d f73f 8ece e5be
000003c0: 4593 23bf 4baf b0bf d785 f0bd 4e4f bc3f
000003d0: 3c3d 443f 843e ccbe b2e2 d7bf e5f1 06bf
000003e0: b6e5 0e3f 64c8 a4bf d58d 4640 322f 9f3d
000003f0: 4763 563e 67f0 f53f f3f0 bb3f 2d9d eb3f
0.39624596 -2.185052 2.4213958 -1.3577389 -0.745292 -1.0222625 1.6696466 0.4044535
-0.03916968 -0.6836692 -1.0263244 0.30345204 -0.049213413 0.49418715 0.3653824 0.31475157
-1.5866281 0.14320542 0.016760986 -0.8410799 0.22651267 -1.5495121 -0.19895102 -0.674437
0.47350392 0.3884687 1.2355917 0.49592742 -0.43504986 0.26133418 -0.753825 0.648006
2.3910422 0.09424743 0.7699814 0.603178 0.6245105 -0.08830247 -0.058482785 -0.80960226
0.7114662 -0.34475562 -0.23491997 -1.4293042 -0.48316056 -0.93321514 1.5806075 -1.1378986
0.7837132 -0.81466377 1.4562204 0.62218624 -0.46852377 -0.11051308 -2.439756 -1.325308
0.61141145 1.2967615 -0.5507404 -1.119158 1.1335905 -1.6013926 0.6847438 -0.23820333
0.764207 -0.16004197 1.5325508 0.33125636 -0.25364625 1.331675 -1.0942969 -1.2874274
0.31348327 -1.4023192 1.8836871 -0.59707934 1.0695301 1.1675646 -2.1777675 0.048238423
0.3581643 -0.65101564 1.3324866 -1.1657354 1.4119607 2.8391142 1.556326 -2.7338088
-1.2424573 -0.723256 -1.0877479 -0.048109286 1.282892 1.6987312 -0.32348585 1.4150549
1.3658217 1.0081643 -1.0667464 -0.04969637 0.7453945 -0.7450022 -0.07770844 0.031390745
0.19547725 -0.06751281 -0.74200344 2.5362432 2.0225017 -1.1924388 1.0845722 1.5324908
0.7917693 -2.1928334 0.65292686 -2.1018097 -0.2975205 -1.6200094 -0.48746604 1.232324
-0.10127112 1.0094603 -0.8862426 0.7994754 -0.349392 1.1869419 1.512933 0.5812735
0.7807899 -0.6270384 1.851675 0.28388035 0.8167245 0.3963305 1.6708059 0.7209451
-1.0651906 0.6775759 -2.2324867 -0.83642465 1.9901252 -0.049964614 -0.8227104 -0.97486424
1.4337131 0.1502676 -0.3178564 0.049294684 -0.43046734 1.0994877 1.3095837 0.079794385
-0.95759434 -0.4749635 0.34260958 -1.0852334 0.63827527 1.2088939 -1.6752918 -1.0249863
-0.062068664 0.8335937 0.70740455 0.6916568 -1.9387082 -0.4109619 0.09037724 -2.4348686
-0.46207494 -0.20997936 0.5891296 0.35312247 1.8859979 0.37553486 0.75298727 2.3039541
-0.84641165 0.53708035 0.16223219 -0.358084 1.9580641 -1.2288876 1.6763877 1.1873553
-0.477527 -1.1012328 -1.4179171 -0.5187089 0.40816706 0.58899504 0.58408594 -0.56163585
-1.9633132 1.745116 1.9989622 1.0415461 1.5440885 0.7763017 -1.5282716 -2.3859193
0.6549615 -0.05740084 -0.32166448 -0.34046352 -0.81552327 -0.35121337 -1.4564171 0.45856646
-0.8025575 -1.2841145 0.21749438 -0.007648396 0.4182316 -0.8358829 0.07553719 -0.25475582
0.48524415 -1.8662887 0.24368605 -0.94935846 0.050470416 -0.3593703 0.70818526 -3.3729181
2.2878864 -2.9054744 -1.8025552 -1.5233766 -0.95296234 -0.08593609 -0.95675176 -0.2366914
2.341194 -0.034434605 1.4841058 -0.33041614 1.5340666 -0.04016057 1.9300858 -0.4488415
-0.6389659 -1.3803495 -0.11744278 1.4711702 0.76655936 -0.39891446 -1.6866057 -0.5271285
0.5581926 -1.2873654 3.1024067 0.07772674 0.20936309 1.921399 1.4682907 1.8407341

encoder.conv_mu.bias f4 [20]
00000000: fca1 233b d520 ce3d f703 84be 9ab2 c23d
00000010: 96cb 0a3e 0b48 833e a44d bdbe 6238 1d3e
00000020: 8e49 213e 9419 57bd 83ce 113c 2a10 15be
00000030: ac5d 8c3e 1af6 bb3c e256 563d 5c69 a2bc
00000040: 526c b9bd c2fe 34be 7370 37be 9362 38be
0.0024968376 0.10064856 -0.25784275 0.09506722 0.13554224 0.25640902 -0.36973298 0.1535354
0.15750715 -0.052514628 0.008899334 -0.14556947 0.27415216 0.022944499 0.05232895 -0.01982563
-0.090538636 -0.17675307 -0.1791399 -0.18006353

encoder.conv_mu.lin.weight f4 [20, 20]
00000000: 6ef4 63be 96a5 9abe 0812 a3be c347 cdbc
00000010: 2280 883c cf23 4b3e 61d1 fc3d 91f4 993e
00000020: a5d4 9cbe 2df2 463f 9b12 383e 2f7c 0fbe
00000030: 555d 113e 4ff0 4cbf c506 37bd 3a6a 803e
00000040: a97b a7be ae71 363c 68e3 7c3e 648a 783d
00000050: 926d 113e dd8f 2bbc a1a4 14be 6c17 f83d
00000060: 0e1f e5bb c8ba 743e e619 673e 58dc 0dbe
00000070: 8632 213d f6cb 95bd aaa9 95bd 0e91 c23e
00000080: 7916 7bbe 8638 ed3e a551 0dbe a2f9 84bd
00000090: f429 b13e 3563 69be 0737 06be 9ec9 823e
000000a0: a19b d4be 4c58 e5be 0985 bcbe 2b17 783e
000000b0: 852e 9cbe 9fd2 953e 5d0a 1f3e f050 bc3e
000000c0: 8ab7 163e 92a4 f33c 0c8d a93e 9002 3a3d
000000d0: 5a31 71be 8369 eebd 04d8 0dbe 29ef 8fbe
000000e0: b5f2 8e3e 5315 d8be ec6e d23d 9bea 123e
000000f0: a0b1 0a3d cf90 99be ff9e 5cbe 77a1 5f3e
00000100: e8eb aabe 5b1c 99be 7ec9 bfbe 8a87 10be
00000110: 8e47 6f3e 17bf c13d e872 863e 26e1 293f
00000120: 36ea afbe 7b73 a7be ce5c 81be 76f3 e8be
00000130: f59b 0f3f 06dd f2be c724 bd3e c516 393f
00000140: 3d21 923e c0fd 24bb 2ca7 42be 5c38 55be
00000150: f412 933c a6b5 0dbe a35d 8ebe ea49 62be
00000160: b6db 5b3b 1cca 413e 6f27 24be e2dd 61be
00000170: 4b85 8fbe 91a0 89bd 014b e73d dc77 eebe
00000180: 4254 d63e 41c4 cb3e 7886 b43e 29dc b6be
00000190: deb9 afbe 1839 203f 4d8e 3bbe e22c 9cbd
000001a0: ca3b b33d afd3 3f3f b447 e73e e4fe 383d
000001b0: f6cb cd3d 1600 80be 1f92 a1be 0699 2bbf
000001c0: 8206 433e c940 fa3a 2df7 1fbf 31dd 3a3f
000001d0: b4ce f33d 2e31 aa3d c7c1 2cbe 3c5b 83be
000001e0: 0ed3 303d bbcb e7bd c687 a6be 0b47 8b3e
000001f0: 451e 993e 14ed 55bd 4ef5 74be 9c70 9bbe
00000200: d5bb a2bd 76f5 a53e 540d 303d 199b c1be
00000210: e87a 163f 2e55 133f b99e c63c 51da f9bd
00000220: ad9a be3e 31ba 33bf c4d3 423e a897 cd3e
00000230: 4c42 483e 48b9 66be c8f9 62bd 8e9e 51be
00000240: 7829 6bbe bec6 063e 7260 4cbe 8c32 f83b
00000250: ded1 513d 9c8f cb3e 23ad a0bb 910d fbbd
00000260: eb6e d5be b023 46be ab78 1dbe b803 2dbe
00000270: cd5a be3d c6f9 223f 3593 943e 026f 12bf
00000280: db2d ae3e abff 3e3f b85b b7bb 4af5 ddbc
00000290: 332a c33c 4b91 1ebf 256b e83e 08aa 94be
000002a0: 110e 89be 651a f7be b16c 45bd ce2c 47bd
000002b0: e696 043e 7152 9d3b 8942 b0be fccb ecbd
000002c0: 3dd8 463e 0ee8 d33e 1615 8c3d df44 29bf
000002d0: 3dc6 88be 7c0c 0d3e ecba 263e bc54 c5be
000002e0: ef60 26bf 7a56 2fbe 2d6c 81be b73d f23e
000002f0: cd0f b83e 8495 d03d cc12 55be 4cc3 69be
00000300: c08c 083f 2a7f b43e c9a7 e0be b6be cbbd
00000310: cd85 1c3d e129 6fbf edba a03d a7ee 673f
00000320: 7e3f 05bf 6abd b53e 7172 f83e 4422 31be
00000330: 21a9 f8be 898e ee3e 93d6 5bbc a1e7 82be
00000340: 74c1 96be ae2e acbe cb24 74bd 4f98 64be
00000350: 039a de3e 582d 313f 5516 d63d 5ec9 2ebd
00000360: 8842 97be 3cbc 4a3e 6fd3 f4bc a5ed bfbe
00000370: e9e5 f13e 5283 0e3e 33d6 e9bd f72f 833e
00000380: 796c 1d3e fec5 203e 0343 90bc 7b82 8dbe
00000390: cdad 48be cba6 143e a320 be3e faeb 8bbe
000003a0: c832 033e f6f8 e6be 0601 06be 1ce6 913c
000003b0: a798 37be b20d 09be 28b3 0b3e 0289 bd3e
000003c0: 8cb8 0abf e8ad a03e ce9f 4fbe 2054 653e
000003d0: aee8 73bd 586a 5f3e 89d6 d53e 1fc8 e0bd
000003e0: 659e fc3d 4465 6fbe 779e a7bd 80f6 3b3c
000003f0: f504 0ebf a9e4 60be 630b 073e 2eab d53e
-0.22261211 -0.30204457 -0.31849694 -0.025058633 0.016662661 0.19837879 0.12344623 0.30069402
-0.30630985 0.7771328 0.17975847 -0.14012216 0.1419576 -0.8005418 -0.04468419 0.25081044
-0.32711533 0.011135502 0.24696124 0.060678855 0.14201954 -0.010471311 -0.14515926 0.12113842
-0.0069922274 0.23899376 0.22568473 -0.13853586 0.039354824 -0.07314293 -0.073077515 0.38001293
-0.24520291 0.46332186 -0.13800676 -0.06492926 0.3460232 -0.2279175 -0.13106929 0.25544447
-0.41524985 -0.44793928 -0.36820248 0.24227588 -0.30504242 0.29262254 0.15531297 0.367805
0.14718452 0.02974156 0.33115423 0.0454126 -0.23553982 -0.116412185 -0.13851935 -0.28112152
0.27919546 -0.4220377 0.10275063 0.14347307 0.033860803 -0.29993293 -0.21545027 0.21838938
-0.33383107 -0.29904446 -0.37458414 -0.14114204 0.2336714 0.094602756 0.26259542 0.66359174
-0.34358376 -0.32705292 -0.25266117 -0.45498246 0.56097347 -0.47434253 0.3694212 0.7230037
0.28540984 -0.002517566 -0.19009084 -0.2082228 0.017953373 -0.13838825 -0.27805814 -0.22098508
0.0033547706 0.18924755 -0.16030668 -0.22057298 -0.28031382 -0.06720079 0.11293603 -0.4657582
0.4186116 0.39798167 0.35258842 -0.35714844 -0.34321493 0.6258712 -0.18316002 -0.07625748
0.08751638 0.7493238 0.45171893 0.045164958 0.10048668 -0.25000066 -0.31556794 -0.6703037
0.19045451 0.0019092794 -0.62486535 0.7299376 0.1190466 0.083101615 -0.16870795 -0.25655544
0.043170027 -0.113181554 -0.32525462 0.2720264 0.29905906 -0.05222805 -0.23921701 -0.30359352
-0.07945982 0.32413834 0.04298146 -0.37813643 0.5878129 0.5755185 0.024245607 -0.12199844
0.37227383 -0.7020598 0.19026095 0.40154767 0.1955654 -0.22531617 -0.05541399 -0.2047064
-0.22965038 0.13161752 -0.19958666 0.007574385 0.051225536 0.39758003 -0.004903452 -0.12258447
-0.41686186 -0.19349551 -0.15378062 -0.1689595 0.092946626 0.63662374 0.2901856 -0.57200634
0.3401936 0.7460887 -0.0055956505 -0.027094502 0.023823833 -0.6194045 0.45394245 -0.29035974
-0.26768544 -0.48262325 -0.04819936 -0.048626713 0.12948188 0.0048010875 -0.34425762 -0.115623444
0.19418426 0.4138798 0.06839959 -0.66120714 -0.26713744 0.13774294 0.16282243 -0.3854121
-0.6499166 -0.17122832 -0.25277844 0.4731271 0.35949555 0.10184768 -0.20807952 -0.22828406
0.5333977 0.35253268 -0.4387801 -0.099484846 0.03821354 -0.9342328 0.07848153 0.9059853
-0.52050006 0.35496074 0.48524812 -0.17298228 -0.48566535 0.4659312 -0.013417858 -0.25567344
-0.29444468 -0.33629364 -0.0596054 -0.22323726 0.43476877 0.69209814 0.10453478 -0.042672507
-0.29542947 0.19798368 -0.029885976 -0.37485996 0.4724572 0.13917282 -0.114178084 0.25622532
0.1537341 0.15700528 -0.017610079 -0.2763861 -0.1959755 0.14516751 0.37134275 -0.27328473
0.1281234 -0.45111817 -0.13086328 0.01780992 -0.17929326 -0.1338413 0.13642561 0.3701859
-0.54187846 0.3138268 -0.20275804 0.22395372 -0.059548073 0.2181791 0.4176524 -0.1097567
0.12334899 -0.23378474 -0.08184522 0.011472344 -0.55476314 -0.21962227 0.13187937 0.41732162

encoder.conv_logstd.bias f4 [20]
00000000: f68d 90be 12d9 a1be 729d a8be ef23 2cbe
00000010: ad01 31be f450 eabe b28c 02bf e192 72be
00000020: d07a a0be 1310 abbe f0a8 88be fb90 dcbe
00000030: fef5 f4be 13b2 c7be 3604 91be 6e19 55be
00000040: fb6c a0be 504a a5be c7db b1be 181e b9be
-0.28233308 -0.31610924 -0.3293262 -0.16810583 -0.17285796 -0.45764887 -0.50995934 -0.23688842
-0.31343699 -0.334107 -0.2669139 -0.4307936 -0.47843927 -0.39003047 -0.28323525 -0.20810482
-0.31333145 -0.32283258 -0.3473799 -0.36155772

encoder.conv_logstd.lin.weight f4 [20, 20]
00000000: b485 bc3d 16ec 3fbe a2e0 31bd 6d09 9fbe
00000010: 2339 4bbe 993c 83be 46ea 32bd c065 34be
00000020: 7f06 173e c72b b1bd 7c44 3dbe e25b 18bf
00000030: a694 b23d 9918 c23e 74b4 eb3d 03bd 09be
00000040: a49d dabd f608 93bd 07bf 96be 6cb1 1d3d
00000050: 4bc4 813e 4e4a 6abe d1f7 cebe 3d18 313e
00000060: 6dee 26bc 6171 e8be f24f 25be 2dfe 7f3d
00000070: 7c49 c9bd ef00 e63d 0cab 95be 4af0 82bd
00000080: 324a 103d 3446 b3bb 047e 3ebe b45d 2fbe
00000090: 0b87 56be 2387 56bd a15d 50be cd77 1b3e
000000a0: 47e1 fe3d cf24 1bbe 952c 50be 6762 dabd
000000b0: c57b b5bd 0956 7ebe 62d2 aabd bc73 6dbe
000000c0: b59a db3d 1cc5 193e f0d7 033d 00eb 8bbe
000000d0: 6138 533e 42e6 9fbd fe39 f8bd d687 9cbe
000000e0: cbdf acbe 73f5 543e 9082 91be 910d aebd
000000f0: b662 a1bc 9f54 d43c b971 67be 1014 81be
00000100: 4718 d3bb 242c aebc fa3a 12be 578a a8be
00000110: 32f3 b1be 8a4a 373e 32ab 853d 1c15 34be
00000120: 1b38 363e 4659 213d 5c6a 533e 9b82 5c3e
00000130: a34e 96be 0133 01be 49e6 abbe 2875 ae3d
00000140: f0c5 cd3d ed80 d2bc c952 b9be 2b0c 24be
00000150: a87c 86bc 91a5 3abe 0bba 26be be7f 05be
00000160: 687b c93c 016d c83d fd66 a3bd ebf7 8ebd
00000170: 2eda 173d 1a08 073e a7da ce3d bbf2 6b3d
00000180: 0be0 1cbe c1dd bfbd 6e07 b5be f9fc 673d
00000190: ab85 c53c 6133 e6bd 37f4 89be 2728 03be
000001a0: 80c5 62bd 62ba 16be ee82 97be 382b 72be
000001b0: 137a 9a3e 2718 0d3e 99a5 a63d e3a4 a2bd
000001c0: d15d 783d 8d8b 2cbd 7c44 47be d49e d4bd
000001d0: 069a a9bd 5486 f3bd d4eb a5be f028 163e
000001e0: ba4d b13e 0a84 99be 5be4 dabe ae60 80bd
000001f0: 22e6 a2bd 4bdf c6be 5f3e 58be 1a2b 07bc
00000200: 54c8 b33d 94c2 583e 86d3 e5bd 200f 31bd
00000210: 45f9 55be 5975 f5bd f3fc 30be b924 2a3d
00000220: 6e16 2cbe 8464 b1bc 7fe7 89be 2feb c93d
00000230: ae15 2b3e 4313 a7bd 3d39 99be 5db0 f3bd
00000240: f4d9 f2bd abe3 9fbe f20c 05bc d9bd 10bd
00000250: 8721 ca3d 0987 053e b0c8 60be c245 71be
00000260: b268 403e ba58 3ebc a0ef 85bc 8f43 71be
00000270: 4ca8 9abe 16b0 3c3e f420 2bbe c28d f8bd
00000280: 98ae 063e 5bb0 fbbd f1a3 3abe 3d22 aebe
00000290: 18b4 17bc 951a 67bd c8ef 91be 861b 53be
000002a0: 4274 5fbe ac48 97ba a3ee 10bd 7629 23be
000002b0: 66b3 b1be d965 333e 19c6 f93d 9034 9d3e
000002c0: f912 13bb 60a9 a2bc 936f c2be 6b7b a0bd
000002d0: 1940 8d3d 5bdf 40be 6d36 b23d 5884 793d
000002e0: be2e 4d3d 03fa 2abe 975a 53be 3bd2 9fbe
000002f0: 2dd9 56be 6e5d 0cbd 6da2 d63d 7c31 0fbe
00000300: ef0a 0c3c 2023 96bb 7c58 c7be 8c2e 6d3e
00000310: fc76 86be 9ad3 57bd d04d b6be fc7b 983d
00000320: 5b00 3dbe 48b3 de3d 35bc c63d 9c0b 51be
00000330: 220b 8cbc 97b6 083e 8262 6abe a2fe edbe
00000340: 8efb 523e adf7 2fbe da16 2e3e 21b4 69be
00000350: 1883 d33d 6247 3b3e 90c1 5cbe 9fd0 b63d
00000360: 38cf 7dbc bfee f63b d008 a4be 77cf fcbc
00000370: d7ba 4a3d 2b08 1fbe 09f9 e0be 64d5 1b3d
00000380: f863 213c b6f3 99be 0cbc a0be 88d5 33bd
00000390: f906 57bd 61c3 57bd 3d8a 95be 6145 01be
000003a0: 203b 903d 566f 703d 7b5e a23d 1e44 0a3e
000003b0: 8578 debe 09ee 44be 18ed f7be 8765 5d3e
000003c0: 3f44 663d 3869 bfbd 02cb bcbd 7032 90bd
000003d0: f05e 513d 038c b7bd 71f5 70be 6a24 b8be
000003e0: 338a 8abd 77a7 1e3d e4fd 5d3e a441 e8bd
000003f0: 2cd4 b5bd 67a5 ebbd 0eb4 9ebe 7e96 403e
0.09205189 -0.18742403 -0.043427117 -0.3106188 -0.19846015 -0.2563217 -0.04368045 -0.1761694
0.14748572 -0.08650928 -0.18483156 -0.595152 0.08719759 0.37909392 0.11509028 -0.13451008
-0.10674599 -0.071794435 -0.29442617 0.03849928 0.25345072 -0.22879907 -0.40423444 0.17294402
-0.010188681 -0.45399 -0.16143778 0.06249826 -0.09828469 0.11230647 -0.2923206 -0.06393488
0.03522701 -0.0054710153 -0.18602759 -0.17125589 -0.20949952 -0.05237497 -0.20348217 0.15182419
0.12445312 -0.1515076 -0.20329507 -0.106633 -0.08861498 -0.24837507 -0.083409086 -0.2318868
0.107228674 0.15016598 0.032188356 -0.27327728 0.20626976 -0.0780759 -0.12120436 -0.30572385
-0.3376449 0.20796756 -0.28419924 -0.08498681 -0.01970039 0.025919257 -0.22601976 -0.2521062
-0.006442103 -0.021261282 -0.1428031 -0.32918045 -0.34755856 0.17899528 0.065267935 -0.17586178
0.1779484 0.03939178 0.20646042 0.21534197 -0.2935687 -0.12617113 -0.3357413 0.085184395
0.10047519 -0.025696242 -0.36195973 -0.16020267 -0.016416863 -0.18227221 -0.16281907 -0.13037011
0.024594977 0.09786416 -0.07978628 -0.0698088 0.037073307 0.13186684 0.101002984 0.057604533
-0.1531984 -0.09368468 -0.3535723 0.056637738 0.02411159 -0.112402685 -0.26944134 -0.12808286
-0.055364132 -0.14719537 -0.2959208 -0.23649299 0.3017126 0.13778745 0.08137054 -0.07941606
0.060636345 -0.042125273 -0.19459718 -0.103818566 -0.08281331 -0.118908554 -0.32406485 0.14664054
0.34629613 -0.2998355 -0.42752346 -0.0626844 -0.079540506 -0.38842234 -0.21117543 -0.008250022
0.08778444 0.21167976 -0.112219855 -0.043227315 -0.2089587 -0.11985273 -0.17283992 0.041538928
-0.16805431 -0.021654375 -0.2693443 0.09859311 0.16707489 -0.08157971 -0.29926482 -0.11898873
-0.118579775 -0.31228384 -0.008120762 -0.035337303 0.09869676 0.13039793 -0.21951556 -0.23561767
0.18789938 -0.011617834 -0.016349614 -0.23560928 -0.30206525 0.18426546 -0.1671179 -0.12136413
0.1315254 -0.122894965 -0.18226601 -0.34010497 -0.009259246 -0.056421835 -0.2850325 -0.20615968
-0.21821693 -0.0011542044 -0.03538383 -0.15933785 -0.34707183 0.1751932 0.12195987 0.30704165
-0.0022441729 -0.019856155 -0.3797575 -0.0783604 0.06896991 -0.18835203 0.08701787 0.06091723
0.050093405 -0.16696934 -0.20640026 -0.3121508 -0.20981283 -0.03426879 0.10480199 -0.1398372
0.008547529 -0.004581824 -0.38934696 0.23162287 -0.26262653 -0.052692033 -0.3560624 0.07445523
-0.18457167 0.10874039 0.097038664 -0.20414585 -0.017095152 0.13350902 -0.2288914 -0.46483332
0.20603773 -0.17184325 0.17000905 -0.2282262 0.103277385 0.18288949 -0.21558213 0.0892651
-0.015491299 0.007535785 -0.32037973 -0.030860646 0.04949459 -0.1553046 -0.4394 0.038045302
0.009850495 -0.3006875 -0.31393468 -0.04390481 -0.052496884 -0.052676562 -0.2920703 -0.12624122
0.07042527 0.05869993 0.07928177 0.13502547 -0.43451324 -0.19231428 -0.48423076 0.21620761
0.05621743 -0.09346241 -0.09218408 -0.0704087 0.05111593 -0.08962252 -0.23531128 -0.35965282
-0.06764641 0.038733926 0.21678883 -0.11340645 -0.08878359 -0.11506157 -0.30996746 0.18807408
