results/model_GCN/graph_split_/layers_2/transform_True/alpha_0.5/model.pt (torch, 22442 bytes, 11 tensors)

encoder.conv.convs.0.bias f4 [40]
000000 40 6b 78 bc 03 12 0f bd 64 b3 f6 3d 1e e9 09 bd
       -0.015162289 -0.034929287 0.12045935 -0.033669583
000010 4c c8 70 3c 7c f5 60 bd 91 58 6d bd 61 78 f4 3c
       0.014696192 -0.054921612 -0.05794579 0.029842557
000020 84 eb ba 3c b7 86 17 bd 8f 7c e9 bc 5f 5a af bd
       0.02281738 -0.03699371 -0.028501777 -0.08562159
000030 7f f6 44 bd 16 27 28 3d 21 05 87 3c f8 86 22 bd
       -0.04808664 0.0410529 0.016481938 -0.039679497
000040 29 5b 02 bb 26 f2 08 3e 3f b2 f9 3c 7d c1 1c 3c
       -0.0019890761 0.13373622 0.030480502 0.009567616
000050 c7 a8 d9 3d bb fc a4 bd 2b 5d 8c 3d 15 c9 2d bd
       0.10627895 -0.08056017 0.06853708 -0.042428095
000060 7a 39 9f bd b5 39 bd 3d 20 1e a3 3d 45 3a bd bc
       -0.07774635 0.09239522 0.0796473 -0.023099074
000070 43 13 dc 3d 2a b6 72 bd 0c 85 5c bd 78 34 b1 bc
       0.107458614 -0.059255756 -0.05383782 -0.021631464
000080 1c 88 60 bd 03 0b 80 bd 73 b4 17 bd 73 36 b7 bc
       -0.054817304 -0.062521 -0.037037324 -0.02236483
000090 3b 8d 3e bb 56 13 33 3d a6 7d 7d 3c cd 05 d5 3c
       -0.002907588 0.043719612 0.015471851 0.026003743

encoder.conv.convs.0.lin.weight f4 [40, 40]
000000 05 9a 06 3e 7b 73 d7 3d 6e 18 24 3e f8 86 9c bc
       0.13144691 0.10520073 0.16024944 -0.019107327
000010 0b 10 0d 3e 82 73 86 3d 3a dd f5 3d 4c 65 3f 3c
       0.13775651 0.06565 0.12005086 0.011681866
000020 b2 5f 65 3e 57 0b 5d 3e 53 ec 87 be 62 ee 51 be
       0.22399786 0.21586357 -0.2654749 -0.20501092
000030 17 28 75 3e a2 d3 04 3c ef a9 02 be ed 76 89 be
       0.23941074 0.008107098 -0.12760137 -0.26848546
000040 e3 ca 10 3d 5b c3 23 3c c9 80 49 be 84 16 17 bd
       0.035349738 0.009995307 -0.19678034 -0.036886707
000050 f6 87 15 3e 4d 65 90 3e 54 f6 5c 3d 3d e3 38 be
       0.14602646 0.28202286 0.053945854 -0.18055435
000060 73 5f be bc fb fa c2 3d 79 ef 10 3e 01 48 b2 be
       -0.023238873 0.09520527 0.14153852 -0.3482056
000070 25 ba 8d bc 83 22 0b 3e 74 c3 57 3e b2 b2 11 3d
       -0.017300675 0.13587384 0.21070653 0.035570808
000080 df 3e c7 3d d8 5d 4f 3e d1 9b af 3c ad 19 58 3e
       0.097287886 0.20250642 0.021436604 0.21103545
000090 a3 16 4c bd e7 f2 32 3d c4 e4 b2 be f4 a9 88 be
       -0.049826276 0.04368868 -0.3494016 -0.26692164
0000a0 f8 a4 4b bd 8b 3f eb bd dd 2f ab 3c ba 76 20 be
       -0.049717873 -0.11486729 0.020896846 -0.1567029
0000b0 fe 13 2a bf 44 dc 6e be a6 ff e8 3d 60 0e 4f bd
       -0.66436756 -0.23326212 0.11376886 -0.05055082
0000c0 99 c4 49 3e 49 2b 58 3e 4f 06 83 be 47 9e 8a 3d
       0.19703902 0.21110262 -0.2559075 0.0676847
0000d0 05 bb 59 3e 32 6a 23 be c4 bb 89 3e 42 45 e0 be
       0.21262749 -0.15958479 0.26901066 -0.4380284
0000e0 05 12 95 3d 0d 09 be be 59 d0 06 bd 06 0d f0 bd
       0.072788276 -0.3711628 -0.03291354 -0.11721234
0000f0 a3 65 c6 3b 7e e6 29 3e e7 4c 01 3e 92 b0 57 bd
       0.0060545965 0.16591832 0.12626992 -0.052658625
000100 e4 9e 7c 3e b4 b7 b6 be 50 c9 82 3d fb fd 98 3e
       0.24669987 -0.3568703 0.063860536 0.29881272
000110 cc 41 a9 bd 5a dd 4b 3e 76 93 74 3e e2 4d 64 bb
       -0.08264503 0.19908658 0.23884377 -0.003483646
000120 2c 2b a2 3e 29 21 0a 3e 90 48 1b 3e 8d 66 94 bd
       0.31673563 0.13489212 0.15164399 -0.072461225
000130 7f 61 5e 3a 2f 3f be be 09 00 fe 3d b8 71 8f 3c
       0.0008483156 -0.3715758 0.124023505 0.01751028
000140 69 c3 1f 3e d5 62 fa bc dc c4 a7 be 4f 25 4d 3e
       0.15601887 -0.030564705 -0.3276738 0.20033763
000150 24 40 a8 be fd 77 b8 be 6f cc ae 3d 54 61 59 bd
       -0.32861435 -0.36029044 0.08535086 -0.053071335
000160 cd e8 6a 3e 6e 75 3b 3e 5b 27 78 3e c9 c6 4d 3e
       0.22940369 0.18306515 0.24233763 0.20095362
000170 69 41 87 be d3 50 ed bc 3c 85 02 3e ff 66 fd 3d
       -0.2641709 -0.028969204 0.12746137 0.123731606
000180 a0 00 87 3e 02 24 41 be 5c b6 b6 be db 46 a3 bd
       0.26367664 -0.18861392 -0.35686004 -0.07972499
000190 e0 58 81 3c 8f 67 81 3c 8d 81 22 3c 12 81 92 3d
       0.01578945 0.01579645 0.009918583 0.071535245
0001a0 06 03 29 3d 66 12 a3 3c b8 44 cb bd 9b 3a ab 3d
       0.04126265 0.019906234 -0.099252164 0.083607875
0001b0 45 1f 13 be e3 41 bd be 65 31 1d be 7c 20 af be
       -0.14367397 -0.3696433 -0.15350874 -0.3420447
0001c0 51 94 ad 3e 75 3c a0 bd ca 7d 8b be 3d 74 48 be
       0.3390222 -0.07824031 -0.27244407 -0.19575591
0001d0 ce 48 55 be 99 3f 82 bd 66 04 8e 3e 2d 21 3e be
       -0.20828554 -0.063597865 0.2773773 -0.18567343
0001e0 9d b1 dd bd 4a 41 77 be 60 9d 83 be 2d 67 32 be
       -0.10824893 -0.24146 -0.25706005 -0.17422171
0001f0 a3 40 f1 3d 2a e7 70 3e 2d 19 60 bd 84 85 9f be
       0.117799066 0.23525682 -0.05471151 -0.31156552
000200 db 1d 89 bb 13 24 08 3d da 09 d6 be e4 3c c1 be
       -0.0041844673 0.033237528 -0.4180439 -0.37741768
000210 3c fa 9c bd 4f 80 22 3e 91 a1 a7 be f6 bf ae bc
       -0.07664916 0.15869258 -0.32740453 -0.021331768
000220 46 67 73 3e 17 6a 66 3e e0 de 04 be f5 76 5d 3e
       0.23769864 0.22501408 -0.12975645 0.2162741
000230 4e 6d 5a bd b4 76 30 be 70 d7 67 be 7d 0e 89 be
       -0.053326897 -0.17232782 -0.22640777 -0.26768866
000240 98 45 46 3e 5f 53 4d be 9d cd e5 bd 7b d7 2b be
       0.19362485 -0.20051335 -0.11220858 -0.16781418
000250 63 8e 08 be c3 de e1 3d 7c e0 c0 bb cb 96 81 be
       -0.13335566 0.110288166 -0.0058861356 -0.25310358
000260 08 fb 60 3e b4 37 84 bd a6 0f 79 3e 5a d7 29 be
       0.21970761 -0.06455937 0.24322376 -0.16586056
000270 0e 41 1c be 44 ff d5 bd b3 30 b6 3d 22 6a 04 bc
       -0.15259191 -0.10449079 0.088960074 -0.008081945
000280 40 06 c0 3d 35 3a 16 3e 00 f4 92 be 86 92 48 be
       0.09376192 0.14670642 -0.28701782 -0.19587144
000290 1c b0 a8 3e 1f d0 9e bd 65 8a 4c 39 6d 81 ab bd
       0.3294686 -0.0775454 0.00019506512 -0.083742954
0002a0 35 12 63 be 32 eb 70 3c 74 15 19 3e 05 cc b7 be
       -0.22174914 0.014704512 0.1494959 -0.35897842
0002b0 5e ec 9f be a6 59 d4 bb 9f 2d 95 be 66 20 7b 3e
       -0.3123502 -0.0064804135 -0.2913637 0.24524078
0002c0 4c 7a 51 be 46 0d d5 bd d7 6a 9f be b6 95 07 be
       -0.20456809 -0.10402922 -0.311362 -0.13240704
0002d0 80 bc ab be b0 04 9a bd 76 a2 df bd b9 3c 74 3e
       -0.33542252 -0.07520425 -0.10919659 0.23851289
0002e0 1b eb 2f bc 47 15 2a be 00 b4 4d 3e 41 43 32 3e
       -0.010737206 -0.16609679 0.20088196 0.17408468
0002f0 c1 b6 f3 bd 68 f2 9e be cc 3f 95 3d 61 ee 78 bd
       -0.11900092 -0.31044316 0.07287559 -0.06077421
000300 45 f3 d6 3d 2a 0d 0b be e7 0d b7 bd 40 0e 3b be
       0.10495619 -0.1357924 -0.089381985 -0.18267155
000310 36 41 39 be a8 9e 28 be 89 3d c6 bd 3d 13 42 3e
       -0.18091282 -0.16466773 -0.09679706 0.18952651
000320 c7 d5 81 3e a5 c0 54 3d e3 01 ab 3d e2 51 68 be
       0.25358412 0.051941533 0.08349969 -0.22687486
000330 a0 8a 99 3d 3e 10 01 be 86 23 30 be b9 28 1d 3e
       0.07497144 -0.12603852 -0.17201051 0.15347566
000340 c9 49 98 be e2 f2 83 bd b0 a5 9d 3d 00 e2 9a be
       -0.29743794 -0.064428106 0.07697618 -0.3025055
000350 6b 9a c7 bd 45 0c 85 be e5 78 4b be c7 3a 85 3e
       -0.0974625 -0.25985923 -0.19870336 0.26021406
000360 ac 84 9f bd 47 b4 31 3d 6b 64 88 be 47 75 6f be
       -0.07788977 0.043384816 -0.26639113 -0.23384582
000370 12 e9 76 3d 5b 1f 1f be b0 9a 1e be ff 22 46 3e
       0.060280867 -0.15539305 -0.15488696 0.19349287
000380 13 f0 73 3e ef 18 3d be 72 5d 3f 3d 63 ec 98 be
       0.2382205 -0.18466543 0.046719976 -0.2986785
000390 de 80 40 3e d1 34 81 3e 94 f5 99 3d d7 7c ea 3d
       0.18799159 0.25235608 0.075175434 0.114495926
0003a0 b5 d9 69 3e d8 9d e7 bc 51 c9 aa bd ee 51 96 be
       0.22836955 -0.028273508 -0.08339179 -0.29359382
0003b0 42 00 93 bd 5b 07 7b 3d 1e 95 e8 bd 04 5a 39 be
       -0.071777835 0.06128631 -0.11356567 -0.18100744
0003c0 5e 6e 08 bc d4 09 a5 3d 03 6d 18 be 53 a8 ca be
       -0.008327095 0.08058515 -0.14885335 -0.39581546
0003d0 60 57 b1 bd ec bd 76 3e a2 97 ad be 83 70 b2 3e
       -0.086592436 0.24095887 -0.3390475 0.34851465
0003e0 75 bb 39 be 4c bf 59 3d a9 05 ad 3e 09 6d 6f 3d
       -0.18137915 0.05316095 0.3379338 0.058453593
0003f0 2b 92 a8 be 2e 8c b9 3d af 44 ce bd ef 04 df bd
       -0.32924017 0.0905994 -0.10071694 -0.10889613

encoder.conv.convs.1.bias f4 [20]
000000 a9 2e 05 bd 40 4b 2f 3e 6f b0 99 3c 74 0b 30 3d
       -0.0325152 0.1711855 0.018760888 0.042979673
000010 67 1c 58 3c 1c 38 e8 bb 2d 81 2b bc 52 3e 40 bc
       0.013190365 -0.007086767 -0.01046781 -0.011733608
000020 30 95 38 bd c7 ef ce 3c f4 13 d5 3d 56 ff dc 3d
       -0.04506415 0.02526082 0.104041964 0.10790889
000030 f5 3b 3e bd ad 01 02 bd de c2 88 bc 3d 34 ec bc
       -0.0464439 -0.03173988 -0.016694482 -0.028833503
000040 d2 8c b2 bc b7 95 42 bb f9 e8 2d bd 6f 1a 9b 3d
       -0.021795664 -0.0029691288 -0.04245851 0.07573401

encoder.conv.convs.1.lin.weight f4 [20, 40]
000000 55 a4 3f 3e 5a 8c 9e 3e f6 15 ac bc 5b 6f 19 3e
       0.18715031 0.30966455 -0.021006566 0.14983885
000010 0b 22 61 be 5f de 45 3e 16 c7 18 bf 17 96 04 bd
       -0.21985643 0.19323109 -0.5967878 -0.0323697
000020 ff 50 0d bf 25 59 55 3e 92 02 02 3d 24 9b 66 3e
       -0.55201715 0.20834787 0.031740732 0.22520119
000030 35 48 4f 3d 28 4f 19 3e 6c c1 a1 3e ad 06 48 3e
       0.05060597 0.14971602 0.31592882 0.19533797
000040 14 d8 b9 bd 44 a3 40 bf 50 38 36 3e 97 01 06 be
       -0.09074417 -0.75249124 0.17794919 -0.13086544
000050 95 2e 1b bf 5b 90 96 be a3 04 0f 3e 99 bd ff 3b
       -0.60617954 -0.2940701 0.13966613 0.007804584
000060 21 0a 35 3e ac b7 7f bc 65 13 cf be 14 df 90 3e
       0.17679645 -0.015607756 -0.40444484 0.28295195
000070 41 ec c6 be 4a 7c 62 3e d8 e8 b9 bd b4 3f aa 3d
       -0.38852122 0.22117725 -0.090776145 0.08312932
000080 ca e5 a7 3e 4a 41 87 be 17 72 2a 3b 9f 3a 85 3d
       0.32792503 -0.26417 0.0026007944 0.06505322
000090 8e 09 f4 bd 78 df 9a 3d 84 33 56 bd e9 61 04 bf
       -0.11915885 0.075621545 -0.052295223 -0.517119
0000a0 f2 c4 6e bd 73 67 74 3c cd 33 cc 3e e5 bb 02 3f
       -0.05829329 0.014917242 0.3988327 0.51067954
0000b0 01 e4 b3 3e 3e 78 94 3e c6 e0 af 3c 69 e4 9b bd
       0.3513489 0.28997988 0.021469485 -0.07611925
0000c0 3b 01 fe 3e cb 2b 3f 3e 5f 24 8b 3e 44 b3 8c 3c
       0.49610314 0.1866905 0.27176186 0.017175324
0000d0 1c fd d6 3e 5d f1 1c 3e df eb dc 3e ab b0 19 be
       0.41989982 0.15326448 0.43148705 -0.150088
0000e0 e1 30 3d be f9 0d c0 3d 06 12 01 be d4 95 bb 3e
       -0.18475677 0.09377665 -0.12604532 0.36637747
0000f0 81 32 b5 3e 7f 36 ac 3e 1f ad 6b be 69 35 0e 3e
       0.35390094 0.33635327 -0.23015259 0.13887562
000100 a8 96 46 bd bb ab 98 3e 43 ed 9e 3e 6d 73 2b be
       -0.04848352 0.2981852 0.3104039 -0.1674325
000110 2a 97 3e 3e f9 86 6d bd 79 5e 80 bd 4c 62 e2 bc
       0.18612352 -0.057990048 -0.06268019 -0.027634762
000120 eb b4 81 bd 8a dc 26 3e 33 e0 4e 3e 65 33 b6 3c
       -0.063333355 0.16295066 0.20202713 0.022241304
000130 2f e6 4e be 78 53 58 3d 0c d7 16 bf ac a3 03 3e
       -0.20204996 0.052813977 -0.58921885 0.12855405
000140 46 ff 92 3e d9 e8 26 3d fb 49 3c 3e 89 f3 8e bd
       0.28710383 0.040749405 0.18387596 -0.069800444
000150 3a eb 6b 3c 3e 5c bd bb 93 8b 99 be f3 9c 91 be
       0.014399344 -0.0057788184 -0.299893 -0.28440055
000160 83 b7 55 bd db c1 c3 be ae 12 25 be 16 a1 14 3e
       -0.052176964 -0.38233837 -0.16120407 0.14514574
000170 9d a8 f9 bd 72 07 94 bd 69 c7 47 be bd 75 a3 be
       -0.121903636 -0.072279826 -0.19509663 -0.31925765
000180 b7 ff 8a be 50 46 42 be 57 04 cb be 94 c1 27 be
       -0.2714822 -0.18972135 -0.3965175 -0.16382438
000190 67 5e af 3e 54 fa d2 bb ad 5b 51 be cd 81 8e 3e
       0.3425171 -0.006438533 -0.20445128 0.27833405
0001a0 af e8 bd 3e 8e ad 63 bf ea f4 43 3c 04 9e 1f 3d
       0.37091586 -0.889367 0.0119602475 0.038969055
0001b0 89 30 1e 3d cb 4c 3e be 68 e7 38 3a da 50 81 bd
       0.038620505 -0.18583982 0.0007053525 -0.06314249
0001c0 e0 36 45 b8 a2 66 98 be 4e 45 8a 3d 95 f2 25 3e
       -4.7019566e-05 -0.29765803 0.067515 0.16205819
0001d0 74 02 6e 3e 83 cb 89 be 05 8e d6 bb f1 7e 9b 3c
       0.23243123 -0.2691308 -0.0065476918 0.018981429
0001e0 d1 0c 8f bd a5 3e 06 3e 86 88 8c 3e f8 d3 66 be
       -0.069848664 0.13109834 0.2744791 -0.22541797
0001f0 e5 0a 1f be a6 4f 45 be 98 c1 24 be e9 1a 7f be
       -0.155315 -0.19268665 -0.16089475 -0.24912609
000200 47 c5 7d be de 58 cc 3d 4c 9c 65 be e8 9e 87 bd
       -0.24782287 0.099778876 -0.22422904 -0.06622106
000210 32 b5 eb 3d 42 68 f7 3b 0e cb e1 3d 7e 13 d5 bd
       0.1150917 0.0075502703 0.11025058 -0.104041085
000220 6c 78 5a bd b0 e0 72 bd 2e 9a cc be a5 c6 c2 be
       -0.0533375 -0.05929631 -0.3996138 -0.3804218
000230 ea ac 7a 3e 4a 78 20 3e 12 e6 c5 be 19 4b 92 3e
       0.24480024 0.15670887 -0.38652092 0.2857292
000240 83 87 04 bd 98 e7 d3 3e 79 32 03 3f df 7c 8f bd
       -0.032355797 0.4138763 0.5124889 -0.07006239
000250 b7 54 c1 bd 2f 88 22 bd 7f 2f 03 3c ef c3 81 be
       -0.09439986 -0.039680656 0.008006929 -0.25344798
000260 b4 ed 7a bb f2 69 78 3e 30 e6 14 bc aa e7 45 3e
       -0.0038288655 0.24259165 -0.009088084 0.19326654
000270 e7 d4 a9 3e 0e 0e ee bd 70 5e 34 bf 5d e7 6f bf
       0.33170244 -0.116237745 -0.704566 -0.9371241
000280 2e 2c 41 3e 11 3b d8 bd 6d 35 ca 3d da d0 ae 3e
       0.1886451 -0.10558141 0.098734714 0.34143716
000290 4f 8e 4e be 9d bf 65 be 1e ed 37 be 68 c8 06 bd
       -0.20171474 -0.22436376 -0.17961547 -0.032905966
0002a0 14 d5 ed bf 94 10 1b be 8d 80 b5 bc 33 14 62 3e
       -1.8580651 -0.15143043 -0.022156024 0.22078018
0002b0 0c a2 9c 3d fb 94 55 3e eb be 3b 3e cd 49 77 bd
       0.076480955 0.20857613 0.18334548 -0.060373116
0002c0 80 e2 2d 3e dd b5 c1 3a ed 3c 69 be 0a be 1d be
       0.16980934 0.0014778931 -0.22777148 -0.15404525
0002d0 1d 4f 88 3e e4 71 a1 3e 9e 65 ba 3e 92 0f 5f 3e
       0.2662286 0.31532204 0.36405653 0.21783283
0002e0 2e 91 13 3e 84 58 59 be c1 6f 3b bf 5f 9c a2 bd
       0.1441085 -0.21225172 -0.732174 -0.07939982
0002f0 06 0b 09 3e ab 68 42 be 2c cc 8e bd 00 80 c7 be
       0.13383111 -0.1898524 -0.069725364 -0.38964844
000300 08 0a 3d 3e 24 a6 d2 be 10 87 e0 be 42 49 7f be
       0.18460858 -0.4114238 -0.43853045 -0.2493029
000310 5a d0 67 3d 22 2b 22 3e 68 3d d5 be e4 d9 dc be
       0.056595184 0.15836766 -0.41648412 -0.43134987
000320 46 dd 90 3e 32 ce 9d 3e 5d 4a e1 3d 45 d0 11 3d
       0.28293818 0.30821377 0.11000512 0.035599012
000330 9c 72 41 be 5d fe 0a 3e 28 00 66 3e 3c 54 a8 3e
       -0.18891376 0.13573594 0.22460997 0.32876766
000340 bd 0d 15 be 12 bb ab be 71 4d d2 3d ad fd f2 bd
       -0.14556022 -0.3354116 0.10268677 -0.11864791
000350 31 97 a9 be 6c ac ba 3e 2c b8 d5 3e 1a e8 84 be
       -0.33123162 0.36459672 0.41742074 -0.2595833
000360 4b 9b 05 bd cd ac 15 be 27 8e 5e 3e 55 d0 3d be
       -0.032618802 -0.146167 0.21733914 -0.18536504
000370 5d ef 51 be e7 48 93 3e af 6a 53 be 65 c8 0c 3d
       -0.20501466 0.28766558 -0.20646165 0.0343708
000380 30 b4 97 3e 57 96 93 3e 50 32 d7 bd a9 9d 85 bd
       0.2962966 0.28825638 -0.10507643 -0.06524212
000390 0b c9 73 3e 84 6b ba 3e 2f cc 33 3e 83 d3 a4 3d
       0.2380716 0.36410153 0.17558359 0.08048155
0003a0 86 80 9c 3b 9d c4 bf 3d 73 e3 16 3e 73 d7 2a be
       0.0047760634 0.09363673 0.14735202 -0.1668375
0003b0 c2 05 36 be 43 76 03 be ef ee c2 3d 1e a4 10 3e
       -0.17775634 -0.12838082 0.09518229 0.14125106
0003c0 9b 9c 00 be f2 b2 1e be 9f 8f 2f bd 9a da e8 bd
       -0.1255974 -0.1549795 -0.042861577 -0.1136982
0003d0 fb b3 65 be fa ea 82 bd c2 36 07 3e b6 36 c9 3e
       -0.22431938 -0.063924745 0.13204482 0.39299554
0003e0 ee f4 24 3e ef cc 34 bd 30 a4 95 be 3b 5f 3a be
       0.16109058 -0.044140752 -0.29226828 -0.1820039
0003f0 99 34 ab 3e e5 fe 1f 3e b7 03 12 3f a0 8a 3a bd
       0.33438566 0.15624578 0.5703692 -0.04554236

encoder.embed_x.weight f4 [28, 40]
000000 57 3d a7 be f2 06 d0 3e 33 4c 1b bf 27 ab 55 bf
       -0.32663986 0.406303 -0.60663146 -0.8346428
000010 17 fb ec be 1f 4c c3 bf 7b 7d 5f 3f ec 31 ef be
       -0.46285316 -1.5257605 0.87300843 -0.46717775
000020 bc f3 0d be 53 e8 a8 3f d5 89 1f bf 89 56 af bd
       -0.13862509 1.31959 -0.6231969 -0.08561427
000030 61 71 9e be e3 c3 24 40 a1 eb f3 3e 14 f8 cf be
       -0.30945876 2.574456 0.47640708 -0.40618956
000040 75 32 4c be d2 07 01 be cb 11 b8 be bf 29 85 be
       -0.19941123 -0.1260064 -0.35951075 -0.26008412
000050 ea a6 8c 3d 99 fd 9f 3f b9 60 8c bf de 30 01 c0
       0.06867774 1.2499267 -1.0967017 -2.0186076
000060 fd df 1c 3f 78 d4 50 3e 2d 74 94 3f 64 5f 6d be
       0.6127928 0.2039355 1.1597954 -0.2318092
000070 9b 0d 85 3f e1 36 0f bf 04 f8 c6 be a2 93 ee be
       1.0394777 -0.55943114 -0.38861096 -0.4659701
000080 5e e6 84 bd b6 71 51 3e b5 8c 65 bf 6f b4 11 3f
       -0.064892516 0.20453534 -0.89667827 0.56915945
000090 22 25 26 bf 23 34 99 be 2d f7 dd 3e f6 e0 97 be
       -0.6490041 -0.2992259 0.43352643 -0.2966382
0000a0 ab f8 ba 3f 91 ce 18 40 5b e0 d1 be 87 d9 94 3e
       1.4607137 2.3876078 -0.40991482 0.2907221
0000b0 23 d5 d7 3f 4a 14 a6 3f 25 c4 54 3f 8e 36 50 bf
       1.6861919 1.2974942 0.8311179 -0.81333244
0000c0 1b 58 42 be 03 f5 cc bf 22 e0 4d 3f 31 a4 06 bf
       -0.18978922 -1.6012272 0.80420125 -0.52594286
0000d0 e5 ce 90 3f 7d 15 68 bf f5 56 3d bf a8 43 35 3f
       1.1313139 -0.9065779 -0.7396081 0.7080636
0000e0 d8 38 75 3e 90 65 9d bf 9e 2a a3 bf 54 a7 a3 bd
       0.23947465 -1.229662 -1.2747381 -0.079909
0000f0 e4 7f 68 be 2f a4 aa 3f fa 10 3f 3f 01 0a b4 be
       -0.22705036 1.3331355 0.7463528 -0.35163882
000100 a6 aa 91 bf b7 64 2f 3f 6e 3b 1c c0 ed 17 c6 be
       -1.1380203 0.68513054 -2.4411273 -0.3869013
000110 56 ef 21 3f 95 55 a7 3f cd 85 4c bf 4f 84 11 3c
       0.6325582 1.3072993 -0.79891664 0.0088816425
000120 12 52 23 3f b3 3c b3 bd cf 75 b4 bf 30 0b 07 3e
       0.63797104 -0.08751812 -1.4098452 0.13187861
000130 1c f5 f4 bd c0 a2 ed bc bc 7a a0 3f 2d 03 11 bf
       -0.119608134 -0.02900827 1.2537456 -0.5664547
000140 a0 e2 16 3f 68 01 1c c0 e3 50 b8 3e da 70 9c 3f
       0.5893955 -2.4375858 0.35999212 1.222194
000150 0b 9d 77 bf be 3a 35 bf 7b a6 f0 3f d9 07 7a be
       -0.96724004 -0.7079276 1.8800806 -0.24417056
000160 60 e7 11 3e 63 10 b6 3f fc e0 c2 bd 9e 66 b4 bf
       0.14248419 1.4223751 -0.095155686 -1.4093816
000170 d6 16 1d bf fa 37 a8 bf ce 46 73 bf 30 ca f0 3f
       -0.6136297 -1.3142083 -0.95029914 1.8811703
000180 a8 e2 84 be c9 1d cd 3e c4 ce 9e bf 45 4e 34 3e
       -0.25954175 0.40061787 -1.240685 0.17607982
000190 c7 6d 04 bf 64 91 d4 bf 5c af 06 40 46 ee 44 3f
       -0.51730007 -1.660687 2.104453 0.76926076
0001a0 dc 03 fe 3f 92 ca 13 3f 73 28 91 3e 0b e5 29 bf
       1.9844928 0.5773097 0.28351173 -0.66365117
0001b0 a6 86 5f bc 98 83 18 3c f7 0d 0e 3d 8f 7c 38 bf
       -0.0136429425 0.009308718 0.034681287 -0.7206506
0001c0 32 95 4a bf 78 f1 3c be a3 05 b1 bf 93 79 a2 bf
       -0.79133904 -0.18451488 -1.3829845 -1.2693352
0001d0 94 db 7c be 22 07 3d be fc 4e 2c 3e 5d 99 f8 3e
       -0.24693137 -0.18459752 0.16827005 0.48554507
0001e0 8d 2e 81 bf c2 c9 ae 3d 65 bc 8e 3f 38 5b ba be
       -1.0092331 0.08534576 1.1151243 -0.3639772
0001f0 38 71 5e 3e 03 36 c5 bf 4c a4 3f 3e 4c d9 41 bf
       0.21722877 -1.5407108 0.18715018 -0.75722194
000200 0c d5 e3 be f3 bd 44 be dd e6 b9 3f d2 a5 5a 3f
       -0.4449848 -0.19213085 1.4523579 0.8540927
000210 c2 87 aa 3f 44 be 35 3f a0 71 ea 3f 3d 4a f2 3f
       1.332268 0.7099345 1.8315926 1.8928906
000220 29 3d 6d 3f 8d 3c 29 bf e5 c5 06 bf ea 64 9a 3e
       0.9267145 -0.6610802 -0.52645713 0.30155116
000230 dd 13 90 3e af c0 6b 3c cf c9 ea bd 39 dd cc be
       0.28140154 0.014389201 -0.11464273 -0.4001253
000240 53 c4 a3 3f f0 bf 6f bf 17 c8 92 be 99 be 8a 3e
       1.2794288 -0.9365225 -0.2866828 0.2709854
000250 b2 9f 3a 3f 62 9e bc be e8 96 b9 ba fe 2b 10 3f
       0.72899926 -0.36839586 -0.0014159353 0.56317127
000260 98 7f 22 bf 58 d2 b9 3f c8 42 90 3f b9 e5 8a 3f
       -0.6347594 1.4517317 1.127038 1.0851356
000270 94 2a 81 3f 7a ba b9 3f e6 b0 4a bf a0 17 18 be
       1.0091119 1.4510033 -0.79176176 -0.14852762
000280 bb 9a 4c 3e 90 95 b3 bf a8 48 a3 bf 95 4b 2a 3f
       0.199809 -1.4030018 -1.2756548 0.6652158
000290 b0 76 5c bf 3d 3a 91 3f 95 b3 bc be 59 0e ae bf
       -0.861186 1.1345898 -0.3685576 -1.3598129
0002a0 87 e2 e4 3f 62 0c 46 3f 87 6e d9 bf e3 da 5f 3e
       1.7881631 0.77362645 -1.6986855 0.21860842
0002b0 c6 b2 b8 bf fe 54 09 c0 b8 38 82 3e c3 a6 8c 3e
       -1.4429557 -2.1458125 0.25433898 0.2747098
0002c0 30 b3 d9 3f d0 6b 0d bf 72 d7 35 3f b6 21 a9 be
       1.7007809 -0.55242634 0.7103187 -0.33033532
0002d0 2c 59 2f bf 97 cc 13 c0 d7 e0 0e 3f ac 39 d5 be
       -0.6849544 -2.3093622 0.5581183 -0.41645563
0002e0 4b 0a 93 3e 65 d1 a5 3e d7 2f 81 bf 4f 4a 80 3f
       0.2871879 0.32386318 -1.0092725 1.0022677
0002f0 13 4f 93 3f a0 fe 03 3e ae db 1f bf 62 5e 7c 3f
       1.1508507 0.128901 -0.6244458 0.98581517
000300 8d 40 a7 be 13 17 e1 3f 88 a5 a5 bf 0b 7b 6c 3f
       -0.32666436 1.7585167 -1.2941141 0.9237525
000310 65 03 79 3e 51 16 2e bf b0 cf bc be 70 b6 a9 bf
       0.24317701 -0.680028 -0.36877203 -1.32588
000320 69 cc 0a 40 7a de 4b bf d1 6e 8f be 36 27 df bc
       2.1687262 -0.7963635 -0.28014234 -0.027240377
000330 87 3a 86 3d 96 f8 93 3f 1e cb 87 bf 19 f5 a8 3d
       0.06554132 1.1560237 -1.0608861 0.08249874
000340 cc 1f 04 be 01 4e 98 3d 0b 1d 99 be fc 0d 96 3f
       -0.12902755 0.07436753 -0.2990497 1.1723018
000350 4c 2a 56 3f 6f 01 db bf 27 89 94 3f 67 1c ec bf
       0.8365829 -1.7109812 1.1604356 -1.8446168
000360 1c 4a de bf c0 7d 41 bf b8 72 90 3f eb 3e 68 3f
       -1.7366366 -0.75582504 1.1285009 0.90721005
000370 59 0a c8 be 62 e5 c4 bf 3f 15 05 bf a6 f4 e2 bd
       -0.39070395 -1.5382502 -0.51985544 -0.11081819
000380 3e 33 8c bf 02 c3 02 c0 4d b8 b9 3f df f6 ed be
       -1.0953138 -2.0431523 1.4509369 -0.4647741
000390 aa c4 a6 3f ab 81 8d bf 98 43 83 3f 83 41 07 40
       1.3028767 -1.1055197 1.0255003 2.1133735
0003a0 1e ac 93 3e a8 80 82 3f c9 1e 4f 3f 0e c0 2c bf
       0.28842252 1.0195513 0.8090635 -0.6748055
0003b0 46 33 4e 3f f0 ac 5c 3f e6 c6 60 bf 5f d6 69 3e
       0.8054699 0.8620138 -0.87803495 0.22835682
0003c0 29 b1 07 c0 dd f5 8e bf ae 98 14 3f 7e d7 9f be
       -2.120188 -1.1168782 0.5804547 -0.31219095
0003d0 4b a7 74 bf 7c 71 2c bf bf 48 cb 3f 4d 39 c4 3f
       -0.9556777 -0.67360663 1.5881575 1.5329987
0003e0 01 2a 26 bd f0 bc 3d bf 15 69 91 be b9 59 be 3f
       -0.0405674 -0.7411642 -0.28400484 1.4871131
0003f0 ae 3f 8f 3f 62 74 50 bf 67 79 3f 3f 7e 6d 25 3e
       1.1191308 -0.81427586 0.7479462 0.16155049

encoder.trans_linear.weight f4 [40, 5]
000000 20 0b 0d 3e d6 65 b8 3e b1 88 1b 3f f0 ec 98 3c
       0.13773775 0.36015195 0.6075545 0.018667668
000010 f6 db f1 bb cf 3e ce 3d 46 87 f9 be f3 02 48 bd
       -0.0073809577 0.100705735 -0.48736018 -0.048830938
000020 b1 3f bc bd 3a c3 b0 3e 4b 37 4c 3f 31 6d dd bb
       -0.09191836 0.34523946 0.7977187 -0.0067574014
000030 79 d4 25 3f ea d2 e6 be 82 65 19 3f 11 ec 6f 3f
       0.6477733 -0.4508279 0.59920514 0.93719584
000040 10 9a 39 3f 34 e3 8c be c2 4c ca be 51 d8 93 3d
       0.72500706 -0.27517092 -0.39511687 0.072189935
000050 b9 a3 1a 3f e2 bd 15 bf 49 78 f8 3e 1b 30 1f bf
       0.6040607 -0.58492863 0.4852927 -0.6218278
000060 f3 59 87 bf 60 e7 be bd b2 38 e5 bd d0 16 ce be
       -1.0574325 -0.09321475 -0.111924544 -0.4025178
000070 cf f4 43 3f 72 53 7f 3e 56 06 a5 bd 68 84 8e 3f
       0.76545423 0.24934176 -0.08057849 1.1134157
000080 39 19 a8 be 35 75 a9 bf a6 79 4a 3e 0b 64 08 bf
       -0.32831743 -1.3238894 0.19772968 -0.53277653
000090 68 a3 45 3d eb be 0b 3f 4c fe 8b 3e 3a b9 95 3f
       0.04825154 0.5458819 0.2734245 1.1697152
0000a0 c0 35 59 3e f5 0a 97 3e c8 da 11 3d 6c 18 26 3c
       0.2121191 0.29500547 0.035609037 0.010137659
0000b0 4d 29 24 3e 17 fe 82 3d f6 74 9b bd c9 a2 d2 be
       0.1603138 0.0639612 -0.07590668 -0.4113982
0000c0 f3 af 06 3f 72 6d 8d 3e da b1 96 3e 92 8a 41 bf
       0.5261223 0.27622563 0.29432565 -0.75602067
0000d0 24 fb 1e 3f 2d e6 05 bf b6 e0 41 3f 1d ac ff 3d
       0.6210196 -0.52304345 0.75733507 0.12484
0000e0 00 e2 a6 be ea 00 10 3f ba 81 9b 3d 42 10 4f 3f
       -0.325943 0.56251395 0.07593103 0.8088418
0000f0 a5 17 17 3f c0 08 ac 3f 6b c3 51 bf 6e 7c 8d 3c
       0.59020454 1.344017 -0.8193881 0.017271247
000100 8d 87 a2 be f3 6f 82 bd 80 1d bf be 34 87 87 be
       -0.31744042 -0.06369009 -0.37327194 -0.2647034
000110 3e 2f ef 3e 6e 7b 26 bf 5f 05 06 3f 84 33 01 bf
       0.4671573 -0.6503209 0.52351946 -0.5046923
000120 b1 ee de 3e 8b 86 0a bf 3d a8 2c 3e 68 19 16 bf
       0.43541482 -0.54111546 0.16861053 -0.58632517
000130 c2 4d 30 be 12 b8 c6 be 2c 08 05 bf 8c 92 ca 3d
       -0.17217162 -0.3881231 -0.51965594 0.09891233
000140 24 22 d0 3e 8f 5f 14 bf 0a 1e 29 3f 5f b4 6a 3d
       0.40651047 -0.5795831 0.6606146 0.05730092
000150 46 df 2c 3c 02 c8 48 3e 6d 05 ac be 60 94 43 3f
       0.010551279 0.19607547 -0.3359789 0.7639828
000160 76 02 ae be 22 40 56 be 8f 91 e4 be db d9 44 3f
       -0.33986253 -0.20922902 -0.44642302 0.7689492
000170 47 10 e0 3d fc 95 92 ba 1d 0d 38 be 8a 06 99 3e
       0.10940605 -0.0011183615 -0.17973752 0.298878
000180 3f 04 e9 bc 46 0f 41 be 9a bb a3 3e f8 95 b8 be
       -0.028444408 -0.18853483 0.31979066 -0.36051917
000190 8f da de be 6f 4d 1f 3e 9e 9c 99 3f 3f e3 2b 3f
       -0.43526122 0.15556882 1.2000921 0.67143625
0001a0 c5 59 5c be 1b 6a 8b be 3e c1 90 3e 35 ca 55 3f
       -0.2151862 -0.2722939 0.28272432 0.8351167
0001b0 cc 05 09 bf d0 02 bc 3d 69 f1 9e be 7e 3f 72 3d
       -0.5352447 0.09180224 -0.31043556 0.059142582
0001c0 72 6f 91 be e7 6f 15 be d5 84 21 3f e4 6f cf be
       -0.2840534 -0.14593469 0.6309331 -0.40515053
0001d0 32 b8 f4 be 55 ab 1f 3f 1e 9d 0b 3e b2 1b f0 3e
       -0.4779678 0.62370807 0.13634154 0.4689613
0001e0 9f 5f 4d 3e 3b 7b d7 3e 49 14 94 3f f5 9c 04 3f
       0.20056008 0.42086205 1.156869 0.51802
0001f0 36 bd f1 be aa 8c d3 be 3d 8e 36 3e 31 fa 34 3f
       -0.4721467 -0.41318256 0.17827697 0.7069426
000200 be e0 25 bf fa b2 92 be 9f 05 c6 be 11 20 2e be
       -0.64796054 -0.28652173 -0.38676164 -0.1700442
000210 6d 92 0e bf ba d3 fc 3d ee fa 26 3a da 80 c8 be
       -0.5569218 0.12345071 0.0006369789 -0.39160806
000220 23 0a 48 bf 7c 92 db be c3 2f 65 3e 12 8d 6b 3c
       -0.7814047 -0.42885196 0.22381501 0.0143768955
000230 bb 63 a5 3e 6d 0b bf 3d c4 e9 83 3d 57 95 94 bc
       0.3230265 0.09328351 0.06441072 -0.018137617
000240 96 8d a7 3d 6e 00 ca 3e 38 ba 30 3f 49 b4 35 3f
       0.08181302 0.39453453 0.6903415 0.7097822
000250 bd a4 53 3e eb 99 7d 3e fa e9 26 3e 36 a2 0f be
       0.20668311 0.24765746 0.16300192 -0.14026722
000260 8b 6a 9d 3e bd c4 9b 3f 01 16 a9 3e 15 b3 0d bf
       0.30745348 1.2169415 0.330246 -0.5535138
000270 0c df 86 3e 2c 5f 61 3d c3 66 9d bf a1 92 be be
       0.26342046 0.055022404 -1.2296985 -0.37221244
000280 ac 10 d8 be 53 21 00 3f b8 5e 28 3f da 54 05 3f
       -0.4220022 0.5005085 0.6576953 0.520826
000290 dd 4f 3a 3e 2b f7 b2 3e 24 bc b3 3e f1 58 93 be
       0.18194528 0.349542 0.35104477 -0.28778794
0002a0 2e 67 bb be a7 bc 11 3f 1f a7 14 3e a1 9c b6 be
       -0.36602157 0.56928486 0.14516877 -0.35666373
0002b0 63 fe fb 3e 04 6a ac 3e 98 60 a3 be 7e fe aa be
       0.4921752 0.33674634 -0.31909633 -0.33397287
0002c0 8d ce 0e bf 24 04 4d be 0c 5f 80 be 1e 12 a2 3e
       -0.5578392 -0.20021111 -0.25072515 0.31654447
0002d0 ec 01 ba 3d f8 6e 71 3e a5 cc 0c 3f 8f 28 bf be
       0.09082398 0.23577487 0.5499976 -0.3733563
0002e0 16 fd a9 3e 7f f2 3d 3f 4a 45 60 3f ae 0e 36 bf
       0.33200902 0.74198145 0.87605727 -0.7111615
0002f0 22 e0 ce be 4e 37 1f 3d 64 59 61 3f 5a 1f fa bd
       -0.40405375 0.038871102 0.88027024 -0.12213011
000300 d6 b0 74 bf 20 23 68 3d bc 7b 4a 3e be 02 1f bf
       -0.9558233 0.056674123 0.19773763 -0.6211356
000310 eb eb dc be 77 8f bd be 34 48 b4 be b1 04 ed 3c
       -0.4314874 -0.37023517 -0.35211337 0.028932901

encoder.trans_linear.bias f4 [40]
000000 b6 3d b0 3e fb 62 7f 3e f7 d0 4d be b6 2c 75 3e
       0.34422082 0.24940102 -0.20099245 0.23942837
000010 c2 d9 dc 3e 60 4c 5b be f2 e2 5f be b8 c7 3e 3d
       0.43134886 -0.21415854 -0.21863917 0.046577185
000020 6d a1 ad 3e 3b 2e f1 be 28 5e a4 3e 64 a7 d0 3e
       0.3391222 -0.47105584 0.32103086 0.4075271
000030 1c 89 43 be d1 85 b4 be 2d aa 39 bc 26 c4 41 3b
       -0.19095272 -0.35258344 -0.011332077 0.0029566376
000040 fe 41 6d 3e 9b 1d aa 3d b6 6e 8e bd b4 95 59 be
       0.23169705 0.08306428 -0.0695471 -0.21248513
000050 2f 5f c4 bd d3 9d 5d be 1e e1 93 be 3d f2 31 be
       -0.09588467 -0.21642236 -0.28882688 -0.17377563
000060 81 b4 8a bd db a4 6c 3e 62 2e da 3d 6c 28 b4 3e
       -0.0677271 0.23109762 0.10653378 0.3518709
000070 1d d1 eb 3d 73 ff 8f 3d b2 19 08 be 51 0f 23 3e
       0.115144946 0.07031145 -0.13291052 0.15923811
000080 99 3d c9 3e 0d 6f 72 3e 4b 02 64 be 34 35 25 be
       0.39304808 0.23675175 -0.222665 -0.16133577
000090 d8 1e 7f 3c 06 26 9d 3d 17 57 c5 be 03 9d 99 be
       0.015571319 0.07673268 -0.38543007 -0.30002603

encoder.conv_mu.bias f4 [20]
000000 5c 08 b9 bb 53 69 21 bd fa 4b 18 3c fe 89 36 bd
       -0.0056467485 -0.039407086 0.009295458 -0.044565193
000010 97 1b fb bc 7c eb 06 ba a3 f8 a7 3b 25 f9 4b bc
       -0.030652804 -0.0005146784 0.0051260754 -0.012449537
000020 c7 f1 73 bd ce 85 ff 3c 24 23 8f 3d d2 1f 4e 3a
       -0.05955675 0.031191733 0.069891244 0.0007863018
000030 7e d7 e1 bc ba 5a fc 3c 76 7f a0 bd 3d ed d9 bc
       -0.027568575 0.03080498 -0.07836811 -0.026602382
000040 17 20 8a bc f5 d0 ac bc 1e d7 cd bc 36 4f 13 be
       -0.016861005 -0.021095732 -0.02512699 -0.14385685

encoder.conv_mu.lin.weight f4 [20, 20]
000000 7f c8 cb 3e ca 7b 83 3a 78 80 e2 3e a5 5b 99 bd
       0.39801404 0.0010031399 0.4423864 -0.07488183
000010 d0 90 85 be a9 df 0e be d3 99 86 3e f3 78 d0 be
       -0.26087046 -0.13952507 0.26289234 -0.40717277
000020 6c d2 a7 3c fb 22 7f 3e f0 35 d9 bd 90 30 b6 bc
       0.02048608 0.24915688 -0.10605991 -0.022239953
000030 78 b9 6a 3d 94 37 59 be 98 c3 de 3e e3 1d a9 be
       0.057305783 -0.21212608 0.435086 -0.33030614
000040 e2 71 8c bd 0c 86 66 3e 7a 5d ea bd e7 cc 6b 3e
       -0.06857659 0.22512072 -0.114436105 0.23027383
000050 6d c0 d0 3e 3a fe 24 3e a0 b7 96 bd 34 3e f0 be
       0.4077181 0.16112605 -0.073592424 -0.46922457
000060 ab 36 95 3c 01 22 ea bd 31 be d2 3e b1 74 93 be
       0.018214544 -0.11432267 0.4116073 -0.28799966
000070 4b 8b 2c 3e aa f5 5f 3e f7 85 ad bd 8d 7b 87 be
       0.16850011 0.21871057 -0.084728174 -0.2646145
000080 ee 3a 66 3d 89 af 73 3e 5d 4e da bd cd ef a7 3d
       0.056208543 0.2379743 -0.10659478 0.08200035
000090 25 17 b0 bd 36 98 4a 3d 2c eb 5a 3e f2 ca ff be
       -0.085981645 0.049461566 0.21378773 -0.49959522
0000a0 cd 0d 05 bf b4 cb cf 3d 9e 67 86 3e a5 86 6e 3e
       -0.51974183 0.10146275 0.2625093 0.2329355
0000b0 9b fe f9 bd 80 d9 63 be 28 5a d1 3e e4 01 cb 3e
       -0.12206765 -0.22250938 0.40889096 0.3964988
0000c0 83 fc 59 be 2d b2 ce bd 14 24 28 3e 1d a9 8a be
       -0.21287732 -0.10092578 0.16420013 -0.27082148
0000d0 44 51 8d 3e d4 8c e0 3e 3b 3c b2 3c 46 7a fb 3d
       0.27601063 0.43857443 0.021757236 0.12279181
0000e0 32 eb 0e 3e 92 3d e2 3e 1c f4 c7 be b2 29 34 bd
       0.13956907 0.441876 -0.39053428 -0.043985076
0000f0 61 67 65 be a7 03 9e be 14 1e 68 3d 0e 38 f7 3e
       -0.22402717 -0.30862162 0.05666931 0.48284954
000100 42 8b a3 3e ab 98 77 3e 7c 4c ca 3e 5c 2f 9d be
       0.31942183 0.24179332 0.39511478 -0.30700195
000110 b3 0e a2 bd fc 50 b7 be 3a de 72 be 60 0f f3 3d
       -0.0791296 -0.35803974 -0.23717585 0.11868167
000120 85 c4 27 3f ea 21 10 bf 94 39 15 be 0e 0a d8 bd
       0.6553424 -0.5630175 -0.14572746 -0.10548793
000130 2a 4e 08 3d 62 1f 83 bc cf f1 1e 3e 69 3e 98 be
       0.033277668 -0.016006175 0.1552193 -0.29735115
000140 72 b4 ef be 0b 2e a0 3e 90 25 8e 3e 6e c1 df be
       -0.46817356 0.31285128 0.27763033 -0.43702263
000150 99 9d 0e 3c ee e6 8f 3e 69 26 8f be cb 47 6e be
       0.008704566 0.28105873 -0.27958992 -0.23269574
000160 83 cf 09 bf dd 91 e7 bd 08 55 fb be 80 fc af 3d
       -0.5383226 -0.11307118 -0.4908831 0.085930824
000170 0d c1 42 be 0f b1 98 be fc 41 d9 3e 4c f2 21 3e
       -0.19018956 -0.29822585 0.42433155 0.15815085
000180 e4 16 9e 3e 41 e4 96 3d 16 86 87 be 93 56 e5 be
       0.3087684 0.07367755 -0.26469487 -0.44792613
000190 e5 31 60 be eb 6f b8 3d 2b b9 d5 bd 88 64 f6 be
       -0.21894033 0.09005722 -0.104357086 -0.48123574
0001a0 67 a3 4d 3e 33 fa 4b bb 9f 61 08 3e cb 7b 59 3e
       0.20081864 -0.0031124472 0.1331849 0.2123863
0001b0 5e b3 63 bd 54 e9 15 bf 1a 79 f0 3e 16 29 e2 3d
       -0.05559098 -0.58559155 0.46967393 0.11042993
0001c0 cb b0 5d 3e 32 67 16 be b3 f6 f7 3a 6d 01 cc 3e
       0.21649472 -0.14687803 0.0018918127 0.39844838
0001d0 c3 f5 a8 be 59 2d 1a bf 45 e8 bc bd d7 e7 9b bc
       -0.33 -0.60225445 -0.092239894 -0.019031448
0001e0 8c e1 b0 3d bc a5 77 3d fb 99 4d 3e db cd 20 be
       0.0863677 0.06046079 0.2007827 -0.15703528
0001f0 88 89 90 3c 2b e8 ac bb 54 47 4c 3d 55 13 42 3d
       0.017643705 -0.0052767 0.04987271 0.047381718
000200 b8 1b 17 3e 8f 19 71 be 01 0a 09 be 90 79 24 be
       0.14756668 -0.23544906 -0.13382722 -0.16061997
000210 5d 57 41 bd 40 9e e4 3d 6d 92 97 3e 6a 88 92 be
       -0.047202457 0.11162996 0.29603902 -0.286197
000220 24 37 9d 3d 3b 04 81 bd e8 39 0c 3e a4 d2 32 3e
       0.07676533 -0.06299635 0.13693964 0.17463166
000230 33 1e a9 3c 77 92 0d 3c a8 65 91 be 51 4e cc 3d
       0.020644283 0.008640877 -0.2839787 0.09975875
000240 a1 14 28 be 99 7f 92 be 2e e4 24 3e 70 63 f2 be
       -0.1641412 -0.28612974 0.16102669 -0.4734149
000250 cb b4 d1 be 4c 03 9e bd bf c7 84 3c 35 9d 7c 3e
       -0.40958247 -0.077154726 0.016208528 0.24669345
000260 ae 3f ac 3e c9 6a 53 3e ab 4a 3d 3e 20 ab c5 be
       0.33642334 0.20646204 0.18485515 -0.3860712
000270 d5 3f 3c 3e d1 cd 42 3e d8 24 ae bd b6 e5 94 3e
       0.18383725 0.19023825 -0.08503121 0.29081506
000280 18 4e f1 3c 7f 04 92 bd ce 33 55 be 46 08 ab be
       0.029456183 -0.07129764 -0.20820543 -0.3340475
000290 b3 14 79 3e 15 e8 23 bc 61 2f ea bd ad f2 8e 3e
       0.24324302 -0.010004063 -0.11434818 0.27919522
0002a0 07 1c b3 be 99 16 9a 3e e9 71 55 3e eb fe 36 be
       -0.3498232 0.30095366 0.20844235 -0.17870681
0002b0 73 ae e6 3e 3a eb 98 3d 74 b3 d8 bc a5 75 23 be
       0.4505497 0.07466741 -0.026452757 -0.15962847
0002c0 f4 b8 d1 3e 60 6f 0d 3f 2e 28 ad 3d 51 21 b5 be
       0.4096142 0.5524807 0.08454929 -0.3537698
0002d0 56 5b f8 be 5a 4d 27 be 7e 39 94 3e 68 fd da 3d
       -0.48507184 -0.16338101 0.28950113 0.10692865
0002e0 2d ae 07 be 68 11 c2 bc 20 37 d5 3e 1d f0 a4 bd
       -0.13250037 -0.02368994 0.4164362 -0.080536105
0002f0 ed d3 e6 3d ac cc 9f 3e 50 44 49 3e 77 3a e4 3e
       0.112708904 0.3121084 0.19654965 0.44575855
000300 42 e1 56 be 1a 14 8a be d6 e9 f6 3e 8d 2c aa be
       -0.20984367 -0.2696846 0.48225278 -0.33237115
000310 a5 0d 91 be 52 ca bb be 9c 55 2f be bd 33 9d be
       -0.28330722 -0.36677796 -0.17122501 -0.30703536
000320 2b 12 62 bc b4 92 4c be 1f f1 16 bc 64 e4 c0 bd
       -0.013798277 -0.19977838 -0.009212761 -0.09418562
000330 c9 ea a6 bb aa 2e da 3d 23 17 bf be 6c 75 89 be
       -0.0050939065 0.10653432 -0.3732234 -0.26847398
000340 02 ee 1d bd bd 42 3a be 75 dc 07 3e f5 a2 0d 3f
       -0.03855706 -0.18189521 0.13267691 0.5532678
000350 58 65 dc be 5d 09 06 3f 3d b8 2a bf e9 7e 07 be
       -0.4304607 0.5235804 -0.66687375 -0.13232006
000360 48 bd 96 3e 86 80 0e 3f 11 d0 ff 3d 03 ee 00 bf
       0.29441285 0.5566486 0.124908574 -0.5036318
000370 7d 57 94 3e 45 75 88 3e 02 9a fd 3e 07 54 b8 3b
       0.28972998 0.2665197 0.4953156 0.005625251
000380 e2 6c ba be d3 a3 a4 3e 04 20 6b be 28 5d 47 be
       -0.36411196 0.32156238 -0.22961432 -0.1946913
000390 83 db 0f be 8f 24 28 3d 63 cb 74 be c6 02 91 be
       -0.14048581 0.04105049 -0.23905711 -0.28322428
0003a0 e0 53 ba bd 41 15 ef be 53 38 05 bf 98 69 14 3c
       -0.09098029 -0.46695903 -0.5203907 0.009058379
0003b0 42 02 5a 3e ca 5d b5 be aa cd d8 3d fc 3f 8e 3e
       0.21289924 -0.35423118 0.10586102 0.2778319
0003c0 43 50 07 be f2 10 c9 be a2 3c bb 3d 03 6c a4 be
       -0.13214211 -0.3927074 0.09142424 -0.32113656
0003d0 58 2b b7 3e c3 d2 c2 3e f1 21 ed 3e 9e 41 d7 bd
       0.35775256 0.38051423 0.46314958 -0.10510562
0003e0 30 bf 3c 3e 4d 35 ad 3e 18 20 88 3e 89 93 09 bd
       0.18432307 0.33829728 0.26586986 -0.033587966
0003f0 3f 41 8d 3e c1 82 01 3f e7 c5 fc bd 76 41 48 3e
       0.2758884 0.5059014 -0.123424344 0.19556221

encoder.conv_logstd.bias f4 [20]
000000 f4 4a a7 be f0 3b 4e be 78 a8 eb be d3 10 ec be
       -0.32674372 -0.20140052 -0.4602697 -0.46106586
000010 18 b5 de be c2 f2 f8 be c7 ed 9d be da b3 9d be
       -0.4349754 -0.4862271 -0.30845472 -0.30801278
000020 9d 31 e9 be 0b 77 c5 be 92 cc e2 be b0 18 c4 be
       -0.45545664 -0.38567385 -0.442967 -0.38300085
000030 4b 2c b2 be af 90 0a bf 27 fc bb be b7 3e bf be
       -0.34799418 -0.5412702 -0.36715814 -0.37352535
000040 20 c9 94 be 8a 56 01 bf 26 8b 02 bf 33 16 b8 be
       -0.29059696 -0.50522673 -0.50993574 -0.35954437

encoder.conv_logstd.lin.weight f4 [20, 20]
000000 2f 54 37 be f5 39 f5 be 5a 60 d4 bd 2f 2c 91 bd
       -0.17903207 -0.4789578 -0.1036994 -0.070885055
000010 3d a0 67 bd 23 91 b2 bd d8 5b 00 3d 60 6a cd bd
       -0.0565493 -0.08719089 0.03133759 -0.10030055
000020 52 62 64 3e 1b 0e 99 be 57 f4 4a 3d 58 fe 09 be
       0.22303131 -0.29893574 0.049549427 -0.1347593
000030 3a bb c8 bb ad 19 c2 bc 5c f1 28 3c c2 41 a3 3d
       -0.006125835 -0.023693884 0.010311451 0.07971527
000040 ef 4e 5d 3e 3f f7 67 3b a0 9c e7 bd 7e 67 56 bb
       0.21612142 0.0035395173 -0.11309171 -0.0032715495
000050 39 df da 3d b0 21 20 bf d2 e5 0e bd e7 18 13 be
       0.106871076 -0.62551403 -0.034887142 -0.14364968
000060 9a 45 02 be 97 8c 7d be 06 ee db 3d b8 50 89 be
       -0.12721863 -0.24760662 0.10738759 -0.26819396
000070 cf 33 02 3d c5 da 42 be aa e4 2a 3e 61 30 6c be
       0.03178769 -0.19028766 0.16688791 -0.2306533
000080 5f 02 1f 3e 36 9c 8d bd 5f ff 35 3d 31 35 f6 3d
       0.15528248 -0.069145605 0.044432994 0.12021864
000090 4c d4 0f 3e 19 69 1a 3e 2c 77 13 be a1 54 87 3c
       0.14045829 0.15079154 -0.14400929 0.016519846
0000a0 c3 58 22 bd 5e 48 b0 be 0d a4 ab bd a5 68 8c bd
       -0.03963543 -0.34430212 -0.083808996 -0.06855897
0000b0 0b 56 14 bd bb cf 3a be 58 bd 92 3b d8 3e 3a 3d
       -0.03621487 -0.18243305 0.004478138 0.04547009
0000c0 fb 3b 1f 3d f3 f6 4d be 39 e3 d4 bd f7 73 4a be
       0.03887556 -0.20113735 -0.10394902 -0.197708
0000d0 90 9b 9f 3d 59 93 31 3d 19 9b aa bd 2a 18 4b bd
       0.07793343 0.043353412 -0.08330364 -0.04958359
0000e0 51 44 6f bd d0 42 b3 bc fa c0 88 be 2b 3b dc bd
       -0.05841476 -0.021882445 -0.2670973 -0.10753473
0000f0 74 23 b9 3d b2 94 2b be f8 45 22 3d 50 ee 02 be
       0.09039965 -0.16755942 0.03961751 -0.12786222
000100 c7 0c 83 be 1d 88 8a be f5 70 2e bb 91 51 c3 3e
       -0.25595686 -0.2705697 -0.002661762 0.38148168
000110 ee b7 47 bb a9 06 dd bd f9 e0 8a be 9e 37 78 be
       -0.003047462 -0.10792286 -0.27124766 -0.24239966
000120 12 5d 67 3d 42 de 51 3e d9 51 ef bd d0 b9 24 be
       0.056485243 0.20494941 -0.11685533 -0.16086507
000130 27 55 23 be 5a 3a b6 bd f9 b0 56 be aa 69 b3 be
       -0.15950452 -0.088978484 -0.20965947 -0.35041553
000140 11 fc a5 3d ef 8a 8f be e7 45 3c bd cc df 8a 3c
       0.081047185 -0.28035685 -0.0459651 0.016952418
000150 71 df 44 be 74 41 92 be 9b 1a 39 3b e7 ea 6b 3e
       -0.19225861 -0.28565562 0.0028244618 0.23038827
000160 ed 80 96 3d 40 d5 19 be ec 1b fe bd 7a 71 3d be
       0.073488094 -0.15022755 -0.124076694 -0.18500319
000170 6f 6e d3 3d d0 b9 1e 3d ba a1 8f bd 98 cc da bd
       0.10323798 0.038751423 -0.07013269 -0.106835544
000180 be c3 d1 bd 13 d8 3e bd 50 23 90 be d4 ae 8e be
       -0.10242413 -0.046592783 -0.2815194 -0.27867758
000190 e6 90 00 bd 7b 3c 98 be 83 66 e6 bd 1e 36 88 bc
       -0.031388186 -0.29733643 -0.11250021 -0.016627368
0001a0 fc c1 8b bd 67 64 3e be e7 91 19 bb 7a 39 ab 3c
       -0.06824109 -0.18592988 -0.0023432912 0.02090143
0001b0 05 a4 cc 3c e3 13 ed bd ff 2b 58 bd 68 41 19 be
       0.024980554 -0.11576059 -0.052776333 -0.14966357
0001c0 70 05 78 3d 35 79 f3 bd 5c d6 96 bd 29 99 79 3b
       0.06055206 -0.11888353 -0.073651046 0.0038085675
0001d0 f2 6b f3 3b a9 71 40 bd dd 2d a1 be 6d 10 8f bd
       0.0074286396 -0.046983395 -0.31480303 -0.06985555
0001e0 29 0a ac 3d 30 3f 70 be f1 3c 0a bd a7 85 d5 bc
       0.084003754 -0.23461604 -0.033749525 -0.026064707
0001f0 8e f6 05 be c6 c9 31 be d6 7f d1 3c 8e 0f 25 3c
       -0.13082334 -0.17362127 0.025573652 0.010074509
000200 4c cf e6 3c 2e 6d df bd 0d 63 ac bc 62 a2 86 bd
       0.028175019 -0.10909496 -0.021043325 -0.06573941
000210 05 ee af 3d 1a f0 e5 3b a0 91 ba bd 56 d9 97 bd
       0.085903205 0.0070171477 -0.09109807 -0.074145004
000220 72 e3 bd bd bd 4a 03 bc 56 45 5f be 2c a7 18 be
       -0.092718974 -0.008013424 -0.21803793 -0.14907521
000230 4e 39 db 3d 7d 17 d6 be e4 25 06 bd c2 9e 92 bd
       0.107042894 -0.41814795 -0.03275098 -0.07159187
000240 59 96 3c be c7 2d 4c be 82 3e 25 bd 7a af df 3d
       -0.18416728 -0.19939338 -0.040342815 0.109221414
000250 4b 8d 54 3e 35 df a4 be 30 cb 9d bc a0 23 55 be
       0.20757024 -0.32201543 -0.019261926 -0.20814371
000260 23 c1 56 3d 05 a0 61 bd b1 d4 e7 bd bc 1f 15 bc
       0.052430283 -0.055084247 -0.113198645 -0.009101804
000270 10 d7 84 bc 9f fc 05 be ce b6 24 be 0b ec 3d be
       -0.016215831 -0.13084649 -0.1608536 -0.18547074
000280 10 c7 99 bd 17 e7 a1 be c7 28 d4 bd 7f 74 c6 bc
       -0.07508671 -0.3162162 -0.1035934 -0.024225472
000290 dc 17 9b bd e2 a9 14 be 0a 01 3e bd 58 9b a3 3d
       -0.0757291 -0.1451793 -0.04638771 0.07988614
0002a0 e2 7d 3a 3e bd 62 8b be e1 2b 9a bd 12 b0 48 be
       0.18212083 -0.2722377 -0.075279005 -0.19598415
0002b0 f6 03 43 3d b2 f5 db bb d9 9f 39 bd d5 cc 21 bb
       0.0476112 -0.006712639 -0.04531846 -0.002468874
0002c0 4f 60 e7 3d af 21 89 bd 5a 3a 41 be 22 e1 2a be
       0.11297666 -0.06695878 -0.18869916 -0.16687444
0002d0 70 c9 80 3d 09 9b c8 be 18 c0 06 3c ef 41 24 be
       0.06288421 -0.39180782 0.00822451 -0.16040777
0002e0 7e 30 37 be ba 1e 30 be 19 65 68 3d a4 8e 76 be
       -0.17889592 -0.17199221 0.05673704 -0.2407785
0002f0 91 ce 8f bd ab b6 ec bd 22 93 97 bc 3b c5 2c be
       -0.07021821 -0.11558279 -0.018502776 -0.16872112
000300 45 de 13 ba 2f a2 d5 bd 68 3c 03 be ea 0b 0e 3e
       -0.0005640726 -0.10431325 -0.12816012 0.13871732
000310 47 37 69 be 84 52 87 3d 03 7e 6a be 50 b3 2f 3d
       -0.22774993 0.066075355 -0.22899632 0.042895615
000320 25 3f 15 3d 5b 59 a6 be ad ea 37 bd 69 7c 23 bd
       0.036437172 -0.32490048 -0.04490154 -0.03991357
000330 6c ee 13 be a1 fb 2a be 1a ac 17 bc fd 9a ca 3d
       -0.1444642 -0.16697551 -0.009257341 0.09892843
000340 e5 ba ba 3d c4 94 70 be ce 20 00 be 6b 71 0c be
       0.091176786 -0.2349425 -0.12512514 -0.1371514
000350 99 cc d7 3c fd 21 6b 3c d2 63 b8 bd 5a 7f bd bd
       0.026342677 0.014351365 -0.09003414 -0.09252806
000360 2e d7 8e bd 14 a6 1a bd 74 50 8f be 00 f9 73 be
       -0.06974636 -0.03775604 -0.27991068 -0.23825455
000370 03 06 71 3d 2b 53 f1 be 47 d9 58 bd 90 1c da bd
       0.058843624 -0.47133765 -0.052941587 -0.10649979
000380 ef e6 0f bd b0 6a 63 be 2c 8b c7 3d 11 53 34 be
       -0.035132345 -0.22208667 0.09743342 -0.17609812
000390 65 a1 22 3c 11 5b eb bd 0a 84 7b 3d f0 f1 d8 bc
       0.009926175 -0.11491979 0.06140522 -0.026482552
0003a0 5a 0b dc 3d 23 2a 25 be d9 9f e4 bd 6d a7 82 b9
       0.10744353 -0.16129355 -0.11163301 -0.00024920274
0003b0 de 96 63 be df ba 81 bb b6 7d 88 be 34 81 20 be
       -0.2222552 -0.0039590443 -0.2665841 -0.15674287
0003c0 f2 cc 3b be 46 36 f8 be 9a 5c f8 3b 77 78 3b be
       -0.18339899 -0.48478907 0.0075793983 -0.18307672
0003d0 1e fe dd bd 6f 35 b7 bd 0f c9 a7 3d 33 2a 47 3e
       -0.10839485 -0.089457385 0.08192646 0.19449691
0003e0 6f ab e4 3d fa 82 b6 be a2 d1 bc bd d1 e4 a4 be
       0.11165511 -0.35646802 -0.09219672 -0.32205823
0003f0 ec d1 be bd f9 29 81 3e c9 3e ab 3d bd d4 69 3c
       -0.09317383 0.25227335 0.08361585 0.014271912
