results/model_GCN/graph_split_/layers_1/transform_True/alpha_0.5/model.pt (torch, 15093 bytes, 9 tensors)

encoder.conv.bias f4 [20]
-0.08845165 -0.0934221 0.12254666 -0.108587645 -0.044181902 0.0075955 -0.12390509 -0.00011033975
-0.043981362 0.19045419 -0.012476101 -0.08629445 -0.10448622 -0.10835727 -0.056178074 0.09718521
-0.095611446 -0.008895919 -0.1073584 -0.08488974
00000000: 2426 b5bd 1654 bfbd bef9 fa3d 3363 debd
00000010: 15f8 34bd ace3 f83b f4c1 fdbd 3466 e7b8
00000020: cd25 34bd 6c06 433e 8f68 4cbc 25bb b0bd
00000030: dffc d5bd 6bea ddbd fb1a 66bd 0a09 c73d
00000040: efcf c3bd 30c0 11bc b9de dbbd acda adbd

encoder.conv.lin.weight f4 [20, 40]
0.25295392 0.23716846 -0.12562886 -0.37874556 -0.115837134 -0.0329112 0.122655086 0.3402594
0.50158906 -0.13723025 0.018690346 0.09581172 -0.17659654 -0.26351288 0.030810712 0.11135663
-0.0657043 0.24135938 -0.1570173 0.16683626 0.14413668 -0.28706497 -0.20513058 -0.13554536
0.07546475 -0.023771707 -0.4959864 0.10689433 0.10114948 0.0718113 0.40405732 0.22242215
0.16923763 -0.36234197 -0.027004447 -0.16224042 0.15211658 0.2746988 0.2912496 -0.24260011
-0.047736205 -0.26076767 -0.18340415 -0.27139562 -0.042424083 0.38099542 -0.21457611 -0.08917765
0.16880484 0.2603894 0.29166457 0.2544074 -0.00026208765 -0.32124755 0.22104819 -0.19619375
0.2125358 0.029785756 0.18562257 0.7454291 0.14929284 0.2785493 -0.042473167 0.12780616
-0.41123927 0.2647425 0.2600476 -0.3870157 -0.25914907 0.15268858 -0.24277264 0.18199039
-0.04442135 0.07963531 0.16692777 -0.1425994 -0.18373266 -0.37908182 0.16401608 0.25712213
0.12506396 0.21637952 0.10353617 -0.3931705 -0.13089228 0.40489626 -0.23000054 -0.22945884
-0.048548985 0.20925105 0.01217668 0.27970704 -0.49570712 0.1959331 -0.09992365 0.10063642
-0.13715763 -0.084349036 0.16482994 0.2594857 0.083281994 0.09751351 0.17977932 0.13341667
-0.10288412 -0.33852476 -0.21137714 -0.25491437 0.065655716 0.12131659 0.6042826 -0.087019704
0.43653464 0.1283567 0.42427343 0.22559915 0.0066387565 -0.10447266 -0.1572551 -0.102426186
0.10499632 0.010277803 0.25576696 0.22883475 0.052471336 -0.2728249 0.30212682 0.030985145
0.0046885298 -0.3053978 -0.05151207 -0.43669835 0.103287324 -0.25538337 0.50058246 -0.13656336
-0.1323316 -0.09021894 0.101309225 -0.5634649 -0.2586982 0.24371314 0.018284148 -0.095441006
0.071991004 -0.50208575 -0.5098391 0.017812587 0.17670807 0.18541795 -0.22544588 -0.02543892
-0.05033813 -0.21261397 -0.16687956 0.11558794 0.22344248 0.2568861 0.1100745 -0.2054694
-0.18378812 -0.32572553 0.2814752 0.4191015 -0.0637984 -0.11156075 -0.08525245 -0.22180472
-0.5187485 0.18421765 -0.009422817 0.18189125 -0.33024344 -0.1710828 -0.20317653 0.25198928
-0.31597546 -0.18609561 -0.01732198 0.32913765 0.36812475 0.2290084 -0.06940904 -0.1812628
0.11913906 0.4134727 0.08286273 -0.28834862 -0.565861 -0.10271855 0.33541986 0.015894255
-0.09863165 -0.038687676 -0.32281163 -0.1491701 -0.16563836 -0.09508844 0.21743378 0.36296114
-0.2680447 -0.26911387 -0.021886399 0.43440086 0.11786597 -0.2977664 -0.23983258 -0.4373439
-0.19353814 0.29035693 -0.21773681 0.22794726 -0.31875536 0.10731967 0.051704053 0.21470398
-0.2758673 -0.09328567 -0.031885937 -0.021033488 0.24840699 0.12748307 -0.0045106825 -0.28816932
0.095618315 0.449451 -0.067392476 -0.10658642 -0.40067336 0.12379677 0.33571088 0.23795195
-0.003975742 -0.15212312 -0.23068322 0.15976702 -0.2542386 -0.2962965 0.30402935 0.30624577
0.29822052 -0.2925412 -0.2772243 0.24837716 0.06321384 0.063155375 -0.19941494 -0.032143883
0.045734216 0.0052345814 0.05854376 -0.13136558 -0.50928056 0.10609848 0.20864679 0.1997756
00000000: 2d83 813e 4adc 723e daa4 00be f0ea c1be
00000010: 053c edbd e5cd 06bd 9732 fb3d 7b36 ae3e
00000020: 2468 003f 1686 0cbe 7f1c 993c ef38 c43d
00000030: b9d5 34be 29eb 86be bf66 fc3c f20e e43d
00000040: fa8f 86bd ea26 773e 25c9 20be 20d7 2a3e
00000050: 9198 133e 2efa 92be c00d 52be 67cc 0abe
00000060: 438d 9a3d e2bc c2bc eef1 fdbe 6aeb da3d
00000070: 7527 cf3d ce11 933d 9ae0 ce3e a2c2 633e
00000080: a14c 2d3e e384 b9be 6e38 ddbc 5a22 26be
00000090: 73c4 1b3e 52a5 8c3e ab1e 953e 2a6c 78be
000000a0: 0a87 43bd 5783 85be 4cce 3bbe 5ef4 8abe
000000b0: e0c4 2dbd d511 c33e d7b9 5bbe c6a2 b6bd
000000c0: 2ddb 2c3e c251 853e 0f55 953e b041 823e
000000d0: cf68 89b9 8f7a a4be 755a 623e 04e7 48be
000000e0: fca2 593e 4201 f43c d813 3e3e 71d4 3e3f
000000f0: 39e0 183e 049e 8e3e 58f8 2dbd 9edf 023e
00000100: f48d d2be 548c 873e f624 853e ec26 c6be
00000110: 30af 84be 655a 1c3e 6499 78be b05b 3a3e
00000120: 29f3 35bd d617 a33d 1def 2a3e 9405 12be
00000130: 6a24 3cbe 0317 c2be d5f3 273e 83a5 833e
00000140: c410 003e 9892 5d3e c60a d43d a54d c9be
00000150: a008 06be 904e cf3e 4385 6bbe 42f7 6abe
00000160: 4ddb 46bd e845 563e b380 473c c335 8f3e
00000170: 53cd fdbe b0a2 483e c5a4 ccbd 781a ce3d
00000180: 0d73 0cbe 30bf acbd 2ec9 283e 4fdb 843e
00000190: c08f aa3d 2ab5 c73d 1218 383e 619e 083e
000001a0: e9b4 d2bd 1e53 adbe 4073 58be 2384 82be
000001b0: 8176 863d d574 f83d 44b2 1a3f 6337 b2bd
000001c0: 7881 df3e f06f 033e 5e3a d93e 7703 673e
000001d0: ed89 d93b c3f5 d5bd 7b07 21be d2c4 d1bd
000001e0: 5008 d73d 3b64 283c e3f3 823e a853 6a3e
000001f0: 2fec 563d b5af 8bbe 5eb0 9a3e 8fd4 fd3c
00000200: 3da2 993b 1a5d 9cbe 52fe 52bd ed96 dfbe
00000210: 4e88 d33d 9cc1 82be 2c26 003f 44d7 0bbe
00000220: ef81 07be b5c4 b8bd 367b cf3d 3c3f 10bf
00000230: 1774 84be f08f 793e a3c8 953c 9376 c3bd
00000240: 0570 933d b188 00bf d184 02bf b4eb 913c
00000250: f6f2 343e 34de 3d3e 49db 66be 4865 d0bc
00000260: 5b2f 4ebd 7ab7 59be 7ae2 2abe 5fb9 ec3d
00000270: 1bce 643e 9386 833e bd6e e13d 9266 52be
00000280: f432 3cbe 7fc5 a6be 841d 903e 7994 d63e
00000290: bca8 82bd f679 e4bd d698 aebd c720 63be
000002a0: b4cc 04bf 8da3 3c3e 2962 1abc b341 3a3e
000002b0: ab15 a9be 5430 2fbe 820d 50be bd04 813e
000002c0: 89c7 a1be d98f 3ebe d3e6 8dbc bb84 a83e
000002d0: d97a bc3e 2e81 6a3e 5426 8ebd f59c 39be
000002e0: 2eff f33d b2b2 d33e efb3 a93d 6ea2 93be
000002f0: 44dc 10bf 1a5e d2bd 27bc ab3e ab34 823c
00000300: 64ff c9bd f876 1ebd 9147 a5be 0cc0 18be
00000310: 1a9d 29be babd c2bd f6a6 5e3e 0bd6 b93e
00000320: 283d 89be 4bc9 89be 1b4b b3bc ca69 de3e
00000330: b763 f13d d674 98be ac96 75be 8aeb dfbe
00000340: dd2e 46be aaa9 943e 66f6 5ebe 026b 693e
00000350: e733 a3be 6aca db3d a1c7 533d 5cdb 5b3e
00000360: 7b3e 8dbe 8f0c bfbd d49a 02bd 6c4e acbc
00000370: 675e 7e3e ec8a 023e 59ce 93bb ee8a 93be
00000380: 89d3 c33d 711e e63e 1105 8abd fb49 dabd
00000390: 0f25 cdbe 2989 fd3d 4ce2 ab3e ada9 733e
000003a0: f146 82bb 2ac6 1bbe 3938 6cbe f799 233e
000003b0: 902b 82be 2db4 97be bca9 9b3e 3fcc 9c3e
000003c0: 5cb0 983e f6c7 95be 58f0 8dbe 9556 7e3e
000003d0: 4276 813d 9b57 813d 6e33 4cbe 4ea9 03bd
000003e0: cd53 3b3d da86 ab3b 95cb 6f3d b384 06be
000003f0: 3660 02bf 294a d93d 81a7 553e fa91 4c3e

encoder.embed_x.weight f4 [28, 40]
0.74898934 0.3585163 -0.7516548 -0.5112425 0.015253106 0.5773869 -1.1923976 0.19206528
0.13139786 -1.1189283 -0.51630646 0.85599035 -0.16236944 0.7730574 0.46987915 0.6928843
-0.48157322 -1.2237083 1.3300687 0.30657285 -1.255475 1.9996328 -1.045876 0.91600263
0.5282494 -0.15764458 -0.66968 -0.008152905 -0.18026046 -0.5046937 -0.07403205 0.7610538
0.46370295 0.022153398 1.1585532 1.2479944 -0.22978696 0.33652654 1.8347535 0.539413
-0.61661994 0.57384855 -0.028142853 -1.9801736 0.87656015 0.53009194 -1.9217286 2.0071404
-0.39836487 -0.7707511 1.352814 0.3589073 -1.3563598 0.5045454 -0.8617504 1.2314837
-0.25148904 -0.3062111 -0.17886253 -0.22051544 2.6834488 0.3481658 0.46577287 0.15378144
-0.664122 0.5681141 0.80190456 0.8277969 -0.46035615 -0.93195033 -1.5060768 -0.5465259
-0.5492441 -1.6483977 -1.0045087 0.6047929 0.29967183 0.010132942 2.5566597 -0.5841337
-2.1258333 1.9761992 -0.7673402 0.8961893 -1.0510936 0.12343109 -0.025340598 -0.40817454
-1.0384816 1.9609442 -1.0687703 -1.1557766 -0.3976203 0.24188896 0.51809657 -0.64289534
-1.165043 2.3079891 0.78595793 1.5017927 -1.1232983 0.6297781 -0.07033991 -1.8597643
-2.6760688 -0.13633113 -0.18077877 0.40008256 -1.1815124 -1.1273221 2.072666 -0.8113489
0.20837438 0.1513597 0.3517388 2.257714 -0.21880522 0.636295 -1.8526735 0.3975297
-0.014494958 0.10691047 -0.07408362 -0.059346978 -0.39725462 1.6982682 -0.21096745 0.8006822
-2.1547034 0.16437484 -0.16598873 0.0287301 0.96104914 -0.5251424 -0.09187887 0.5401052
-0.8160021 -0.66581714 -1.1389126 1.8224288 -0.29310966 0.8395872 0.5158144 1.0458051
0.47266725 -1.6898717 1.0608855 3.0977788 0.9062594 1.8578613 -0.62635314 -2.3135982
0.4440012 0.7814881 0.2994344 1.2457958 0.9978507 -0.46295974 -0.97836775 -0.053138155
-0.5518985 1.4143806 1.3336575 -0.93723315 0.3978176 0.8956438 1.0423659 -2.6728656
-0.9131453 0.315125 2.2537487 1.2572173 -0.8096186 -0.09622588 -1.339742 0.86477387
1.0433728 -0.988976 -0.60165256 -1.464374 1.7798965 -0.63349557 0.14023414 -1.500574
0.11682046 -0.14788833 0.26085368 -0.70999324 -0.25233385 0.7787744 1.0995626 2.0196598
-0.5193506 1.2473754 0.29498783 0.44793734 -0.043869197 0.685073 1.2682897 -0.5202255
-1.6249644 0.18550617 -0.3702848 0.70571756 0.87160164 -0.17356126 0.61081356 -1.260935
-1.1277337 -0.39944983 -0.4403267 -1.1058534 0.9870228 -0.17865777 -1.6877581 0.2505088
-0.15521412 0.28060934 0.39814562 -1.8030255 0.7076608 -0.4787918 -1.0333483 -1.081755
1.4604979 0.5407937 1.0874295 2.0936322 0.45245385 -0.5963984 -2.8333917 -0.17288914
-2.588896 0.79823256 -2.493841 -0.051607676 0.30304295 1.2856708 -0.3524098 1.0511467
0.572519 0.8656202 0.16777788 -0.9917858 -0.8605757 0.15480076 -0.21876569 0.31358752
-0.56124896 2.8844724 1.138037 0.057287328 0.40542388 -0.41582564 -0.8092789 -1.9068149
00000000: c4bd 3f3f 738f b73e 736c 40bf cae0 02bf
00000010: 2ae8 793c a1cf 133f 7ca0 98bf c3ac 443e
00000020: 298d 063e 0b39 8fbf a92c 04bf 2f22 5b3f
00000030: 2d44 26be 17e7 453f 0094 f03e de60 313f
00000040: c490 f6be 79a2 9cbf b13f aa3f 1ef7 9c3e
00000050: 68b3 a0bf f8f3 ff3f 44df 85bf 267f 6a3f
00000060: 5a3b 073f 956d 21be 2670 2bbf c393 05bc
00000070: 3396 38be 9b33 01bf 1e9e 97bd 6cd4 423f
00000080: 796a ed3e 0b7b b53c 794b 943f 48be 9f3f
00000090: 464d 6bbe 354d ac3e 34d9 ea3f f816 0a3f
000000a0: ceda 1dbf bde7 123f d78b e6bc 5476 fdbf
000000b0: 3f66 603f 1bb4 073f 34fb f5bf fd74 0040
000000c0: 7bf6 cbbe f24f 45bf 0229 ad3f b3c2 b73e
000000d0: 339d adbf e329 013f ad9b 5cbf 42a1 9d3f
000000e0: 2cc3 80be b4c7 9cbe bd27 37be cdce 61be
000000f0: a0bd 2b40 ca42 b23e c879 ee3e e278 1d3e
00000100: e603 2abf ed6f 113f 9e49 4d3f 7fea 533f
00000110: cdb3 ebbe 4c94 6ebf 20c7 c0bf 1fe9 0bbf
00000120: 439b 0cbf b2fe d2bf be93 80bf b5d3 1a3f
00000130: 966e 993e a404 263c 50a0 2340 c989 15bf
00000140: a70d 08c0 18f4 fc3f 6870 44bf a96c 653f
00000150: 3c8a 86bf 70c9 fc3d 1697 cfbc 41fc d0be
00000160: f7ec 84bf 3800 fb3f 77cd 88bf 7df0 93bf
00000170: e394 cbbe bdb1 773e faa1 043f ca94 24bf
00000180: 2120 95bf 18b6 1340 8a34 493f be3a c03f
00000190: 3dc8 8fbf 2339 213f 5f0e 90bd c20c eebf
000001a0: b644 2bc0 639a 0bbe 121e 39be 9fd7 cc3e
000001b0: cc3b 97bf 174c 90bf 8fa6 0440 90b4 4fbf
000001c0: 1860 553e 0afe 1a3e 1c17 b43e 637e 1040
000001d0: 7a0e 60be 3be4 223f 6824 edbf 0389 cb3e
000001e0: 437c 6dbc e0f3 da3d 27b9 97bd d115 73bd
000001f0: f564 cbbe da60 d93f da07 58be 82f9 4c3f
00000200: a9e6 09c0 e151 283e f3f8 29be 635b eb3c
00000210: 5107 763f bb6f 06bf fd2a bcbd 5644 0a3f
00000220: 83e5 50bf fe72 2abf e3c7 91bf 5945 e93f
00000230: 7812 96be 30ef 563f 6a0c 043f f1dc 853f
00000240: 7101 f23e b74d d8bf 19cb 873f 0242 4640
00000250: 9e00 683f 66ce ed3f ae58 20bf fe11 14c0
00000260: 2054 e33e 9b0f 483f 774f 993e 3d76 9f3f
00000270: 2573 7f3f 0f09 edbe 4f76 7abf 65a7 59bd
00000280: 3849 0dbf 6c0a b53f 4ab5 aa3f 83ee 6fbf
00000290: c0ae cb3e e948 653f 3f6c 853f 3b10 2bc0
000002a0: e4c3 69bf 1058 a13e 6b3d 1040 7fec a03f
000002b0: 2a43 4fbf 1312 c5bd aa7c abbf d261 5d3f
000002c0: 3d8d 853f 882d 7dbf e705 1abf 9b70 bbbf
000002d0: a6d3 e33f c42c 22bf 8a99 0f3e cf12 c0bf
000002e0: 913f ef3d 0a70 17be 9d8e 853e 1ec2 35bf
000002f0: e731 81be c25d 473f 78be 8c3f 1b42 0140
00000300: 29f4 04bf ffa9 9f3f a508 973e 0b58 e53e
00000310: 30b0 33bd f260 2f3f 5157 a23f 802d 05bf
00000320: d5fe cfbf 54f5 3d3e f895 bdbe e8a9 343f
00000330: 4921 5f3f 0bba 31be 475e 1c3f 5166 a1bf
00000340: 9459 90bf b084 ccbe 8072 e1be 9b8c 8dbf
00000350: 87ad 7c3f 10f2 36be 7508 d8bf b042 803e
00000360: 73f0 1ebe 07ac 8f3e bed9 cb3e 8ac9 e6bf
00000370: 4229 353f 3324 f5be c244 84bf f376 8abf
00000380: 98f1 ba3f 7571 0a3f e430 8b3f 12fe 0540
00000390: 08a8 e73e 91ad 18bf 4a56 35c0 da09 31be
000003a0: 79b0 25c0 f858 4c3f 179b 1fc0 9262 53bd
000003b0: 7228 9b3e dc90 a43f 0f6f b4be fa8b 863f
000003c0: 9b90 123f 4999 5d3f f7cd 2b3e ade5 7dbf
000003d0: b04e 5cbf 1784 1e3e 1d04 60be 8b8e a03e
000003e0: 03ae 0fbf 329b 3840 32ab 913f 1ea6 6a3d
000003f0: b893 cf3e 19e7 d4be e72c 4fbf 8312 f4bf

encoder.trans_linear.weight f4 [40, 5]
-0.20263134 0.67970425 -0.4589923 -0.068223655 1.2430087 -0.8373717 0.17393991 -0.39364764
-0.14822178 0.1536729 -0.14963819 -0.29338986 0.3237121 -0.826772 0.40391392 0.4334606
0.20847617 0.8880622 0.12713972 0.49054304 0.61348337 0.439911 -0.182394 0.2878491
0.487847 -0.46063372 -0.8049344 0.10700518 0.82011175 -0.015656892 -0.14283943 0.4744444
-0.54811084 0.2898804 -0.14796467 -0.8773038 0.049107075 -0.48223856 -0.89953524 0.62334335
-0.38683373 -0.02278811 -0.51038396 0.75120014 -0.42040408 0.32492822 -0.5050958 -0.035700794
0.17825879 0.19621015 0.29728815 0.6138019 0.1867981 0.43964848 -0.10248026 0.71776956
-0.9269639 -0.3147696 -0.6428644 0.22899672 0.3678995 -0.12487817 -0.639741 0.20578673
-0.98443574 -0.14102632 -0.14691207 -0.45203304 0.09061165 0.3198944 -0.88532263 0.61176926
0.71720284 -0.54997724 -0.18471374 0.3401684 0.164976 0.17695503 0.6501453 0.025584392
-0.2402184 -0.23032208 -0.87981355 0.20730746 -0.5324732 -0.41897884 0.44601306 -0.082021445
0.23401795 0.32913145 -0.41864717 -0.46730122 0.19929904 -0.1723388 0.08835046 -0.28836143
-0.62979937 0.43689284 -0.32367796 0.5204723 0.791446 -1.0107853 -0.5315469 -0.36762777
0.3160205 -0.032275237 0.053766433 0.7742618 1.2365493 0.33120787 0.18664937 0.506628
0.24839602 -0.25461444 -0.061349183 -0.43383786 -0.6650915 -0.6577742 1.1727368 -0.63344425
0.4778622 -0.1266958 -0.42369404 -0.67357445 0.47714862 -0.11201153 -0.83228385 1.0519036
0.073424414 -0.23286884 -0.039433394 -0.55248326 0.44955283 -0.6060624 -0.5694025 0.21485741
0.4926683 -0.31610826 -0.93728656 0.33347955 -0.46479237 0.27896637 -0.16751096 -0.16748573
0.5813794 0.017141847 0.49332783 0.78887 -0.089253776 -0.35181975 0.68749166 0.4105295
-0.7471348 -0.33875668 0.062001523 0.023091033 0.03632357 -0.26669073 -1.0727068 -0.5697322
-0.07027934 0.3019641 0.22776565 -0.39487445 -0.7232795 -0.3088413 -0.7356677 -0.14655523
0.5532225 0.23944515 0.2551467 0.54834723 -0.5636673 0.41230866 0.12878388 -0.4011594
0.46898586 0.09436634 -0.18531825 0.5784581 -0.31823045 0.2120058 0.029384226 0.052155633
-0.28127047 -0.47166765 0.6932811 -0.35150748 -0.2160241 -0.33843863 0.7383437 0.11507936
0.78792226 -0.123918824 0.042764958 0.89775276 -0.46036696 0.45786646 -0.16226691 -0.669117
00000000: 977e 4fbe 1901 2e3f 0a01 ebbe d8b8 8bbd
00000010: e91a 9f3f fe5d 56bf 4e1d 323e 2f8c c9be
00000020: 73c7 17be 6e5c 1d3e c13a 19be 3237 96be
00000030: 98bd a53e 54a7 53bf cecd ce3e 8cee dd3e
00000040: c77a 553e 0b58 633f ea30 023e 7528 fb3e
00000050: 3f0d 1d3f 043c e13e 7ec5 3abe f560 933e
00000060: 15c7 f93e 2fd8 ebbe 2e10 4ebf 8825 db3d
00000070: d8f2 513f e242 80bc 8044 12be 60ea f23e
00000080: fe50 0cbf 346b 943e 0d84 17be fb96 60bf
00000090: 8024 493d f9e7 f6be f147 66bf 6e93 1f3f
000000a0: 120f c6be 21ae babc 86a8 02bf a74e 403f
000000b0: 343f d7be fe5c a63e f54d 01bf ff3a 12bd
000000c0: 7989 363e 50eb 483e 2736 983e 1f22 1d3f
000000d0: 0048 3f3e 9b19 e13e 2ce1 d1bd bfbf 373f
000000e0: 824d 6dbf 7b29 a1be c392 24bf 1e7e 6a3e
000000f0: 535d bc3e 20c0 ffbd 11c6 23bf c2b9 523e
00000100: fb03 7cbf 3469 10be 1e70 16be e070 e7be
00000110: 9a92 b93d 33c9 a33e 81a4 62bf e99c 1c3f
00000120: 9b9a 373f 4fcb 0cbf 9925 3dbe 8d2a ae3e
00000130: 78ef 283e b333 353e ec6f 263f 5c96 d13c
00000140: d0fb 75be 8dd9 6bbe 763b 61bf 6848 543e
00000150: 2a50 08bf 6584 d6be d35b e43e dcfa a7bd
00000160: 67a2 6f3e eb83 a83e ec58 d6be 1b42 efbe
00000170: 0c15 4c3e 9579 30be 16f1 b43d 1ca4 93be
00000180: 883a 21bf 6bb0 df3e 1eb9 a5be ac3d 053f
00000190: 349c 4a3f 6a61 81bf 7513 08bf b539 bcbe
000001a0: 70cd a13e 0a33 04bd 313a 5c3d 0536 463f
000001b0: 3f47 9e3f 1494 a93e 0321 3f3e 5fb2 013f
000001c0: 875b 7e3e d35c 82be 4849 7bbd ff1f debe
000001d0: 7043 2abf e463 28bf 3d1c 963f 6729 22bf
000001e0: 5baa f43e 8bbc 01be 6dee d8be 606f 2cbf
000001f0: d34c f43e 4d66 e5bd 8e10 55bf c7a4 863f
00000200: 8a5f 963d 2b75 6ebe e984 21bd 8b6f 0dbf
00000210: ca2b e63e e826 1bbf 5dc4 11bf 9503 5c3e
00000220: 053f fc3e f1d8 a1be 03f2 6fbf d5bd aa3e
00000230: 44f9 edbe aed4 8e3e fe87 2bbe 6181 2bbe
00000240: 48d5 143f 0f6d 8c3c 7795 fc3e 62f3 493f
00000250: afca b6bd b821 b4be 74ff 2f3f ec30 d23e
00000260: 3a44 3fbf 8471 adbe 4ff5 7d3d 6829 bd3c
00000270: 06c8 143d b08b 88be 754e 89bf f8d9 11bf
00000280: 9dee 8fbd 0a9b 9a3e 663b 693e fc2c cabe
00000290: d828 39bf 7220 9ebe b854 3cbf 9312 16be
000002a0: fd9f 0d3f 1c31 753e 97a2 823e 7c60 0c3f
000002b0: 804c 10bf 1f1a d33e ecdf 033e c464 cdbe
000002c0: ea1e f03e 2443 c13d 11c4 3dbe d415 143f
000002d0: 1aef a2be 0c18 593e 30b7 f03c 25a1 553d
000002e0: af02 90be 6c7e f1be df7a 313f caf8 b3be
000002f0: 6c35 5dbe d447 adbe 1804 3d3f baae eb3d
00000300: 46b5 493f 27c9 fdbd 4f2a 2f3d 20d3 653f
00000310: 38b5 ebbe 796d ea3e 4c29 26be 404b 2bbf

encoder.trans_linear.bias f4 [40]
0.15948 0.27291682 -0.09723483 0.27134016 -0.17677018 -0.36887336 -0.2252117 -0.21756274
0.11120858 0.020279236 0.0073230714 0.119913325 0.31293225 -0.07366551 -0.32093012 -0.37299645
-0.2421046 0.0020925342 -0.4307318 -0.23581412 -0.16559327 0.08219255 -1.1075612e-05 -0.22281629
0.07678332 0.17360422 0.44622037 0.23812887 0.2114835 0.3447216 0.25453916 0.11822489
-0.10054779 0.0981096 -0.033473108 0.025486693 -0.22130258 0.24408443 -0.0390316 -0.20754847
00000000: ba4e 233e c1bb 8b3e 0e23 c7bd 19ed 8a3e
00000010: 3e03 35be f8dc bcbe e59d 66be c4c8 5ebe
00000020: 53c1 e33d a420 a63c 60f6 ef3b 1e95 f53d
00000030: a838 a03e f1dd 96bd f450 a4be 64f9 bebe
00000040: 45ea 77be e622 093b e188 dcbe 4279 71be
00000050: 4891 29be 9154 a83d 64d1 39b7 f429 64be
00000060: 9340 9d3d 4ec5 313e ff76 e43e 0ed8 733e
00000070: 218f 583e 597f b03e f552 823e e41f f23d
00000080: 00ec cdbd b0ed c83d 191b 09bd 78c9 d03c
00000090: 259d 62be 45f1 793e 99df 1fbd 9687 54be

encoder.conv_mu.bias f4 [20]
0.0077092093 0.048571732 0.072510116 0.1366479 0.10923231 -0.00012419984 -0.07970406 0.04776041
0.021513043 0.08329027 0.16156346 -0.08655979 0.11406473 -0.092696875 -0.099576205 0.008209494
0.13722186 -0.09452015 0.013179501 -0.049584642
00000000: 899d fc3b 27f3 463d 2f80 943d 6ded 0b3e
00000010: 30b5 df3d a43b 02b9 e23b a3bd 6ba0 433d
00000020: 1f3c b03c 1794 aa3d e470 253e 4246 b1bd
00000030: c59a e93d dcd7 bdbd 9cee cbbd 1d81 063c
00000040: e383 0c3e c893 c1bd d5ee 573c 4419 4bbd

encoder.conv_mu.lin.weight f4 [20, 20]
0.0034246622 -0.17902157 -0.04661439 0.124158286 0.00927341 0.15926734 -0.5202986 0.18060808
0.28111938 -0.34737626 -0.5312694 0.3642233 -0.15914857 -0.5811195 0.23722717 0.50788003
0.21141706 0.4581333 -0.14857191 -0.03857073 -0.81169635 -0.015901659 0.34423 -0.4599056
0.15705669 -0.04174163 0.328013 -0.17970078 0.086096294 -0.33769798 0.26395932 -0.5487222
0.28074184 -0.36596155 0.1261095 -0.096971445 0.7399987 0.08799587 0.18387304 0.04369157
0.13861516 -0.5115741 -0.16021174 0.17411181 -0.12237963 0.19319525 0.06854313 0.19739744
-0.16578804 -0.014951811 0.31273627 0.09475168 -0.083048314 -0.1254819 0.012936129 -0.13960913
0.042038023 0.0013633261 0.1654132 0.06655828 -0.30275297 -0.38175476 0.010577543 0.19580731
0.021277279 0.10104175 -0.45514002 -0.6106365 0.14288074 0.09509346 0.61474633 0.6384877
-0.3588614 0.32634273 -0.20466329 0.40076995 0.17579 -0.2651109 -0.1204131 -0.37163633
-0.2689328 0.5040948 -0.28713912 0.414524 -0.0085773915 -0.29278818 0.1443366 -0.19209866
-0.22697723 -0.12842701 0.46932223 -0.08831152 0.27243382 0.45638016 0.28441417 -0.03266462
-0.28057063 0.51316744 0.3345448 -0.07327367 0.31716207 -0.12512249 0.12886563 -0.09013771
0.026470417 0.012721417 0.4108168 0.11896174 -0.2741356 -0.1696187 -0.5909459 -0.27908602
-0.264107 0.5224816 0.53652644 0.149588 0.14971656 -0.3050654 -0.028283093 0.24343358
-0.45164102 -0.097292304 -0.12944448 0.22291236 -0.27796754 0.16715315 0.012372434 -0.3982668
-0.5508531 0.20117658 -0.43156117 0.13744108 0.6742226 -0.55331343 0.2711335 -0.10932163
0.14122808 -0.1441051 -0.15696837 0.5360706 0.09145612 -0.2580766 -0.36679077 0.13416877
0.6147719 0.09351494 0.35320246 -0.17581244 0.14973177 -0.1303814 -0.3014425 0.23063669
0.27443534 0.038735196 -0.113933936 0.45966473 0.18600202 0.27365136 -0.24827453 -0.2100615
-0.34005097 -0.05875229 -0.35030156 -0.48224846 0.176059 -0.1959322 0.19821966 0.486778
0.3504949 -0.069344796 0.021820081 0.2990075 -0.020640025 0.15518935 0.3834874 -0.43815133
-0.09998411 -0.38395828 -0.043753937 0.453505 0.10460715 0.41130418 -0.030080546 -0.2676568
0.36790684 -0.22096358 -0.15210102 0.40685084 0.4467984 -0.31383845 0.22161108 -0.27610463
0.32373658 -0.29109317 0.5812086 0.2669865 0.28605098 -0.16166635 -0.31703424 -0.16297145
0.05401276 0.44759396 0.13042457 0.7393447 0.77587223 -0.3063774 0.036996208 0.16801576
-0.23620163 -0.3441618 0.15931565 0.20739016 0.1612437 -0.34508973 -0.12910914 -0.18257861
0.23809235 -0.17092872 0.3642376 -0.13993621 0.016086867 0.21814868 -0.24523768 0.4354611
0.084232435 -0.15861423 0.4703013 -0.34999442 0.13555568 -0.026364148 0.35723174 -0.08444389
-0.4792006 -0.3620341 0.05446943 0.49711177 0.6383978 -0.40459847 -0.026859477 0.36901218
-0.32440034 -0.12639128 -0.3055261 0.11245424 -0.70576876 0.37769824 0.22839333 0.4112628
0.38040146 0.13654861 -0.104046024 -0.15388007 0.08457356 -0.24914883 -0.13794324 0.2240236
00000000: 4c70 603b 6e51 37be bbee 3ebd b346 fe3d
00000010: 80ef 173c fa16 233e 4a32 05bf 53f1 383e
00000020: e1ee 8f3e 4ddb b1be 4501 08bf 7a7b ba3e
00000030: d8f7 22be 3fc4 14bf aeeb 723e 6d04 023f
00000040: b77d 583e 7390 ea3e 3c23 18be 57fc 1dbd
00000050: 55cb 4fbf 3244 82bc ea3e b03e bf78 ebbe
00000060: 78d3 203e 45f9 2abd 52f1 a73e 7b03 38be
00000070: 4153 b03d c0e6 acbe ad25 873e 0f79 0cbf
00000080: 65bd 8f3e 505f bbbe d922 013e f798 c6bd
00000090: 8e70 3d3f 2e37 b43d 3749 3c3e eff5 323d
000000a0: 22f1 0d3e 85f6 02bf 8c0e 24be 5e4a 323e
000000b0: 2ca2 fabd fad4 453e 5760 8c3d 8e22 4a3e
000000c0: 57c4 29be 71f8 74bc f81e a03e 2b0d c23d
000000d0: 3c15 aabd 547e 00be 0ff2 533c b2f5 0ebe
000000e0: 1030 2c3d a2b1 b23a 1462 293e b54f 883d
000000f0: 7002 9bbe 5c75 c3be 6e4d 2d3c b681 483e
00000100: b04d ae3c faee ce3d 1d08 e9be ac52 1cbf
00000110: 544f 123e 5cc0 c23d 0460 1d3f ee73 233f
00000120: aebc b7be 6516 a73e 4193 51be b831 cd3e
00000130: 4b02 343e 9ebc 87be 259b f6bd 1e47 bebe
00000140: 8fb1 89be 5b0c 013f e603 93be 7d3c d43e
00000150: 3088 0cbc 55e8 95be f9cc 133e 83b5 44be
00000160: b86c 68be 5f82 03be 014b f03e acdc b4bd
00000170: 727c 8b3e a9aa e93e bc9e 913e 56cb 05bd
00000180: f4a6 8fbe f15e 033f 7549 ab3e 8210 96bd
00000190: 1163 a23e 1c20 00be 5af5 033e 1f9a b8bd
000001a0: 7dd8 d83c 7d6d 503c 9456 d23e 36a2 f33d
000001b0: 805b 8cbe 86b0 2dbe 3b48 17bf 5de4 8ebe
000001c0: 0839 87be 5bc1 053f cc59 093f 992d 193e
000001d0: 4c4f 193e 8831 9cbe f2b1 e7bc a746 793e
000001e0: 7e3d e7be 3041 c7bd 188d 04be 2343 643e
000001f0: c351 8ebe 322a 2b3e c0b5 4a3c a0e9 cbbe
00000200: b504 0dbf 3c01 4e3e 96f5 dcbe 5bbd 0c3e
00000210: da99 2c3f f3a5 0dbf 03d2 8a3e 05e4 dfbd
00000220: 189e 103e 4a90 13be 51bc 20be ec3b 093f
00000230: 594d bb3d 9e22 84be 00cc bbbe 8a63 093e
00000240: b161 1d3f c384 bf3d f4d6 b43e 2d08 34be
00000250: 4953 193e b482 05be ac56 9abe 062c 6c3e
00000260: ca82 8c3e cca8 1e3d 3256 e9bd 2d59 eb3e
00000270: 5077 3e3e 081c 8c3e ae3b 7ebe 5d1a 57be
00000280: 291b aebe 3ea6 70bd ba5a b3be 45e9 f6be
00000290: cf48 343e 73a2 48be 18fa 4a3e f73a f93e
000002a0: 1174 b33e a504 8ebd 07c0 b23c 8317 993e
000002b0: 4515 a9bc f5e9 1e3e 7658 c43e 5f55 e0be
000002c0: 78c4 ccbd 2e96 c4be 5437 33bd cf31 e83e
000002d0: 463c d63d 7696 d23e 7a6b f6bc 500a 89be
000002e0: 495e bc3e 4744 62be 5fc0 1bbe c14e d03e
000002f0: c3c2 e43e 6faf a0be 04ee 623e 965d 8dbe
00000300: cdc0 a53e 2a0a 95be 16ca 143f 74b2 883e
00000310: 4675 923e dd8b 25be 5052 a2be fde1 26be
00000320: 7c3c 5d3d 092b e53e 058e 053e b245 3d3f
00000330: 909f 463f 80dd 9cbe 5689 173d 530c 2c3e
00000340: d7de 71be fa35 b0be a423 233e 165e 543e
00000350: 121d 253e 9aaf b0be 3035 04be e3f5 3abe
00000360: 7bce 733e f007 2fbe 5a7d ba3e 704b 0fbe
00000370: 9bc8 833c 5e62 5f3e 961f 7bbe c2f4 de3e
00000380: 0e82 ac3d c56b 22be 55cb f03e 7832 b3be
00000390: 1ccf 0a3e a0f9 d7bc 14e7 b63e ebf0 acbd
000003a0: c859 f5be 895c b9be 561b 5f3d 6f85 fe3e
000003b0: 0a6e 233f 8827 cfbe 6808 dcbc 2aef bc3e
000003c0: cd17 a6be b76c 01be eb6d 9cbe 694e e63d
000003d0: 43ad 34bf aa61 c13e f1df 693e 0a91 d23e
000003e0: fbc3 c23e 66d3 0b3e 1516 d5bd bd92 1dbe
000003f0: e734 ad3d df20 7fbe fe40 0dbe 7166 653e

encoder.conv_logstd.bias f4 [20]
-0.47237524 -0.4335398 -0.28257543 -0.3874874 -0.5351919 -0.45455778 -0.38677537 -0.4593581
-0.5696228 -0.413965 -0.20953947 -0.63159055 -0.56733185 -0.5629429 -0.49649602 -0.28894067
-0.26062685 -0.40151277 -0.5006876 -0.24390529
00000000: 2bdb f1be eef8 ddbe baad 90be c064 c6be
00000010: 5602 09bf ccbb e8be 6c07 c6be fc30 ebbe
00000020: cdd2 11bf 38f3 d3be 8491 56be ebaf 21bf
00000030: a93c 11bf 071d 10bf ba34 febe 08f0 93be
00000040: e270 85be 1593 cdbe 102d 00bf 4fc2 79be

encoder.conv_logstd.lin.weight f4 [20, 20]
-0.36579454 -0.090899475 -0.15608868 -0.04072184 0.23095356 -0.23610811 -0.030335775 0.12713559
-0.0975315 -0.3863435 -0.07448033 -0.10664063 -0.0053093703 -0.10572623 -0.20239402 -0.3310101
-0.114041395 -0.0702788 -0.014647597 0.14652766 -0.14312722 0.037305176 -0.19485839 -0.014206261
-0.13391633 0.071499705 0.05840226 0.13036202 -0.22000478 -0.33776736 0.04013906 -0.06730252
0.012454373 0.1312121 -0.20710118 -0.3717768 -0.031137152 -0.19300145 -0.113300085 0.01277697
-0.007531907 0.07434288 -0.2221501 0.008904442 0.004554586 0.05093526 0.057665918 0.24495034
-0.008970017 -0.5327223 -0.08191111 -0.022237204 -0.010808275 -0.048961155 -0.21186228 -0.2046297
0.07182558 -0.1240414 -0.13629282 -0.20953187 -0.077436514 0.0059843287 -0.15457587 0.14464705
0.14826374 -0.21882157 -0.015223828 0.11612172 -0.29713598 -0.3911623 -0.077735 0.076387644
0.039150774 -0.09086689 -0.30135906 -0.39449167 -0.20152703 -0.0405111 0.025668586 0.07825596
-0.16032499 0.037885915 -0.15510955 0.007143266 0.15439726 -0.13958251 0.012260243 0.21230276
-0.14648685 -0.4571428 -0.059935063 -0.021085516 0.0333627 -0.09139042 -0.15240052 -0.39955473
-0.071294405 -0.14926142 -0.032740116 0.040703107 -0.1602083 -0.0011439805 -0.21411507 -0.0130396485
0.12273639 -0.053254988 0.02120909 0.15176295 -0.1301572 -0.40328678 -0.06316259 0.02094811
-0.028062966 -0.0037574985 -0.18766801 -0.32571822 -0.052161504 -0.13746436 -0.14511546 -0.032764312
-0.19627385 0.03751784 -0.26706353 0.040713433 -0.12521355 0.12775399 0.008159175 0.04577087
-0.10674034 -0.3116049 0.010639884 0.04207263 -0.078561224 0.13310501 -0.35731196 -0.22157338
-0.053974308 -0.07213452 -0.18220352 -0.16153103 -0.20538202 0.06503944 -0.2478356 -0.06700211
-0.25270826 0.23733729 -0.00718453 0.038100082 -0.056321837 -0.31777477 0.06305417 -0.07938881
-0.012571007 0.15239625 -0.19252533 -0.15139295 0.107582755 -0.11737269 -0.24480839 -0.13117293
-0.3238131 0.04109716 -0.20042948 0.096744806 0.054151256 -0.06178715 -0.069282174 0.19523294
-0.06980632 -0.48161697 0.026004802 -0.12523536 -0.06360258 -0.09296141 -0.17666236 -0.2673706
0.07197532 -0.12938382 -0.114051186 0.08948866 -0.10555655 -0.079406835 -0.24346326 -0.033938274
0.253634 -0.19758745 0.01895514 0.13651355 -0.1259361 -0.35521948 -0.08565897 0.124360606
-0.00065976894 -0.13353954 -0.21975395 -0.22889645 -0.08832881 -0.04798717 -0.096247084 -0.06637024
0.1907042 0.04490603 -0.27128974 -0.10585394 0.008180906 0.045693163 0.14384544 0.25098088
-0.34465128 -0.60562307 -0.06401433 0.1848378 0.20918675 0.01584425 0.02426154 -0.39548734
0.2686092 -0.2671149 -0.16040063 -0.15019986 -0.40708387 -0.2025785 -0.2500528 -0.1096582
0.23765847 -0.28717873 -0.031069191 0.06207951 -0.1044911 -0.2358457 -0.09271236 0.045802854
-0.06060493 -0.046386305 -0.24484628 -0.28980213 -0.26582763 -0.0013708593 -0.06957498 0.15305468
-0.08630223 0.055836406 -0.14425892 0.09861612 0.056229565 -0.058964834 -0.11854515 0.18357499
-0.11275823 -0.38400567 -0.12071138 0.07477275 -0.11932756 -0.0280354 -0.17532343 -0.3065676
00000000: 6c49 bbbe 8129 babd b6d5 1fbe f2cb 26bd
00000010: 177f 6c3e 53c6 71be bb82 f8bc d52f 023e
00000020: 98be c7bd d1ce c5be 2589 98bd 6766 dabd
00000030: 3afa adbb fe86 d8bd 6140 4fbe 287a a9be
00000040: 898e e9bd 55ee 8fbd 7afc 6fbc 590b 163e
00000050: f18f 12be 50cd 183d f588 47be 61c1 68bc
00000060: 5d21 09be 706e 923d 3537 6f3d 9f7d 053e
00000070: ef48 61be d8ef acbe db68 243d e7d5 89bd
00000080: 6d0d 4c3c 775c 063e 5512 54be 8759 bebe
00000090: 5713 ffbc 2ca2 45be e009 e8bd 7f56 513c
000000a0: 37ce f6bb 1441 983d 517b 63be f0e3 113c
000000b0: a33e 953b 7ea1 503d 1933 6c3d 43d4 7a3e
000000c0: faf6 12bc 7d60 08bf 03c1 a7bd cc2a b6bc
000000d0: 3115 31bc 7e8b 48bd 6df2 58be 738a 51be
000000e0: 4a19 933d 6b09 febd 5890 0bbe 868f 56be
000000f0: 0997 9ebd 3018 c43b 2349 1ebe 5b1e 143e
00000100: 73d2 173e c312 60be 5d6d 79bc 39d1 ed3d
00000110: 3522 98be 6d46 c8be 8733 9fbd 2071 9c3d
00000120: 905c 203d 6c18 babd bc4b 9abe d0fa c9be
00000130: 1a5d 4ebe f8ee 25bd ed46 d23c a944 a03d
00000140: 3c2c 24be 432e 1b3d 0ad5 1ebe 0f12 ea3b
00000150: 511a 1e3e b8ee 0ebe 30df 483c e565 593e
00000160: a600 16be 9f0e eabe 787e 75bd 88bb acbc
00000170: 54a7 083d e72a bbbd e20e 1cbe 7092 ccbe
00000180: cd02 92bd fcd7 18be 801a 06bd 4db8 263d
00000190: a50d 24be 9ef1 95ba fb40 5bbe 40a4 55bc
000001a0: 375d fb3d e721 5abd afbe ad3c bf67 1b3e
000001b0: ee47 05be 9b7b cebe 635b 81bd 5f9b ab3c
000001c0: 4ee4 e5bc 5d40 76bb 0b2c 40be 8ac4 a6be
000001d0: 4da7 55bd 75c3 0cbe 2699 14be df33 06bd
000001e0: 03fc 48be 4eac 193d 8dbc 88be 21c3 263d
000001f0: fb37 00be f1d1 023e 0fae 053c 3c7a 3b3d
00000200: ae9a dabd ad8a 9fbe e852 2e3c 5a54 2c3d
00000210: b5e4 a0bd ae4c 083e 98f1 b6be 22e4 62be
00000220: 2a14 5dbd 43bb 93bd 8f93 3abe 6468 25be
00000230: aa4f 52be 6633 853d 9ec8 7dbe 6738 89bd
00000240: fa62 81be 8c08 733e 356c ebbb d50e 1c3d
00000250: bab1 66bd 60b3 a2be 8b22 813d 9a96 a2bd
00000260: a0f6 4dbc c30d 1c3e 5c25 45be c106 1bbe
00000270: 5954 dc3d 1861 f0bd 0daf 7abe 3252 06be
00000280: d5ca a5be 7f55 283d 633d 4dbe 2422 c63d
00000290: b5cd 5d3d 8614 7dbd d0e3 8dbd 25eb 473e
000002a0: 9ef6 8ebd 8096 f6be 0608 d53c b33d 00be
000002b0: 1242 82bd 8d62 bebd fae6 34be cde4 88be
000002c0: cc67 933d 317d 04be ab93 e9bd d545 b73d
000002d0: 082e d8bd 0da0 a2bd 6f4e 79be dc02 0bbd
000002e0: 51dc 813e 5d54 4abe cf47 9b3c 35ca 0b3e
000002f0: 65f5 00be 54df b5be f86d afbd c6b0 fe3d
00000300: 58f4 2cba 97be 08be 2e07 61be d563 6abe
00000310: bce5 b4bd 328e 44bd 311d c5bd 1fed 87bd
00000320: f647 433e 63ef 373d 7de6 8abe f3c9 d8bd
00000330: 3509 063c c128 3b3d 384c 133e 9180 803e
00000340: 2276 b0be 1d0a 1bbf f219 83bd 1f46 3d3e
00000350: 0d35 563e cdcb 813c 23c0 c63c 517d cabe
00000360: 2587 893e 49c3 88be 1040 24be fecd 19be
00000370: 4c6d d0be bd70 4fbe ec06 80be 7a94 e0bd
00000380: be5c 733e 1709 93be d184 febc 1647 7e3d
00000390: 6eff d5bd 8981 71be fadf bdbd c69b 3b3d
000003a0: e03c 78bd 91ff 3dbd fcb8 7abe f260 94be
000003b0: 8f1a 88be 68ae b3ba 547d 8ebd 5eba 1c3e
000003c0: 39bf b0bd b7b4 643d 9cb8 13be 40f7 c93d
000003d0: f950 663d 1c85 71bd cdc7 f2bd 15fb 3b3e
000003e0: c9ed e6bd 649c c4be 8737 f7bd 7522 993d
000003f0: 0262 f4bd 7faa e5bc fc87 33be 6ef6 9cbe
