results/model_GCN/graph_split_/layers_2/transform_False/alpha_0.1/model.pt (torch, 20917 bytes, 9 tensors)

encoder.conv.convs.0.bias f4 [40]
00000000: 8207 013d 26af b33d 702d 353b aaee 293d
00000010: 38c9 16bc cfa2 f0bc 1ecc 853d a8c7 09bd
00000020: 6fcf 93bd 18cb 143c 47db 57bd 477c b23d
00000030: de58 f8bc c60b 6e3d 4017 53bb 8b70 0c3d
00000040: 105a 303e e9f5 7bbb 9057 bb3d bc3b 02be
00000050: 40b3 043d b6ae f3bc 53a9 8fbb b60f a53b
00000060: cd83 a23b 50cf 3bbd 81fc 173c 38a7 16bd
00000070: 1cde 9d3d da91 9c3b 4efc 8dbd 52b4 c13b
00000080: a598 d1bd cdaf c9bc 8435 34bb 4610 b4bb
00000090: 276a 353d 0087 23bd f054 723b bbe5 153c
0.0315013 0.08773641 0.002764549 0.041487373 -0.009203248 -0.029374508 0.06533073 -0.033637673
-0.07217299 0.009081624 -0.052699354 0.0871511 -0.030315813 0.058116697 -0.0032209903 0.034287017
0.17221856 -0.0038446134 0.091475606 -0.127181 0.03239751 -0.029746395 -0.0043841987 0.0050372733
0.0049595595 -0.045852005 0.00927651 -0.036780566 0.077083796 0.004778129 -0.06932889 0.0059113884
-0.10234193 -0.024619961 -0.0027497718 -0.005495104 0.044290688 -0.039923668 0.0036976896 0.00914901

encoder.conv.convs.0.lin.weight f4 [40, 40]
00000000: 3057 253d 0be3 583e 53e8 973e 2ea8 cdbd
00000010: 498a a13e 0c61 0fbd fe2e be3c 2fce 993e
00000020: c3f8 793d a837 fb3d d51a 743e ff16 123d
00000030: 23ad 17be 037a 9fbc 1bc5 41be 63f3 dd3d
00000040: 02d7 9ebe ac24 03be 208f bebd 5e1f 113e
00000050: d6e0 773e 8e95 c0be 8b05 a93d 33be aebe
00000060: 4202 1f3e d391 2bbe 7f79 0b3e b98a 84bc
00000070: 7bbf 9fbd cc20 27be ee01 b1be d85b db3d
00000080: 8c20 99bd b617 0e3e b289 2dbc a151 643e
00000090: 0c38 cdbd fe83 503e 5c20 42be 2a9c 96be
000000a0: 4eaf ad3e cdbc 9abe 7382 83be b43d 833c
000000b0: fe92 91be bc62 4a3d 36e8 c4be b316 4ebe
000000c0: 61a7 a4bd a65c c7be bdc5 febd 6689 d9bd
000000d0: cf9c f23c c33c bcbd b013 c43d 571c d7bd
000000e0: 110a 703e a153 40be 5e94 d13e 570b 263f
000000f0: 500d 9ebe de74 053f e42b c3bd 7011 463e
00000100: 583e 2fbf a416 6e3e 30e3 af3e 5e74 223d
00000110: fa80 bd3e 449f 02be d2ab f13d ed17 2f3e
00000120: 5b86 0d3d cb05 a8bc b81a 0e3e 58bb 843e
00000130: 2082 acbe 773f 343d ea41 20be 1dd3 f6bd
00000140: 0f2f 063f 35ed 96be ff53 8bbe 8ff4 d3be
00000150: 1414 d7bd f0f6 b23c e2d2 0c3d bf66 ac3d
00000160: e74a 29bf 5074 a33d ea6f 5abe a80d 8f3c
00000170: 266a abbe dd9f 22be 3110 52be 39b0 2b3e
00000180: 760b 953e 671d 51be e672 413d 3be6 4b3f
00000190: f6b0 f43d 8160 be3c fb18 943e 455e bc3d
000001a0: b60e c23d 995c 38be 61da 9b3e e64d 663e
000001b0: 9b2b 283e a8be 4e3d 2d2d 463c dae0 41be
000001c0: 9d8b 36bf 8ac0 2a3e 6a13 ecbd 840a a33e
000001d0: ca5d ffbd 98ed 49bd 6923 10be 0ccb 07bf
000001e0: 8638 a03e 91d5 65be 5172 05be 1ac9 d9be
000001f0: ff81 ce3d 35b0 37bc d646 513d 1c1b 223e
00000200: 46b1 52bb 3cc3 2bbd f4a6 13bd 4aec 15bf
00000210: 8ee2 2bbe 9bf1 a63d 3381 d73d b1cb 883e
00000220: 18c4 c23e 87e3 3ebd 1b0e 513e 1673 d03e
00000230: b799 01be a2af b53e d2a6 c6be bb71 b23e
00000240: f0f5 613c c600 44be 7691 d13e 7f56 d53d
00000250: 953a 30be caaa 523e 5347 0d3e 61b9 5ebe
00000260: 680f b9be ca8d 9ebd 5850 60bc f9ac b83e
00000270: 8028 b2be 6a17 36be 8ab8 d83d ed32 203e
00000280: a417 9fbe f9c9 9fbd 64c6 e5be df2d 26be
00000290: bdc2 693e a9fb 9ebd 552d 74be fa3c f6bd
000002a0: 4a06 31be 60b5 91be b3a3 d3bc 4d73 84bd
000002b0: b22b 193e 0632 a03d 5e43 25be fbfa 043e
000002c0: 1c6f 213e 9fe3 2dbe c57d 28be 366c 33be
000002d0: 0265 fc3e 6372 7d3d f196 59be 76e4 923e
000002e0: 5eb6 093e 12b4 7d3e 622e 9dbd 0105 53be
000002f0: 754b 48be a818 01be 3fa1 8ebd 8767 3fbe
00000300: 44b6 6c3e e40c 84be 8236 403e 1c9a 1fbe
00000310: 824a dd3e 2867 6c3e 7f2d 7d3e 61b1 e4bd
00000320: cf5e 89be 2d1e 143f f4ae e33d d862 d63e
00000330: 9bdf b63e 94c8 85be b153 8bbe 5797 c43c
00000340: fc03 b1be 14fd 683e 69d6 bdbe 6896 8a3e
00000350: 4542 133f d18c cc3c e37b 97be 4a34 4abe
00000360: 09b8 8c3d 2cd6 a1be 8745 593e 9d1e 20bd
00000370: b25f 2bbe 0e82 89be 4133 943e dfe5 a73e
00000380: d865 e3bd 5981 843d e806 33be c417 32be
00000390: cbe7 a63e 1ad1 7e3e 3293 e93e c780 21bd
000003a0: cd52 bb3c 1039 443e 93cd 7f3d a71d b5be
000003b0: f21e 603c 6f3c dbbd ded5 703d c73e 6d3e
000003c0: 0339 9cbe 682c 723d 71c5 0abf 98a0 873e
000003d0: 5e57 fa3e 9ab4 1ebe 0e47 dfbe 2076 863b
000003e0: e937 6dbe 5594 46bd 8620 863d e340 b43e
000003f0: 1be6 b73e b009 af3d 71c9 64bf aefa 5ebc
0.04036635 0.2118036 0.29669437 -0.10041843 0.31550816 -0.03500466 0.023215767 0.30040118
0.061028253 0.12266475 0.2383836 0.035666462 -0.1481214 -0.01946736 -0.18922846 0.10837438
-0.31023413 -0.12806958 -0.09304643 0.14172122 0.24206862 -0.376141 0.0825301 -0.34129485
0.15528205 -0.16754846 0.13620566 -0.01617943 -0.07800194 -0.16321105 -0.34571785 0.10710877
-0.07476911 0.13876233 -0.010591911 0.22296764 -0.10020456 0.20362851 -0.18957657 -0.2941602
0.3392281 -0.3022217 -0.25685462 0.016020633 -0.2843246 0.049410567 -0.38458413 -0.20125847
-0.080397375 -0.38937873 -0.12440059 -0.1062191 0.029615788 -0.09191277 0.095740676 -0.10503452
0.2344134 -0.18781902 0.40933508 0.64861053 -0.30869532 0.5213145 -0.09529856 0.1934259
-0.68454504 0.23250824 0.34353018 0.039661758 0.37012464 -0.12756068 0.1180035 0.1709897
0.03455196 -0.020510575 0.1387738 0.25924182 -0.33693027 0.044005837 -0.15650144 -0.120519854
0.52415556 -0.2947785 -0.2721252 -0.4139752 -0.105018765 0.021846265 0.0343808 0.08418035
-0.66129917 0.07981169 -0.21331754 0.017462566 -0.33479422 -0.15881296 -0.20513989 0.16766442
0.29110307 -0.20421372 0.047228716 0.7964818 0.11947815 0.023239376 0.2892531 0.09197668
0.09475462 -0.18004073 0.30440047 0.22490653 0.16422884 0.050474793 0.012095732 -0.1893343
-0.7130678 0.1667501 -0.115271404 0.3184396 -0.12469061 -0.049298853 -0.14076008 -0.530442
0.31293124 -0.2244475 -0.1303189 -0.4253624 0.100833885 -0.011211445 0.051092945 0.15830654
-0.003214912 -0.041934237 -0.03604789 -0.58563673 -0.16785643 0.08151551 0.1052269 0.26717904
0.38040233 -0.046603706 0.20415537 0.40712804 -0.12656294 0.3548556 -0.3879915 0.34852394
0.013791546 -0.1914092 0.4093129 0.104168884 -0.17209847 0.20572963 0.1379674 -0.21750404
-0.36144567 -0.07741888 -0.01369103 0.36069468 -0.34796524 -0.1778237 0.10582073 0.15644427
-0.31072724 -0.07802195 -0.44877923 -0.16228436 0.22828193 -0.07762844 -0.23845418 -0.12023349
-0.17287555 -0.2845869 -0.025834894 -0.064673044 0.14958075 0.07822041 -0.1613898 0.12986366
0.15765041 -0.16981362 -0.16454227 -0.17521748 0.49295813 0.061876666 -0.21248986 0.28689927
0.13448474 0.24775723 -0.076748624 -0.20607378 -0.19560035 -0.12607062 -0.06964349 -0.18691836
0.23116404 -0.25791085 0.18770793 -0.15586132 0.43220907 0.23086226 0.24724387 -0.11166645
-0.26830146 0.57858545 0.11117354 0.41872287 0.35717472 -0.2612959 -0.2721229 0.023997946
-0.34573352 0.22752792 -0.37077644 0.27067876 0.57522994 0.02496949 -0.29586706 -0.19746509
0.068710394 -0.31608713 0.21217929 -0.039091695 -0.16735724 -0.26857036 0.28945354 0.32792565
-0.111034095 0.064699836 -0.17483103 -0.17391878 0.3259872 0.24884453 0.45620114 -0.039429452
0.02286663 0.19162393 0.06245191 -0.35374185 0.013679253 -0.10704886 0.05879771 0.23168479
-0.30512246 0.05912438 -0.5420752 0.2648971 0.4889478 -0.15498582 -0.43608898 0.004103437
-0.2316586 -0.048481304 0.06549172 0.35205755 0.35917744 0.085467696 -0.89369875 -0.013609571

encoder.conv.convs.1.bias f4 [20]
00000000: 72b9 a9ba 2949 ccb9 071f 41bc b398 0bbd
00000010: d1c6 1bbd 9a7e 44bd 2f99 d53d 77c1 16bc
00000020: a286 843d f4f5 703c 8f83 913c c45a 0e3e
00000030: b8a0 e0bb a6f8 d23d 6ef2 233d 81b2 a4bd
00000040: e771 87bd 1cf7 d2bc e5ca 1ebb 0cd4 0e3e
-0.0012948944 -0.0003896442 -0.011787183 -0.034081172 -0.038031403 -0.0479723 0.10429608 -0.009201399
0.06470992 0.014707077 0.017762927 0.13901812 -0.0068550967 0.10301332 0.04002612 -0.080418594
-0.06613522 -0.025752597 -0.0024229821 0.13948077

encoder.conv.convs.1.lin.weight f4 [20, 40]
00000000: 3d0f 753e a17c fcbe 697d 22be 2c79 97be
00000010: fefc 563d a11b 97be 7fc7 f5be 02c2 9f3e
00000020: 4c9a 7ebd 8adc 8fbb 9bcf 023d 22a0 60be
00000030: 1ea7 64be 8d81 cc3d 5ffd 733e b745 843e
00000040: b1a3 31be 0cf5 27be 1e4a 513e 6f6f 2c3e
00000050: 56a8 8a3d 19da 15be 0170 003f c9aa 4bbd
00000060: 500d b73d 0981 133e d40f dfbe d0fd 173d
00000070: de2c 623e fb6b 903e d03a edbd f9d1 9cbe
00000080: 0740 79bf fdca 59be 34d2 893e 5e00 34bf
00000090: fcf4 2bbf d234 8b3e 6283 a5bf d0cf 64bf
000000a0: 425e 5c3e e1c4 7ebe 9fe8 febd b92e 333e
000000b0: 9e99 6f3e c3b3 18bf 3fbc a43e 08a4 86bd
000000c0: fde6 823e f45d 70be 113a 773e 8c88 57bd
000000d0: ffa4 bcbd 4cbb 18be 0265 493e 59c4 04be
000000e0: b968 983e 6e24 31be e9bb d6bd 2dbb 60be
000000f0: 78bc bf3c 7cc7 693e 74f6 123f d567 f0bd
00000100: a700 b53c 2f30 583c 1783 533e 1223 403e
00000110: f31b 0abe 44db 8f3c 3565 a5be bf88 bc3c
00000120: fb4d 393f 73c4 773d ff21 8d3e 54fa e33e
00000130: 0fcd fe3e 15ad cdbc 5063 a23b cd81 0fbd
00000140: cefa 60be 363f cb3e 8f1c a9be bfc1 ce3e
00000150: c14e 183e 73ce 7f3d 6d5c 053e 6b4a d93d
00000160: 37f6 4dbd fc27 1f3e 706b 763e 65c4 4fbe
00000170: b847 1bbd 1798 02bd 9108 24be 1381 6d3e
00000180: 21cb 3bbd b869 9f3e d89a 0b3e d111 6abe
00000190: 3300 c1bd a168 033e 65cf 32bf 706a 643e
000001a0: 7bba 9a3e 9cbf 8b3e 338d 2cbe ad86 b4be
000001b0: 224d 8a3d c8d3 05be 979c acbd b598 613e
000001c0: 0c0d e1be 5548 3bbe 76eb 54ba aa90 193e
000001d0: 2bab c33c 76c6 2c3e 3a20 15be d82e 693e
000001e0: 2f8d b9bd 27ad d1bd c0d2 c33d 5da8 3ebb
000001f0: 625d 53bd 1966 c63d 305d f93d a4eb 983d
00000200: b058 d03d 7893 383e 2bf8 85be c2f8 fa3d
00000210: e582 05be b918 813e 63a7 5ebe d9fc 19bc
00000220: a059 45be 177d f2bd 633f 9cbd 7f17 d9bd
00000230: 2f5b 1fbe 6c4d 8b3e a3b0 91be 5629 6fbe
00000240: 2aa3 39be 19e4 b5bd 869b 30bd 68db f7bd
00000250: 622f 18be 0542 70be 6e90 433e a02f 963e
00000260: 0ac8 a33d 1071 9dbd 38f5 dfbd 25e7 0bbe
00000270: ce1a b2bd 1a6d 50be 5b6f 39be 6f2e 26be
00000280: 0b69 b1bd 14bc 84bd 5e72 4cbf 86ad f9be
00000290: cdda ce3d ce1c afbe e55f 9dbf 0dc8 91be
000002a0: c2f0 453d bcad 403b fe54 1c3c 275f a4bf
000002b0: e279 243e a14a 56be 3084 b3bd d211 a23d
000002c0: 0c6c a0bf bc93 8b3e 414c b23e 7f83 0abd
000002d0: 9f93 7e3e 49f3 983e 067c e23c 218f e23b
000002e0: 6bad 5a3d 6f38 333e 06f2 133e 4527 973e
000002f0: 587d 9fbe d3c7 d03d 3c82 e33e 882d a6be
00000300: 815f c83d 10d2 9f3e 162e fd3d 57c7 e63e
00000310: dcb4 41be dc18 79be 336b 5fbe 1c75 6ebe
00000320: f2de bd3d cfcc cdbe f34e babe ebc4 e0be
00000330: bd59 6ebd c54b 853e 956f eb3c 5977 8b3e
00000340: 394c a43e d394 82bf a35b a53e 3e03 96bf
00000350: 66ae 22bf 5ae7 03bf 779f c53d 9eea 013e
00000360: b009 a7be d4c1 aabe 1eba 13be 0aa9 703e
00000370: 986b e63c 1652 3e3e 03f0 113f a846 6cbe
00000380: 2cda a4bd f38c 2f3e dc7a 573e 424e 01be
00000390: 26a5 47bf 6fd6 7a3d 262b bb3e 5af3 123d
000003a0: 6606 b23f 95bb 863f a3de 993e 3568 e4bd
000003b0: e03d 41bd ab78 75bf e6b5 27be 9f61 8fbe
000003c0: 5a50 a63c e62f 91bc 9719 0bbe f1dd 52be
000003d0: 25f6 fd3d 9056 0e3c 3423 f1bd e368 7dbe
000003e0: 9f79 c53d 6508 433e 8541 0abe a2c6 18be
000003f0: 3928 debe c5d6 5a3e 882b 373e b4f2 6b3e
0.23931594 -0.49313834 -0.15868153 -0.29584634 0.052487366 -0.29513267 -0.48003766 0.31202704
-0.062158868 -0.004390304 0.03193627 -0.21936086 -0.22329375 0.09985647 0.23827122 0.25834438
-0.173476 -0.16402072 0.2043843 0.16839384 0.06770389 -0.14633979 0.50170904 -0.04972342
0.08938086 0.14404692 -0.43566763 0.03710729 0.22087428 0.28207383 -0.11583483 -0.30628946
-0.9736332 -0.2126884 0.26918185 -0.7031306 -0.6717069 0.27188736 -1.293072 -0.89379597
0.21520332 -0.24879791 -0.12446713 0.17498292 0.23398444 -0.59649295 0.3217487 -0.06574255
0.25566855 -0.2347334 0.24143244 -0.052620456 -0.09211158 -0.14915198 0.19667438 -0.12965526
0.29767397 -0.17299053 -0.1048506 -0.21946402 0.023405299 0.22830003 0.5740731 -0.117385544
0.022095038 0.013195082 0.20655476 0.18763378 -0.13487224 0.017560609 -0.32303777 0.023014424
0.72384614 0.060490083 0.27565 0.44526923 0.49765822 -0.025106946 0.0049556866 -0.035035897
-0.21970674 0.39696664 -0.330296 0.40382192 0.14873792 0.062452745 0.13023539 0.10609897
-0.050283637 0.15542597 0.24064422 -0.20289762 -0.037910193 -0.031883325 -0.16018893 0.23193769
-0.045848016 0.31135345 0.13633287 -0.22858359 -0.09423866 0.12832882 -0.6984771 0.22306228
0.30220398 0.27294624 -0.16850738 -0.35259 0.06752993 -0.1306907 -0.08428305 0.2203091
-0.43955266 -0.18289311 -0.00081222446 0.14996591 0.02388533 0.16872582 -0.14563075 0.22771776
-0.09060132 -0.10238104 0.09561682 -0.0029092052 -0.05160273 0.09687442 0.12175977 0.0746682
0.10173166 0.18025005 -0.261659 0.12254478 -0.13038214 0.25214174 -0.2174354 -0.0093986625
-0.1927247 -0.11840265 -0.076292776 -0.10600185 -0.15562128 0.27207506 -0.28455076 -0.23355612
-0.18128648 -0.08881397 -0.04311707 -0.12102395 -0.14861825 -0.23462684 0.19098064 0.2933321
0.07997139 -0.076875806 -0.10935444 -0.13662393 -0.08696519 -0.20354119 -0.18108885 -0.1622865
-0.086626135 -0.064811856 -0.7986201 -0.487652 0.10100327 -0.34201664 -1.229489 -0.2847294
0.048325308 0.0029400429 0.009541748 -1.2841538 0.1606212 -0.20926906 -0.08765447 0.07913555
-1.2532973 0.2726115 0.34823802 -0.03381681 0.24861 0.29873112 0.02764703 0.006914035
0.05338804 0.17501996 0.14447793 0.29522148 -0.31150317 0.101943634 0.44435298 -0.32456613
0.09783841 0.31214952 0.12362306 0.4507396 -0.18916649 -0.2432589 -0.21818237 -0.23286861
0.09271039 -0.4019532 -0.36388358 -0.43900236 -0.05819105 0.2603437 0.02873973 0.27239493
0.32089403 -1.0201668 0.32296476 -1.171974 -0.6354736 -0.5152489 0.09649556 0.12687156
-0.32624578 -0.33351004 -0.14426467 0.23501983 0.028127477 0.18586001 0.57006854 -0.23073828
-0.080494255 0.17143612 0.21042961 -0.12627509 -0.7798637 0.061239656 0.36556357 0.03587661
1.3908203 1.0525995 0.3005267 -0.111526884 -0.04717815 -0.9588725 -0.16377982 -0.28004166
0.020301986 -0.017723035 -0.1358398 -0.20592476 0.12400464 0.00868763 -0.117742926 -0.24747042
0.09642338 0.19046171 -0.13501556 -0.14919522 -0.43390062 0.2137099 0.178877 0.23041803

encoder.embed_x.weight f4 [28, 40]
00000000: 5b0a 033f dcdd 09c0 1868 243e 435c fbbe
00000010: d984 243e 8183 01bf 1eb0 cd3d f3e5 5e3f
00000020: 91be f03d 815e c9be 8f86 6e3f 95b8 87bd
00000030: 41b4 fbbe ad88 193e 1b4d 4e3e 66c3 ddbe
00000040: 08c7 923e 3cdb ba3f 6fb3 d3bf f5d1 15be
00000050: bd41 77bd 5afc a5be eec1 74bd ed6d e7be
00000060: ff0b 8c3e d046 05bf 009d 8a3e dc9f 9d3f
00000070: fcec 333e 7e4d 27c0 0b78 9abf 90ac 0440
00000080: 79d0 103f 266b d6bd 5a33 1c3f 0213 da3e
00000090: df33 0abe 5791 9f3e 4963 b23f 751b c83e
000000a0: 05e4 8fbe 6f9b 77bf 30e8 59bf 1263 06bf
000000b0: 6d5a 0abe f917 493e 02f4 6abf edd0 c1be
000000c0: cfb6 ae3e 5d92 1cbf ee44 6bbe 2747 89bf
000000d0: cc1b febf 2c05 4a3f c342 9e3e 61fa 74be
000000e0: b996 ca3f 96f9 b7be dd29 c53f 0b5c a83e
000000f0: 19e9 2bbf e5e3 e03f fed9 07bf 51e7 b23e
00000100: 6193 a5bf 21b8 8f3e de63 d63e 9679 90bf
00000110: 6705 ba3e 7658 0140 8fb7 ad3f 0365 17bf
00000120: f272 fb3d 6fd4 7ebf 7ee9 ee3f f1ab 1a3f
00000130: a74e 3cbe 4138 2dbe 4356 683f 0963 d63f
00000140: 4bbd 5dbf f9b6 3a3f 6890 bebf 39c2 593f
00000150: f98a 813f ca8e bfbe 524d 533f ac40 8abe
00000160: 5c0a cf3d 7bc9 1abf d5ff 873d 7dd7 6d3f
00000170: 82be 05bd f4cf ccbe e51d 6b3f 0ffc 5d3f
00000180: 4bf6 e7bf 9228 8abf e5fc 1ebf 1be5 a83e
00000190: b48b e83f 4c2a 3cbe f2de 03bf 4d47 083f
000001a0: 4189 bf3f f998 23bf 64db 603f ec8c bdbf
000001b0: ea6b cdbf 5b0a 41be 489d babd 93d7 0bbf
000001c0: fc1d f0be 71f5 403e 155e 043f 6e1e 1040
000001d0: d9b6 b93f 2fab 5c3f 0733 5b3d eaaa e0bc
000001e0: 9328 d5bf b9c2 963f b928 bbbf fbb6 193f
000001f0: ca32 e83f a079 02c0 cad5 9fbf 5111 363e
00000200: 56aa 27bf e063 843f 3924 443f 0910 20bf
00000210: 0132 963f 46cd 9dbe f554 6abf 3373 d2be
00000220: 91ad 43bf 4854 493f 1367 59bf db54 383f
00000230: d896 61bf 3a35 7dbe 8e59 5fbf 28d8 c33f
00000240: 0297 32bf 2195 a93f 1e90 e3bf 4729 97bf
00000250: 9d11 4140 4981 a5be 53cf 873e 2794 cdbd
00000260: 46b5 5b3e fe24 c03d c3e2 2c40 dc0d 9abe
00000270: d2e6 57bd 12e0 51bf 917c c53e f72c dd3b
00000280: b8d7 d0bf 8c77 ce3f 2716 9b3f b3c2 e73f
00000290: 9133 a43d aba2 773f e2a0 15bf d5a8 f8bf
000002a0: b411 0f3f 7b60 c33f 9f2f 97bf fe8e 4b3f
000002b0: 22ca 833f 5f4f a13f 6795 c13f 297e 813c
000002c0: 452a c1bf 63e3 813f 158d 54be e18f a33e
000002d0: bcf1 0fc0 5d4f 3bc0 38a9 0d3f eeb2 26bf
000002e0: 2883 7abe 96b7 e0bf 3d75 be3f 3175 40bf
000002f0: cfe1 583f f186 ba3f ab9b e13f fbfe 31bf
00000300: 2e05 86be 1259 c23f 7de5 b33f c9ae d93e
00000310: ce25 ba3e b6ec 10bf 8b4e c53f 2ed3 c23f
00000320: c6a5 2d40 cd1c f2bf ec4f e0be 3432 5ebf
00000330: c895 6f3f 4373 efbe 6dc4 cb3e 468c 31bf
00000340: fc18 d3bf 1fce 9b3e ef78 4fbd 96fc 0c3f
00000350: 39bd d3bf 6d20 71be 9f1c 6e3c f42a f63f
00000360: 647e de3e 69d7 bebe feed 2e3f f55a 5e40
00000370: 51e6 2ebf 60fe 45bf 3e74 463f ec77 533f
00000380: 2c7a d63e a950 92bf 3d0c 2040 31e0 d23f
00000390: db36 b43e e37a 053f b6a6 08bf 26ff 28bf
000003a0: 4f15 2dc0 b187 f43f c70d 3f3f b3c4 3940
000003b0: 2cc1 f6bf f1a5 a5bf 4bb4 babe b18d 05c0
000003c0: 7088 21bf 23ec 3fbf 934e 4fbf 09f0 57bf
000003d0: 5d55 2d40 f708 c0bc 2cfe 3dbf 6811 1fc0
000003e0: 2b77 ab3f aa49 84bb dcfb 5b3f 27d7 84bf
000003f0: efa8 853f 9681 fe3e b1a4 0f3f d029 c13d
0.51187676 -2.1541662 0.16055334 -0.49093828 0.16066302 -0.50591284 0.10043357 0.87069625
0.11755098 -0.39329913 0.9317407 -0.06627003 -0.4916096 0.14993544 0.20146601 -0.4331314
0.28667474 1.4598155 -1.6539134 -0.14630874 -0.060365427 -0.3241909 -0.05975526 -0.45201054
0.27352902 -0.52061176 0.27072906 1.231441 0.17570871 -2.6141047 -1.2067884 2.0730324
0.56568104 -0.10469656 0.61015856 0.42592627 -0.1349635 0.31165573 1.393655 0.39083448
-0.28103653 -0.9672155 -0.85119915 -0.5249492 -0.13511057 0.19638051 -0.91778576 -0.3785471
0.34123847 -0.6116083 -0.22975513 -1.0724839 -1.9852233 0.7891414 0.3091031 -0.23923637
1.5827247 -0.35932606 1.5403401 0.32882723 -0.67152554 1.7569548 -0.53067005 0.34942105
-1.2935601 0.28070167 0.41873068 -1.1287105 0.36332247 2.0210242 1.3571643 -0.59138507
0.122777835 -0.995429 1.8665006 0.6041861 -0.18389378 -0.1691599 0.90756625 1.6748973
-0.86616963 0.72935444 -1.4887819 0.85061985 1.0120536 -0.37413627 0.82539856 -0.27002466
0.10109398 -0.60463685 0.06640593 0.92906934 -0.032652386 -0.40002406 0.9184249 0.86712736
-1.8122038 -1.0793631 -0.62104636 0.32987294 1.8167634 -0.1837551 -0.5151206 0.53233796
1.4963762 -0.6390529 0.87834764 -1.4808631 -1.6048558 -0.18851607 -0.0911203 -0.54625815
-0.46897876 0.18843628 0.5170606 2.2518573 1.4508926 0.86198705 0.05351546 -0.027425248
-1.6653007 1.1778175 -1.4621803 0.6004483 1.81405 -2.0386734 -1.2487118 0.17780043
-0.65494287 1.034298 0.7661777 -0.6252447 1.173401 -0.30820674 -0.91535884 -0.41103515
-0.76436716 0.7864423 -0.84922904 0.7200448 -0.88120794 -0.24727336 -0.87246025 1.5300341
-0.6976167 1.3248636 -1.7778356 -1.1809472 3.0167 -0.323252 0.26525363 -0.100380234
0.21455869 0.09382056 2.7013404 -0.300887 -0.05271036 -0.8198253 0.385716 0.006749745
-1.6315832 1.6130233 1.2116135 1.8106292 0.08017648 0.96732587 -0.5844861 -1.9426523
0.5588639 1.5263819 -1.1811408 0.79515064 1.0296061 1.2602347 1.5123719 0.015807228
-1.5091025 1.0147518 -0.20756944 0.31945708 -2.2491293 -2.926719 0.5533633 -0.65116775
-0.24464095 -1.7556026 1.4879528 -0.7517882 0.84719557 1.4572431 1.7625631 -0.69529694
-0.26175827 1.5183432 1.4054409 0.42516163 0.36356968 -0.5661119 1.5414594 1.5220697
2.713243 -1.8915039 -0.43810976 -0.86795354 0.93587923 -0.46767625 0.39798298 -0.69354665
-1.6492 0.30430695 -0.05065244 0.55072916 -1.6542121 -0.23547526 0.014533191 1.9231858
0.43455803 -0.3727372 0.683319 3.4743016 -0.68320185 -0.7734127 0.7752112 0.8260486
0.41890085 -1.1430866 2.500747 1.6474668 0.351981 0.52140635 -0.5337938 -0.66014326
-2.7044256 1.910391 0.746304 2.9026306 -1.9277701 -1.2941266 -0.36465678 -2.0867732
-0.6309881 -0.7496969 -0.8097927 -0.8435064 2.7083352 -0.023441775 -0.7421596 -2.4854374
1.3395742 -0.0040371018 0.8593118 -1.0378159 1.044218 0.4970824 0.56110674 0.09431803

encoder.conv_mu.bias f4 [20]
00000000: d2e2 8dbd 5ccf 3fbd 4aef b4bd d3c2 853d
00000010: fc7e 293d 472a 9dbd c2cc 19bd 012a 92bd
00000020: bee9 893c d0c7 c83d 351f 963d 0d40 adbd
00000030: e132 bdbc 0d1b 22bd 92a7 c03d bf37 23bd
00000040: fd81 0e3d aee1 50bc 9127 03bd 2c34 f9bc
-0.06928028 -0.046828613 -0.08834703 0.065313004 0.041380867 -0.076740794 -0.037548788 -0.07136918
0.01683509 0.09803736 0.07330171 -0.08459482 -0.02309555 -0.03957658 0.094069615 -0.039848085
0.034791935 -0.012749119 -0.032020155 -0.030420385

encoder.conv_mu.lin.weight f4 [20, 20]
00000000: 8e2c 5cbf 78bc ad3d c56b cbbe 7a4f 553e
00000010: bbe6 e9bd 0ae0 a9bd 73b4 8f3c b80a 363e
00000020: 6d8b dfbe 6b0c 043f f809 c63a ae42 273e
00000030: 8af5 07bf 6eee 313e 204e d9be 5e92 55be
00000040: 2aee 163f 5698 8cbd b612 e73e 420c 4cbe
00000050: 9b13 46be bc57 383e e048 6e3e 2080 90bc
00000060: 5f04 85be dcc0 933e 242d 8b3d 625d 44bf
00000070: 35e6 99bd da40 98be ecb8 033f 73dd 0ebf
00000080: e641 9cbd 75a8 c63e b63b d5be ba9c c93e
00000090: 23fd 233e 3d04 2b3e 1593 9bbc c6f6 c1bd
000000a0: 9d8c 30bf c76f 9d3d f149 a73e a09a aabe
000000b0: 19dd f23e bf16 ec3e 5936 b2be 55ea 4fbd
000000c0: e1dd b73e f694 963e b0df 9a3e ebe8 f5bb
000000d0: 673b 0bbf 833d 3fbe e74f c3be 07ef 32bd
000000e0: 0def 053c 72ae 903e f814 28bd 10dc f0bc
000000f0: d373 483d c16f 80be e10c 46be 288a fa3d
00000100: a6b0 b3be 9307 e73e a90c 083e e720 823e
00000110: 75ab a53e 0fe1 93be 472f 023f 818f c33e
00000120: 2811 373e 86cc bbbd c6c2 d63e fee0 4bbe
00000130: 2ebd 82be a6f5 90be 304f 52be 5ca8 66be
00000140: 67c4 ec3d f240 9dbb be5d 91be 3c0b 383e
00000150: 1ec6 73bd 2fbd 31bf 0f1e d5be 6c89 9a3e
00000160: 9e33 0a3e 01d3 23be 7a84 ee3e c80f 95be
00000170: 96c0 15be 2c85 3dbe d9ac 3d3f 775e 6bbc
00000180: 7154 3a3f 46ad 1dbe 904d 4f3e 5d45 963d
00000190: f216 03bf fe67 8a3e 0c69 543e 5a58 b9be
000001a0: d228 e33e cf7b 063f e027 813e 0d9f d03e
000001b0: 251f 14bf eb7c 193e a1b8 9b3e bd15 89be
000001c0: d0cc 2ebf c557 aabe 1a72 10be 6616 083e
000001d0: 7709 ac3e 7c54 debe 518f 71bd 1891 453e
000001e0: dc13 06be cc69 863b 630a 9abd 9bd0 263d
000001f0: c9b0 963e f4a5 5abf b369 cdbd b570 24be
00000200: ddad 9f3e d433 32bf 8c3a a93e aef4 cc3d
00000210: f87f a13e c223 42be dde2 e9be 4c73 7b3e
00000220: ba87 7e3e eb50 cc3e c81f 053f aef7 b6be
00000230: 3eba 37be faab c4bc 40d1 5d3d c67e 323e
00000240: 3543 e33d 127f e2be 9735 60be d815 76be
00000250: 1cfe d33d 862e 513e 3761 c03e ae41 bd3d
00000260: 97c5 5f3e 967f 373b 7b0a e1be fa59 04bf
00000270: 3d6c 65be d5f5 1fbd 39eb fc3e 758c 12bd
00000280: f7f4 e9bb 79be 093e 7430 1fbf 050e a13e
00000290: d151 fdbe 6622 363f 9dc3 fbbd 13f7 593d
000002a0: 988f dcbd 9ebe 62bf 5b2f d13e 071b c93d
000002b0: 2dec 41bd 33a3 7cbd 30d6 b83e 3aa7 7cbe
000002c0: 16fb 03be 7592 00be a51b b13e dd03 293e
000002d0: 6c45 ccbd 0174 2d3e ca9b 73be 9eb9 b93d
000002e0: 8438 d4be 7bcd 773e 0fd9 5fbe 4a85 d8be
000002f0: 8683 843e 7ef6 1f3f a249 be3e 5316 acbe
00000300: 7525 b03e 628f bc3b 2734 bf3e 3299 22bf
00000310: 3e1f 943c 14bc cc3d 189b d9be 1590 0f3c
00000320: b07e 73bc dcf0 d5bd 1ea5 dc3e 71a4 083c
00000330: 6b18 81be bb5e c53e f585 cebd fed0 b2be
00000340: c12d ddbe 1df8 d53d cae8 09be 5894 853e
00000350: cc5a 413d f3b5 ca3e 4022 213f b993 78be
00000360: 6279 d03e 0059 5abe af48 f7be d8c7 4abe
00000370: 13ab 183e e15a 6dbe 8b76 473e 90f1 c3bc
00000380: 9094 25bd 633a 123f 633a 693d 32a3 ec3e
00000390: 514d 8f3e 401d 713e 6350 d93e 026e 6fbe
000003a0: ae88 21bf 4cfd af3e 0517 31be 7d11 30bd
000003b0: ba30 1d3d 7e72 093d 5670 0fbd aa60 83be
000003c0: 8c0c dc3e 6153 b7bd f5ba fabe b45c 41be
000003d0: 4685 18be 3bb2 0d3e 3e46 613e 8cfa 8ebe
000003e0: d228 363e 10dc 01be 9c62 77bd d783 8cbe
000003f0: f140 31bf 5bbd 3e3e a0e1 d8bd 4ae1 793e
-0.86005485 0.08483213 -0.3973066 0.20831099 -0.114209615 -0.08294685 0.0175421 0.17777526
-0.4366106 0.5158145 0.0015109172 0.1633403 -0.5310904 0.1737611 -0.42442417 -0.20856616
0.5895716 -0.06864993 0.45131463 -0.19926551 -0.19343416 0.18002218 0.23269987 -0.01763922
-0.25979897 0.28858078 0.06795719 -0.7670499 -0.07514612 -0.29736978 0.51454043 -0.55806655
-0.07629757 0.38800398 -0.41647118 0.39377385 0.16014533 0.16700836 -0.018991033 -0.094708964
-0.6896456 0.076873355 0.326736 -0.33321095 0.4743431 0.46111104 -0.3480709 -0.050760586
0.35911468 0.29410523 0.30248785 -0.0075045726 -0.54387516 -0.18675809 -0.38146898 -0.043684985
0.00817467 0.2825809 -0.041035622 -0.029401809 0.048938584 -0.2508526 -0.1934085 0.122333825
-0.3509571 0.45122966 0.1328608 0.25415727 0.32357374 -0.28882644 0.5085339 0.38195422
0.17877638 -0.09169869 0.41945475 -0.19910046 -0.25534958 -0.28312415 -0.2053802 -0.22525162
0.11560898 -0.004799002 -0.28391832 0.17973036 -0.05951511 -0.69429296 -0.41624495 0.3018297
0.13496253 -0.1599846 0.46585447 -0.29113603 -0.14624247 -0.18507832 0.7409187 -0.014365784
0.727851 -0.1539813 0.20244431 0.07337449 -0.51206887 0.27032465 0.20743197 -0.3620022
0.4436708 0.52532667 0.25225735 0.40746346 -0.5786002 0.14989059 0.30414298 -0.26774397
-0.6828127 -0.33270088 -0.14106026 0.13289794 0.3360097 -0.4342383 -0.058974568 0.1929363
-0.13093513 0.0041019674 -0.07521512 0.040726285 0.2943175 -0.85409474 -0.10029926 -0.1605862
0.31187335 -0.69610333 0.3305248 0.100076064 0.31542945 -0.18958953 -0.45680895 0.24555701
0.24856463 0.39905486 0.5200162 -0.3573584 -0.1794214 -0.024007786 0.054154634 0.17431173
0.11096803 -0.44237572 -0.21895443 -0.2403177 0.10351202 0.20427904 0.3757417 0.09241043
0.21852718 0.002799963 -0.43953308 -0.51699793 -0.22404571 -0.039052803 0.4939821 -0.03577848
-0.007139798 0.13451566 -0.6218331 0.3145601 -0.49476483 0.7114624 -0.1229317 0.053214144
-0.10769576 -0.8857211 0.40856442 0.09819608 -0.047344375 -0.061679076 0.36100912 -0.24673167
-0.1288875 -0.12555869 0.34591404 0.1650538 -0.09974179 0.16938783 -0.23789898 0.09068607
-0.41449368 0.24199478 -0.21860145 -0.4228919 0.25881594 0.6248549 0.37165552 -0.33610782
0.34403577 0.0057543973 0.37344477 -0.6351501 0.018081304 0.099968106 -0.4250114 0.008762379
-0.014861748 -0.10446331 0.43094724 0.008339987 -0.25213942 0.38548836 -0.10084144 -0.34925073
-0.4319897 0.104477145 -0.13467708 0.2608974 0.04720573 0.3959194 0.62942886 -0.24275102
0.40717608 -0.21323013 -0.4829764 -0.19802797 0.1490901 -0.23179199 0.19478814 -0.023918897
-0.040424883 0.5712034 0.056940448 0.46218258 0.27988675 0.23546314 0.42444143 -0.23381808
-0.6309918 0.34372938 -0.17293938 -0.042985428 0.038376547 0.033556454 -0.03501924 -0.25659686
0.42978323 -0.0895145 -0.48970762 -0.1888302 -0.1489459 0.13837521 0.21999452 -0.27925527
0.17789009 -0.12681603 -0.060396776 -0.27444336 -0.6923972 0.18626921 -0.105899096 0.24402347

encoder.conv_logstd.bias f4 [20]
00000000: 618d d7be 4b1c cfbe aaec efbe 2425 97be
00000010: f238 c6be 2a70 ecbe d27a a8be bde0 02bf
00000020: da20 cbbe c486 e8be 3970 83be 3f66 a5be
00000030: 881b c0be 9b63 10bf 50c6 abbe 40f9 ebbe
00000040: be03 bebe dcb5 bdbe 6049 a5be 3a3a a0be
-0.4210005 -0.40451273 -0.46860248 -0.29520524 -0.3871532 -0.46179324 -0.32906204 -0.51124173
-0.396735 -0.45415318 -0.25671557 -0.3230457 -0.37521005 -0.56401986 -0.33549738 -0.460886
-0.3711223 -0.3705281 -0.32282543 -0.31294423

encoder.conv_logstd.lin.weight f4 [20, 20]
00000000: 0638 49bd c010 9cbe 5d4b 97bd 4c02 82be
00000010: 79f6 863d 0705 fabd d0ab 9cbe e981 d7bc
00000020: 3ca0 4b3d 15bc c4bc 1668 f2bc 7a5c 32be
00000030: 7fc5 b6bd bcef 98be 7b22 823d d5c9 9a3d
00000040: c55e 283d 53f2 31be f167 f83d b90e 4bbe
00000050: 4ba9 93bc b0d3 9abe ab1d 1ebd 0da5 3dbd
00000060: 4f98 163e 99a6 81bd cbdc d8bd c974 903d
00000070: a231 c13b e392 b2bd a5e2 c7bd 85fa 3ebe
00000080: 53e1 f0bd f63f 9bbe 776f 763d a11a fd3c
00000090: 2171 5abd d3a8 50be 4429 1f3e 804c 4abe
000000a0: de4d eabc 5251 8abe 41c0 68bd b729 cd3d
000000b0: 0445 593e 7eff 54bd ebbb a9be 0d70 5abe
000000c0: 8d33 423d e68f 69bd 1bad 8ebd e82c 72be
000000d0: 0ac2 42be 2e61 8ebe 6ffe b43d 5536 57bc
000000e0: 0b8d 423d 79e5 07be 0cc4 883d 8ffa 41be
000000f0: fba4 febc 8c7d 82be 5090 e33d 0e69 03be
00000100: 559d 663e 5d5d 31bd 5a55 bdbd c828 2b3e
00000110: 5308 0bbe 1540 933d 0838 14be 748b 6bbe
00000120: 7eff ae3b 4779 c4be 4774 a03d 086d babd
00000130: 47a0 3a3d eda7 33be ced9 ec3c 5eb5 9abe
00000140: 15f3 4e3e 4e98 98be 5d83 26bc 00c5 b4be
00000150: bdcb e13d b37f b63c e2fd b7be 379f 6cbd
00000160: 8b92 823d 1c24 893d 6206 0dbe 2ad2 3bbe
00000170: 2c87 e0bd 03b3 cabe 6cda 953c 6331 b1bd
00000180: 767b 323d 6448 fdbd 39ca c53d 3e16 28be
00000190: 0643 ab3d 9e25 89be 8fe8 48bd a68c b43e
000001a0: b367 a93e e7a7 2cbe 2d4a 87be 5d95 dcbd
000001b0: 3efb 403c dea2 8ebb 241e 15be e60a 9bbe
000001c0: ad79 3abd ae09 99be c9e3 623e a336 98bd
000001d0: cc1a 843c 3a46 69be 457b 713c e250 3bbe
000001e0: 3d78 cf3d 2c33 83be ddac 973d a53d a6ba
000001f0: 66c0 5ebe 21d3 fc3c 071e 74be b99c 033e
00000200: 5268 b2bd 246b d83c 49f1 abbd 9e16 18be
00000210: 3690 ea3d ec89 d6be 6f8a 3b3e 3565 50bd
00000220: 3d9d 233d dc7a 72be 6097 823c e760 a5be
00000230: 4bce a33c 561a 91be 5d81 ccbd 1e56 fcbd
00000240: 1404 7e3c 4a3b 9bbd 774e 6abe c16a bfbc
00000250: 6406 eebd e596 f4bd d7b1 50be e108 6fbe
00000260: aa01 453d 87fc c0be cf90 1b3e 86ff 0c3d
00000270: 527c d1bc ad17 94be 8a03 903d 2f6d 18be
00000280: 2ea4 9f3d d753 36be 0ab2 143e a617 003e
00000290: 9f15 16be 3ca8 80bd 622e e7bd b307 8f3d
000002a0: 410f 4abe d5f5 cabd 2940 ccbd 9e0e 8bbe
000002b0: c93f 9c3d 5cd5 11bf e471 25be 9ffd c2bb
000002c0: 0419 e63d 28fe 0d3d 9011 1e3e 5c77 bdbe
000002d0: 15dd fbbb b751 81be 0721 1cbe 9d49 97bd
000002e0: 00c9 e6bd 875a febd fb81 a0be 9a9a efbd
000002f0: ace5 f3bc 908e 59bd 8b34 3abe 07c3 adbd
00000300: 520d 23be 9e97 6dbe 6c14 043e 751a a73e
00000310: d827 38bd 5eec bebe d3ac 0d3e f003 f039
00000320: 1ff4 3c3e f34c adbe 9172 c93d 518b 75be
00000330: b87b ec3d c9e0 c9bd e95f 64be 1caa 4b3e
00000340: a40b 303d da95 40bc 4cf3 c8bd b888 0ebe
00000350: bba3 903d d073 ffbe 777e f53d 526f 09be
00000360: 87f0 c6bc 940f 87bd a983 1f3d 9d26 a1be
00000370: 9984 d7bc c84d 8cbe c4c7 063c 6c69 86be
00000380: 765b 57be 19e5 c6bd cdbc 5dbe 6234 ff3c
00000390: f591 47bd ee05 553d ad0c 36be e9c2 fcbd
000003a0: 5a15 ed3d a10f aabe 6ed8 7a3e b91d 513e
000003b0: c5f6 83bd 87d5 8bbe c72a c83b fb87 2bbe
000003c0: 8e09 a83e 5541 26be 2580 bf3d 1ef5 7abe
000003d0: cfa8 8b3e 2df8 90bc a781 62be 22a0 80b9
000003e0: b95e 61bc 28ba a9bd 7889 10be e855 25be
000003f0: c26d d8bd cb19 99be 3430 6b3d 1e37 e7bd
-0.049125694 -0.3048153 -0.07387421 -0.25392377 0.0658998 -0.1220799 -0.30599833 -0.026307063
0.04971336 -0.024015466 -0.029590648 -0.1741809 -0.08924388 -0.29870403 0.06354233 0.07558028
0.041106004 -0.17377596 0.121292 -0.19829835 -0.018025061 -0.3023963 -0.038602512 -0.046299983
0.14706539 -0.06330604 -0.10588988 0.07053525 0.0058958093 -0.08719423 -0.09760026 -0.18650253
-0.11761727 -0.30322236 0.060164895 0.030896487 -0.053330544 -0.20376901 0.15543085 -0.19755745
-0.028601583 -0.27015167 -0.056823973 0.10017722 0.21217734 -0.05200147 -0.33151183 -0.21331806
0.047412444 -0.057021998 -0.06966611 -0.23649943 -0.19019333 -0.27808517 0.08837592 -0.013135512
0.04749779 -0.1327113 0.06678018 -0.18943237 -0.031084528 -0.2548641 0.1111151 -0.12833044
0.22520955 -0.04330193 -0.09244795 0.16714776 -0.13577394 0.07189957 -0.14474499 -0.23002416
0.0053405156 -0.38373777 0.07834678 -0.09102827 0.04556301 -0.17544527 0.028912451 -0.30216497
0.20209916 -0.298037 -0.010163155 -0.3530655 0.11025188 0.022277689 -0.35935885 -0.057769027
0.06375607 0.066963404 -0.13771966 -0.1834189 -0.10963282 -0.395897 0.018292628 -0.08651998
0.043574773 -0.12367323 0.096577115 -0.16414735 0.08362393 -0.26786512 -0.04904991 0.35263556
0.3308693 -0.16860925 -0.2642378 -0.10770676 0.011778651 -0.0043529114 -0.14562279 -0.30281752
-0.045526195 -0.29890198 0.22157206 -0.07432296 0.016126059 -0.22780696 0.014738862 -0.18292573
0.101303555 -0.2562498 0.07406018 -0.0012683166 -0.21753082 0.030862393 -0.2383958 0.12852754
-0.08711304 0.026418276 -0.08395631 -0.14852378 0.11453287 -0.419021 0.18314527 -0.05087777
0.039944876 -0.2367968 0.015941322 -0.32300493 0.01999583 -0.28340405 -0.099856116 -0.12321113
0.015503902 -0.07579668 -0.22881494 -0.023366334 -0.11622313 -0.11942843 -0.2038034 -0.23343231
0.04809729 -0.37692663 0.15191959 0.034423374 -0.025571976 -0.28924313 0.07031925 -0.148854
0.07794987 -0.1780542 0.14521042 0.12509021 -0.14656685 -0.06282088 -0.11288144 0.069838904
-0.19732381 -0.0991017 -0.09973175 -0.2715959 0.076293536 -0.56966186 -0.16156727 -0.005950644
0.1123524 0.03466621 0.15436387 -0.37005126 -0.007686267 -0.25257656 -0.15246974 -0.073870875
-0.112688065 -0.124196105 -0.31349167 -0.1169941 -0.029772602 -0.053114474 -0.18184106 -0.08484464
-0.1592305 -0.23202369 0.12898415 0.32637373 -0.044959873 -0.3728971 0.13835458 0.000457793
0.184525 -0.3384777 0.09836305 -0.23978926 0.11547035 -0.098573275 -0.22302212 0.1988911
0.04297985 -0.011754477 -0.0981203 -0.13919342 0.07062479 -0.49893045 0.11987012 -0.13421372
-0.024284614 -0.06594768 0.03894392 -0.31474772 -0.026308345 -0.27403092 0.008226339 -0.26252306
-0.21030983 -0.09711666 -0.21654053 0.031152908 -0.04872318 0.052007608 -0.17778273 -0.12341864
0.11576338 -0.3321505 0.24496624 0.20421495 -0.06443552 -0.27311346 0.006108615 -0.16751091
0.3281979 -0.1623586 0.093506135 -0.24507567 0.27277228 -0.017696464 -0.22119771 -0.0002453337
-0.013755494 -0.082874596 -0.1411494 -0.16146052 -0.1056781 -0.2990249 0.057419017 -0.1128981
