results/model_GCN/graph_split_/layers_1/transform_False/alpha_0.1/model.pt (torch, 13633 bytes, 7 tensors)

encoder.conv.bias f4 [20]
0.086027324 0.18920363 0.08853398 0.13446555 0.07516851 0.09628175 -0.08103629 -0.10477117
-0.008591162 -0.007879722 0.09483385 -0.014571836 0.151975 -0.028853774 -0.040073704 -0.24715917
-0.07399741 -0.023154827 0.18959281 -0.08118826
00000000: 182f b03d 99be 413e 4e51 b53d 56b1 093e
00000010: f3f1 993d 5e2f c53d 5bf6 a5bd 4492 d6bd
00000020: f2c1 0cbc f319 01bc 4038 c23d b6be 6ebc
00000030: 569f 1b3e c05e ecbc 5324 24bd 4b17 7dbe
00000040: f48b 97bd 31af bdbc 9e24 423e 0846 a6bd

encoder.conv.lin.weight f4 [20, 40]
0.15171649 -0.024188498 0.18243112 0.07228717 0.11522764 0.05697774 -0.21904126 -0.11364963
-0.17705017 0.117829405 -0.34039652 -0.16924049 0.31795976 -0.19291791 0.26995242 0.0679172
0.13059656 -0.050214276 -0.091221474 0.31332245 0.43833864 -0.04974766 0.26993692 -0.25331464
-0.33295783 0.00045593118 0.22076045 0.5381319 -0.28170624 -0.19664577 -0.25201127 -0.024355812
-0.08854755 -0.2630652 -0.019173307 0.31128684 -0.14843506 0.07167295 0.09957396 -0.07313567
1.1958184 -0.45038435 -0.49944973 -0.30757126 0.12748833 0.13219279 -0.07178877 -0.03723942
-0.3078334 -0.042181082 -0.45549163 -0.52987176 -0.38803205 -0.14192055 0.06244741 -0.12025017
0.051042557 0.080334164 -0.5344009 0.014811354 -0.47731578 0.29226828 0.020310534 -0.16844398
-0.14144844 0.3568496 -0.4326929 -0.4273838 -0.13021612 0.008434571 0.4513337 0.5522658
0.5929715 -0.63238627 0.122759685 -0.38668504 -0.36637035 0.5272304 0.08489538 -0.009940174
0.048255645 0.36888027 -0.31105977 0.15830906 -0.27098328 0.12774815 -0.15654573 -0.1569034
-0.44553602 -0.37714404 -0.17282549 0.08883952 -0.3390568 0.19227682 -0.006629083 -0.039999075
0.15132815 -0.16474766 0.09938565 -0.39680907 -0.07676268 -0.047393464 -0.18821125 0.08821173
0.671337 0.23129511 0.29201648 -0.26482671 -0.15799026 -0.39345863 0.11688877 -0.019203015
-0.008473389 -0.13450062 0.4770383 -0.015487279 0.1377578 -0.50265735 -0.085140124 -0.36138228
-0.39543647 -0.04197366 -0.4481356 0.29151946 0.10195223 0.5040432 -0.008309762 0.025450975
0.29011595 -0.53624415 0.14220373 -0.18735361 -0.09861081 0.19260769 -0.1491867 -0.19566809
0.031481747 -0.27845293 -0.23328827 0.17077538 -0.3847522 -0.1956525 -0.21385573 -0.22467119
-0.2338175 0.057970937 0.37083906 0.29811516 -0.13327844 0.07984133 -0.0065029394 -0.07823693
-0.24945863 0.09781779 0.3494095 -0.43812233 0.33209187 -0.20424175 0.12137212 0.055697057
0.056032747 -0.5325944 -0.31082207 -0.21379519 0.114686094 0.11091857 -0.18944864 0.033046942
0.0804356 -0.3052804 -0.23003471 -0.4154695 -0.35024884 -0.12090627 0.53849757 0.03866797
0.41795367 0.12637743 -0.18833493 -0.47764978 -0.30803975 -0.0021034738 -0.2829159 -0.028307226
0.39972287 -0.35081205 -0.2811162 -0.3088308 0.32916504 0.015763737 -0.22616453 0.81023115
0.16954866 -0.46918753 0.57562965 0.20883766 -0.46023363 0.067153916 -0.052846167 -0.29839265
0.37971503 0.024392627 -0.43290842 -0.13736442 -0.47664782 0.51427466 0.204677 -0.85931826
0.08074919 -0.3130522 0.044011362 0.17696615 0.25343338 0.31262887 -0.004371657 0.33066
0.36746952 -0.16664617 -0.6464983 -0.089438975 -0.47363982 -0.61054546 -0.5001904 -0.13940799
0.16493303 -1.3894389 0.025644049 -0.5258154 0.0027191658 -0.30265 0.42502034 0.41726613
0.4476031 0.009716465 0.47811547 -0.055793397 0.3237244 0.076400794 0.33605123 -0.102396086
0.3259323 0.29631686 -0.116282575 -0.14602895 0.26447004 0.030797407 -0.012255076 0.21547216
0.11326669 0.36783496 -0.20068175 0.18871251 -0.31054065 0.08404076 0.07884861 -0.033563174
00000000: 915b 1b3e f526 c6bc 39cf 3a3e 4c0b 943d
00000010: 78fc eb3d 7e61 693d 5a4c 60be 23c1 e8bd
00000020: a44c 35be 8b50 f13d 7448 aebe 614d 2dbe
00000030: 9fcb a23e 468c 45be 3437 8a3e 2c18 8b3d
00000040: 1bbb 053e 7cad 4dbd 53d2 babd cd6b a03e
00000050: ec6d e03e 34c4 4bbd 2c35 8a3e 75b2 81be
00000060: 7379 aabe 0c0a ef39 070f 623e 03c3 093f
00000070: cd3b 90be 825d 49be 9f07 81be d785 c7bc
00000080: 6b58 b5bd 7bb0 86be 5711 9dbc fd60 9f3e
00000090: 5cff 17be 45c9 923d 6fed cb3d 27c8 95bd
000000a0: 9410 993f c798 e6be e0b7 ffbe fb79 9dbe
000000b0: 4d8c 023e 8c5d 073e fe05 93bd 5d88 18bd
000000c0: 579c 9dbe 12c6 2cbd 3336 e9be ada5 07bf
000000d0: 23ac c6be 9f53 11be dbc8 7f3d b945 f6bd
000000e0: 0012 513d 3d86 a43d 7fce 08bf 52ab 723c
000000f0: bc62 f4be 30a4 953e 4762 a63c 947c 2cbe
00000100: dcd7 10be feb4 b63e ec89 ddbe 0dd2 dabe
00000110: 6057 05be 2831 0a3c 3615 e73e 4b61 0d3f
00000120: fbcc 173f 11e4 21bf 6e69 fb3d 95fb c5be
00000130: e594 bbbe 92f8 063f a1dd ad3d 1ddc 22bc
00000140: b6a7 453d e0dd bc3e 3a43 9fbe c51b 223e
00000150: 52be 8abe 69d0 023e 864d 20be 49ab 20be
00000160: 4c1d e4be 0619 c1be 2af9 30be 7ff1 b53d
00000170: da98 adbe 37e4 443e c738 d9bb 12d6 23bd
00000180: c4f5 1a3e 9cb3 28be b48a cb3d 8f2a cbbe
00000190: c135 9dbd a61f 42bd 73ba 40be 5aa8 b43d
000001a0: bedc 2b3f a0d8 6c3e 2f83 953e 5e97 87be
000001b0: 33c8 21be 6973 c9be 6163 ef3d a44f 9dbc
000001c0: f8d3 0abc 88ba 09be 5d3e f43e 5bbe 7dbc
000001d0: 6110 0d3e 27ae 00bf f25d aebd 1907 b9be
000001e0: a676 cabe 93ec 2bbd 0872 e5be 0a42 953e
000001f0: 55cc d03d fa08 013f ab25 08bc 907e d03c
00000200: 148a 943e 4c47 09bf db9d 113e a0d9 3fbe
00000210: 77f4 c9bd f33a 453e 66c4 18be 375d 48be
00000220: 01f3 003d 6291 8ebe 1fe3 6ebe bedf 2e3e
00000230: 3efe c4be 2159 48be fffc 5abe 3410 66be
00000240: db6d 6fbe ef72 6d3d 9ede bd3e 8da2 983e
00000250: 257a 08be da83 a33d 9c16 d5bb af3a a0bd
00000260: 1572 7fbe b254 c83d cde5 b23e 9251 e0be
00000270: f207 aa3e c024 51be f291 f83d 9922 643d
00000280: 9882 653d 1b58 08bf 1224 9fbe 20ed 5abe
00000290: 8be0 ea3d 4629 e33d d3fe 41be 3b5c 073d
000002a0: 6bbb a43d b64d 9cbe 388e 6bbe 6bb8 d4be
000002b0: d153 b3be b59d f7bd fada 093f 4e62 1e3d
000002c0: 06fe d53e 1669 013e dfda 40be 838e f4be
000002d0: 63b7 9dbe 6fda 09bb 5ada 90be 8ee4 e7bc
000002e0: 7aa8 cc3e a39d b3be 76ee 8fbe 121f 9ebe
000002f0: 5288 a83e f422 813c ad97 67be 4f6b 4f3f
00000300: 2a9e 2d3e 5939 f0be 775c 133f 8ad9 553e
00000310: bea3 ebbe fe87 893d 3975 58bd ecc6 98be
00000320: 026a c23e 0cd3 c73c 2ca6 ddbe 42a9 0cbe
00000330: 2f0b f4be 81a7 033f d996 513e 48fc 5bbf
00000340: d55f a53d 6148 a0be 4245 343d 9d36 353e
00000350: 05c2 813e e410 a03e 1e40 8fbb 444c a93e
00000360: f724 bc3e 4ba5 2abe ea80 25bf c82b b7bd
00000370: eb80 f2be b54c 1cbf 7a0c 00bf f8c0 0ebe
00000380: 34e4 283e 22d9 b1bf 7813 d23c d79b 06bf
00000390: 0834 323b f1f4 9abe 449c d93e e8a3 d53e
000003a0: 3c2c e53e cf31 1f3c 8dcb f43e 9e87 64bd
000003b0: 34bf a53e 0578 9c3d e80e ac3e 0ab5 d1bd
000003c0: 99e0 a63e d8b6 973e 8f25 eebd 9d88 15be
000003d0: 9e68 873e d84a fc3c 84c9 48bc bca4 5c3e
000003e0: 5ef8 e73d dd54 bc3e 847f 4dbe da3d 413e
000003f0: 2fff 9ebe 901d ac3d 617b a13d 8a79 09bd

encoder.embed_x.weight f4 [28, 40]
-0.38467562 1.4845713 -0.31955144 1.5331993 0.3513358 0.033774126 -0.5551682 1.4794264
-0.4353897 0.2457916 -0.87467164 -0.29648063 -0.09918419 -1.4030421 -0.90335584 -1.1514109
-2.2818453 -0.3657761 1.534919 0.47044936 0.21369821 -0.37390593 1.6663519 0.6226404
0.057646833 1.2499378 1.3686988 0.17780739 -0.26867786 -0.19770873 -0.57389367 -1.1165918
0.040034276 0.46480244 -0.039210714 -0.19138202 1.181917 0.08290194 0.20161544 -1.642566
0.17601034 -1.7814436 0.29199436 -1.0586936 1.9225972 0.6610769 0.84059656 0.881179
-1.351229 0.4657374 -1.975616 -0.622492 -0.40643415 -1.6767776 1.5243782 -0.5114916
0.38729388 0.447106 -1.1234993 0.09354627 -0.6877174 1.5707618 2.0246859 -1.8041453
-0.849846 0.56190526 -0.83714765 -0.024315806 0.36302474 2.7576768 0.18626747 0.48426297
0.12903012 -1.205928 -0.37855724 -0.35624903 -1.5442349 1.6191825 -0.8425877 -0.033001937
1.0789711 -0.5113533 -2.2978086 0.660848 -1.6854136 1.541927 0.038899917 -2.126278
-0.55950254 -1.3445863 -0.63266647 -1.345597 -0.54533434 0.0951869 -1.5308232 1.8574088
0.4810543 -1.0460944 -0.8875851 -0.20472993 -0.8914612 -0.16566403 0.080228776 -0.8870055
0.08663257 -1.0981226 -0.4934321 -1.137307 -0.80646175 -0.794358 0.9281594 0.83881855
2.1274323 -0.65903664 2.0703814 -0.8813577 0.667638 0.59242564 2.2072308 -0.68580455
0.059920784 -0.12657593 2.8591192 1.265606 0.17702174 -0.92408997 -0.6361998 -0.897034
-0.7342295 0.46551228 -1.5545785 -0.19296654 -0.5497469 0.14910522 1.8563205 -1.592207
2.6361985 0.11660285 1.9402822 0.41042343 0.15543754 1.3107555 -1.2232622 -0.14583643
1.6772696 -1.6124212 0.1009959 1.0016956 -0.32977343 -0.29907003 -1.9453235 1.3006973
1.2160408 -0.9938801 0.8092663 -0.12690482 -2.1410987 -0.026043478 1.0382459 -2.6229606
0.44166476 -0.3342209 -0.8016021 0.11885028 1.0056468 -1.2045043 -0.8378116 1.626555
0.06537503 -0.20112933 -0.86492926 0.2365809 -0.5347087 2.300024 1.4784212 1.8289865
2.0133977 -1.4951807 1.5631273 -2.6639674 0.025600117 -0.5752746 0.60666096 -0.60439384
0.64360714 -0.46996915 -0.6727443 -1.1601969 0.6407345 1.0409727 -1.4472685 1.9799418
-1.1327943 -1.1031456 0.5431444 -1.2013885 -1.0532467 -2.0152194 1.2045273 1.3063141
-0.80959964 0.060255073 -0.812401 1.4403453 0.7703463 1.2752056 0.9262846 0.10749791
0.36064598 -1.9532893 -1.5286013 -0.2792324 1.4014144 0.66841984 0.51309633 -0.6521809
0.18530704 -0.74388087 0.022437194 -2.283208 -1.0357374 1.4900874 -0.8356336 0.063467786
1.0756264 0.67981577 0.46702576 0.31516075 1.4134855 0.73312646 -0.9236075 -0.16224831
-1.0783756 -1.5616753 0.23451774 2.7962759 0.08825121 -1.7897639 -0.3688716 -0.6006955
-1.4885604 -1.2565149 1.4128578 0.43438783 0.635493 0.82784945 -0.66118026 -0.9141424
0.86123383 0.789136 -0.25421244 -1.4056498 -0.037981495 2.095554 -2.3564513 1.4067552
00000000: 34f4 c4be 6f06 be3f 3f9c a3be e03f c43f
00000010: 49e2 b33e bd56 0a3d 811f 0ebf d85d bd3f
00000020: 66eb debe cbb0 7b3e 7bea 5fbf 4fcc 97be
00000030: 1521 cbbd e296 b3bf 5442 67bf 6f61 93bf
00000040: c109 12c0 0147 bbbe 3a78 c43f bdde f03e
00000050: b4d3 5a3e 9970 bfbe 054b d53f 5c65 1f3f
00000060: 161f 6c3d f6fd 9f3f 8631 af3f 2413 363e
00000070: 2590 89be 2874 4abe b2ea 12bf 7bec 8ebf
00000080: fbfa 233d 96fa ed3e 6a9b 20bd a6f9 43be
00000090: 0e49 973f 7ec8 a93d 4774 4e3e 9a3f d2bf
000000a0: 0e3c 343e 5806 e4bf 4980 953e 4683 87bf
000000b0: aa17 f63f 563c 293f 5631 573f f294 613f
000000c0: 12f5 acbf 2275 ee3e fce0 fcbf a35b 1fbf
000000d0: 2318 d0be a6a0 d6bf d31e c33f 1df1 02bf
000000e0: 624b c63e 14eb e43e d3ce 8fbf 3095 bf3d
000000f0: 3f0e 30bf b90e c93f 7494 0140 3cee e6bf
00000100: 828f 59bf 06d9 0f3f 4f4f 56bf f131 c7bc
00000110: 61de b93e c77d 3040 e6bc 3e3e 51f1 f73e
00000120: 7920 043e d95b 9abf 41d2 c1be 4666 b6be
00000130: 7da9 c5bf 5f41 cf3f d4b3 57bf 0a2d 07bd
00000140: ba1b 8a3f 0de8 02bf 4c0f 13c0 562d 293f
00000150: a2bb d7bf dd5d c53f 8555 1f3d f014 08c0
00000160: 8f3b 0fbf 671b acbf 6ef6 21bf 863c acbf
00000170: 089b 0bbf 59f1 c23d 04f2 c3bf 92bf ed3f
00000180: c04c f63e 6ce6 85bf c738 63bf b9a4 51be
00000190: cd36 64bf d5a3 29be fc4e a43d cb12 63bf
000001a0: 6b6c b13d 488f 8cbf 22a3 fcbe 4793 91bf
000001b0: 4774 4ebf 0c5b 4bbf db9b 6d3f d0bc 563f
000001c0: da27 0840 a0b6 28bf 2181 0440 a9a0 61bf
000001d0: 53ea 2a3f 35a9 173f 4543 0d40 e390 2fbf
000001e0: 7f6f 753d 1f9d 01be cffb 3640 61ff a13f
000001f0: 3045 353e 2991 6cbf fddd 22bf 05a4 65bf
00000200: 77f6 3bbf a057 ee3e 6efc c6bf 0599 45be
00000210: 36bc 0cbf 0aaf 183e e99b ed3f 70cd cbbf
00000220: 7ab7 2840 7acd ee3d 2b5b f83f 0523 d23e
00000230: 052b 1f3e d6c6 a73f db93 9cbf 2556 15be
00000240: c5b0 d63f d163 cebf f0d6 ce3d 9037 803f
00000250: 10d8 a8be b51f 99be 5c00 f9bf 407d a63f
00000260: 3aa7 9b3f ed6e 7ebf 142c 4f3f 56f3 01be
00000270: c307 09c0 2259 d5bc 3ee5 843f 96de 27c0
00000280: e221 e23e 001f abbe cc35 4dbf c767 f33d
00000290: 09b9 803f 322d 9abf d27a 56bf f432 d03f
000002a0: 58e3 853d d9f4 4dbe 016c 5dbf 4342 723e
000002b0: abe2 08bf 9833 1340 e83c bd3f 3b1c ea3f
000002c0: 82db 0040 1562 bfbf 8e14 c83f 717e 2ac0
000002d0: 56b7 d13c 3245 13bf 224e 1b3f 8eb9 1abf
000002e0: 70c3 243f cc9f f0be f838 2cbf 5581 94bf
000002f0: 2d07 243f 983e 853f 1840 b9bf bc6e fd3f
00000300: 67ff 90bf e033 8dbf 830b 0b3f 19c7 99bf
00000310: cad0 86bf 5bf9 00c0 f32d 9a3f 4d35 a73f
00000320: ec41 4fbf 06ce 763d 83f9 4fbf 3c5d b83f
00000330: 6a35 453f f039 a33f fd20 6d3f dd27 dc3d
00000340: 97a6 b83e 6205 fabf 35a9 c3bf 8df7 8ebe
00000350: 8c61 b33f 901d 2b3f 485a 033f 54f5 26bf
00000360: 21c1 3d3e fa6e 3ebf 35ce b73c 1420 12c0
00000370: 0b93 84bf 2fbb be3f 15ec 55bf 66fb 813d
00000380: 20ae 893f 6808 2e3f 001e ef3e c05c a13e
00000390: 18ed b43f 2dae 3b3f 8b71 6cbf 6c24 26be
000003a0: 3608 8abf fae4 c7bf 6b25 703e 2ff6 3240
000003b0: 0dbd b43d fc16 e5bf bddc bcbe 2ec7 19bf
000003c0: 2689 bebf 7bd5 a0bf 86d8 b43f 1568 de3e
000003d0: abaf 223f f1ed 533f 1c43 29bf 3c05 6abf
000003e0: d279 5c3f d104 4a3f 2228 82be 55ec b3bf
000003f0: 7c92 1bbd 8f1d 0640 19d0 16c0 8e10 b43f

encoder.conv_mu.bias f4 [20]
0.0026945244 0.03155545 -0.07054847 -0.23761086 -0.053366773 0.044808727 0.08693619 -0.14562044
-0.13894585 0.05962054 -0.064553015 -0.17528479 0.044650458 -0.20145357 0.062818766 -0.008456875
0.054577988 -0.016777148 0.043207563 -0.22519073
00000000: 9e96 303b 4a40 013d b77b 90bd 4350 73be
00000010: 1e97 5abd 5b89 373d 9a0b b23d 861d 15be
00000020: d247 0ebe ab34 743d 5f34 84bd db7d 33be
00000030: 66e3 363d d849 4ebe 20a7 803d b48e 0abc
00000040: 2b8d 5f3d 3b70 89bc 6afa 303d 6698 66be

encoder.conv_mu.lin.weight f4 [20, 20]
-0.18958758 0.17610382 -0.21537562 0.20836048 -0.2950415 0.46747532 -0.026123285 0.16701166
-0.36437666 0.13671882 0.38227043 0.122621275 -0.06640468 0.27181765 -0.47556275 0.1656731
-0.038435 0.1759484 0.09373869 0.1652593 -0.0002663643 0.5279578 -0.17470306 0.008511182
-0.33183432 -0.38045192 0.31927976 -0.02259782 0.3211805 -0.20562392 -0.119154915 0.47104704
-0.53280795 -0.2628782 -0.05689262 0.02395944 0.09295034 -0.01961324 0.4165157 -0.056317825
0.12524724 0.38148445 0.19360349 0.10334847 -0.25796828 0.42808217 -0.28565675 0.28896865
-0.4016776 -0.20696136 -0.056436267 0.24311908 -0.387495 0.11288418 0.32549465 -0.52680534
-0.13311945 0.16610374 -0.04422764 -0.2565925 -0.016724795 0.281265 0.31871748 -0.09883831
-0.22149403 0.5327624 0.32348424 -0.02188974 -0.48098767 -0.13182901 0.48320404 -0.5132813
0.26428235 -0.30474722 -0.26494738 0.44926727 -0.42312706 -0.06266052 0.041861333 0.10848319
0.054199968 0.53922445 0.15395983 -0.22584589 0.066408575 0.196995 0.34357324 -0.12006823
-0.7719218 -0.28818622 -0.14231704 0.34844968 0.097907834 -0.387956 -0.26392275 -0.28187454
0.02140646 6.776431e-05 0.24371119 -0.29917902 0.11753999 0.41319588 -0.039986137 0.34619942
-0.37179917 -0.46678224 -0.4460897 0.37459603 0.29342917 0.29108933 0.36330613 -0.33605173
-0.3594095 0.07927976 0.010941474 0.55036914 0.017607557 -0.26122218 0.22231275 -0.4143616
0.07426082 -0.13976754 -0.073284134 0.27988145 0.2296625 1.0676081 0.3577661 -0.54154533
-0.9910638 0.31359455 -0.748241 0.12312543 0.34701917 -0.17079757 0.24425486 -0.40603453
0.2028647 -0.07772564 0.22613974 -0.49096808 0.07151445 -0.10050874 -0.16259442 0.20840597
0.184383 0.13624272 0.09199956 -0.0064288774 -0.18282457 -0.091850124 -0.42278835 -0.07186228
0.2601742 0.35393772 0.10995525 0.13508463 0.20906447 -0.33072975 -0.19001924 -0.4146707
-0.0874148 -0.22573213 -0.45369664 0.5135958 0.41668797 0.1704155 0.37720492 0.33588016
-0.11458578 -0.20545943 0.28516027 -0.30817598 0.33032185 -0.40399542 -0.43669093 0.21963277
-0.16215183 -0.3679961 -0.017457247 0.4427193 0.30188367 -0.13631117 0.0014406634 -0.0006856651
0.19951361 -0.23710015 0.092654325 -0.029278673 0.25596237 0.36233497 -0.56374866 -0.20709671
-0.018777657 0.28355756 0.114105076 0.024883661 -0.34179112 0.13338959 0.17697133 -0.19270349
0.16244726 0.03305752 -0.24643818 0.07034721 -0.035365656 -0.7360156 0.21121134 -0.14540264
0.6865421 -0.36347142 0.28639662 -0.13298488 -0.04549186 -0.17337957 0.14829162 0.13532044
0.10295537 0.31811807 -0.2261676 -0.15650102 -0.026632652 0.24872199 0.42576355 -0.21354192
-0.23875755 0.51603 0.06991534 0.23159237 -0.6813393 0.30676928 0.3868791 0.3068675
-0.027074553 0.30889285 -0.49580985 0.5791014 -0.39946604 -0.019177742 -0.40342355 -0.36399138
0.3549291 -0.5016403 -0.39058292 0.07495507 -0.17796034 -0.4271667 -0.15452628 0.15250935
0.53120685 -0.2757644 0.23638132 -0.017126886 0.27540576 0.005954814 0.26258376 -0.30317944
00000000: 3f23 42be 8f54 343e 6d8b 5cbe 735c 553e
00000010: ae0f 97be ed58 ef3e 8000 d6bc 1b05 2b3e
00000020: 948f babe 0500 0c3e f3b8 c33e dd20 fb3d
00000030: 2dff 87bd af2b 8b3e f67c f3be 36a6 293e
00000040: 056e 1dbd d12b 343e 12fa bf3d bc39 293e
00000050: d0a6 8bb9 3e28 073f 5ce5 32be 7c72 0b3c
00000060: 30e6 a9be 98ca c2be a378 a33e 101f b9bc
00000070: c571 a43e 148f 52be 7e07 f4bd 142d f13e
00000080: 1a66 08bf f997 86be 3c08 69bd 9646 c43c
00000090: bf5c be3d f2ab a0bc 8c41 d53e 85ad 66bd
000000a0: d040 003e ee51 c33e fe3f 463e 5da8 d33d
000000b0: 6b14 84be 962d db3e 9a41 92be b3f3 933e
000000c0: b0a8 cdbe aeed 53be b729 67bd 35f4 783e
000000d0: bf65 c6be d22f e73d 3ca7 a63e b7dc 06bf
000000e0: 7750 08be 1917 2a3e 0b28 35bd 1860 83be
000000f0: 7002 89bc f701 903e f02e a33e bd6b cabd
00000100: 55cf 62be 1e63 083f ba9f a53e 1d52 b3bc
00000110: 0444 f6be 2ffe 06be 8566 f73e 6766 03bf
00000120: 0450 873e d407 9cbe 2fa7 87be 5c06 e63e
00000130: 1ca4 d8be 2954 80bd ca76 2b3d 6f2c de3d
00000140: c900 5e3d 9d0a 0a3f a5a7 1d3e 2544 67be
00000150: 3801 883d 0fb9 493e d5e8 af3e 55e6 f5bd
00000160: ab9c 45bf 258d 93be 8fbb 11be ff67 b23e
00000170: e783 c83d 2ba2 c6be e220 87be dc51 90be
00000180: 9a5c af3c b01c 8e38 6d8f 793e fe2d 99be
00000190: ceb8 f03d 698e d33e 81c8 23bd 0d41 b13e
000001a0: 765c bebe 15fe eebe df65 e4be 0dcb bf3e
000001b0: 593c 963e a909 953e 4303 ba3e f90e acbe
000001c0: 8604 b8be 6d5d a23d de43 333c fee4 0c3f
000001d0: b93d 903c eabe 85be f4a5 633e 3427 d4be
000001e0: 0f16 983d 391f 0fbe fe15 96bd 9f4c 8f3e
000001f0: a52c 6b3e 62a7 883f 1e2d b73e b7a2 0abf
00000200: 5bb6 7dbf 778f a03e b98c 3fbf 2f29 fc3d
00000210: 7fac b13e 8fe5 2ebe f21d 7a3e c2e3 cfbe
00000220: c4bb 4f3e 9f2e 9fbd 2d91 673e 2b60 fbbe
00000230: 2b76 923d 87d7 cdbd 277f 26be 6068 553e
00000240: e6ce 3c3e 3683 0b3e 446a bc3d 55a9 d2bb
00000250: 5d36 3bbe eb1b bcbd b777 d8be 882c 93bd
00000260: 8e35 853e 5337 b53e 3830 e13d a053 0a3e
00000270: ff14 563e 6955 a9be 6794 42be b84f d4be
00000280: 8806 b3bd 5326 67be ed4a e8be 047b 033f
00000290: 2058 d53e 6781 2e3e 0121 c13e 7cf8 ab3e
000002a0: f3ab eabd f563 52be 8700 923e 3ec9 9dbe
000002b0: f21f a93e 7dd8 cebe f495 dfbe 6ae7 603e
000002c0: 210b 26be fc69 bcbe 8002 8fbc 1bac e23e
000002d0: 7f90 9a3e 2895 0bbe a4d4 bc3a 35be 33ba
000002e0: 4c4d 4c3e 62ca 72be 8dc1 bd3d d4d9 efbc
000002f0: 800d 833e f883 b93e d551 10bf 2911 54be
00000300: 9ad3 99bc 752e 913e ecaf e93d d2d8 cb3c
00000310: 3fff aebe 4897 083e f937 353e 1054 45be
00000320: 9358 263e 5267 073d 4a5a 7cbe 3312 903d
00000330: 94db 10bd 856b 3cbf c947 583e 6ee4 14be
00000340: 39c1 2f3f ed18 babe 94a2 923e 302d 08be
00000350: ac55 3abd 6a8a 31be c2d9 173e 7191 0a3e
00000360: 44da d23d 5fe0 a23e 7b98 67be ce41 20be
00000370: b82c dabc fab0 7e3e aefd d93e bcaa 5abe
00000380: dc7c 74be 8b1a 043f c62f 8f3d 8d26 6d3e
00000390: 416c 2ebf dd10 9d3e 0415 c63e bd1d 9d3e
000003a0: 74cb ddbc 3427 9e3e cada fdbe fd3f 143f
000003b0: d086 ccbe a41a 9dbc 888d cebe 145d babe
000003c0: 44b9 b53e 806b 00bf 7cfa c7be 0b82 993d
000003d0: 3c3b 36be 98b5 dabe 233c 1ebe 692b 1c3e
000003e0: 2cfd 073f fe30 8dbe f20d 723e af4d 8cbc
000003f0: fc01 8d3e 9a20 c33b 6171 863e 563a 9bbe

encoder.conv_logstd.bias f4 [20]
-0.20649877 -0.37200177 -0.3222728 -0.3405634 -0.53266287 -0.3725204 -0.5105563 -0.33452037
-0.25662413 -0.29974627 -0.2605855 -0.63828117 -0.29560438 -0.24600475 -0.37046283 -0.57056177
-0.25227383 -0.4849944 -0.42045164 -0.33061427
00000000: 6a74 53be 0477 bebe f100 a5be 535e aebe
00000010: 985c 08bf feba bebe d1b3 02bf 4146 abbe
00000020: 3d64 83be 5878 99be 766b 85be 6566 23bf
00000030: 7559 97be abe8 7bbe 4ead bdbe 5610 12bf
00000040: 092a 81be 3051 f8be 7045 d7be 4646 a9be

encoder.conv_logstd.lin.weight f4 [20, 20]
-0.23251697 -0.23907207 -0.15217255 -0.23361307 0.13087517 0.22556725 -0.16363351 -0.1287002
-0.046861723 -0.30432603 -0.06600701 -0.2822528 0.11899921 0.12427777 -0.11987 0.101508215
0.007413813 0.14980955 -0.3240961 -0.4330602 -0.29652107 -0.048183378 -0.24023598 -0.30279496
-0.026072813 0.097798854 0.10758453 0.14683343 0.015858386 -0.04432594 0.14439695 -0.15879108
-0.046869256 -0.006569141 -0.10888883 -0.039123565 -0.18239342 -0.023955774 -0.2507548 -0.33134514
0.024733482 -0.07136816 -0.19726676 -0.2546892 -0.058983926 0.09523745 0.13396476 0.0076915286
0.10973436 0.20235337 0.14396182 0.021504615 -0.20852952 0.100521564 -0.30684513 0.066768795
-0.1872233 -0.37828106 -0.20169477 -0.14106266 -0.07224109 -0.1921846 -0.33231655 -0.1905757
0.087726906 0.09172306 0.18791017 -0.0052702464 0.10076347 -0.11110558 0.09687065 -0.049160946
-0.09611958 0.06276243 -0.006319852 -0.1281427 -0.15657546 -0.13822863 -0.3727449 -0.3127973
-0.23115133 -0.18214414 -0.13774532 0.035767857 0.12003002 -0.068836555 -0.08323946 -0.23768553
0.14951137 -0.2913824 -0.022719545 -0.07091146 -0.22073525 0.10104542 0.093971245 0.26046488
-0.3456562 -0.39250857 -0.13150622 -0.03681507 -0.23134832 0.007513535 -0.10538951 -0.21347164
-0.008131702 0.090127476 0.14303131 0.028297639 0.0002184289 -0.16980617 0.15154868 0.09837237
-0.3032428 -0.0343232 -0.048675615 -0.05093332 -0.27066064 -0.39354685 -0.24494624 -0.13461867
-0.15801497 -0.142735 -0.14917126 -0.19057646 0.011127813 0.12787606 -0.18426883 -0.15365641
0.014676959 -0.10077274 0.13501677 0.16683461 -0.24737805 0.12845297 -0.08912708 0.17669027
-0.24063481 -0.47716933 -0.15780582 -0.07170573 -0.37664178 -0.013081516 -0.15129799 -0.21737061
0.044346213 0.07681845 -0.119797684 -0.061292302 -0.04532778 -0.37690264 0.1800452 -0.14085114
-0.029524585 -0.11423891 0.09667795 0.00910986 -0.089375086 0.08180585 -0.3164263 -0.3268193
-0.45013553 -0.08467418 -0.10324374 0.0021021017 0.2665186 0.061288875 -0.08040056 -0.34469485
-0.084136315 -1.017841 0.18125816 -0.013094664 -0.12673032 -0.10008901 0.26896042 -0.083836995
-0.06834934 -0.09537269 -0.5828899 -0.2585397 -0.035529986 -0.12987891 -0.050344937 -0.12720633
0.05953032 0.032772996 0.2101384 0.17251952 0.10991948 -0.037196066 0.004555116 -0.23576124
-0.20979685 0.07133114 -0.30319488 -0.053183332 -0.11651944 -0.31984308 -0.25697997 -0.07738144
-0.2220962 0.073987536 -0.2491426 -0.23161893 -0.026623853 0.1498971 0.15588035 0.14220227
-0.042645022 0.08286252 0.07907266 -0.025793483 -0.14648987 -0.084925525 0.054626632 -0.2003851
-0.16241553 0.024340961 -0.19907951 -0.33092707 -0.29202947 -0.15321139 -0.15529218 -0.10657394
0.16682115 0.16107486 -0.012318166 -0.08045429 -0.028409572 -0.38917354 0.028543249 -0.2380609
-0.07438584 -0.08840286 -0.038177215 0.044011436 -0.09824143 -0.2262945 -0.2763858 -0.24837118
-0.26827428 0.0019222341 -0.17247805 -0.19052872 -0.05287589 0.08401942 0.0019939577 -0.002073968
0.040507603 -0.14881875 0.12659426 -0.09321568 -0.22699492 0.08811687 0.04481127 0.08167523
00000000: ee18 6ebe 4fcf 74be 1fd3 1bbe 4438 6fbe
00000010: 2404 063e 1afb 663e 8b8f 27be fcc9 03be
00000020: 14f2 3fbd 9fd0 9bbe af2e 87bd 7083 90be
00000030: dcb5 f33d 5885 fe3d 677e f5bd 8ae3 cf3d
00000040: 92ef f23b ad67 193e edef a5be 11ba ddbe
00000050: 9cd1 97be ef5b 45bd 6c00 76be f107 9bbe
00000060: a796 d5bc c44a c83d 4755 dc3d 815b 163e
00000070: 72e9 813c 1e8f 35bd cbdc 133e 219a 22be
00000080: faf9 3fbd f341 d7bb 1b01 dfbd 0840 20bd
00000090: 57c5 3abe e63e c4bc ef62 80be 12a6 a9be
000000a0: df9d ca3c 7829 92bd 4c00 4abe 9f66 82be
000000b0: 2199 71bd da0b c33d 0f2e 093e 3809 fc3b
000000c0: 68bc e03d b935 4f3e ba6a 133e 722a b03c
000000d0: c388 55be 40de cd3d ce1a 9dbe 14be 883d
000000e0: 77b7 3fbe 0eae c1be 1389 4ebe bb72 10be
000000f0: 23f3 93bd 0acc 44be 6525 aabe 4726 43be
00000100: 2aaa b33d 4dd9 bb3d 866b 403e 08b2 acbb
00000110: 145d ce3d 538b e3bd 1f64 c63d fd5c 49bd
00000120: 58da c4bd 9789 803d c316 cfbb d737 03be
00000130: 5155 20be ce8b 0dbe 6bd8 bebe f826 a0be
00000140: efb2 6cbe fe83 3abe 1c0d 0dbe 5181 123d
00000150: 4dd2 f53d 2efa 8cbd 7379 aabd d663 73be
00000160: 8219 193e 1330 95be 571e babc 073a 91bd
00000170: 6c08 62be e7f0 ce3d ff73 c03d a75b 853e
00000180: d9f9 b0be e2f6 c8be 91a9 06be 66cb 16bd
00000190: 93e6 6cbe 1a34 f63b 75d6 d7bd 4f98 5abe
000001a0: d53a 05bc c194 b83d cd76 123e 73d0 e73c
000001b0: 100a 6539 abe1 2dbe 942f 1b3e 7477 c93d
000001c0: a442 9bbe 7c96 0cbd 1560 47bd 759f 50bd
000001d0: 0894 8abe f97e c9be 30d3 7abe 7ad9 09be
000001e0: adce 21be 2029 12be 5ac0 18be 7a26 43be
000001f0: 6e51 363c f1f1 023e f8b0 3cbe 1b58 1dbe
00000200: a177 703c f061 cebd d641 0a3e b1d6 2a3e
00000210: ac50 7dbe 2d89 033e 4288 b6bd 4bee 343e
00000220: f968 76be 8a4f f4be d997 21be 74da 92bd
00000230: 31d7 c0be db53 56bc dced 1abe 6796 5ebe
00000240: 60a4 353d fe52 9d3d 7d58 f5bd a30d 7bbd
00000250: 9fa9 39bd 62f9 c0be c55d 383e 483b 10be
00000260: 8bdd f1bc 17f6 e9bd 17ff c53d 8641 153c
00000270: 490a b7bd d389 a73d a102 a2be dc54 a7be
00000280: 2a78 e6be a869 adbd 7471 d3bd 6ac3 093b
00000290: 2075 883e 0b0a 7b3d 0ca9 a4bd d87b b0be
000002a0: a94f acbd 9d48 82bf bd9b 393e 008b 56bc
000002b0: 98c5 01be 78fb ccbd 2eb5 893e bbb2 abbd
000002c0: bdfa 8bbd c252 c3bd 4638 15bf 515f 84be
000002d0: e487 11bd fafe 04be 7e36 4ebd 6042 02be
000002e0: 11d6 733d fa3c 063d 852e 573e f5a8 303e
000002f0: 771d e13d e75a 18bd 1543 953b 656b 71be
00000300: fcd4 56be 1016 923d 5c3c 9bbe c4d6 59bd
00000310: bfa1 eebd 79c2 a3be e192 83be 297a 9ebd
00000320: 306d 63be c786 973d 3d1f 7fbe 832d 6dbe
00000330: 441a dabc a07e 193e 199f 1f3e 799d 113e
00000340: 8cac 2ebd d3b3 a93d d9f0 a13d db4c d3bc
00000350: 7101 16be 6fed adbd 2dc0 5f3d c031 4dbe
00000360: 4250 26be b266 c73c 80db 4bbe 466f a9be
00000370: e384 95be 72e3 1cbe ea04 1fbe 7043 dabd
00000380: 2ad3 2a3e cff0 243e 22d2 49bc 38c5 a4bd
00000390: 31bb e8bc c141 c7be 88d3 e93c 3dc6 73be
000003a0: 9a57 98bd 8f0c b5bd b65f 1cbd 5645 343d
000003b0: ce32 c9bd bfb9 67be 7182 8dbe 0455 7ebe
000003c0: 3f5b 89be 79f3 fb3a 169e 30be f619 43be
000003d0: 6494 58bd 6012 ac3d 0fad 023b 69eb 07bb
000003e0: 4deb 253d f163 18be eda1 013e dde7 bebd
000003f0: 5b71 68be 9e76 b43d 068c 373d 5845 a73d
