results/model_GCN/graph_split_/layers_1/transform_True/alpha_-10.0/model.pt (torch, 15093 bytes, 9 tensors)

encoder.conv.bias f4 [20]
-0.040575188 0.17450686 -0.012347999 -0.23063637 0.15729247 0.2578469 0.3388598 0.06400693
0.14126262 0.12245174 0.043557372 0.50398725 0.0052907723 0.14916381 0.5070401 0.14549677
0.065343276 -0.083762035 -0.07922247 -0.029879618
00000000: 2b32 26bd edb1 323e 434f 4abc f12b 6cbe
00000010: 4711 213e 8204 843e 087f ad3e 1116 833d
00000020: 26a7 103e fac7 fa3d 3769 323d 4f05 013f
00000030: 375e ad3b 66be 183e 61cd 013f 1bfd 143e
00000040: b2d2 853d 6e8b abbd 643f a2bd 1ac6 f4bc

encoder.conv.lin.weight f4 [20, 40]
-0.11925171 0.19083156 0.15683548 -0.7076398 0.090155154 -0.08158756 0.25838014 -0.51832896
0.15481661 0.053146467 -0.33263272 -0.11184041 0.07287444 0.3901354 0.3573964 -0.056442253
-0.1209313 0.48709008 0.02795014 -0.06451934 0.13031818 0.059746366 -0.30174163 -0.13786632
-0.040512253 0.0498691 0.038221534 -0.17840067 0.080613315 -0.097499095 0.3755908 -0.14995371
-0.15389 -0.256608 -0.122436956 0.33487767 0.117998414 -0.079568684 -0.5193841 0.041832525
0.09955425 -0.19837913 0.11902687 0.21840176 0.08262378 -0.11505456 0.16719599 -0.17133784
-0.29178658 -0.11587263 0.003078229 -0.119584404 -0.3203731 -0.15596345 -0.8475896 -0.45801157
-0.068861485 -0.13626425 -0.3565048 0.0376904 0.19420624 0.1036769 -0.57083005 -0.06734194
0.3529395 -0.3005522 0.7541495 -0.12318844 -0.25625917 0.24533197 -0.25612387 -0.13856934
0.31121996 0.18745925 -0.30842203 0.11268164 0.07973215 -0.015309159 -0.22211958 -0.07683224
-0.14007342 -0.122420356 -0.101006776 0.16031942 -0.12974542 -0.22767848 -0.48913208 -0.29673418
0.12533507 -0.35455784 -0.3336644 -0.36177263 0.10297405 0.18997766 0.22146946 -0.2551534
0.17869474 -0.032529555 -0.22879855 0.028524775 -0.12565665 -0.095005855 0.23348545 0.025882006
-0.05836388 -0.100386605 0.22305158 -0.4021914 0.05196698 -0.019922964 -0.09396011 -0.088273905
-0.16233164 0.0015858131 -0.3153369 0.18833455 -0.12576404 0.10007219 -0.4363861 0.15662876
0.715478 -0.0840155 0.20943789 0.07851881 0.24376613 -0.10930329 0.47353232 0.4142737
0.2056744 0.15335792 -0.097834215 -0.010346452 -0.21502532 0.1783297 -0.5678896 -0.025789205
-0.10944026 -0.01799749 -0.09528679 -0.052540056 0.18066417 0.2341963 0.0090229 -0.5116923
0.36799604 -0.03209645 0.3696073 -0.13839221 -0.17095627 0.082230516 -0.09729255 -0.0118595995
-0.00044153212 0.3284759 -0.28672984 -0.3293428 -0.30617857 -0.0090976255 0.08725208 -0.18511121
-0.0071729803 -0.1885799 -0.11495414 0.30257308 0.385508 -0.15659957 -0.26373237 0.19495094
0.28656873 0.027591264 0.08724552 0.33474156 0.053251047 -0.23863028 0.04565952 -0.18478955
0.02360305 -0.27427197 0.06691231 -0.20876974 -0.31082973 0.053899363 0.1282682 0.13596565
-0.09235255 0.22235048 0.14727959 0.25446725 -0.3548974 0.17269775 -0.2807395 0.13263543
0.19499096 0.07537509 0.2864682 0.081333995 -0.33742556 -0.08811772 -0.2028304 -0.11820846
-0.18253955 0.24487886 -0.12967883 0.19896784 -0.5026484 0.05225731 -0.28363833 0.17172503
-0.038153198 -0.12475305 -0.37430722 -0.33051363 -0.5910059 0.12642378 -0.12102949 0.100938775
-0.04988866 0.18517995 -0.25025383 0.13584979 0.20550607 0.27143806 0.23227386 0.2691847
0.3079173 -0.48332888 0.36869204 0.04343083 0.16145334 0.4339637 0.10533865 0.30991858
0.12994629 -0.069694534 0.15602374 0.38113722 -0.3806577 -0.08301759 0.008071413 0.25853294
0.1890111 0.6681099 -0.29522106 0.012504833 -0.20259874 -0.10968228 0.016938591 -0.14042558
0.0049010636 -0.36105523 -0.27672368 -0.011786967 -0.1497415 0.07464005 -0.16230488 0.24387924
00000000: 3e3a f4bd 5969 433e 7b99 203e e227 35bf
00000010: 44a3 b83d 6117 a7bd 674a 843e 35b1 04bf
00000020: 3f88 1e3e 1cb0 593d d64e aabe 960c e5bd
00000030: 323f 953d d4bf c73e a9fc b63e fe2f 67bd
00000040: d4aa f7bd df63 f93e b1f7 e43c b722 84bd
00000050: 2172 053e 9bb8 743d e17d 9abe d42c 0dbe
00000060: 2df0 25bd 8b43 4c3d 2f8e 1c3d aaae 36be
00000070: 9818 a53d 9bad c7bd 704d c03e 778d 19be
00000080: 5795 1dbe 2062 83be 3ac0 fabd 1675 ab3e
00000090: 27a9 f13d e8f4 a2bd 5bf6 04bf 9558 2b3d
000000a0: 19e3 cb3d e623 4bbe 5cc4 f33d b6a4 5f3e
000000b0: a836 a93d baa1 ebbd 6d35 2b3e 3073 2fbe
000000c0: 0d65 95be a14e edbd 1dbc 493b abe8 f4bd
000000d0: f107 a4be e2b4 1fbe a2fb 58bf 7e80 eabe
000000e0: 4007 8dbd db88 0bbe cc87 b6be 4061 1a3d
000000f0: 00de 463e 8e54 d43d eb21 12bf 92ea 89bd
00000100: 7cb4 b43e fae1 99be f10f 413f 394a fcbd
00000110: 6734 83be 4e38 7b3e ab22 83be 1fe5 0dbe
00000120: 3958 9f3e 51f5 3f3e 7ee9 9dbe a2c5 e63d
00000130: 9c4a a33d 44d3 7abc 5173 63be 395a 9dbd
00000140: 686f 0fbe 86b7 fabd a4dc cebd c62a 243e
00000150: fcdb 04be 8c24 69be 856f fabe 8bed 97be
00000160: d657 003e 9b88 b5be 0fd6 aabe 433a b9be
00000170: 0fe4 d23d 8189 423e e4c8 623e 77a3 82be
00000180: c1fb 363e b63d 05bd 2b4a 6abe caac e93c
00000190: 23ac 00be 6e92 c2bd cf16 6f3e 8006 d43c
000001a0: f70e 6fbd 7e97 cdbd a267 643e 08ec cdbe
000001b0: 54db 543d 7c35 a3bc 286e c0bd f3c8 b4bd
000001c0: 443a 26be 0fdb cf3a d773 a1be c6da 403e
000001d0: 4ac8 00be a6f2 cc3d 006e dfbe 4a63 203e
000001e0: 9129 373f 5210 acbd e376 563e 78ce a03d
000001f0: d49d 793e 67da dfbd d472 f23e af1b d43e
00000200: 4f9c 523e dc09 1d3e 4e5d c8bd 2a84 29bc
00000210: 992f 5cbe 109c 363e 3661 11bf e243 d3bc
00000220: 3722 e0bd 796f 93bc b825 c3bd 3e34 57bd
00000230: 0700 393e 28d1 6f3e c9d4 133c 44fe 02bf
00000240: fa69 bc3e 9177 03bd 2b3d bd3e b0b6 0dbe
00000250: 290f 2fbe 7968 a83d 5141 c7bd c44e 42bc
00000260: 707d e7b9 fe2d a83e 41ce 92be 9f9f a8be
00000270: 70c3 9cbe 350e 15bc 38b1 b23d cb8d 3dbe
00000280: 520b ebbb 171b 41be 136d ebbd dcea 9a3e
00000290: 4e61 c53e a35b 20be ee07 87be 38a1 473e
000002a0: 23b9 923e 1307 e23c c7ad b23d 3f63 ab3e
000002b0: c51d 5a3d 7f5b 74be 7a05 3b3d 7939 3dbe
000002c0: 2f5b c13c 606d 8cbe 5209 893d bcc7 55be
000002d0: 1325 9fbe 94c5 5c3d bd58 033e 943a 0b3e
000002e0: 5523 bdbd d8af 633e 76d0 163e 8849 823e
000002f0: 1db5 b5be aed7 303e 16bd 8fbe 95d1 073e
00000300: b6ab 473e 415e 9a3d f6ab 923e 7092 a63d
00000310: 0bc3 acbe 1077 b4bd c6b2 4fbe 4717 f2bd
00000320: a6eb 3abe 86c1 7a3e 87ca 04be 3abe 4b3e
00000330: 91ad 00bf c30b 563d 0b39 91be b0d8 2f3e
00000340: 8746 1cbd 877e ffbd 32a5 bfbe 1539 a9be
00000350: 2a4c 17bf 3c75 013e 4fde f7bd fdb8 ce3d
00000360: 0d58 4cbd d09f 3d3e 4521 80be 351c 0b3e
00000370: 2f70 523e eef9 8a3e 33d9 6d3e 94d2 893e
00000380: 56a7 9d3e e276 f7be 34c5 bc3e 87e4 313d
00000390: 0654 253e 7d30 de3e cabb d73d a6ad 9e3e
000003a0: a410 053e 02bc 8ebd b0c4 1f3e 6b24 c33e
000003b0: 91e5 c2be 2005 aabd f63d 043c 6e5e 843e
000003c0: 208c 413e 4009 2b3f 3727 97be 12e1 4c3c
000003d0: 0b76 4fbe 1aa1 e0bd cdc2 8a3c b9cb 0fbe
000003e0: 1a99 a03b 3bdc b8be baae 8dbe 1f1e 41bc
000003f0: d655 19be e2dc 983d 4033 26be 7bbb 793e

encoder.embed_x.weight f4 [28, 40]
-0.9746944 -0.22840545 0.90072465 0.4492281 0.64677143 0.6404184 -0.4978 -0.36358324
0.951026 0.09132297 1.5359749 0.08873216 0.94282246 -0.69177836 2.3095286 0.42393172
1.5468602 -0.8392196 0.21241622 1.3886815 -1.2322375 -1.3358012 0.5348742 0.74571586
-0.47749487 2.730193 -1.5224642 0.11637743 -0.12899107 -1.2867882 -1.0369349 -0.41142818
-1.3686227 0.6534254 0.6353159 -0.07640566 0.76160985 1.5479039 -0.018632565 0.8957432
2.1077998 0.4284856 0.18512475 0.60071295 -0.5925276 -0.16038054 -0.57231796 1.6611085
-0.7714888 -0.5931037 -0.72139 0.1895036 0.12066629 -0.23755516 -0.66182524 0.5363319
-1.0070728 1.0489026 -2.6978652 1.39875 -1.1523328 1.8861833 -0.6476903 -1.0881357
1.648141 -0.818826 0.9051537 -0.86250323 -0.15226133 0.67283946 -0.23077184 0.65892524
0.906258 2.1652465 -1.3266021 -0.06772802 -0.7672121 0.37446764 1.6417853 0.19507612
0.0071746823 -2.417974 1.0912014 -0.7084086 1.107401 -1.2772303 0.5475764 -0.89225745
0.79332066 0.75412476 0.5560873 -1.5890814 0.8001877 -0.40900776 -0.5796137 -0.68303514
1.6062546 0.79914767 -0.67454237 -0.29959643 0.4233525 1.5118217 -1.0174903 -0.4872161
1.2172407 -1.0132699 2.3311944 -1.6317562 -0.34117854 -0.44612986 -1.5701954 -0.48018554
-1.6288972 0.2725347 -1.2902387 0.9021361 -1.5800318 -0.024589447 -0.5208131 0.64283717
-0.59474117 -0.32722893 0.39668983 0.9425085 -0.52084494 -1.6469259 -0.44871837 0.3196162
-1.5983735 -0.9142215 0.35601318 0.17187624 1.3305907 -0.19626713 -1.3725634 -0.31730524
-1.3667873 -0.93401533 1.1948739 1.0455519 0.9922062 0.7470166 -0.83133656 0.64051914
0.03187379 0.9050123 0.226696 2.3578355 -0.9153018 0.27634287 -1.2464055 -0.7612626
-1.4823585 -0.6699414 -0.36835375 -0.73073107 -0.4830921 0.9072521 -0.23812997 -0.30975866
2.5234623 -1.3047115 1.3702248 0.5961266 1.1571416 -0.022973536 1.6255168 1.2126327
-0.27738127 1.2491646 1.0779978 1.4904304 0.1567315 -1.2386181 -2.2263453 -0.20422895
0.12792867 -1.3717515 -1.3634616 0.34602395 0.6931061 0.31961963 -1.7009555 -0.74101895
2.9763794 0.3591551 0.6572836 0.0037693062 -0.9321002 -0.7150742 -2.0268188 -0.20980382
-1.1230202 -0.22864147 -1.8146588 0.35138935 -0.23613214 -0.61804485 1.4492816 -1.0426762
-0.89210284 -0.4280634 -0.56132245 0.77514654 0.13807875 0.7475862 -1.3502202 0.31924105
-0.3567785 0.5188016 -0.13316151 -0.6842325 -2.6638553 -0.12974183 -0.17931604 0.33194047
-1.1905112 -1.8993734 1.3562294 -0.9724555 0.597461 0.465662 2.1854184 1.0954983
-0.0064764423 -0.39918712 -1.3999878 1.3071929 -0.22792391 -1.0474182 2.1897418 0.52577066
-1.02437 -0.8828855 1.4059395 1.3076208 -0.83626264 -1.558542 0.4375834 -0.9714612
-1.284831 -0.6479695 -0.9646812 -1.5955503 1.3167356 -0.28133243 -0.09796766 -1.1553686
-0.9382653 0.7093671 -1.144197 -0.27744946 -0.97957855 -0.15870324 2.0765193 0.12507908
00000000: 9285 79bf 1ee3 69be e495 663f 3a01 e63e
00000010: d092 253f 76f2 233f a4df febe 9527 babe
00000020: 7176 733f 8a07 bb3d d39a c43f 35b9 b53d
00000030: d05c 713f 6318 31bf 51cf 1340 940d d93e
00000040: 84ff c53f 19d7 56bf a383 593e 51c0 b13f
00000050: f5b9 9dbf 89fb aabf 84ed 083f 3ce7 3e3f
00000060: 357a f4be 7bbb 2e40 1be0 c2bf 4a57 ee3d
00000070: 3c16 04be 7ab5 a4bf 48ba 84bf b7a6 d2be
00000080: 072f afbf e346 273f 10a4 223f 927a 9cbd
00000090: ddf8 423f b721 c63f 52a3 98bc 6d4f 653f
000000a0: 31e6 0640 7762 db3e 5891 3d3e 53c8 193f
000000b0: e4af 17bf cc3a 24be 6e83 12bf 349f d43f
000000c0: 4a80 45bf a5d5 17bf 04ad 38bf 3b0d 423e
000000d0: e31f f73d a941 73be 616d 29bf 0c4d 093f
000000e0: c3e7 80bf 7142 863f d3a9 2cc0 3d0a b33f
000000f0: a47f 93bf 746e f13f 08cf 25bf 0848 8bbf
00000100: 49f6 d23f 959e 51bf 27b8 673f 03cd 5cbf
00000110: 65ea 1bbe 353f 2c3f 744f 6cbe 53af 283f
00000120: 8600 683f 6693 0a40 19ce a9bf fdb4 8abd
00000130: 0368 44bf 39ba bf3e 0526 d23f 09c2 473e
00000140: 9919 eb3b 16c0 1ac0 7dac 8b3f 445a 35bf
00000150: 51bf 8d3f 487c a3bf f82d 0c3f fc6a 64bf
00000160: 1017 4b3f 520e 413f bd5b 0e3f 0567 cbbf
00000170: 1ad9 4c3f 7769 d1be 9061 14bf 64db 2ebf
00000180: c099 cd3f f194 4c3f cfae 2cbf b464 99be
00000190: a9c1 d83e 6083 c13f 1f3d 82bf 6374 f9be
000001a0: 8bce 9b3f d4b2 81bf 4a32 1540 63dd d0bf
000001b0: f4ae aebe 226b e4be 2afc c8bf e1da f5be
000001c0: b47f d0bf ab89 8b3e 8b26 a5bf 64f2 663f
000001d0: 7b3e cabf cf6f c9bc 0254 05bf fa90 243f
000001e0: f540 18bf 8d8a a7be ee1a cb3e 3d48 713f
000001f0: 1856 05bf 78ce d2bf 6abe e5be bca4 a33e
00000200: 8197 ccbf 6c0a 6abf 5c47 b63e 5300 303e
00000210: cc50 aa3f 40fa 48be 28b0 afbf d575 a2be
00000220: e3f2 aebf a11b 6fbf a1f1 983f a5d4 853f
00000230: 3a01 7e3f 7b3c 3f3f 79d2 54bf 10f9 233f
00000240: 178e 023d e3ae 673f ff22 683e c7e6 1640
00000250: 3851 6abf d07c 8d3e 378a 9fbf 1be2 42bf
00000260: ecbd bdbf 4881 2bbf dd98 bcbe 3111 3bbf
00000270: d957 f7be ac41 683f 58d8 73be b098 9ebe
00000280: 6880 2140 c900 a7bf 8763 af3f c19b 183f
00000290: 371d 943f ff32 bcbc ef10 d03f 8c37 9b3f
000002a0: eb04 8ebe a0e4 9f3f d5fb 893f 6cc6 be3f
000002b0: 397e 203e 0a8b 9ebf 717c 0ec0 6521 51be
000002c0: bcff 023e 8e95 afbf e985 aebf 0d2a b13e
000002d0: 676f 313f 2fa5 a33e e9b8 d9bf 6bb3 3dbf
000002e0: 007d 3e40 2de3 b73e bd43 283f 7706 773b
000002f0: 1e9e 6ebf 1a0f 37bf 66b7 01c0 d0d6 56be
00000300: 20bf 8fbf fd20 6abe bd46 e8bf 4ee9 b33e
00000310: a0cc 71be 3038 1ebf 0f82 b93f 6a76 85bf
00000320: da60 64bf 202b dbbe d4b2 0fbf 0170 463f
00000330: 8464 0d3e cf61 3f3f 04d4 acbf 9073 a33e
00000340: acab b6be 2fd0 043f 7e5b 08be dc29 2fbf
00000350: 9b7c 2ac0 0bdb 04be a09e 37be 1af4 a93e
00000360: ac62 98bf ab1e f3bf ed98 ad3f d8f2 78bf
00000370: 34f3 183f 406b ee3e e5dd 0b40 4a39 8c3f
00000380: 5638 d4bb 4162 ccbe cd32 b3bf 1952 a73f
00000390: e364 69be cd11 86bf bb24 0c40 e898 063f
000003a0: 8e1e 83bf c904 62bf d3f5 b33f 1e60 a73f
000003b0: 4f15 56bf 4e7e c7bf ee0a e03e aeb1 78bf
000003c0: 5875 a4bf 54e1 25bf 59f5 76bf fe3a ccbf
000003d0: cb8a a83f ce0a 90be 45a3 c8bd 1ee3 93bf
000003e0: 2832 70bf 1599 353f 0c75 92bf db0d 8ebe
000003f0: a9c5 7abf 1a83 22be b1e5 0440 bb14 003e

encoder.trans_linear.weight f4 [40, 5]
0.38331082 0.00018545534 -0.25794643 -0.13685034 0.06618044 0.16330451 -0.11559812 -0.19938096
-0.07573508 0.15635853 -0.3431522 0.21152975 -0.13257441 0.040467665 0.048476774 -0.5001471
-0.4227678 -0.34203112 0.2266565 0.14374343 -0.038665496 -0.40229774 -0.29815668 0.3049143
-0.1600739 0.26056376 -0.20083098 0.11152054 0.2311318 0.23113708 0.09491318 -0.033791807
-0.0023198442 -0.13901328 -0.18063407 0.28250027 0.06598801 -0.0042513832 -0.084080696 -0.0915923
-0.3994842 -0.13439175 -0.22580935 0.025668781 0.17602992 -0.24751167 -0.121518746 -0.32026333
0.3244053 -0.1758301 0.62861145 0.4510413 0.030825056 -0.37356815 -0.30612093 0.13297933
-0.24879533 -0.4092344 0.40681267 0.55422944 -0.36781728 0.2902448 -0.15754497 -0.28545842
-0.21183047 -0.80310726 0.48413506 0.6165246 0.40184358 0.0030445794 -0.3062667 -0.005964549
-0.23661436 0.42569748 0.15195562 0.35723147 0.68729764 0.44220552 0.34344557 0.0017963081
-0.02202017 -0.36070383 0.2899546 0.10463541 -0.29204556 0.6190041 -0.017493077 -0.24250124
-0.10996592 -0.027135726 0.15148978 0.16614363 0.15903254 -0.09451878 -0.1814292 -0.064361624
-0.6266732 0.33534157 0.18896544 0.053294647 -0.17840846 -0.6202362 0.18153246 -0.5368125
-0.10147561 -0.17285974 -0.34237355 -0.20622924 -0.14577828 -0.10327674 -0.040231843 -0.29724243
0.007118316 -0.08787541 -0.271084 -0.38490897 0.17789596 -0.36262017 -0.20590937 -0.00021576195
-0.3466588 -0.12278713 0.37271738 -0.25311282 -0.07744753 -0.27535427 -0.3465582 -0.42212626
-0.0895147 -0.19260988 0.42148462 0.426425 -0.24598838 0.44147268 -0.063981555 0.19799359
0.3227508 -0.15305686 0.31271827 0.2606769 0.08197137 0.403314 0.043739766 -0.28045756
-0.056272976 -0.13708255 0.31666028 -0.08269744 0.22181801 -0.3667885 0.27784532 -0.33503246
0.009088322 -0.46705154 -0.3036883 0.44724765 -0.08115651 -0.41182387 -0.2685255 -0.1164044
-0.75727934 -0.14070912 -0.216814 -0.14293516 -0.21182154 -0.29252875 0.042638194 -0.24402873
-0.09596514 -0.053829852 0.40017375 -0.28996474 -0.34540167 -0.14004527 -0.27159572 -0.320031
0.09740209 -0.34048072 0.22212641 -0.34694475 0.028517801 -0.073085204 0.3015607 0.069785126
-0.039882217 -0.39005294 0.023424808 0.17281075 0.14577445 -0.33061185 0.45410988 0.1956819
0.44756204 0.24132714 -0.16243233 0.27118 -0.15135616 -0.034803983 -0.09470416 -0.4397081
00000000: 5141 c43e ca76 4239 8e11 84be 7f22 0cbe
00000010: 9c89 873d 4c39 273e b5be ecbd 862a 4cbe
00000020: fe1a 9bbd 731c 203e a5b1 afbe 419b 583e
00000030: 96c1 07be 6cc1 253d 958f 463d a409 00bf
00000040: 0575 d8be b41e afbe a418 683e 7a31 133e
00000050: b65f 1ebd f8f9 cdbe fea7 98be ba1d 9c3e
00000060: 6aea 23be 9d68 853e a3a6 4dbe e264 e43d
00000070: d1ad 6c3e 33af 6c3e d761 c23d 4769 0abd
00000080: 8708 18bb 7f59 0ebe 23f8 38be e0a3 903e
00000090: b924 873d 304f 8bbb 8032 acbd be94 bbbd
000000a0: 3189 ccbe fe9d 09be 913a 67be 5647 d23c
000000b0: 3041 343e b373 7dbe d2de f8bd 8ef9 a3be
000000c0: 7418 a63e ce0c 34be aeec 203f e3ee e63e
000000d0: d484 fc3c 5344 bfbe e2bb 9cbe bc2b 083e
000000e0: 34c4 7ebe 2c87 d1be c049 d03e fbe1 0d3f
000000f0: 8c52 bcbe f79a 943e 7853 21be 9b27 92be
00000100: 16ea 58be 7098 4dbf 8de0 f73e 8ed4 1d3f
00000110: 71be cd3e 9187 473b fdce 9cbe 4372 c3bb
00000120: 094b 72be 05f5 d93e 419a 1b3e 0be7 b63e
00000130: bdf2 2f3f c368 e23e 19d8 af3e 1972 eb3a
00000140: a563 b4bc 2cae b8be ee74 943e 174b d63d
00000150: ff86 95be 0d77 1e3f a44d 8fbc 3f52 78be
00000160: d035 e1bd be4b debc 2320 1b3e 8e21 2a3e
00000170: 6dd9 223e 1093 c1bd 94c8 39be 07d0 83bd
00000180: a86d 20bf e4b1 ab3e 2880 413e 7d4b 5a3d
00000190: b5b0 36be cdc7 1ebf a5e3 393e 8b6c 09bf
000001a0: 72d2 cfbd 2502 31be 964b afbe c22d 53be
000001b0: e746 15be c182 d3bd 25ca 24bd 2930 98be
000001c0: c340 e93b 06f8 b3bd 86cb 8abe ca12 c5be
000001d0: 5c2a 363e 5aa9 b9be e8d9 52be 283e 62b9
000001e0: 437d b1be d277 fbbd d0d4 be3e 0198 81be
000001f0: d09c 9ebd 3cfb 8cbe 1470 b1be ef20 d8be
00000200: 7c53 b7bd 863b 45be d5cc d73e 6154 da3e
00000210: 61e4 7bbe b508 e23e c308 83bd d5be 4a3e
00000220: 983f a53e f0ba 1cbe 9c1c a03e 7177 853e
00000230: 9be0 a73d 2c7f ce3e 7828 333d 2298 8fbe
00000240: 7e7e 66bd 5e5f 0cbe 4c21 a23e 475d a9bd
00000250: 4324 633e b4cb bbbe be41 8e3e 6089 abbe
00000260: 2fe7 143c 6121 efbe 087d 9bbe a5fd e43e
00000270: 6235 a6bd 94da d2be 2d7c 89be 6e65 eebd
00000280: 0fdd 41bf 0d16 10be 7d04 5ebe 985d 12be
00000290: bfe7 58be 54c6 95be 63a5 2e3d abe2 79be
000002a0: 5f89 c4bd b17c 5cbd 93e3 cc3e 4276 94be
000002b0: 7dd8 b0be 0768 0fbe 980e 8bbe 1adb a3be
000002c0: bf7a c73d 7d53 aebe 1b75 633e bea2 b1be
000002d0: 2a9e e93c b2ad 95bd 2a66 9a3e 81eb 8e3d
000002e0: 895b 23bd 05b5 c7be 62e5 bf3c 4df5 303e
000002f0: e645 153e f545 a9be 1781 e83e d660 483e
00000300: da26 e53e 761e 773e a954 26be 1bd8 8a3e
00000310: 1cfd 1abe 9f8e 0ebd 41f4 c1bd 6c21 e1be

encoder.trans_linear.bias f4 [40]
0.47344288 0.13730402 -0.23728493 0.25094205 0.19474415 0.1722415 0.21490225 0.32990882
0.31052402 -0.19459814 0.35408545 0.31425557 -0.28439713 0.14096496 -0.30142742 -0.19150116
-0.45024207 0.07361255 0.08484481 -0.45245972 -0.013087756 -0.0408798 -0.054378297 -0.35034037
-0.013976024 0.06112645 -0.013636049 0.21710712 -0.36964464 0.30033022 0.40436965 -0.31564072
-0.1581292 -0.051003788 0.023374252 -0.0791843 -0.5195465 -0.10542097 -0.05008147 -0.44819853
00000000: 1b67 f23e 6d99 0c3e d2fa 72be 7a7b 803e
00000010: 036b 473e 1360 303e 560f 5c3e cfe9 a83e
00000020: 01fd 9e3e bc44 47be b04a b53e 1be6 a03e
00000030: 809c 91be 1e59 103e b254 9abe e118 44be
00000040: 2186 e6be 2dc2 963d 1ec3 ad3d cda8 e7be
00000050: 076e 56bc 9471 27bd c7bb 5ebd d05f b3be
00000060: b2fb 64bc ba5f 7a3d bc69 5fbc 5451 5e3e
00000070: 1042 bdbe e2c4 993e 8a09 cf3e a99b a1be
00000080: 9fec 21be 59e9 50bd 5c7b bf3c 612b a2bd
00000090: 0001 05bf f3e6 d7bd 3a22 4dbd 477a e5be

encoder.conv_mu.bias f4 [20]
-0.15182053 -0.0020651813 -0.045846798 0.14995427 0.074827 0.10998603 0.02759108 0.053086665
0.061529197 -0.010134562 -0.057110474 0.035342693 0.04846577 -0.122051224 -0.017288418 0.0063487506
-0.029038223 0.03919119 -0.05339227 0.034563247
00000000: d776 1bbe fe57 07bb dac9 3bbd 9d8d 193e
00000010: e63e 993d 5b40 e13d b006 e23c 6771 593d
00000020: 0a06 7c3d 6f0b 26bc acec 69bd 80c3 103d
00000030: 0b84 463d fef5 f9bd 71a0 8dbc 2e09 d03b
00000040: 91e1 edbc f186 203d dab1 5abd 3192 0d3d

encoder.conv_mu.lin.weight f4 [20, 20]
0.095058955 0.668365 -0.23497583 0.033787444 0.23017909 -0.3591605 -0.13450764 0.13516122
-0.1535743 0.34538335 -0.1968777 0.02510603 0.04300856 -0.20981629 -0.045113932 0.27826157
-0.24189088 0.048068948 -0.03527133 -0.41503027 0.1921672 0.12072293 -0.34968746 0.049240693
-0.2255436 -0.27598387 0.065688536 0.19981118 -0.25517136 0.1484855 -0.037218686 0.40332475
0.28969762 0.4357288 0.3059194 -0.020484032 -0.24166338 0.25574338 0.3008427 -0.6962081
-0.16236626 -0.44278327 0.31591853 0.34235647 0.19019006 -0.13111815 -0.26435423 0.1789721
-0.27647063 0.010650669 -0.3171559 -0.42614517 -0.38268775 0.38429698 -0.03676601 0.050135728
-0.13985956 0.20934214 -0.31726944 0.35125992 0.70543176 -0.36835465 -0.21788177 -0.40571174
-0.15941326 -0.044909503 0.35420594 -0.23825641 0.25365227 -0.08055258 -0.060261484 0.19850865
-0.15887856 -0.07798635 0.33272386 -0.13686095 0.23342608 -0.17419228 0.24796632 -0.016762033
-0.08945157 -0.6321438 -0.086871654 0.0047231484 0.17508246 0.121185765 0.60829663 -0.36171988
0.08612825 -0.40455416 0.029821819 0.41523924 -0.07005475 0.3381316 0.35987785 -0.47858682
-0.19536637 0.32442042 -0.008973501 -0.12712632 0.026112648 0.7337206 0.36513227 -0.031190045
0.009389807 0.36632767 0.6431015 -0.110069565 -0.13199598 -0.03470089 -0.2997923 0.32560238
-0.12925363 -0.23749219 0.6514573 -0.0447247 -0.052256346 0.46214247 0.1631266 -0.8721162
-0.25051934 -0.4330253 -0.23157896 0.42006573 -0.2862704 0.34151655 -0.09146989 0.38992423
0.4328306 -0.38830504 -0.34751236 -0.27992707 -0.19575493 0.37849954 -0.4835352 0.008257431
0.17362137 0.013932961 -0.17908208 0.82389456 0.14540936 -0.021784354 0.13557117 -0.20664577
0.14260368 0.41326773 0.010050885 0.016088072 0.06653658 -0.045227595 -0.22239159 0.69630724
0.10963938 -0.38461205 0.6245207 0.12804648 -0.41940355 -0.40630233 -0.18403341 -0.8284444
-0.7118515 0.700008 0.111087084 0.029366553 -0.10707757 0.04312286 0.4654081 0.040711414
-0.44342744 0.2411709 0.0020636483 0.15358931 0.18878624 0.08907675 0.6394358 -0.14795564
0.099464536 0.085992426 0.19957662 -0.93305516 0.14030603 0.0249588 0.3107209 0.03943681
-0.20059653 0.49068347 -0.41782093 0.1229335 0.16708145 -0.16653308 0.11158172 -0.49512473
0.3787519 0.18642634 0.08874856 0.20181827 -0.26107988 -0.2566823 0.078964956 0.25290957
0.21186244 -0.36023712 -0.14063619 -0.38069147 -0.028114196 -0.36561078 -0.013698638 -0.04808699
0.115050666 0.1968382 -0.17405735 -0.18099843 -0.14587408 0.42551568 0.039856568 0.08083932
-0.29327202 -0.042671155 -0.39540678 0.38401383 -0.53839594 0.050113413 0.5593998 -0.22164106
-0.12119586 -0.20220736 0.6616218 0.36013323 0.07264125 -0.07324161 0.3573818 0.44980997
-0.054548774 -0.41597006 0.57070655 0.085899726 -0.32979074 -0.016353568 -0.34164456 -0.6148913
-0.60180056 0.01689543 0.20294435 -0.63644695 -0.3373094 0.5865898 0.58599615 -0.41993508
0.08092055 0.37467906 0.1742594 0.8079556 0.012454463 0.19914123 0.39490035 -0.39673123
00000000: 45ae c23d f819 2b3f 819d 70be b464 0a3d
00000010: 11b4 6b3e e3e3 b7be 5fbc 09be b467 0a3e
00000020: 9542 1dbe 16d6 b03e 4f9a 49be 29ab cd3c
00000030: be29 303d 15da 56be 63c9 38bd 4d78 8e3e
00000040: 3eb2 77be f2e3 443d ac78 10bd d97e d4be
00000050: 7ac7 443e 953d f73d 3c0a b3be 9cb0 493d
00000060: e7f4 66be c24d 8dbe b687 863d 4d9b 4c3e
00000070: d2a5 82be 950c 183e 9f72 18bd 9580 ce3e
00000080: 3f53 943e d817 df3e 78a1 9c3e 21ce a7bc
00000090: 9b76 77be ccf0 823e 0e08 9a3e b23a 32bf
000000a0: 5743 26be 7db4 e2be 13c0 a13e 5949 af3e
000000b0: 2fc1 423e d643 06be 7059 87be 7644 373e
000000c0: 8f8d 8dbe 2580 2e3c 4262 a2be b32f dabe
000000d0: a6ef c3be 93c2 c43e f597 16bd 1f5b 4d3d
000000e0: 5837 0fbe c95d 563e 2471 a2be 57d8 b33e
000000f0: 2d97 343f fb98 bcbe 661c 5fbe 73b9 cfbe
00000100: 3b3d 23be 07f3 37bd 7b5a b53e 7df9 73be
00000110: b6de 813e c0f8 a4bd bfd4 76bd da45 4b3e
00000120: 10b1 22be 4fb7 9fbd c85a aa3e 4725 0cbe
00000130: 3f07 6f3e 765f 32be e2ea 7d3e 8850 89bc
00000140: 6232 b7bd 2dd4 21bf c4e9 b1bd a4c4 9a3b
00000150: d148 333e 3e30 f83d 54b9 1b3f 5933 b9be
00000160: 0264 b03d b921 cfbe e34c f43c 3d9a d43e
00000170: dd78 8fbd 961f ad3e e941 b83e 5509 f5be
00000180: 1f0e 48be 6f1a a63e 9705 13bc 672d 02be
00000190: 31ea d53c 1dd5 3b3f 9ef2 ba3e 4482 ffbc
000001a0: b4d7 193c 4d8f bb3e 4da2 243f 276c e1bd
000001b0: f429 07be 8522 0ebd 607e 99be 5bb5 a63e
000001c0: 105b 04be 2731 73be e8c5 263f 3f31 37bd
000001d0: c00a 56bd f09d ec3e a90a 273e 0243 5fbf
000001e0: 1244 80be 7eb5 ddbe 0923 6dbe db12 d73e
000001f0: 0992 92be 42db ae3e 9154 bbbd 26a4 c73e
00000200: f99b dd3e ebcf c6be 24ed b1be 9a52 8fbe
00000210: fb73 48be b1ca c13e ed91 f7be 2d4a 073c
00000220: cdc9 313e 1347 643c 4b61 37be c1ea 523f
00000230: 31e6 143e 1a75 b2bc 2bd3 0a3e f39a 53be
00000240: b306 123e d497 d33e 78ac 243c 22cb 833c
00000250: 5544 883d 9240 39bd 9fba 63be 3141 323f
00000260: 9c8a e03d dfeb c4be 97e0 1f3f 9e1e 033e
00000270: 10bc d6be dc06 d0be 4173 3cbe ef14 54bf
00000280: e63b 36bf b933 333f a081 e33d 2092 f03c
00000290: 7c4b dbbd 99a1 303d f849 ee3e 03c1 263d
000002a0: ec08 e3be 81f5 763e 463e 073b 8446 1d3e
000002b0: 2e51 413e df6d b63d 11b2 233f af81 17be
000002c0: 10b4 cb3d cc1c b03d d05d 4c3e b4dc 6ebf
000002d0: 62ac 0f3e 6676 cc3c cf16 9f3e 7e88 213d
000002e0: 2d69 4dbe dd3a fb3e a0ec d5be 8fc4 fb3d
000002f0: 6617 2b3e a687 2abe f584 e43d fd80 fdbe
00000300: c5eb c13e 8ce6 3e3e cec1 b53d 73a9 4e3e
00000310: 43ac 85be dd6b 83be 61b8 a13d 5d7d 813e
00000320: 78f2 583e 0071 b8be ef02 10be fee9 c2be
00000330: be4f e6bc 5631 bbbe 4170 60bc ddf6 44bd
00000340: af9f eb3d f48f 493e 173c 32be a757 39be
00000350: 0460 15be 31dd d93e a440 233d 168f a53d
00000360: c027 96be f3c7 2ebd c272 cabe 769d c43e
00000370: 51d4 09bf b943 4d3d d334 0f3f e0f5 62be
00000380: 8935 f8bd 720f 4fbe 0c60 293f 6263 b83e
00000390: f0c4 943d b2ff 95bd bffa b63e 7e4d e63e
000003a0: 896e 5fbd 07fa d4be d319 123f 32ec af3d
000003b0: 55da a8be ebf7 85bc 09ec aebe 8469 1dbf
000003c0: 9a0f 1abf 4968 8a3c a5d0 4f3e 30ee 22bf
000003d0: d1b3 acbe c02a 163f d803 163f bb01 d7be
000003e0: acb9 a53d efd5 bf3e 0e71 323e 2ed6 4e3f
000003f0: ce0d 4c3c aeeb 4b3e 6130 ca3e 5b20 cbbe

encoder.conv_logstd.bias f4 [20]
-0.2854066 -0.39859757 -0.53532183 -0.45435277 -0.35632023 -0.44727114 -0.5433495 -0.54423
-0.37872624 -0.54771435 -0.48866883 -0.61360395 -0.5255841 -0.5001531 -0.2912086 -0.47359094
-0.3183357 -0.5011131 -0.3518818 -0.40546376
00000000: d020 92be fb14 ccbe da0a 09bf eda0 e8be
00000010: 9b6f b6be b900 e5be f418 0bbf a852 0bbf
00000020: 68e8 c1be 0237 0cbf cd32 fabe 2615 1dbf
00000030: ae8c 06bf 090a 00bf 4b19 95be 837a f2be
00000040: e6fc a2be f348 00bf da29 b4be f298 cfbe

encoder.conv_logstd.lin.weight f4 [20, 20]
-0.38053864 -0.20409843 -0.11798816 -0.32930753 -0.14341179 0.1433956 -0.078277454 0.066832654
0.020846965 -0.256637 -0.20731449 -0.20199397 -0.3676408 0.0793332 0.21033555 -0.56846416
-0.20026639 -0.055155933 0.0028876255 0.28888628 -0.24209087 0.111005366 -0.27311555 0.072546415
-0.20674218 -0.036995858 -0.54835093 -0.34976214 0.10535611 -0.33822325 0.015895672 -0.29015577
-0.28159767 -0.24225917 0.15180378 -0.21054707 -0.09832511 -0.018875506 -0.20862143 0.15149972
-0.26678705 0.022069158 -0.23186857 0.2696145 -0.18111575 -0.025906099 0.1255478 -0.14034036
0.11874458 -0.31886607 -0.19493005 -0.2993088 -0.08485066 0.000737238 0.40285054 -0.4701193
-0.08667329 -0.06976453 -0.26792943 -0.1223123 -0.18018542 0.2074272 -0.12483182 0.16082421
-0.18340486 -0.16027768 -0.14364952 -0.29137537 -0.1709379 -0.50163007 -0.04538925 0.04054171
-0.25351927 -0.15300192 0.040461466 -0.07344469 -0.12872308 0.10551719 -0.21549705 -0.07791619
-0.5506069 0.04082421 -0.16629845 -0.26751718 -0.19673198 0.22844334 0.36027712 -0.02732008
-0.03591318 -0.27699888 -0.30412543 -0.02080395 -0.24954887 -0.06194183 -0.087243415 -0.6146795
-0.069316246 -0.055133402 0.052538954 0.2750738 -0.5537984 0.2186982 0.04506427 -0.12733184
-0.31581292 -0.059597116 0.096380964 -0.16681261 -0.21466014 -0.4024768 -0.14182492 -0.0025507526
-0.31260884 -0.12684998 -0.08425565 -0.28166896 -0.038634066 -0.11601959 0.14522862 0.14958814
-0.36389986 0.082698524 0.20240921 0.12712297 -0.3232057 -0.25929144 -0.46944344 -0.28678596
0.061918315 -0.2445326 0.03746818 -0.013668734 -0.29497513 -0.15338476 -0.14360711 -0.22109608
-0.28401342 0.07369636 0.012925367 0.04391183 -0.49069536 0.22538656 -0.16881153 -0.08901857
-0.23699835 -0.14594616 -0.08224578 -0.19387613 -0.15656658 -0.3121257 -0.08139573 -0.37690705
-0.26820144 -0.024484593 0.33151436 -0.3845599 -0.1390885 -0.06928951 -0.041829444 0.032134566
-0.57991546 -0.014237449 -0.1573751 -0.07422784 -0.14503422 0.06645453 -0.016417088 0.13890564
-0.09236125 -0.31905547 -0.24347784 -0.2976446 -0.23252125 -0.1559905 0.10932842 -0.43292493
-0.08308968 -0.070514105 -0.040759973 0.254173 -0.09818274 -0.0041944482 -0.35119778 -0.18974744
-0.1435557 0.12562181 -0.21267983 -0.0025688312 -0.079230316 -0.14850721 -0.10809261 -0.14411816
-0.2543111 -0.072128266 -0.0065431064 -0.350751 -0.2200639 -0.08368516 -0.35762346 0.27015793
-0.28247097 -0.058044042 -0.364159 -0.27432325 -0.29605776 0.13598622 -0.0348893 -0.07951141
-0.15999512 -0.45444387 -0.015162305 -0.03395524 -0.1626337 0.03574028 0.22243643 -0.24079095
0.012359929 -0.06155536 -0.27165508 0.13910662 -0.28227195 0.0812055 -0.3789567 0.09899328
-0.2332168 0.023448879 0.0041977526 0.07144197 -0.041583683 -0.25141546 -0.17352366 -0.17639005
-0.039547157 -0.08575331 0.1518378 -0.441869 -0.2427666 -0.0011775357 -0.29974592 -0.022505479
-0.4214166 -0.04579824 0.16667454 0.2247495 -0.35236248 -0.1115598 0.19072737 -0.2284755
0.011281259 -0.28651384 -0.16198388 -0.06365769 -0.20706366 0.06937172 -0.009643392 -0.50081986
00000000: f6d5 c2be 2eff 50be c7a3 f1bd ff9a a8be
00000010: 8ada 12be 4cd6 123e ee4f a0bd 8fdf 883d
00000020: 41c7 aa3c ed65 83be 404a 54be 82d7 4ebe
00000030: 6a3b bcbe 7279 a23d 3462 573e de86 11bf
00000040: a212 4dbe 30eb 61bd 513e 3d3b e7e8 933e
00000050: abe6 77be c856 e33d cdd5 8bbe 3793 943d
00000060: 39b4 53be f888 17bd ba60 0cbf 0614 b3be
00000070: f2c4 d73d 992b adbe a437 823c 4c8f 94be
00000080: 922d 90be ca12 78be 7372 1b3e a799 57be
00000090: ad5e c9bd cea0 9abc dba0 55be be22 1b3e
000000a0: 5098 88be 61ca b43c f46e 6dbe e90a 8a3e
000000b0: 6876 39be 0739 d4bc 9a8f 003e 62b5 0fbe
000000c0: 5c30 f33d 6a42 a3be be9b 47be 013f 99be
000000d0: 2fc6 adbd 3443 413a 6d42 ce3e 7ab3 f0be
000000e0: c481 b1bd b5e0 8ebd 0c2e 89be df7e fabd
000000f0: 8782 38be cc67 543e d3a7 ffbd 1aaf 243e
00000100: 7cce 3bbe d51f 24be dc18 13be 272f 95be
00000110: 580a 2fbe d46a 00bf 14ea 39bd 100f 263d
00000120: 47cd 81be 89ac 1cbe ecba 253d 2b6a 96bd
00000130: fccf 03be 6619 d83d 42ab 5cbe 8692 9fbd
00000140: 93f4 0cbf 4937 273d 244a 2abe 03f8 88be
00000150: 1c74 49be 0ded 693e 3e76 b83e 5cce dfbc
00000160: b319 13bd ccd2 8dbe 54b6 9bbe 0c6d aabc
00000170: bd89 7fbe b7b6 7dbd adac b2bd a35b 1dbf
00000180: adf5 8dbd 90d3 61bd 1633 573d 79d6 8c3e
00000190: bbc5 0dbf 6cf2 5f3e 5095 383d 4763 02be
000001a0: 3bb2 a1be 1b1c 74bd 6263 c53d edd0 2abe
000001b0: decf 5bbe 7011 cebe 8d3a 11be 872a 27bb
000001c0: 440e a0be f6e4 01be 3a8e acbd ea36 90be
000001d0: c13e 1ebd ae9b edbd d0b6 143e a22d 193e
000001e0: 1551 babe d85d a93d 5c44 4f3e 862c 023e
000001f0: 387b a5be d9c1 84be e45a f0be 9cd5 92be
00000200: 0f9e 7d3d c166 7abe 3c78 193d d3f2 5fbc
00000210: fb06 97be e510 1dbe be0d 13be 0367 62be
00000220: 356a 91be 1eee 963d ebc4 533c e4dc 333d
00000230: 6c3c fbbe bccb 663e eedc 2cbe 5e4f b6bd
00000240: b2af 72be e972 15be 7a70 a8bd 7787 46be
00000250: fd52 20be f1ce 9fbe ceb2 a6bd f6f9 c0be
00000260: b351 89be ea93 c8bc 40bc a93e 09e5 c4be
00000270: 376d 0ebe a9e7 8dbd 5a55 2bbd 899f 033d
00000280: 5775 14bf 3044 69bc f026 21be c404 98bd
00000290: da83 14be 5019 883d 217d 86bc 483d 0e3e
000002a0: e527 bdbd 3d5b a3be 4152 79be df64 98be
000002b0: 0d1a 6ebe f9bb 1fbe 94e7 df3d 56a8 ddbe
000002c0: ec2a aabd b369 90bd eef3 26bd f722 823e
000002d0: 0814 c9bd 9571 89bb 32d0 b3be 274d 42be
000002e0: 4400 13be 01a3 003e bec8 59be d659 28bb
000002f0: 8143 a2bd 4612 18be a95f ddbd b693 13be
00000300: 1135 82be fcb7 93bd 8e67 d6bb a395 b3be
00000310: 6e58 61be 2063 abbd 6c1a b7be 2452 8a3e
00000320: 09a0 90be 97bf 6dbd 0c73 babe 1974 8cbe
00000330: e294 97be f93f 0b3e 15e8 0ebd e1d6 a2bd
00000340: c3d5 23be deac e8be 516b 78bc a614 0bbd
00000350: 7389 26be 6664 123d 60c6 633e e791 76be
00000360: 4d81 4a3c 7921 7cbd 6016 8bbe f771 0e3e
00000370: f385 90be 124f a63d 9d06 c2be fdbc ca3d
00000380: 63d0 6ebe dd17 c03c 4d8d 893b 2b50 923d
00000390: a753 2abd 87b9 80be 30b0 31be 989f 34be
000003a0: 33fc 21bd 6e9f afbd 5e7b 1b3e a73c e2be
000003b0: cf97 78be 8b57 9aba 4c78 99be 695d b8bc
000003c0: ebc3 d7be ef96 3bbd bbac 2a3e bc24 663e
000003d0: db68 b4be 7779 e4bd 094e 433e 7bf5 69be
000003e0: 08d5 383c f1b1 92be 1adf 25be f75e 82bd
000003f0: 7f08 54be c312 8e3d 51ff 1dbc bb35 00bf
