results/model_GCN/graph_split_/layers_8/transform_False/alpha_-5.0/model.pt (torch, 63736 bytes, 21 tensors)

encoder.conv.convs.0.bias f4 [40]
0.11919363 0.016348489 0.072108 -0.03199412 -0.05345434 -0.08558291 -0.05178496 0.045168288
0.056271635 0.022769734 0.06278941 0.018142167 0.051371 0.06989816 0.0006521974 0.016357359
0.044453423 -0.020370334 -0.005894487 0.042061027 0.049071185 0.03095928 0.11736558 0.013987964
0.023778174 0.04894401 -0.08991947 0.032172587 0.03346806 0.021145968 0.05880991 0.03524398
-0.023533648 0.07931499 -0.0646296 0.039016914 -0.034249324 0.052759238 0.07757143 0.013514033
00000000: ca1b f43d 44ed 853c 5cad 933d 440c 03bd
00000010: f0f2 5abd 1846 afbd 771c 54bd 6202 393d
00000020: 167d 663d 9887 ba3c bc97 803d e29e 943c
00000030: 666a 523d c426 8f3d 3af8 2a3a deff 853c
00000040: cb14 363d b0df a6bc 8a26 c1bb 2f48 2c3d
00000050: defe 483d 519e fd3c 5d5d f03d c62d 653c
00000060: 72ca c23c 8479 483d b327 b8bd 67c7 033d
00000070: ce15 093d 4f3a ad3c a9e2 703d fe5b 103d
00000080: a3c9 c0bc e66f a23d 865c 84bd 33d0 1f3d
00000090: 0549 0cbd 121a 583d c5dd 9e3d f669 5d3c

encoder.conv.convs.0.lin.weight f4 [40, 40]
0.12639609 0.031072821 0.30427527 0.37885007 0.08347682 0.26784402 0.29072344 0.26457784
0.29714283 0.06677846 0.34182754 0.25383317 -0.08015336 -0.025774745 -0.08132081 -0.16957249
-0.29186043 -0.2766764 -0.27539894 -0.44314286 0.010998635 0.26062045 -0.05026367 -0.1417994
-0.011599364 0.028585462 -0.29274863 0.41202325 0.11593872 -0.21148545 -0.18702309 0.20527527
-0.08876447 0.07327656 0.4116043 -0.56264347 -0.24904498 0.13448071 0.1457413 -0.13556585
-0.15687151 -0.09044753 -0.13673633 -0.14326268 0.2119461 -0.19595324 0.08028244 0.014162996
-0.10329483 -0.09815072 -0.30287603 -0.111906216 -0.073198296 -0.046494603 0.25717667 0.23783359
0.019170962 0.039483745 -0.22441465 -0.18101902 -0.09776376 -0.010572084 0.06471742 -0.01839466
-0.26173428 -0.2170962 -0.31061542 -0.22373426 -0.09614974 0.029276097 0.08135831 -0.13238223
-0.29729185 0.27584243 -0.07428596 0.2897065 -0.2399359 0.24672692 -0.21773718 -0.03472788
-0.01331673 0.0747634 0.18202059 0.108697645 -0.34339315 0.34352833 0.03530875 -0.18302539
-0.19840422 0.27827626 0.20326202 -0.23328616 -0.35915068 -0.11539042 -0.32049677 0.3402778
-0.24882314 -0.34446216 0.31759152 0.028741095 0.17642568 0.19901417 -0.15774384 0.14423572
0.29924792 0.39498717 0.1747542 -0.07682125 0.029598314 -0.06842127 0.15093943 0.2893507
-0.00543758 -0.26763782 0.018450176 -0.13158682 -0.2085172 -0.28369227 0.1687865 0.48567262
0.14966653 -0.13636692 0.29476035 -0.23773533 -0.083368294 0.09664537 0.30479488 -0.032202847
0.28406638 0.06787477 -0.26089516 -0.07272661 0.05822464 -0.26819047 -0.25211415 -0.10879546
0.030266482 0.002957027 -0.096529715 -0.19847052 -0.14187314 -0.106522374 0.15368015 -0.13048685
0.23904853 -0.27824628 -0.011673123 -0.31114355 -0.053950895 -0.23965997 -0.08377458 -0.059112184
-0.24860196 -0.2278265 0.12611815 0.21137345 -0.031958833 0.027196405 0.20726953 -0.08618956
0.13613857 -0.041250058 0.129597 -0.12981185 -0.041117556 0.03338468 -0.31532395 -0.007877899
0.029145 -0.14567518 -0.06022656 0.126826 -0.14448775 0.097582795 -0.0064775436 0.17677817
-0.07577464 0.20644003 -0.056663558 0.43784165 0.04966144 -0.18164799 -0.27641198 -0.43317595
-0.061619643 -0.20356768 -0.13903058 -0.18452854 0.19267535 0.1249803 -0.0816918 -0.17636366
0.0349377 0.37079558 -0.21381277 0.06683354 0.12343413 -0.016319023 0.49472836 0.16521312
-0.077716574 -0.113681875 -0.18905476 0.020914976 0.10754816 -0.12350252 0.0019430153 -0.12690373
-0.14829703 -0.28265628 -0.043817442 -0.072857246 0.13437517 -0.109709896 -0.21012963 0.047625832
-0.25930572 0.22995552 -0.06985404 0.060280643 -0.17409311 -0.43892106 0.01738446 -0.21818273
0.011289334 0.07737196 0.45193052 0.2834764 0.02833148 -0.073511586 -0.19262832 0.24813974
0.0008152214 0.22800358 -0.058169644 -0.2497462 -0.36659527 -0.13048562 0.05246887 0.15131192
-0.016850293 -0.04391105 0.13941866 0.055979837 -0.19683002 -0.06679492 -0.13917969 0.0054800445
0.24582332 -0.08694468 -0.2398653 -0.120562114 -0.09915737 -0.11106884 -0.26326174 -0.07845678
00000000: fa6d 013e 6e8c fe3c f8c9 9b3e a3f8 c13e
00000010: e5f5 aa3d da22 893e b4d9 943e bf76 873e
00000020: 1b23 983e 25c3 883d 0504 af3e 6cf6 813e
00000030: 7227 a4bd 8f25 d3bc 868b a6bd 69a4 2dbe
00000040: bb6e 95be 87a8 8dbe 1701 8dbe 9fe3 e2be
00000050: 9e33 343c 0b70 853e 47e1 4dbd dd33 11be
00000060: 420b 3ebc 0f2c ea3c 26e3 95be b6f4 d23e
00000070: 4871 ed3d a48f 58be fb82 3fbe ae33 523e
00000080: 25ca b5bd 0512 963d ccbd d23e 6709 10bf
00000090: a605 7fbe 50b5 093e 353d 153e c6d1 0abe
000000a0: eda2 20be 8e3c b9bd 9c04 0cbe 74b3 12be
000000b0: 6608 593e f7a7 48be 1f6b a43d e90b 683c
000000c0: 3d8c d3bd 3f03 c9bd 9112 9bbe 162f e5bd
000000d0: fde8 95bd 2071 3ebd a9ac 833e a68a 733e
000000e0: 6c0c 9d3c b5b9 213d f4cc 65be 0d5d 39be
000000f0: 5e38 c8bd 8936 2dbc 918a 843d 66b0 96bc
00000100: 0902 86be 774e 5ebe fc08 9fbe 981a 65be
00000110: 28ea c4bd 6dd4 ef3c 309f a63d 358f 07be
00000120: a336 98be 383b 8d3e 3d23 98bd 6954 943e
00000130: c2b1 75be fba5 7c3e 7ff6 5ebe d23e 0ebd
00000140: 6a2e 5abc 8e1d 993d 9b63 3a3e df9c de3d
00000150: 3ad1 afbe f2e2 af3e e89f 103d 026b 3bbe
00000160: 7a2a 4bbe 3a7a 8e3e eb23 503e 91e2 6ebe
00000170: 99e2 b7be d051 ecbd 2718 a4be e438 ae3e
00000180: 7ecb 7ebe 585d b0be 5b9b a23e 7272 eb3c
00000190: efa8 343e 5fca 4b3e 9a87 21be 87b2 133e
000001a0: 0637 993e c23b ca3e c4f2 323e 7654 9dbd
000001b0: 2a78 f23c 7320 8cbd de8f 1a3e c625 943e
000001c0: ba2d b2bb d307 89be d324 973c b2be 06be
000001d0: 8885 55be 1d40 91be 5ed6 2c3e 15aa f83e
000001e0: 2f42 193e c5a3 0bbe d4ea 963e e470 73be
000001f0: ffbc aabd 02ee c53d 130e 9c3e 22e7 03bd
00000200: 2671 913e ed01 8b3d 0d94 85be b0f1 94bd
00000210: f67c 6e3d 4350 89be 1b15 81be 27d0 debd
00000220: 6af1 f73c aeca 413b 5fb1 c5bd db3b 4bbe
00000230: 3147 11be 6728 dabd 545e 1d3e 589e 05be
00000240: 23c9 743e 4c76 8ebe a040 3fbc 354e 9fbe
00000250: 9dfb 5cbd 6c69 75be 0292 abbd 9e1f 72bd
00000260: 8391 7ebe 5a4b 69be 1e25 013e 4872 583e
00000270: 44e7 02bd ffca de3c 773e 543e 2784 b0bd
00000280: e967 0b3e d2f5 28bd 13b5 043e 66ed 04be
00000290: e26a 28bd 60be 083d 2472 a1be 4e12 01bc
000002a0: 7fc1 ee3c e02b 15be 20b0 76bd adde 013e
000002b0: 99f4 13be 7dd9 c73d 9341 d4bb 5605 353e
000002c0: bc2f 9bbd 0465 533e 0c18 68bd c82c e03e
000002d0: cb69 4b3d ee01 3abe df85 8dbe 3dc9 ddbe
000002e0: e164 7cbd 0c74 50be 085e 0ebe 0df5 3cbe
000002f0: b04c 453e acf5 ff3d 084e a7bd ad98 34be
00000300: d51a 0f3d ebd8 bd3e bcf1 5abe 06e0 883d
00000310: 08cb fc3d 79af 85bc 094d fd3e a12d 293e
00000320: de29 9fbd 0bd2 e8bd 9297 41be e255 ab3c
00000330: 3642 dc3d e4ee fcbd c6ac fe3a 0df3 01be
00000340: 2ddb 17be 53b8 90be eb79 33bd 2e36 95bd
00000350: a599 093e 95af e0bd 392c 57be 4e13 433d
00000360: b8c3 84be 7679 6b3e a30f 8fbd d6e8 763d
00000370: 7745 32be 43ba e0be db69 8e3c 4b6b 5fbe
00000380: e6f6 383c 3175 9e3d 7063 e73e d223 913e
00000390: 6c17 e83c 3e8d 96bd 5c40 45be 5818 7e3e
000003a0: 95b4 553a c579 693e 4b43 6ebd 78bd 7fbe
000003b0: 60b2 bbbe 069e 05be 99e9 563d 83f1 1a3e
000003c0: a009 8abc 13dc 33bd c4c3 0e3e 1d4b 653d
000003d0: cf8d 49be c6cb 88bd 1f85 0ebe f291 b33b
000003e0: 1cb9 7b3e 0d10 b2bd 409f 75be 45e9 f6bd
000003f0: 0513 cbbd 0f78 e3bd 3eca 86be f3ad a0bd

encoder.conv.convs.1.bias f4 [40]
-0.0027909686 -0.0022200895 -0.06048695 0.11784493 -0.0877155 0.0905008 -0.042989235 0.046372578
-0.06078511 0.07155195 0.025378088 -0.062426653 0.03617595 -0.055041634 0.13543943 0.049402304
-0.044628523 0.0021428154 -0.035022836 -0.03592456 0.015740074 0.020761546 -0.052973077 0.008643762
-0.06506105 -0.018138187 0.022711737 0.106247276 0.04633031 -0.09931967 0.016220879 -0.024493853
-0.07746758 -0.02010209 -0.07675056 0.08353017 -0.048150394 0.06791197 0.026511475 0.13477422
00000000: afe8 36bb ec7e 11bb 2ac1 77bd af58 f13d
00000010: 2fa4 b3bd 7c58 b93d 7b15 30bd 2cf1 3d3d
00000020: cff9 78bd d489 923d b5e5 cf3c 17b3 7fbd
00000030: 3c2d 143d 5673 61bd a2b0 0a3e 125a 4a3d
00000040: 66cc 36bd 7a6e 0c3b 1b74 0fbd a225 13bd
00000050: 54f1 803c 1e14 aa3c 4cfa 58bd 919e 0d3c
00000060: ba3e 85bd 8996 94bc f70d ba3c 2c98 d93d
00000070: dac4 3d3d 1c68 cbbd a6e1 843c 55a7 c8bc
00000080: 53a7 9ebd 23ad a4bc 662f 9dbd de11 ab3d
00000090: 5939 45bd 6e15 8b3d 982e d93c 4102 0a3e

encoder.conv.convs.1.lin.weight f4 [40, 40]
0.35412878 -0.048991706 -0.1771285 -0.069566116 0.015779233 0.0094051175 -0.042765975 0.33085725
-0.29790094 0.46590284 0.74691457 -0.4758285 0.13200673 -0.06694176 -0.01785212 0.448158
-0.12667306 -0.18499435 0.034382183 0.3945189 0.2438593 0.52779627 -0.46147794 0.16979879
-0.06294646 0.06693225 0.012543066 -0.25936618 0.4065432 0.021763489 0.5529931 -0.036991358
0.21425135 0.43417716 0.27035728 -0.31784138 -0.3323716 -0.22843459 -0.039919008 0.31146237
0.63119364 -0.06414379 -0.21699597 -0.08986013 -0.09423846 0.06967338 -0.14627318 0.31406653
-0.15661053 0.38071337 0.4273895 -0.4748806 -0.10132888 -0.1517887 -0.21384293 0.4292348
0.24341317 -0.23673123 0.1789736 0.1953512 -0.19105268 0.28960457 -0.5646089 0.10466833
-0.18750821 0.054767817 0.10224728 0.10044898 0.18708012 -0.060909778 0.5699155 0.11849011
0.024725556 0.39502358 0.1893649 -0.14334738 -0.0496391 -0.1278223 -0.18849953 0.31154197
-0.20963512 -0.284708 -0.2337387 -0.2225086 0.084589444 -0.07826558 -0.13243264 -0.1885371
-0.21536636 0.108953275 -0.17975232 0.14367443 -0.23061855 0.098799296 -0.25524175 -0.28364968
-0.28258607 -0.1673487 0.13392225 -0.2285692 -0.25552952 0.11709378 0.13590044 -0.033521596
0.0303313 0.037613645 -0.22691156 0.21499489 -0.22284035 0.17620338 0.28867203 -0.18796876
-0.26080382 -0.005942981 0.062833294 -0.18010609 -0.25041324 0.036110844 0.080981836 -0.0040965886
-0.41594633 0.085543916 0.497559 -0.17150505 0.15182148 -0.13658942 -0.19602706 -0.10134167
0.27081108 0.10864689 -0.46910155 -0.07313787 0.13988204 0.25300196 -0.037304036 0.03505902
0.27978498 0.36890024 -0.08200069 -0.06971635 0.12330591 0.09192304 0.37683997 0.2426484
0.018793784 0.45422474 0.104329415 0.09460261 0.23958395 0.14761098 -0.06891271 0.30739295
-0.20858125 0.13418789 0.29340526 -0.05104109 -0.010883828 0.1723075 0.27931762 -0.36692345
-0.31829178 -0.13523288 0.03179517 -0.2494326 0.20289777 0.08711982 0.062098134 -0.14670976
0.14166096 -0.014132647 -0.06340025 0.18305808 0.14298894 -0.27728373 -0.27819222 -0.12694944
-0.134138 0.036509976 -0.29525334 -0.16655175 -0.09792055 -0.071136616 0.1858897 -0.11420108
-0.2679029 0.18657719 0.07730475 -0.22953828 -0.3495726 -0.25927517 0.024679668 0.05033485
-0.23307654 -0.3042489 0.12979414 -0.23008266 0.08549414 0.15780324 0.038705748 0.032272425
-0.027877852 0.24584785 0.4479551 -0.14704853 0.3179873 0.029861001 -0.20707686 0.16909496
-0.027322205 0.075288996 0.04851017 0.12246531 -0.3642696 -0.1585396 -0.17174667 0.22104165
-0.16775118 -0.01761158 -0.12317134 -0.13393122 -0.16576762 -0.035133544 0.0082391985 -0.17439353
0.2766017 0.5883668 0.013379524 -0.05566747 -0.07229296 -0.019078096 -0.23263468 0.07151179
-0.034787335 0.17919499 -0.04496485 -0.06481186 -0.17433129 0.23053132 -0.0020843018 -0.38249692
-0.05602674 0.071727104 0.12442334 0.074874565 -0.20670764 -0.0114036985 -0.26712447 -0.24637797
-0.16377379 0.004670972 -0.22158504 -0.1737442 -0.29141003 -0.26306343 0.11908919 -0.23044093
00000000: 5e50 b53e 87ab 48bd 2c61 35be ae78 8ebd
00000010: 7343 813c ec17 1a3c 602b 2fbd 1f66 a93e
00000020: 7986 98be d18a ee3e cb35 3f3f cb9f f3be
00000030: c62c 073e c318 89bd 9c3e 92bc f774 e53e
00000040: 95b6 01be 296f 3dbe 55d4 0c3d 62fe c93e
00000050: 41b6 793e a81d 073f d646 ecbe bcdf 2d3e
00000060: 13ea 80bd c713 893d 6f81 4d3c a5cb 84be
00000070: 6e26 d03e 5849 b23c f590 0d3f 4084 17bd
00000080: b564 5b3e 784c de3e 456c 8a3e 1bbc a2be
00000090: 9c2c aabe c2ea 69be 1d82 23bd ff77 9f3e
000000a0: e895 213f d25d 83bd 3134 5ebe 9608 b8bd
000000b0: 1800 c1bd ebb0 8e3d a3c8 15be 54cd a03e
000000c0: 835e 20be ddec c23e ccd2 da3e 8d23 f3be
000000d0: 8485 cfbd 7f6e 1bbe a4f9 5abe aac4 db3e
000000e0: 4d41 793e ac69 72be db44 373e 250a 483e
000000f0: 50a3 43be 0d47 943e 358a 10bf 595c d63d
00000100: 2702 40be 3854 603d 0667 d13d 32b8 cd3d
00000110: ee91 3f3e 887c 79bd fbe5 113f f1aa f23d
00000120: 408d ca3c 8840 ca3e dfe8 413e a8c9 12be
00000130: 5e52 4bbd d9e3 02be 0506 41be 6e82 9f3e
00000140: 97aa 56be 3fc5 91be 3359 6fbe 4bd9 63be
00000150: 3b3d ad3d b449 a0bd 6c9c 07be df0f 41be
00000160: 0089 5cbe e522 df3d fe10 38be 641f 133e
00000170: 4527 6cbe 4957 ca3d 0caf 82be 883a 91be
00000180: 1faf 90be 755d 2bbe ea22 093e 0b0e 6abe
00000190: c4d4 82be ddce ef3d 7c29 0b3e f14d 09bd
000001a0: 5979 f83c c410 1a3d 815b 68be 9f27 5c3e
000001b0: 4330 64be a96e 343e d2cc 933e e27a 40be
000001c0: 1488 85be 57bd c2bb beae 803d bb6d 38be
000001d0: 2a36 80be f7e8 133d ced9 a53d ad3c 86bb
000001e0: ebf6 d4be a631 af3d 0ec0 fe3e 059f 2fbe
000001f0: 1777 1b3e 19de 0bbe 51bb 48be 398c cfbd
00000200: c0a7 8a3e 4382 de3d 142e f0be 4fc9 95bd
00000210: 3d3d 0f3e 7989 813e 1ecc 18bd 0c9a 0f3d
00000220: fa3f 8f3e 7ee0 bc3e faef a7bd 72c7 8ebd
00000230: cf87 fc3d 2642 bc3d 2bf1 c03e d278 783e
00000240: 6cf5 993c 2590 e83e a9aa d53d 03bf c13d
00000250: 7f55 753e 5527 173e 1b22 8dbd 9c62 9d3e
00000260: 5396 55be 8d68 093e 3739 963e 7610 51bd
00000270: 1552 32bc 6171 303e b802 8f3e 64dd bbbe
00000280: 24f7 a2be 7d7a 0abe a73b 023d 426b 7fbe
00000290: 6fc4 4f3e e06b b23d 9d5a 7e3d 153b 16be
000002a0: 920f 113e 9e8c 67bc fed7 81bd 9473 3b3e
000002b0: b16b 123e 22f8 8dbe 366f 8ebe 09ff 01be
000002c0: 795b 09be 7c8b 153d 722b 97be 8b8c 2abe
000002d0: 928a c8bd 13b0 91bd df59 3e3e 41e2 e9bd
000002e0: 922a 89be 170e 3f3e f451 9e3d 150c 6bbe
000002f0: 2efb b2be b7bf 84be 042d ca3c ea2b 4e3d
00000300: 9eab 6ebe 83c6 9bbe c1e8 043e ca9a 6bbe
00000310: 8d17 af3d 2c97 213e eb89 1e3d 1730 043d
00000320: 1860 e4bc 8abf 7b3e 5f5a e53e e493 16be
00000330: 3bcf a23e 0f9f f43c f50b 54be 3b27 2d3e
00000340: d1d2 dfbc 1e31 9a3d 9ab2 463d 18cf fa3d
00000350: 8c81 babe 3458 22be 5cde 2fbe be58 623e
00000360: f7c6 2bbe 2946 90bc 4141 fcbd 4425 09be
00000370: fdbe 29be 31e8 0fbd b4fd 063c 3894 32be
00000380: bd9e 8d3e 359f 163f cb35 5b3c 9303 64bd
00000390: 550e 94bd ab49 9cbc c937 6ebe c674 923d
000003a0: 2a7d 0ebd e47e 373e 102d 38bd 15bc 84bd
000003b0: e783 32be 6710 6c3e c898 08bb a3d6 c3be
000003c0: 4c7c 65bd a9e5 923d aad1 fe3d d657 993d
000003d0: 2bab 53be 94d6 3abc 8ac4 88be 824a 7cbe
000003e0: 51b4 27be f40e 993b 30e7 62be 00ea 31be
000003f0: b233 95be 40b0 86be 09e5 f33d b5f8 6bbe

encoder.conv.convs.2.bias f4 [40]
-0.03412081 0.0 0.027860656 0.050022602 -0.04202676 0.07620243 0.100554965 0.037494335
0.092430115 0.020141453 -0.059010714 -0.015516984 -0.0068642125 0.048496548 0.10387501 0.10962774
-0.032798078 0.015273386 0.07194553 -0.037393704 0.12340225 -0.0031970446 -0.04506726 0.02939944
-0.014508798 0.20005353 -0.034548312 -0.053625587 0.0014954604 -0.022506885 -0.072796196 0.08593635
0.0006341588 0.1740048 -0.020937879 0.08121841 -0.008530854 0.19105005 -0.019515386 0.122819826
00000000: 43c2 0bbd 0000 0000 083c e43c 80e4 4c3d
00000010: 4024 2cbd 0510 9c3d c3ef cd3d a993 193d
00000020: 004c bd3d b0ff a43c 38b5 71bd f33a 7ebc
00000030: 30ed e0bb 51a4 463d 6cbc d43d 8284 e03d
00000040: 4757 06bd 393d 7a3c 2e58 933d 242a 19bd
00000050: 52ba fc3d 8285 51bb 7298 38bd 18d7 f03c
00000060: 4fb6 6dbc d5da 4c3e 8882 0dbd 81a6 5bbd
00000070: 5303 c43a 5c60 b8bc 2c16 95bd 66ff af3d
00000080: ad3d 263a 502e 323e ea85 abbc d655 a63d
00000090: ffc4 0bbc a0a2 433e bbde 9fbc f688 fb3d

encoder.conv.convs.2.lin.weight f4 [40, 40]
-0.008251169 0.1614374 0.081386715 -0.15973587 0.13036737 -0.3042412 -0.09796867 0.0695756
-0.09811794 -0.09943406 -0.2774884 -0.12882483 0.15402849 -0.016321868 -0.18018223 0.16098975
-0.21520512 0.16065328 -0.009546156 0.22079054 -0.17394304 -0.27139443 -0.019444507 0.2153058
-0.23367536 -0.059412118 -0.07641002 0.08864734 0.124784894 -0.0040118406 -0.025979295 -0.23646428
-0.3028515 0.19463682 0.21093747 -0.10025982 -0.30783516 0.19516401 0.14302732 0.23058493
-0.073896155 0.16214181 0.09760962 -0.22100297 0.20070958 -0.11451893 0.07015678 -0.20545764
0.02585983 -0.1793282 -0.049413852 0.12621465 0.043814663 0.048096914 -0.14923708 -0.20473363
0.2442237 0.22673301 0.269029 0.1133779 -0.009406166 0.013036524 0.25561783 -0.19062583
0.25893334 0.023035262 -0.076287925 0.09834998 0.113276824 -0.14773837 -0.25898126 0.0018780404
-0.08077624 -0.15032993 -0.21824327 0.24582836 -0.09474349 0.13688076 0.056595888 -0.26288533
0.15744881 0.15032999 0.23442136 -0.44946966 0.037667148 -0.058208648 0.08142644 -0.4967077
0.20951213 -0.17573777 -0.008477559 -0.057449523 0.16698043 -0.082143344 -0.11374344 0.34288308
-0.16613379 0.15647306 -0.08255653 0.16908385 0.07649224 -0.027662287 0.2885514 0.23698042
0.34230134 0.35153306 0.20386311 -0.25305307 0.2759754 -0.20555033 0.31600747 -0.18624564
-0.1706196 0.44052187 -0.20999053 -0.38107055 0.43481407 -0.47409707 -0.14501868 -0.6298992
0.23059219 0.33025506 0.2515687 0.0678733 -0.16433887 0.16577034 0.25814596 0.104393415
0.23504896 0.08678087 0.16564713 0.039011557 -0.20893462 0.16758269 0.011335353 0.3179087
0.043523733 0.1355742 -0.059972808 -0.12690604 0.02712067 -0.23063596 0.24133374 0.04575121
-0.19314998 -0.03275123 -0.0932704 0.04040778 -0.099852756 0.08401136 0.24747573 0.19209921
0.19518998 0.36346292 -0.18692216 -0.1672119 0.32826245 -0.030269857 -0.20391408 0.06878023
0.3396886 0.2993739 0.027476333 -0.34176034 0.19197507 -0.092742115 0.011035381 -0.17969774
0.37156135 -0.2573609 0.2420882 -0.20233928 0.15235665 -0.1041902 -0.29678708 -0.087160215
-0.2727544 0.14777751 0.17557122 0.26015383 -0.02127626 -0.0017899281 0.33911663 0.08015145
0.06485898 0.26403567 0.19483636 -0.24743381 0.30374908 -0.1894504 0.26423815 -0.14868128
-0.087251715 0.30910683 0.15459289 -0.66594315 0.02604405 -0.9143223 -0.3176278 -0.30908605
-0.69514817 -0.2754079 -0.07922884 0.19261397 -0.20580108 0.030573023 0.042266745 0.30939257
-0.19767115 0.1758477 0.07026519 0.042887397 -0.14225882 0.13418092 0.26147822 0.2149537
0.010830938 -0.10172583 0.25240457 -0.027373632 -0.039452124 -0.14076455 -0.21438894 0.12928823
-0.34127948 -0.42288464 -0.086878285 0.034651857 -0.29791892 0.20435816 -0.3909521 -0.2106797
-0.042500928 -0.48539957 -0.016621022 -0.0848281 -0.0710277 -0.09231147 -0.13113098 0.22672608
0.3608259 0.3295903 -0.22901341 0.18280847 -0.15408802 0.1162148 -0.20462142 0.2721675
0.20567769 0.1152858 0.27682838 -0.16851826 0.04867699 0.019682692 0.2363392 0.03458215
00000000: e92f 07bc d94f 253e 14ae a63d cd91 23be
00000010: 067f 053e 81c5 9bbe cca3 c8bd a77d 8e3d
00000020: 0ff2 c8bd 16a4 cbbd f612 8ebe a8ea 03be
00000030: a5b9 1d3e 70b5 85bc b181 38be 7fda 243e
00000040: bb5e 5cbe 4b82 243e 7b67 1cbc ea16 623e
00000050: 201e 32be 36f4 8abe 164a 9fbc 2079 5c3e
00000060: 9848 6fbe 1f5a 73bd db7c 9cbd bd8c b53d
00000070: 398f ff3d c275 83bb 88d2 d4bc b123 72be
00000080: 5a0f 9bbe e04e 473e feff 573e 0555 cdbd
00000090: 929c 9dbe 13d9 473e c175 123e 751e 6c3e
000000a0: de56 97bd 8108 263e 8de7 c73d 9a4e 62be
000000b0: d086 4d3e e788 eabd 5cae 8f3d 7d63 52be
000000c0: ffd7 d33c d0a1 37be 2e66 4abd 6a3e 013e
000000d0: 0177 333d 4501 453d 9bd1 18be b1a5 51be
000000e0: c715 7a3e b32c 683e 2bbe 893e ac32 e83d
000000f0: 521c 1abc 2597 553c 57e0 823e 6b33 43be
00000100: e992 843e 72b4 bc3c d83c 9cbd b76b c93d
00000110: aefd e73d ba48 17be 3199 84be 9428 f63a
00000120: 036e a5bd 17f0 19be 2a7b 5fbe 6eba 7b3e
00000130: e008 c2bd 782a 0c3e 17d1 673d e898 86be
00000140: 433a 213e 1bf0 193e 270c 703e e320 e6be
00000150: de48 1a3d 316c 6ebd e8c2 a63d 7950 febe
00000160: 598a 563e 9af4 33be 76e5 0abc 3150 6bbd
00000170: ebfc 2a3e c53a a8bd 52f2 e8bd 5f8e af3e
00000180: fa1e 2abe 793a 203e 6613 a9bd 5124 2d3e
00000190: f7a7 9c3d 059c e2bc 02bd 933e ffaa 723e
000001a0: 1f42 af3e 24fc b33e 7ec1 503e 2c90 81be
000001b0: a64c 8d3e c97b 52be bbcb a13e 2db7 3ebe
000001c0: e8b6 2ebe 158c e13e c207 57be ae1b c3be
000001d0: f39f de3e dabc f2be c77f 14be 1341 21bf
000001e0: 5c20 6c3e 3117 a93e 9dcd 803e 2801 8b3d
000001f0: 7348 28be b3bf 293e b52b 843e 37cc d53d
00000200: adb0 703e 2bba b13d 679f 293e 95ca 1f3d
00000210: f5f2 55be cc9a 2b3e ebb7 393c eec4 a23e
00000220: f145 323d f7d3 0a3e 0ca6 75bd a8f3 01be
00000230: 2b2c de3c d52b 6cbe 3120 773e 9f65 3b3d
00000240: 1cc9 45be 2726 06bd 8d04 bfbd a182 253d
00000250: 9a7f ccbd 260e ac3d 476a 7d3e a8b5 443e
00000260: e2df 473e d017 ba3e 8668 3fbe 9939 2bbe
00000270: 0412 a83e 7ef8 f7bc dace 50be a6dc 8c3d
00000280: aaeb ad3e 8947 993e 0c16 e13c 36fb aebe
00000290: 1d95 443e 94ef bdbd becd 343c af02 38be
000002a0: 4a3d be3e cfc4 83be f8e5 773e 0732 4fbe
000002b0: 6203 1c3e ac61 d5bd 7af4 97be 0e81 b2bd
000002c0: 77a6 8bbe fd52 173e f1c8 333e e232 853e
000002d0: 8d4b aebc 059c eaba b2a0 ad3e 7226 a43d
000002e0: c9d4 843d af2f 873e 2f83 473e 4a5f 7dbe
000002f0: 0085 9b3e 49ff 41be 394a 873e e83f 18be
00000300: 07b1 b2bd 4043 9e3e 994d 1e3e 407b 2abf
00000310: 555a d53c 0711 6abf 1ca0 a2be 8740 9ebe
00000320: 3bf5 31bf 4402 8dbe bb42 a2bd 993c 453e
00000330: 85bd 52be 4774 fa3c e51f 2d3d b468 9e3e
00000340: 4e6a 4abe 6b11 343e 32e7 8f3d b2aa 2f3d
00000350: 4cac 11be b966 093e 79e0 853e d31c 5c3e
00000360: 3f74 313c a255 d0bd 2c3b 813e ab3e e0bc
00000370: 8d98 21bd 9524 10be c688 5bbe 2264 043e
00000380: 2fbc aebe 5684 d8be 3eed b1bd 1bef 0d3d
00000390: d488 98be 4443 513e e02a c8be 6bbc 57be
000003a0: 7415 2ebd 4b86 f8be cf28 88bc 5bba adbd
000003b0: f976 91bd cc0d bdbd 3347 06be e22a 683e
000003c0: 2cbe b83e 0fc0 a83e 7e82 6abe 2532 3b3e
000003d0: 40c9 1dbe 0602 ee3d 4788 51be 8a59 8b3e
000003e0: 2c9d 523e f61a ec3d 73bc 8d3e 0d90 2cbe
000003f0: 8661 473d 993d a13c e702 723e 03a6 0d3d

encoder.conv.convs.3.bias f4 [40]
0.26015013 0.073654786 -0.002270608 -0.054469563 0.122877285 -0.010058708 0.21321465 0.20258918
0.0 0.20059016 0.10295789 -0.015291537 -0.030510988 -0.006048463 -0.013462889 0.09908565
0.0 0.0 0.1292716 0.0824649 0.1336946 -0.003147561 0.14806649 -0.062738955
0.0 0.0 -0.06343289 0.19907422 0.0 -0.008226722 0.03856329 -0.016234023
0.09046306 0.0 0.0 0.043831155 0.20976906 0.05562834 0.2515038 -0.03309198
00000000: 6632 853e 52d8 963d 7bce 14bb 7a1b 5fbd
00000010: 16a7 fb3d 47cd 24bc f154 5a3e 8a73 4f3e
00000020: 0000 0000 8267 4d3e 96db d23d 5b89 7abc
00000030: 2ef2 f9bc 2f32 c6bb 7393 5cbc 6bed ca3d
00000040: 0000 0000 0000 0000 c65f 043e 5ce3 a83d
00000050: 3de7 083e 5047 4ebb be9e 173e 487d 80bd
00000060: 0000 0000 0000 0000 1ae9 81bd 1dda 4b3e
00000070: 0000 0000 5fc9 06bc 8af4 1d3d 37fd 84bc
00000080: b244 b93d 0000 0000 0000 0000 4c88 333d
00000090: b3cd 563e 8bda 633d 1bc5 803e 758b 07bd

encoder.conv.convs.3.lin.weight f4 [40, 40]
0.055435844 0.23487917 -0.38244474 0.021302136 -0.14662074 -0.14274713 0.02698154 -0.16743088
0.012122875 0.2421093 0.03961506 0.0051378375 -0.24470612 0.08736515 0.09364424 0.15757358
0.033222135 -0.096700214 -0.15794316 0.1817611 -0.08773494 0.20109203 0.100944325 -0.12561285
-0.21772635 0.24140456 -0.19866881 0.06738974 -0.09773117 0.27046883 0.17299618 0.09083671
0.21764047 0.12430381 0.17390397 -0.046179455 -0.04600965 0.028905332 0.004123787 0.2938532
-0.037038114 -0.15559773 0.75130564 0.03815234 0.60124797 0.33198118 -0.16967763 0.14410266
0.19484241 -0.42847797 -0.10825019 -0.052953757 -0.122472316 0.10930651 0.061078887 -0.20666504
-0.023552487 -0.14173545 -0.3200317 -0.051328145 -0.11934009 -0.23732856 -0.13682093 0.4050799
0.20432438 0.2178759 0.27581358 -0.08143337 -0.004702169 0.19429864 -0.0836462 -0.0002578105
-0.2575214 0.27085754 0.14553751 0.26698408 0.14082175 0.12356936 -0.022849075 -0.058720604
-0.17917903 -0.02464067 -0.07262153 -0.26166135 0.15327802 -0.24586788 0.26856858 0.2535906
0.026398001 -0.23307599 0.25305796 -0.073469 0.09615855 -0.20504455 -0.073600724 -0.11989903
0.10178609 -0.18640435 0.04864869 -0.106089756 -0.139231 -0.12676734 0.21935697 0.10995941
-0.09942113 -0.06699242 0.0545584 -0.13164121 -0.05638062 0.24716265 0.16550222 -0.21197914
0.26053143 -0.14458877 0.2009008 -0.22801147 0.1995849 -0.10259218 0.2353379 0.019803545
-0.12661734 -0.20720865 -0.03618033 0.22436823 -0.1282141 -0.20252468 -0.10059937 0.21606047
-0.08032311 -0.30262163 0.13158235 -0.15911892 -0.13099675 0.10177158 0.11408419 -0.116559826
-0.17595053 0.04516885 0.1652223 0.16155536 0.05665269 0.13788487 0.14883184 -0.2804799
-0.21142076 -0.24501526 -0.12717725 0.08072175 -0.20281866 -0.095479906 -0.2355457 0.1173359
0.25385004 -0.15315707 0.17139448 0.11362434 -0.17105329 -0.09991234 -0.2526186 -0.013953972
0.057891812 0.21503432 -0.59800005 0.2896166 -0.5981798 0.034333028 0.049467742 -0.27436712
0.19391423 0.30709955 -0.04620319 0.07676039 -0.20553984 0.08851025 0.1550598 0.05047838
-0.020253032 0.008002492 0.06360446 0.16717997 0.0047811354 0.24913459 0.12003257 -0.47029784
-0.14169034 0.014074607 -0.1886526 0.24225917 -0.13233417 0.08157618 -0.23159221 -0.09219966
-0.2567056 0.106780685 -0.2348441 -0.1862723 0.29244068 0.19395177 -0.17568943 -0.14242159
0.049928594 -0.24274763 -0.19391845 0.1690619 -0.22392218 -0.27845803 -0.08655349 -0.13479048
-0.04019199 -0.2650719 -0.114114635 -0.21603958 -0.170906 -0.19559272 -0.10717837 0.09543707
0.25441462 -0.022868926 -0.2760124 -0.13518153 0.08435306 0.120688416 0.25243184 -0.09842885
0.12367013 -0.0073843333 0.11962722 -0.013984424 0.09324599 -0.16338412 0.01334419 -0.1424339
-0.03795817 -0.13306448 0.022179393 0.15905707 0.238477 -0.102477215 -0.22759847 0.07481995
0.2417987 -0.21346277 -0.17575344 0.047344215 -0.08144763 0.26018324 0.3068415 -0.071375936
0.24950835 -0.083444096 -0.015717736 0.18694328 -0.21564864 -0.17676474 0.05127219 0.18638128
00000000: b210 633d 2a84 703e cccf c3be d181 ae3c
00000010: bf23 16be 4e2c 12be 6408 dd3c 0073 2bbe
00000020: 069f 463c 80eb 773e 6743 223d 4e5b a83b
00000030: 3e94 7abe 80ec b23d 8dc8 bf3d f85a 213e
00000040: ef13 083d c30a c6bd dabb 21be 951f 3a3e
00000050: 60ae b3bd 12eb 4d3e e6bb ce3d a8a0 00be
00000060: a8f3 5ebe c232 773e d66f 4bbe a203 8a3d
00000070: 4827 c8bd e47a 8a3e e925 313e 9908 ba3d
00000080: 25dd 5e3e ff92 fe3d e213 323e ab26 3dbd
00000090: 9d74 3cbd e0ca ec3c d520 873b ed73 963e
000000a0: 47b5 17bd 0355 1fbe 9155 403f a145 1c3d
000000b0: 63eb 193f 70f9 a93e f9bf 2dbe a68f 133e
000000c0: c584 473e 7761 dbbe 47b2 ddbd 0ae6 58bd
000000d0: c4d2 fabd 17dc df3d db2d 7a3d 00a0 53be
000000e0: 25f1 c0bc 1923 11be 32db a3be 763d 52bd
000000f0: 9468 f4bd 4206 73be c91a 0cbe a266 cf3e
00000100: 693a 513e dc1a 5f3e 7037 8d3e 8ac6 a6bd
00000110: a714 9abb 39f6 463e b34e abbd bd2a 87b9
00000120: d8d9 83be d7ad 8a3e c907 153e 23b2 883e
00000130: 9433 103e ef11 fd3d fc2d bbbc 0485 70bd
00000140: b57a 37be 3bdb c9bc 99ba 94bd 7af8 85be
00000150: eaf4 1c3e cac4 7bbe d281 893e a1d6 813e
00000160: 9f40 d83c 79ab 6ebe d090 813e ea76 96bd
00000170: c6ee c43d 33f7 51be fabb 96bd 9f8d f5bd
00000180: 3a75 d03d c8e0 3ebe d943 473d 9645 d9bd
00000190: 9292 0ebe 4ccf 01be 1d9f 603e 6632 e13d
000001a0: 4e9d cbbd 5233 89bd a178 5f3d f4cc 06be
000001b0: 5def 66bd 3518 7d3e 6a79 293e 0f11 59be
000001c0: 6064 853e 140f 14be f0b8 4d3e d77b 69be
000001d0: fc5f 4c3e d91b d2bd 6bfc 703e 0b3b a23c
000001e0: faa7 01be 812e 54be d331 14bd c9c0 653e
000001f0: 8f4a 03be a162 4fbe 0b07 cebd f53e 5d3e
00000200: 7180 a4bd 39f1 9abe 86bd 063e 12f0 22be
00000210: 0324 06be 9e6d d03d f9a4 e93d ebb6 eebd
00000220: 602c 34be f902 393d 0930 293e c56e 253e
00000230: a70c 683d b131 0d3e 6067 183e 109b 8fbe
00000240: af7e 58be 48e5 7abe c13a 02be 7251 a53d
00000250: b2af 4fbe f88a c3bd e432 71be ce4d f03d
00000260: a2f8 813e 35d5 1cbe 0982 2f3e e1b3 e83d
00000270: 9828 2fbe d79e ccbd 3a57 81be 339f 64bc
00000280: f71f 6d3d f531 5c3e 8816 19bf a148 943e
00000290: 5022 19bf caa0 0c3d b09e 4a3d d979 8cbe
000002a0: 7491 463e 273c 9d3e 8e3f 3dbd 8d34 9d3d
000002b0: 0979 52be dd44 b53d ffc7 1e3e 6bc2 4e3d
000002c0: b0e9 a5bc e21c 033c 0e43 823d 3a31 2b3e
000002d0: 12ab 9c3b 231d 7f3e a3d3 f53d e1ca f0be
000002e0: 4617 11be 2e99 663c 262e 41be ca12 783e
000002f0: 9c82 07be 6a11 a73d 8226 6dbe 2dd3 bcbd
00000300: eb6e 83be d5af da3d f97a 70be 2abe 3ebe
00000310: c9ba 953e 4b9b 463e eee7 33be f7d6 11be
00000320: ed81 4c3d d692 78be 8f92 46be 901e 2d3e
00000330: db4b 65be 0d92 8ebe f542 b1bd 8406 0abe
00000340: 5ba0 24bd 81b7 87be efb4 e9bd 7b39 5dbe
00000350: fc01 2fbe 7549 48be 5580 dbbd 8374 c33d
00000360: a242 823e 9d57 bbbc 7f51 8dbe 076d 0abe
00000370: 4cc1 ac3d 7d2b f73d bf3e 813e 1195 c9bd
00000380: c446 fd3d 47f8 f1bb 1eff f43d ed1e 65bc
00000390: c1f7 be3d 2b4e 27be 97a1 5a3c 31da 11be
000003a0: 077a 1bbd 0e42 08be 8fb1 b53c dbdf 223e
000003b0: 5133 743e 93df d1bd 930f 69be 343b 993d
000003c0: 149a 773e fc95 5abe b6f8 33be 02ec 413d
000003d0: 04ce a6bd bd36 853e 541a 9d3e 8c2d 92bd
000003e0: 1e7f 7f3e bde4 aabd 7bc2 80bc 0f6e 3f3e
000003f0: ffd2 5cbe d101 35be ca02 523d bcda 3e3e

encoder.conv.convs.4.bias f4 [40]
0.3530868 0.028993594 0.2508503 -0.07773835 -0.06638344 0.0 0.0 0.049638446
-0.04740314 -0.0839622 -0.023555873 0.24808404 0.03767284 0.04228792 -0.28803742 0.03765809
0.0 0.25563532 0.019830476 0.20323351 -0.07617101 -0.4531645 -0.016553126 -0.004073681
-0.005216833 0.42506084 0.069718234 0.00084520923 -0.100856625 -0.035031416 -0.06194252 -0.018433006
0.021506732 -0.123322345 0.3536335 0.24336626 -0.12079945 -0.03221649 -0.05175074 0.27961475
00000000: cbc7 b43e f983 ed3c 736f 803e 4935 9fbd
00000010: 0af4 87bd 0000 0000 0000 0000 af51 4b3d
00000020: cc29 42bd 60f4 abbd 3ff8 c0bc be09 7e3e
00000030: d64e 1a3d 1936 2d3d a479 93be 5f3f 1a3d
00000040: 0000 0000 a2e2 823e 8673 a23c 721c 503e
00000050: 8cff 9bbd 2d05 e8be 6c9a 87bc 837c 85bb
00000060: f8f1 aabb 93a1 d93e 6fc8 8e3d 0891 5d3a
00000070: eb8d cebd 1a7d 0fbd 71b7 7dbd d100 97bc
00000080: e32e b03c 6d90 fcbd 730f b53e 0135 793e
00000090: b465 f7bd 70f5 03bd 95f8 53bd aa29 8f3e

encoder.conv.convs.4.lin.weight f4 [40, 40]
0.26350254 -0.031054514 -0.1692174 0.21140555 -0.0818782 0.01189815 0.02319221 0.30538678
0.0910211 -0.06708563 -0.073967524 0.039575562 0.17884414 0.11820623 -0.15937659 -0.24605466
0.11469105 -0.23166323 -0.2530636 -0.097209245 -0.21894303 -0.18995564 0.0129689025 -0.101425566
-0.21038923 -0.11537696 0.06907247 0.223452 -0.10676205 -0.1390987 0.093665875 -0.17293543
0.1537413 0.20885271 -0.10997293 -0.07387621 0.16652022 0.010777994 -0.14496389 -0.08118214
-0.07362827 0.11575009 0.23930594 -0.23732443 0.060011912 -0.26094612 0.12583245 0.20044792
-0.014814894 -0.15424843 -0.442203 0.13958788 0.22764078 0.0040728487 -0.22956629 -0.3664267
-0.2276116 -0.15352753 -0.89791673 0.1569306 -1.0474993 0.17915037 -0.7436884 -0.18685606
0.19618568 -0.1914627 -0.007915346 0.0016709428 -0.09697493 -0.07364253 -0.20984702 0.19319105
-0.8907542 0.064886674 0.192766 -0.072175235 -0.00041573148 0.18913953 -0.19573526 -0.1292541
-0.25929412 0.034804083 0.040830325 -0.0748238 -0.14772761 0.02324561 0.2595837 0.202853
-0.22642119 -0.13262795 0.011227671 0.001960449 -0.26031163 0.1530893 -0.11719282 -0.2867472
0.091944024 0.24616903 -0.024805263 0.1926079 -0.26992172 0.17920506 0.13146554 -0.09855262
0.2678654 -0.19974615 0.2410223 0.1637032 0.069936715 0.1356926 -0.0023102912 -0.24645849
-0.2552468 -0.15208791 0.028809242 0.24930672 -0.2051787 0.017753776 0.19175294 -0.0028549405
-0.2109896 -0.018881977 -0.006398122 0.22196409 -0.17194572 -0.12261843 -0.30080396 0.036500134
0.029779179 0.056602504 -0.2891901 0.24898489 0.073724076 0.1422454 -0.2392941 0.09174379
0.19786161 -0.20677324 -0.08683412 -0.24509938 -0.17460476 0.14070421 -0.20650432 -0.11727671
0.1361542 -0.0969131 -0.12953117 -0.25968367 0.25675285 0.27188355 0.016530016 0.2748675
-0.11874701 -0.0038820647 0.06649538 0.13843606 0.20198303 0.18230745 0.09458496 0.06601257
0.15244958 -0.07922259 0.18184508 -0.2630697 0.13740861 -0.17055614 -0.20709892 -0.08621094
0.20438264 -0.17492266 0.17740723 -0.017478384 0.07914527 -0.086433634 -0.17160968 -0.21766782
-0.11542822 0.18995965 -0.025895398 -0.1854027 -0.3121099 -0.1299565 0.012621781 0.24326633
-0.018773515 -0.15601404 -0.13692643 -0.20874093 -0.26926988 0.09094693 -0.022550385 0.00035699285
-0.2801451 0.081676215 -0.22490992 -0.16474988 -0.09649438 0.087648556 -0.1929958 0.24037644
0.26095876 -0.2602155 -0.03471332 -0.03267002 0.12192973 0.14186463 -0.1970581 -0.19949904
-0.22152385 -0.042844888 0.18806887 0.21207857 -0.1955755 0.050305307 0.26961243 0.20417713
-0.16119029 -0.12013034 -0.22451067 0.13595973 -0.031726595 0.2439684 -0.102780156 -0.19131331
0.015315924 0.10232568 -0.06711352 -0.03718834 -0.110512815 -0.13834327 -0.26763943 0.013253136
0.059334956 -0.060302183 0.0075226086 0.07337867 -0.25374654 0.02628251 -0.17116755 -0.216739
-0.18992291 0.20958096 -0.12957071 -0.25542325 0.09582093 0.13474599 -0.25187984 -0.20763636
-0.08578198 -0.27101448 0.01937634 -0.24910988 0.022107473 -0.04527711 -0.1440804 -0.26780915
00000000: cee9 863e 0966 febc 5347 2dbe b27a 583e
00000010: c2af a7bd 75f0 423c 97fd bd3c a85b 9c3e
00000020: 4569 ba3d 3164 89bd 497c 97bd fc19 223d
00000030: eb22 373e 1c16 f23d 9e33 23be c1f5 7bbe
00000040: 24e3 ea3d 2039 6dbe 8d91 81be a415 c7bd
00000050: 9a32 60be bb83 42be 857b 543c 35b8 cfbd
00000060: 4670 57be c14a ecbd de75 8d3d 9ad0 643e
00000070: 10a6 dabd e46f 0ebe e5d3 bf3d fc15 31be
00000080: 5c6e 1d3e 7cdd 553e 7d39 e1bd 694c 97bd
00000090: 4784 2a3e 2f96 303c 6a71 14be d242 a6bd
000000a0: 6bca 96bd 620e ed3d 9e0c 753e 2d05 73be
000000b0: 0dcf 753d bb9a 85be 39da 003e 3842 4d3e
000000c0: 2bba 72bc 4df3 1dbe 6e68 e2be 20f0 0e3e
000000d0: aa1a 693e 8875 853b 6d13 6bbe 489c bbbe
000000e0: 0413 69be 5236 1dbe dfdd 65bf 6ab2 203e
000000f0: 7514 86bf 3273 373e 5d62 3ebf 3257 3fbe
00000100: e6e4 483e cc0e 44be 5eaf 01bc 8903 db3a
00000110: cb9a c6bd e5d1 96bd 23e2 56be e0d3 453e
00000120: 7808 64bf 4ee3 843d 7364 453e 9cd0 93bd
00000130: 89f6 d9b9 cbad 413e d36e 48be 305b 04be
00000140: 33c2 84be ba8e 0e3d b33d 273d 383d 99bd
00000150: e845 17be 946d be3c 28e8 843e b2b8 4f3e
00000160: f5da 67be 9fcf 07be 44f4 373c e07a 003b
00000170: 9147 85be 71c3 1c3e ca02 f0bd 87d0 92be
00000180: 264d bc3d bc13 7c3e 6834 cbbc 013b 453e
00000190: 2e33 8abe 8881 373e e79e 063e f5d5 c9bd
000001a0: a725 893e 418a 4cbe 8dce 763e d0a1 273e
000001b0: fb3a 8f3d 00f3 0a3e 4168 17bb 9d5f 7cbe
000001c0: b5af 82be efbc 1bbe 5c01 ec3c 434a 7f3e
000001d0: 5d1a 52be 5e70 913c e25a 443e f419 3bbb
000001e0: a80d 58be 60ae 9abc 56a7 d1bb 8e4a 633e
000001f0: 8a12 30be 5f1f fbbd fa02 9abe 2a81 153d
00000200: 77f3 f33c 07d8 673d ba10 94be e5f5 7e3e
00000210: a6fc 963d c7a8 113e 8309 75be 2be4 bb3d
00000220: 3c9c 4a3e 5dbc 53be 16d6 b1bd 55fb 7abe
00000230: 97cb 32be c414 103e de75 53be c62e f0bd
00000240: 026c 0b3e 607a c6bd d2a3 04be 42f5 84be
00000250: 1c75 833e 5234 8b3e f569 873c 6fbb 8c3e
00000260: a231 f3bd 3d6a 7ebb bb2e 883d 2fc2 0d3e
00000270: a4d4 4e3e ceae 3a3e c2b5 c13d 9931 873d
00000280: be1b 1c3e 743f a2bd 9935 3a3e 12b1 86be
00000290: d8b4 0c3e 45a6 2ebe bd11 54be 5c8f b0bd
000002a0: af49 513e ed1e 33be 3eaa 353e d42e 8fbc
000002b0: ea16 a23d 1e04 b1bd 73ba 2fbe 50e4 5ebe
000002c0: a165 ecbd c884 423e 9622 d4bc 35da 3dbe
000002d0: decc 9fbe 5113 05be 96cb 4e3c cf1a 793e
000002e0: eaca 99bc 25c2 1fbe 7136 0cbe 2fc0 55be
000002f0: bedd 89be 6242 ba3d 96bb b8bc c52a bb39
00000300: 2e6f 8fbe dc45 a73d c94e 66be 31b4 28be
00000310: d89e c5bd 1681 b33d b1a0 45be 3e25 763e
00000320: 639c 853e f73a 85be 8e2f 0ebd 00d1 05bd
00000330: 4bb6 f93d f644 113e 99c9 49be 7a49 4cbe
00000340: 26d7 62be 1f7e 2fbd 2095 403e 202b 593e
00000350: f244 48be f00c 4e3d a40a 8a3e cf13 513e
00000360: 110f 25be e506 f6bd 20e6 65be 0739 0b3e
00000370: bff3 01bd dad2 793e 677e d2bd a3e7 43be
00000380: a4ef 7a3c 2090 d13d d072 89bd cd52 18bd
00000390: 8b54 e2bd dca9 0dbe 0908 89be ae23 593c
000003a0: 3609 733d 6cff 76bd 3780 f63b 8e47 963d
000003b0: 11eb 81be 6b4e d73c 8c46 2fbe d4f0 5dbe
000003c0: 277b 42be 649c 563e 2fae 04be d6c6 82be
000003d0: c43d c43d dafa 093e 65f6 80be a09e 54be
000003e0: 76ae afbd 69c2 8abe 21bb 9e3c a916 7fbe
000003f0: bb1a b53c 7e74 39bd d089 13be 481e 89be

encoder.conv.convs.5.bias f4 [40]
0.3176182 0.09293958 -0.01628299 -0.09865668 -0.06333708 0.17584309 -0.048745926 0.3058427
0.46870157 -0.008526412 0.10590193 -0.03324402 0.35324165 -0.016416457 0.04364276 0.12551136
-0.042118363 0.1584512 -0.03214132 -0.06787611 -0.04710409 -0.0055586253 -0.014508997 0.38693592
-0.0054226536 -0.031558763 -0.048716508 -0.063721396 -0.06376343 -0.012307188 0.0023961836 0.0
-0.08247476 0.20523822 0.047808196 0.33601308 -0.003757471 0.015860965 0.1950723 -0.005558613
00000000: da9e a23e 1b57 be3d e863 85bc 830c cabd
00000010: dfb6 81bd 3610 343e cfa9 47bd 6a97 9c3e
00000020: a7f9 ef3e 5db2 0bbc 1ce3 d83d e22a 08bd
00000030: 17dc b43e ce7b 86bc c0c2 323d 0d86 003e
00000040: 4e84 2cbd 0841 223e 9ea6 03bd a102 8bbd
00000050: 38f0 40bd 2125 b6bb 25b7 6dbc 771c c63e
00000060: 84b0 b1bb c343 01bd f68a 47bd 5d80 82bd
00000070: 6796 82bd 16a4 49bc 4a09 1d3b 0000 0000
00000080: 87e8 a8bd f829 523e 87d2 433d e809 ac3e
00000090: e73f 76bb dbee 813c 08c1 473e 0725 b6bb

encoder.conv.convs.5.lin.weight f4 [40, 40]
0.24097362 -0.17172956 -0.028125228 -0.14588226 -0.009456206 0.08902511 0.07144542 -0.24474803
-0.16527878 -0.077159874 0.2105709 0.060100198 -0.24446514 -0.1054495 -0.21468352 -0.0871919
-0.1611198 0.28613135 0.074611 0.3399463 0.12662 -0.41364634 -0.018945195 0.00245784
0.16225316 0.20028344 -0.06172502 -0.1024656 0.0576555 -0.0813115 0.115946226 -0.20316061
-0.1198198 -0.06992151 0.25368583 0.18748772 -0.19177479 0.10927829 -0.016377859 0.3574267
-0.064938635 0.19302462 0.054363426 0.00036663975 -0.18073398 0.07153797 0.09535823 -0.3457483
-0.0741845 -0.16188315 -0.772814 0.07227959 -0.13770846 -0.45906895 0.16975188 0.2851106
-0.03431134 0.16294111 0.35463548 0.045945637 0.28223762 -0.038274385 0.18754016 -0.6657889
0.11304894 -0.04844808 -0.9076387 0.5437101 -0.117580034 -0.0821796 0.16164844 -0.12347495
-0.4799973 -0.022438943 -0.1387599 0.104224 0.1401377 -0.18131952 -0.16815366 0.255834
0.17384546 0.15877318 0.09935762 -0.25738513 0.010318677 0.19277693 -0.19261882 0.10976967
0.08725144 -0.25378075 -0.24591075 -0.11929853 -0.010545486 0.12609498 -0.2463208 0.048915856
0.15396617 -0.19396485 0.015257191 -0.1707343 -0.26251176 -0.32385546 0.021266527 0.030370077
-0.20632498 -0.082343355 -0.20364927 -0.2029645 0.20209537 0.05305315 -0.2775084 -0.057577766
-0.26721862 0.16139616 -0.19519308 -0.085778445 0.27300295 -0.13527906 -0.008375387 0.08254744
-0.056636862 0.308053 0.22862147 0.11280508 -0.07953017 -0.21893737 0.068504564 0.023761531
-0.29141238 0.39261064 -0.69597393 -0.16936055 0.35271615 -0.058853634 -0.055451404 0.49471405
0.021664685 0.06268012 0.089355186 0.01459799 0.027061332 -0.4338539 -0.2080114 -0.028503733
0.2401897 0.036029276 -0.3739099 0.11284918 0.27716094 0.42252067 0.39244217 -0.097912975
-0.6426443 -0.032447625 -0.19120461 -0.11544888 0.26183698 -0.16860652 -0.029462831 0.0010955055
0.05585244 -0.19165476 -0.19620702 0.14805649 -0.13321652 -0.07905921 -0.06435796 -0.15109758
-0.22474949 -0.16187836 0.22461577 0.14158227 0.25281712 -0.051821455 0.0936123 -0.031298887
0.052400447 0.17229739 -0.04158247 -0.25451303 0.11992767 0.015309611 0.011412574 -0.15522967
0.084651895 -0.23508355 0.047286782 -0.024819959 -0.09465342 -0.0072474936 -0.09875017 0.07720367
-0.24038029 -0.019839335 0.013558427 -0.18589978 0.15816484 -0.15040268 0.00030361532 0.015073424
-0.23747471 -0.2637549 0.14204773 0.106680214 0.19396974 0.21276641 0.2131961 0.26728603
-0.09450656 0.041727696 -0.25357533 -0.3080743 0.17423919 0.18737592 -0.08465652 -0.053148817
0.18313195 -0.19480766 -0.2170223 -0.9205136 -0.23476851 -0.06997303 -0.15880558 -0.040884096
0.27398637 0.20989919 -0.17930248 0.20080163 -0.013302056 -0.36084613 -0.07623967 -0.25080296
-0.19535062 0.2459026 -0.068288 -0.49628118 0.19504613 -0.17116205 -0.031363137 -0.46832216
-0.0625356 -0.2725052 -0.048437085 -0.009064582 -0.121565 0.02577446 -0.2571821 -0.31500977
0.0302331 -0.30864376 -0.06592584 0.13260117 -0.03090477 0.044735193 0.105728686 0.19362599
00000000: cac1 763e e0d9 2fbe e166 e6bc 2962 15be
00000010: 34ee 1abc cc52 b63d fa51 923d 3a9f 7abe
00000020: d73e 29be ff05 9ebd e69f 573e a02b 763d
00000030: 1255 7abe e8f5 d7bd ffd5 5bbe ab91 b2bd
00000040: 97fc 24be cf7f 923e a7cd 983d 710d ae3e
00000050: aca8 013e 74c9 d3be f432 9bbc b613 213b
00000060: b125 263e 1a17 4d3e 60d3 7cbd 7cd9 d1bd
00000070: 2c28 6c3d a586 a6bd 3775 ed3d 5609 50be
00000080: 1564 f5bd 0233 8fbd 1ce3 813e c8fc 3f3e
00000090: 9c60 44be 4ccd df3d dc2a 86bc a200 b73e
000000a0: 8cfe 84bd 3fa8 453e 2fac 5e3d 8e39 c039
000000b0: 5412 39be 8082 923d 2d4b c33d ec05 b1be
000000c0: 0bee 97bd b2c4 25be 23d7 45bf 5207 943d
000000d0: 7203 0dbe 160b ebbe 70d3 2d3e 04fa 913e
000000e0: 0c8a 0cbd 09da 263e c892 b53e 7e31 3c3d
000000f0: 7381 903e 9ac5 1cbd 870a 403e 2471 2abf
00000100: 3486 e73d 7e71 46bd 035b 68bf 9630 0b3f
00000110: cdcd f0bd c74d a8bd 2b87 253e 6fe0 fcbd
00000120: 35c2 f5be e0d1 b7bc 1317 0ebe 6473 d53d
00000130: 4280 0f3e d3ab 39be 7930 2cbe adfc 823e
00000140: 8b04 323e 7095 223e 027c cb3d fcc7 83be
00000150: ab0f 293c 5167 453e de3d 45be ecce e03d
00000160: e2b0 b23d 8def 81be 07d0 7bbe ca52 f4bd
00000170: f9c6 2cbc 0b1f 013e 853b 7cbe fe5b 483d
00000180: 4fa9 1d3e b99e 46be 4cf9 793c f9d4 2ebe
00000190: f167 86be 62d0 a5be 2437 ae3c abca f83c
000001a0: db46 53be a2a3 a8bd 6f89 50be edd5 4fbe
000001b0: 17f2 4e3e 434e 593d 9515 8ebe aad6 6bbd
000001c0: e1d0 88be 0945 253e b2e0 47be 9cac afbd
000001d0: 0bc7 8b3e 9886 0abe eb38 09bc a20e a93d
000001e0: 0efc 67bd 1fb9 9d3e bf1b 6a3e 5a06 e73d
000001f0: b7e0 a2bd 1e31 60be 1f4c 8c3d 8ba7 c23c
00000200: 0134 95be 4304 c93e 592b 32bf da6c 2dbe
00000210: 3697 b43e 8210 71bd 0321 63bd 294b fd3e
00000220: 237a b13c 6f5e 803d daff b63d 682c 6f3c
00000230: baaf dd3c 1922 debe f100 55be a980 e9bc
00000240: 4af4 753e 6f93 133d 1e71 bfbe 791d e73d
00000250: 0ae8 8d3e a154 d83e 2eee c83e 9986 c8bd
00000260: 5684 24bf cde7 04bd 24cb 43be 7670 ecbd
00000270: 7f0f 863e 30a7 2cbe 095c f1bc 1197 8f3a
00000280: 87c5 643d 2541 44be 7eea 48be 1f9c 173e
00000290: e969 08be cce9 a1bd 1bce 83bd 53b9 1abe
000002a0: bb24 66be 71c3 25be ad01 663e f1fa 103e
000002b0: 3f71 813e bc42 54bd ceb7 bf3d 4333 00bd
000002c0: daa1 563d ba6e 303e 6152 2abd 884f 82be
000002d0: a39c f53d 2ad5 7a3c cefb 3a3c 87f4 1ebe
000002e0: f95d ad3d beb9 70be c9af 413d 3a53 cbbc
000002f0: a7d9 c1bd 627c edbb 873d cabd f51c 9e3d
00000300: 4026 76be 1a86 a2bc 2a24 5e3c 835c 3ebe
00000310: f7f5 213e 2903 1abe 8f2e 9f39 86f6 763c
00000320: 922c 73be e20a 87be f674 113e 287b da3d
00000330: 01a0 463e 70df 593e 1450 5a3e b7d9 883e
00000340: a88c c1bd a9ea 2a3d a0d4 81be eabb 9dbe
00000350: c26b 323e 79df 3f3e 6660 adbd 93b2 59bd
00000360: f186 3b3e a97b 47be 183b 5ebe c7a6 6bbf
00000370: 2867 70be 054e 8fbd ee9d 22be 1576 27bd
00000380: f147 8c3e d0ef 563e 129b 37be f19e 4d3e
00000390: def0 59bc d3c0 b8be 8b23 9cbd 3f69 80be
000003a0: fe09 48be e4cd 7b3e 94da 8bbd 9118 febe
000003b0: 2cba 473e 1b45 2fbe a276 00bd ecc7 efbe
000003c0: aa12 80bd cd85 8bbe f765 46bd 9d83 14bc
000003d0: 12f7 f8bd f624 d33c 5fad 83be f648 a1be
000003e0: 68ab f73c 8e06 9ebe 2004 87bd 9ac8 073e
000003f0: 002c fdbc 403c 373d 4888 d83d e445 463e

encoder.conv.convs.6.bias f4 [40]
-0.070838556 -0.051740803 -0.0028047133 0.18505429 -0.042448085 -0.041732002 -0.043942135 0.23322497
-0.10997876 0.062368922 -0.045206606 0.09507657 0.0 0.20621765 -0.30848768 -0.046751272
-0.090195514 0.030950963 -0.023367463 -0.00860295 0.21321206 -0.15819365 0.5338596 -0.00045544413
-0.00807644 -0.012973169 0.32110927 0.062250663 -0.07712028 -0.035625085 0.0 0.0
-0.04442253 -0.02536952 0.33561334 -0.057201777 -0.031750698 0.22082561 0.0 -0.03160734
00000000: ce13 91bd 2aee 53bd 48cf 37bb df7e 3d3e
00000010: 0bde 2dbd 2def 2abd abfc 33bd 87d2 6e3e
00000020: 8b3c e1bd 8e76 7f3d 902a 39bd 81b7 c23d
00000030: 0000 0000 b82a 533e 19f2 9dbe 437e 3fbd
00000040: 6db8 b8bd e08c fd3c 1f6d bfbc 63f3 0cbc
00000050: 4354 5a3e 84fd 21be 06ab 083f adc8 eeb9
00000060: 0b53 04bc 6a8d 54bc 6f68 a43e 8dfa 7e3d
00000070: 3df1 9dbd 9ceb 11bd 0000 0000 0000 0000
00000080: 66f4 35bd bdd3 cfbc 83d5 ab3e 694c 6abd
00000090: 050d 02bd 1c20 623e 0000 0000 b376 01bd

encoder.conv.convs.6.lin.weight f4 [40, 40]
0.19787207 -0.5944001 0.2558067 -0.07306848 -0.08822689 -0.19084272 0.045931265 -0.05023244
0.4000301 -0.020584172 0.025836669 -0.37996277 0.00479703 0.070993975 0.26676372 0.026464129
-0.20144324 -0.38651586 -0.2052965 -0.23533626 -0.5100667 -0.1604544 -0.20938167 -0.1601537
0.022770496 -0.5241614 0.057393413 0.13352624 0.098325446 -0.21901526 -0.10310372 0.07131072
-0.05257735 0.15176606 0.023323601 0.29967627 0.09493417 0.06564356 -0.053734664 -0.118832655
0.15405722 -0.065335594 -0.22384101 -2.0716414 0.20283276 0.09514086 0.025882574 0.11030949
0.15028349 -0.15068203 0.13767813 -0.18401897 0.094093725 0.2785965 0.1859218 0.24366337
0.05305908 0.24583417 0.25635284 0.07167478 -0.26035604 0.13932163 -0.25188988 0.06369032
0.18184675 -0.75326824 -0.20329274 0.0887292 0.023218673 0.25608698 -0.29590797 0.24068409
0.021907924 0.2272396 0.030868398 0.17728204 0.0957207 -0.1873147 -0.08249168 -0.0720772
-0.031038217 0.10603961 0.047336448 -0.24167041 0.22956058 -0.21115908 0.11710641 0.19565672
-0.17627959 0.13782671 -0.2638063 0.081260495 -0.116596565 0.12968257 0.1827106 0.19524571
0.19058993 -0.06319811 -0.24191514 0.01788993 -0.09721449 0.04263354 -0.27602166 -0.16614103
0.178945 0.11576427 -0.0111574065 -0.04412141 0.25351223 0.22511186 -0.039773054 0.16879503
-0.029638164 0.23169395 0.123037405 -0.22055759 -0.075797334 0.18418401 -0.19875675 0.03857078
0.0951032 0.23594873 -0.011264975 0.19078657 0.17997265 -1.2260802 -0.14848329 0.23028384
-0.0011574104 0.23452018 0.15465121 0.021866238 0.094255246 -0.42450377 -0.31260878 -0.23727655
0.26402342 -0.012150222 0.20081747 -0.1712207 0.26381028 -0.011129612 0.056812502 0.2133919
-0.19211935 0.12740381 -0.1068112 -0.130923 -0.19875911 -0.060032398 -0.19603628 0.26424158
0.15050225 -0.5454357 0.074460514 0.2172025 0.03579547 -0.04580573 -0.20098637 0.2120679
0.09306458 0.15730622 -0.21792457 0.19483773 -0.025558306 0.14824103 -0.09760201 -0.16146305
-0.14249003 -0.123126134 -0.00070224976 -0.12793414 -0.2951385 0.09150254 0.11545963 -0.30637035
0.075430065 -0.2819883 0.25302708 -0.13457958 0.13036095 -0.0425193 -0.16697338 0.05445117
0.20051593 -0.054647047 0.18359189 -0.049607642 0.044234436 -0.19592787 -0.023520155 0.085600846
-0.09030584 0.0022817033 0.21830243 -0.21108747 0.26181993 -0.02298601 -0.259022 -0.079062246
-0.10930704 -0.052835174 -0.080850184 -0.19945773 -0.16815777 -0.16643542 0.20714642 -0.2808514
0.023774022 -0.20416199 -0.26157504 0.14272852 -0.07052939 -0.13961466 0.21403599 0.18707083
0.06749098 -0.25895846 0.20289353 -0.0108080525 0.12296591 0.21003959 0.019061623 -0.18629614
0.23706867 0.060462773 -0.0853528 0.110066466 -0.24363652 -0.18161845 0.19414604 0.03810777
-0.18937209 0.03676808 0.22123238 -0.18254158 0.029264959 0.16842958 -0.16003285 0.039445017
0.073613554 -0.30750728 0.21158232 -0.2384662 0.20066449 -0.16096918 -0.23325577 0.023696985
-0.13667487 0.23184082 -0.12735194 -0.00040723634 0.1046171 0.09453419 -0.22038943 -0.063162155
00000000: fa9e 4a3e 9b2a 18bf 19f9 823e eda4 95bd
00000010: 4db0 b4bd 466c 43be 6c22 3c3d 88c0 4dbd
00000020: bfd0 cc3e 23a0 a8bc 6ca7 d33c 7b8a c2be
00000030: 6730 9d3b 4a65 913d 4195 883e 4dcb d83c
00000040: 2347 4ebe 68e5 c5be 3f39 52be fdfb 70be
00000050: bb93 02bf 294e 24be 2668 56be 55ff 23be
00000060: 3189 ba3c 712f 06bf 5b15 6b3d 1abb 083e
00000070: da5e c93d 8945 60be 0b28 d3bd 5b0b 923d
00000080: 595b 57bd 9068 1b3e 2311 bf3c 2b6f 993e
00000090: d96c c23d 2170 863d e118 5cbd 895e f3bd
000000a0: 2dc1 1d3e abce 85bd 9436 65be c695 04c0
000000b0: 64b3 4f3e 36d9 c23d b107 d43c f1e9 e13d
000000c0: eae3 193e 644c 1abe 7ffb 0c3e 786f 3cbe
000000d0: 36b4 c03d 33a4 8e3e 4962 3e3e e482 793e
000000e0: 7a54 593d f4bb 7b3e ae40 833e 3aca 923d
000000f0: 634d 85be 54aa 0e3e b6f7 80be 1270 823d
00000100: 0936 3a3e 30d6 40bf f92b 50be a8b7 b53d
00000110: 1635 be3c d51d 833e 4081 97be e475 763e
00000120: 3f78 b33c 7fb1 683e b9df fc3c 6c89 353e
00000130: 3709 c43d 6dcf 3fbe 66f1 a8bd 369d 93bd
00000140: dc43 febc 4c2b d93d dde3 413d 7378 77be
00000150: ee11 6b3e 163a 58be 7cd5 ef3d 3c5a 483e
00000160: a382 34be 7222 0d3e 9f11 87be e76b a63d
00000170: 2eca eebd 82cb 043e 7d18 3b3e 7eee 473e
00000180: 022a 433e 036e 81bd 9ab8 77be e78d 923c
00000190: 6418 c7bd 82a0 2e3d b652 8dbe e020 2abe
000001a0: 5c3d 373e d115 ed3d 8ecd 36bc a7b8 34bd
000001b0: 5bcc 813e b983 663e 12e9 22bd 9bd8 2c3e
000001c0: bccb f2bc 2e41 6d3e 09fb fb3d d9d9 61be
000001d0: a23b 9bbd bc9a 3c3e e486 4bbe 65fc 1d3d
000001e0: 77c5 c23d 8b9c 713e bb90 38bc 8e5d 433e
000001f0: c04a 383e 32f0 9cbf 010c 18be 87cf 6b3e
00000200: 40b4 97ba 0f26 703e e35c 1e3e d320 b33c
00000210: e508 c13d 8f58 d9be 420e a0be a0f8 72be
00000220: 142e 873e ba11 47bc 18a3 4d3e 7b54 2fbe
00000230: 2412 873e fa58 36bc 3ab4 683d 6883 5a3e
00000240: efba 44be 2576 023e d5bf dabd ae10 06be
00000250: 8287 4bbe 88e4 75bd bcbd 48be ac4a 873e
00000260: 431d 1a3e ada1 0bbf c17e 983d 556a 5e3e
00000270: 459e 123d ca9e 3bbd 5fcf 4dbe 5428 593e
00000280: a498 be3d e214 213e 9e27 5fbe 8b83 473e
00000290: a75f d1bc 7fcc 173e 90e3 c7bd 9256 25be
000002a0: e8e8 11be 8e29 fcbd 2f17 38ba 2b01 03be
000002b0: 651c 97be af65 bb3d 1976 ec3d 93dc 9cbe
000002c0: 147b 9a3d c560 90be c48c 813e 3bcf 09be
000002d0: 577d 053e b828 2ebd 12fb 2abe 3108 5f3d
000002e0: 0c54 4d3e 95d5 5fbd 83ff 3b3e 6231 4bbd
000002f0: 2b2f 353d 51a1 48be 57ad c0bc 7f4f af3d
00000300: 45f2 b8bd a188 153b ac8a 5f3e 5027 58be
00000310: 430d 863e 284d bcbc 889e 84be 63eb a1bd
00000320: 5fdc dfbd b269 58bd c894 a5bd a63e 4cbe
00000330: 8d31 2cbe 0c6e 2abe 311e 543e c1cb 8fbe
00000340: bdc1 c23c d70f 51be 2aed 85be 6d27 123e
00000350: b671 90bd 25f7 0ebe 402c 5b3e 7f8f 3f3e
00000360: b638 8a3d 3496 84be 52c3 4f3e 4214 31bc
00000370: 8dd5 fb3d 9e14 573e 1f27 9c3c 6ac4 3ebe
00000380: 21c2 723e d0a7 773d 73cd aebd 876a e13d
00000390: da7b 79be 30fa 39be 38ce 463e e516 1c3d
000003a0: c2ea 41be 209a 163d be8a 623e 2eec 3abe
000003b0: 11bd ef3c ce78 2c3e a7df 23be 1991 213d
000003c0: b4c2 963d 9871 9dbe 09a9 583e 7c30 74be
000003d0: fe7a 4d3e 1bd5 24be 9ada 6ebe 2e20 c23c
000003e0: 7ff4 0bbe ae67 6d3e 8c68 02be 5682 d5b9
000003f0: 7d41 d63d 249b c13d c4ad 61be 295b 81bd
