results/model_GCN/graph_split_/layers_4/transform_False/alpha_1.0/model.pt (torch, 35232 bytes, 13 tensors)

encoder.conv.convs.0.bias f4 [40]
000000 2a 34 0f be 92 db 41 bc 1a 4d 5e bc b3 67 16 3c
       -0.13984743 -0.011832135 -0.013568187 0.009179997
000010 9a cf 97 bd 07 df 72 bd 63 37 ae bc 74 86 71 3b
       -0.07412644 -0.059294727 -0.021266645 0.0036853822
000020 fc 4a ac 3b 6a 14 77 bc c9 45 84 3c 95 30 7d 3d
       0.0052579623 -0.015080551 0.016146557 0.06181391
000030 fb 45 4d bc f2 68 b0 3d f6 45 be 39 69 30 62 3c
       -0.012528892 0.08613767 0.0003629175 0.013805487
000040 95 90 99 bb d0 f2 39 bd 2d e7 c1 3d b0 82 81 bd
       -0.004686425 -0.04539758 0.094679214 -0.06323755
000050 6f 2e 3a bc 45 5b 0a 3d 6d 98 9a bc 14 3f 97 3d
       -0.01136361 0.033778448 -0.01887151 0.07385078
000060 36 e1 a1 3d e6 1b 5a 3c 0c 5c 89 3d 7d d8 a1 3c
       0.07904284 0.013312316 0.0670701 0.01975655
000070 a8 ac 50 3c 70 98 95 3d 4c f2 34 3d 36 5f 04 3e
       0.012736477 0.07304466 0.044176385 0.12926945
000080 d8 d9 4f bd 1a 21 17 bd ee e3 09 3c c8 7c 9b bc
       -0.05074486 -0.036896802 0.008416159 -0.018980399
000090 48 2f 48 bd d4 6a 6f bd 36 f3 ed 3d 02 35 9a bd
       -0.048873216 -0.05845149 0.116186544 -0.07529642

encoder.conv.convs.0.lin.weight f4 [40, 40]
000000 38 ff a7 3c 8a 8e 4c be f8 9f 63 3e 15 00 fa bb
       0.02050744 -0.1997625 0.22228992 -0.0076294043
000010 e4 50 d5 bd 60 f1 9a bd a4 03 61 3e df a7 d4 3c
       -0.10415819 -0.0756557 0.21974045 0.025958953
000020 15 7b 85 3e f1 0f 01 3e c8 60 2c 3e 82 45 43 3e
       0.26070467 0.12603737 0.16833794 0.19069484
000030 64 bd c3 bd fc 7c d6 3e 82 f1 62 be 96 9e d3 bd
       -0.09557608 0.4189223 -0.2216244 -0.10332982
000040 53 87 30 be 8a 39 96 be f5 d6 1d 3e ae ac 5f 3e
       -0.17239122 -0.29340774 0.15414031 0.21843216
000050 c2 ec 5b 3d 69 89 0c be fb 2b 95 3e fb d1 cc 3e
       0.053692587 -0.13724293 0.29135117 0.40003952
000060 73 85 70 be 41 e6 a2 3d ed ad 90 3e f6 da 1b bd
       -0.23488407 0.07954074 0.28257695 -0.038050614
000070 29 49 d2 3d 96 83 09 be dc ed 1c bc 10 12 0e 3f
       0.102678604 -0.13429102 -0.0095781945 0.5549631
000080 33 e3 5b 3e 23 1e 45 bd a2 fd 33 bb 40 f6 c0 3b
       0.21473388 -0.048124444 -0.002746441 0.0058887303
000090 6e e3 3b 3d 5b 05 c6 bd 91 91 1a bf fc e9 e9 3d
       0.04587119 -0.0966899 -0.60378367 0.11421582
0000a0 4f 51 23 bd 21 bc ba bd d7 52 0f 3e 81 40 69 be
       -0.039872464 -0.09117914 0.13996445 -0.22778513
0000b0 c2 30 07 3e 7c 84 78 3d 9f 7f c7 bd 46 b2 75 3e
       0.13202193 0.060673222 -0.09741139 0.23993787
0000c0 6d b7 17 be 2e 6a 14 3e c6 6e db bd 61 68 c9 bb
       -0.14816065 0.1449363 -0.10714488 -0.006146476
0000d0 b9 74 7e 3d e3 a5 17 3e 6c 3b b8 bd 75 d6 84 bd
       0.062123034 0.14809375 -0.08995709 -0.06486217
0000e0 b3 d5 1f 3d c9 f9 40 be 6c a1 62 be ce f6 09 3e
       0.03902216 -0.18845285 -0.2213189 0.13473055
0000f0 b2 79 a4 be 9b 5e 23 3e 6d 86 89 3e 8a da 24 3e
       -0.32124096 0.15954058 0.2686037 0.16098991
000100 aa 36 73 3e 73 10 c2 3e 45 d9 9b 3c f5 3a e7 bb
       0.23751321 0.37903175 0.0190245 -0.007056589
000110 22 0a a4 3d 68 01 b6 bd f0 35 cf ba 72 30 91 3d
       0.08009745 -0.08886987 -0.0015808921 0.07089318
000120 80 94 70 bc bd b8 b0 3b 4e dc bd 3c 8f 4d bb be
       -0.014683843 0.0053931163 0.023176339 -0.3658261
000130 49 94 f9 bd db bd a6 bd 9c 70 6d bb e4 ed 5b be
       -0.12186486 -0.08141681 -0.003623045 -0.21477467
000140 ba c9 36 be 54 cb 92 bc 72 a2 99 3d d8 9c 7f 3e
       -0.1785039 -0.01791922 0.07501687 0.24962175
000150 57 9a cd bd 0f 59 c7 bd 9d f6 0b be 0d 55 3e 3e
       -0.100392036 -0.097337835 -0.13668294 0.18587132
000160 55 87 2b bd b2 f6 87 be ff d2 dd 3d 10 b0 37 3d
       -0.04187711 -0.265554 0.1083126 0.04484564
000170 f5 53 88 3c 58 75 88 3d 42 f8 10 be b9 1d 16 bd
       0.016641596 0.066630065 -0.14157203 -0.03664944
000180 13 af 93 3e 14 0b 95 bb 4b 43 bf 3c 8b 7f d7 3b
       0.2884451 -0.0045484398 0.023347517 0.0065764836
000190 20 55 1e be a6 c3 15 be 05 f1 cf 3d 65 13 8e 3e
       -0.1546216 -0.14625415 0.10153393 0.27749172
0001a0 1e cb 3c 3e 61 71 ad be f1 84 9e bc 5e a0 cc 3e
       0.18436858 -0.33875564 -0.0193505 0.399661
0001b0 24 d1 0e bd 04 e2 52 be 4d 66 25 be 82 43 20 be
       -0.03486742 -0.2059403 -0.16152306 -0.15650752
0001c0 c9 8a 7f bc ae 10 f2 3c 51 f8 83 bd e0 9d 66 3e
       -0.015597054 0.02954897 -0.06443847 0.22521162
0001d0 33 81 fd bd ac 78 26 be e6 b8 78 be 94 35 18 3e
       -0.123781584 -0.1625697 -0.24289283 0.14864188
0001e0 02 a5 1a be 9a 4e 8d 3e 3f 84 20 3c a5 5b 87 3c
       -0.15102008 0.2759903 0.009797155 0.016523192
0001f0 ba 93 26 3e 19 f6 3f 3e 07 d2 3d be d7 fe 27 be
       0.1626729 0.18746223 -0.1853715 -0.16405807
000200 c2 28 72 be 77 fc 22 3e f5 6d 55 be 1a f6 53 ba
       -0.2364836 0.1591662 -0.20842727 -0.0008085683
000210 91 0b 04 3e 64 32 8f be ce 73 14 3d db bc 55 be
       0.12895037 -0.27968132 0.036243252 -0.20872824
000220 1b a4 26 be a3 e4 3d 3e 47 80 6d 3e 7e e1 13 be
       -0.16273539 0.18544249 0.23193465 -0.14441487
000230 f7 4b 95 be d4 f1 c6 3c 56 92 0e be c0 ee 87 be
       -0.2915952 0.024285235 -0.1392301 -0.2654934
000240 6c 2d 90 3e fb 64 12 bd e6 27 32 be e5 aa bb bd
       0.28159654 -0.035740834 -0.17398033 -0.09163455
000250 24 f2 30 3c 7c 02 6b 3d b2 9f a2 3c c2 18 14 be
       0.010799918 0.057375416 0.01985154 -0.1446257
000260 a9 92 85 3e 40 33 e6 bd 5f 24 6c 3d ec ce 12 3e
       0.26088455 -0.11240244 0.057651874 0.14336747
000270 3f 4d 5b be c3 e5 9f 3d 36 e0 5c 3d 74 1b c7 bd
       -0.21416186 0.078074954 0.05392476 -0.09722033
000280 45 29 44 be 04 c4 23 be 60 0c 1f be 45 05 29 3e
       -0.19156368 -0.15992743 -0.15532064 0.16505916
000290 2a 3e 78 3d cb af a2 be cb fa 88 3e 1c 10 f8 bc
       0.06060616 -0.31774744 0.2675384 -0.030281119
0002a0 82 90 1c 3e 35 6c da bb 78 d3 18 3c f0 fc 3d 3e
       0.152895 -0.0066657313 0.009327762 0.18553519
0002b0 b7 e0 8b be d7 d2 a0 3e be e4 4c 3e c8 62 de bd
       -0.2731988 0.31410858 0.20009133 -0.10858685
0002c0 0e ed 2d be 76 7f b5 bd d7 9d a6 bd 38 b9 63 3e
       -0.1698496 -0.08862202 -0.08135574 0.22238624
0002d0 38 97 0c 3d e3 b0 5d be 44 ae 1b 3e b8 69 3f 3e
       0.0343239 -0.21649508 0.15203196 0.18692672
0002e0 0b 3d 53 be 54 72 0a 3c 8d e3 98 3e f8 d4 0c be
       -0.20628755 0.0084501095 0.29861107 -0.13753116
0002f0 c2 7b 04 3c a4 c3 6a 3e 47 04 bb bd d7 37 8c be
       0.008086147 0.22926193 -0.09131675 -0.27386352
000300 a0 86 8f be b8 3f 2f be 6b 76 c7 bd 4d 59 7d 3c
       -0.28032398 -0.1711415 -0.09739383 0.0154631855
000310 35 4a 31 be ac 7d f0 3d 6d a0 00 3e e8 e8 c9 3d
       -0.17313464 0.1174272 0.12561198 0.098588765
000320 56 28 3a be 3f e9 d4 bb 51 9f 8c bc db 41 e4 3b
       -0.1817945 -0.0064975317 -0.017165812 0.0069658584
000330 43 db eb bd 34 7c 5b 3c 85 a7 84 be 2c 33 61 3d
       -0.1151643 0.013396312 -0.25909057 0.054980442
000340 b3 00 d8 3e 50 16 a6 bd ee e0 e3 bd 62 64 bf 3d
       0.42188033 -0.081097245 -0.11126886 0.093453184
000350 7c 26 98 3d 73 21 f2 3e 91 f5 2d be 86 67 43 be
       0.07429215 0.47291145 -0.16988207 -0.1908246
000360 30 c8 89 be 6a 27 f2 bd 1e 63 34 3d 16 ea 90 3d
       -0.26910543 -0.11823924 0.044039838 0.07075898
000370 fc 72 4a be c2 8e 00 be 1b bf 41 3e a8 80 89 3d
       -0.19770426 -0.12554458 0.18920557 0.06713992
000380 aa 7c 6a be 46 17 5e 3d 19 a5 4f be fa e6 52 3e
       -0.22899118 0.054221414 -0.20277824 0.20595923
000390 07 c4 5f be 33 6d 80 3e ec 5c 1e be 5f 1f a8 3e
       -0.21852122 0.25083312 -0.15465134 0.32836434
0003a0 08 50 24 3e 4e f0 23 3e 68 a1 29 3e a7 26 f1 bd
       0.16046154 0.16009638 0.16565478 -0.117749505
0003b0 bb 23 8f 3e 8d d9 01 3e b3 93 05 bf 79 0f 65 bd
       0.27956948 0.12680645 -0.52178496 -0.05592296
0003c0 0b 0d 2c be 85 2b 26 3d b7 a4 1d bd 71 94 24 3e
       -0.1680185 0.040568847 -0.038487162 0.16072251
0003d0 b7 e5 d0 3d 02 d2 9a be a8 8a 60 3e c9 e0 1a 3d
       0.10200065 -0.30238348 0.21927893 0.037812028
0003e0 64 d9 8f be 08 fe 4a be 80 3e 90 bd 50 d5 19 be
       -0.28095543 -0.19823468 -0.07043171 -0.15022779
0003f0 8a 08 2d be fb 20 e1 be 36 18 20 be 73 7c 79 be
       -0.16897789 -0.43970475 -0.15634236 -0.2436388

encoder.conv.convs.1.bias f4 [40]
000000 6f 74 83 3d ef 36 06 3d 75 58 65 3d 0d 50 b7 3b
       0.06418692 0.032767233 0.055992562 0.0055942596
000010 6d 8a 9a bb bb bb 45 bd 66 00 1d 3d 99 2b 62 3c
       -0.0047162087 -0.048274737 0.038330458 0.01380434
000020 72 26 33 bc f0 67 88 3d cb f2 26 bd cb 8c cf bc
       -0.010934459 0.066604495 -0.04075889 -0.02533569
000030 89 61 5e 3b 01 dc 70 bc fa 65 10 bd fd 82 fd bc
       0.0033932647 -0.0147008905 -0.035253502 -0.03094625
000040 2c b1 83 bc 6b c3 15 3c 13 00 c3 bc a2 ce d8 3d
       -0.016075693 0.00914083 -0.023803746 0.10586287
000050 aa a6 0d 3d 07 e3 22 3d 00 00 00 00 25 a8 b1 bc
       0.03458277 0.03976729 0.0 -0.021686623
000060 29 54 a2 3c 17 11 fe 3b d1 92 a4 3c c0 7d ba 3d
       0.019815521 0.007753502 0.020089539 0.09106016
000070 ce 0a 96 bd 51 d0 a9 bc bf bb 74 3c 58 21 d9 bc
       -0.073262796 -0.020729216 0.01493734 -0.026505157
000080 98 99 39 bd 8e 3e 72 bd ba c2 85 3b 8e ee 71 bc
       -0.045312494 -0.059141688 0.004082051 -0.0147663485
000090 f9 ee 63 3c ef 8e 30 3d db a0 84 bc cb 58 8f 3d
       0.013911956 0.043105062 -0.016189983 0.06999358

encoder.conv.convs.1.lin.weight f4 [40, 40]
000000 b5 e1 40 be 70 0e ff bc 93 40 04 3e d2 de 9a 3d
       -0.188361 -0.031134814 0.12915258 0.07562031
000010 43 04 0a be be b8 0b 3e ef f0 1b 3e 60 e2 2f bd
       -0.13478188 0.13644692 0.15228628 -0.042940497
000020 73 76 f2 3d 20 bc da 3d 37 9f 40 3d b4 e6 74 be
       0.11838999 0.10680413 0.04702684 -0.23916131
000030 18 ab 6b 3e 47 6a b3 3e f8 0c cb 3d a2 bd 06 3e
       0.23014486 0.3504202 0.09914583 0.13158277
000040 95 15 28 3e c9 bd 8b be cc 88 d5 3d 20 c6 f5 3d
       0.16414483 -0.27293232 0.104264826 0.1200068
000050 a6 db 40 be ef 39 5b 3e 13 20 80 3e 94 2d 40 3e
       -0.18833789 0.21408819 0.2502447 0.18767387
000060 f3 a2 a6 3e 9d 89 b5 bd a1 99 89 3e 34 82 bc 3d
       0.32546195 -0.08864138 0.26875022 0.09204522
000070 8e f0 09 3e e7 07 65 3d 98 e5 4f 3e f7 c5 ee 3d
       0.1347067 0.05591574 0.20302427 0.116588525
000080 2a 37 8c 3c 00 42 50 be ee 47 9c 3e 2b 52 3f 3e
       0.017116148 -0.20337677 0.30523628 0.18683688
000090 ec 74 4b be cd f4 9f bb 51 42 30 be 4b 97 88 be
       -0.19868821 -0.0048814774 -0.17212798 -0.26677927
0000a0 57 63 f0 3d 76 10 00 3e c1 7d b1 bd 36 af 86 3e
       0.117376976 0.1250628 -0.08666564 0.2630555
0000b0 47 64 83 3e 69 db 5b bd e9 d7 fc bd 57 4e 68 3e
       0.25662443 -0.053676043 -0.12345869 0.22686134
0000c0 f2 38 a8 bd 50 b3 0e be 8a 05 04 3e af 77 a6 bd
       -0.082139865 -0.1393559 0.12892738 -0.081282966
0000d0 7c ff 0b 3e 0b 96 c3 3e 5b 82 b1 bc bb 52 a2 be
       0.13671678 0.3820041 -0.021668604 -0.31703743
0000e0 f6 6b 49 be d2 31 4a be 3f f3 8f bc 98 60 b4 3d
       -0.1967009 -0.19745567 -0.017572043 0.08807486
0000f0 c1 d9 aa be 31 0a 2e bc a0 a2 2d be 46 ff a5 3e
       -0.33369258 -0.010622547 -0.16956568 0.3242132
000100 92 ae 99 3d 4b a1 0b 3e 07 02 7e be 91 7e 84 3e
       0.07504 0.13635747 -0.24805461 0.25877813
000110 09 1d 21 3e 38 c2 46 3e 40 b9 8c 3c 26 fe 15 3e
       0.15733732 0.19410026 0.017178178 0.14647731
000120 cc 9e 79 bc b5 7d ee 3c 4b 39 0e bd b0 6b 20 be
       -0.015235614 0.029112676 -0.034722608 -0.1566608
000130 19 a9 90 bd 1e 9e f5 3d b6 42 6e 3e e1 26 4f 3e
       -0.07063503 0.11993049 0.23267636 0.20229675
000140 8a b1 2c be 5b 71 8e 3e f1 85 bf 3d 0e 75 06 bc
       -0.16864601 0.27820858 0.09351719 -0.008206619
000150 7b 5f 23 3e aa 7a 68 3e 4c 72 35 be a9 66 60 3e
       0.15954392 0.22703043 -0.17719382 0.21914162
000160 05 13 90 3e 18 45 c1 3c 2a 42 97 3e 12 ea 8f be
       0.2813951 0.023592517 0.29542667 -0.2810827
000170 01 a9 b1 3e b0 3c ab 3c d1 fb 66 3e 9f d6 83 be
       0.34699252 0.020902961 0.22556998 -0.2574968
000180 a3 cb 3b be 55 fd 0e 3e 8f a1 c9 3d 79 34 27 be
       -0.183394 0.13963826 0.09845268 -0.1632861
000190 7b b8 a9 bd e7 5a 03 be df a4 5f be 6d 09 c9 bd
       -0.0828714 -0.12827645 -0.21840237 -0.09816251
0001a0 e1 61 76 bf 8f 14 77 3d 32 68 eb bd d2 59 35 3e
       -0.962431 0.06032234 -0.11494483 0.17710045
0001b0 4a 70 8c bf 2c d6 75 3e ed 5e 2a 3e 49 c4 10 3e
       -1.0971768 0.24007481 0.16637774 0.14137377
0001c0 ea e5 e2 bd 5e 6c 9d bd a1 92 c7 bf fd 37 e0 3c
       -0.11079009 -0.07686685 -1.5591623 0.027370447
0001d0 6b 9e 09 be dd 2b ae 3d c7 0b 46 be eb b6 9c bd
       -0.13439338 0.0850446 -0.1934043 -0.07652076
0001e0 f8 f5 01 be 5c 84 33 3e 36 48 61 3e c7 0c 40 3e
       -0.12691486 0.1753096 0.22000203 0.18754874
0001f0 ac 6f 9f 3d 73 c8 27 3e 6c d2 2f be 32 ee 07 be
       0.077849716 0.16385059 -0.17170113 -0.13274458
000200 c2 30 b0 bd 98 fd 09 be b5 0f c9 bd e7 47 67 be
       -0.0860305 -0.13475645 -0.09817449 -0.22586022
000210 c4 11 7f 3e 63 5f 18 bc 88 a6 3d be 9e 47 27 bd
       0.24909121 -0.009300086 -0.18520558 -0.040839784
000220 2c 10 61 3e ec a9 47 be 5f 52 11 be df 80 e9 bc
       0.21978825 -0.19498414 -0.14191578 -0.028503833
000230 93 61 9c bd b0 81 53 be 9a 10 2b 3c 24 fc 20 3e
       -0.07635798 -0.2065494 0.01044097 0.15721184
000240 2d fa b6 3c e3 e4 57 3d 00 dc 8c 3e f7 a2 86 bb
       0.02233609 0.052708518 0.27511597 -0.0041087824
000250 50 43 6b 3e 97 83 bc 3d ea a5 3b 3e b4 79 3c 3e
       0.22974896 0.09204786 0.1832501 0.18405801
000260 0c a4 4c 3e ae cd 2c 3e 35 a0 cd 3d cb 37 bb 3b
       0.19984454 0.16875336 0.10040323 0.005713438
000270 39 a9 8b bc 6f 7c a7 3d 7e 6b 11 bf ef f2 82 3e
       -0.017048465 0.08178031 -0.56804645 0.2557597
000280 10 5b 0b 3e 75 84 7c 3e 18 20 b2 bc 4c b0 f5 3d
       0.13608956 0.24659903 -0.02174382 0.119965166
000290 80 2e 34 3e 76 9a bc 3d 62 b9 39 3e 21 7e 31 be
       0.17595863 0.092091486 0.18137124 -0.1733327
0002a0 4b ba 01 3e a4 82 54 be 33 1a 15 3e e3 8b 93 be
       0.12668721 -0.2075296 0.14560775 -0.28817663
0002b0 6c 50 94 3d 9a b4 2e bf 10 90 46 be 6b 7b c4 bd
       0.07241902 -0.68244326 -0.19390893 -0.095938526
0002c0 61 f3 0e 3e 3e 12 3f be 5c 1b 47 3e dd e7 24 be
       0.13960029 -0.18659303 0.1944403 -0.16104074
0002d0 3f f6 b2 be 0c 2b 26 3a a3 a2 9f be 17 17 83 bf
       -0.34953496 0.0006338812 -0.3117877 -1.0241421
0002e0 73 f2 97 3e 92 65 8c 3e cf 0d 2a 3d 5a ad 74 be
       0.29677162 0.27421242 0.041517075 -0.23894253
0002f0 bc 2a 69 3e 38 df 47 3d e7 08 1e be 68 e1 59 bf
       0.22770208 0.048796862 -0.15433083 -0.8510957
000300 f0 e0 56 bd 9c b2 cf 3d 11 47 1a 3e be b4 12 3e
       -0.05246061 0.10141489 0.15066172 0.1432676
000310 f8 bc ad 3d 31 cc 97 3d d2 21 45 bd 82 b2 2c be
       0.084833086 0.07411993 -0.048127957 -0.1686497
000320 85 16 a0 bd ea 5e a1 bd fe 21 8e 3d 59 c4 85 be
       -0.07816795 -0.078794315 0.06940077 -0.26126364
000330 96 43 0f 3e 51 24 a3 3e 86 73 18 3e 94 c6 45 3c
       0.13990626 0.31863645 0.14887819 0.0120712705
000340 f0 9b 81 3e 26 c2 ef 3d f7 1a 58 3e 16 e9 c0 3d
       0.25314283 0.11706953 0.21104036 0.094194576
000350 15 cd 83 3e 2c 5a 35 3e bd 6a 90 3e 75 8b 3b be
       0.25742403 0.17710179 0.28206435 -0.18314917
000360 5f f1 65 bd ec 82 39 3e 47 39 3e bf 08 d8 43 bd
       -0.056138393 0.18116349 -0.7430615 -0.047813445
000370 b2 4a 0c 3e eb f3 5a 3e fc fe d0 be ce dd 6a be
       0.13700369 0.2138211 -0.40819538 -0.22936174
000380 b6 bb 88 bc 2e 7d 36 be 2c 87 ca 3d 8b c6 a8 3d
       -0.01669107 -0.1782119 0.09889063 0.08240994
000390 43 6d 7d be 3c 3d 8b be 30 b2 5e bc c6 70 f3 be
       -0.24748711 -0.27195156 -0.013592288 -0.47546977
0003a0 36 fd 4b 3d 57 3c 53 be 39 0d ad be ae e2 8a be
       0.049802028 -0.20628487 -0.3379915 -0.27126068
0003b0 aa c2 d0 bc de 4a 77 3e 5c 61 94 bf 34 04 82 3e
       -0.025483448 0.24149653 -1.1592212 0.25393832
0003c0 b3 77 f6 3d d5 19 9f 3e ea 4f cb bd f8 1e a6 3b
       0.120345496 0.31074396 -0.09927352 0.0050696097
0003d0 63 5f 25 be d6 a6 51 be 93 c0 42 be 69 f7 9d 3e
       -0.16149668 -0.20473799 -0.19018774 0.3085282
0003e0 7b 19 3c 3e 14 aa c1 bd 32 a1 0b be d0 f6 40 3e
       0.18369095 -0.09456268 -0.1363571 0.18844151
0003f0 69 b0 a2 bb 01 31 33 bd 5e 5b 4c be d4 56 13 be
       -0.0049648774 -0.043747906 -0.19956729 -0.14388591

encoder.conv.convs.2.bias f4 [40]
000000 94 eb c8 3c a0 22 90 ba ea c1 16 bd 6d 7f db 3d
       0.024526395 -0.0010996647 -0.036806025 0.10717664
000010 52 e5 45 bd 0f be cc bc c0 0f 03 bd ef cd 5e bc
       -0.0483144 -0.02499297 -0.031997442 -0.013598903
000020 f7 9a 38 bd b3 61 c3 3d ca f7 b9 3c 9b 6f c7 bb
       -0.04506966 0.09540119 0.022701163 -0.0060863025
000030 c6 01 5d b9 ff 3b 8a bd 72 7f aa 3c 9a 24 53 bd
       -0.00021076863 -0.067497246 0.020812724 -0.051548578
000040 94 88 9e 3d f5 74 96 3d 39 e8 47 3c 4a 31 ba bd
       0.07740894 0.073465265 0.012201362 -0.090914324
000050 f7 b5 7a bd 4c f6 8f 3d 8b 70 ac 3d 27 0f 16 bd
       -0.06120869 0.07029399 0.08419903 -0.036635544
000060 68 97 20 bd 6a 61 1c bd 2e 5e 65 3d 15 9a 57 bd
       -0.039206892 -0.03817884 0.05599802 -0.05263718
000070 7b b5 49 3d 79 b6 d2 3c 2e 51 07 bd c3 8e 35 3c
       0.04924534 0.025721775 -0.033036403 0.0110814
000080 45 82 f0 3d 4d 03 37 3d 65 c5 90 3d 2e 2d a2 bc
       0.11743597 0.044680882 0.070689 -0.019796934
000090 05 20 9f bd f0 e1 c1 3d cb 07 f6 3d 76 52 ce bd
       -0.07769779 0.09466922 0.12013205 -0.10074322

encoder.conv.convs.2.lin.weight f4 [40, 40]
000000 92 0a 17 3d f5 19 68 3e 5c 51 51 bd 14 d0 6d 3e
       0.036875315 0.22666152 -0.05110298 0.23223907
000010 eb e1 8f 3d 16 82 c8 3d 5f a0 e0 3d 7e e1 74 be
       0.07025512 0.09790437 0.10968088 -0.23914143
000020 71 c6 51 3e 6b fe 9c 3d 4d 28 80 3e d7 77 e7 bd
       0.20485856 0.07665714 0.25030747 -0.113021545
000030 d9 68 fc 3c 55 4e 83 3e da 81 48 3e b6 91 8e 3e
       0.030811714 0.256457 0.19580784 0.27845544
000040 15 8d 86 3d 90 2a 2a bd b0 05 34 be 27 14 03 3e
       0.06569878 -0.041544497 -0.17580295 0.12800656
000050 0e 85 0c 3e b4 eb b1 3c 7e 2b 82 be 02 46 ff 3d
       0.13722631 0.021718837 -0.25423807 0.12464525
000060 40 af 38 3e d7 fa 32 bf f4 b8 2e 3e 21 4a cc 3c
       0.18035603 -0.69914 0.17062742 0.024937691
000070 a9 c1 11 3d a7 5a 92 bd e5 d6 45 bd f5 f3 72 be
       0.03558508 -0.07146197 -0.048300643 -0.23725875
000080 1d 51 41 3e 0a 1e 23 3e e5 7a c5 3c 3a ac b3 be
       0.18878599 0.15929428 0.024106452 -0.35092336
000090 4d 0f 85 bc ce 01 34 be 1d 01 8b be 83 5f b5 be
       -0.016242648 -0.17578813 -0.27149287 -0.35424432
0000a0 a3 25 9c bc 28 e8 6d 3d a8 2d 55 3e d4 1b 64 be
       -0.019060915 0.05808273 0.20818198 -0.2227624
0000b0 9e fe 27 3e ec 4a 60 3e 68 0a 9d bd 51 5c f9 bd
       0.16405722 0.2190358 -0.076680005 -0.12175811
0000c0 af a8 79 3c 7e d4 e7 3b 48 86 bc 3d 39 fb bd 3d
       0.015237971 0.0070748916 0.092052996 0.092764325
0000d0 70 72 51 be 72 ec 49 3e 0e 12 37 3e c3 1c 9b 3e
       -0.2045381 0.19719103 0.17877981 0.3029538
0000e0 65 4c 59 3e c7 46 8b be ed 1b 96 3d 10 25 28 bd
       0.21220548 -0.27202436 0.07329545 -0.04105097
0000f0 f9 b4 08 be 02 16 79 3e 09 33 07 3d 95 95 02 bd
       -0.13350286 0.24324802 0.033007655 -0.031880934
000100 c3 b9 82 3e ce 05 3a be 1f 15 51 be 02 ed 30 3d
       0.2553235 -0.18166277 -0.20418213 0.04319478
000110 11 f6 15 3e 7f 84 90 be 43 37 28 be be 0b 99 be
       0.14644648 -0.28226086 -0.1642733 -0.2989177
000120 88 97 7e 3e 9b 27 75 bb 1a f8 0b 3e 0e 0c 07 be
       0.24862492 -0.003740764 0.13668862 -0.13188192
000130 78 5d a8 3d 31 f5 4a 3b b7 66 04 be 28 85 57 3e
       0.08220953 0.00309689 -0.12929808 0.21046889
000140 74 85 42 be 1f 2f 84 3d 84 e4 90 3d 83 bc 29 3e
       -0.18996221 0.064543 0.07074836 0.16575818
000150 e2 33 19 3e cd 44 8b be 7d ee b1 bd fc 52 1a bd
       0.14961198 -0.27200928 -0.08688066 -0.037676796
000160 81 bf 99 3c a1 b0 c2 be 11 ef 1b bd f4 ca a4 be
       0.018768074 -0.38025382 -0.03806979 -0.3218609
000170 72 aa d1 bc b8 cf 72 3e 9d ea 81 3e 71 8f ac 3e
       -0.02559397 0.23712051 0.25374308 0.33703187
000180 2e 21 45 3e f3 ef 24 3a 49 e1 88 3e 52 13 62 3e
       0.19250938 0.0006291859 0.2673438 0.22077683
000190 fe f9 93 3d 80 05 c1 bd 30 8a 51 3e 26 94 19 3e
       0.072254166 -0.09424877 0.2046287 0.1499792
0001a0 77 b9 df 3d 1a 6d b4 3e 44 df 5a 3e 39 d3 03 bc
       0.109240465 0.35239488 0.21374232 -0.008045965
0001b0 58 9b a3 be 84 f5 54 3e db 5b 14 3e d3 fb b3 be
       -0.31954455 0.20796782 0.14488165 -0.35153064
0001c0 7a f4 d0 3e 89 0b 7e 3e 8d 8d 9f 3d 74 7d 86 3b
       0.4081152 0.24809088 0.077906705 0.0041043106
0001d0 d6 e9 de bd 05 88 d7 3d 63 59 1c 3e 95 c4 9d bd
       -0.108844444 0.105239905 0.15268473 -0.07703511
0001e0 c5 46 1d 3d f4 5e 89 3e bb 0f 34 bd 93 dd 14 be
       0.03839757 0.26830256 -0.043960314 -0.14537649
0001f0 1f 92 d1 bd 0a 65 b8 be 89 ae ce 3d 98 03 e7 3e
       -0.102329485 -0.36014587 0.10091884 0.4511993
000200 73 02 ca 3b 45 2c 22 3f 4b 0f dd be 2f a6 e3 3e
       0.0061648428 0.633488 -0.4317573 0.44462726
000210 7e ed 27 be 66 57 12 bd 16 94 91 be 7b f1 bc 3d
       -0.1639919 -0.03572788 -0.28433293 0.09225746
000220 cf 26 9d 3e da db 0a 3d 0b f1 a6 be c8 b9 56 be
       0.3069367 0.033901073 -0.32605776 -0.20969307
000230 cb a9 3e 3e fc 64 e7 3e d3 b7 74 bc 9c 52 87 bd
       0.18619458 0.45194232 -0.014936405 -0.06607553
000240 0e 2c ff 3d 59 c2 55 be 62 72 13 be c2 2d c2 3c
       0.12459575 -0.20874919 -0.14399102 0.02370346
000250 d8 bc 4e bd d6 c2 6b 3e 56 60 59 3e 2a 17 00 bf
       -0.050473064 0.23023543 0.21228155 -0.50035346
000260 a3 4e 0b be 90 a8 20 bf 16 c1 94 bd 53 a3 e6 bd
       -0.13604216 -0.62757206 -0.07263391 -0.112616204
000270 45 2a a3 be 16 61 14 3e a9 fd 52 be cb f6 b0 bd
       -0.31868187 0.1449016 -0.20604576 -0.08640822
000280 e8 1a f7 bd 20 c7 62 bd fa 6e e5 bc a7 cc 0f 3e
       -0.12065679 -0.05536568 -0.02800702 0.14042912
000290 d1 69 54 3e a9 33 d8 bd d4 a1 44 3e 28 3a 6b bd
       0.20743491 -0.105567284 0.19202358 -0.05742851
0002a0 d0 cb 0b be b0 0c bf 3e 5a d9 2c be eb cc a7 bd
       -0.13651967 0.37314367 -0.16879788 -0.08193382
0002b0 54 27 92 3d e0 ba 6c be fc b5 59 be ba 42 ce bd
       0.071364075 -0.23118162 -0.21260828 -0.10071321
0002c0 5f 5e 13 bf 18 23 dc 3d 79 b1 13 3e be c8 bd 3e
       -0.57565874 0.10748881 0.14423169 0.37067217
0002d0 cc 3e 91 3e 03 4b 0f 3e a0 7e 39 3e 53 52 bf 3d
       0.28368223 0.13993458 0.1811471 0.09341874
0002e0 0d 30 2e be 0d 07 3a bc 92 60 0c bc 5e 8f 57 3e
       -0.17010517 -0.01135422 -0.008567946 0.21050784
0002f0 2a 80 8a 3e 4b 75 07 be 66 82 0d 3e 95 82 e1 3a
       0.27050906 -0.13228337 0.13819274 0.0017205054
000300 30 13 20 3e 0b 3d 85 3e 37 bb d5 3d 4d e1 5b 3d
       0.1563232 0.26023135 0.10436099 0.05368166
000310 83 11 a4 3e 1f 09 d6 be f8 2d 81 3e 4b 13 6c 3d
       0.3204461 -0.41803834 0.25230384 0.057635587
000320 a5 62 13 be f5 f9 27 be ff f0 96 be 72 41 33 3d
       -0.14393099 -0.16403945 -0.2948074 0.043763585
000330 a3 65 ff 3d 16 8c 23 bd db a4 5c be 6a 18 e7 3d
       0.124705575 -0.03992852 -0.21547262 0.112839535
000340 ed 78 4f bd e2 96 07 3d 02 16 59 be 17 15 d7 3d
       -0.050652433 0.033102877 -0.21199802 0.105020694
000350 54 77 39 be 20 d6 0e be 96 25 7f 3e 5b 9f 47 be
       -0.18111926 -0.1394887 0.24916682 -0.19494383
000360 91 50 81 3d b4 7b 9c be be 30 44 3e b0 4d 8e be
       0.06314195 -0.30563128 0.19159219 -0.27793646
000370 3e 3c bb be 65 b2 e6 bc e8 7a 75 be 04 db 81 bb
       -0.365694 -0.028161237 -0.23972666 -0.0039628763
000380 3f 65 f3 bd 33 49 ab bb 05 48 70 3e ed c7 fa ba
       -0.118845455 -0.005227232 0.23464973 -0.0019133069
000390 c4 ef 62 3e ae d3 5f 3e b5 a1 88 3d 76 4c ed 3d
       0.22161776 0.21858093 0.06671468 0.115868494
0003a0 9e 62 ca 3d ea 9f ff bd 30 30 87 3c 8d 23 2b 3e
       0.09882091 -0.12481673 0.01650247 0.1671278
0003b0 4f f7 f6 3d 48 ba 1a be 0a 53 24 3e 12 ae 81 be
       0.12058889 -0.15110123 0.16047302 -0.25328118
0003c0 d3 77 d9 3c 96 d2 9e 3d 9b 6e 05 3e 3e b0 9a bd
       0.026546394 0.0775501 0.13030474 -0.07553147
0003d0 33 4e b8 3d 1e 61 67 3e 61 a6 26 bd b5 16 f4 bd
       0.0899929 0.22595641 -0.040686015 -0.119183935
0003e0 e8 fb 20 be c1 8a bf be 2b 09 85 3e 67 21 eb bc
       -0.15721095 -0.37410548 0.25983557 -0.02870245
0003f0 9c e4 3e 3e ac db c8 bd ba 12 1b 3d 79 db 38 3e
       0.18641895 -0.09807524 0.037859656 0.18052472

encoder.conv.convs.3.bias f4 [20]
000000 68 7d 3a 3c 5f f8 80 3d 05 85 c3 bb 3d 96 07 3d
       0.011382438 0.06297373 -0.005966785 0.033102263
000010 50 a9 cb bb c4 d7 37 bd 24 34 03 3d 37 25 3b 3d
       -0.006215252 -0.044883505 0.032032147 0.045689788
000020 87 10 56 3d ab b5 1c 3d 67 d4 3b 3d e2 11 df 3d
       0.052261855 0.03825919 0.04585686 0.10892083
000030 44 cc 6b bc 0c 21 2f bc 52 02 c2 3d 00 00 00 00
       -0.014391962 -0.010689031 0.09473099 0.0
000040 75 72 81 bc 89 c8 e3 3c b4 80 9b 3c a9 9a e6 3c
       -0.015801648 0.027805584 0.018982269 0.02814992

encoder.conv.convs.3.lin.weight f4 [20, 40]
000000 4b 2f 76 3e ef 16 65 3e 85 df 4e 3e 1b 11 d2 3d
       0.24041478 0.2237203 0.20202453 0.10257169
000010 9f 2e e8 3e 00 32 ab bd f3 1b 9d 3c 75 c9 3c be
       0.4534807 -0.08359146 0.019178366 -0.18436225
000020 7b 13 7f 3a 8c 11 73 3e a8 f3 b5 3d 9b 1f bf bd
       0.0009730381 0.23737162 0.08884364 -0.093322
000030 ef a6 57 3e 8e 7f 7c bd 20 e2 7e be a6 73 1a 3d
       0.21059774 -0.061645083 -0.24890947 0.037707947
000040 f0 60 01 bf 43 d8 66 3e 39 0f 5e 3e aa 60 21 3e
       -0.5053854 0.22543435 0.21685494 0.1575953
000050 27 0c 93 bd c4 6d 7b be c4 fd 89 3e ff 6a 53 be
       -0.07180052 -0.24553591 0.2695142 -0.20646285
000060 8f f4 28 3e 48 4c e0 3d a9 7d 71 3e b4 27 63 bd
       0.16499542 0.109520495 0.23583092 -0.055457786
000070 fb 10 92 3e db bf 26 be 1c 2b 6f 3b 11 f7 d1 3d
       0.2852858 -0.16284125 0.00364942 0.10252202
000080 b3 19 a1 3d 90 7b 8b 3d 35 33 87 3e e1 22 f1 be
       0.0786623 0.06810677 0.26406255 -0.47096923
000090 cb d3 c1 be 6e 20 69 3d ce 4a 49 3e f1 53 b6 3d
       -0.37856898 0.056915693 0.19657442 0.08902729
0000a0 5f 1c 1e 3e 18 89 89 3e f9 5c 5e be c8 63 2e 3e
       0.1544051 0.26862407 -0.21715154 0.17030251
0000b0 3c da ff be 48 b3 b9 bd fc 97 94 be b6 d7 96 be
       -0.49971187 -0.09067398 -0.29022205 -0.2946145
0000c0 f6 24 a7 bd f2 a2 a2 3e 6c d5 9a 3e 52 67 41 3e
       -0.081613466 0.31764942 0.30240953 0.1888707
0000d0 a8 83 20 bd 1f 8d 5a be 24 e7 ff be 79 c8 7c 3e
       -0.039188057 -0.21342896 -0.49981034 0.24685849
0000e0 60 d1 56 be 7a 1f 89 3e 30 d5 ff bc 41 a8 df be
       -0.20978308 0.26781827 -0.031229585 -0.43683055
0000f0 9a a3 71 3c b4 d0 46 bf e0 fd 9d be 3d 23 f5 3e
       0.014748478 -0.77662206 -0.30857754 0.47878447
000100 d0 fa 79 be c5 1c 19 3d 95 67 33 3e 01 95 84 be
       -0.24412084 0.037380952 0.17519982 -0.2589493
000110 f7 2a be bd 29 02 18 be bf 42 2d 3d 26 ed d2 bd
       -0.09285539 -0.14844574 0.042299982 -0.10299139
000120 07 be 92 3e 45 d5 b7 bc cf a6 ce 3d 6b 09 e6 be
       0.28660604 -0.022440562 0.1009041 -0.4492906
000130 c3 12 ad be 15 95 ad be 17 6c 17 3d 83 71 04 be
       -0.33803377 -0.33902803 0.036968317 -0.12933926
000140 20 03 7f 3e 2d c1 20 3d 1e bc 67 3e b1 54 df bf
       0.24903536 0.039246727 0.22630355 -1.7447721
000150 a3 41 cd 3e 3f 02 85 3e d3 5a 62 3c f7 e8 37 be
       0.4008914 0.25978276 0.0138155995 -0.17959963
000160 d3 41 81 3e cd 34 88 3e f0 a2 1e 3d a8 c8 ca bd
       0.25245532 0.26602784 0.038729608 -0.099015534
000170 15 66 08 be 49 93 1c 3d 3d b7 c5 be 81 83 be 3d
       -0.13320191 0.0382264 -0.38616362 0.09302426
000180 2c 8f 0f bf 73 b3 28 bd 00 91 33 3e 2b d0 c3 3d
       -0.5607784 -0.04118676 0.17535782 0.09561189
000190 30 3b 60 be ea 29 b6 be 93 92 3c 3e 83 33 1d 3e
       -0.21897578 -0.35578853 0.18415289 0.15351681
0001a0 f3 f8 ae bd 97 ff 82 3e a9 f9 88 bd a5 c4 17 3d
       -0.08543577 0.25585625 -0.06688244 0.03705277
0001b0 56 64 b1 3e e3 79 83 be bf 6f d7 bd 6a 00 29 3e
       0.34646863 -0.2567893 -0.10519361 0.16504064
0001c0 26 e3 0c bf ea 4b 67 be eb f8 19 be f0 ad c0 3c
       -0.550341 -0.22587553 -0.15036361 0.02352044
0001d0 2d f5 99 be a1 f3 de bf 8b 24 da be 0b 34 22 3e
       -0.30069867 -1.74181 -0.42606005 0.15840165
0001e0 c0 c3 ad 3d e3 61 2f be dd c7 b3 3c 95 44 0d be
       0.08484602 -0.17127185 0.021945888 -0.13795693
0001f0 f4 4c 9e be 34 bf 0c be 80 d6 17 bf 54 6f 90 3d
       -0.30918086 -0.13744813 -0.59311676 0.07052484
000200 d5 19 8d 3d cc 80 c6 3e a6 64 83 3e 6c ac 6e 3e
       0.06889693 0.3877014 0.25662726 0.23307961
000210 d6 ef 3d be 3c 62 10 be f5 20 10 bf 82 16 4f be
       -0.18548521 -0.14099973 -0.5630029 -0.2022343
000220 2b 72 9d be 36 a5 04 be 06 31 9c 3d 56 33 c4 be
       -0.30751166 -0.12953648 0.07626538 -0.38320416
000230 74 e0 0a 3e 75 d1 29 bf d0 79 20 bd 40 d8 67 be
       0.13562185 -0.6633523 -0.03917867 -0.22641087
000240 82 f4 2c be 4a c2 8e 3d c7 8a 83 3d f5 e5 94 be
       -0.16890147 0.069706514 0.06422954 -0.29081693
000250 76 73 fb be c7 3b 11 3d 58 9d 2f bc 82 1d d1 3e
       -0.49111527 0.0354574 -0.010718666 0.40842825
000260 cf aa f0 3b cc 99 0e 3d d9 e6 a9 3e f5 9e 37 3e
       0.0073445807 0.03481464 0.33183935 0.17931731
000270 4b 79 f0 be 7f 90 23 3e b5 e6 a8 3e 40 e6 dd bc
       -0.4696754 0.1597309 0.32988515 -0.02708733
000280 21 4e 4a be 61 b7 a5 bd fc 59 15 be 2c 23 a7 3c
       -0.19756366 -0.080916174 -0.14585108 0.020402513
000290 5b f0 92 be ed 91 89 3e 18 9c 78 be 73 16 99 bd
       -0.28699002 0.26869145 -0.24278295 -0.07474985
0002a0 03 7f 80 3e da d5 11 be b2 61 90 3d 06 01 99 3e
       0.25096902 -0.14241734 0.07049884 0.29883593
0002b0 f8 eb 99 be 36 cf 92 be 72 40 73 3e f4 8a a4 be
       -0.30062842 -0.28673714 0.23755053 -0.32137263
0002c0 0f f3 5e 3e 04 e3 a6 be 95 83 f0 3d 24 6c 3c be
       0.21772407 -0.32595074 0.11743847 -0.18400627
0002d0 12 fb 67 3e 6c 59 5f 3d 56 33 c9 bd 47 48 98 bd
       0.2265437 0.05452864 -0.09824245 -0.07435661
0002e0 70 02 0f be 9a bf c2 bd 4c da 12 be 21 9e 67 3d
       -0.13965774 -0.09509201 -0.14341086 0.056547288
0002f0 20 aa 3d 3d c9 5c 77 3e 93 64 1c 3e 94 7d 1b 3d
       0.046304822 0.24156488 0.15272741 0.037961558
000300 d7 71 2a 3e bd df 3c be 62 cb 7e be 6c 56 ed bc
       0.16644989 -0.18444724 -0.24882272 -0.028971873
000310 33 e4 9d 3e 25 63 30 3e 76 84 fc bd 7b 12 16 3e
       0.30838165 0.1722532 -0.123299524 0.14655487
000320 c8 a2 25 3d 16 3d 8f 3c f2 d7 7b 3d 78 93 55 be
       0.040438443 0.017485183 0.06148524 -0.20857036
000330 9d 86 a1 be 4d 75 86 be cc 1e 82 be aa e1 9e be
       -0.31548014 -0.26261368 -0.2541412 -0.31031543
000340 31 a5 98 be 2b 50 2f be 73 29 dd 3d e2 5c b3 3d
       -0.2981353 -0.17120425 0.107989214 0.0875795
000350 d5 dc 61 be 13 0a fc bb 67 8d 57 be fe 53 24 3c
       -0.22056897 -0.0076916306 -0.21050034 0.010029791
000360 2e 3d 3c 3d 0e 07 38 3b af 27 91 be d6 f4 5e be
       0.045956783 0.0028080377 -0.2835059 -0.21773085
000370 c9 d9 2b 3e 99 1f 2a 3e 5f 5d 8d 3e 43 e0 64 bc
       0.16782297 0.16613616 0.276103 -0.013969484
000380 fb 59 30 3d cf ad 2b be 53 8a 08 be cd e3 31 3e
       0.043054562 -0.16765521 -0.13334017 0.17372055
000390 c2 49 c1 bd 0d 46 96 be 1c 30 ef 3d 22 c5 e9 bd
       -0.09437896 -0.2935032 0.11679098 -0.11414553
0003a0 16 d8 8b be b1 d9 1c be d8 01 a7 be ce 40 bc bc
       -0.27313298 -0.15317418 -0.32618594 -0.02298012
0003b0 77 b9 38 3c 64 f8 50 3d 2d b3 40 3e c8 51 44 3d
       0.011274687 0.051018134 0.1881835 0.047929555
0003c0 6f 9f 50 bd 43 bb 24 bd 70 b6 e8 bd 0d ef 0d be
       -0.050933298 -0.04021765 -0.11362922 -0.13860722
0003d0 47 0b 20 bd fb f5 84 3d 84 d3 49 be 8f b8 57 3d
       -0.039073255 0.064922296 -0.19709593 0.052666243
0003e0 c0 83 ac 3d ed 2b 1e 3e f6 87 89 3e 4c ae a8 3d
       0.08423567 0.15446444 0.26861542 0.082363695
0003f0 ba de 94 be be 3b e8 be fb 4c 54 3c 34 ea c5 3d
       -0.29076177 -0.4535808 0.012957807 0.09663811

encoder.embed_x.weight f4 [28, 40]
000000 78 c0 15 bf 16 54 0b c0 9b 23 a4 3f e4 30 b2 3f
       -0.5849681 -2.1770072 1.2823366 1.392117
000010 88 cc b8 3f 84 30 6e 3f 19 fd ba 3d 69 2f 05 3f
       1.4437418 0.9304278 0.09130306 0.5202547
000020 a3 06 ed 3d 2d 58 40 bf e8 22 ef bf 5d fd 62 3f
       0.115735315 -0.75134546 -1.8682528 0.8866785
000030 96 ac ca bf 1c 7d b2 3d 12 82 ee bf ea e1 39 3f
       -1.5833919 0.08715269 -1.8633444 0.7261034
000040 61 b7 b9 be b4 ac 10 3f 4c 6f df 3e 88 66 37 3f
       -0.3627272 0.56513524 0.436396 0.71640825
000050 24 02 7e be 89 1c 06 c0 92 aa f6 be 74 ab d0 bd
       -0.24805504 -2.0954916 -0.4817701 -0.10188952
000060 7b 29 83 bf fa 02 02 3f f2 6e 0e bf df 55 f2 bd
       -1.0247034 0.5078579 -0.5563804 -0.11832785
000070 0a 79 f9 be 30 a2 73 3f 4a 76 02 bf a4 40 06 3e
       -0.48725158 0.95169353 -0.50961745 0.13110596
000080 b7 ec 1e bf 8b 1d e3 3e 7c e9 20 bf b4 9d 8a 3c
       -0.6207995 0.44358477 -0.6285627 0.016920902
000090 bc 3b e6 bf 4b 13 2d 3f 5c e3 e4 3c 79 87 44 3e
       -1.798698 0.67607564 0.027940445 0.19192304
0000a0 7b a3 89 bf aa 2a 2e 3e 11 94 b3 be 81 a2 5a 3f
       -1.0753015 0.17008463 -0.35073903 0.8540421
0000b0 a0 c1 cd 3e e6 5d 03 3f ed 4d b5 3e 36 5b 8e 3f
       0.40186787 0.5131515 0.35411015 1.1121585
0000c0 6b ce b0 3e 30 c6 74 bf bc 2f 97 3f ac 2d e1 bf
       0.34532484 -0.9561491 1.1811442 -1.7592063
0000d0 f4 80 75 be 1d d7 4e be b0 b8 33 3f 15 05 f4 3d
       -0.23974973 -0.20199247 0.70203686 0.11915032
0000e0 f1 3d 3e 3f 3a b4 07 3f 59 94 a8 3e 7d d3 a9 bd
       0.74313265 0.5300938 0.3292568 -0.08292291
0000f0 55 26 3e 3e 79 7c c7 be 80 ed e2 3e d2 72 84 3f
       0.1856931 -0.38962153 0.44321823 1.034754
000100 ed 4f 6e 3e 0b 49 15 c0 df 92 75 3f 9f 4a c9 3f
       0.23272677 -2.3325832 0.9592723 1.5725898
000110 de 4a b3 be b9 57 6d 3f ca 9c bf 3e 85 1b f2 bf
       -0.35018057 0.9271198 0.37424308 -1.8914648
000120 75 23 fc bf e5 43 a5 3e ad 3a 06 3f 1e d5 83 3e
       -1.9698321 0.32278362 0.5243328 0.25748533
000130 e7 77 b0 3f 3b e4 4e bf fe d2 03 3f bb 5b ea bf
       1.3786591 -0.80817 0.51493824 -1.8309244
000140 26 46 8f bf 0d 63 8c 3f 6b 1f c1 be 65 c3 08 c0
       -1.1193283 1.0967728 -0.37719283 -2.136926
000150 47 3a d4 bf 1c 4a 8e 3e 26 36 08 c0 5c ad 2c 3e
       -1.6580285 0.27790916 -2.128305 0.16863006
000160 f5 b9 ff be 31 ea 65 3f 3e a4 c3 bf ef 79 b4 bf
       -0.4994656 0.8981047 -1.5284498 -1.4099711
000170 8b 84 87 3f be 47 8b 3d 83 09 6d bf 77 40 fb 3d
       1.0587324 0.06800793 -0.9259264 0.12268155
000180 cd c4 9a be 1f 3e 96 3f 3f e6 73 3d b9 d1 07 bf
       -0.30228272 1.1737708 0.05954575 -0.53054386
000190 45 fc 83 bf 42 03 cc 3e cf 3a 40 3f 4d 90 9e bf
       -1.0311362 0.39846236 0.75089735 -1.2387787
0001a0 b5 16 46 3f f2 3e bd 3f 3c a2 d0 bd 0c 64 a0 3e
       0.773784 1.4784834 -0.10187194 0.3132633
0001b0 b8 b3 12 bf 05 a9 85 3f 81 3b 87 bf bb 42 e0 be
       -0.5730548 1.0442206 -1.0565034 -0.4380091
0001c0 37 29 5e ba cb f4 8b be 22 88 99 3f 71 02 5a bf
       -0.00084747694 -0.273352 1.199467 -0.85159975
0001d0 bc d0 77 bf ad 30 8a 3f 9e 71 11 ba 7a b2 fd bf
       -0.9680288 1.0796105 -0.00055482413 -1.9820092
0001e0 2e e4 77 3f 57 09 6d 3f 53 e7 5c bf c0 1b ea 3f
       0.9683255 0.92592376 -0.8629047 1.8289719
0001f0 4e b5 78 bf e2 1e 2a 3e 9a 7c 35 3f 8c 98 02 bf
       -0.9715165 0.16613343 0.7089325 -0.5101402
000200 97 49 a1 be 5c e3 0e c0 c4 ee 50 bf 5c 7d 3c 3e
       -0.31501457 -2.232627 -0.8161433 0.18407196
000210 5b 4c 79 3f 62 c2 42 bf 16 56 47 bf 09 70 cb bd
       0.97382134 -0.76077855 -0.7786573 -0.099334784
000220 63 46 73 bf 4c cf 6a be d9 64 89 bf da 91 89 bf
       -0.95029277 -0.2293064 -1.0733901 -1.0747635
000230 c9 b1 78 be 4c d4 86 3f cd 80 b6 bf 87 c3 54 3f
       -0.2428657 1.0533538 -1.4258057 0.8311085
000240 b8 41 31 3e a4 88 59 3f f0 92 95 3f 54 df c5 bf
       0.17310226 0.8497412 1.1685467 -1.5458779
000250 4f 21 28 3f d1 4a a8 3d b4 a5 f2 3f 57 4e 82 3e
       0.65675825 0.08217395 1.8956819 0.25450394
000260 0f 5f 65 3f 5a 94 81 3e 5b f6 8e bf 81 b6 72 3f
       0.8959817 0.25308496 -1.1168932 0.9480973
000270 13 f0 61 c0 bd 04 8f bf 22 2f 91 3e 94 95 17 bd
       -3.530278 -1.1173321 0.28356272 -0.037007883
000280 7d 65 84 3e 37 78 19 c0 56 a4 6a 3f 2e a7 11 3f
       0.2585868 -2.3979623 0.91657007 0.5689572
000290 08 3c 33 bf 52 8e 33 c0 07 74 92 3f 3e 0f a4 be
       -0.70013475 -2.8055615 1.1441659 -0.3204288
0002a0 ba dd 09 c0 88 65 94 bf 10 d4 5c 3f aa 72 70 bf
       -2.154158 -1.1593485 0.8626108 -0.93924963
0002b0 94 c0 1b 3f d7 ca c4 3b 5b 7e a7 3e fa c9 f6 3f
       0.60840726 0.0060056257 0.3271359 1.9280388
0002c0 fc 6b d1 bd 8f 32 76 bf b3 56 0c bf ba 90 c0 bd
       -0.102256745 -0.96170896 -0.5481979 -0.094026044
0002d0 ab 7d b2 bd e8 d2 a0 3f df 37 d9 bf a2 a6 26 bf
       -0.087153755 1.2564363 -1.6970176 -0.6509801
0002e0 20 b5 6e 3f 95 89 af bf 22 ce eb 3e 59 5b 88 bf
       0.93245125 -1.3713862 0.46055704 -1.0652877
0002f0 42 58 cd bc 3f 12 76 3e f2 d2 a3 be 46 13 22 bf
       -0.025066499 0.24030398 -0.31996876 -0.6331066
000300 b1 65 5b bf a1 f0 82 3e a8 3a 15 bf c2 d6 8c 3e
       -0.85702044 0.2557421 -0.5829263 0.27507597
000310 a9 42 2a bf 32 27 3f 3f 66 f8 01 40 3e 80 86 bc
       -0.66507965 0.7466918 2.030786 -0.016418573
000320 16 a9 22 bf 18 40 72 3f ee 33 af 3e 6b 9e c0 3f
       -0.63539255 0.9462905 0.34219307 1.5048345
000330 bd 35 52 bf 9a 60 dc 3f fd 58 37 bf af cd ca 3f
       -0.8211325 1.721698 -0.7162016 1.584402
000340 d1 e0 ed bf d7 30 e9 bf 49 2b 25 3f 63 f1 0d 3f
       -1.8584234 -1.821803 0.6451917 0.5544645
000350 37 0e f8 be 72 95 78 bf 9d ff 8a bf 8a 43 7e 3e
       -0.48448345 -0.97103035 -1.0859257 0.24830452
000360 82 f2 f5 3f fd 7f 1f 3e f4 ef c5 bf c0 7e cc bf
       1.9214633 0.15576167 -1.5463853 -1.5976181
000370 2f 72 7f 3f ec d7 c7 3f b1 1e 8b bf cd e5 30 bf
       0.99783605 1.5612769 -1.0868741 -0.6910065
000380 78 c4 1e 3f 90 67 36 bf 91 09 29 3e d6 47 11 c0
       0.6201854 -0.71251774 0.16507556 -2.2700095
000390 51 3e 78 3f 37 dd b5 bf 27 60 87 3f 91 87 ff 3f
       0.9697009 -1.4208134 1.0576218 1.9963247
0003a0 8c 2a 8e 3f 97 2d 85 bf fc 9c 1b c0 6f 41 be 3f
       1.1106734 -1.0404538 -2.4314566 1.4863719
0003b0 9c 05 db bf 62 bc f3 be 30 af f9 3f e8 c3 ef 3f
       -1.7111087 -0.47604662 1.9506588 1.8731661
0003c0 4f b5 c8 3e 37 12 ce bf 14 a3 71 bf 11 f7 05 40
       0.39200827 -1.6099309 -0.9438946 2.0932047
0003d0 20 3a da bd 26 9c c8 be 09 19 0e bf 3f 59 f4 bf
       -0.10655618 -0.39181632 -0.5550695 -1.9089736
0003e0 bf 93 5d 3f 49 1b 67 3f 1e cf 02 40 9c 53 06 40
       0.8655357 0.9027601 2.0438914 2.098853
0003f0 e5 05 f1 3f dd 03 a4 bf 03 b3 18 40 df 01 a6 bf
       1.8829924 -1.2813679 2.385926 -1.2969321

encoder.conv_mu.bias f4 [20]
000000 08 d5 17 3e 3f 25 06 bd 8b ca 52 3d 6b 0d 13 3d
       0.14827359 -0.032750364 0.05146269 0.03590147
000010 99 a9 10 3e f5 b3 23 3d 98 e7 50 3d a4 2f e2 3c
       0.14127196 0.039966542 0.051002115 0.027610607
000020 13 9c 09 3d f3 1c 29 3d 46 7b 47 bd cd a3 a6 3d
       0.03359611 0.041287374 -0.048701547 0.08136711
000030 56 b1 e4 bc ac 92 91 bc 12 cc 88 3d 6a 0e 20 bd
       -0.027916592 -0.017770134 0.06679548 -0.039076246
000040 ec f5 e2 bc 9c 64 c1 bd fe 46 37 bd 99 fc 70 bd
       -0.027705155 -0.09443018 -0.044745438 -0.058834646

encoder.conv_mu.lin.weight f4 [20, 20]
000000 0a 6a 76 be 79 93 b8 3e 7b 32 53 3e 35 b4 c9 bb
       -0.24063888 0.36050013 0.20624726 -0.0061555156
000010 90 6b a0 be a6 35 c1 be e2 e6 a3 bd c1 1b 9d be
       -0.31332064 -0.37736243 -0.08003022 -0.30685237
000020 20 91 f9 3c 69 47 9e 3e f3 cd ac be ca 4f 19 3f
       0.030464709 0.30913857 -0.33750877 0.59887373
000030 b0 a9 2b 3d 73 92 67 be 0f 88 28 3e 82 c6 6a be
       0.041909873 -0.2261446 0.16458152 -0.22927287
000040 6d fc 11 3e cb 3c 25 3e 4f d3 4c bd 98 e2 57 be
       0.14256449 0.16136472 -0.050006207 -0.21082532
000050 88 fb 56 3e f1 2b e1 be f3 de aa 3d c4 da 1f bf
       0.20994389 -0.43978837 0.083433054 -0.62443185
000060 e9 12 97 be 72 fd 44 be 37 5f aa 3c 01 1a 23 3f
       -0.29506615 -0.19237307 0.020797355 0.63711554
000070 74 5a 7f 3e 1e a0 b5 be a9 d8 83 3c 12 e7 62 3e
       0.24936849 -0.35473722 0.016094523 0.22158459
000080 96 c2 4e 3e 15 af 8c 3e c4 12 64 bc 75 e5 54 be
       0.20191416 0.27477327 -0.01392049 -0.20790656
000090 d3 fb b4 be ce 79 5e be 2d 33 34 bf 3c 41 9b bc
       -0.35348377 -0.21726152 -0.7039059 -0.018952005
0000a0 d2 1d 94 bd 14 e3 0b bc 85 23 ed be a4 df f1 3e
       -0.0723225 -0.008538026 -0.46316162 0.47240937
0000b0 11 81 92 be 75 13 c8 3c 00 12 b4 3e 37 63 1b 3f
       -0.28614095 0.02442334 0.35169983 0.60698265
0000c0 e2 b4 ba be 8e a7 d1 3e 14 1c f6 bd cf ae 8e be
       -0.36466128 0.40948147 -0.12017074 -0.27867743
0000d0 61 af 98 3d 84 48 af 3e 6c 62 36 be b6 18 0f bd
       0.07455326 0.34235013 -0.17810982 -0.034935676
0000e0 c3 b2 1e 3d 60 9d c3 3e be 2b 73 be cb 21 39 be
       0.0387447 0.38206005 -0.23747155 -0.18079297
0000f0 69 a2 85 be d2 b6 8b 3e e9 2a c4 3e 76 a7 e4 3c
       -0.26100472 0.27287918 0.38313988 0.027911883
000100 c9 08 63 3e 56 8b 94 3e d6 bb e7 3e 08 21 cd bd
       0.2217132 0.29012555 0.45260495 -0.10016066
000110 39 02 1d 3e 5d a3 b4 3e 0a 4a ab be 59 33 16 bf
       0.15332879 0.35280886 -0.33454925 -0.586721
000120 52 bd 42 3e 6d 65 a6 be e0 e7 70 3d a3 02 95 bd
       0.19017532 -0.32499257 0.058814883 -0.072758935
000130 1e 8d 22 be ad 86 21 bf 99 34 f3 bd 8f 60 08 be
       -0.15874144 -0.63096124 -0.118752666 -0.13318084
000140 c6 5e f4 bd 18 78 05 be 01 e1 0c be 73 74 86 3c
       -0.11932139 -0.13034093 -0.13757707 0.01641295
000150 00 55 ab be 9b f0 7f 3e 93 c8 c7 3d 4e 5b 9c 3e
       -0.33463287 0.24994127 0.09755053 0.3053841
000160 ed d8 12 bf 31 4c 8f bd 28 48 5b bd a4 97 43 bc
       -0.5736225 -0.06996954 -0.05353561 -0.011938009
000170 12 95 85 be 72 70 37 bd 05 59 9d 3e 48 d4 56 3e
       -0.26090294 -0.04478497 0.3073198 0.20979416
000180 5a f0 08 be 8e e0 7f 3e 79 a0 88 be 46 a8 74 bd
       -0.13372937 0.24988005 -0.2668493 -0.05973079
000190 3d 5f 52 be d8 e3 ae be 2b 60 5f 3e 52 d4 90 be
       -0.20544143 -0.34158206 0.21814029 -0.28286988
0001a0 07 f4 f9 3d e8 0d 01 be 23 61 24 3e e2 30 95 be
       0.12204748 -0.12602961 0.1605268 -0.29138857
0001b0 29 c6 c7 bd be dc 8b be b2 18 12 be e7 32 6a be
       -0.09754593 -0.2731685 -0.14267233 -0.2287098
0001c0 df b1 e6 3e 1f ac ac 3e e3 7b 3a 3d e9 8c 0e be
       0.4505758 0.33725068 0.045528304 -0.1392094
0001d0 97 fd 38 3d 92 e3 d8 3e 33 24 c0 3d 6a f1 d9 3d
       0.045163717 0.42361122 0.093819045 0.10641749
0001e0 a3 e2 82 3c 8a 6b 8f be 49 ce ae 3d 44 81 bc 3e
       0.01597721 -0.28011733 0.085354395 0.36817372
0001f0 2e b3 8e 3e 11 bd 6c be f1 58 bd 3d 3c 7a 40 be
       0.27871078 -0.23118998 0.0924548 -0.18796629
000200 c5 b4 1c 3f 0c dd a5 3e da 46 40 3e 56 2c 81 3d
       0.6121333 0.32395208 0.18777028 0.063072845
000210 2d f0 7f be dc 22 a5 bd 68 c3 17 be 14 10 67 3b
       -0.24993964 -0.080632895 -0.14820635 0.0035257386
000220 bc 8b c8 bc 65 02 03 3e c6 06 a8 3e 6a 68 ac be
       -0.024480693 0.12793882 0.32817668 -0.33673412
000230 9c 35 2e 3d f0 83 a7 3d c7 23 cb 3e d6 09 45 be
       0.042531595 0.08179462 0.39675733 -0.19242033
000240 2b a7 54 be 4b d2 2f 3e 6b 19 76 3e 58 c5 d9 3d
       -0.20766895 0.17170064 0.24033134 0.106333435
000250 21 aa 16 3e e2 50 b6 3e 9f 65 cf bc d9 f5 25 3f
       0.14713337 0.35608584 -0.025317011 0.6482826
000260 8e 2d d2 be c4 3d b6 3e a1 2e 88 be b1 58 5b be
       -0.4105038 0.35593998 -0.26598075 -0.21420552
000270 92 15 1e be ac 0d 8e 3e 40 0c a0 be 15 6f bb 3d
       -0.15437916 0.27744806 -0.31259346 0.091520466
000280 9b 7e 3f be 3b d0 f2 3d 73 5a f7 be 87 fd c4 be
       -0.1870064 0.11856123 -0.48311195 -0.38474676
000290 5f c9 51 be 97 47 12 3e 7e 37 e8 3e 6d 5f 04 bf
       -0.20486973 0.14285122 0.45354837 -0.5170811
0002a0 7c 5c 89 3e 24 21 56 be ff 2d 93 bd 76 1a 7c 3e
       0.26828372 -0.2091108 -0.071865074 0.24619469
0002b0 de 20 bd be a5 2a 97 be c8 5e 11 3e 96 33 93 be
       -0.36939138 -0.29524723 0.14196312 -0.28750294
0002c0 66 3b 02 3e 40 e9 e0 bc 26 0c 0e 3f 35 bf 14 3e
       0.12717971 -0.027454972 0.5548729 0.14526065
0002d0 37 52 4e 3e a7 73 03 bf c2 7b 00 bf 8f b5 91 3e
       0.2014855 -0.51348346 -0.5018884 0.2845883
0002e0 0d 66 99 3d f4 e2 86 3e f0 41 28 3d cd c7 86 be
       0.07490168 0.26345026 0.041078508 -0.2632431
0002f0 db a6 50 be 38 ae 96 be b9 07 f0 be 40 57 85 3e
       -0.2037615 -0.29429793 -0.46880892 0.2604313
000300 58 75 b9 bd 50 1a 47 be 30 23 c3 3d 67 cd 47 be
       -0.09055585 -0.19443631 0.09528196 -0.19511949
000310 c8 d6 55 be ca d8 c8 bd f8 0d 79 3e 51 7e e6 3c
       -0.20882714 -0.09806974 0.24321735 0.028136404
000320 44 4e 70 3e f4 91 58 be dd 74 a8 3d 63 69 0e bf
       0.23467356 -0.21149427 0.08225415 -0.5562956
000330 30 9a b8 be 62 c8 c0 3e 92 8d 5e 3e 88 0b c6 be
       -0.36055136 0.3765288 0.21733692 -0.38680673
000340 f5 9c 6b bd fa c2 59 3d c0 11 f2 bc 8c 27 09 bf
       -0.057522733 0.05316446 -0.02954948 -0.5357597
000350 ea 11 9a be 62 51 99 bb 6b 14 5a 3c fe bc 58 3e
       -0.30091792 -0.004678891 0.013310532 0.21165845
000360 16 d3 2f 3e 39 86 21 3d a1 21 75 be 4c 8d 8f 3e
       0.17170367 0.039434645 -0.2393861 0.28037488
000370 1e 33 7f be 7c ce d4 be 0a 2f d6 3e 77 74 dd bd
       -0.24921843 -0.41563785 0.41832763 -0.108132295
000380 4d 76 83 be d8 87 b0 bd 53 2f c3 3e 13 a7 01 3f
       -0.25676194 -0.0861966 0.38122043 0.5064556
000390 8a 9c c7 3e b5 75 fd 3e 48 f8 5b be 1f be ea 3d
       0.38986617 0.49503866 -0.2148143 0.11462044
0003a0 bb 6e 9a bd 98 20 90 3e 70 72 89 be 89 37 ff 3d
       -0.075406514 0.28149867 -0.2684512 0.12461764
0003b0 c7 34 b2 3e 70 00 de 3e cc ae f3 3e 8c 41 3c be
       0.3480589 0.4335971 0.47594297 -0.18384379
0003c0 a8 70 c4 3e ab 9d d4 bd fd 15 af be e2 5d 16 bd
       0.383672 -0.10381635 -0.34196463 -0.036710627
0003d0 20 d1 a6 3e 3c 04 96 3d 55 a4 9f bd e1 d4 1d 3d
       0.32581425 0.073250264 -0.07795016 0.038533095
0003e0 6c 16 62 3e a7 9b d9 3d ea 88 9b be ff 47 60 3e
       0.22078866 0.106253915 -0.30377895 0.21902464
0003f0 c5 c9 cb 3d fb fb 36 3d 38 bb 7d be 0b 79 30 3d
       0.09950594 0.0446739 -0.2477845 0.043084186

encoder.conv_logstd.bias f4 [20]
000000 6e 80 04 bf 5a ee 10 bf 74 54 08 bf fc 5d dd be
       -0.5175847 -0.56613696 -0.53253865 -0.43235767
000010 73 6e f8 be 22 9c dd be b2 99 e1 be 2c ff f9 be
       -0.48521766 -0.43283182 -0.44062573 -0.48827493
000020 3b bd 09 bf 6c 15 0b bf 68 a2 13 bf 73 fc fd be
       -0.5380437 -0.5432956 -0.5766969 -0.49606666
000030 84 d5 d8 be a5 b3 fd be 1a c9 d5 be b2 5c f4 be
       -0.423504 -0.4955112 -0.4175499 -0.4772697
000040 d0 88 fc be 03 80 9c be 88 0d 0e bf 03 5f e2 be
       -0.4932313 -0.30566415 -0.554894 -0.44213113
