results/model_GCN/graph_split_/layers_1/transform_False/alpha_0.5/model.pt (torch, 13633 bytes, 7 tensors)

encoder.conv.bias f4 [20]
-0.034949128 0.11341858 0.101564385 -0.09402101 0.1558374 -0.003570629 -0.024343593 -0.14619501
-0.09078239 -0.05230724 -0.083622 -0.22963719 0.014281665 0.08965326 -0.020236896 -0.08252678
0.016322061 -0.1545351 0.06559442 -0.044105623
00000000: d126 0fbd 0048 e83d fd00 d03d 168e c0bd
00000010: d793 1f3e 3701 6abb 376c c7bc 25b4 15be
00000020: 1eec b9bd 1e40 56bd 0342 abbd 0326 6bbe
00000030: a5fd 693c 219c b73d d9c7 a5bc cd03 a9bd
00000040: d8b5 853c 733e 1ebe 5e56 863d 19a8 34bd

encoder.conv.lin.weight f4 [20, 40]
0.1998107 -0.019660419 0.06178634 0.33110985 -0.28863764 0.47833812 0.46246672 -0.32382798
0.7585454 -0.23100588 -0.16247652 0.46182516 0.35003614 -0.20001781 -0.12553468 -0.07858106
-0.31010514 0.19487761 -0.28021067 -0.35827136 -0.19511738 0.61614865 0.11892063 0.22264828
-0.25521833 0.027772803 -0.25714043 -0.28450313 -0.67249227 -0.9409383 0.33588067 -0.17769055
0.16791402 0.316875 -0.0047223084 0.11449732 -0.23506516 0.09472181 -0.03887413 -0.8681139
-0.29994696 0.49009445 -0.3558356 0.59087354 0.1459428 -0.14140424 -0.07354165 -0.16839354
0.5891712 -0.23309758 0.36445674 0.01346223 -0.014784791 -0.009836387 -0.2818018 0.06314326
-0.15102307 0.25740772 -0.119287096 0.2821341 0.65978944 -0.05010512 -0.06982912 0.36462098
0.2566848 -0.040982362 -0.15097968 0.23360233 0.40586567 0.13639633 -0.09506628 0.30990002
-0.053719293 -0.008819715 -0.11018333 -0.12779723 0.6044919 0.2598654 -0.053865943 0.28408575
-0.1113818 -0.49709973 -0.08082857 -0.23169558 -0.37975806 -0.3825614 0.28461942 0.17303337
-0.3074269 0.16899514 -0.23619835 0.2003471 -0.065973 0.1410081 0.1437941 0.019024532
0.10090646 0.061553136 -0.15410388 -0.33523142 0.1475023 -0.047659196 0.26405746 -0.19676346
-0.3128154 0.13722438 -0.30599034 -0.04916854 -0.02121807 -0.33710712 -0.06916077 -0.36858946
-0.5243598 0.38025135 0.0645249 -0.07902187 0.13377084 0.15338035 0.5380005 -0.10906991
0.25097898 0.57585883 0.15564278 -0.27490965 0.33337918 -0.15764233 0.15428288 -0.20965259
0.16123222 0.027398549 0.24861346 0.014070276 0.19045599 0.068702236 -0.13734159 -0.11457409
-0.053055912 0.03752509 0.13119355 -0.29848236 -0.22336167 -0.080671236 0.10936776 -0.0694293
0.088646755 0.4467459 0.29127982 0.5984179 0.0016773348 -0.016416945 -0.0053488086 -0.09667651
-0.112883925 -0.27948257 -0.107283235 0.08343319 0.05095362 -0.18901016 -0.005271133 -0.19775486
-0.09906703 0.29388833 -0.13369696 0.48549873 0.10950201 0.09778838 -0.035387892 0.028704217
0.6970873 0.35055873 -0.0071209837 0.0025978747 0.10032345 0.14308432 -0.091921195 -0.17192863
0.17599292 -0.03954919 -0.12918675 0.14586018 -0.0036209815 0.2009233 0.0010603861 0.5035347
-0.24135478 -0.31596902 0.115157865 -0.33814338 0.05309044 0.4159435 -0.38193533 -0.14106674
0.0441444 0.27070314 -0.17099553 0.0169388 0.0072523938 0.0602062 -0.36848363 0.40858793
0.2910716 -0.13951892 0.008466508 -0.075994946 0.0765469 -0.009184547 0.14640537 -0.14749184
-0.03838027 0.4952658 -0.18029739 -0.045138076 0.13378635 -0.26264608 -0.36243835 -0.061579477
0.022489265 -0.08764919 0.08490566 0.37038845 -0.2953921 0.24811572 0.27452737 0.14944972
0.0012539199 -0.060188737 0.4076958 -0.1990735 0.4686324 0.091000505 -0.015952194 -0.37718558
0.1275279 -0.037487924 0.50581855 -0.28937903 0.2632437 -0.05813156 -0.4008846 -0.082953
-0.32217017 -0.15430531 0.08104535 -0.081542 -0.13961253 0.26975778 0.15685894 -0.2595151
0.10346561 0.09291879 -0.12955922 0.06670745 -0.00611755 0.3274449 -0.34228846 0.022013515
00000000: 2d9b 4c3e e30e a1bc ac13 7d3d 3b87 a93e
00000010: 50c8 93be bce8 f43e 70c8 ec3e c8cc a5be
00000020: 0830 423f ce8c 6cbe 3f60 26be 5974 ec3e
00000030: f037 b33e 78d1 4cbe 2a8c 00be 1bef a0bd
00000040: 1ac6 9ebe ff8d 473e c677 8fbe 586f b7be
00000050: dacc 47be ebbb 1d3f a98c f33d e9fd 633e
00000060: faab 82be ca83 e33c e9a7 83be 65aa 91be
00000070: 7428 2cbf 55e1 70bf 8df8 ab3e 83f4 35be
00000080: a7f1 2b3e 713d a23e 98bd 9abb 927d ea3d
00000090: ecb4 70be 82fd c13d 7b3a 1fbd b63c 5ebf
000000a0: a692 99be a9ed fa3e 1530 b6be 7d43 173f
000000b0: 0872 153e 46cc 10be 019d 96bd 5b6f 2cbe
000000c0: ecd3 163f 22b1 6ebe 139a ba3e af90 5c3c
000000d0: e83b 72bc cc28 21bc 5348 90be 4151 813d
000000e0: cba5 1abe f2ca 833e cb4c f4bd e173 903e
000000f0: f6e7 283f 073b 4dbd 9202 8fbd 9aaf ba3e
00000100: 316c 833e 1fdd 27bd 6b9a 1abe 7335 6f3e
00000110: a0cd cf3e 7bab 0b3e 1cb2 c2bd 37ab 9e3e
00000120: c308 5cbd 9180 10bc cca7 e1bd 47dd 02be
00000130: fbbf 1a3f 140d 853e 89a2 5cbd b073 913e
00000140: 241c e4bd db83 febe 7389 a5bd 9b41 6dbe
00000150: a66f c2be 16df c3be a3b9 913e a92f 313e
00000160: 0f67 9dbe 100d 2d3e fbdd 71be ca27 4d3e
00000170: da1c 87bd 6d64 103e c33e 133e 56d9 9b3c
00000180: 0ca8 ce3d 241f 7c3d 68cd 1dbe 74a3 abbe
00000190: d80a 173e 4a36 43bd 8a32 873e 5c7c 49be
000001a0: 5729 a0be 8c84 0c3e c4aa 9cbe f364 49bd
000001b0: 85d1 adbc 4e99 acbe 29a4 8dbd c2b7 bcbe
000001c0: 723c 06bf 4eb0 c23e a125 843d 38d6 a1bd
000001d0: 39fb 083e bd0f 1d3e 67ba 093f 0c60 dfbd
000001e0: 5180 803e 7c6b 133f d260 1f3e f5c0 8cbe
000001f0: adb0 aa3e fe6c 21be 55fc 1d3e 2baf 56be
00000200: 0f1a 253e ec72 e03c 8794 7e3e 0487 663c
00000210: e506 433e c2b3 8c3d 46a3 0cbe d2a5 eabd
00000220: 2851 59bd e9b3 193d 9a57 063e aed2 98be
00000230: ecb8 64be f636 a5bd 34fc df3d f330 8ebd
00000240: 6e8c b53d e1bb e43e a122 953e ea31 193f
00000250: 04da db3a d47c 86bc 0f45 afbb 56fe c5bd
00000260: b02f e7bd 5718 8fbe 50b7 dbbd 05df aa3d
00000270: beb4 503d e18b 41be 78b9 acbb 4080 4abe
00000280: a8e3 cabd 8878 963e dbe7 08be 4a93 f83e
00000290: 9742 e03d 4645 c83d e5f2 10bd 1b25 eb3c
000002a0: 5074 323f 6f7c b33e 2457 e9bb 1b41 2a3b
000002b0: 6276 cd3d b284 123e 2e41 bcbd 0f0e 30be
000002c0: 7d37 343e 55fe 21bd 8849 04be 5f5c 153e
000002d0: fd4d 6dbb d6be 4d3e a7fc 8a3a a6e7 003f
000002e0: b525 77be b1c6 a1be e3d7 eb3d 2121 adbe
000002f0: 5c75 593d 8cf6 d43e 078d c3be cd73 10be
00000300: c2d0 343d 9a99 8a3e 7419 2fbe 3dc3 8a3c
00000310: 7da5 ed3b c79a 763d e3a9 bcbe 7032 d13e
00000320: 5607 953e 0cde 0ebe 1cb7 0a3c 3da3 9bbd
00000330: 9fc4 9c3d c87a 16bc 4aeb 153e 1a08 17be
00000340: a134 1dbd 7b93 fd3e e19f 38be b4e2 38bd
00000350: 4aff 083e 8c79 86be 8591 b9be c33a 7cbd
00000360: 683b b83c 6b81 b3bd 05e3 ad3d 8ea3 bd3e
00000370: a23d 97be 0c12 7e3e da8e 8c3e 5909 193e
00000380: 925a a43a 7788 76bd 81bd d03e ecd9 4bbe
00000390: 96f0 ef3e 795e ba3d 2dae 82bc 781e c1be
000003a0: ac96 023e f08c 19bd 537d 013f 7d29 94be
000003b0: e1c7 863e 5c1b 6ebd bf40 cdbe 43e3 a9bd
000003c0: 7df3 a4be 3602 1ebe 1bfb a53d 7eff a6bd
000003d0: 96f6 0ebe b11d 8a3e a19f 203e 2adf 84be
000003e0: c7e5 d33d 354c be3d 2cab 04be ea9d 883d
000003f0: bb75 c8bb dca6 a73e 6f40 afbe b055 b43c

encoder.embed_x.weight f4 [28, 40]
0.15586835 -0.6407402 0.43910453 -0.29931644 -0.16994664 -1.4717902 0.4691637 2.16267
0.35647723 0.389667 -1.8991472 0.376046 0.79633147 -0.0011526688 -1.9087104 -1.2088586
-1.501335 -4.6429815 0.56577545 0.338268 -0.19956467 -0.5616292 -1.4891315 0.23986647
-1.3721102 0.691112 0.45248723 0.3182404 0.20582691 0.88419247 -1.4951622 -0.93235695
0.34817803 0.02790526 -0.21091925 -0.55134094 -0.89154685 1.1100439 0.35884124 -0.28147027
-0.25669608 -1.1364194 -1.525227 1.7149433 -0.952729 -0.4274371 -0.049233332 1.1049737
0.5742367 -0.6801889 0.2721926 -0.33655998 -0.14763854 1.639842 0.19363008 -0.038386405
0.18261838 -0.045792595 -1.2610459 -1.2123495 0.68319196 -0.52609265 0.14335062 -0.05421731
0.6024454 0.7266492 -0.77210844 -0.7398733 -1.3888404 -1.1804537 0.050905995 0.4396843
-1.57444 1.3398377 -2.8709278 0.045100324 -0.4684524 0.9661171 1.3536537 -0.37554282
0.35899928 -1.0552897 2.5483046 0.96742713 1.3566786 1.6163816 1.6110333 -1.5003651
0.003435784 -1.3847365 -0.9704374 -0.12681884 1.4350312 1.1331614 1.7056328 0.027435752
-0.49147192 -0.023139525 0.22889908 -1.3813864 -1.4531524 1.060211 -0.5146105 1.3902383
-0.13769527 -1.9032446 -1.0984638 -0.69807076 0.3974872 -0.50486207 1.0040523 -1.4557048
1.033192 -0.54182214 0.08678659 -0.97018063 -1.3798498 1.0480729 -0.85012865 0.6261024
0.16331623 -0.8021966 1.3441608 0.6693551 0.79375833 0.15107179 -2.1255565 -0.1255686
0.10023217 0.11304389 1.9809914 -1.7069523 0.23858109 0.42090523 -0.14296454 -0.4433831
-1.4852929 2.330191 -1.0923349 0.7719733 -1.2193019 -0.15191887 -1.4215778 -2.1646986
0.36880827 0.08819675 1.0060567 0.039694313 1.2071093 -0.62449896 -0.8690557 -0.11211218
0.5753289 0.67194426 -0.3381982 1.8877383 0.7096045 0.5528343 -1.9157124 -0.6295216
-0.7205791 1.888693 -0.3681773 1.4314384 1.9554323 -0.4996035 -2.479174 -0.031120725
0.26453876 0.10622651 1.4208869 -0.91855896 -0.5759492 2.4139745 -0.27723902 0.119832374
0.4000298 0.5007695 0.84752876 0.85568404 0.94722396 -0.39877123 -0.34946206 1.4637147
0.31211412 -1.1537315 -0.25662762 -0.4681018 1.3262706 3.0081968 -0.45830432 1.7252424
0.93501836 0.4384548 -0.89892685 -1.12939 1.0573235 0.82501143 -1.4838086 1.8183324
1.4859006 1.9919871 0.47681862 -2.5764272 0.64321715 -0.68718946 -2.136429 -0.50994366
-3.9735768 -0.5972509 -0.8926895 -2.0068407 -0.026108632 0.9189311 -0.65581137 1.5916986
1.2164325 -0.9568313 -0.022258505 -1.4665859 0.028208064 -2.2926333 2.9011965 -0.7031765
1.2109342 -0.64797103 -0.84526175 0.949663 0.6848203 0.13015893 0.8767374 0.4431228
0.47003892 -0.45625353 0.2899364 -1.0120823 0.013716454 -0.43479228 1.1775085 0.9558045
-1.6362157 -0.8987808 1.7609807 1.4389247 2.2396584 -1.4182588 0.95995224 -0.69597775
-1.6899747 2.14876 0.23156679 -0.6560875 0.46552357 0.2915324 -1.4015673 1.0946739
00000000: f49b 1f3e 8d07 24bf 4fd2 e03e 0140 99be
00000010: 7e06 2ebe 9f63 bcbf 3936 f03e 2f69 0a40
00000020: 2f84 b63e 6f82 c73e 4117 f3bf 1a89 c03e
00000030: 61dc 4b3f 2615 97ba 9f50 f4bf e1bb 9abf
00000040: bf2b c0bf 4e93 94c0 a9d6 103f 7731 ad3e
00000050: ae5a 4cbe eec6 0fbf dc9b bebf 8e9f 753e
00000060: 4fa1 afbf b7ec 303f 68ac e73e 68f0 a23e
00000070: 4ac4 523e 705a 623f 7a61 bfbf f2ae 6ebf
00000080: 6444 b23e 9299 e43c 37fb 57be ae24 0dbf
00000090: 6a3c 64bf eb15 8e3f 0aba b73e df1c 90be
000000a0: ab6d 83be 3176 91bf a33a c3bf 4383 db3f
000000b0: 0ce6 73bf 09d9 dabe e4a8 49bd c76f 8d3f
000000c0: 2d01 133f dc20 2ebf d45c 8b3e 9751 acbe
000000d0: 8f2e 17be 58e6 d13f f746 463e 103b 1dbd
000000e0: 5000 3b3e 0491 3bbd f469 a1bf 452e 9bbf
000000f0: abe5 2e3f 02ae 06bf 81ca 123e f812 5ebd
00000100: dd39 1a3f af05 3a3f e6a8 45bf 5668 3dbf
00000110: 86c5 b1bf 1b19 97bf ce82 503d 4d1e e13e
00000120: 4087 c9bf cd7f ab3f 48bd 37c0 1ebb 383d
00000130: fed8 efbe 7353 773f 8644 ad3f 2647 c0be
00000140: c1ce b73e bc13 87bf 6c17 2340 4ea9 773f
00000150: a5a7 ad3f 98e5 ce3f 5736 ce3f f70b c0bf
00000160: e42a 613b 0c3f b1bf 966e 78bf ccdc 01be
00000170: 1aaf b73f 6f0b 913f 2d52 da3f f1c0 e03c
00000180: 35a2 fbbe 1a8f bdbc 8564 6a3e 45d1 b0bf
00000190: e600 babf feb4 873f 84bd 03bf 54f3 b13f
000001a0: fdff 0cbe 859d f3bf 769a 8cbf c4b4 32bf
000001b0: 7183 cb3e a43e 01bf c984 803f 8954 babf
000001c0: a33f 843f dbb4 0abf 2bbd b13d c25d 78bf
000001d0: eb9e b0bf 4127 863f 08a2 59bf 3f48 203f
000001e0: 5f3c 273e c25c 4dbf 760d ac3f db5a 2b3f
000001f0: bf33 4b3f 90b2 1a3e 1e09 08c0 0e95 00be
00000200: 8646 cd3d 8e83 e73d 2091 fd3f 6a7d dabf
00000210: 9a4e 743e e480 d73e 4c65 12be 1c03 e3be
00000220: 141e bebf d921 1540 a1d1 8bbf 0ba0 453f
00000230: 1612 9cbf 9f90 1bbe 43f6 b5bf 6c8a 0ac0
00000240: 70d4 bc3e 7fa0 b43d 77c6 803f 8196 223d
00000250: 8f82 9a3f 2adf 1fbf 6f7a 5ebf 129b e5bd
00000260: c148 133f 8a04 2c3f 5128 adbe 69a1 f13f
00000270: a4a8 353f 8c86 0d3f 1036 f5bf 5428 21bf
00000280: df77 38bf b1c0 f13f bc81 bcbe 6039 b73f
00000290: 9b4b fa3f 08cc ffbe c9aa 1ec0 e4f0 febc
000002a0: a071 873e 498d d93d 9fdf b53f ae26 6bbf
000002b0: 6871 13bf 8f7e 1a40 46f2 8dbe ad6a f53d
000002c0: b5d0 cc3e 6e32 003f a5f7 583f 1c0e 5b3f
000002d0: 457d 723f be2b ccbe b1ec b2be 015b bb3f
000002e0: 6ccd 9f3e 79ad 93bf b264 83be 0aab efbe
000002f0: 3cc3 a93f 4c86 4040 dda6 eabe bed4 dc3f
00000300: 5d5d 6f3f 267d e03e 1220 66bf da8f 90bf
00000310: 6056 873f f333 533f 71ed bdbf 1ebf e83f
00000320: fe31 be3f 6ff9 fe3f 9221 f43e 2fe4 24c0
00000330: e1a9 243f a6eb 2fbf 41bb 08c0 ab8b 02bf
00000340: 154f 7ec0 6fe5 18bf 4d87 64bf 1470 00c0
00000350: c5e1 d5bc 123f 6b3f 41e3 27bf c8bc cb3f
00000360: 0fb4 9b3f e5f2 74bf 7857 b6bc 16b9 bbbf
00000370: 9914 e73c 81ba 12c0 34ad 3940 6003 34bf
00000380: e4ff 9a3f 6ee1 25bf 1363 58bf 1d1d 733f
00000390: 6250 2f3f 6248 053e dd71 603f fee0 e23e
000003a0: f1a8 f03e 109a e9be 8b72 943e ea8b 81bf
000003b0: faba 603c 189d debe 99b8 963f 9baf 743f
000003c0: 846f d1bf 8016 66bf d167 e13f af2e b83f
000003d0: 9056 0f40 8189 b5bf 6ebf 753f 992b 32bf
000003e0: 1751 d8bf 4985 0940 d81f 6d3e 5af5 27bf
000003f0: 1b59 ee3e bc43 953e 8f66 b3bf 461e 8c3f

encoder.conv_mu.bias f4 [20]
0.10860364 0.22790399 -0.15840383 -0.08226674 -0.1760048 -0.02169714 0.0318328 0.099787384
0.1494317 -0.26875943 -0.03050705 -0.04097454 0.3216734 -0.014972661 -0.079448976 0.15358046
-0.026034985 0.054841287 0.002887793 0.22573344
00000000: 966b de3d aa5f 693e 9d34 22be 777b a8bd
00000010: 9a3a 34be 33be b1bc 1c63 023d 545d cc3d
00000020: a004 193e d69a 89be ece9 f9bc ebd4 27bd
00000030: 60b2 a43e e44f 75bc 25b6 a2bd 3244 1d3e
00000040: 5247 d5bc 42a1 603d 2041 3d3b ab26 673e

encoder.conv_mu.lin.weight f4 [20, 20]
-0.33642802 -0.055164397 -0.14743191 -0.5966091 0.15422837 0.007456004 0.29391968 0.04654763
0.60390884 0.47544658 0.21611655 -0.15528038 -0.33400965 -0.23787959 0.77374995 0.40766776
-0.23090006 -0.077527896 -0.45428938 0.09281457 0.08571824 0.27091816 -0.09374637 0.6723721
0.03575618 -0.46612445 -0.113249354 -0.43984258 0.16178562 -0.2942022 0.11640141 -0.4280714
-0.7500971 0.049067788 0.7004175 0.6988648 0.32625768 -0.18514618 -0.21649852 0.23554544
-0.45847076 -0.36696127 0.54838383 -0.4126404 0.3123745 -0.05516296 0.19362292 -0.056117725
-0.0437474 -0.6688467 0.23142114 -0.18846725 -0.2997381 -0.16118273 -0.4190322 0.22827896
0.34580904 -0.1946016 0.31677473 -0.62213486 0.60116 0.19361487 -0.18941422 -0.25093314
-0.20679629 -0.07708044 0.36379537 0.33858556 -0.11420039 -0.049814917 -1.3420014 0.26796848
0.05136819 0.39048532 -0.18702537 -0.05061145 -0.09982692 -0.015263417 -0.22067901 -0.3984445
0.13420418 0.11823831 0.42241067 0.27832893 0.23814166 -0.30945554 0.27979067 0.04047114
0.2977509 -0.46460363 0.39617336 -0.535347 -0.026613627 -0.2609578 -0.3337982 -0.5163282
0.12416725 0.41421106 0.08081121 -0.08147249 -0.77811205 0.49483907 0.09493102 -0.12252298
-0.20322186 0.10185961 -0.063265726 0.28788933 0.5595834 -0.11468445 -0.022959614 -0.013106
0.34687927 -0.26974982 -0.18141456 0.06416192 -0.012208386 0.3947195 0.09582304 -0.10693272
-0.18842398 0.7128059 0.19557536 -0.19183402 -0.47250164 -0.5065677 0.29250047 0.35046083
0.12756251 -0.57659197 0.6681356 0.165424 -0.13975339 0.07709302 0.097047985 0.2295175
0.14129756 0.06387929 0.17593591 -0.109546825 0.39548296 0.40935108 0.2568094 -0.1859163
-0.24941549 0.54294425 0.5615859 -0.21314837 0.09745185 -0.17252897 -0.11939075 0.054081738
0.0087876 -0.10762796 -0.0899904 0.2196081 -0.47876534 -0.58464307 -0.04778082 -0.32675797
-0.096780665 0.4258573 0.3186421 0.24146706 -0.23290606 0.5028783 -0.23917907 -0.190371
-0.10167089 -0.3937148 1.5116146 -0.12671681 0.26133412 -0.34857774 0.08864434 -0.14331341
0.06958398 -0.085371606 0.10085014 0.31389982 -0.022616202 0.64968646 0.0077889245 -0.0695105
-0.36610037 0.3472456 0.27777773 -0.2719231 0.21955639 -0.1354505 -0.52054626 0.29513547
-0.29776537 -0.120785035 0.06751593 -0.35438573 0.07886901 0.541483 -0.025344715 -0.10476012
0.19612212 0.48382565 0.098257676 0.30942148 -0.56262726 0.27601665 -0.15992254 0.3391345
-0.21084088 0.47008887 0.07130342 0.33329636 -0.4045446 -0.091954246 0.05355351 0.13072626
0.120777234 0.10201847 0.28063923 -0.29170227 -0.48526528 -0.11895629 0.43808994 0.040073127
0.045003075 -0.110011846 0.045958977 0.11143612 -0.3924549 -0.61399215 -1.04297 0.31566828
0.17285565 -0.25039965 0.47686547 -0.25775898 0.19612324 0.0052577397 0.18428333 -0.059836462
-0.25494936 0.062964156 -0.37625492 0.55162597 -0.12180371 0.3060903 0.030595519 -0.5105642
0.7528179 0.38511112 -0.42441276 -0.50311697 -0.2520844 0.18450813 0.16539843 0.4006732
00000000: 4b40 acbe 10f4 61bd 64f8 16be 60bb 18bf
00000010: 0bee 1d3e 7f51 f43b a47c 963e baa8 3e3d
00000020: c599 1a3f bc6d f33e a84d 5d3e d201 1fbe
00000030: 5003 abbe b596 73be 7a14 463f d4b9 d03e
00000040: 1171 6cbe f2c6 9ebd 9e98 e8be 9115 be3d
00000050: 0b8d af3d c9b5 8a3e 19fe bfbd 9420 2c3f
00000060: 1275 123d dda7 eebe 47ef e7bd 0c33 e1be
00000070: 21ab 253e aca1 96be dd63 ee3d 2d2c dbbe
00000080: 5d06 40bf 4efb 483d 904e 333f cee8 323f
00000090: 3f0b a73e f696 3dbe cab1 5dbe d332 713e
000000a0: aebc eabe 59e2 bbbe e262 0c3f 9a45 d3be
000000b0: 8def 9f3e 8ef2 61bd 1645 463e b3db 65bd
000000c0: 7930 33bd 8a39 2bbf aaf9 6c3e 8ffd 40be
000000d0: 4677 99be 160d 25be 638b d6be f6c1 693e
000000e0: e20d b13e a445 47be 4c30 a23e 3b44 1fbf
000000f0: 9fe5 193f fa42 463e cdf5 41be 4f7a 80be
00000100: 68c2 53be 5adc 9dbd 6343 ba3e 165b ad3e
00000110: e5e1 e9bd ba0a 4cbd b4c6 abbf 2a33 893e
00000120: 7467 523d b1ed c73e 9483 3fbe f44d 4fbd
00000130: 0e72 ccbd 6913 7abc aef9 61be eb00 ccbe
00000140: d26c 093e ed26 f23d 3646 d83e 2181 8e3e
00000150: 68db 733e f570 9ebe b940 8f3e 11c5 253d
00000160: ce72 983e 87e0 edbe 3cd7 ca3e 800c 09bf
00000170: d204 dabc 439c 85be 99e7 aabe 162e 04bf
00000180: 664b fe3d 7913 d43e 5980 a53d 0ddb a6bd
00000190: 5a32 47bf 8c5b fd3e 326b c23d 54ed fabd
000001a0: 6419 50be c59b d03d 7691 81bd 3b66 933e
000001b0: dc40 0f3f aedf eabd cd15 bcbc 8cba 56bc
000001c0: 299a b13e a61c 8abe bdc4 39be 5367 833d
000001d0: af05 48bc ad18 ca3e df3e c43d 8bff dabd
000001e0: 37f2 40be 737a 363f e844 483e 2370 44be
000001f0: bceb f1be 6cae 01bf 9fc2 953e 9a6f b33e
00000200: bf9f 023e 889b 13bf ef0a 2b3f e964 293e
00000210: 831b 0fbe f2e2 9d3d 18c1 c63d a306 6b3e
00000220: 4fb0 103e 25d3 823d 8b28 343e 165a e0bd
00000230: be7c ca3e 7796 d13e 867c 833e d860 3ebe
00000240: c666 7fbe 65fe 0a3f 18c4 0f3f 9143 5abe
00000250: d694 c73d 6fab 30be 2383 f4bd d084 5d3d
00000260: def9 0f3c 0c6c dcbd e34c b8bd f2e0 603e
00000270: bb20 f5be 2bab 15bf d2b5 43bd d24c a7be
00000280: f134 c6bd f809 da3e 0f25 a33e 2443 773e
00000290: ed7e 6ebe a2bc 003f 5ceb 74be 9ef0 42be
000002a0: d438 d0bd fc94 c9be 967c c13f 0dc2 01be
000002b0: 96cd 853e c878 b2be 2a8b b53d c0c0 12be
000002c0: 0c82 8e3d 4fd7 aebd 858a ce3d 7ab7 a03e
000002d0: 9d45 b9bc da51 263f 3c3a ff3b 855b 8ebd
000002e0: 8271 bbbe 2dca b13e e238 8e3e 8139 8bbe
000002f0: 64d3 603e 89b3 0abe 8542 05bf ff1b 973e
00000300: b474 98be 255e f7bd cb45 8a3d 0c72 b5be
00000310: 1386 a13d a19e 0a3f b89f cfbc 798c d6bd
00000320: 3dd4 483e ffb7 f73e 523b c93d 7e6c 9e3e
00000330: 5708 10bf 0e52 8d3e bcc2 23be 0aa3 ad3e
00000340: ace6 57be 7daf f03e 8707 923d d2a5 aa3e
00000350: 7820 cfbe 8252 bcbd ed5a 5b3d 1bdd 053e
00000360: 0e5a f73d 0fef d03d f2af 8f3e 005a 95be
00000370: b174 f8be 5b9f f3bd 534d e03e b823 243d
00000380: 2555 383d e44d e1bd 7b3f 3c3d 9f38 e43d
00000390: d9ef c8be 972e 1dbf 0a80 85bf 469f a13e
000003a0: 1201 313e 6234 80be b627 f43e fcf8 83be
000003b0: 88d4 483e 1e49 ac3b c5b4 3c3e 1417 75bd
000003c0: b988 82be 5af3 803d 7ca4 c0be 5c37 0d3f
000003d0: 3974 f9bd deb7 9c3e 74a3 fa3c 56b4 02bf
000003e0: adb8 403f 492d c53e a14c d9be 46cc 00bf
000003f0: 3511 81be b3ef 3c3e 355e 293e 0a25 cd3e

encoder.conv_logstd.bias f4 [20]
-0.27544245 -0.471203 -0.4397183 -0.30528465 -0.40144932 -0.28747112 -0.30747855 -0.3661921
-0.29301018 -0.57086736 -0.17905176 -0.21901076 -0.3160624 -0.2958617 -0.29591706 -0.3752423
-0.20312077 -0.216844 -0.27657205 -0.4275256
00000000: cb06 8dbe 8541 f1be c222 e1be 454e 9cbe
00000010: c48a cdbe 6a2f 93be d46d 9dbe 887d bbbe
00000020: 6e05 96be 5d24 12bf 5859 37be 5b44 60be
00000030: eed2 a1be 2f7b 97be 7182 97be c21f c0be
00000040: e4fe 4fbe 5b0c 5ebe da9a 8dbe a3e4 dabe

encoder.conv_logstd.lin.weight f4 [20, 20]
0.001540136 0.13068219 -0.29445186 -0.2603955 -0.32785517 -0.018861732 0.058708236 -0.19536898
0.002910354 -0.25622147 -0.19385563 0.08646881 -0.013129746 -0.28679812 0.0855288 0.0035708717
0.018032447 -0.09634392 -0.2571809 -0.06453556 0.043350756 -0.11838954 -0.025345238 -0.23245771
-0.15331677 -0.130286 -0.3441636 -0.19528872 0.020822017 -0.30007136 -0.10873148 0.12762135
0.0048388587 -0.11388581 0.1618427 -0.084460884 -0.21272895 -0.002591495 -0.38546956 -0.1694257
0.08224947 0.050038885 -0.10672627 -0.24780796 -0.24610934 -0.18221907 -0.24983038 -0.30439028
-0.050510574 -0.18485196 -0.18552256 0.10026591 0.101431385 -0.14874196 -0.03511301 -0.040981416
-0.38016945 -0.013656045 -0.14553955 -0.05826136 0.09146251 -0.020185249 -0.1392097 -0.26883376
-0.23439139 0.035255015 -0.18735906 -0.21100827 -0.1270497 -0.22348234 0.05379727 -0.024995102
-0.05479356 -0.0013057415 0.29418772 -0.19604786 0.10479364 -0.04173569 -0.43156892 -0.20251551
0.055654474 0.0941924 -0.41266462 -0.5442376 -0.44008672 -0.21518992 0.03093649 -0.40118986
-0.17829357 -0.40455025 -0.20520104 0.08271634 -0.08322013 -0.23844437 -0.02806883 -0.039364513
0.14060855 -0.20608489 -0.10722658 0.001318855 0.19390957 0.12696587 -0.12413875 -0.026757022
-0.1935072 -0.03964567 -0.25151774 -0.13283928 -0.14956573 -0.3599166 -0.060747903 -0.032014087
-0.087677605 -0.4455723 -0.16973212 0.110065155 -0.06326394 0.056780186 -0.029775988 0.027839588
0.14175318 0.17139232 -0.009932835 -0.22603154 -0.22662036 -0.35784414 -0.24135996 -0.25170866
0.0625022 -0.29772913 -0.26808685 0.22515026 0.012617564 -0.23378518 -0.31682137 0.022547636
-0.39264446 -0.073547296 0.079800025 0.06966165 -0.025983414 -0.09040252 -0.049560346 0.117398486
-0.109533794 -0.14371726 -0.17568293 -0.13986896 -0.0057020443 -0.34564352 -0.05323163 0.08960468
0.10012793 -0.33549014 -0.0034950727 -0.0624133 -0.30930805 0.11413183 -0.18131681 -0.13720661
0.050712757 0.14247312 -0.25385553 -0.14056928 -0.29581422 -0.19183166 -0.0018693985 -0.25874412
-0.30156046 -0.12534094 -0.2823407 -0.045010667 -0.08793687 -0.28227136 -0.06832921 0.010164272
-0.19263093 0.081200145 0.108872905 0.16618249 0.04214547 -0.13502675 -0.06368953 -0.021426825
-0.12989621 -0.2003254 -0.22935276 -0.12401322 0.04421699 -0.47228515 -0.048893638 0.24431203
0.14323194 -0.40032414 -0.064545766 -0.040184874 -0.31207612 -0.012084625 -0.23071317 -0.13475008
0.0016383058 -0.05816696 -0.38564524 -0.19582124 -0.36560082 -0.02061673 -0.32355055 -0.30662322
-0.12009033 -0.5030944 -0.28617242 0.122777626 0.09084414 -0.463476 -0.24368177 0.24169229
0.29293147 -0.20221964 0.09319505 0.0648411 -0.02272377 -0.072338745 -0.108717315 -0.07666176
-0.1266611 -0.11714265 0.043483857 -0.017866582 0.04867483 -0.30118325 -0.06219542 0.32166356
-0.09935641 -0.31046057 0.15139745 -0.24250418 0.12749347 -0.09805182 -0.37914452 -0.14911549
0.046613365 -0.027373904 -0.12977652 -0.32386926 -0.21254861 -0.122695126 -0.31084836 -0.21465106
0.014600842 -0.18524659 -0.016347982 0.16279644 0.050762374 -0.019991172 0.028230201 -0.06370418
00000000: 64de c93a 8dd1 053e 65c2 96be 8f52 85be
00000010: a2dc a7be eb83 9abc 0c78 703d ce0e 48be
00000020: a3bb 3e3b 762f 83be 1782 46be 8f16 b13d
00000030: 251e 57bc 34d7 92be b929 af3d 4905 6a3b
00000040: c8b8 933c f64f c5bd 37ad 83be 382b 84bd
00000050: 9090 313d 3776 f2bd d1a0 cfbc 6509 6ebe
00000060: 12ff 1cbe b169 05be 3636 b0be c4f9 47be
00000070: ef92 aa3c f4a2 99be 9cae debd 2caf 023e
00000080: 4a8f 9e3b f73c e9bd 18ba 253e d4f9 acbd
00000090: 9ed5 59be 12d6 29bb 445c c5be ee7d 2dbe
000000a0: 6972 a83d 93f5 4c3d 4d93 dabd 5fc1 7dbe
000000b0: 1604 7cbe a397 3abe 89d3 7fbe 0bd9 9bbe
000000c0: 2de4 4ebd d549 3dbe a0f9 3dbe 3758 cd3d
000000d0: 42bb cf3d d04f 18be a9d2 0fbd 21dc 27bd
000000e0: 92a5 c2be 9bbd 5fbc 5208 15be 77a3 6ebd
000000f0: b250 bb3d 895b a5bc fd8c 0ebe 94a4 89be
00000100: 4c04 70be 9067 103d 0edb 3fbe 8d12 58be
00000110: 5119 02be 8ed8 64be 875a 5c3d 87c2 ccbc
00000120: 366f 60bd 6a25 abba c69f 963e c5c0 48be
00000130: 0c9e d63d 0bf3 2abd 9af6 dcbe 3a60 4fbe
00000140: f2f5 633d f2e7 c03d c748 d3be 2853 0bbf
00000150: 0c53 e1be bf5a 5cbe 866e fd3c c268 cdbe
00000160: 9792 36be 3621 cfbe 3920 52be 2f67 a93d
00000170: 516f aabd c32a 74be 9af0 e5bc af3c 21bd
00000180: b0fb 0f3e eb07 53be 9c99 dbbd 6edd ac3a
00000190: 3b90 463e 5703 023e 753c febd 8b31 dbbc
000001a0: c026 46be 8063 22bd efc6 80be 0507 08be
000001b0: c227 19be fd46 b8be cbd2 78bd 3421 03bd
000001c0: 5190 b3bd 0d22 e4be 42ce 2dbe d769 e13d
000001d0: 8690 81bd 5792 683d c6ec f3bc d90f e43c
000001e0: bf27 113e 7881 2f3e 54bd 22bc d074 67be
000001f0: 2b0f 68be 5937 b7be 1127 77be f5df 80be
00000200: 2701 803d f46f 98be ae42 89be ca8d 663e
00000210: e6b9 4e3c 6265 6fbe 6936 a2be d2b5 b83c
00000220: b208 c9be f79f 96bd 326e a33d c4aa 8e3d
00000230: 2bdb d4bc f524 b9bd caff 4abd 9e6e f03d
00000240: 4153 e0bd 9e2a 13be 3ae6 33be cf39 0fbe
00000250: 37d8 babb 30f8 b0be 6909 5abd a982 b73d
00000260: df0f cd3d 5dc5 abbe 970d 65bb 17a5 7fbd
00000270: a05d 9ebe f3bd e93d 1dab 39be e47f 0cbe
00000280: 2eb8 4f3d 79e4 113e 5af9 81be 65f1 0fbe
00000290: f674 97be 856f 44be 9b06 f5ba 1c7a 84be
000002a0: 2266 9abe 6059 00be f68e 90be 1b5d 38bd
000002b0: 3f18 b4bd df85 90be 2ff0 8bbd 0c88 263c
000002c0: 0b41 45be 434c a63d c2f8 de3d be2b 2a3e
000002d0: baa0 2c3d 7444 0abe a86f 82bd 4f87 afbc
000002e0: 8303 05be 1a22 4dbe 73db 6abe a5fa fdbd
000002f0: e01c 353d 5ccf f1be b244 48bd ef2c 7a3e
00000300: 65ab 123e 49f7 ccbe 9230 84bd e598 24bd
00000310: 71c8 9fbe 97fe 45bc 1340 6cbe edfb 09be
00000320: 6cbc d63a 7a40 6ebd 4b73 c5be 5d85 48be
00000330: 0830 bbbe 6be4 a8bc 6ba8 a5be b8fd 9cbe
00000340: ebf1 f5bd cbca 00bf 3185 92be d672 fb3d
00000350: 7e0c ba3d ba4c edbe b787 79be 2f7e 773e
00000360: 1dfb 953e aa12 4fbe 0cdd be3d 69cb 843d
00000370: 3327 babc 5626 94bd 2fa7 debd d700 9dbd
00000380: 73b3 01be 7ce8 efbd 211c 323d f05c 92bc
00000390: 425f 473d b134 9abe a0c0 7ebd 16b1 a43e
000003a0: 607b cbbd b0f4 9ebe ef07 1b3e 0453 78be
000003b0: a68d 023e 65cf c8bd 3b1f c2be bbb1 18be
000003c0: a8ed 3e3d 3d3f e0bc 23e4 04be 31d2 a5be
000003d0: 58a6 59be 9547 fbbd 8427 9fbe 7dcd 5bbe
000003e0: 5f38 6f3c 48b1 3dbe 34ec 85bc 1cb4 263e
000003f0: 35ec 4f3d 87c4 a3bc 0643 e73c 5677 82bd
