results/model_GCN/graph_split_/layers_8/transform_True/alpha_0.0/model.pt (torch, 65262 bytes, 23 tensors)

encoder.conv.convs.0.bias f4 [40]
000000 8f 1d 55 bd 25 b0 9b ba bb 9a 2c 3c d3 d4 8b 3a
       -0.052030142 -0.0011878057 0.0105349375 0.0010668285
000010 5b 43 f9 3a 04 fd 34 3d 93 59 c7 3d 1e 3b 82 bd
       0.0019017266 0.044186607 0.09733882 -0.06358932
000020 14 7c 09 3d c1 af 90 3c ab 32 9e 3d fd 83 cd bd
       0.033565596 0.017661931 0.07724508 -0.100349404
000030 ca 0c 8d 3d bd 36 07 bc 7f 8e 1a 3c d6 9d a0 3d
       0.06887205 -0.008252797 0.009433388 0.07842605
000040 1d 0d f9 3b 38 e8 5b 3d 6c 41 9f bd 0b eb 1a bd
       0.00760044 0.053688258 -0.0777615 -0.03782181
000050 f8 2c 9a 3a cf 7b e1 3b 6b 5d 68 3d 5f 06 a7 bd
       0.0011762669 0.006881214 0.056729715 -0.08155512
000060 80 49 5c 3d d7 65 a7 3d 97 72 de bc 74 d7 e1 3d
       0.053781033 0.08173721 -0.02715425 0.110274225
000070 9c 24 87 3c 94 6e 07 bc 8c 69 29 3d 4e d5 22 3c
       0.016496949 -0.00826611 0.041360423 0.009938551
000080 94 30 a6 3c e3 68 e8 3b da 2b 0a bc cf f8 84 3d
       0.020286836 0.0070925816 -0.008433307 0.06492769
000090 78 91 b3 3d 66 f5 8d 3a 20 91 fa bd 18 a1 91 bc
       0.0876798 0.0010830581 -0.12234712 -0.01777701

encoder.conv.convs.0.lin.weight f4 [40, 40]
000000 8e bc 2d bd a4 60 22 be 20 35 f7 3d a6 40 96 3e
       -0.042416148 -0.15857178 0.1207068 0.29346198
000010 71 25 58 bd 2c de 55 be e2 5b 3d 3b 97 07 2e 3e
       -0.052770082 -0.20885533 0.0028893878 0.16995083
000020 94 0a 86 be 13 b0 b3 3d e5 a6 1b be ab 90 06 3d
       -0.26179945 0.08773818 -0.15200384 0.03285281
000030 58 7f ec bb db 07 aa bc dd ea 20 be df ee c0 bd
       -0.007217329 -0.020755699 -0.15714593 -0.09420561
000040 86 67 15 3e 64 1f 2c 3e 20 d2 96 be 69 ab ba 3e
       0.14590272 0.1680885 -0.29457188 0.364589
000050 3f 2f a1 3d ab 18 8d be 33 c0 95 be d5 8a 04 be
       0.078703396 -0.27557883 -0.292482 -0.12943585
000060 35 fd a7 be 4a 5c 8c bc 85 44 1f be 61 fd 92 3e
       -0.3281037 -0.01713385 -0.15553482 0.28708938
000070 7d 94 53 be b2 11 c5 3d 32 91 67 be 96 87 38 3d
       -0.20662113 0.09622516 -0.22613981 0.04505118
000080 9c 34 3d 3c 8e a7 1d be b8 ce db bc fb 0b 28 bd
       0.011548188 -0.15395948 -0.02683197 -0.04102705
000090 4c 5e 6e 3d 97 7e 7c 3d 84 fa af 3d 33 f1 8c 3e
       0.058195397 0.061644163 0.08592704 0.2752777
0000a0 6a 8c 69 be 44 a3 2f 3e e5 95 58 be e3 49 a9 3e
       -0.2280747 0.17152125 -0.2115093 0.33064184
0000b0 f1 ae 89 bd a1 00 30 3e 8a b6 0c bd 97 92 81 3e
       -0.067228206 0.1718774 -0.03435377 0.25307152
0000c0 ca e2 3c be 34 5b 9c 3d e2 4d 24 3e f6 f7 72 3e
       -0.18445888 0.07634583 0.16045335 0.23727402
0000d0 bc da 04 be 48 12 1f be 9f e8 84 3d c0 74 ab 37
       -0.12974066 -0.15534317 0.064896815 2.0439154e-05
0000e0 c7 4d 61 be ea 63 a2 3e 2b e6 44 3d b7 b6 89 3e
       -0.22002326 0.31716853 0.048071068 0.26897213
0000f0 5d de 81 be 13 24 e3 3d 91 4a 68 be a4 44 e6 3d
       -0.25364962 0.11090865 -0.22684695 0.11243561
000100 37 04 89 3e 8d dc 30 be 02 24 1a be b4 35 10 3e
       0.26761028 -0.17271633 -0.15052798 0.14082986
000110 44 e4 9a 3e 7b 25 33 be c6 8c 8c be 85 f1 9f 3c
       0.30252278 -0.17494766 -0.27451152 0.019524345
000120 24 ec 9e 3d cc 1f 69 bd b9 43 7f 3e cb e3 c2 bd
       0.07759884 -0.05691509 0.24928178 -0.09516104
000130 1e 73 61 be aa 91 49 bd 5d 25 87 be 26 6d 90 3e
       -0.2201657 -0.04921118 -0.26395693 0.28208274
000140 48 42 32 be 4d a5 94 bd 67 04 2e bd 48 b3 04 bd
       -0.17408097 -0.07258091 -0.042484667 -0.03239754
000150 69 b6 02 bd 94 82 e9 3a b5 3d 71 3e 7e 87 69 be
       -0.03191224 0.0017815405 0.23558696 -0.22805592
000160 bc 69 7d 3e f5 6a 7f 3e 14 5e 7f be 26 5a 3d 3d
       0.24747366 0.24943145 -0.24938232 0.04622855
000170 bf 2b e2 bd a4 9c a6 bc be 78 e7 3e 8d a5 1c be
       -0.110435 -0.020338364 0.45209306 -0.15297528
000180 9b c9 29 3e 48 af 10 be da 9d e0 be b5 19 60 3d
       0.16580813 -0.14129364 -0.4387043 0.054712016
000190 c6 c0 19 bd e4 f7 17 3e 64 60 98 be 14 55 c7 3d
       -0.03753736 0.14840657 -0.2976104 0.09733024
0001a0 83 60 aa be 09 39 85 bd 3b 0e 65 be 2f e5 f6 3d
       -0.33276758 -0.06505019 -0.2236871 0.12055432
0001b0 30 41 a6 3e a4 60 bb 3e 96 35 72 bd 64 10 4a be
       0.3247161 0.36597168 -0.059133135 -0.19732815
0001c0 a4 00 09 bd 46 ba 2e bd dc 2a ca 3d ea c4 e3 3d
       -0.033447877 -0.042658113 0.09871456 0.11121543
0001d0 21 6e 11 3e 9f 6a a9 3e 03 07 8a be e0 64 f8 bc
       0.14202167 0.33089158 -0.26958475 -0.030321538
0001e0 e8 a8 56 3e b1 84 94 be 7d aa f1 bc 1d 21 e6 bc
       0.2096287 -0.29007486 -0.02950024 -0.028091962
0001f0 24 0d 10 3e 96 94 8f bc 54 3f 93 3d 26 cf 58 bd
       0.14067513 -0.017526906 0.07189813 -0.052931927
000200 65 55 5b be 46 d6 9a bd 95 26 7d bd dd 0f 84 3e
       -0.21419294 -0.07560401 -0.061804373 0.25793353
000210 0f f8 cc 3d ec 3b 2a 3e 0f d6 81 bc a1 ca 83 3e
       0.10008251 0.16624421 -0.015849141 0.2574053
000220 3b 67 06 bd 5d 5f 77 be ea 15 5d 3e e2 cb 20 be
       -0.032813292 -0.24157472 0.21590391 -0.15702775
000230 2e 30 91 3d ef 38 0a 3e a4 b4 12 bd b3 37 8f bd
       0.07089268 0.13498281 -0.035816804 -0.06993046
000240 a2 8a 46 3e e3 2d 05 3d 95 ed 5c 3d 5a 86 45 be
       0.19388822 0.032514464 0.053937513 -0.19289532
000250 ce 6f 7d 3e 0b 19 fd be 87 04 46 ba be 34 b2 3d
       0.24749681 -0.4943317 -0.0007553775 0.08701466
000260 82 0c c5 be a0 ae 88 3e c1 f7 39 be 3d 0c a3 bc
       -0.38486105 0.26695728 -0.18160917 -0.019903297
000270 80 75 a8 bd 72 91 8a be e5 fb 19 bd a7 27 29 be
       -0.08225536 -0.2706409 -0.03759374 -0.16519032
000280 6e 3b 2d 3e 78 45 e5 bd 9d 43 46 bd 34 a7 05 3e
       0.16917202 -0.11194891 -0.048404325 0.13052064
000290 12 40 75 3e c2 db 8b be 86 49 c7 3e 93 1e b7 3b
       0.23950222 -0.273161 0.3892328 0.0055883615
0002a0 1f 9e 00 be 62 41 58 bd 2c 14 96 3c 87 86 aa be
       -0.12560318 -0.05279673 0.018320166 -0.3330576
0002b0 4c 2d 83 bd 52 99 70 bd 0f 0a 06 3e 91 57 58 be
       -0.06405124 -0.058739968 0.13089775 -0.21127154
0002c0 d8 a3 29 3e 77 b5 9f bd b4 96 d4 3c 1c 0d 57 3d
       0.16566408 -0.077982835 0.025950767 0.052502736
0002d0 c0 15 b4 3d 38 d8 9b bb 9a 0e 51 3e 59 71 d0 be
       0.08793211 -0.004756 0.20415726 -0.40711477
0002e0 74 35 4b 3e d8 65 8b 3e 2f c5 6e 3e 73 d4 15 3d
       0.1984461 0.27226138 0.23317407 0.03657956
0002f0 e3 ff 3b 3e 2a 40 12 3e 1a 67 85 3e 41 7e 65 3d
       0.18359332 0.14282289 0.26055223 0.05602861
000300 fd b3 c3 be 2a ea c6 3c 1d 18 03 3e 4e 6a cf 3d
       -0.38223258 0.02428158 0.12802167 0.10127698
000310 38 8e 38 3e 64 80 83 bd 69 93 b5 3e ee 21 68 3e
       0.18023002 -0.06420973 0.35464028 0.22669193
000320 82 fc 19 bd 4b 3d 93 3e 4c f6 b0 bd 54 77 22 3e
       -0.037594326 0.287577 -0.086407274 0.15865833
000330 d1 18 ab bb ee b9 49 3e 03 58 89 bb c7 1a ce be
       -0.005221464 0.19699833 -0.0041914 -0.40254804
000340 0e 16 09 be 54 95 8b 3d 2b b7 a5 3d 3b 09 41 3e
       -0.1338732 0.068155915 0.08091577 0.18851177
000350 52 23 fa 3d ce 46 43 be 66 01 04 bd f1 d1 95 3e
       0.12213768 -0.19069979 -0.032227896 0.29261735
000360 5d 30 94 3d 6a 87 fd 3d 2f e2 13 be 0d a6 c2 bd
       0.07235787 0.12379344 -0.14441751 -0.09504328
000370 0c 65 3b 3e e8 5e 80 bc 6c 60 11 3e e3 72 8e be
       0.18300265 -0.015670255 0.14196938 -0.27822027
000380 59 b9 0d bd 94 e5 a5 3e d5 ac 14 3e f2 2e 83 bc
       -0.03460059 0.32401717 0.14519055 -0.016013596
000390 22 bd d1 3d 77 b4 06 3f 2a d2 7c 3e 84 c7 a5 be
       0.10241152 0.5261912 0.24689546 -0.3237878
0003a0 9d 56 23 3d 2f e8 64 be 11 8a 28 3e b9 af be bd
       0.039877523 -0.22354196 0.16458918 -0.0931086
0003b0 1c 7d 59 be 7f 55 44 3e 8c 44 41 bd 43 9c 08 be
       -0.21239132 0.19173239 -0.047184512 -0.13340859
0003c0 7d 92 64 be 72 fd 70 3e 60 98 39 3e 76 b0 f7 bd
       -0.22321506 0.23534182 0.18124533 -0.12094204
0003d0 ec 06 62 be 2e d2 c2 3d 96 e4 6b bd 13 1d 23 bf
       -0.22072953 0.09512745 -0.057591043 -0.6371624
0003e0 7c 31 3a bd da 19 52 3e e9 c2 8e bd 77 2d a4 be
       -0.04545735 0.20517674 -0.0697077 -0.32065937
0003f0 ef 6a 91 be 33 75 53 be f5 76 90 3e 9a 1a 48 bd
       -0.28401896 -0.20650177 0.28215757 -0.048853494

encoder.conv.convs.1.bias f4 [40]
000000 c9 94 4f bc 20 f2 7f bc 3b 75 07 bd f8 93 f4 3b
       -0.0126697505 -0.015621692 -0.033070784 0.0074639283
000010 6d 44 de 3d 79 01 86 bc 24 02 fb 3b 06 0f 43 bc
       0.10852895 -0.016358124 0.0076601673 -0.011905437
000020 94 dc 3a bd 3f 1b 49 be 5c e6 8c bd 9c 92 01 bd
       -0.045620516 -0.196393 -0.06879875 -0.03163396
000030 23 8d d8 3c 3a c4 7a bc a5 34 36 3d 24 f4 ea 3d
       0.026434487 -0.015305573 0.0444838 0.114723474
000040 75 59 fa bc 34 c5 57 bc f3 79 82 3a db dd bb 3c
       -0.030560235 -0.0131695755 0.0009954557 0.022932937
000050 48 8c 58 3d c9 78 e9 bc 76 39 3f 3d 3f ca 4c 3d
       0.052868158 -0.028499978 0.04668566 0.049997564
000060 74 c2 b0 3a 00 c0 ce ba 6d c9 48 3d d9 1c 46 bb
       0.0013485686 -0.0015773773 0.04902022 -0.0030229597
000070 62 27 84 3d 0f 82 9e bd de bf 09 3d b1 c2 1c be
       0.06452824 -0.077396505 0.033630244 -0.15308644
000080 07 21 22 3c fe a0 94 3d b5 ff ae bc 31 e2 a2 3c
       0.00989557 0.07257269 -0.021362165 0.019883247
000090 57 47 07 3d c8 4e 63 3b d1 66 c7 bd 74 7f 96 3d
       0.03302702 0.0034684408 -0.097364075 0.073485285

encoder.conv.convs.1.lin.weight f4 [40, 40]
000000 37 b9 44 be 2e ea 80 bd 72 6b 00 bf 5f 75 af 3d
       -0.19211279 -0.06294666 -0.5016395 0.08567309
000010 9d ab 45 3e 28 b0 b8 bd f3 ef 13 be 1d b1 12 3e
       0.19303747 -0.09017974 -0.14447002 0.14325376
000020 46 f2 ba 3d 9a d8 98 3e 06 0b c8 bb e9 0c 06 3d
       0.09128241 0.29852754 -0.0061048297 0.032727156
000030 32 9e 8f 3e 0f d2 25 3e a0 5e 44 be 92 0d 99 bd
       0.2805038 0.16193412 -0.19176722 -0.074732915
000040 77 35 8d 3e 70 3d 01 3e 07 c0 4d 3e 92 3d c4 3e
       0.27579853 0.12621093 0.20092784 0.38328224
000050 79 f2 85 3d 3c c8 f6 3c a9 ed 03 3e 1c dc d6 3d
       0.065403886 0.030124776 0.12883629 0.10491201
000060 54 9d 25 3e 17 cf 32 3f cb 33 e4 bc 8e 19 13 bf
       0.16173297 0.69847244 -0.027856728 -0.5746087
000070 3a 4c af 3d 27 1e 3c be 0f 6b 2c 3e 60 7b aa be
       0.08559461 -0.18370877 0.16837715 -0.33297253
000080 29 50 55 3e c1 7c f8 3c c0 89 56 be e2 1f f6 be
       0.2083136 0.030332925 -0.20950985 -0.480712
000090 bd 4a 10 bf c1 e6 47 be 65 20 90 3d 1c 62 5b 3e
       -0.5636404 -0.1952162 0.07037429 0.21424145
0000a0 f8 4d a1 3d f8 42 61 be 86 28 8f be 4a f9 28 3e
       0.078761995 -0.21998203 -0.27960604 0.16501346
0000b0 11 33 83 be c8 45 ee be 84 7d 2e be 5a 58 ad 3e
       -0.25624898 -0.46537614 -0.17040068 0.3385647
0000c0 39 f5 2b be 03 e0 71 3e ca 40 13 be b1 b5 f6 bc
       -0.16792764 0.2362061 -0.14380184 -0.030115934
0000d0 81 cc 8e be 33 b8 45 bd ec 6d f0 be 68 9a 4f be
       -0.278904 -0.04827137 -0.46958864 -0.20273745
0000e0 8a 10 b1 3b 39 8e 37 3d 21 49 d0 be 21 3d ba 3e
       0.005403583 0.04481337 -0.40680793 0.36374763
0000f0 36 cf 47 be d3 4a 29 3c f4 e0 52 3e 84 1e 22 bd
       -0.19512638 0.010332781 0.20593625 -0.039579883
000100 17 7b 79 bd 81 a6 32 3d 78 63 61 3e cc 69 94 3e
       -0.060908403 0.04361582 0.220106 0.28986967
000110 b5 f6 1e 3e ba fb 55 bd 94 d3 18 be 91 37 d4 3d
       0.15523799 -0.05224202 -0.1492446 0.10362161
000120 75 31 c8 3e 16 08 a1 be 67 3f 95 ba 3b 68 d0 3e
       0.39100233 -0.31451482 -0.0011386693 0.40704522
000130 08 21 71 be dd b4 aa bd a0 9e d2 3d 00 4d 51 3d
       -0.23547757 -0.08335278 0.102841616 0.051098824
000140 08 ab 2a bd c3 07 97 3c 6d 3f dc 3d be b9 33 bc
       -0.041667014 0.018436318 0.10754285 -0.010969577
000150 63 ef 5e 3d cd 96 da 3e 84 e3 b1 3e 0a 08 f6 bd
       0.054427516 0.42693177 0.34743893 -0.12013252
000160 f6 30 b7 bd 4b e8 24 be c2 78 89 3d 6f a3 89 3d
       -0.089448854 -0.16104238 0.06712486 0.067206256
000170 bb 8a 9a 3e 6b 15 68 3d 94 91 01 3e da 3d 4c be
       0.30183968 0.05666105 0.1265319 -0.1994547
000180 30 a3 13 3e 4f 46 aa 3d dc b8 45 bd ee d7 1f bd
       0.1441772 0.083141916 -0.048272 -0.039024286
000190 0b b8 4b bd 2f 86 7d 3e bb 08 8f be a2 21 fe 3d
       -0.049736064 0.24758218 -0.27936348 0.12408759
0001a0 f7 b2 34 be b7 db 7c bd d5 8b 17 3d 0f 75 d2 be
       -0.17646395 -0.061732974 0.03699859 -0.41104934
0001b0 3d c1 a9 bd f2 29 05 bd 36 f1 24 be f9 d9 a0 3d
       -0.082888104 -0.032510705 -0.1610764 0.07854075
0001c0 ba 3e d2 bb b7 39 06 3e 7b 55 fb bd 78 14 12 be
       -0.006416169 0.13107954 -0.122721635 -0.1426562
0001d0 df 11 2d 3e 3b 1c ad 3d ba 76 a4 3d cf 9d 72 3e
       0.16901349 0.0845265 0.08030458 0.23693012
0001e0 f7 48 a1 3e 9d b1 a5 bc 6f b2 e0 3d 0b ad dc 3d
       0.3150098 -0.020226294 0.109715335 0.10775193
0001f0 34 c0 8e be 4b 59 91 3c be ce 70 3e fc 13 28 be
       -0.27881014 0.017742774 0.23516366 -0.16413873
000200 c4 8d 0f bd 90 05 3d 3d 53 c8 06 bc fa d8 b5 3e
       -0.035047308 0.046147883 -0.008226472 0.35517102
000210 11 eb 2f bf 16 c8 0b be bb c0 20 3c 2a bf 90 3e
       -0.6871806 -0.13650545 0.0098115755 0.28270847
000220 84 74 1b be d1 8e a3 be 60 c8 95 3e 4f 1a 02 be
       -0.15181166 -0.31944898 0.29254436 -0.12705348
000230 67 2b 02 3c 95 28 d4 3c 78 42 8e 3d 6f 3b 44 3c
       0.007944918 0.025898257 0.06946272 0.011977061
000240 61 6e 2a bd f1 c2 07 bf b1 ac e6 bd 09 71 ef be
       -0.04160917 -0.5303183 -0.11263407 -0.46765926
000250 61 4b 8e 3c 04 3c 03 3e 9a ee 66 3e ba df 1c 3d
       0.017369928 0.12815863 0.22551957 0.0382993
000260 de 64 97 be 66 24 bc bd fa e0 58 bd 34 37 ba be
       -0.29569143 -0.0918663 -0.05294893 -0.36370242
000270 b8 76 b5 be 77 48 25 3e f9 e9 e2 bd f5 b5 bf be
       -0.35442138 0.16140924 -0.11079783 -0.3744351
000280 de ce 9f 3d e4 d6 04 3e 28 3b ce 3d 82 e0 86 bc
       0.07803129 0.129726 0.10069877 -0.016464476
000290 46 f5 b7 3e 6c b2 3e be ea d8 61 be 73 96 ed bd
       0.35929316 -0.1862275 -0.22055402 -0.116009615
0002a0 3a 73 96 3e 33 03 8d 3d 4d f8 75 3e fd 0f ee bd
       0.29384786 0.06885376 0.240205 -0.11624143
0002b0 7c a8 77 3e 88 aa aa be d9 ab ca bd ea 19 c0 bc
       0.24185365 -0.3333323 -0.098960586 -0.023449857
0002c0 ad 8e d9 3d c4 a9 a8 3e e1 93 9e 3e d7 18 07 3e
       0.10622916 0.3294202 0.30972198 0.1319307
0002d0 d9 8a 83 3e 45 da 04 be 21 50 a0 bd c4 6b 42 be
       0.2569187 -0.12973888 -0.078277834 -0.18986422
0002e0 d9 58 63 3d 0c 5b 41 3e 72 cd 0b be db e4 6e 3d
       0.055504654 0.18882388 -0.1365259 0.058323722
0002f0 65 bf 7f 3e 6b 8c 29 be 83 70 f0 bd 4d 91 76 3e
       0.24975355 -0.16557471 -0.1174021 0.24078865
000300 b2 5c 89 3e 45 e3 ab 3d 3f 28 03 be c5 8d 2b 3e
       0.26828533 0.083929576 -0.12808321 0.167533
000310 d7 f5 67 bd 72 a6 cb 3e 55 ff 3f be 40 2b 2b 3d
       -0.056630936 0.39775425 -0.18749745 0.041789293
000320 0b 7b 0d be 25 1e 10 be 60 c4 b3 3e ae eb 99 be
       -0.13816468 -0.14073999 0.3511076 -0.30062622
000330 4c 54 56 be 03 24 a5 3d f1 f4 9b 3e a9 c5 ef be
       -0.20930594 0.08063509 0.30460313 -0.4683049
000340 76 9f 2d be f1 2a ad be 8d 97 e7 bd 17 f6 4f 3d
       -0.16955361 -0.33821824 -0.11308203 0.0507718
000350 04 9d 26 bf c4 77 5e bd 89 f8 0f 3e 28 8c 35 be
       -0.65083337 -0.054313436 0.14059652 -0.17729247
000360 73 5a 2b bd 2d ea 1d 3e aa b3 d9 bd ea d6 12 be
       -0.041834306 0.15421362 -0.10629971 -0.14339796
000370 a1 6f 24 3e b5 a0 00 bd ab 18 7a be 8a 92 14 be
       0.16058208 -0.031403262 -0.24423473 -0.14509025
000380 b8 b4 f0 bd 83 41 b7 be 13 92 da 3c 26 18 39 be
       -0.11753219 -0.3579217 0.026680982 -0.18075618
000390 c2 9f 1a be 75 f5 36 be 99 00 41 3e 9b e1 ba 3d
       -0.15100005 -0.17867072 0.18847884 0.09125062
0003a0 f6 cb e2 be b1 4f 27 3e 79 2d dd 3c 91 f6 01 3e
       -0.44296235 0.16338994 0.026999222 0.12691714
0003b0 28 1a e9 bc e9 34 f1 3d 12 fb 64 be 35 84 48 3e
       -0.028454855 0.1177767 -0.223614 0.19581683
0003c0 ef 6e a4 3e 46 e4 08 bd 54 57 bf be 3c ce 6d 3e
       0.32115886 -0.033420824 -0.37371314 0.23223203
0003d0 ee 2f 1e be 5c 94 23 bc 15 e2 ab be 97 b4 9f be
       -0.15447971 -0.009984102 -0.33570924 -0.31192467
0003e0 29 e3 22 3e 36 01 d9 3d e5 7b 78 be 23 a0 24 3d
       0.15906967 0.10595934 -0.24266012 0.04019178
0003f0 eb 65 11 3f 7f 9d 37 3e fb c9 b5 bc 1b 00 a6 3e
       0.5679614 0.17931174 -0.022191038 0.32421955

encoder.conv.convs.2.bias f4 [40]
000000 a3 6a 9e bc c1 68 8b bc 00 00 00 00 72 3c 54 3c
       -0.019337958 -0.017017724 0.0 0.012953864
000010 7e f3 6b 3d d7 7a 11 3d ea 40 c5 bc 42 29 a9 3d
       0.05760526 0.03551754 -0.024078805 0.082598224
000020 64 05 df 3c fb 09 58 3c 6d b0 b2 3c d5 f4 cd bc
       0.02722425 0.013185973 0.021812642 -0.02514116
000030 e4 66 ef bb 3c b3 a2 bd cc c6 08 3b bd 08 0d bd
       -0.0073059667 -0.079443425 0.0020870445 -0.03443216
000040 e5 d3 2f bd 82 a8 99 be 9a 14 1d bd 9e c4 45 3d
       -0.042926688 -0.30011374 -0.038349725 0.048283212
000050 d8 d8 c6 bc b2 b7 40 bd e4 e3 ad 3d 52 a7 e9 bd
       -0.024273321 -0.047050186 0.08490732 -0.11408867
000060 00 00 00 00 8a d5 da bc 15 59 92 bc a7 35 9e bd
       0.0 -0.026713151 -0.017864743 -0.07725077
000070 9f 61 91 3d 12 b9 a1 bc 16 62 b2 bb 12 d9 24 bc
       0.07098698 -0.019741569 -0.0054438217 -0.010061519
000080 b1 0e 67 3c 6f 67 d0 3d b9 c9 3d 3d 9f 58 2d bd
       0.014102624 0.101759784 0.046334956 -0.042320844
000090 a9 21 db 3c 4f 6c a0 3d 16 2d f5 3d 92 03 e6 3d
       0.026749449 0.07833158 0.1197149 0.1123115

encoder.conv.convs.2.lin.weight f4 [40, 40]
000000 74 e9 91 3d 48 82 1c be 2c 56 19 be 9f 1d 81 be
       0.07124606 -0.15284073 -0.14974278 -0.25217912
000010 32 f9 31 bd b1 34 54 3e 09 90 aa bd 55 42 58 3e
       -0.04345054 0.20723225 -0.08328254 0.21119054
000020 d5 43 48 be 8d 00 45 bd 87 be 13 3e cf 26 2a be
       -0.19557126 -0.04809623 0.14428149 -0.16616367
000030 de be 81 3d dc b2 40 be a0 f8 1e bd f4 7a 89 be
       0.06335233 -0.1881823 -0.038811326 -0.26851618
000040 aa 31 82 bc 17 ae c1 3d 1d 95 79 be c3 dc 7d 3e
       -0.015892822 0.09457033 -0.24373288 0.24791245
000050 b1 49 73 be 28 2e e9 bd 6a e1 33 be e7 77 ae 3d
       -0.2375858 -0.11385757 -0.17566457 0.08518963
000060 f8 37 d5 bd 50 54 93 bc 16 0c 64 3e 91 41 c9 3d
       -0.10411066 -0.01798454 0.22270235 0.09826959
000070 84 e6 14 be 8e 98 fe bd 50 9c 54 3e 3b 13 18 be
       -0.1454106 -0.12431441 0.20762753 -0.14851086
000080 1b 26 94 bd c8 dc 4e be 5f 0a 51 be 1a 0f 6c be
       -0.072338305 -0.20201409 -0.20414113 -0.23052636
000090 d8 38 6d bd 3f 15 71 be bc 43 60 3e 1e f4 38 3e
       -0.05791554 -0.23543261 0.21900839 0.18061873
0000a0 43 79 c2 bd 26 71 b7 bd 1a 65 b9 3c 7b d4 37 3a
       -0.09495785 -0.08957128 0.022631217 0.0007012558
0000b0 ad 0d 9f 3e 14 9b c2 3d 8a 25 42 3d 9d d8 06 3e
       0.3106512 0.09502235 0.04739908 0.13168569
0000c0 cf b0 84 be 3e 00 1c be 44 39 34 3e b5 07 e0 bd
       -0.25916144 -0.15234467 0.1759997 -0.1093897
0000d0 27 d9 74 be 31 b3 d3 3d 2e 81 3e 3d ee 10 19 3d
       -0.23910962 0.103369124 0.046509914 0.03736966
0000e0 07 67 9f bc 38 b1 1c be 77 52 3e 3e a0 d9 0b 3e
       -0.019458307 -0.15301979 0.18586145 0.13657236
0000f0 98 09 34 be 95 7e e9 3c 3f ae 33 be 30 c9 80 be
       -0.17581785 0.028502742 -0.17546938 -0.25153494
000100 60 cf 1a 3e 53 92 a9 be 8b 39 61 bd fd b9 cd bd
       0.1511817 -0.3311945 -0.054986518 -0.1004524
000110 4a 36 74 be fc 31 8f bd f3 38 ef bd e0 ae 5a 3e
       -0.23848835 -0.06991956 -0.11680784 0.21355772
000120 6d 16 12 be 84 3c 90 bd db 54 14 bd 4a 0c 86 be
       -0.14266367 -0.070427924 -0.036213737 -0.2618125
000130 90 a6 4b be 0f 5d 32 be 3c 7f 78 be a9 26 20 3e
       -0.19887757 -0.17418312 -0.24267286 0.15639748
000140 2a 11 68 3e 0e 53 c0 bd 99 d6 df 3c 1a 40 82 3d
       0.22662798 -0.093908414 0.027324008 0.06359883
000150 8d a2 bd bd 76 24 e2 bd 9d 4f 3e be fe a3 82 bd
       -0.0925952 -0.110421106 -0.18585058 -0.06378935
000160 f3 16 81 3e 23 c9 1b be de 0c b7 bd 80 39 14 be
       0.2521282 -0.15213446 -0.08938001 -0.1447506
000170 24 d3 6e 3e f9 48 94 3d 1e ee 5f 3e dd 4d 87 be
       0.23322731 0.07240481 0.21868178 -0.26426592
000180 8d 58 89 be 7b f2 1e 3d c2 b5 27 be 1a 44 e1 3d
       -0.2682537 0.038805466 -0.16377929 0.109993175
000190 c4 72 7f 3e ae c3 25 be 1d b6 22 be 5a a7 35 be
       0.24946123 -0.16187927 -0.15889783 -0.17739621
0001a0 19 fa 46 be 49 f7 36 3d 27 e1 c9 bd 60 d6 45 be
       -0.19431342 0.044669423 -0.098573975 -0.19320059
0001b0 0c 87 80 be 9d 60 05 bc 04 a6 e6 bd 1c 41 2d be
       -0.25103033 -0.00814071 -0.11262134 -0.16919369
0001c0 36 ba 49 be 5a 09 0d be d8 96 3c 3e 93 de 1b 3e
       -0.1969994 -0.13773099 0.18416917 0.15221624
0001d0 87 12 d9 bd 1a 4a 36 bc b7 78 f6 bd ec 4c 05 be
       -0.10599237 -0.011126066 -0.12034743 -0.13017625
0001e0 d0 ed b4 bd 81 e9 84 bc 5d 34 4d be 75 cf 29 be
       -0.08834422 -0.016224625 -0.20039506 -0.16583045
0001f0 78 94 60 3e 2e 1e 23 be d5 06 ad 3e 33 5d 1d bd
       0.21931636 -0.15929481 0.33794275 -0.03841896
000200 54 1f 17 3e d7 36 57 bd b4 7a 57 3e e8 55 18 3e
       0.14758044 -0.052542534 0.21042901 0.1487652
000210 79 1a a5 be 76 d2 0b 3e b1 9e cd bd 9f 2a e5 bd
       -0.3224676 0.13654503 -0.100400336 -0.1118977
000220 4e 0c 30 3e b9 26 05 bd 28 2c 0a 3f f1 57 a6 be
       0.17192194 -0.032507632 0.5397363 -0.3248897
000230 1b 9b 17 3e 91 51 eb be 33 89 68 3e b2 d9 8f 3e
       0.14805262 -0.45960668 0.22708587 0.28095776
000240 c3 3c df bd 1d 58 2b be 23 a7 61 bd d4 66 ac bd
       -0.10900261 -0.16732831 -0.055091035 -0.084180504
000250 22 b7 a7 bd 5d 5d 86 3d a3 0d 42 bc 3e 9b 08 bf
       -0.08189227 0.065607764 -0.011844072 -0.5336188
000260 97 3d b1 3d 4a 78 a5 be 27 68 3c be ec 19 4c be
       0.086543255 -0.32318336 -0.18399106 -0.19931763
000270 e2 53 48 3e 2a c1 9a 3e b9 15 44 be 09 af e7 3d
       0.19563249 0.30225497 -0.19148912 0.11312682
000280 d5 bb 57 be 53 9a c1 be fa c8 be 3d 8f 03 e6 bd
       -0.21067746 -0.37813053 0.09315677 -0.112311475
000290 9b a0 88 3e 51 d2 2d be 11 cc 98 be 0d 26 b9 3c
       0.26685032 -0.1697476 -0.2984319 0.022601152
0002a0 87 9f 34 be a0 be 28 be 5b 61 d1 be 0d 79 22 be
       -0.1763898 -0.16478968 -0.4089459 -0.1586649
0002b0 73 20 36 3e 38 2f 3a be 8a 82 bb 3d e7 f3 f5 bc
       0.17785816 -0.18182075 0.09155758 -0.030023528
0002c0 ac 83 bb 3d 9a ec 9e 3d 19 1d 9f be f7 75 64 3d
       0.09155974 0.07759972 -0.31076887 0.055776563
0002d0 05 cb 38 3e 52 3c 97 bd 90 3d 02 3e f4 f2 51 3e
       0.18046196 -0.07384552 0.12718797 0.20502836
0002e0 c0 2b 20 bf 9c cd 4b bf d2 bc 5f bd 6f 31 90 3e
       -0.6256676 -0.7961061 -0.054623432 0.28162715
0002f0 df de 6e 3e c6 8b 01 be 3e 7b 8a 3e f3 b9 1b be
       0.23327206 -0.12650976 0.2704715 -0.15207653
000300 75 5d 4a be b1 51 ef 3d 6d 80 3e 3d 89 2f 80 3e
       -0.19762214 0.11685503 0.046509195 0.25036266
000310 97 16 4c 3e 37 ee 16 be c8 56 c3 bd 91 1d 89 3e
       0.19930492 -0.14739309 -0.095380366 0.2678037
000320 25 da 46 be 2b dd d3 be fc a3 54 3d c5 d5 9d 3d
       -0.19419153 -0.41379675 0.0519142 0.07706789
000330 62 cf 84 bc 39 17 0e bf 12 65 9d 3e a0 fc 92 3e
       -0.01621217 -0.55504185 0.30741173 0.28708363
000340 52 77 82 be 5a 09 c7 be 37 9c 37 3e 63 16 01 3d
       -0.2548166 -0.38874322 0.17930685 0.03151549
000350 8e 80 75 3e eb 00 04 3e c1 5a 66 bd 5b ca 55 3e
       0.23974821 0.12890975 -0.056238893 0.20877974
000360 07 dc d2 3d 47 15 ed 3c 0a 22 fd bc f8 56 9b bd
       0.10295873 0.02894081 -0.03090002 -0.07584947
000370 33 63 93 3b 7c 2e 3f 3e 99 d7 7a bd 53 cc 21 bd
       0.0044979095 0.18670076 -0.061240766 -0.0395015
000380 24 f2 1a bd fc c0 8e 3e 34 69 d7 3d 00 69 9d bd
       -0.03782858 0.2788161 0.10518113 -0.07686043
000390 c2 49 d2 3d 53 02 e7 3d 31 63 57 bd 5d 08 e7 bd
       0.102679744 0.1127974 -0.05258483 -0.11280892
0003a0 30 d4 b2 bd 34 f1 75 be d2 01 d9 bc fa 4b fc bd
       -0.08731878 -0.24017793 -0.026490126 -0.12319179
0003b0 07 b0 2e be 60 34 f6 bc ba 9e 81 bd 8f 2c 4b be
       -0.17059337 -0.030054271 -0.06329103 -0.19841217
0003c0 a9 66 58 be 35 ed e0 bc 78 2b 39 be a6 18 86 bc
       -0.21132912 -0.02745686 -0.18082988 -0.016369175
0003d0 d2 42 97 3d 51 e7 85 3e 00 4f f8 bd 7a 16 e5 3b
       0.07385792 0.26153043 -0.12124443 0.006991205
0003e0 bc 57 1b be 51 45 65 bd a8 fa 86 bd d2 2e 7c 3e
       -0.15170187 -0.05597431 -0.06590778 0.24627236
0003f0 a9 a6 29 be a7 38 21 3e 80 0a 8d be 60 f0 4e be
       -0.16567482 0.15744267 -0.27547073 -0.20208883

encoder.conv.convs.3.bias f4 [40]
000000 ce 68 f9 bd bb 0e d2 3b e0 9a 21 be e7 a7 f7 bc
       -0.12178193 0.0064104474 -0.15781736 -0.03023143
000010 40 e7 27 3d 07 6b 16 3d 00 92 aa 3d 55 cc 27 3d
       0.04099202 0.036723163 0.083286285 0.04096635
000020 88 07 ac bb bd dc af 3d 34 28 5d 3d 75 f5 ef 3d
       -0.005249921 0.08587024 0.05399342 0.11716739
000030 25 d3 37 bd 5c 78 f7 bb c0 fc ba 3d bd 9f 66 3d
       -0.044879097 -0.0075521898 0.091302395 0.056304682
000040 12 5b 9a bd 65 4a 4f bd b1 f1 2a bc 82 08 32 bd
       -0.075369015 -0.050608058 -0.0104336 -0.043465145
000050 36 22 38 bd c7 9d ad bc 44 fd 86 bd 85 90 78 bc
       -0.0449545 -0.021193398 -0.06591275 -0.015171175
000060 d0 f7 2a 3d ba b3 5c bd 31 42 b4 39 cf 87 3c 3c
       0.04174024 -0.053882338 0.00034381592 0.011506989
000070 6f a5 78 3d 04 c2 8c bc d2 ab 88 bd 4f ba a1 bd
       0.060704645 -0.017182358 -0.06673397 -0.07896864
000080 f3 2c d3 bc da 28 14 3e 00 00 00 00 45 c1 cf 3c
       -0.02577827 0.14468709 0.0 0.025360713
000090 09 3b 01 bd ab 8c 95 bd a0 39 22 3d 61 dc 55 bd
       -0.03155044 -0.07302221 0.039605737 -0.052212123

encoder.conv.convs.3.lin.weight f4 [40, 40]
000000 60 49 25 3e 4e a3 99 3d 25 b4 a0 3d 54 69 3d be
       0.16141272 0.07501851 0.0784686 -0.1849721
000010 41 ca 36 bf e3 4e 27 bd 8f 0b 5a 3e c2 d2 82 3d
       -0.71402365 -0.040846717 0.21293472 0.06387855
000020 7b 9a 80 be 05 f2 14 3e d6 4f 55 bf c8 45 c2 bd
       -0.2511786 0.14545448 -0.83324945 -0.09485966
000030 c1 ec 70 be 39 d0 bf be 51 63 58 bd 95 ea 13 3e
       -0.23527814 -0.3746355 -0.05282909 0.14444955
000040 b9 8f 54 3d 99 af 96 be 1c 30 d2 3e cf 46 0c bf
       0.051894877 -0.29430845 0.4105233 -0.54795545
000050 ef 9c 04 bf 8c 0f 81 3e 5b 91 08 3d b5 bc d1 3e
       -0.5180196 0.25207174 0.033341747 0.40964285
000060 b8 e1 7d be ce 94 7c 3e 65 7f b1 be 2a b0 27 3d
       -0.24793136 0.2466614 -0.34667507 0.040939488
000070 ee 2a 0d bf 3d 76 b9 3c 15 7f 57 be b1 ff ed bd
       -0.5514363 0.022639388 -0.21044572 -0.11621035
000080 43 36 56 3e 7a 01 6b 3e 54 d6 6f be 65 1e ed 3d
       0.20919137 0.22949782 -0.23421603 0.11578063
000090 6e e7 4a be bf c4 c3 bd c9 07 0e bf 91 0b 2b be
       -0.19814846 -0.09559011 -0.5548063 -0.16703631
0000a0 48 a8 38 ba b5 4f 6c 3e 42 10 82 be 3e f4 00 3e
       -0.0007044119 0.23077281 -0.2540303 0.12593171
0000b0 0d ef 65 3e ef a6 21 3e a4 32 a1 3d 57 77 57 be
       0.22454472 0.15786336 0.07870987 -0.21041618
0000c0 f3 e5 15 be 0a d4 58 be dc 67 82 be 28 49 ad 3c
       -0.146385 -0.21174636 -0.25469863 0.021153048
0000d0 14 3c 5a bd 8f 67 ef bd 33 67 3f 3d c0 9b 39 3e
       -0.05327995 -0.11689674 0.046729278 0.1812582
0000e0 3b 07 3c 3d 79 ed 94 bd b7 2c 9c 3c cb bc 91 3d
       0.045905333 -0.07271857 0.01906429 0.071160875
0000f0 38 65 8e bd 58 38 3e 3e 7a 75 46 be 15 0b 2b be
       -0.069529 0.18576181 -0.19380751 -0.16703446
000100 5c 43 01 be e2 83 27 3e 91 ff 6a 3e a6 40 7f 3e
       -0.12623352 0.16358903 0.22949053 0.24927005
000110 06 9e cd bd 3c 1a cc 3d 76 84 00 3e 52 eb 03 be
       -0.10039906 0.09965941 0.1255053 -0.12882736
000120 67 a7 5e be 86 7f 73 be dc 3c 58 3e 12 d9 02 3e
       -0.21743546 -0.23779115 0.21116966 0.12778118
000130 5e 6b 2e be 12 86 79 bd 65 c2 62 bc 39 f3 74 be
       -0.17033145 -0.060918875 -0.013840293 -0.23920907
000140 03 cb 3a 3e 62 e4 95 bd 70 d1 1e be 98 76 2e be
       0.18241505 -0.07318951 -0.15509582 -0.17037427
000150 9d 25 63 bf a5 e0 ad 3e e3 5b 1d 3e 29 ce 8b bc
       -0.8872927 0.33960453 0.15367083 -0.017066078
000160 77 f9 ba bd 11 00 93 be 07 c1 bc be c0 5f 4e 3e
       -0.09129613 -0.28710988 -0.36866018 0.20153713
000170 57 db e1 bd ef 07 de 3d 9c d0 3e 3e b9 2c 64 3e
       -0.11028164 0.10841357 0.18634266 0.22282685
000180 bd 64 1b be 06 79 2b 3e f9 07 5e 3d 2f af 3a bf
       -0.15175147 0.16745386 0.054206822 -0.7292356
000190 9e 44 0b be ea e7 c2 3d 7d 4f a2 be d5 aa 28 3e
       -0.13600394 0.0951689 -0.3170127 0.16471417
0001a0 4f 1c 10 3e a5 a9 7f 3d f9 c7 c3 be 29 a9 96 bc
       0.14073299 0.062417645 -0.38238505 -0.018391209
0001b0 3a c4 31 bf 65 56 51 3e 06 8d 3f 3c 99 e8 92 3d
       -0.6944004 0.20443113 0.011691337 0.07173271
0001c0 e1 94 25 be 3e 9c 15 3e e8 e5 b8 3a 79 32 df 3d
       -0.16170074 0.14610383 0.0014106603 0.10898299
0001d0 45 02 2b bf ed 1a 19 3e 2f 0c d3 be 4a 94 d0 be
       -0.6680034 0.14951678 -0.41220233 -0.40738136
0001e0 41 16 28 bc c4 25 5e be 34 69 0d be 5a 60 d3 3c
       -0.010259212 -0.21694094 -0.13809663 0.02580278
0001f0 5e 74 1f 3e 39 f5 6d be 69 9f 05 bc 5d 55 06 bd
       0.15571734 -0.23238076 -0.008155682 -0.032796253
000200 7d a6 1a be c2 3b 63 be 75 f2 b3 be a5 46 9b 3e
       -0.15102573 -0.22190765 -0.35145918 0.30327335
000210 f9 0f c9 3d d7 2a b1 3e e0 92 34 3e 38 14 5c be
       0.098175 0.34602997 0.17634153 -0.21492088
000220 94 94 09 3e 71 23 b9 be d5 99 4b bf 20 88 17 be
       0.13435584 -0.36159852 -0.79531604 -0.14798021
000230 67 a7 a2 be f4 f2 ba bd 2c 56 4a ba 3b 14 bc be
       -0.31768343 -0.09128371 -0.0007718529 -0.36734185
000240 38 00 34 be a1 d5 53 be be 25 a4 be cc 72 36 3d
       -0.17578208 -0.20686962 -0.32060045 0.044543073
000250 60 19 87 3d 00 78 83 bc b2 43 2b be 4b 90 a7 bc
       0.06596637 -0.016048431 -0.16725042 -0.020454546
000260 e5 7c 9b 3d 9c 60 0b bc 84 fe 4e 3e 5a 03 98 bd
       0.07592181 -0.00850692 0.20214278 -0.07422514
000270 f2 79 29 3e f0 21 9d 3e 1c 58 e6 3c 58 92 8e bd
       0.16550425 0.30689955 0.028118186 -0.069615066
000280 cd 16 6c be db 65 2f bd ef c7 d2 bd 90 62 a2 be
       -0.23055573 -0.042821746 -0.102920406 -0.31715822
000290 35 9a 9b 3e ea ae 7a 3d d8 fc 2e 3e 90 e1 a8 3d
       0.30391088 0.061201967 0.1708864 0.08246148
0002a0 02 16 0f bd a9 17 ec 3d ce e3 75 3c 1b 40 6f 3e
       -0.034933098 0.1152795 0.015007926 0.23364298
0002b0 be 30 c4 bd 44 d6 7c 3c 57 57 15 bf 63 a2 9a 3c
       -0.09579609 0.015431944 -0.58336395 0.01887626
0002c0 5f f6 82 3d fc 01 84 be f7 66 37 3e 97 0f ad 3c
       0.06394648 -0.25782764 0.17910372 0.021125598
0002d0 3c 94 18 3e 86 a7 67 be 2c ca 20 be 5d f2 13 bf
       0.14900297 -0.22622499 -0.15702122 -0.5779169
0002e0 1a eb c4 bd 2d da 59 3e e6 6f 0e bd 8a 52 9a 3e
       -0.096151546 0.21274634 -0.034774683 0.30141097
0002f0 28 a3 05 be 23 c3 7d 3d be fa 6f bd 93 be b6 bd
       -0.1305052 0.061953675 -0.058588736 -0.08923068
000300 e5 d8 bc be 1a ff 2b bd 3c 9f e2 3d ef 13 fb 3d
       -0.36884227 -0.04199133 0.11065528 0.122596614
000310 21 18 21 3e 99 0d 5f be b3 33 9d 3e 3f 64 7e 3e
       0.1573186 -0.21782531 0.30703506 0.24842928
000320 53 e2 7a bd c8 b6 73 bd 60 2f 81 be 5c 45 df be
       -0.061250996 -0.059500486 -0.25231457 -0.43607605
000330 0b 5e 08 3e 6e 81 27 be e3 0e 38 3e 56 b5 b3 3d
       0.13317125 -0.16357967 0.17974429 0.087748215
000340 88 4c 1c bd e0 34 05 3e 5f 6d c9 bd a1 de 25 be
       -0.038158923 0.13008451 -0.09835314 -0.16198207
000350 cd c8 2e be 6d 8f 71 be e8 8d fc 3d 90 c1 4d bd
       -0.17068787 -0.23589869 0.12331754 -0.050233424
000360 f8 59 12 3e fc 42 18 3e 79 b8 42 be 58 45 e6 bd
       0.14292133 0.14869303 -0.19015683 -0.11243695
000370 9f 9b ea 3d be 2a 66 be 78 a3 28 be da bc 3a be
       0.114554636 -0.22477242 -0.16468608 -0.18236104
000380 5c c6 56 be dd 34 64 be fd fd 78 3d a9 50 5b be
       -0.20974106 -0.2228579 0.060789097 -0.21417488
000390 27 4f e0 3d 52 1d 8f bd 1d 92 23 be 3b 03 5f be
       0.10952597 -0.06988014 -0.15973707 -0.21778576
0003a0 6a 23 c5 bd 6e 5c 6e bb 71 3a d1 bd 72 30 5a 3e
       -0.09625895 -0.003637101 -0.10216225 0.21307543
0003b0 b9 8f 30 3e ff b5 8b 3e ef 23 09 3e be 01 f0 3d
       0.17242326 0.2728729 0.13392614 0.11719082
0003c0 2d 23 96 bd 9e ee 13 be 1d 51 3d 3e 19 c3 d9 3d
       -0.07330928 -0.14446494 0.18487974 0.10632915
0003d0 32 e9 66 bd e7 bd 1b 3e fc 27 6d 3e 7a 1d 54 3e
       -0.056374736 0.15209161 0.23159784 0.2071437
0003e0 98 21 7f 3e 9e 4a 9b 3e 90 5d 0d bd a4 e1 83 3e
       0.24915159 0.30330366 -0.034513056 0.25758088
0003f0 d7 e9 22 3e bb 2c 6a bc 6c 6b 0e bf 33 35 5d be
       0.15909515 -0.014292891 -0.5563266 -0.21602325

encoder.conv.convs.4.bias f4 [40]
000000 38 c5 8e 3d 9c 8c 31 3d 65 9b ad 3c c1 4b c2 bd
       0.0697121 0.043346986 0.021192262 -0.09487105
000010 7e a9 03 bb 79 6d 90 3d db 3a 02 be 53 c1 24 bd
       -0.002009004 0.0705213 -0.12717764 -0.04022343
000020 e3 90 bc bd 66 64 41 bd d6 21 16 3d 5c 26 2c bc
       -0.092073224 -0.047214888 0.036653362 -0.010507192
000030 2c a8 08 3c a9 7a 80 bd 0d 17 be bc 84 7b 4c be
       0.008340877 -0.062733956 -0.02320435 -0.19968992
000040 61 10 f1 3d 89 32 c9 bd 69 3b bf 3d c2 be 8d bc
       0.11770702 -0.09824092 0.093375035 -0.017302874
000050 7e 79 f4 3d 8b c5 86 3d c4 1d 2e 3c 54 e2 87 3d
       0.11937235 0.06580647 0.010627214 0.066349655
000060 c0 1e 26 be 4e 11 a7 3d 95 1e 8b 3d 2d 89 90 3c
       -0.16222668 0.081575975 0.067929424 0.017643536
000070 34 cd 36 be b7 8a 56 bd 86 a3 cb bc d5 bb ca 3d
       -0.17851716 -0.052378383 -0.024858247 0.09899107
000080 5b 21 85 3d da 0d 4d bd b5 23 d8 3b 3b 2c b3 3d
       0.06500503 -0.050062038 0.0065960535 0.08748671
000090 e4 dc b8 bb b9 90 19 bd dd 76 5a 39 9b fe 86 bc
       -0.0056415666 -0.037491534 0.0002083438 -0.016478827

encoder.conv.convs.4.lin.weight f4 [40, 40]
000000 0c 18 8d be 05 57 fc bd ca 22 8c be d2 3e 45 bd
       -0.2755741 -0.12321285 -0.27370292 -0.048155613
000010 3a da 7b be cf 96 35 3e f2 be b3 be 32 14 0c be
       -0.24594966 0.1773331 -0.35106617 -0.13679579
000020 ac 8f 79 be 4b 55 66 3e 7a cf 97 3e c8 05 9d bd
       -0.24371213 0.22493474 0.2965048 -0.07667118
000030 f7 2b 9e 3d 3f 39 72 bc 79 d8 e6 3d 99 38 b1 3d
       0.077232294 -0.014784156 0.11271758 0.08653373
000040 e9 9d a4 3d a0 8a be be a0 12 10 be 84 e8 14 bd
       0.080379315 -0.37215137 -0.14069605 -0.036354557
000050 93 4d 07 3e 9d 9f b4 3d 37 2c 31 3e 12 37 bb bc
       0.13213186 0.08819506 0.17302023 -0.022853408
000060 8c 65 e1 3e a7 13 c0 bd a6 81 83 be a3 63 27 be
       0.44022787 -0.093787484 -0.2568485 -0.16346602
000070 e4 e4 f2 3d b2 bd 7f be 49 6e 69 3d 1d af 9d 3d
       0.11860064 -0.24974707 0.05698994 0.07699416
000080 f5 1a 2c be 67 6e 94 3e 85 54 6b be f8 24 30 be
       -0.16807158 0.2899048 -0.2298146 -0.17201602
000090 59 bc eb 3d 62 ad c5 3c 40 09 65 bc 4f 58 96 3e
       0.11510534 0.024130527 -0.013979256 0.2936425
0000a0 75 ba e7 3d 48 60 38 bd 2e 84 27 be 73 a7 30 be
       0.11314861 -0.045013696 -0.16359016 -0.17251377
0000b0 bd 96 24 be 43 b5 0a be ee d9 b2 bd ae d4 1f 3e
       -0.16073127 -0.13545708 -0.08732973 0.15608475
0000c0 2b cd 6d be 44 18 bf 3d cd c3 4a 3e d8 b6 be 3d
       -0.23222797 0.093308 0.19801255 0.093122184
0000d0 3d 2b 1a bd 7d 01 6a 3e be d7 0d be 1b 59 86 3d
       -0.03763889 0.2285213 -0.1385183 0.06559964
0000e0 27 c7 4b 3e cb f6 e7 be aa cf 4c be d0 a5 95 be
       0.1990019 -0.45305476 -0.20001093 -0.29228067
0000f0 b6 76 82 be 01 df 31 be d4 a7 8d bd 95 75 5d 3d
       -0.25481194 -0.17370225 -0.06916776 0.054067213
000100 ad 04 11 bd 9d 10 5c be 8c 27 92 3e 7b 4f 3b 3e
       -0.03540485 -0.21490712 0.28545797 0.18292038
000110 9e de c6 bb 55 c2 78 3e ed 5a 1e be 26 a1 78 be
       -0.0060690185 0.24292882 -0.15464373 -0.24280223
000120 66 29 53 3e 89 b5 73 3e d1 2f 85 3e 94 3a 28 be
       0.20621261 0.23799719 0.26013044 -0.16428596
000130 a9 4e 65 3e a2 17 fe bd e7 79 2e 3e 13 64 2d 3e
       0.22393288 -0.12406851 0.1703869 0.16932707
000140 4d e6 9a 3e b9 82 60 be a0 be 09 bc 3f de 26 be
       0.3025383 -0.21924867 -0.008407265 -0.16295718
000150 a0 91 a1 3e f2 a5 75 3e 3a a1 93 be 6e 80 83 be
       0.31556416 0.23989084 -0.28833944 -0.25683922
000160 4a ae e5 3e 49 70 ac be ad 7b bf bd 7e e2 4c be
       0.44859535 -0.33679417 -0.09349761 -0.20008275
000170 bb 3f a1 be de 58 ec 3d 00 9a ed 3d 75 ea 86 3d
       -0.31493935 0.115403876 0.11601639 0.06587688
000180 f4 f8 17 be c8 8d f2 bd 30 c7 ad bd 35 86 8f be
       -0.14841062 -0.11843449 -0.084852576 -0.2803208
000190 4d 79 3f be 16 03 34 3e f3 73 a3 3e 66 10 38 be
       -0.18698616 0.17579302 0.319244 -0.17975006
0001a0 74 66 9d 3e 47 76 e2 3d 91 e9 e7 bd 51 36 4e 3d
       0.30742228 0.11057716 -0.11323846 0.05034477
0001b0 ca 24 25 be 8d 04 29 be aa e4 a9 be 90 04 e6 bd
       -0.16127315 -0.16505642 -0.3318227 -0.11231339
0001c0 7f 85 a9 3c 1a 35 90 be f4 03 82 3e bb 30 28 3d
       0.020693539 -0.28165513 0.2539364 0.041062098
0001d0 aa 09 00 be 2a 3f 1a bd c8 08 55 be fb e5 73 be
       -0.12503687 -0.037657894 -0.20804131 -0.238182
0001e0 3a 12 92 bd 1e cb 4a be 08 14 c7 3d 79 79 e6 3d
       -0.07132383 -0.19804046 0.097206175 0.11253638
0001f0 95 b7 4a be f5 ef 4b be a5 44 24 be 92 3c 51 3e
       -0.19796593 -0.19915755 -0.16041811 0.20433262
000200 41 b6 d5 3d 10 8e 05 3e 2b 79 9b be 01 bf 7e be
       0.10435153 0.13042474 -0.3036588 -0.2487755
000210 9a 5c 10 be 4c 3b 1d be 2e 20 1b 3e 28 9a 52 bd
       -0.14097825 -0.15354651 0.15148994 -0.051416546
000220 b2 39 80 3e e4 ea 93 3e 52 d8 2b 3e c9 02 1c 3e
       0.25044018 0.28890145 0.16781738 0.15235437
000230 87 e0 03 3b fd b3 41 be 82 cb 22 3e e3 6d 91 3d
       0.0020122842 -0.18916316 0.15897945 0.07101037
000240 0e 55 fb ba ee 3f 20 3c e9 59 23 be c5 68 c5 3d
       -0.0019175129 0.009780867 -0.15952267 0.09639124
000250 d5 88 c0 3d 50 31 8f 3c 02 06 3b be 0e d8 e1 bd
       0.09401099 0.017479569 -0.1826401 -0.11027537
000260 8b 89 c7 bd a0 e8 35 3e 1e 8b 4a be 69 1f 8e bc
       -0.09743031 0.1776452 -0.19779631 -0.017348962
000270 ba 84 01 3e 68 47 06 3e 5a 8d db be a8 37 8d 3e
       0.12648287 0.13113177 -0.4288128 0.27581525
000280 c2 50 3a be 2d 20 4b be 0d de 24 bc 7a 23 98 be
       -0.18194869 -0.19836493 -0.010062707 -0.29714566
000290 e5 a4 b0 3e b3 50 88 3e 80 6e 7c 3e 20 99 9d 3e
       0.34500805 0.2662407 0.24651527 0.30780888
0002a0 61 09 b4 3e 40 32 a2 3e 06 74 30 3e c9 37 b4 3b
       0.35163406 0.31678963 0.1723176 0.005499814
0002b0 87 fe 53 bd b6 0c 7a 3e 36 38 45 3e c8 b1 78 3e
       -0.051756408 0.24418911 0.19259724 0.24286568
0002c0 80 17 9d bd 98 9d b8 be 0b 45 39 be 69 75 2e 3e
       -0.07670498 -0.36057734 -0.18092744 0.17036976
0002d0 07 0c db 3d 99 c7 5c be 9d b2 5f 3c 46 03 91 bd
       0.106956534 -0.21560515 0.013653425 -0.070807025
0002e0 26 3e 17 bf 16 0c 05 be b4 6d 67 3c f7 0c 5d be
       -0.59079206 -0.12992892 0.014125276 -0.21586977
0002f0 13 ab 8b be 50 db 0e 3d 6d 34 92 be 4b 73 29 be
       -0.27278957 0.03487712 -0.28555623 -0.16547887
000300 5b c9 6f be 73 b2 1a 3e 7d b7 18 3e 2f de 9f be
       -0.23416655 0.15107135 0.14913745 -0.312242
000310 cb da 7f be 6d 44 21 bc 8d fe d0 3d 9b e7 d2 bd
       -0.24985807 -0.009842974 0.10204802 -0.102980815
000320 4e da 70 3e c6 93 90 3d bf a6 ba be 68 0e d0 bd
       0.23520777 0.070594355 -0.36455342 -0.10158998
000330 b8 6d b8 bd fe e3 12 3e fc 51 a4 3d 3e 5a 91 3d
       -0.09005302 0.14344785 0.0802345 0.070972905
000340 54 58 a2 3e d6 91 21 3e aa 80 3e be e1 f0 8c 3e
       0.31708014 0.15778288 -0.18603769 0.27527526
000350 ed f5 d3 be d7 e5 d8 3d ac 8f d5 3d 56 8e 12 be
       -0.41398564 0.105907135 0.10427794 -0.1431211
000360 ed 84 ac 3d e6 9e 80 3e 34 5a aa bd 71 0c 41 be
       0.08423791 0.2512123 -0.08317986 -0.18852402
000370 01 1a 4a bc b4 d1 49 3e f0 94 5c bd 95 c9 e7 bd
       -0.012335301 0.19708902 -0.053852975 -0.113177456
000380 2e 62 9b be 95 7d 66 be 3c 39 d8 3d ff 9b 0a 3d
       -0.30348343 -0.22508843 0.105577916 0.033840176
000390 ee 79 31 3e de b8 68 bd 82 a1 f6 3d ac 8c 5b bc
       0.17331669 -0.056816928 0.12042524 -0.013400238
0003a0 fa 46 dd bd 7d 9f 6b 3e c2 05 65 3e e0 b3 36 be
       -0.10804553 0.23010059 0.22365478 -0.17842054
0003b0 e7 1b 16 3d b7 57 58 3e 64 a0 a9 3d 53 e0 63 be
       0.036647703 0.2112721 0.08282545 -0.22253542
0003c0 24 38 ed bd 7e 12 2b 3e dc 2d 00 3e 6b e7 ce 3d
       -0.115829736 0.16706273 0.12517494 0.10102733
0003d0 b4 17 12 be 35 86 17 3e 1c 61 1e bf 7b ad a5 be
       -0.14266855 0.1479729 -0.6186693 -0.32358918
0003e0 c4 ba c1 be 58 24 36 bf 7f cf cc bd a1 09 71 be
       -0.37837803 -0.71149206 -0.10000514 -0.2353883
0003f0 e7 65 1c be 0d 0a cb 3a 8b 98 06 3e 8d e6 58 be
       -0.15273248 0.0015490666 0.13144128 -0.21181698

encoder.conv.convs.5.bias f4 [40]
000000 c2 a4 b5 3d 5a cf 20 bd ed 47 46 bd 0a bc 89 bc
       0.08869316 -0.039260246 -0.048408438 -0.016813297
000010 54 04 84 3d 93 e9 6c bc 40 13 d8 bc 46 b1 9b 39
       0.06446138 -0.014459985 -0.026376367 0.00029695983
000020 e7 0d 40 3d 76 41 53 3d 31 33 cb bb 94 a5 a2 bc
       0.04688826 0.0515761 -0.006201171 -0.019854344
000030 a7 65 e8 3d 2d 12 c7 3c 68 ba 03 3d e3 c5 de 3b
       0.11347514 0.02430066 0.032160193 0.0067984923
000040 38 af 5d bd 88 54 8d 3d 56 37 54 bd db 35 35 ba
       -0.05412218 0.06900889 -0.051810585 -0.0006912627
000050 4b d5 87 bd d0 d9 c8 3c 94 45 56 bc 37 c9 c4 bb
       -0.06632479 0.024517924 -0.013078112 -0.006005432
000060 17 6d 59 3d e9 01 fa 3c 66 29 85 3d 5c b2 8b bb
       0.05308255 0.030518489 0.06502037 -0.0042632055
000070 16 fe 03 3c de 08 bb 3d 68 fe 32 3c ba 20 01 bd
       0.008056184 0.09132551 0.010924913 -0.03152535
000080 62 bf 84 bc b6 fe 15 bd e3 4f 91 3c 5b 44 59 bd
       -0.01620454 -0.036619864 0.017738288 -0.053043704
000090 84 22 5f bc 86 ae 01 3e 00 00 00 00 05 6d fe bc
       -0.013619069 0.12664232 0.0 -0.031057844

encoder.conv.convs.5.lin.weight f4 [40, 40]
000000 ef b4 29 3e c1 c2 08 3e a4 fe 10 bf 44 cc 17 bd
       0.16572927 0.13355543 -0.5663855 -0.037060037
000010 5f 74 8a be c9 18 98 3d ea 9e ee be 8c ab 6d 3d
       -0.2704191 0.074266024 -0.46605617 0.058024928
000020 08 5c 08 bf 1e 66 d4 3d 4e f5 9e 3e 57 03 83 3c
       -0.5326543 0.1037104 0.31046528 0.015992803
000030 72 3d 3a 3c 45 44 b2 3d 9a df 6d be 35 94 85 be
       0.011367189 0.08704428 -0.23229828 -0.26089635
000040 3c 39 13 3e 87 7b d9 be 4d b1 d6 3e b0 01 4f 3d
       0.14377302 -0.42477056 0.41932145 0.05053872
000050 95 f8 f3 3d 95 e8 b8 3e 97 79 1c bd 91 48 11 3e
       0.11912648 0.36114946 -0.038201895 0.14187838
000060 5d 8e 07 bf 41 24 18 3d a4 7f 31 3e 76 ea f7 bd
       -0.52951604 0.03714395 0.17333847 -0.12105267
000070 c8 90 03 bf ff 01 0e be ab fc ae bd 1f 9d 70 3e
       -0.51392794 -0.13867949 -0.08544286 0.23497437
000080 13 25 0b 3e 8f 5e ca bd e3 6c 0f 3e e3 cd 6e 3d
       0.13588361 -0.09881317 0.1400638 0.058301818
000090 14 6c 39 3d 76 32 13 bf 67 8d b9 bd b2 58 90 bd
       0.045269087 -0.5749887 -0.090601735 -0.07048167
0000a0 f0 7c 2b 3e 7c 07 51 be 2f 2f 34 be d7 8f 0d bd
       0.16746879 -0.20413011 -0.17596124 -0.034561004
0000b0 fd 17 45 be 5b 69 b8 bd ef af 7e 3e ea 2c 66 3e
       -0.19247432 -0.0900447 0.24871801 0.22478071
0000c0 27 c4 00 bd 02 c7 a4 3d eb 26 8b be cb 2d fa 3a
       -0.031437065 0.0804577 -0.2717813 0.0019087134
0000d0 d6 a6 d0 3d 44 be aa 3d 5c fa 4a be 37 26 88 bd
       0.101880714 0.083370715 -0.19822067 -0.06647914
0000e0 0c ea 40 3e 77 59 e1 bd 63 21 8a be e6 1a 70 bd
       0.18839282 -0.11003392 -0.26978597 -0.058619402
0000f0 22 b5 e3 bd c3 f4 76 be 9e 64 85 bd 17 09 2c 3d
       -0.11118533 -0.24116807 -0.06513332 0.042000856
000100 ef cf 2e bd 3d ad 45 be cd 0d 95 bd ab 00 69 3e
       -0.04267877 -0.19304366 -0.07278023 0.22754161
000110 bf 70 47 3d 8e b3 3c be f9 90 8f 3d 9d e0 62 be
       0.048691507 -0.1842787 0.07010073 -0.22155996
000120 8b 6d 6a bd c2 c9 0e be 2f 79 50 3e e2 a5 c9 3d
       -0.057233375 -0.13944152 0.20358728 0.09846093
000130 74 41 9c be 50 0f ff 3d 8b 8b 16 be e5 90 a9 3c
       -0.30518687 0.124540925 -0.14701669 0.020698974
000140 dd 22 61 3d 19 3a 84 be fb fb 5f be 29 1b 8a be
       0.05496489 -0.25825575 -0.21873467 -0.26973847
000150 d9 96 bc bc 5d 12 70 be 4f cd 0e be a2 55 dd bd
       -0.023021149 -0.23444505 -0.13945507 -0.10807349
000160 a3 89 cf 3c aa 88 54 3e ce 03 9f be b2 19 3b 3e
       0.025334185 0.20755258 -0.3105759 0.1827152
000170 86 78 91 bd 98 64 77 be 14 1b 65 3e eb 19 fa bd
       -0.07103066 -0.24159467 0.2237361 -0.12211975
000180 8e a0 3e 3e 7f 96 b5 3d fc 04 23 3e 22 dc 47 3e
       0.18615934 0.088665955 0.1591987 0.19517568
000190 ed a5 34 be 67 0d 8c be d8 fd 1c be 80 bc 3b 3e
       -0.1764142 -0.27353975 -0.15331209 0.18333626
0001a0 27 31 cb bc 4f f1 08 3e 62 c1 bf bd 2d 2a 96 be
       -0.024803711 0.13373302 -0.09363057 -0.29329053
0001b0 15 59 23 be 6c d8 15 3e e8 6e 09 3e a8 4b 93 be
       -0.15951951 0.1463334 0.13421214 -0.2876866
0001c0 0c 16 8e be 61 18 53 bd a5 c0 69 3d 67 83 ad 3d
       -0.27751195 -0.05153692 0.057068486 0.08472329
0001d0 48 39 2a be 54 47 39 be 86 d5 86 bb 4e ca 0f be
       -0.16623414 -0.18093616 -0.0041148094 -0.14042017
0001e0 9e 40 9c 3d 45 f7 c2 bc 80 cf 4c be 10 c9 07 3e
       0.07629512 -0.023799548 -0.2000103 0.13260293
0001f0 df 48 c5 bc b6 ec 17 be f6 f1 5e 3e 9b ec 83 3d
       -0.0240826 -0.14836392 0.21771988 0.06441613
000200 d5 86 e2 bd 8b 06 0e 3e 71 8a 92 be 70 27 08 bd
       -0.110608734 0.13869683 -0.28621247 -0.033240736
000210 25 32 54 3d ef e4 21 bd bd 77 ce 3c c1 f4 cf 3d
       0.051805634 -0.03952497 0.02520358 0.10154105
000220 5b d6 84 be fd d9 16 bd 32 eb 3a be b1 e2 a3 3d
       -0.2594479 -0.036828984 -0.18253782 0.08002222
000230 16 47 86 be 92 c8 36 be 65 7d 7d bd c3 62 22 3e
       -0.2622611 -0.17849949 -0.061887164 0.15857987
000240 1e c6 62 bd 0d 0c 13 bd 64 25 03 3e fc 1c 24 be
       -0.05536472 -0.035900164 0.12807232 -0.16026682
000250 c2 3c 17 3e fe 0a 12 3c c3 7f f4 3d d6 fa 74 be
       0.14769271 0.008913754 0.11938431 -0.23923811
000260 39 60 ef bd 30 b1 77 be 8e ff 31 3e c5 c0 84 ba
       -0.11688275 -0.24188685 0.17382643 -0.001012825
000270 5c 88 8a bd 37 d7 9c 3d e4 ed 7c 3d 42 eb 35 3e
       -0.0676429 0.076582365 0.061750308 0.17765525
000280 5f d0 8a 3e ae 39 6b 3d 72 f5 85 be ff c7 68 bd
       0.271121 0.057428055 -0.26163822 -0.056831356
000290 f6 ad bb 3b 30 95 79 be 84 36 d1 be 6e 4e 4c be
       0.005727525 -0.24373317 -0.40861905 -0.19951794
0002a0 42 fe 17 be 2a d5 97 be 74 46 55 3e b1 00 a8 3d
       -0.14843085 -0.2965482 0.20827657 0.08203257
0002b0 45 a3 11 3e 60 0b 05 3e 43 37 a2 3d f6 10 50 be
       0.14222439 0.1299262 0.079206966 -0.2031897
0002c0 ab 1d 5a 3e 77 0f 0d bf c9 f4 94 3e 91 9d 3c be
       0.2130038 -0.5510172 0.29093006 -0.18419482
0002d0 2a a8 4c 3e c8 d5 14 bd c9 9c 0e be 93 76 b1 bc
       0.19986024 -0.03633669 -0.13926996 -0.021662986
0002e0 52 ee 0b be 09 32 c3 bd 56 69 02 3e 0d a7 92 be
       -0.1366513 -0.09531028 0.12735495 -0.28643075
0002f0 40 e3 e5 3c 09 60 0d be 07 1f 90 be dd 6b 97 3e
       0.028062463 -0.13806166 -0.28148672 0.2957448
000300 07 62 4d be 35 98 e6 be 92 c6 04 bd 12 6b ae 3c
       -0.20056926 -0.45038 -0.032415934 0.02129129
000310 0b ff e6 bc 22 6d 0f 3e 0f 5c 9c 3e ca 73 56 be
       -0.028197786 0.14006475 0.30538985 -0.20942608
000320 2d 7a 0e be 78 a5 de bd a0 83 98 bd 4c 7e 39 3e
       -0.13913794 -0.108714044 -0.074469805 0.18114585
000330 69 2e 54 be c6 ba 3c 3e d3 93 2c 3e 5c da 19 3e
       -0.20720829 0.18430623 0.16853265 0.15024704
000340 fe 62 42 3e b5 4b 85 3e 2e 7b 0b be a7 2a 44 be
       0.18983075 0.26034322 -0.13621208 -0.19156896
000350 5e cb 22 bb f3 94 1f 3c 80 54 1a be 99 bd 44 be
       -0.0024840455 0.009740102 -0.15071297 -0.19212951
000360 25 c8 8a 3c e0 28 c1 bd 92 75 78 bd 35 40 3e 3e
       0.01694114 -0.094316244 -0.060659 0.1857918
000370 58 fe f8 bc 37 c3 02 bd bd c2 4e bd bd 18 22 be
       -0.030394718 -0.031924453 -0.050478686 -0.1582975
000380 b6 f1 d2 3d 6d 2d b5 bc 29 8a 6e 3e 6e 46 8d be
       0.10300009 -0.022116387 0.23294891 -0.27592796
000390 09 71 38 3e 87 46 5f be 61 26 73 3e a7 c1 e0 bd
       0.1801187 -0.21804248 0.23745109 -0.10974436
0003a0 9d 79 f5 bb a2 e4 56 3e ee 09 67 3e 2f bd 18 3e
       -0.007491304 0.20985654 0.22562382 0.14915918
0003b0 20 78 9c be dc 94 26 3e be 98 45 bc 8c 90 e1 bd
       -0.30560398 0.16267723 -0.012060342 -0.11013898
0003c0 cc 9d c6 bd 05 50 86 3d ad af 3f be 33 67 25 bd
       -0.09698066 0.06558231 -0.18719359 -0.04038162
0003d0 82 52 42 be 16 7e e6 3d be 60 86 3c 34 f0 69 be
       -0.18976787 0.11254518 0.016403552 -0.22845536
0003e0 62 f3 19 bc 8a 14 da bd fa ff 63 3d 1d 1d 3f 3c
       -0.009396406 -0.10648449 0.05566404 0.011664656
0003f0 aa 00 55 3e 3f 3d 05 3d e2 1b 8b 3d d3 bd 38 be
       0.20801035 0.032529112 0.067924276 -0.18041162

encoder.conv.convs.6.bias f4 [40]
000000 00 00 00 00 00 00 00 00 a9 3d 6a bd c9 0c a4 3c
       0.0 0.0 -0.05718771 0.020025628
000010 80 45 45 bd b2 d9 ad 3c f1 08 ba bc 7f 26 c8 bb
       -0.048161983 0.02122197 -0.022709342 -0.0061081047
000020 a4 fe 62 bd c5 56 7c 3c 54 ec 3b be f6 26 5a 3d
       -0.055418625 0.015401547 -0.18351871 0.053259812
000030 71 69 82 bd eb e0 05 bd c1 21 a0 bd 54 90 ae bc
       -0.063677676 -0.0326852 -0.07818938 -0.021309055
000040 51 af 9b 3d d4 b6 dd bd 0c 3d 12 bd 60 61 fc bc
       0.07601798 -0.10825887 -0.03570275 -0.03080815
000050 0c d6 3b 3d e4 bc ff 3c 20 0a 9a bc 14 95 81 3d
       0.045858428 0.031218 -0.018803656 0.063272625
000060 fc 48 82 3c 51 2b a8 3d 1d 29 27 3c d7 55 72 3c
       0.015903942 0.08211387 0.010202673 0.014790974
000070 2e be a6 bd ec 4b 0c bc 0f d4 10 bd 52 c9 e6 bc
       -0.08141743 -0.008563023 -0.035358485 -0.028172169
000080 43 a0 92 3b d6 4e f5 bb 05 61 b0 3b f4 d1 aa 3d
       0.004474671 -0.0074862046 0.0053826594 0.08340827
000090 ce 58 86 3d 07 92 48 bd c6 c5 a1 3c 00 00 00 00
       0.06559907 -0.048967388 0.019747626 0.0
