results/model_GCN/graph_split_/layers_8/transform_False/alpha_1.0/model.pt (torch, 63736 bytes, 21 tensors)

encoder.conv.convs.0.bias f4 [40]
000000 1c 30 12 be 69 47 43 3d a5 ed 5b 3d 61 9f 07 bd
       -0.14276165 0.047675524 0.053693432 -0.03311098
000010 b9 26 e0 3c f9 4f b3 bd 70 a0 98 bd 83 d4 5f 3d
       0.027362214 -0.08755488 -0.07452476 0.054646026
000020 33 13 00 be fe 1d ad 3d 34 74 a5 3d a4 19 8d bd
       -0.12507324 0.08452986 0.080788046 -0.06889656
000030 d1 c3 90 bd eb 5f d2 bb cd 4c 35 3e c7 e4 94 bc
       -0.07068599 -0.0064201257 0.17705078 -0.018175496
000040 67 29 80 3d 18 5b d3 bb 16 8e 63 3d 08 15 d2 bd
       0.06257897 -0.006450068 0.055555426 -0.10257918
000050 b7 3f f8 3c 92 6a 95 3d 94 bd 8e bd e5 40 81 3c
       0.03030382 0.07295717 -0.06969753 0.015778014
000060 09 9f 48 bc b0 b6 78 bc 6a 31 9a 3a d9 97 52 bd
       -0.012244948 -0.015180275 0.0011763994 -0.051414344
000070 26 c1 a1 3d cd 49 9e 3d 89 79 45 bd 4d 16 1b 3a
       0.07898168 0.0772892 -0.048211608 0.0005916104
000080 a7 40 c4 3d 2d eb e2 3c 74 e8 91 3b 09 2d 96 bc
       0.09582644 0.027700031 0.0044527594 -0.018332021
000090 0f 50 20 3d ce b7 61 3c 06 25 6c 3c fc a4 c9 3c
       0.03913885 0.013776733 0.014413124 0.024614803

encoder.conv.convs.0.lin.weight f4 [40, 40]
000000 82 ed 29 be 86 05 0b 3f 3b 9d da be 87 79 7d bd
       -0.16594508 0.54305303 -0.42698082 -0.061883476
000010 72 c0 31 bf 45 7d a7 3d 85 67 aa bd 28 42 3c bd
       -0.69434273 0.0817819 -0.08320526 -0.04596153
000020 90 82 3d bd 90 0b c2 3e 9e d6 b6 3d 9a 51 c4 bd
       -0.046267092 0.37899446 0.08927654 -0.09585877
000030 5e 63 1a be 69 d1 e0 3d 07 09 a8 3d cf 65 1e be
       -0.15076968 0.10977442 0.08204847 -0.15468524
000040 3d 35 d9 be b6 9b 17 3e a9 b7 c1 bd c4 aa 58 bc
       -0.4242343 0.14805493 -0.094588585 -0.013224307
000050 51 5c 88 3e 49 81 8c 3e 19 fc 46 3d 3b fe d2 bd
       0.26632932 0.27442387 0.048580263 -0.10302397
000060 fc 67 f9 3d f9 52 ea bc 4a 63 6a be 8b 4d 2c bf
       0.121780366 -0.028604018 -0.22889438 -0.6730582
000070 98 38 85 3d 98 87 fc 3e a1 c2 27 be bc ac f1 3d
       0.06504935 0.493222 -0.16382839 0.118005246
000080 8b f4 0e be ed d9 a8 3d e3 fb aa 3e d1 0a 29 be
       -0.13960473 0.08244691 0.333953 -0.16508032
000090 35 63 99 be 3f 63 6c 3d 91 3d 0a be 1e 3e 41 3c
       -0.299585 0.057711836 -0.13500048 0.011794595
0000a0 f0 f9 5a 3e 6a 21 64 be 8f 5a a6 3e da fe 95 3e
       0.21384406 -0.22278371 0.32490966 0.29296
0000b0 8f 5b 74 3e ee e1 a2 3d a8 5a 42 bd 72 c6 cb 3d
       0.23863052 0.07953249 -0.047449738 0.0994996
0000c0 97 3c 31 be 01 00 81 3e 5b 85 8d 3e 01 e5 ff bb
       -0.1730827 0.25195315 0.27640805 -0.007809282
0000d0 a6 0a a0 3e 8e 73 68 3e fc c6 e5 bd 14 53 18 be
       0.31258124 0.2270033 -0.11219594 -0.14875442
0000e0 6e f2 ec 3d 6c 0e 36 be 5d af dc bd 8c 9b 1c 3e
       0.11569677 -0.17778939 -0.107756354 0.15293711
0000f0 70 92 f8 3c 66 d0 39 3e 79 2f 23 3d e3 ba fc bd
       0.030343264 0.18145904 0.039840195 -0.12340333
000100 48 3b 75 3d 5e 21 5e 3e b9 46 44 3d 9e f6 04 3c
       0.059870988 0.21692416 0.04791901 0.008115439
000110 89 c2 ac bd 36 4e 06 3d 10 98 03 3e 67 70 a0 3e
       -0.08435542 0.03278943 0.12850976 0.31335756
000120 f2 87 36 bd 9b 58 eb 3e 78 f2 78 be cb 8e ab 3e
       -0.04456324 0.45966038 -0.24311244 0.3350738
000130 d9 a9 9f 3e e3 aa 05 be 4a 69 c9 3d 96 68 96 3d
       0.3118427 -0.1305347 0.098345354 0.07344167
000140 7e 32 0a 3f c7 fc 2d be 85 0e 05 be 83 87 02 3d
       0.53983295 -0.16990958 -0.1299382 0.031867515
000150 c1 2a 3a 3e e8 a2 c9 3d 4d 40 29 3e f7 ff 12 3e
       0.18180372 0.09845525 0.16528435 0.14355455
000160 1a cc 92 be 4e 12 99 3b 9b fa c6 bd 2d 12 8f 3e
       -0.28671342 0.0046713715 -0.09715768 0.27943555
000170 d2 52 c3 3e 0f ac c4 3e 89 ff b9 3e 1d ec 3b be
       0.38149124 0.3841252 0.3632777 -0.18351789
000180 24 b9 4d 3d 36 47 55 be 19 1a b2 3d ff 2d eb 3d
       0.050225392 -0.20827946 0.08696384 0.114833824
000190 5a 08 cf bd f6 59 88 3d 23 e5 b4 bc d3 5b 1c be
       -0.10109015 0.06657784 -0.022081917 -0.15269403
0001a0 7c ad 90 3e 08 44 ff 3d 6a c2 39 be 81 a3 53 be
       0.28257358 0.12464148 -0.1814057 -0.2066784
0001b0 3c 91 20 be 6f 34 74 be cd 30 b6 3c 85 e5 4f 3e
       -0.15680403 -0.23848127 0.022240067 0.20302399
0001c0 5c 2d a0 bd 1d 66 33 3e b8 d0 16 be a1 41 e9 3e
       -0.078211516 0.17519422 -0.14728057 0.45557883
0001d0 64 79 b4 3d d7 bc 08 be 16 e7 21 3e db 69 f5 bd
       0.08812216 -0.13353287 0.15810809 -0.11983081
0001e0 df 62 f0 bd 4f 04 6e be 36 d7 2e 3e d9 3f 14 3e
       -0.11737608 -0.23243831 0.17074284 0.14477481
0001f0 30 d5 52 3e af 24 54 3e 66 4a 3f 3c 51 57 80 be
       0.20589137 0.20717119 0.011675453 -0.25066617
000200 2b dc 01 3d 92 c2 91 be 6b 81 0e 3e e3 96 50 be
       0.03170411 -0.28468758 0.13916557 -0.20370059
000210 eb 4a 03 be 2f d4 0f bd ac cf 82 be e8 dd bd 3d
       -0.12821548 -0.035114463 -0.25549066 0.09270841
000220 44 00 c2 be 6f 2f 76 3d 6e 73 70 3e b1 58 d6 bd
       -0.37890828 0.06010383 0.23481533 -0.10466135
000230 1a 1d 34 bc a7 93 7e 3e 65 39 8a bc e2 dd b5 bd
       -0.0109932665 0.24861012 -0.016873071 -0.088802114
000240 43 86 2f be 86 72 15 3e fc b6 4a 3e 64 46 47 3e
       -0.1714106 0.14594468 0.19796365 0.19460446
000250 7d 58 00 3e f3 dc a4 be 9c 3e 25 be 08 6e 62 3d
       0.12533756 -0.3219982 -0.16137165 0.055280715
000260 4a 2f 04 be 60 2a 12 bf e3 8e ae 3e e2 4f 0b be
       -0.12908664 -0.5709591 0.3409339 -0.13604692
000270 79 0e 32 be 89 e4 b1 3d 44 fc 36 be 80 9f 28 be
       -0.17388333 0.08686168 -0.17869669 -0.16467094
000280 9d 5a ee bd 49 ab 9e be d5 5e be 3d ec 86 3d be
       -0.11638377 -0.30990055 0.092954315 -0.185085
000290 35 a0 c1 3c 97 e1 23 be 71 03 da bd db 81 46 3e
       0.023635963 -0.16004024 -0.10645188 0.19385473
0002a0 06 e6 8a bc 74 58 59 3e b2 d0 a8 bb 46 7e 67 3e
       -0.016955387 0.21225148 -0.0051518315 0.22606763
0002b0 f7 da fb bd d8 d1 d9 3d 24 2a 62 bd fb f5 36 3d
       -0.122976236 0.10635728 -0.05521597 0.04466818
0002c0 2f 7d 41 3d c8 fa a0 bd 52 cd 75 3e ac 06 d8 3e
       0.047238525 -0.07860333 0.24004105 0.4219259
0002d0 50 74 66 3e 6d 2e 8d 3d 10 69 50 3e 5a 73 3a bc
       0.22505307 0.06893621 0.20352578 -0.011380041
0002e0 89 71 29 3e 12 11 51 bd b6 ca 3e bd 49 c2 1c be
       0.16547216 -0.05104167 -0.04658004 -0.15308489
0002f0 c9 eb 52 be 02 8f 41 3e 71 64 99 3e 0a c7 5a ba
       -0.20597757 0.1890221 0.29959443 -0.0008345699
000300 0c 93 58 be 16 69 e8 bd 4f fc 21 be 52 98 0f 3e
       -0.21149844 -0.113481686 -0.15818904 0.1402295
000310 21 ba 54 3d 93 52 24 be 00 a0 19 3e 1f 53 3e 3e
       0.05193532 -0.16047125 0.15002441 0.18586396
000320 38 e3 a4 3d bb 86 41 3e ca f1 16 be 14 c5 05 3e
       0.08051151 0.18899052 -0.14740673 0.1306346
000330 ed 1c da bd 4f cd 01 be 9d e9 01 3e 94 b0 86 3e
       -0.106500484 -0.12675975 0.12686773 0.26306593
000340 39 fb f1 3d 63 9e 85 bd e9 6a bf 3d a5 7a 01 3e
       0.11815495 -0.065243505 0.09346563 0.12644441
000350 77 0a 6f be 5c 1d 53 be 3b 87 88 3e 60 de e0 bd
       -0.23343836 -0.20616668 0.26665673 -0.10979915
000360 ae 6a 49 3e 69 06 8e 3d 37 d5 80 3e 98 08 99 be
       0.19669601 0.069348164 0.2516267 -0.2988937
000370 a2 9f 6c be 75 b3 f0 3d 31 90 96 be 45 90 0a be
       -0.2310777 0.11752979 -0.29406884 -0.13531597
000380 a6 c4 1b be c4 c0 2c 3d e8 08 90 be 4b 60 78 3e
       -0.15211734 0.042176023 -0.28131795 0.24255483
000390 75 3e b7 3d ec 56 e3 3d 68 58 86 bd 3f 85 44 3e
       0.089474596 0.111005634 -0.06559831 0.19191454
0003a0 63 a6 a1 3d 9f 5e 3f bd 81 fd 92 3e 2b b1 1e 3e
       0.07893064 -0.046721097 0.28709033 0.15497272
0003b0 42 64 e4 3d 01 27 a0 be eb b2 20 be cd 80 aa bd
       0.11151935 -0.31279758 -0.15693252 -0.08325348
0003c0 89 c7 94 be 41 3c ca 3d f4 17 4d 3e 94 27 03 be
       -0.29058483 0.09874774 0.20028669 -0.12808067
0003d0 15 61 3e be a4 f0 77 be 60 4d c8 bd ec 36 1f be
       -0.18591721 -0.24212891 -0.09780383 -0.15548295
0003e0 2c 24 e9 bd 63 70 6b be 3b 08 f9 bd 7f f0 88 be
       -0.11383852 -0.22992091 -0.12159773 -0.26745984
0003f0 5c f8 08 3e 08 dd 26 3d 0a b4 82 be a7 d6 16 3e
       0.13375992 0.040738136 -0.25527984 0.14730321

encoder.conv.convs.1.bias f4 [40]
000000 e8 60 49 bd 9a 63 a8 3d 7d b9 b8 39 4a cb 48 3c
       -0.049164683 0.082221225 0.00035233414 0.012255499
000010 26 89 0d 3d 85 07 2c bc 41 f1 de 3b 73 a7 05 bd
       0.034554623 -0.01049984 0.006803662 -0.032630395
000020 f4 2e 69 bd d4 44 fb bc 6b 8d 97 bc 06 81 d4 3c
       -0.056929544 -0.030672468 -0.01850005 0.02594043
000030 dd c1 3d be dd 9c e3 3c e4 ee f8 bc b0 ee 89 bb
       -0.18530984 0.02778476 -0.03038735 -0.004209362
000040 4f 10 3e bd 45 bf 89 3c 35 ad 31 3d 37 d5 5c 3d
       -0.04640227 0.016814837 0.043378074 0.053914275
000050 d3 33 19 3d 43 61 77 3c 68 7b 66 3d 67 38 a0 3d
       0.03740294 0.015098873 0.056270033 0.07823258
000060 59 b1 30 3c 89 99 7d 3d ed 74 e7 3d e1 e9 15 3d
       0.0107844705 0.061914 0.11301599 0.036599997
000070 66 c5 65 3b 86 56 32 bb 7d 4a 5c 3d 6e 0e a4 bc
       0.0035060286 -0.0027212217 0.053781975 -0.020026412
000080 fe 35 98 3c ae 12 98 bc 3d 31 c0 3d 26 44 69 3a
       0.018580433 -0.018563595 0.093843915 0.00088983995
000090 de da ed 3d ff a7 b3 3d 42 8d 27 bc ac 69 41 3d
       0.11614011 0.08772277 -0.01022655 0.047219917

encoder.conv.convs.1.lin.weight f4 [40, 40]
000000 77 f1 e2 bd e1 6a 91 be 56 15 57 be 8b 16 e6 3d
       -0.11081212 -0.28401855 -0.21004233 0.112347685
000010 98 64 d0 bd b8 69 91 be 78 f2 22 be 17 b2 61 be
       -0.10175437 -0.2840097 -0.15912807 -0.22040592
000020 52 28 5c 3e 22 fb 9e be 0f 30 e0 bc 57 6b b9 3e
       0.21499756 -0.31050974 -0.027366666 0.36214706
000030 66 48 89 3e 3c 21 ea 3d f2 57 90 3b ce e6 5c 3e
       0.26813048 0.1143212 0.004405015 0.2157242
000040 81 f0 14 3e 1d 4e 8d be 4c 40 35 be 94 aa ca bc
       0.1454487 -0.27598658 -0.17700309 -0.024739541
000050 bc 4c 45 3e f9 0d 1d be 60 a9 9c 3d 4f 70 dd bd
       0.19267553 -0.15337361 0.07649493 -0.10812437
000060 ad b3 b4 3d 45 dc 3d 3e cd 4e ce 3d 79 a0 88 bd
       0.08823333 0.18541057 0.10073624 -0.06671233
000070 d7 13 18 3d 4d 10 77 3e 26 81 18 bc c7 f8 22 be
       0.037128296 0.24127312 -0.009308135 -0.15915214
000080 84 a8 e5 3d 5d 4b 43 be 6e 6f 12 be 9a f9 bb bd
       0.112137824 -0.19071718 -0.1430032 -0.09178467
000090 24 95 79 3c 8c b7 97 be 84 7d b3 3c 74 46 0f 3e
       0.015233312 -0.29632223 0.021910436 0.1399172
0000a0 c3 a8 06 bf a2 ac cf 3d de b0 33 3e 45 21 32 3e
       -0.5260126 0.10140349 0.17547938 0.17395504
0000b0 cc f7 6d be 65 cc 60 3e ed 69 83 3e f5 d7 7e bd
       -0.23239058 0.2195297 0.25666752 -0.06221767
0000c0 c0 48 bb 3e dd 3d 2b 3e 7a 4b cd 3c 8d d9 d7 bd
       0.3657894 0.16722818 0.025060404 -0.105395414
0000d0 03 37 9a bc f1 b1 f1 bd db 4e 9a 3e 9f bd f6 bd
       -0.01882506 -0.11801518 0.30138287 -0.12047886
0000e0 53 16 cb 3d 01 34 57 3e 75 8f 95 bd 0d 34 de bd
       0.099163674 0.21015932 -0.07302753 -0.10849772
0000f0 49 f5 9d 3e 2e 2b 92 be 95 50 62 be 69 26 16 3e
       0.308512 -0.28548568 -0.22101052 0.1466309
000100 3d 15 75 bc b1 a6 bc 3e cc ad 75 3e 72 68 2c 3e
       -0.014958677 0.36845925 0.2399208 0.16836718
000110 fd 3a 3b 3d 33 bc 32 3e 74 e8 cc bd 58 d1 2b 3e
       0.045710552 0.17454605 -0.100052744 0.16779077
000120 33 95 1c be 1e 89 83 3e 30 83 90 3d e6 1c 35 3e
       -0.1529129 0.2569055 0.07056272 0.17686805
000130 b9 d0 49 be 4b 8c c4 bd af 72 f7 3b f9 cd 63 3e
       -0.19708528 -0.09597071 0.007551513 0.22246541
000140 1f 7f 05 bf df 15 65 3e 2a 15 84 3e c5 85 0d 3e
       -0.52147096 0.22371624 0.25797397 0.1382056
000150 d1 a9 6b bd 08 1f 02 be bb d0 80 3e 13 89 8a 3e
       -0.057534996 -0.1270715 0.2515925 0.27057704
000160 bc 94 40 be f1 34 15 be 68 b4 51 3e 70 09 c7 3d
       -0.18806738 -0.14570977 0.20478976 0.09718597
000170 e2 df 0c bc ab 81 80 bd 6d 52 de 3e 69 e3 3d bd
       -0.0085983 -0.06274732 0.4342226 -0.046359453
000180 29 11 a8 bd 05 11 17 bc 99 e4 6a bd 4e 31 02 3e
       -0.08206398 -0.009220366 -0.057346914 0.12714121
000190 64 64 fd 3d 56 77 3f 3e 40 79 0f 3e d2 01 df bd
       0.123726636 0.18697867 0.14011097 -0.10889019
0001a0 71 c7 8c be 21 97 99 be 66 d1 14 be 2a 61 ad bc
       -0.27495912 -0.29998115 -0.14533004 -0.021164495
0001b0 58 bc dd 3e 74 db 31 3d 4c 9a ef 3d 77 6c 10 3e
       0.43307757 0.043422177 0.11699352 0.14103876
0001c0 58 6c 30 be 0c 89 c5 3e 83 98 38 3e f6 44 fe 3d
       -0.1722883 0.3858112 0.18026929 0.12415497
0001d0 1d 50 b9 3d 81 73 e5 bb 08 9a 6c bd c5 3a 94 3d
       0.090484835 -0.0070022945 -0.057764083 0.07237772
0001e0 cb 0d 50 be fe 09 a3 3e ce ec 61 bc f4 fd 22 bd
       -0.20317762 0.3184356 -0.013789369 -0.03979297
0001f0 8b a0 38 be 1e 21 a8 bd 6a e4 4d bd 4e 7d 85 be
       -0.18029992 -0.082094416 -0.05026666 -0.26072162
000200 22 30 34 3e 9d 68 21 bf 6a c4 07 3b 6e d5 44 3e
       0.17596486 -0.6305025 0.0020716437 0.19222042
000210 ac 0e 64 3e 34 a6 75 3e e1 e5 d7 be eb 19 a8 3e
       0.22271222 0.23989183 -0.4216757 0.32832274
000220 cd 59 5f 3d 31 7d 7c 3d ff 72 f1 be aa be 24 be
       0.054529 0.06164283 -0.47158048 -0.16088358
000230 76 80 b6 3c 8c e3 96 be e0 37 06 bd 6f e5 a0 bd
       0.022278052 -0.2947048 -0.03276813 -0.07856261
000240 c2 49 52 be f9 d1 48 be c9 9d a6 3e a7 60 99 3d
       -0.20535949 -0.19611348 0.32542256 0.07489138
000250 31 fc d1 be 6a 14 45 be 68 2d 3a bd 56 70 b6 3e
       -0.4101272 -0.19246069 -0.04545346 0.3563258
000260 d7 fd c1 be 7f 85 a7 3d cb 4e ad 3e 19 c2 ea 3d
       -0.37888977 0.08179759 0.33849177 0.114628024
000270 5d f6 09 3e c1 1f 6a 3e 76 57 a7 be 7f fb 75 3d
       0.13472886 0.22863676 -0.32683915 0.0600543
000280 a7 c0 7a be 0d a5 ab 3d 56 91 a0 be 1c c6 5f 3e
       -0.24487554 0.0838109 -0.31360883 0.21852916
000290 d3 e3 91 3e 98 74 d5 bd 52 8e 7e be 79 c6 d2 3c
       0.2849413 -0.10422629 -0.24858978 0.025729405
0002a0 23 39 70 3e 5c 94 10 3d c6 dc 59 be 6b 48 3a bd
       0.23459296 0.035297737 -0.21275625 -0.04547922
0002b0 c9 62 6c 3d c6 cb 45 3d 08 24 3f be bd 00 75 3e
       0.057711396 0.048290037 -0.18666089 0.23926063
0002c0 0f 0c 59 3e bf 73 97 3d 1e fb 78 bd 25 da 24 3e
       0.21196006 0.07395124 -0.06078636 0.1609884
0002d0 69 7f 0a bc ce 1a 22 3e 83 79 a6 bd 3b 99 72 ba
       -0.0084532285 0.15830538 -0.08128645 -0.00092544005
0002e0 37 a7 1e be 90 6e 61 bc 37 3b 3f 3e 03 a3 a6 bd
       -0.15493475 -0.01375927 0.18674932 -0.08136561
0002f0 57 49 e3 be fd ba c7 bd f2 fc a0 3e 8c 64 8d 3b
       -0.4439189 -0.09752462 0.31442982 0.0043149646
000300 fd 46 f9 bc d1 20 11 3c 33 97 0a be 4b 76 62 3e
       -0.030429358 0.008857922 -0.1353424 0.22115438
000310 cb 42 a4 3d f2 2d 65 3e de af af bd d7 ec a3 3d
       0.08020552 0.22380808 -0.08578466 0.08004158
000320 6c dd 2a 3d 6f ec 81 3e 98 6b 5e bd 4e c9 4b be
       0.04171507 0.25375697 -0.05430183 -0.1990101
000330 16 e0 2c 3e b4 1b eb bd 9c eb 67 3e 0d 6a 08 3e
       0.16882357 -0.11479893 0.22648472 0.13321705
000340 f8 82 b6 be 05 6f 9a bd 70 0e 17 3d 58 ee 16 3e
       -0.35646796 -0.075407065 0.036879003 0.14739358
000350 12 85 65 3e ee 1b 71 3c 39 21 dd bd 47 9b d0 bd
       0.22414044 0.014716132 -0.10797352 -0.10185867
000360 55 48 05 bf 44 7a 96 3c 7b 32 c6 bc c7 85 ad bd
       -0.52063495 0.018368848 -0.024193993 -0.08472782
000370 eb 1d 56 be ee fe a7 3e 83 e7 76 be 4f d1 4b be
       -0.2090985 0.32811683 -0.24111752 -0.19904064
000380 7d fe 14 be 77 0e 0c bf 63 31 0b 3e 47 48 68 3d
       -0.14550205 -0.5470957 0.13593058 0.056709554
000390 58 0d fc bd 3f 46 5f be 29 d6 0e be 0d fd 47 be
       -0.123072326 -0.2180414 -0.13948883 -0.19530125
0003a0 28 d0 9e bc 07 e5 d5 bd dc 71 f2 3d 80 71 92 3d
       -0.019386366 -0.10444074 0.11838123 0.07150555
0003b0 2a d5 4e be 6b 96 6a 3d ac 7b 7a bd ed 8b c2 3c
       -0.20198503 0.057272356 -0.0611531 0.023748362
0003c0 c1 c3 a1 3d 18 57 c8 3d 6d a4 5f 3e fb 25 1f bd
       0.07898665 0.09782237 0.21840067 -0.03885458
0003d0 58 bf 02 bd 49 ad 80 3e a3 85 03 be 65 64 4d 3e
       -0.03192076 0.25132206 -0.12843947 0.20057829
0003e0 f8 41 2f be b8 5f 87 3e 99 42 12 be 57 61 35 3d
       -0.17115009 0.26440215 -0.14283217 0.044282284
0003f0 02 10 52 3e f1 f1 1b be e6 0e 69 3e 6e b7 8d 3e
       0.20513919 -0.15229012 0.2275959 0.27679008

encoder.conv.convs.2.bias f4 [40]
000000 a0 42 e1 bc d9 fc ce 3d 64 33 40 bc ed c5 05 3e
       -0.02749759 0.101068206 -0.0117310025 0.13063784
000010 d7 4d 2e bd 96 44 59 bc d8 27 aa bb 18 b4 e5 bc
       -0.042554703 -0.013260981 -0.005192738 -0.028039977
000020 89 99 7a bd 63 86 cb 3c 2c ae 42 bd 35 93 4f 3d
       -0.06118158 0.024844354 -0.047529384 0.050677497
000030 81 57 02 be 23 92 27 3e e3 2b b0 3d 9f 2f b8 bd
       -0.12728693 0.1636434 0.08602121 -0.08993458
000040 7d ec e0 3d 51 3e ff bc 00 b3 41 3d 98 88 fc 3c
       0.109826066 -0.031157644 0.04728985 0.030826852
000050 62 d1 14 bd e7 f4 d8 bc f2 16 76 3d fb c7 0e bd
       -0.036332496 -0.026483966 0.060080476 -0.034858685
000060 00 00 00 00 2d 1a 45 3c 87 1f 60 3b 00 00 00 00
       0.0 0.012030167 0.003419848 0.0
000070 b0 a0 de 3d 4c d4 b7 bd bc df 29 bd c1 fb b8 bc
       0.108704925 -0.08976039 -0.041473135 -0.022580983
000080 5e 65 06 3d 6c 0d 54 bd 4c 48 4f bd e4 4a d7 bd
       0.032811515 -0.051770613 -0.050606057 -0.10512331
000090 2e 5d 00 bd a7 ee 2d bd a4 fb 0c bd 33 03 e7 3b
       -0.031338863 -0.042463925 -0.03441967 0.007049942

encoder.conv.convs.2.lin.weight f4 [40, 40]
000000 5a 6a 9b 3d ca 68 18 be f0 e6 64 bd 06 3c 6c be
       0.07588644 -0.14883724 -0.0558843 -0.23069772
000010 80 76 0d bc 3b b1 e9 3d 36 7f 70 3e 5c f3 63 3e
       -0.00863421 0.11410757 0.23486027 0.22260803
000020 2b 8d 53 bd 7c aa a6 bd fa 61 cc bd 63 0a 0a 3e
       -0.0516483 -0.08137986 -0.09979625 0.13480525
000030 37 29 38 3e c0 e0 83 bd a6 fc 07 3c 61 56 2e be
       0.17984472 -0.06439352 0.008299982 -0.17025138
000040 22 db 7e 3e 77 5e 22 3e f0 ef 9f be 79 04 c6 bd
       0.2488828 0.15856348 -0.31237745 -0.09668822
000050 07 25 ac 3d 2d 3f 3d 3e 9e b2 ff 3d dd 68 f4 bd
       0.084055 0.18481131 0.124852404 -0.119340636
000060 b0 9a d9 3d 60 76 29 be 90 c9 73 be 1f 8d 2b bd
       0.106252074 -0.16549063 -0.23807359 -0.04188263
000070 41 65 38 3e be 57 f1 3d b6 9b 53 be a3 95 2f bd
       0.18007375 0.117843136 -0.20664868 -0.042867314
000080 e3 0a f5 bd db d4 77 3d 34 e0 32 3e 9e a4 12 3c
       -0.11964967 0.06050573 0.17468339 0.008950381
000090 0d 3d f0 bd b2 38 0a be 46 14 8c be 1e 46 92 bd
       -0.117303945 -0.1349819 -0.27359217 -0.0714228
0000a0 93 a2 8e be 7e 66 40 3d ba 00 03 3e 93 09 76 3e
       -0.2785841 0.046972744 0.12793246 0.2402709
0000b0 93 64 99 3e 4d 0f 69 be 67 be 40 3e a0 63 84 3e
       0.29959545 -0.22759743 0.18822633 0.25857258
0000c0 ac 89 3e 3e e7 5f c4 3d 1b 02 0a 3e a8 d3 81 bd
       0.18607205 0.095886044 0.13477366 -0.06339198
0000d0 0a 9b a7 be 3f c2 6f bd b7 00 9c 3d 29 85 ce bc
       -0.32735473 -0.058534857 0.07617324 -0.02520998
0000e0 e3 5a 50 be c7 2b 68 be 21 c1 6f 3e 7f 31 d7 3c
       -0.2034717 -0.2267295 0.23413517 0.026268719
0000f0 31 09 88 3d ab ba cd 3e 2f e2 85 3e c5 22 70 3e
       0.06642378 0.4018148 0.26149127 0.23450764
000100 9b ee c1 3d fd 43 6f 3d f7 97 07 be 66 b6 37 3e
       0.094693385 0.058414448 -0.13241564 0.17940673
000110 8b 3a 2d 3e 2f 95 d9 bd 1b a8 d1 3d 2d b9 ec bd
       0.16916864 -0.10624158 0.10237142 -0.11558757
000120 25 7a 53 3e 13 94 92 3e d0 72 69 be 08 8a c7 3d
       0.20652063 0.28628597 -0.22797704 0.09743124
000130 7d 68 79 3e e5 80 20 3e b7 63 11 3e 8b d8 4f 3e
       0.24356265 0.1567417 0.14198194 0.20297448
000140 99 d6 84 bb 98 67 ac 3d b4 68 4f 3c 49 90 1b 3e
       -0.0040539023 0.084181964 0.0126592405 0.15191759
000150 ac 13 4e bd 12 ba 4a be 2a 47 8d bb 2b 9a ef 3d
       -0.05031173 -0.19797543 -0.004311462 0.11699327
000160 13 eb 59 3e 76 08 20 be 51 6e 4e be f2 de 88 3d
       0.2128108 -0.15628228 -0.2015927 0.066831484
000170 df 43 12 be b3 6d 80 3e f8 e3 f4 bd 33 ff 83 be
       -0.14283703 0.25083694 -0.11957544 -0.2578064
000180 27 85 30 3e 52 6e 85 be 02 0c dd bd ff 79 68 bd
       0.17238294 -0.2606073 -0.10793306 -0.05675697
000190 ac 41 8b be 57 a0 18 3d 2c 6e 0c 3c 13 87 83 3d
       -0.2719854 0.037262287 0.008571189 0.06422248
0001a0 1d 87 8d be 68 af 0f bb 19 fd 4f be 58 95 f7 3c
       -0.27642146 -0.0021924619 -0.20311393 0.03022258
0001b0 de 9c 87 be 4e 35 7f be 7e fa 0d be 52 db 29 3d
       -0.26486868 -0.24922678 -0.13865086 0.041468926
0001c0 1a 8a 80 3d e1 9c d7 bd 9e 63 2e be 55 b9 1d be
       0.06276341 -0.10527969 -0.17030188 -0.1540273
0001d0 7c 83 b5 bd 3e 08 7f bd 82 bf 4a 3e 94 07 67 be
       -0.08862969 -0.06226372 0.19799617 -0.22561485
0001e0 c5 33 03 be a8 84 f6 3d d9 ad 80 3e 09 00 45 3e
       -0.12812717 0.12037021 0.25132635 0.19238295
0001f0 33 45 28 ba 0c 8b 91 be 5f b9 f6 3d e3 ec 6e bc
       -0.0006419003 -0.28426397 0.120470755 -0.014582845
000200 2e 95 86 bd 18 cc 0f be 08 8a 93 be 0c 2c 08 be
       -0.065714225 -0.140427 -0.28816247 -0.13298053
000210 34 74 b8 be f8 1c a1 3d ac a7 05 bd 98 8b 47 be
       -0.36026156 0.078668535 -0.032630607 -0.19486845
000220 a3 23 87 3c 83 48 da bd 6f ea 8f 3e 8c 97 6e bd
       0.016496485 -0.10658362 0.28108546 -0.058249995
000230 48 0d 1f 3e 9b 3c bf 3d 98 c4 70 3e e4 9a 92 3e
       0.1553241 0.093377315 0.23512495 0.28633797
000240 41 cf 76 3e 0b a1 9d bb 7d 15 91 3e f8 4c 50 bd
       0.24102499 -0.0048104576 0.28336707 -0.050854653
000250 86 80 8d be 24 ad 29 3e 4d 63 5f 3d d2 a9 8c 3d
       -0.27637118 0.16569954 0.05453806 0.06868328
000260 10 e4 14 3e 3a 45 77 bd 92 59 be 3d 5c ae 22 bd
       0.14540124 -0.060368754 0.09294428 -0.039717063
000270 b4 1a 57 be eb be 07 3d fc 65 1b be a9 33 e5 3d
       -0.2100628 0.033141058 -0.15175623 0.11191494
000280 24 ee 58 3c 3d 25 29 be 68 4e 9f be 4e 91 b5 3c
       0.013240371 -0.16518112 -0.31114507 0.022164013
000290 8a 19 9a bd 82 27 97 3d f7 11 88 3d 85 7f cb bd
       -0.075244024 0.073805824 0.066440515 -0.09936432
0002a0 0f 22 f7 bc 7b 7e 0c 3e 20 93 7b be c8 66 62 be
       -0.030167608 0.13720123 -0.24567842 -0.2210952
0002b0 7d d7 c6 bc ea cb d5 3d 00 aa c3 3d a5 b1 b8 bd
       -0.024272675 0.10439284 0.09553909 -0.09018258
0002c0 84 8d f9 bd 09 cc 40 be 52 81 76 3d 3d 5f 86 bd
       -0.12185195 -0.18827833 0.060181923 -0.06561134
0002d0 1b f0 e5 bd 08 06 5c 3e f5 07 79 3d 4e 34 85 be
       -0.11227437 0.21486676 0.060798604 -0.26016468
0002e0 79 1f 0a be c2 06 fd bd cd a9 76 be f7 1a 5b 3e
       -0.13488568 -0.123548046 -0.24088211 0.21397005
0002f0 b3 93 96 be d1 28 92 bd 15 c5 a3 3d 26 13 82 3e
       -0.2940956 -0.07136691 0.07996575 0.25405234
000300 1d 32 33 3e e4 59 62 3e 41 f3 2e 3e ff d0 21 3e
       0.17499585 0.22104603 0.17084982 0.15802382
000310 85 a4 24 3e 0d 49 85 be 25 70 eb bd e1 95 e4 bd
       0.16078384 -0.26032296 -0.11495999 -0.111614
000320 0f d0 47 be 6e 61 c0 3d 3a 93 8d 3d 9c 6d 39 bd
       -0.19512962 0.09393583 0.06912847 -0.045270547
000330 b5 e0 02 be fb 57 92 bd 1f 31 a3 3c ef a0 1f be
       -0.12781031 -0.07145687 0.019920884 -0.15588735
000340 cc d7 80 3e 57 08 9c bd 0c c5 ab bb 27 29 87 3e
       0.2516464 -0.07618778 -0.0052419957 0.26398584
000350 5e ce 81 bc 69 06 80 3e 28 3f 0f be db 91 9f 3c
       -0.015845474 0.2500489 -0.13988936 0.019478729
000360 21 8c 39 be b6 48 a5 3e e3 fa 5d 3c f2 52 47 3e
       -0.18119861 0.32282037 0.013548586 0.19465235
000370 32 56 89 be c0 4a 29 be f2 d8 3f 3e f6 71 b5 bd
       -0.26823574 -0.16532421 0.18735102 -0.08859627
000380 fd f4 84 be 40 93 a9 3d f5 5b ab 3d e8 d8 ae be
       -0.2596816 0.08280039 0.08367149 -0.3414986
000390 f8 fa b5 3d af 00 22 3e f7 b3 84 be bc a6 46 be
       0.08885759 0.15820573 -0.25918552 -0.19399542
0003a0 d5 9e 3c be c8 57 4c be 33 6b 38 3e 5c 0c a7 bc
       -0.18419965 -0.19955361 0.18009643 -0.020391636
0003b0 c9 67 92 be 87 a7 32 3e ed 8a 37 3d 6b 25 0a be
       -0.28594807 0.17446719 0.044810224 -0.13490836
0003c0 1c 96 1c 3e a0 0d 87 be b1 fe 9b bc 7e 51 0c 3e
       0.15291637 -0.26377583 -0.019042345 0.13702962
0003d0 5a 35 2b bd c6 6c ed 3d 51 55 66 3e 1b 1a 40 3e
       -0.041798927 0.115930125 0.22493483 0.18759958
0003e0 4f 08 88 be 02 73 67 3e be be 72 3b f5 1a ca bd
       -0.2656884 0.22602466 0.003703996 -0.09868423
0003f0 e0 bd dd 3d 23 92 0a 3d 2b cf 29 3e d0 24 5b 3e
       0.108272314 0.033830773 0.16582935 0.21400762

encoder.conv.convs.3.bias f4 [40]
000000 39 c9 a9 3d 60 a5 2a 3d 57 dc 94 3c c7 76 d1 bc
       0.08290333 0.04166162 0.018171472 -0.025569333
000010 ee 4d 0b 3d f6 92 fc 3d 20 72 a4 3d 25 49 1b be
       0.034009866 0.12332718 0.0802958 -0.15164621
000020 ab e8 b1 bd 51 af 99 bc 37 d1 a5 3d 74 39 39 be
       -0.08686956 -0.018760355 0.08096545 -0.18088323
000030 10 38 96 3d 5b 0a cc 3d 5f 1b ce bb 4a d1 6b 3d
       0.07334912 0.09962913 -0.006289884 0.05757264
000040 78 60 07 bd 11 1e e7 bb b6 87 ab bd c9 f1 5b bc
       -0.033050984 -0.0070531447 -0.08375494 -0.013424345
000050 64 df 15 3b df 74 dd 3d c2 ee ca 3c 1f 82 e6 3c
       0.0022868747 0.10813307 0.024772052 0.028138218
000060 72 c7 fd bc 1d c8 06 3e 2c 1a 53 bd ea 52 3b be
       -0.030978892 0.13162275 -0.05153863 -0.18293348
000070 64 67 94 bd 0a a8 f4 3b be 42 93 bd aa 54 4f be
       -0.07246283 0.007466321 -0.071904644 -0.2024714
000080 20 c8 01 bd 44 6f ae 3d f6 d5 28 3d 6e 45 6b bd
       -0.031684995 0.08517316 0.041219674 -0.05743926
000090 f5 00 b1 bd b3 d5 a1 bc 1c 47 b6 3c 70 75 ba bd
       -0.08642761 -0.01975522 0.022250704 -0.09104431

encoder.conv.convs.3.lin.weight f4 [40, 40]
000000 c5 a0 47 3d bb 6a 79 3d b1 b1 3b 3e 5c cf 58 3d
       0.048737306 0.0608928 0.18329503 0.05293213
000010 74 d2 2d 3d 5f 28 0d be 4c 18 cb 3d 33 d9 34 be
       0.042437032 -0.13784932 0.09916744 -0.1766098
000020 fb d0 af 3d 1f 73 82 be d8 70 5a be ad ed a6 3d
       0.08584782 -0.25478455 -0.21332109 0.08150802
000030 05 94 e0 bd 5e d6 23 3e 25 ac 5b 3e 7d 8b 89 be
       -0.109657325 0.15999743 0.21452387 -0.26864234
000040 bd 00 9b 3e f2 f8 62 be 5e 03 1f 3e 16 35 49 3d
       0.30274 -0.22165278 0.15528628 0.049122892
000050 71 59 bd ba eb 23 e8 bd 9d d5 2d be 77 d9 79 bd
       -0.0014446211 -0.11334976 -0.16976018 -0.060998406
000060 a4 e6 29 3e ba e3 82 be ee 87 78 bd 98 88 8e 3d
       0.16591889 -0.25564367 -0.060676508 0.06959647
000070 6f 6f 52 3e f4 4f 20 be ab 48 37 3e cf 9c 79 be
       0.20550321 -0.156555 0.17898814 -0.24376224
000080 c8 f9 64 3e 07 cd a6 bd db 19 42 3e b1 9d 23 be
       0.22360909 -0.081445746 0.18955176 -0.15978123
000090 5b ae 81 3e b6 77 4d be 77 f7 b1 3d a8 f5 09 bd
       0.25328335 -0.20065197 0.08689778 -0.03368154
0000a0 49 1f 39 3e c2 96 1c 3e 24 f8 6b be bd 81 36 3e
       0.1807834 0.15291885 -0.23043877 0.17822929
0000b0 c9 30 c3 3d c6 57 0b bd 1b 26 86 3d 93 c5 c9 bd
       0.095307894 -0.034019254 0.06550237 -0.098521374
0000c0 fc c2 88 bd f6 0a cd be 5c 1c 45 be c4 b9 29 3d
       -0.06677815 -0.40047425 -0.192491 0.041436926
0000d0 39 b4 f0 bd 0a 29 78 be 49 de d7 3e 78 d1 7f be
       -0.11753125 -0.24234405 0.42161778 -0.2498225
0000e0 0f a0 c4 3d 41 6f 29 3d b6 b2 65 3e ea ba a1 be
       0.09600841 0.041365866 0.22431454 -0.31587917
0000f0 4b 26 11 3d 38 55 e4 bc f3 e3 bf 3e 14 c9 7d 3e
       0.03543691 -0.027872667 0.374786 0.24783736
000100 ba 30 a4 bd 1b 09 4b 3e cb 4d 4a 3e 40 6f 4a 3e
       -0.08017106 0.19827692 0.19756238 0.19769001
000110 b5 32 20 be da be e8 bd 2d fc 95 bd 10 8c e7 bc
       -0.15644343 -0.11364527 -0.07323489 -0.02826503
000120 1b 8e 80 3e 11 34 1d 3e 41 78 a1 bd d5 8f 06 3e
       0.25108418 0.15351893 -0.07884265 0.13140805
000130 e1 46 82 3e a5 42 55 be a0 65 b0 3d de 0d e5 bd
       0.254447 -0.20826204 0.086131334 -0.111842856
000140 91 5d 1a 3d 52 ed 46 3d 27 e8 31 3d f6 b3 63 3e
       0.037686888 0.04856617 0.04343429 0.22236618
000150 25 d8 61 3d f0 6e a5 bd d1 1b 86 3e ea 3d 8f 3c
       0.055137772 -0.080778 0.26193097 0.017485578
000160 75 b8 02 be ba 1f 99 be 0a 98 a0 3e 11 fa 75 3c
       -0.12765677 -0.29907018 0.31365997 0.015013234
000170 6d ea ae 3c af ff af 3c 98 07 30 3c 69 e4 b2 be
       0.021352017 0.021484224 0.010743998 -0.34939888
000180 40 fe 49 bd db 49 1c bf b1 24 39 3e a1 94 60 be
       -0.049314737 -0.61050195 0.18080403 -0.21931697
000190 28 5b e0 3d 2f ab 41 be 6f 0f a2 3d c3 93 42 3e
       0.10954887 -0.18912958 0.079131 0.19001679
0001a0 bb 35 82 3e f9 7d 98 3d 35 56 7a bd f3 ce 65 be
       0.25431618 0.074459024 -0.06111737 -0.22442226
0001b0 6d 4e 3e bd 01 49 0f 3e b3 f2 5b 3e 2f cf 00 be
       -0.04646151 0.13992693 0.21479301 -0.12579034
0001c0 14 31 a8 3e f8 15 4b bd 70 2a 71 be fe 27 8d be
       0.32849944 -0.049581498 -0.23551345 -0.27569574
0001d0 88 a5 aa bb f7 e6 8e be 69 db bf 3d b0 84 d9 be
       -0.005207721 -0.27910587 0.09368021 -0.42484045
0001e0 4e 54 85 be b8 68 94 be 64 3d 74 3e d2 31 b3 bd
       -0.26040882 -0.28986144 0.23851544 -0.08749737
0001f0 e5 55 87 be 85 25 13 3d 49 46 4b 3e f8 c8 32 3e
       -0.2643272 0.035924453 0.1985103 0.17459476
000200 c7 e8 cc bd 80 86 1b 3e 74 2c 18 be 35 79 34 be
       -0.10005336 0.15188026 -0.14860708 -0.17624362
000210 a2 04 5d 3e d9 22 1c bd 2e f2 3f be d6 2a 27 3e
       0.21583799 -0.03811917 -0.18744728 0.16324934
000220 62 5f 60 3e fc d2 be 3b 7e e3 53 3e 1f 24 4d 3e
       0.21911386 0.005823491 0.2069225 0.2003331
000230 c7 6c dc 3c 39 cd 82 be 0e ee 27 3e 67 94 92 be
       0.026907338 -0.25547197 0.16399404 -0.28628847
000240 e2 6a 81 3e 99 c0 a7 3d 47 7b 17 be b2 e1 ef bc
       0.25276858 0.08191032 -0.1479312 -0.029282425
000250 11 36 96 be 06 6f ec 3d 89 d3 22 3d d2 e5 04 3d
       -0.29338124 0.115446135 0.039752517 0.032445736
000260 0f fc 77 be b8 7c 05 3d b5 48 a0 3c 58 35 0f be
       -0.24217246 0.032589644 0.01956592 -0.13985193
000270 49 c9 50 3e 14 39 07 3e 40 60 3c 3d 57 63 7f be
       0.20389284 0.13205367 0.04599023 -0.24940239
000280 cb 06 70 3d 78 da 81 3d 5b 6b 72 be 1f ec 96 bc
       0.05860023 0.06340498 -0.23673765 -0.018423138
000290 8a 0a 5a 3e c9 c1 82 3d fc 9a 29 be 3b 08 51 3e
       0.21293083 0.06384618 -0.16563028 0.20413296
0002a0 f3 56 94 bd cb b8 ea be e9 b7 ba bd 9e cf 09 3e
       -0.07243147 -0.4584411 -0.09117109 0.13458106
0002b0 9d 98 ad be 87 df bd 3b 75 da 3f 3e 42 e7 1f bf
       -0.33905497 0.005794469 0.18735678 -0.62462246
0002c0 1f 47 76 3d da 08 a8 be b0 a8 f6 bd a0 4d bb be
       0.06012642 -0.32819253 -0.12043893 -0.3658266
0002d0 d8 30 14 be 5d e6 08 be 12 14 f8 3c f8 94 af bd
       -0.14471757 -0.13369127 0.030283008 -0.085733354
0002e0 83 3e 4a be 4e 3c 99 3e 4f 48 28 3e 10 e1 57 be
       -0.19750409 0.2992882 0.16433834 -0.21081948
0002f0 b5 7a 9f 3d 00 4e 5a 3e 7e 20 a0 3d b1 42 14 be
       0.077870764 0.21318817 0.078186974 -0.14478566
000300 a8 e0 87 3e 18 dd 08 be 55 47 5e bd d8 c0 c2 be
       0.26538587 -0.1336559 -0.054267246 -0.38037753
000310 d2 5f 73 3e f2 6c 5c 3e 73 81 f4 bc 0e fe c0 bd
       0.23767021 0.21525934 -0.029846882 -0.09423457
000320 3a 1f ba 3d e1 73 23 3e d2 b4 b8 3d 4c 9a 4a 3d
       0.09087987 0.15962173 0.09018864 0.049463555
000330 b6 6f 25 be 03 a7 9d 3e db e8 a2 3d aa 8d bf 3e
       -0.16155896 0.30791482 0.0795457 0.3741277
000340 d7 54 ca 3d fc 04 d6 be 39 e8 a8 bd 3b a0 3b be
       0.09879463 -0.41800678 -0.08247418 -0.18322842
000350 ed cd 10 bd e8 3d 28 bc 36 7d e2 3d 8b a8 be be
       -0.035352636 -0.010268666 0.11059038 -0.37237963
000360 94 62 97 3e 2a 60 d1 bd e9 1f 4b bd 4d b7 03 3e
       0.29567397 -0.1022342 -0.04959098 0.12862892
000370 45 3a 86 bd 2a 48 40 3d f2 58 ee 3e c5 61 0b 3e
       -0.06554083 0.04694382 0.46552235 0.13611515
000380 00 9b ce bd 30 11 ee bb 29 f1 f7 bc c8 2c 65 be
       -0.10088158 -0.0072652325 -0.030266361 -0.22380364
000390 1c 8a c2 bd eb 3d 7e be a4 a9 4d be 2c 96 0e bd
       -0.094989985 -0.24828307 -0.20084244 -0.034811184
0003a0 4a 6a 90 be a1 60 30 3e 99 b0 aa bd fe 2b 59 3e
       -0.28206092 0.17224361 -0.083344646 0.21208188
0003b0 6e 2a 40 3e 4c 5d bc 3d c9 a4 19 3d fa 4f 62 be
       0.18766186 0.091974825 0.037510667 -0.22100821
0003c0 e8 ed 5a be fc 4d 26 3e bc ce 94 bc 60 9a ab bd
       -0.21379817 0.16240686 -0.018164985 -0.08379054
0003d0 d0 d8 d2 3d bf 3e 82 3e d6 af 17 be 93 e0 93 bd
       0.1029526 0.25438496 -0.1481317 -0.072205685
0003e0 6e 0a 47 3e 69 a1 cd 3d b3 c7 0a 3e bc 4b a8 bc
       0.19437572 0.10040552 0.13552742 -0.020543925
0003f0 13 ed 6b 3e f3 2c 60 3e 0c 95 89 be 5a ca cb 3e
       0.23039655 0.21892147 -0.26871526 0.3980282

encoder.conv.convs.4.bias f4 [40]
000000 0b 0f f2 3d 00 00 00 00 00 00 00 00 75 79 6b bd
       0.118192755 0.0 0.0 -0.057488877
000010 6a c7 8f bc 19 ee 6d bc d8 76 26 bb 81 93 98 bc
       -0.017551143 -0.014522099 -0.0025400426 -0.018625023
000020 aa d0 9b bc 05 c6 0e bd 43 6b ae 3d 68 ef a4 bc
       -0.019020397 -0.034856815 0.08516552 -0.020133689
000030 3d b9 0e bd 73 ae 26 be 1c 35 ae 3d aa 34 dc 3d
       -0.034844626 -0.16277485 0.085062236 0.107522324
000040 0c 31 7e bd 7e 49 14 3d 74 1b ad bd de 24 a7 bd
       -0.062058493 0.0362029 -0.08452502 -0.08161329
000050 00 00 00 00 92 e1 25 3e 55 a2 05 3d 00 00 00 00
       0.0 0.1619933 0.032625515 0.0
000060 16 c3 41 bd ce 20 cb 3d 00 00 00 00 88 68 0c bd
       -0.04730519 0.099183664 0.0 -0.034279376
000070 29 16 0e bd 8b a4 73 bd 41 ea 84 bd e2 1d df 3c
       -0.034689102 -0.059483092 -0.06489993 0.027235929
000080 8c ef 97 3c a7 7d 0f 3e 9f be 14 3c 7f 9a 06 3e
       0.018546842 0.14012776 0.009078651 0.13144873
000090 a8 1c 01 bd 3d b7 63 bd 4e 3d ee bc 9b f6 01 bd
       -0.03152147 -0.05559467 -0.029081967 -0.031729322

encoder.conv.convs.4.lin.weight f4 [40, 40]
000000 21 9f e1 bd 04 6b ee 3c 05 8a 53 3c 0f bb 5a be
       -0.110166796 0.029103763 0.012911324 -0.2136042
000010 d6 ac 2a be f5 87 a7 3d e8 de 97 3e b4 3b 5b bf
       -0.16667494 0.081802286 0.2966225 -0.85637975
000020 60 e5 5c be 09 b2 4d bd c4 ca 0f be 7c 10 fe 3e
       -0.21571875 -0.050218616 -0.14042193 0.49621952
000030 64 a6 41 be 41 75 e0 3d 0b a8 3f 3e d6 63 dd 3d
       -0.18911129 0.109598644 0.18716447 0.10810058
000040 20 21 2d 3e 42 84 34 3e 89 22 4f be 82 c1 c1 3d
       0.16907167 0.17628577 -0.20228018 0.09460737
000050 19 7f 89 be 58 99 00 3e 60 f0 65 3d c7 70 3b 3e
       -0.2685478 0.12558496 0.056137443 0.1830474
000060 78 08 fc 3d 9d f1 9b 3e e7 f3 e8 be 24 0c 0b bf
       0.12306303 0.30457774 -0.45498583 -0.543154
000070 da e3 3b 3e 66 bd 80 bd aa 58 ba be 9a fc 30 be
       0.18348637 -0.06286125 -0.3639577 -0.1728386
000080 ef 7d 77 3d d1 e4 8d 3e 76 f8 21 3e b7 67 92 3b
       0.060422834 0.27713636 0.15817437 0.00446793
000090 91 9e 1d be b7 04 6c 3d 9d 78 1b be 3a bb 77 be
       -0.1539252 0.057621684 -0.15182729 -0.24192515
0000a0 ff 74 fb bd 91 5e 41 be 9e a0 0f bd c0 e2 87 bc
       -0.122781746 -0.1888373 -0.035065286 -0.016587615
0000b0 f0 8a 0c 3c 17 47 3b 3e 36 6b 1d be ef 68 89 ba
       0.008578047 0.18288837 -0.15372929 -0.0010483543
0000c0 46 a7 82 be c0 13 84 3e 1b 87 54 be 7b ec 49 be
       -0.25518245 0.25796318 -0.20754664 -0.19719116
0000d0 51 6e 60 3c 98 3f fb bd 78 1f 44 3e 29 77 74 be
       0.0136981765 -0.12267989 0.1915263 -0.23873581
0000e0 f6 9d 32 be f5 15 22 3c 53 cf 1c 3e 80 ec de bd
       -0.1744307 0.00989293 0.15313463 -0.108849525
0000f0 90 4b 1f be 12 87 a5 3d 2d 48 75 be 16 c1 61 bd
       -0.15556169 0.08082403 -0.23953314 -0.05511578
000100 fe d5 35 be 40 fd 0b be 14 ac 18 3e de 9d 1f be
       -0.17757413 -0.13670826 0.14909393 -0.15587565
000110 2e b5 1f 3e 3a dd 39 3e 27 12 72 3e b8 03 62 be
       0.15596458 0.18150797 0.23639737 -0.22071731
000120 83 33 6c bd c5 3e f5 3c 8e 9d 0f be 2b ca 42 3d
       -0.057666313 0.029937157 -0.14024946 0.047556084
000130 f2 86 56 be 98 e3 55 3e 94 0f 5e bb 17 20 f6 bd
       -0.20949915 0.20887601 -0.0033883797 -0.120178394
000140 37 08 03 3e 55 f0 1d 3d e3 a8 2a bd 40 00 83 bd
       0.12796102 0.038559277 -0.04166497 -0.06396532
000150 34 57 dd bc 8d b5 93 3d 85 a8 f2 bd 63 c3 e4 3d
       -0.02701912 0.072123624 -0.11848549 0.111700796
000160 66 36 33 3e 08 1e ee bc cf 23 86 be 9b 12 d6 bd
       0.1750122 -0.029067054 -0.26199195 -0.104527675
000170 6b 91 53 be 0b a2 0a be 57 10 36 3e 41 8a 3e 3c
       -0.20660941 -0.13538377 0.1777967 0.011629642
000180 18 95 87 bd 94 52 6d 3e 55 0d fe bd 4e 06 a1 3d
       -0.06620234 0.23176032 -0.12404887 0.07862531
000190 3c d4 80 3e 02 a1 20 be 80 0b 10 3e 82 50 ad 3d
       0.25161922 -0.1568642 0.14066887 0.08462621
0001a0 77 65 3e be 2f 88 79 be f9 10 d9 3d d9 ad fa bd
       -0.18593393 -0.24368356 0.105989404 -0.1224019
0001b0 74 a2 43 be 8f 46 1f be 5a e5 9c 3d a5 4c 8f bd
       -0.1910494 -0.1555426 0.07660933 -0.06997041
0001c0 10 af ce 3d b0 ee 5a be ec a5 08 3e 3e 97 34 bd
       0.10091984 -0.21380115 0.13344544 -0.04408955
0001d0 3b ff 40 be 2a a3 1f 3e e6 d6 84 3e ab 41 01 bd
       -0.18847363 0.15589586 0.25945204 -0.031556766
0001e0 ca 4b 91 be af 92 0b be 87 c1 b0 bc aa 7b fc bd
       -0.28378135 -0.13630174 -0.021576656 -0.123282745
0001f0 2b 7f ed 3d ee eb 32 be 87 d1 4a be 75 e3 69 3e
       0.11596521 -0.17472813 -0.19806491 0.22840674
000200 55 2f 6a 3e ee 84 87 be b1 4b 3c be 5a 50 13 be
       0.22869618 -0.26468605 -0.18388249 -0.1438612
000210 fe 73 75 3b 06 84 88 3d 90 7e 7e be 48 32 cd 3c
       0.003745317 0.066658065 -0.24852967 0.02504839
000220 0f 61 fc 3d c9 16 46 3d 74 51 0b 3e f5 f4 3f 3e
       0.123232 0.048361573 0.1360529 0.18745787
000230 e8 3d b3 3c 8c cc 9f be 88 d8 99 be 78 6a aa 3d
       0.021880105 -0.31210744 -0.30048013 0.083210886
000240 1b ff 73 3e 71 8e a0 be e2 7c 30 bd 3e 75 2d be
       0.23827784 -0.31358674 -0.043087848 -0.16939256
000250 50 df 4c be a3 2c 68 be bd 37 67 be 6f 00 ba 3d
       -0.20007062 -0.22673278 -0.22579856 0.09082114
000260 23 06 1a 3e b2 ac 17 3e 8c 38 24 3e de 4e 60 be
       0.15041403 0.14811972 0.16037196 -0.21905085
000270 a9 c9 29 3e 9e 8b 15 be f1 d9 33 be 4f dc 2c be
       0.16580833 -0.14604041 -0.17563607 -0.16880916
000280 eb 1a d8 3d c8 5c 11 be b5 d8 64 bd 8e 75 04 3e
       0.10552009 -0.1419555 -0.05587073 0.12935469
000290 dd ac 1e 3e 9e 66 5b be e1 85 e2 3d e1 12 7b 3c
       0.1549563 -0.21425864 0.110606916 0.015324325
0002a0 01 2b ce bd bd 84 1b 3e 6e 15 c4 bd 26 59 a7 bc
       -0.10066796 0.15187354 -0.095744 -0.020428251
0002b0 40 82 40 be a7 19 67 be 93 3e 5a be d6 93 44 be
       -0.18799686 -0.2256838 -0.21312933 -0.1919702
0002c0 77 a0 2d 3e 39 3d fc bd b9 18 87 3e bd cb ac bd
       0.16955744 -0.12316365 0.2638605 -0.084372975
0002d0 a2 de 4d bd 74 30 3a 3e cd b6 03 be 5a 51 f1 bd
       -0.050261147 0.18182546 -0.12862702 -0.11783095
0002e0 69 30 38 bd 8e e1 bd 3d 64 ae 8b bd 9f 16 78 bd
       -0.044968043 0.09271537 -0.06820372 -0.06056845
0002f0 a2 b8 43 3e 6c b0 91 be 1c a9 9f be ca c8 a4 bd
       0.191134 -0.28454912 -0.31183708 -0.0804611
000300 27 bd 19 3b 51 f0 74 be 44 b2 75 3e af 8f 17 3e
       0.002345869 -0.23919798 0.23993784 0.14800905
000310 25 cd 04 be 0e 6e 0e 3e 7f 85 51 3e 2c 1e 66 3e
       -0.12968881 0.1390917 0.20461081 0.22472447
000320 7a 71 80 3e 30 ad d4 be c2 a9 37 3d 0c 0e 0d be
       0.25086576 -0.41538382 0.044839628 -0.1377489
000330 85 f9 6e be 8f 96 86 bd 92 5d df 3d 68 d1 f6 3e
       -0.23337372 -0.065716855 0.10906519 0.4820664
000340 43 36 99 be d8 14 5e 3e a5 56 15 bf 6f b9 49 3e
       -0.2992421 0.21687639 -0.58335334 0.19699644
000350 af fb f0 3d 26 c9 23 bf 07 e5 a8 be 48 7d 89 3c
       0.11766755 -0.63978803 -0.32987234 0.016783372
000360 56 fb 7a bd 4b 3f 0c be 0b 2c 03 3e cb 21 70 3e
       -0.06127485 -0.1369602 0.1280977 0.23450391
000370 5d e8 16 be ca 1c ff bd ee 48 aa 3e cb 3a 2f be
       -0.14737077 -0.12456663 0.33258766 -0.17112271
000380 de 61 dd bd 08 f4 42 bd 0b 50 46 3f bc a6 97 3e
       -0.10809682 -0.047596008 0.77465886 0.29619396
000390 14 2f 1a 39 79 92 9b 3b d3 ea 98 3e fc ae dc 3d
       0.00014704122 0.0047476855 0.29866657 0.10775563
0003a0 a8 42 7d 3e 4c 5f 19 3e 02 64 e2 3e 11 b7 c0 bd
       0.24732459 0.14977759 0.44216925 -0.09409917
0003b0 09 a6 e6 3d 24 b3 99 bd 67 37 bc be a5 44 59 3e
       0.112621374 -0.075048715 -0.3676102 0.21217592
0003c0 7a 2f e4 bd 87 e7 40 3e ef ab 86 3e ae 12 92 bd
       -0.11141868 0.1883832 0.2630305 -0.07132469
0003d0 34 39 a5 3e b4 01 89 3e ce 36 a8 be 19 b6 b7 be
       0.32270205 0.26759112 -0.32854313 -0.35881117
0003e0 2f 30 91 3e ef 17 8c bd 13 b5 8e 3e 2e 48 5a be
       0.28357074 -0.068405025 0.27872524 -0.21316597
0003f0 99 78 48 3d f6 cd 92 3e d9 ae 74 3e 1d 36 4f be
       0.048943136 0.2867276 0.23894824 -0.20235486

encoder.conv.convs.5.bias f4 [40]
000000 12 e6 39 bc ff 6d 05 3d 00 00 00 00 6b f9 0c 3e
       -0.011346357 0.032575604 0.0 0.1376702
000010 02 51 76 3d 74 0a 5f 3d 73 3f a5 bc 61 69 c8 bc
       0.06013585 0.05445333 -0.020171857 -0.024464311
000020 62 87 8e bd 62 c9 dd bd fc e8 d6 3d e1 db 5c 3c
       -0.06959416 -0.10829426 0.10493657 0.013480158
000030 52 3f 01 bd d4 5b 63 3d c1 fc 51 3d d0 57 4b bd
       -0.031554528 0.055507496 0.051266436 -0.04964429
000040 b8 cc fa bc 98 8a ab bd 63 62 e3 3d 1f 53 e2 bd
       -0.030615196 -0.08376044 0.1110275 -0.1105101
000050 9e 6e 90 3d bf e4 9b bd 22 de 0d 3b e8 4d db bd
       0.070523486 -0.07611989 0.0021647294 -0.10708219
000060 13 36 32 bd 5d 42 9b bd 1b 2f cd 3c a6 e0 01 3e
       -0.0435086 -0.07581017 0.025046876 0.12683353
000070 2c b4 4b 3d 90 b8 b0 bd a2 9c da 3d c1 1c ac bd
       0.049732372 -0.086289525 0.106744066 -0.08403922
000080 09 be bb bd 4e 91 04 3e fc 70 2d bd 56 a4 01 be
       -0.09167106 0.12946054 -0.04234408 -0.12660345
000090 45 ca 56 bd 00 00 00 00 85 6b b6 bd 01 eb b1 bc
       -0.052438993 0.0 -0.089072265 -0.021718504

encoder.conv.convs.5.lin.weight f4 [40, 40]
000000 11 1e 77 3e 7c 05 11 3e 92 85 8b bd 00 c6 4d bc
       0.24132563 0.14162248 -0.06812586 -0.012559414
000010 cd e3 2b 3e 72 ca 37 3e 43 80 cf 3d ca 94 55 3e
       0.16786118 0.1794832 0.10131886 0.2085754
000020 19 31 2b 3e 9c 7c dc 3c 16 3c 44 3e 0e d9 f1 bd
       0.16717948 0.026914887 0.19163546 -0.11808978
000030 49 64 78 be 12 75 af 3d 68 a1 03 3e c7 9e 23 bd
       -0.24257006 0.08567251 0.1285454 -0.039946344
000040 fb 9b 05 bd b8 c8 f7 bd 9e ca 17 bd d4 38 a4 3d
       -0.032619458 -0.12098831 -0.037058465 0.080186516
000050 bc 2d 51 be 05 cf 12 be f8 72 eb 3d 94 db 15 be
       -0.20427603 -0.14336784 0.11496538 -0.14634544
000060 ab 48 38 be d8 dc 13 bd c9 0c 40 3e 79 18 cb bc
       -0.1799647 -0.036099285 0.18754877 -0.024791943
000070 3f c7 1d 3d 64 88 27 be e0 f5 d0 bd a1 17 f8 bc
       0.038520094 -0.16360623 -0.10203147 -0.030284705
000080 98 08 de 3d a8 aa bc 3d 3b 5e e5 bc 00 fb 75 be
       0.10841483 0.092122376 -0.027999034 -0.2402153
000090 1a 14 c9 bb e6 10 0e be f8 5c 18 3e 98 9e 3f be
       -0.0061364295 -0.13873634 0.14879215 -0.18712842
0000a0 9e f1 95 be 64 99 36 3e 12 9b b5 3d dd e3 04 be
       -0.29285902 0.17831951 0.08867468 -0.12977548
0000b0 09 a9 13 be bd 16 13 be 30 8e 2c be 29 da 38 3e
       -0.1441995 -0.14364143 -0.16851115 0.18051971
0000c0 56 04 b5 be fb af 2f 3e 7c 3b 58 3e e2 a5 98 bd
       -0.3535487 0.17156975 0.21116441 -0.07453515
0000d0 83 30 7a be fc 02 0d bf 17 aa 09 be 85 83 af 3e
       -0.24432568 -0.5508268 -0.1344379 0.3428003
0000e0 4d d5 af bc e2 6e 33 3d f0 c1 ab bd 73 5f 6f 3c
       -0.021464014 0.043806918 -0.083866 0.014610159
0000f0 5f 34 07 3e 02 10 71 3d f0 98 d6 3d 98 07 49 be
       0.13203572 0.058853157 0.10478389 -0.19631803
000100 5a 3c ca 3d 5d 0f 7f 3e 8d dd 64 3e c2 50 62 be
       0.098747924 0.24908204 0.2235014 -0.22101119
000110 65 96 3a be 6a ea 1d be a6 c0 2e be 2d 7b 34 be
       -0.18221433 -0.15421453 -0.17065677 -0.17625113
000120 57 1b 77 bc 8a 17 74 3e 52 32 d9 3d fd 39 52 3e
       -0.015082202 0.23837104 0.10605301 0.20529933
000130 7a 72 cb 3d d4 26 b8 bd b4 9b 9d be d7 09 68 be
       0.09933944 -0.08991781 -0.30782855 -0.22660004
000140 1b 89 86 be d2 c7 83 be 1b 01 f2 3c 1e 29 0b 3e
       -0.26276478 -0.25738388 0.029541543 0.13589904
000150 c3 d4 d3 3d 26 30 e9 bc ce 3a f4 bd 38 ce 1b be
       0.103433155 -0.028465342 -0.119252786 -0.15215385
000160 76 3b 80 be 18 c3 ef 3d 25 c0 76 be 2a 1c 19 be
       -0.25045365 0.11707133 -0.24096735 -0.1495215
000170 40 fe 0e be d5 c4 4a bd 1f 14 57 bd 20 bb 03 3e
       -0.13964176 -0.04950412 -0.052509423 0.12864351
000180 84 97 1b 3d b5 3d 4d be b0 0e 46 3e a2 93 83 3e
       0.037986293 -0.2004307 0.1934154 0.25698572
000190 50 98 05 3e be 1c 0a be fc 71 79 3d fa c3 df bd
       0.13046384 -0.13487527 0.06089972 -0.109260514
0001a0 9d 6e a7 3d 03 d8 86 3c ed 2c 5f 3e 5a 27 15 be
       0.08175395 0.016460424 0.21794482 -0.14565793
0001b0 f8 88 31 3e 2a 51 29 3e 9f 17 15 be ed c7 67 be
       0.17337406 0.16534868 -0.14559792 -0.2263486
0001c0 bf 22 53 3e d9 b5 8b be 3c 4b 94 bd 04 f4 51 3c
       0.20618723 -0.27287176 -0.07240912 0.0128145255
0001d0 11 f5 33 be 87 ae 9a 3d 5c f4 84 be 6f 4e ec bd
       -0.17573954 0.0755282 -0.2596768 -0.115383975
0001e0 fd b9 30 bd 07 12 34 be 4f ed 52 3e 04 3d 14 bd
       -0.043146122 -0.17585002 0.20598339 -0.036191
0001f0 36 48 8d bd a2 bf 12 be 25 d6 c3 be fd fb d3 bd
       -0.06898539 -0.14330915 -0.38249317 -0.10350797
000200 d8 5b e6 3b d0 9a 88 be d1 e7 95 3e 52 21 8f 3c
       0.0070299916 -0.26680613 0.29278424 0.017471943
000210 7e 73 16 3e 2a 5a 22 3d 1a 67 3c 3e 53 d7 06 bd
       0.14692494 0.03963677 0.18398705 -0.032920193
000220 d8 d3 b2 3b 9f 3e 2c 3e 4f 0c 2f be 4c bc 52 be
       0.0054573826 0.16820763 -0.17094539 -0.20579642
000230 17 e0 06 be 9d 6f 6d 3e fc 02 a1 be 16 b4 64 be
       -0.13171421 0.23187108 -0.3144759 -0.22334322
000240 fa 1e d7 bb e8 3c 36 3e 54 92 19 bd 61 60 a9 bc
       -0.006564972 0.17796671 -0.037493065 -0.02067584
000250 94 d7 81 be c1 f8 39 3d 10 03 d3 bd fb 14 64 be
       -0.25359786 0.045403246 -0.103033185 -0.22273628
000260 f4 60 41 bb 84 e6 15 be 60 c4 9c 3b d5 6c 11 be
       -0.0029507251 -0.14638716 0.004784152 -0.14201672
000270 46 73 37 3e 94 c9 63 3e e1 93 c7 be bc 5f 35 3c
       0.17915067 0.22244865 -0.3898001 0.011070188
000280 53 f2 94 3e f1 aa dc bc b6 68 1c 3d 78 26 95 3b
       0.2909113 -0.02693698 0.038185798 0.004551705
000290 f8 7c 91 be c7 aa 37 3d 70 05 76 be 21 11 d0 3a
       -0.28415656 0.0448406 -0.24025512 0.0015874245
0002a0 d3 92 a9 be 72 c4 d6 bc 07 f7 51 3e 3f bc bc bd
       -0.3311983 -0.02621672 0.2050439 -0.092155926
0002b0 b2 18 6c be 98 9d f7 3c 4f 38 63 bd 48 d7 91 be
       -0.23056296 0.030226514 -0.055473622 -0.2848456
0002c0 63 62 03 3e ee 70 a1 bb f7 ba 71 3e 0c eb 84 3e
       0.128305 -0.0049267923 0.23606478 0.25960577
0002d0 61 62 87 bd 6e b3 92 3d 96 f2 b0 be be 91 7c 3e
       -0.06610561 0.0716313 -0.34560078 0.24664971
0002e0 61 81 4c be 1c 15 b6 bc f3 0c ea 3c 0a 50 9e bd
       -0.19971229 -0.022226863 0.028570628 -0.0773011
0002f0 0e 25 f9 bd 2b 9f 9f 3e c0 ff cd 3d de f6 fa 3d
       -0.12165271 0.31176123 0.10058546 0.122541174
000300 2d bf cf 3d e1 00 4f 3e 30 71 5a 3c c2 20 86 be
       0.10143886 0.20215179 0.01333265 -0.26196867
000310 bb d9 9e bd c8 00 06 bd d2 37 c0 3c 23 0d d3 bd
       -0.077563725 -0.03271559 0.023464117 -0.1030524
000320 84 d1 82 be 5c 1a 71 3e 93 d6 77 be 3c 5d 9c bd
       -0.25550473 0.23545212 -0.24202947 -0.076349705
000330 1e a0 1d 3e 49 aa 31 bd 71 3f 6b 3e 40 36 44 be
       0.15393111 -0.043375287 0.2297342 -0.1916132
000340 4a db af 3e 8f cf 80 3e 57 f0 d2 bd 43 31 12 3e
       0.34346992 0.25158355 -0.102997474 0.14276604
000350 77 42 f5 3d 3f 08 a2 be 55 11 9e 3e eb fa 83 3e
       0.11975568 -0.31646916 0.30872598 0.25777373
000360 a5 9c 4f 3d 66 fe e7 bc 6a f8 00 be 8d 01 4d 3e
       0.050686497 -0.028319549 -0.12594762 0.20020123
000370 13 50 b6 bd 32 a0 84 3d b3 cc fd bd 58 ad ec 3c
       -0.08901992 0.06475867 -0.12392559 0.02889125
000380 6d 2a 3d 3e 65 ea b7 3d 53 c0 7e be dd 10 7a 3e
       0.18473215 0.08980254 -0.24878053 0.24420495
000390 47 c8 76 be 10 6e 84 be 29 6d d9 bb a7 28 d2 bd
       -0.24099837 -0.2586522 -0.0066353274 -0.1026166
0003a0 5f d8 a3 bc 3f 50 9a be 17 79 a1 bd 9d 50 0b be
       -0.020000635 -0.30139348 -0.07884424 -0.1360497
0003b0 fe 6c 0f be 19 8f ba 3d f2 67 5c bd ee 64 45 3e
       -0.14006421 0.09109325 -0.053810067 0.19276783
0003c0 8a 2b ad 3b 83 61 ae 3c 07 a1 67 bd cb 86 84 3c
       0.0052847313 0.021286732 -0.056550052 0.016177556
0003d0 ba f1 ef 3d 6a a2 78 be e8 56 9f 3e c6 b6 86 3b
       0.117160276 -0.24280706 0.31120992 0.0041111438
0003e0 af 80 f9 3d 32 bd 3a 3e 94 b6 1f 3e 62 bd 1e be
       0.121827476 0.18236235 0.15596992 -0.15501931
0003f0 32 95 9a bb d9 be 93 be 04 76 07 3e 20 57 9c be
       -0.0047174925 -0.28856543 0.13228613 -0.3053522

encoder.conv.convs.6.bias f4 [40]
000000 96 c8 bc bc 85 f3 17 bd 53 67 2d 3d 58 5a 03 3e
       -0.023044866 -0.037097473 0.042334866 0.12827432
000010 8d 05 ea bc 6d e6 52 3d 58 b2 aa bd 5a 53 10 3a
       -0.0285671 0.051489282 -0.083347976 0.00055055844
000020 28 d6 b7 bd 83 dc b3 bd db 3c b9 bd d8 87 73 3d
       -0.08976394 -0.08782294 -0.090448104 0.059455723
000030 c6 4f 87 3d 00 00 00 00 db ae fe 3d ce eb 3c bd
       0.066070125 0.0 0.12435695 -0.04612332
000040 98 d1 b9 bd 83 f2 e7 3a a3 4e fe bc 35 d9 65 3d
       -0.0907318 0.0017696175 -0.031043356 0.056115348
000050 11 4c 69 3c 51 13 31 bd 3b 64 02 3e e5 a2 d5 bc
       0.014239327 -0.043231312 0.12733547 -0.02607865
000060 33 94 8f bd 41 27 e6 bc 8a dd f8 3d 32 e0 37 3c
       -0.07010689 -0.02809489 0.1215163 0.011222886
000070 67 4c 91 bd e4 62 e3 3b fd 42 cb bd 81 3c c9 bc
       -0.07094651 0.006939279 -0.099248864 -0.024564983
000080 51 f0 cb bc 00 00 00 00 2b 00 73 3c b4 a3 e2 bc
       -0.024894865 0.0 0.014831583 -0.02766595
000090 ea 37 94 bd cd 61 9c bd 64 ef 88 3d da 01 c3 bd
       -0.07237227 -0.076358415 0.06686285 -0.095218375
