results/model_GCN/graph_split_/layers_8/transform_True/alpha_0.1/model.pt (torch, 65262 bytes, 23 tensors)

encoder.conv.convs.0.bias f4 [40]
00000000: 0756 18bc d287 173d bcc1 d13c 7fd9 0b3d
00000010: 9b20 0a3d 0625 1e3c f3d8 873d 3215 4dbd
00000020: 9f5f a6bd e211 ef3c 802c 7fbc fd58 0b3d
00000030: 1cc2 a9bc c8c0 9c3c cb3d 29bd d4cd 473d
00000040: 4bab 743d b680 5fbd b8d8 89bd 7ec4 823d
00000050: a742 9a3c 01fe a93d 8b4b cb3d bbbf 5a3d
00000060: ae83 9ebc 732c a93c 14b5 8dba d1c1 f03b
00000070: 51c5 a1bc bc6f e03c 942a d0bb ed0d eebc
00000080: 1ed8 7ebc 5bf6 a1bd b345 a1bd c801 09bc
00000090: 828c 273d 4c0c 1b3c 7c16 1cbd ccfb cfbd
-0.009297854 0.036994763 0.025605075 0.034142967 0.0337225 0.009652382 0.06633177 -0.05006904
-0.08123707 0.029183332 -0.0155745745 0.034020413 -0.020722441 0.019134894 -0.041318696 0.048780277
0.05973367 -0.054566108 -0.06730789 0.06385134 0.01883061 0.083004005 0.09926518 0.053405505
-0.0193499 0.020651078 -0.0010811412 0.0073473235 -0.019747408 0.02739703 -0.006352732 -0.029059375
-0.015554456 -0.07908317 -0.07874622 -0.008362241 0.040905483 0.009463381 -0.03810738 -0.10155448

encoder.conv.convs.0.lin.weight f4 [40, 40]
00000000: ed04 1dbe ccb6 473e 7d01 a33e 7b4a 323d
00000010: 0398 32be c6e0 493d 1830 2d3d 0358 4fbe
00000020: 915b e03e bfdc 293e 8175 863e 07ad 02be
00000030: af1c 86be 6afe 6e3e b7f8 d13c 5673 1e3e
00000040: c4a1 2f3e 1a18 42be b420 e93c a848 e8bd
00000050: 2adf 4f3d f5be 96be 433d adbe 7f14 a0bd
00000060: 9800 293e ba7b 69be eaab 8cbc 2e3f 93be
00000070: 3f9a c3bc 6f97 bfbc e9fc 8fbd 28e0 7d3e
00000080: 40f9 483c 8c55 803e 271d e13c 6060 47be
00000090: cbb4 42be 9256 a83e b9ce 173d d8f5 6e3c
000000a0: 5479 4a3e 3596 75bd e2de 7bbe bce5 9dbe
000000b0: d163 92be 1b1d 91be 501b 83be f6cf ddbe
000000c0: b7be c63e 0a73 2fbe 8f54 bf3d c3d4 b63d
000000d0: 2ca0 013e 9246 10be 1c9f ddbe 03a6 c03e
000000e0: 36fc f5bd 4bb2 4f3e d3d0 84bd 7289 193e
000000f0: d037 8abe f54c b53d d3ec f7bd 0a4e 8bbd
00000100: f4ae 6bbe 39ae 5e3c 0c8e fbbd f014 debd
00000110: 20d0 7fbe b25a 12be 5dd7 c93d ab09 8abd
00000120: d977 97be 18ed 34be c8b7 22be bf4e a43d
00000130: e921 723e 10e2 623e a46b 70be 33e9 6abd
00000140: e905 64bd 0284 97be ad89 2e3e dc3f 18be
00000150: 8e23 19be c8f4 ba3d a008 80be 56b4 bdbe
00000160: 849d a4bd 919e af3d d082 67be d954 46be
00000170: 03d8 48be 1c44 7bbe 52a7 c5be 7f31 bd3d
00000180: 6024 49be 4104 9a3b 97d6 0ebe 4215 b43d
00000190: 9061 143e 28c9 0abd c934 833d 30e2 9a3e
000001a0: d20e 95be cd23 1cbd 6085 edbd 64e1 0bbe
000001b0: 911f 5fbe d7fe 6b3b 9aef 42be 48c5 983d
000001c0: 84fe a1bd afe5 8fbe 37f7 56be 0394 073d
000001d0: c24c afbc 5669 3f3e a4b4 9cbc 442c 5f3d
000001e0: 9bd6 7fbd 6db9 04bc 86b1 9f3e c4a2 55be
000001f0: 0bd4 d43d 380f 233e 3a61 3b3e 7121 aabc
00000200: 7a7e ce3d aa5c 203e 55d5 cebd 2d3b 67bd
00000210: ef42 a13d c4a3 a4bd df20 0ebe 394b 90bd
00000220: bb1d 363e 3a44 203e 8e02 5b3e 14c0 873e
00000230: d028 223e 36fd 20bc db1f b5bc a1a5 92be
00000240: e792 1c3e b7fc 6ebe 7cbb 2bbe a013 ad3d
00000250: ffc3 103d 9dfa c83d 1c29 b1bd 5de3 8b3e
00000260: b431 8cbe c54a 70be 64ef 2a3e be04 723e
00000270: 5b7b 1f3e 55f4 8f3b be8b afbc 9976 f3bd
00000280: 3c3a d8be 861a 583e 7848 fe3d 1d78 bbbe
00000290: 6a64 03bb 3c7e 40be a0b2 3b3d c46d 5bbd
000002a0: ada4 cebe 4e09 e0bd 8d9b 89bd 9d51 d2bd
000002b0: dea0 0abe 6b30 89be b45f b5bd 56a4 8cbc
000002c0: fca2 c63e c542 02be 99f0 13bd b5b9 093e
000002d0: dc29 82bc ae06 0e3d 0ef9 763e c705 bdbe
000002e0: d0e7 013d 2f92 94b8 1848 85be 9d62 c8bd
000002f0: f253 073e da09 a33d da29 9bbd ca91 0f3e
00000300: e674 e2bd 1ba3 053e d7f2 52be ca1b 023d
00000310: 1810 943d 9e6c b93e 9cdf e83d 9fc8 67bd
00000320: ca8c 2dbe 5b25 f73d 4915 79bd 0067 153c
00000330: 023e 07be a1b2 b83c 554a 983d eb16 573e
00000340: 830c 4dbe 2864 9d3d df4e 1c3e dd46 2c3e
00000350: 6bf4 863c 1dfd 7bbe 49ae 1abe a7a7 bebd
00000360: b06b e9bd 1d3d 16be b52d c2bb 23ec 81bc
00000370: e859 3fbe afa8 fbbd 5445 56be 4268 fabd
00000380: a107 b23c e555 2e3e cde5 34be 447f 6f3d
00000390: e74b 113e a69b d83e 116f 44be cccd 263e
000003a0: 56c7 8fbe 4991 b0bc c758 d23c 1763 5cbe
000003b0: b85d 47be bfd6 4c3d 7eca 6dbe 2286 583e
000003c0: 54a3 a2be ea38 c1bb b46f 843e 8f23 96be
000003d0: c6ae 953e f077 76be 8145 cbbd 18c7 933d
000003e0: 29e2 56bd 2494 453e cd6a e038 05bc d0be
000003f0: 0b09 473e aa2d 71be 9b3b 27be 0735 833e
-0.1533391 0.19503325 0.31837073 0.04352806 -0.174408 0.049286626 0.042282194 -0.20248418
0.4381986 0.16588114 0.26261523 -0.12761317 -0.2619376 0.23339239 0.025631292 0.15473685
0.17151552 -0.18954507 0.028457977 -0.11341983 0.050749935 -0.29442564 -0.338358 -0.07816409
0.16504133 -0.22801104 -0.017171819 -0.2875914 -0.023877261 -0.023387639 -0.07030661 0.2479254
0.012266457 0.25065267 0.027479721 -0.19470358 -0.1901428 0.32878548 0.03706238 0.014584981
0.19772846 -0.0599577 -0.24596742 -0.30839336 -0.2859178 -0.28342518 -0.25606775 -0.43322724
0.3881738 -0.17133728 0.093423 0.089273 0.12658757 -0.1408942 -0.43285453 0.37626657
-0.12010996 0.20282857 -0.064851426 0.14993837 -0.26995707 0.08852569 -0.121057175 -0.06801994
-0.23015958 0.013591343 -0.12282953 -0.10843837 -0.24981737 -0.1429241 0.098555304 -0.06740125
-0.29583624 -0.17668569 -0.1589042 0.08022832 0.23645748 0.22156549 -0.23478562 -0.057351302
-0.0556697 -0.295929 0.17044707 -0.1486811 -0.1495497 0.091287196 -0.2500658 -0.37051648
-0.08037856 0.08575166 -0.22608495 -0.19368304 -0.19613652 -0.245377 -0.38604218 0.09237956
-0.19642782 0.004700214 -0.13949047 0.08793117 0.14490342 -0.033883244 0.06406552 0.30250692
-0.2911287 -0.03812008 -0.11597705 -0.13660198 -0.21789385 0.003601005 -0.19036713 0.074595034
-0.07909873 -0.28104922 -0.20992742 0.03310014 -0.021398906 0.18692526 -0.019129105 0.054485574
-0.062460523 -0.00810085 0.31190127 -0.20862871 0.103920065 0.15923774 0.18298808 -0.0207679
0.10082717 0.15660349 -0.100992836 -0.05645292 0.07874095 -0.08039048 -0.13879727 -0.070455976
0.17784779 0.15651026 0.21387693 0.2651373 0.15835881 -0.009825995 -0.022109916 -0.2864199
0.15290414 -0.2333859 -0.16770738 0.08451009 0.035343166 0.09813426 -0.08650419 0.27321902
-0.2738167 -0.23466022 0.16692883 0.23634622 0.155744 0.0043931403 -0.021428939 -0.11887855
-0.4223193 0.21103868 0.12416166 -0.36615077 -0.0020048865 -0.18798155 0.045824647 -0.053571478
-0.40360013 -0.10939275 -0.06719122 -0.10269473 -0.13537928 -0.26794752 -0.088561445 -0.017168205
0.38796222 -0.12720783 -0.036118124 0.13449748 -0.0158891 0.03467434 0.24118444 -0.3691847
0.031715214 -7.084419e-05 -0.26031566 -0.09784434 0.13215616 0.079608634 -0.07576342 0.14020458
-0.11057453 0.13050501 -0.20600449 0.031764783 0.07229632 0.3621568 0.11370775 -0.05658781
-0.16948238 0.12067672 -0.060811315 0.009118795 -0.13207248 0.022546114 0.07436053 0.21004836
-0.20024304 0.07685119 0.15264462 0.16823907 0.01647397 -0.24608274 -0.15105547 -0.09309321
-0.11397493 -0.1467175 -0.005925859 -0.01585967 -0.1868664 -0.12288033 -0.20924884 -0.12226917
0.021732153 0.17024954 -0.17665787 0.05847098 0.1418911 0.4230625 -0.19182993 0.16289443
-0.2808177 -0.021553652 0.025677098 -0.21522175 -0.19469345 0.050009485 -0.23221776 0.21144918
-0.31765234 -0.0058966773 0.25866473 -0.29324004 0.29234904 -0.2406919 -0.09925366 0.072157085
-0.052461777 0.19294792 0.000107010455 -0.40768448 0.19437043 -0.23552576 -0.16331331 0.25626394

encoder.conv.convs.1.bias f4 [40]
00000000: 83c7 993d a65a 43bd ff09 6fbd f909 603b
00000010: f1dc cd3c edd1 9f3d a2aa f03d 7e27 1cbc
00000020: 7d0d 8d3b cf11 8bbd fec8 413c f85c 8e3d
00000030: 2fee d83d 57d8 0c3d cab3 38bc 1e46 19be
00000040: 665d 833d 804a ec3c 1ead 1abd 0796 8c3d
00000050: 87c7 683d 32a9 80bd b107 87bc 09c8 403c
00000060: 4e7a 9e3d 3f82 e0b9 6edc 523c 9c51 b03d
00000070: 6cc9 5b3d b49f a73b 7f91 f8bc 916b 1abd
00000080: d800 e3bc d1d4 14bd 0ae4 a6bc eb77 babd
00000090: a434 ecbd e8a1 18bd e1fc 4d3b 3045 7a3d
0.07508757 -0.04769387 -0.058359142 0.0034185632 0.025129767 0.07803712 0.117512956 -0.0095309
0.0043045864 -0.06790506 0.011827705 0.06951326 0.10592305 0.034386005 -0.011273334 -0.14968154
0.06414299 0.028844118 -0.037762754 0.06864553 0.05683091 -0.062822714 -0.01648316 0.011766442
0.077381715 -0.0004282165 0.012869937 0.08609316 0.053658888 0.0051154736 -0.030342815 -0.03770024
-0.027710363 -0.03633577 -0.02037241 -0.09104904 -0.11533478 -0.03726378 0.0031431245 0.06110114

encoder.conv.convs.1.lin.weight f4 [40, 40]
00000000: 25b9 6abe 1193 49bf d9c0 0dbf b20f 69bd
00000010: 7192 e0bc 14f9 673e 2448 e3be 7512 babd
00000020: de33 25be a652 2f3d 45ad 133e 4a3d 493e
00000030: 0dad e2be 2395 4fbd 8480 303e 3b9d 4a3e
00000040: cd4a a8be 3a7b 9a39 58b1 7abd ea4b 8b3d
00000050: 316b 7a3e 6ad2 c7be 1915 e13e 574a d7bd
00000060: 746c 823d 1bce ebbe d386 acbc d6a5 503e
00000070: f739 bcbe 1b79 53be 4b46 f6be 9b95 a1be
00000080: 1768 2c3e 93e1 56bc 4ae6 8c3e ba37 4c3d
00000090: 1389 33be 2979 d03c c449 b8bd d9ac 04be
000000a0: 5f7e 1e3e 1f60 c8be b8ce 3fbe 0a53 4f3e
000000b0: dccc 9d3e 18f5 76bd f544 5c3e eaa9 07bc
000000c0: 41d1 48bc 16ab b8bd 17a3 a4bd c4c0 09be
000000d0: 68b5 0d3d a774 283e d206 c53d 6527 b0bd
000000e0: 5f14 903e db84 8dbd 81ab 643d 0d43 09be
000000f0: f20e 87be d6e7 023d 7625 1d3e b5a0 48bc
00000100: 7afd 423e d532 e3bd 2712 3a3c 607b 333d
00000110: 9bfb 303c 6186 f8bb ea14 773c d7a7 32be
00000120: 9f63 8cbe 69ae 2e3d c56d dfbc 5828 d2bd
00000130: a97d 1bbd 69be afbd bd9d 0c3e 91ce 7d3e
00000140: 19af 59be 8033 24be 4571 a1be 7b5e 353d
00000150: 6e0c 603d c038 af3e f745 a83d 49d7 1b3e
00000160: 2bc0 e5bc 1a4b 93be 5fbe 07bc eddb 973d
00000170: 0e76 a63c 8c34 07be 6f0f 663e 5052 0fbe
00000180: 5808 e4be 7eb5 a0be 41e0 3c3e 7a34 8abe
00000190: a0c2 b9bb 7302 bbbe b038 46bd bc65 3a3e
000001a0: 224b 123e f02c 43be 584d e13b 4df8 d93d
000001b0: bb84 5bbe e133 01be 360d 9abd 78cd c53d
000001c0: cc41 3b3e a0d5 d83c 3990 ef3d 5a1e 58be
000001d0: d49a 823e 4eed 283e bc9d 70be 04ff 9c3d
000001e0: 58cc 383e e4df 46be 8422 a23d 67e7 9dbd
000001f0: 5be2 6d3e c97f 503c 297d eb3e b5ae ffbd
00000200: 4398 903e 8151 08bd ae91 da3d f95d eabc
00000210: 8f2f 6f3d 8c85 bc3b 82bd 063e 16bc fd3c
00000220: 41f6 bbbe 2ad3 38be 3842 c93d 6641 e8be
00000230: b82b 103c 48cc 09bf 165d 8b3e c26c 1b3d
00000240: ac39 1d3e f756 123c 8db7 8bbe a6d2 4d3e
00000250: 4111 bf3c 8d74 873d d910 8ebe 3c78 8fbd
00000260: 7afd 503e 65c5 31be 1f87 18be b7fd 25be
00000270: 08d3 853e 95bd c2bd 9bb6 613e bf58 193e
00000280: 28a4 e73d f2ca 173e e1ca 593e 4565 c4bc
00000290: 98da a1be f3b9 cfbe 7b48 7abe f62a 94bd
000002a0: d2a5 1e3e a5e2 373d 84e9 55be 942b d83d
000002b0: e875 33bf 64f0 06be 21e8 853e c2c9 5dbc
000002c0: 887b 1a3e ad43 1a3e 0a67 303e 3fd1 02bd
000002d0: 1453 893e 29ac f9bd 0cb3 b13e 2843 58bd
000002e0: 77fe e83d b362 793e e7da 783e 908d 13be
000002f0: 44d9 83be 240a 1ebe ffca 14be 8da3 83be
00000300: 1112 743e c5f3 843c 939b 8b3e 9273 94be
00000310: 9bc5 97be 094a 923e fa92 47be f31d 703e
00000320: f305 ef3e b39f efbc 4e4d e3bd 4cbc fa3b
00000330: aa42 d73d 7e79 2c3e 4234 d73e d375 b8bd
00000340: 9b9b 1fbe da1b 32be a109 753e ba09 85be
00000350: e189 54be 34e6 873d fe79 6f3c bae5 a6bd
00000360: 53b9 6abe 8858 cc3d f3ad 05be fa4d 9cbd
00000370: ab96 f73d 2cf5 283e ccec 0f3e 74be 8d3e
00000380: b45c b3bd cbc4 393e 0534 ad3d 8242 823e
00000390: a4a5 06bf 0da8 a23e d339 413e ed06 d1bd
000003a0: f410 863d 08bd 3b3d 8826 823e 398b 8dbc
000003b0: 5d06 7e3e ec22 3abe 6842 99bd f87e 683e
000003c0: 1bfe 353e 8153 fc3d 3a3b 16be 3828 a2bd
000003d0: 6533 2c3e 651a 9cbe 7222 21be 39fe 8d3d
000003e0: e7f1 f2bc 93c2 483e 4aa4 893d 12d6 723e
000003f0: 5669 d1bc 7ceb 7d3e e2e9 633c 4c1b 633e
-0.2292219 -0.7874003 -0.5537239 -0.056899734 -0.027413579 0.2265361 -0.44390976 -0.09085552
-0.16133067 0.04280343 0.14421566 0.19652286 -0.44272652 -0.050679337 0.17236525 0.19786541
-0.32869568 0.0002946498 -0.061204284 0.06801589 0.24454953 -0.3902772 0.4396141 -0.10512226
0.06368342 -0.46055683 -0.021060383 0.20375761 -0.36762974 -0.20651667 -0.48100504 -0.31559452
0.16836582 -0.0131153045 0.27519447 0.049857832 -0.17532758 0.025448399 -0.08998445 -0.12956561
0.15477894 -0.39135835 -0.187312 0.2024652 0.30820358 -0.060292333 0.2151068 -0.008280257
-0.012256921 -0.09017007 -0.080389194 -0.1345244 0.03459683 0.1645075 0.096204415 -0.08601264
0.28140542 -0.06910106 0.05582762 -0.13404484 -0.2637859 0.031959377 0.15346321 -0.012245347
0.19042006 -0.1109368 0.011356867 0.04381883 0.010802175 -0.0075843786 0.01508067 -0.17446838
-0.27419755 0.0426468 -0.027274022 -0.10261601 -0.037961636 -0.0858124 0.13732047 0.2478583
-0.212582 -0.1603527 -0.3153173 0.044279557 0.054699354 0.34222984 0.0821647 0.15218844
-0.028045734 -0.28768235 -0.008285134 0.074149944 0.020319965 -0.13203639 0.22466825 -0.13996243
-0.44537616 -0.31388468 0.18444921 -0.2699316 -0.005668953 -0.36525306 -0.048393905 0.18202871
0.14286473 -0.19060111 0.006875675 0.10643063 -0.21437351 -0.12617446 -0.07522051 0.09658331
0.18286818 0.026469052 0.1169743 -0.21105328 0.2550875 0.16496775 -0.23497671 0.07665828
0.18046701 -0.19421345 0.079167396 -0.07710152 0.23230879 0.012725779 0.45993927 -0.124844946
0.28241166 -0.033280853 0.106723174 -0.028609263 0.058394965 0.0057532247 0.13158229 0.030973475
-0.36711314 -0.18049303 0.09827083 -0.45362395 0.008799486 -0.53827333 0.27219456 0.037945516
0.15354031 0.008931867 -0.27288476 0.20099887 0.023323657 0.06614027 -0.2774723 -0.07005355
0.20409194 -0.17360456 -0.14895295 -0.16210066 0.26137567 -0.09508816 0.22042315 0.1497526
0.11310607 0.14823511 0.21268798 -0.02397407 -0.31612086 -0.40571555 -0.24441712 -0.07234757
0.15492943 0.04489388 -0.2088986 0.10555187 -0.70101786 -0.13177639 0.26153663 -0.013536872
0.15086186 0.15064879 0.17226806 -0.031937834 0.26821196 -0.1219104 0.34706914 -0.05279842
0.1137666 0.24354057 0.24302255 -0.1440947 -0.25751698 -0.15433556 -0.14530562 -0.25710717
0.23835017 0.01622952 0.2726713 -0.28994423 -0.29642949 0.2857211 -0.19489661 0.23448925
0.46684226 -0.029250955 -0.11098729 0.0076518413 0.10510762 0.1684322 0.42032057 -0.09006848
-0.15586703 -0.17393437 0.23929454 -0.25983983 -0.20755722 0.06635705 0.014616488 -0.081492856
-0.22922258 0.099778235 -0.13054638 -0.0763206 0.120892845 0.16499776 0.14055175 0.27684367
-0.08757916 0.18141477 0.084571876 0.25441366 -0.525965 0.31768838 0.18869714 -0.10206399
0.06546202 0.04583457 0.25420022 -0.0172783 0.24807115 -0.18177384 -0.07483369 0.22704685
0.17772715 0.123206146 -0.1467103 -0.07917827 0.1681648 -0.30488887 -0.15735796 0.06933255
-0.029656364 0.19605474 0.06720789 0.23714474 -0.025562923 0.24796861 0.0139107425 0.22178382

encoder.conv.convs.2.bias f4 [40]
00000000: 58e6 373d 5a53 3e3e 98ff 0a3e 2375 973d
00000010: 3759 4c3d ff88 a33d 8b60 efbc 9b18 8b3d
00000020: 0000 0000 3656 653d c419 eb3c 0b56 163d
00000030: d108 01bd 9085 393d 5d94 c6bc 4099 b8bc
00000040: 3af8 ffbb f930 0dbd 7b78 7dbb c2d7 a1bc
00000050: 242e f43c 0000 0000 0000 0000 f213 793d
00000060: 1662 393c 2b56 51bd 5a77 46bc fdc9 2d3d
00000070: 83e5 403c 2ac6 413d 9ea5 00bd 8b64 ff3d
00000080: 719f 213e 3e00 4c3d bd64 403b 7856 073e
00000090: 269b b13b c5e8 cdbc 0000 0000 0202 6cbc
0.044897407 0.18586484 0.13574064 0.07395389 0.04988977 0.07985114 -0.02922084 0.067918025
0.0 0.05599042 0.02869881 0.03670315 -0.03150255 0.04529339 -0.024240667 -0.022534013
-0.0078115733 -0.034470532 -0.0038676548 -0.019756202 0.029807158 0.0 0.0 0.060810037
0.011314889 -0.051107567 -0.012113417 0.04242896 0.01177347 0.047308125 -0.031407945 0.12470349
0.15783478 0.04980492 0.002935692 0.13216579 0.0054201065 -0.025135407 0.0 -0.014404776

encoder.conv.convs.2.lin.weight f4 [40, 40]
00000000: dafb aabe 0d08 b33d 1403 64be 3a94 b43c
00000010: bdf0 e23d e51b 503e 73ab 943d 8ef7 653e
00000020: 078b 69be d559 97be ea94 dc3d 76ad b3bc
00000030: 992c 5d3e ae2f f1bd 820a b63d 1a48 efbe
00000040: 6204 8f3d f1ee 143e ecf4 9f3e d475 1cbe
00000050: a8d8 66be 1b82 46bd e6c1 043f dc19 69bc
00000060: add0 aa3d adc6 443e 3132 86be e936 c9bd
00000070: 103f f3be e072 12be 2c99 1ebe db90 bebd
00000080: 0eaf ccbd 9447 02be c3ba 283c d6c2 683e
00000090: bb7e 243e 709e 2d3e ec1c 3bbd c555 7a3e
000000a0: 46b4 0e3e d581 e13d 7fb3 debd d090 933e
000000b0: af6a bcbd e869 633d f48c 3c3e 831c 94bc
000000c0: a01a 17be 17f2 8cbe e069 40bd 3052 69bc
000000d0: 760e 1b3e 3b4b c63d dd72 8e3e aee0 94be
000000e0: 5c1d 953e e71c a9bb 6fa5 edbd 6cc6 853e
000000f0: 63be b3bd 07b3 343e 766f 553e 8a19 ef3b
00000100: 11b1 5cbd d46c 6abd b603 38be a05b a73d
00000110: 8b03 9dbe 3a3d 25be 0d59 15be 4e50 f1bd
00000120: e0e2 2f3d 214b b23d 0c9f a93d 8351 28bd
00000130: 67c3 15be c62d 0a3e f3f6 13be 758e a03e
00000140: ae06 51be 5109 19be 5320 ae3c 8734 26be
00000150: f7ec 8d3e 69f6 793d 1556 8c3e 97e2 0bbe
00000160: d90c 29be 5246 9dbe ec04 02be d68c edbc
00000170: 0980 453e 4818 4fbd 6fc5 483d 7e12 debe
00000180: 1f60 cbbb a176 44be f8aa 913e bbb6 cdbd
00000190: 383c 203e acdf f13d 419e 0c3e be29 a1bc
000001a0: 4a76 56bd fec5 47be c151 2fbe bfa7 573e
000001b0: c1d3 8f3d 4b57 4e3e aab6 b63e 7b4a 2cbd
000001c0: 1808 b73e 4743 853e 527e f2bd 203c d1bd
000001d0: 0c07 4abe 86f6 80be f11a 373e 62a2 8bbc
000001e0: 695e d1bb ce10 843e c2ce 9ebd dbc0 153e
000001f0: e667 323e 113b 56bd e2e3 983e 052b 153e
00000200: b275 4d3e c57b 79be 34af 8abe 73f1 853e
00000210: 081e 843e 44b4 753e f151 993d 1493 7dbe
00000220: 3936 e63d b05e 353d e377 b5bc 6db4 b63d
00000230: 3310 8c3e e787 8ebd 4879 bcbd 8eee a4bc
00000240: c0d7 f73d 5dff c2bd 57d4 b43c 3214 d03d
00000250: 7200 0ebd 506b 84bd 8a67 63be 058a 1dbd
00000260: 3c84 71be 40cb ebbb 367a 01be 6787 ffbd
00000270: f2df 41be 6a73 53be d3c5 65be 5cdd a83e
00000280: 195f 1f3e 16fc 59be f422 45bd 2672 ba3d
00000290: 61b7 f93d e216 3a3e 6a7d da3d 63a5 833e
000002a0: 3c03 1bbd 1b13 a23d d223 b0be 74be 4ebe
000002b0: 7d2a 33bd 5d17 07be ff74 9dbe a860 00be
000002c0: cf79 803d 675d 33be 4384 3f3d bb6c 2cbe
000002d0: 8518 983e f86e 32be c0fa d63d 04f3 b0bd
000002e0: 0af9 8b3e d567 a5be 5938 c7be 9c4c 703e
000002f0: a4b6 be3b 6dd4 3f3e b788 3cbc a26f dfbe
00000300: 47a2 803d 408c 8c3d 3120 2dbe b6c3 4ebe
00000310: 2954 50be c326 15bb 1050 54be f308 953e
00000320: 6946 a93e f563 85be 8b3f 0dbe 92bc 13be
00000330: d5ec 093e 888d 23bc adc6 983e 38f6 ffbd
00000340: a5ae c6bd 1d8c cc3d d731 a03a ef98 803e
00000350: fdb6 7a3d 26a7 9bbe 61ae 553e 52ff 8ebe
00000360: 0d31 35bd e7db 4d3e 301e 233e 4d78 933e
00000370: 3a26 983d 278f 76bd d980 713e 8239 3dbe
00000380: 704a 873e 9fb4 33bc 3d81 133d ab36 77be
00000390: f01c 733d a5f5 22be c554 a33e bc0e 9fbc
000003a0: 7b1b 343d a5fa 45be ca10 82bd ea7b dcbd
000003b0: a0f0 83bb be52 213d ab8e 3c3e 1205 e03c
000003c0: 5506 e73b 688d 9bbe fdd9 8cbd 15e6 81be
000003d0: 0388 46ba 2d88 2ebe c81a a7bd e790 883d
000003e0: 84f6 a4bd 2c4d 84be f04e 74be ce57 7f3e
000003f0: 3d3d 4fbe cf18 95bd 6ffa 2f3e 767b 1cbe
-0.33395272 0.0874177 -0.22266799 0.022043336 0.110810734 0.20323141 0.07259264 0.22457716
-0.22806941 -0.29560724 0.107705906 -0.021933299 0.21599044 -0.11776672 0.08888723 -0.46734697
0.06983258 0.14544274 0.31241548 -0.15279323 -0.22543585 -0.048463922 0.51858366 -0.014227357
0.08340583 0.19216414 -0.26210168 -0.098249264 -0.4750905 -0.14301634 -0.15488118 -0.09304973
-0.099943265 -0.12722617 0.010298434 0.22730574 0.16063969 0.1695497 -0.04568188 0.24446781
0.13935956 0.110110916 -0.1087408 0.2882142 -0.09200036 0.055520922 0.18413144 -0.018080002
-0.1475625 -0.2752845 -0.04697597 -0.014240786 0.15142235 0.09682318 0.2782201 -0.29077667
0.29123962 -0.005160916 -0.116038196 0.26127946 -0.08776548 0.17646419 0.208433 0.0072967457
-0.0538798 -0.057232693 -0.17970166 0.08171773 -0.30666766 -0.16136637 -0.14584751 -0.11782895
0.042940974 0.08705736 0.08282289 -0.04109336 -0.14625321 0.13494024 -0.14449672 0.31358686
-0.20412704 -0.1494496 0.021255648 -0.16230975 0.27719852 0.06102601 0.27409425 -0.13660656
-0.16508807 -0.30717713 -0.1269719 -0.02899782 0.19287123 -0.050560266 0.049016412 -0.43373483
-0.006206527 -0.19185878 0.2845075 -0.10044619 0.15647972 0.1181024 0.13732244 -0.019673225
-0.052358903 -0.19509122 -0.1712103 0.21060084 0.07022811 0.20150487 0.35686237 -0.042063218
0.35748363 0.2602789 -0.118405 -0.10216546 -0.1972925 -0.25188082 0.17881371 -0.017045204
-0.0063894284 0.2579407 -0.0775428 0.1462435 0.17422447 -0.052302424 0.2986136 0.14567192
0.20064428 -0.2436362 -0.27086794 0.26160774 0.25804162 0.23994547 0.07486332 -0.24763137
0.11240811 0.044279754 -0.022151893 0.08921132 0.2735611 -0.06959515 -0.0920282 -0.020133283
0.12101698 -0.09521363 0.022073908 0.10160102 -0.034668393 -0.06465781 -0.22207466 -0.038461704
-0.235856 -0.00719586 -0.12644276 -0.12476998 -0.18933085 -0.20649496 -0.22438745 0.32981384
0.1556362 -0.2128757 -0.048129037 0.09103803 0.1219318 0.18172792 0.10668452 0.25712118
-0.03784488 0.079138 -0.3440233 -0.2018984 -0.04374169 -0.13192506 -0.30753323 -0.12536871
0.06273233 -0.17516099 0.046756994 -0.16838352 0.29706207 -0.17425144 0.104970455 -0.086401016
0.2733844 -0.3230578 -0.38910177 0.23466724 0.0058201123 0.18733378 -0.011507205 -0.43639857
0.06280952 0.06862688 -0.16906811 -0.20191845 -0.20344605 -0.00227587 -0.20733666 0.2910839
0.3306153 -0.26052824 -0.13793771 -0.14427403 0.1346925 -0.009982474 0.29839078 -0.124981344
-0.097012796 0.09987662 0.0012221885 0.2511668 0.061209667 -0.30400962 0.20867302 -0.2792917
-0.04423623 0.20103417 0.15929484 0.2880272 0.07429166 -0.060195114 0.23584308 -0.18478969
0.2642398 -0.010968356 0.036011923 -0.24141948 0.05935377 -0.15914018 0.31900612 -0.019416206
0.04397152 -0.19333895 -0.063508585 -0.10765822 -0.0040264875 0.03938555 0.18413799 0.027346168
0.0070503154 -0.30381322 -0.068775155 -0.2537085 -0.0007573368 -0.17044134 -0.08159405 0.06668263
-0.080548316 -0.25840127 -0.23858237 0.24935839 -0.20238204 -0.072801225 0.17185377 -0.15281472

encoder.conv.convs.3.bias f4 [40]
00000000: 4096 97bd 116d 253e e2dd 243d b366 013e
00000010: cead d53d a6f9 dd3c 5c5a 313d ef63 06be
00000020: 6469 55bd c1fa 15bd 468e 91bd 301f 3bbe
00000030: a263 b03c d73c 2dbe 67ff 893d 8f91 bebb
00000040: 8d42 11be 606a 24be 3ca7 0b3d c156 4fbc
00000050: 0d96 09bd fbdf 873d d418 8fbd 9a19 bc3d
00000060: d854 a3bc 7b9d 5fbb 20c6 c6bc cd82 b23d
00000070: c522 05bc d006 903d 10be 18bd b0db 9cbc
00000080: 1cab 723c 16c2 043e fbf1 4dbc 62e0 74bd
00000090: d770 9bbb e75e 9d3d 28d3 27bc 193f 86be
-0.07401705 0.16154887 0.040250666 0.12636833 0.10433541 0.02709658 0.043299064 -0.13124059
-0.05210246 -0.03661609 -0.07107215 -0.18273616 0.021531884 -0.1691774 0.06738167 -0.005815692
-0.14185543 -0.16056204 0.034095034 -0.012654961 -0.033590365 0.06634518 -0.069871575 0.091845706
-0.019937918 -0.0034120965 -0.024264395 0.087163545 -0.0081259655 0.070325494 -0.037290633 -0.019147724
0.0148113035 0.12964663 -0.0125699 -0.0597843 -0.004743676 0.07684117 -0.010243215 -0.26220015

encoder.conv.convs.3.lin.weight f4 [40, 40]
00000000: 3dec 3fbe 82ba 9e3e 183b e13d b857 983d
00000010: af3b a53b a6c5 0a3e ba58 2abe 741e 2ebe
00000020: b18b 63be 94c1 bbbc ae00 f4be 88de 3b3e
00000030: dc5b 55be 0775 d9bd 82c6 ddbd 8fcb e3be
00000040: a013 7dbe 201b 423e 298f 2e3e 67f6 7fbe
00000050: de09 2a3e 21d1 17bd a730 e83d 7440 b93e
00000060: 73da 463e a0c1 033e e2ac f73d 5661 1abf
00000070: 58a4 28bf 5113 c23d f45e ddbd db33 04be
00000080: ff47 4cbe 44ee 493e c97b 3fbf ed67 073c
00000090: 084e 483e 24f5 30be ccc2 ccbd 7a10 febb
000000a0: 5658 223e 86cd b33e 0106 023e b17e 823e
000000b0: c810 79bd 9cd5 3a3e 6abe b9bd 48f7 3b3e
000000c0: 4be4 b53d 64b6 883e 692a 943e 6367 1ebe
000000d0: bb26 a0bd c796 7fbe d6ea dabd cd4a 313e
000000e0: 244f ce3d 025d 92bc 2681 82bd 794e 083d
000000f0: 7eec 993e ba52 473e 2754 82be 57b7 6d3b
00000100: 74d3 873e 47b5 6abe 6c2b 7ebe 8c47 83be
00000110: 3f80 843d 5c07 093e 2a54 e8bc fe3a e53d
00000120: 9f53 8d3e 621c b63c 9990 17be 4303 833d
00000130: c5bf e8bd 55f5 4ebe d432 053e 7a14 7fbe
00000140: 8c4c 34be 64a4 153e fa77 8fbd 237c 7ebe
00000150: 194f 1dbe ba5d 923e a7aa 063e b283 f6bd
00000160: 94fe 6d3e b5ae c1bb c7b3 893e cfa0 783e
00000170: f814 323e 46de b9bc bfa8 343e 90bf 973d
00000180: 1774 7abe 87fe 863e 8cd8 b33d 807a 4ebd
00000190: 45fd 2b3e 76b1 0f3c bccf 433e d8fe 863d
000001a0: ccb0 9f3d 30f6 f53a 6824 6abe d5ad 0ebd
000001b0: 8e1b 4a3d 5b13 893e 6775 c83d 7068 38bd
000001c0: 3dbb ed3d 5fdf bcbe a67b f63d 3342 70be
000001d0: 2d65 563e 42ae 6c3e 5d5c 8abd e394 1e3e
000001e0: 837c d0bd fb68 bb3e 3908 1e3e dcbe e0bc
000001f0: f2c9 99be a9ae bebd 616a 473d 9d8d 1bbd
00000200: 7974 913d 9a21 b13d fc54 c03d f5c4 383e
00000210: 20c2 2d3e 8929 c2bd 4137 0abe 9871 593c
00000220: 3b7f ba3d b7f5 7f3e c863 30be 0212 d3bc
00000230: 79e9 83be fc4d 8abe aad2 74bd 4782 d4be
00000240: 33fc 603e 4333 aa3d 822a 6abe 65c7 4a3e
00000250: cc9d 683e 2b1f fdbc 58c1 ecbd 98ba 563e
00000260: 1ee9 973e 4e72 e7be 0a74 3c3e a3b0 373e
00000270: 8985 963b 568d cf3c 0368 d03d c37c 5dbe
00000280: a33a 133e b50f 0a3e 1eba 4b3e b013 9c3e
00000290: f1bb 983e 7fc7 223e 51d5 74be 6792 3f3d
000002a0: a84a 87be e987 023e 7107 b0bd 67d8 cc3d
000002b0: 7c86 abbc 1e65 9ebd 7d39 86be 4015 75be
000002c0: 3855 a83a 836d f33c 15f3 1d3d 5284 55be
000002d0: 8d51 a13d c889 f03c 0bbb 7c3c d232 6d3e
000002e0: 50e4 83bd a094 29bd 33a9 193e 01e7 85bd
000002f0: 2c35 1bbd 0dbb dabd 0f45 1a3e 1513 963e
00000300: 839d 583c b66f 233e 8b53 763d 7531 803e
00000310: 8a70 4cbe 0d0f f03d d52d 623e e3e0 6dbe
00000320: 8984 2fbd a8cd 1a3d 3e17 93bd 74f1 e1bd
00000330: d6cc 0dbe 0cb9 133d f320 17bc 7b03 e3bd
00000340: b5b7 7a3d de07 643b b418 bd3d 74da e0bc
00000350: 5207 15bb 4c34 473e f04d e4bd fb36 a5be
00000360: 9074 5d3e e824 ca3c 6c46 913d e7d9 69be
00000370: b16d aabc 1160 40bc e150 0dbe b3d6 72be
00000380: 71c2 75be 2a7a 1fbe 374d 62bd 6f8e 9a3e
00000390: 4b4d 94be edf1 db3d 8ced 87be cd58 a4bc
000003a0: ac39 2c3e e712 2abd e648 bcbc 0c05 553e
000003b0: 5113 263e 49df 6ebe 3727 003e 87ee 92be
000003c0: 6a17 17be 4b0e 753c 45b2 923e 4531 8dbe
000003d0: 2577 e8be d82e 533e 2675 55be 2e3d 9f3e
000003e0: 3b33 193d 2ce5 77bd ed86 62be 2b2a 4cbe
000003f0: b15e 37be f95c 2f3e 45ee c53c aa76 d0bd
-0.18742462 0.3100167 0.10997599 0.07438606 0.005042515 0.1355196 -0.16635409 -0.17003804
-0.22221257 -0.022919454 -0.4765677 0.18346608 -0.20835823 -0.10618024 -0.10828878 -0.4449124
-0.24714518 0.1895566 0.17046799 -0.24996339 0.16605327 -0.037064675 0.11337405 0.36181986
0.1941927 0.12866831 0.12093522 -0.6030477 -0.6587577 0.094763406 -0.108091265 -0.12910406
-0.1994934 0.19719797 -0.74798256 0.008264524 0.19561017 -0.17281014 -0.09998092 -0.007753429
0.1585401 0.3511774 0.12697603 0.25487283 -0.06080702 0.18245548 -0.09069522 0.18356049
0.08881434 0.26701653 0.28938606 -0.15469126 -0.07819887 -0.2495986 -0.10689323 0.1731369
0.100736886 -0.017866615 -0.06372289 0.033277962 0.30063242 0.19465151 -0.25454828 0.003627261
0.26528513 -0.22920714 -0.24821252 -0.25640523 0.064697735 0.13381714 -0.028360445 0.111928925
0.2760286 0.02223033 -0.14801253 0.063971065 -0.11364702 -0.20210774 0.1300767 -0.24910155
-0.17607325 0.14613491 -0.070053056 -0.24852042 -0.15362205 0.28587133 0.13151036 -0.12036838
0.23241645 -0.0059107193 0.26894972 0.24280094 0.17390811 -0.022688996 0.17642497 0.074095845
-0.24458347 0.26366064 0.087815374 -0.050409794 0.16795833 0.008770337 0.19122213 0.06591576
0.07797393 0.0018765386 -0.2286545 -0.034833748 0.049342684 0.2677258 0.09788018 -0.045021474
0.116079785 -0.3688917 0.12035303 -0.23462753 0.20937033 0.23113349 -0.06755898 0.15486483
-0.10179999 0.3660353 0.15432824 -0.027434759 -0.30036885 -0.093106575 0.048685435 -0.03797685
0.071022935 0.08648987 0.093912095 0.18043883 0.16968584 -0.094805785 -0.1349764 0.013271712
0.091062985 0.24996077 -0.17225564 -0.025765423 -0.25764063 -0.27012622 -0.059771217 -0.41505644
0.21971206 0.08310559 -0.22867778 0.19802625 0.22716445 -0.030898651 -0.11560315 0.20969617
0.29670042 -0.45204395 0.1840364 0.17938475 0.0045935553 0.025335949 0.10176089 -0.21629624
0.14377837 0.13482554 0.19895217 0.3048377 0.29830888 0.15896414 -0.23909499 0.04677048
-0.26424146 0.12747158 -0.08595169 0.10002213 -0.02093815 -0.0773413 -0.26215735 -0.23933887
0.001284278 0.029715305 0.0385619 -0.20851257 0.07876883 0.029362574 0.015425454 0.23163918
-0.064400315 -0.041401505 0.1500595 -0.06538201 -0.037892506 -0.10680208 0.15065406 0.29311433
0.0132211475 0.15960583 0.060138267 0.25037733 -0.19964805 0.11721621 0.22087796 -0.23230319
-0.042851005 0.037793785 -0.071821675 -0.11032382 -0.1384767 0.036065146 -0.009224164 -0.11084648
0.061210353 0.0034794728 0.09233227 -0.027447917 -0.002273996 0.19453543 -0.11147678 -0.3226851
0.21626496 0.024675801 0.0709351 -0.2283703 -0.020804258 -0.011741654 -0.13800384 -0.23714714
-0.23999955 -0.15573946 -0.05524942 0.30186793 -0.2896522 0.10739503 -0.2654842 -0.020061875
0.16818875 -0.041521933 -0.02298398 0.20802706 0.16218306 -0.23327364 0.1251496 -0.28697607
-0.14755026 0.014957021 0.28651634 -0.27576652 -0.454034 0.20623338 -0.2084547 0.31101364
0.037402373 -0.06052129 -0.22121783 -0.19937961 -0.17907216 0.1712531 0.024161467 -0.101788834

encoder.conv.convs.4.bias f4 [40]
00000000: 5345 223e 5467 673d 709c abbb 7c78 e43c
00000010: 1052 fbbc 979f 253d 0d8c 193d 4a5a 09be
00000020: a489 5db9 4e2b c73c 1b01 0d3e c7ed c8bd
00000030: 8967 2cbe f995 993d 25d1 29bd eff7 0abd
00000040: a8c7 be3d 51d9 f3bc edc1 f0bc 0000 0000
00000050: 5a6b f2bc 4537 08bd 9422 cabd 23ad 673c
00000060: 42bc 2d3b d2b9 903d e198 d1bb 50f7 b33d
00000070: 4836 97bc 0b5a 043e f76f 2b3d 53a9 2f3d
00000080: 9c27 fd3c d105 cebc c663 bdbc d379 94bc
00000090: 2d67 013d 9801 2a3c 5c14 61be ce9c f13c
0.15846758 0.056495026 -0.0052371547 0.027889483 -0.030678779 0.0404354 0.03748708 -0.13413349
-0.00021127478 0.024312641 0.13769953 -0.098109774 -0.1683637 0.07499308 -0.04145922 -0.033927854
0.09315425 -0.02976671 -0.029389346 0.0 -0.029592205 -0.033255834 -0.098698765 0.0141404
0.0026509915 0.070666924 -0.0063963984 0.087874055 -0.0184585 0.12924974 0.041854825 0.04288609
0.030902676 -0.025149258 -0.023118865 -0.018124497 0.031592537 0.010376357 -0.21980423 0.029493716

encoder.conv.convs.4.lin.weight f4 [40, 40]
00000000: 418e 70be c5a7 9d3e 3247 433e 1078 e93d
00000010: 4a80 49be 56a9 7c3e fd5a 38be fc83 07bd
00000020: c07a 64be 3c08 65be 34e6 323e ca13 a0be
00000030: cb41 8b3e be13 6dbe fa2e 05be 4e78 41be
00000040: 19ec 6e3c c04e 93be 8afc 523d 1a20 863e
00000050: be66 19be c9f7 343d f282 903e 7c36 a23e
00000060: 6294 083e bc6c 193e 369c af3d 86f3 903e
00000070: 1836 62be 2317 cd3b b322 413d 5fe2 69be
00000080: 0296 033e 6f12 683e 8d27 78bd 16b6 743d
00000090: 49c0 4bbe 36b6 56be 659d b4bd a9c5 5abe
000000a0: 3ccb 9fbe 6dba 68bd 4c3c a9bc dbac b5bd
000000b0: 265d 493e cbec 9b3d 5335 ac3d a085 35be
000000c0: b179 c6bc 3f3e 2a3e 7b0a 013e 1d96 65bc
000000d0: 67a5 22be e938 0dbe 93ef e13b 6d35 d4bd
000000e0: 39d9 8c3d 6d6a 32be b08f d93d b2b5 7f3e
000000f0: 7a8b a3bd f3a3 663e d0ba fa3c 3e8a 7c3e
00000100: 7b29 1a3c 746b 34bd 80be 163e 52c6 1dbd
00000110: 4d35 0a3e 6530 b33c bd83 b6bd 7877 fcbd
00000120: 3594 49bc fbff 09bc b9c3 453e bab0 1fbe
00000130: 99a0 353e 4abc e0bb d30a 0abe 88ca 8fbe
00000140: f731 54bd 7e83 94be bff3 803e f14c 86be
00000150: 2cbc 1abc 4a55 d73d 7c0c e43c bbf7 65be
00000160: 0285 28be b798 193e 1b5c 81be f419 233e
00000170: 7540 13be d66b b1bd 58d1 383d 265a 78be
00000180: c5d6 6dbe 36a8 29be 5cf6 63be 5c8c 2ebe
00000190: 5296 813d 6d57 163e 9b04 6bbe da62 6a3e
000001a0: dd58 3ebe d08c 583e 41c0 cfbd 1fe2 4b3e
000001b0: 2ad1 173e 88da c8bc 7461 833e 1df0 8a3d
000001c0: 34a4 40be d6a0 58be 4854 93be 08c9 2e3d
000001d0: e426 dd3c d09a 68be 6742 34be 9bee 36be
000001e0: 93e5 f93d b4b3 1d3d 3b72 ed3d f771 de3d
000001f0: ad21 583e e6cb 63be 3b8b 30be 0e5a c03d
00000200: 9da0 693d 130c 623e 56ba 053d 1d3e a6be
00000210: c7f2 553e 5fad e83c ebfd 7dbe 80f3 ff3d
00000220: 4676 44bd 02d6 b3bd a852 b23d 5991 01be
00000230: ffec 743e 6cb7 213e 26ef 51bd c08f b5bd
00000240: c6e5 b83c b5f5 44bd 98b7 61bb 6a88 71be
00000250: 0401 69be dfa6 b8bc ae83 4d3e 1acf 73be
00000260: 2256 8dbd fbf1 d23d 22a3 d63c 0f31 473e
00000270: f71b 3fbe 10cf ab3c c115 9d3e 54f0 463d
00000280: cc26 543e a269 e5bd 6c2f 01be 25ac a7b8
00000290: b7af 7abe 5fc1 54bd e2d8 9bbd 6b1a 51be
000002a0: 71c5 903d 49c7 6f3e e2b4 6a3e 60ad f73d
000002b0: 6ed5 1b3e cf84 b43d 5adb 41be 1798 dfbd
000002c0: 1339 853d 2f3b dabd 4352 dbbd 7e64 573e
000002d0: 36d8 fc3d b9fa 65bc c8e4 a7bd ef7f 6c3e
000002e0: 4219 873d 2c9d 2f3d 6310 e43d e97b 95be
000002f0: ae16 87be 9f09 263c 6d1d 86bd a1da cb3d
00000300: d3e6 4abe f5b2 a63c 37ff 75be 29f6 31be
00000310: eb1e 96be 726d 593e 9b5b 4d3d 8438 86be
00000320: 6510 96be 82fe 183e 8ba6 d03d 30b2 973e
00000330: 70b0 4bbe 67a6 89bd 08c5 d63d 43af e23d
00000340: bf1e 02be d127 52bd 9e5c c3bd d7ca 263f
00000350: 3d8d 95bd 6497 a83e c8ad 683e 8920 c83d
00000360: e05c 97bd 1962 e1bd 65ba bbbe 1fe2 95be
00000370: f602 2c3d 49ff ec3d 0892 70bd e1bc 8f3e
00000380: 1e27 283d babb 98bd e89a d13d 3710 7c3e
00000390: 66be 61be eb46 943e 19b1 55be ea3d 9b3e
000003a0: 9ee3 3cbd de49 843e c33b 303e 8ed5 b5bd
000003b0: 73cf ef3b abe2 173e 6d8c f0bd fa3b 703e
000003c0: e252 583e b879 7abc d9fb 08be e542 36be
000003d0: f7c6 1a3e 4043 8b3d af17 f0bc 01a7 f3be
000003e0: a8f9 3d3e 6b83 96bd b16d 09be 6626 0e3e
000003f0: 5b18 f6bc 651e 44bf dc0b cc3d 7631 5a3b
-0.23491766 0.3079206 0.19070128 0.11399853 -0.19677845 0.24673972 -0.1800346 -0.033084854
-0.2231245 -0.22366422 0.17470628 -0.31265098 0.27198634 -0.23152062 -0.13006201 -0.18893549
0.014582657 -0.2877102 0.05151037 0.26196367 -0.149806 0.04418162 0.28224903 0.31682193
0.13337854 0.14982885 0.08574717 0.28310794 -0.22090948 0.0062588616 0.047152232 -0.2284026
0.12850192 0.22663282 -0.060584594 0.059743963 -0.1989757 -0.20967945 -0.08819083 -0.21364464
-0.31209743 -0.056818414 -0.020658635 -0.0887086 0.1966444 0.07613524 0.08408608 -0.17726755
-0.024227949 0.16625308 0.12601654 -0.014012841 -0.15883408 -0.13791241 0.0068950146 -0.10361753
0.068773694 -0.1742341 0.10623109 0.24971655 -0.079855874 0.22523479 0.030606657 0.2466211
0.009409304 -0.044047788 0.14721107 -0.03851921 0.13496895 0.021873662 -0.08911846 -0.12327474
-0.012303402 -0.008422847 0.19312944 -0.1559476 0.17737044 -0.0068583833 -0.13480692 -0.28084207
-0.051805463 -0.2900657 0.25185964 -0.26230577 -0.009444278 0.105143145 0.027837984 -0.22457783
-0.16456988 0.14999662 -0.25265583 0.15927869 -0.14380057 -0.08663146 0.04512152 -0.24253139
-0.2322646 -0.16568074 -0.22261947 -0.1704573 0.063274994 0.14681788 -0.22950976 0.22889271
-0.18588586 0.21147466 -0.101440914 0.19910477 0.14825884 -0.024518266 0.25660288 0.06784079
-0.18812639 -0.21155104 -0.2877524 0.042672187 0.026996084 -0.22715306 -0.17603455 -0.17864458
0.12201991 0.038501456 0.11594053 0.10861581 0.21106596 -0.2224575 -0.17240612 0.093921766
0.05703794 0.22074918 0.032648407 -0.32469264 0.20893393 0.028402982 -0.24803893 0.12497616
-0.047964357 -0.08781053 0.08707172 -0.12653102 0.23918532 0.15792626 -0.05125346 -0.08865309
0.022570502 -0.048085887 -0.0034441706 -0.23587194 -0.22754294 -0.022540508 0.20069763 -0.23809472
-0.06901194 0.1030006 0.026200835 0.19452308 -0.18663011 0.020972759 0.3068066 0.04856904
0.20717925 -0.112017885 -0.12615746 -7.995245e-05 -0.24481092 -0.051942226 -0.076097265 -0.20420234
0.07068909 0.23415865 0.22920564 0.120936155 0.15218136 0.08814394 -0.18931332 -0.10917681
0.06505027 -0.106558196 -0.107090496 0.21034428 0.123459265 -0.014036828 -0.081979334 0.23095678
0.065966144 0.0428745 0.11135938 -0.29196098 -0.2638449 0.01013413 -0.06548581 0.099538095
-0.19814615 0.020349005 -0.24023138 -0.17379059 -0.29320464 0.21233156 0.05013619 -0.26214993
-0.29309383 0.14940837 0.101880156 0.29628134 -0.19891524 -0.06721192 0.104867995 0.11068585
-0.12707041 -0.051307503 -0.0953915 0.6515326 -0.0730233 0.32928002 0.22722542 0.097718306
-0.073907614 -0.11005039 -0.36665645 -0.2927408 0.04199501 0.11572129 -0.058733016 0.2807379
0.04105293 -0.07457681 0.10234624 0.2461556 -0.22045287 0.28960356 -0.20868339 0.30320674
-0.04611551 0.25837606 0.17210297 -0.08878623 0.007318431 0.1483256 -0.11745534 0.23460379
0.21125367 -0.015287809 -0.13377322 -0.17798956 0.15114962 0.06799936 -0.029308168 -0.4758835
0.18552268 -0.07349285 -0.1342075 0.13881835 -0.03004091 -0.7660888 0.099631995 0.0033293641

encoder.conv.convs.5.bias f4 [40]
00000000: 8e58 ccbc d239 2bbb ef32 48bd 9951 a33d
00000010: 6efb a53a ea93 a8bc 4471 d3bc 0000 0000
00000020: 9466 1a3d 61e3 973d ca49 fb3c 8ff1 2abd
00000030: 4619 bcbc 8d6a 25bd 69b6 1bbd 22f0 473c
00000040: 5e5e 1bbe 0f39 10bc a067 0abc 6a3e 02bd
00000050: 9728 193e 66aa 01bd fec3 c3bc 55f7 8b3d
00000060: 6879 023d f2b4 033e 56a1 5d3d cfed d03d
00000070: 755a 06bd 8998 8f3d 0898 1fbd b810 94bd
00000080: 08f7 0c3d d23f 36bb 723c 9f3c 7f62 d8bb
00000090: 77f0 0d3e ed3a 0dbd ed6b c03d d450 19bd
-0.02494457 -0.0026126993 -0.0488767 0.07974548 0.0012663433 -0.020578343 -0.025810845 0.0
0.037695482 0.07416416 0.030674834 -0.041734274 -0.02296127 -0.040384818 -0.038015757 0.012203248
-0.15172717 -0.008802666 -0.008447558 -0.031797804 0.1495689 -0.031656645 -0.023897167 0.06834284
0.031854063 0.12861994 0.05410894 0.102016084 -0.03280111 0.07011516 -0.038963348 -0.07229751
0.034415275 -0.0027809036 0.019438002 -0.0066035385 0.13861261 -0.034480024 0.09395585 -0.0374306

encoder.conv.convs.5.lin.weight f4 [40, 40]
00000000: 33a7 8bba c1f1 3dbe 4d57 fabd 1c96 2cbf
00000010: a345 553e fa4d d73d dcc4 07be 615e 34be
00000020: b41d 80bd 0f4e e4be d462 35be 27b0 40be
00000030: e44c 4c3e 4b34 063e d121 f63d 1737 473d
00000040: c569 4ebf 9b90 1ebe c882 05be 3155 1c3e
00000050: 942b a0be 81ba 87be 04e2 703e 3132 eabd
00000060: 89f2 0cbd a0a1 a53e c165 62be e654 a23e
00000070: 847f 47be 88dd 06bf 8377 15bf 2de7 3c3d
00000080: 6ca1 8f3d b7bb d43d 97b4 803e a459 fb3d
00000090: a7d9 1dbe 848a 1d3e fe7f 5c3a 9e03 9f3e
000000a0: b780 d9bd 232a 48be 4833 903c 13fb 573d
000000b0: 067a 153e 2a91 083d 5208 8c3e 834f 73be
000000c0: f6d2 5dbf 98dc ed3d 2ffe 713e f8c0 1bbf
000000d0: 46d1 993c 8cc1 f5bd 995e 323e ebf9 ef3d
000000e0: 847a 143d 3ddd 8c3e bd80 843e c7e3 82be
000000f0: 49c3 94ba 2639 943d 733e ef3c bd9b 57bf
00000100: 0289 d3bd 70cc ef3c b059 ffbd a521 703c
00000110: bd4d 1cbe 93b5 4ebe 05b1 283e d1a3 573e
00000120: 2ca9 51bc 3d48 4ebe 9c36 44be c600 94bf
00000130: 151d 353e b5f4 4bbe a71a 0fbc 1e1d ae3e
00000140: 122c 63bc 8a1c 41bc 0c95 6d3e c8fb 373e
00000150: 4e7d 863e ee36 1fbd 447c 30be 42fa 5c3d
00000160: 5017 233e 9015 88be 5486 4c3e 499e cf3e
00000170: 47d7 70be fab3 09be b70e 403e d4bd e3bd
00000180: 6058 8c3d e136 72bd 8729 e13d 2600 b33d
00000190: fede a7be 340b 513e ea5d 213e f717 123e
000001a0: 78aa 313e 46c6 c03d 3bb2 1dbe 147e 0ebe
000001b0: df22 0e3e 7a30 77be 2d2b 58be 2db0 1bbe
000001c0: 1716 1b3e 5b16 723d 96db 3fbe ecb9 2f3e
000001d0: 1531 193e 3f65 68be 0d84 a4bd f0f7 edbe
000001e0: 5ce9 553d 5a0a 493d 58d9 fd3d 8098 913d
000001f0: a6ab c6bd 4d9e d9bb f789 3a3d d316 4b3d
00000200: 7c3c 0a3b bd54 df3d 660f efba b9e2 0f3e
00000210: 8497 83be 89c2 e93b 181e 043e 1e20 62be
00000220: 7332 1b3e d3b2 0bbc 8872 6bbe 3ed9 c1bd
00000230: a31f a0be b83d 343e 6576 aabe 48d3 ab3b
00000240: b370 9abe 4961 363e 0ffb 91bd 43d8 2cbe
00000250: b8ad 82be 6f85 3f3e 8982 033e 6a3d 673e
00000260: b1d2 0fbc 105d 193e caff 663d 39b7 40bd
00000270: dc8b 433c bc5f b43d 5a48 ef3d 4adf 9bbe
00000280: 7d55 5c3e 1df8 c23d 5213 823d 964b 66be
00000290: 8896 89bd 83e6 10be c1f5 383e 7331 963b
000002a0: 086e 7cbe 9daa a43e f576 d13d b676 293e
000002b0: 114c a8bd f8d9 2fbe a6aa 6bbe d9a0 a7bd
000002c0: 601a c03d f239 6f3e 51a0 e23d 9b0f 0f3c
000002d0: f9c3 463b 58ca 48bc 5797 62be 0a69 11bf
000002e0: 19f6 99be aa94 35be a35a 883e 0c20 143e
000002f0: b5a1 213e abe9 813e a951 8e3e 9c7e 8b3d
00000300: f825 b3bb adf9 523d 25d2 293d 01fb 00bf
00000310: 947f d6bd 86df 653d 12ed 823e 07b7 33bd
00000320: 7cf2 01be a693 33be 4843 763e 7180 47be
00000330: 74ba e0bd 6db6 79be 553a 43be 0f56 79be
00000340: abe9 95be 55bd 36be 1fd5 c73c 4335 33be
00000350: 0c2e 553e b57d 523e 3466 1cbe 728b 27be
00000360: 7620 64be f3a2 dabc 6496 27bd 7631 c83d
00000370: 8d27 19be af14 86bd 649c ebbd 0d7d 6c3e
00000380: 8c99 8dbd 6faf 08be 0f73 593e 8ce5 7a3e
00000390: 1236 d83d 413f 3b3e c5fd 563e e715 f1bd
000003a0: bde8 be3b 4259 203e 7056 9b3c 7bde 013c
000003b0: 8bcb 38be 4e90 103e 545c 6fbd 28a8 0d3e
000003c0: 3d43 b63b f42e 203d 7bce 2bbd 9693 f03d
000003d0: cdd1 843e 7fe4 60be d45d 3e3e e86b 713c
000003e0: cdd0 05be 3949 8abe 4688 f9bd dff9 ab3d
000003f0: 50e8 f4bc 2747 54be e774 3abe fa7a 1ebe
-0.0010654688 -0.18549253 -0.122236826 -0.6741655 0.20827346 0.1051292 -0.1325869 -0.17614128
-0.062556654 -0.44590804 -0.17713481 -0.18817197 0.19951206 0.13105886 0.12018169 0.048636522
-0.8063014 -0.1548485 -0.1303817 0.15266873 -0.31283247 -0.2650948 0.23523718 -0.114353545
-0.034410987 0.32349873 -0.22109129 0.31705397 -0.19482237 -0.5268178 -0.58385485 0.046118904
0.07013211 0.10387366 0.2513778 0.12272957 -0.15415059 0.15384871 0.00084114063 0.31057447
-0.106202535 -0.19547324 0.017602578 0.052729677 0.1459733 0.033341564 0.27350098 -0.237608
-0.86650026 0.116143405 0.2363212 -0.6084132 0.018776547 -0.11999807 0.17418899 0.1171759
0.036249653 0.2751254 0.2587947 -0.25564405 -0.0011349703 0.07237463 0.029204583 -0.8422201
-0.103288665 0.029272288 -0.124682784 0.014656459 -0.1526403 -0.20186453 0.16473778 0.21058585
-0.012796681 -0.20144744 -0.19161457 -1.1562736 0.17686875 -0.19917567 -0.008734382 0.3400659
-0.013865488 -0.011786589 0.23201388 0.1796714 0.26267475 -0.038870744 -0.17234904 0.053949602
0.15926862 -0.2657895 0.19973117 0.4055045 -0.23519622 -0.13447562 0.18755613 -0.11120191
0.06852794 -0.059134368 0.10994249 0.08740263 -0.32787317 0.2041443 0.15758482 0.14266954
0.17350185 0.09412818 -0.15400021 -0.13915282 0.1388049 -0.24139586 -0.2111022 -0.15203924
0.15145145 0.05910335 -0.18736109 0.17160767 0.1496013 -0.22694872 -0.08032999 -0.46478224
0.052224502 0.049082138 0.12394971 0.07109165 -0.09700708 -0.0066411854 0.04554173 0.049582314
0.002109318 0.109048344 -0.0018238842 0.14051332 -0.25701535 0.007133786 0.12902105 -0.22082564
0.15155964 -0.008526522 -0.22992909 -0.09465264 -0.31274137 0.17601669 -0.33293453 0.0052436925
-0.30164108 0.17810549 -0.07127964 -0.16879372 -0.25523162 0.18703245 0.12842764 0.22582021
-0.00877826 0.14976907 0.056396283 -0.047049735 0.011935201 0.088073224 0.11683722 -0.30443794
0.21516986 0.0951998 0.06351341 -0.22489771 -0.06718165 -0.14150433 0.18062498 0.0045835315
-0.24651349 0.32161418 0.102277674 0.16549191 -0.082176335 -0.17172992 -0.23014316 -0.08184976
0.09380031 0.23361948 0.11065734 0.008731748 0.003032921 -0.012255274 -0.22128044 -0.568009
-0.3007057 -0.17732492 0.2663165 0.1446535 0.15784343 0.25373587 0.27796677 0.06811258
-0.0054671727 0.05150764 0.041460175 -0.50383 -0.10473552 0.05612137 0.25571495 -0.04387572
-0.12690157 -0.17536792 0.24049103 -0.1948259 -0.10973063 -0.24385996 -0.1906522 -0.24349235
-0.29279837 -0.17845662 0.024393616 -0.17500786 0.20818347 0.20555766 -0.15273362 -0.16361788
-0.22278008 -0.026689028 -0.040914908 0.09775059 -0.14956494 -0.06546914 -0.115044385 0.23094578
-0.06914052 -0.13348173 0.21235298 0.24501628 0.10557188 0.18285848 0.20995243 -0.11771756
0.0058260844 0.15659049 0.018962115 0.007926579 -0.18046395 0.14117548 -0.05843766 0.13833678
0.0055622146 0.039107278 -0.041944962 0.117469 0.25941315 -0.21962164 0.1859048 0.0147351995
-0.13067932 -0.2700899 -0.12184195 0.083972685 -0.029895931 -0.20730267 -0.18208657 -0.154766

encoder.conv.convs.6.bias f4 [40]
00000000: 8163 5ebd 189c fabc 9136 56bd 7f7a 84bb
00000010: 5791 963b 04e5 943d d28f e4bc e0ac 123c
00000020: e3f6 32bd 7d12 e7bd 0000 0000 90f1 f0bc
00000030: 6ab8 5fbd 1fd3 283d 2ba9 173c 7b6a 783d
00000040: f11e d43d cb0a de3d 62a9 4e3e d0a8 e23d
00000050: 9819 58bd ece3 083d 209e f237 7165 1ebe
00000060: db5d bb3d abec 043e 11bd a93d 5d0e 883d
00000070: a1de 72bd d400 93bc 1ccd ffbc db5b 12bd
00000080: f551 003e 754c d23d dc48 03bb 1582 bc3c
00000090: 1dc9 413d 42c1 de3d 74d4 b3bc 33e5 c2bd
-0.054294113 -0.03059201 -0.052298132 -0.004042923 0.0045949626 0.07270244 -0.02790061 0.008952349
-0.04369248 -0.11282823 0.0 -0.029412061 -0.05461923 0.041216966 0.009256641 0.060648423
0.10357464 0.10841902 0.20181802 0.11067355 -0.052758783 0.03342049 2.892228e-05 -0.15468384
0.09148761 0.12980907 0.08288015 0.066433646 -0.059294347 -0.01794473 -0.031225733 -0.03573213
0.12531264 0.10268489 -0.0020032441 0.023011247 0.047310937 0.10876705 -0.021951891 -0.095163725
