results/model_GCN/graph_split_/layers_8/transform_False/alpha_-10.0/model.pt (torch, 63736 bytes, 21 tensors)

encoder.conv.convs.0.bias f4 [40]
0.1329328 0.104398325 0.03154019 0.067909025 -0.11017502 0.03194675 -0.03995178 -0.025851898
0.023441946 -0.028503075 0.052972604 0.019173022 0.09573453 -0.0013244458 -0.058273964 0.03408765
0.10080544 0.007504692 0.08462545 0.10556469 0.17375518 0.0001579356 -0.0131018385 -0.028519297
0.07588215 -0.12991045 0.01600968 0.03503589 0.09888232 0.13876003 0.09171205 -0.06946808
-0.002007516 0.05829424 0.008258096 0.16155191 0.06655855 -0.05021896 0.024233634 0.02305403
00000000: 891f 083e cace d53d 4930 013d e313 8b3d
00000010: 71a3 e1bd 98da 023d 7aa4 23bd 5cc7 d3bc
00000020: 5309 c03c 487f e9bc cdf9 583d be10 9d3c
00000030: 7710 c43d 0799 adba aeb0 6ebd 7e9f 0b3d
00000040: 1573 ce3d ebe9 f53b 1c50 ad3d 4d32 d83d
00000050: e1ec 313e 849b 2539 18a9 56bc 4da1 e9bc
00000060: 1a68 9b3d 3f07 05be bc26 833c cb81 0f3d
00000070: d082 ca3d 1c17 0e3e 87d3 bb3d 4845 8ebd
00000080: 8890 03bb f1c5 6e3d f74c 073c dd6d 253e
00000090: d94f 883d 65b2 4dbd 9d85 c63c cedb bc3c

encoder.conv.convs.0.lin.weight f4 [40, 40]
-0.10750259 -0.15927902 -0.1397048 -0.31574738 0.263142 -0.08771988 -0.053114288 0.0628225
-0.080377005 0.15331465 0.12968138 -0.38463637 -0.3691734 0.41650945 -0.43809745 -0.39723668
-0.09990219 -0.23899034 -0.12772937 -0.006059408 -0.085859165 -0.3926392 0.22175135 -0.005111681
0.03827516 0.38824052 -0.3244574 -0.049742457 -0.100445196 -0.11961134 -0.036162294 -0.108118705
0.0029775407 -0.043914743 -0.10490691 -0.052961774 0.33654967 -0.15216917 0.21024142 0.0054022158
0.04450242 0.18331388 -0.002914293 -0.19550689 0.009857186 -0.09602239 0.0026862563 0.05998841
0.16426216 0.16988017 0.057606444 -0.33003095 -0.28617555 0.15749133 -0.17478572 -0.1363354
-0.30355674 -0.057324942 -0.035863426 -0.11174641 -0.22148024 -0.35307267 0.25735527 -0.11681262
0.16739762 -0.040265087 -0.24466994 0.11072596 -0.41935655 -0.19363177 -0.47831604 -0.16320316
0.09124123 0.26880705 -0.19236049 -0.266044 0.40418357 -0.038664035 -0.12553231 -0.08646025
0.21414794 0.25905123 -0.1836155 -0.12181406 -0.1981233 0.2243647 -0.121061325 0.10460053
0.18681258 0.124795735 -0.009896183 -0.27186993 -0.331803 0.23266223 -0.3009019 -0.38464648
-0.23397318 -0.1004636 -0.012837222 -0.10684034 0.10591755 0.049612977 0.44576094 -0.28419602
-0.094225384 -0.117396265 -0.11111513 0.21613576 -0.40132254 -0.42538682 -0.30749854 -0.14467369
0.37877667 -0.101189785 -0.008863605 -0.25318098 0.31222913 -0.19267218 -0.24138643 -0.01808744
0.14171134 0.2511189 -0.32270503 -0.23699586 0.08093206 -0.11060904 0.053208135 0.12056031
0.02509226 0.06669298 -0.03765168 -0.30959088 -0.44515198 0.07239038 -0.4163899 -0.29376942
-0.3259474 -0.15764432 0.10700721 -0.29034954 0.20244627 -0.18724176 0.41618767 -0.1395875
-0.22473964 0.38093582 -0.19670714 0.4498884 -0.6145349 -0.119265445 -0.22890233 -0.17774414
0.102132924 0.4281163 0.32226875 -0.21649133 0.30012733 -0.19996433 -0.15595761 0.25544223
0.01703762 -0.31501418 0.38790953 -0.07295773 -0.18700576 -0.05694411 -0.024802685 -0.020482447
0.1105598 0.11415956 -0.04604777 0.030096477 -0.27017975 0.13261786 -0.09428907 -0.38116416
0.06504295 -0.034712546 -0.07068907 0.45184875 -0.15931585 0.24771729 -0.056952886 0.23728593
0.039319355 -0.08112312 0.14377409 0.29832065 -0.03924855 0.04301213 -0.10874578 -0.11474185
-0.22928384 -0.19065715 -0.03834657 -0.2636113 -0.14634095 0.18934451 -0.23976302 -0.08816036
0.22112593 -0.29732645 -0.080272 0.087890714 0.36932257 -0.016049659 0.0838937 0.00050661364
-0.24062632 0.15172245 -0.07242244 -0.052738238 -0.08007521 0.18134472 -0.06486638 -0.014289851
0.15580676 0.1885686 0.118282884 0.19903453 0.27493787 0.02177131 -0.15112743 -0.19296871
0.16042158 -0.02459415 0.09365758 0.053656448 0.0042641833 0.21375674 0.087543786 -0.12640788
0.044002693 -0.3604568 -0.17834 0.27041736 -0.20543768 -0.08065059 0.2591775 -0.06697319
-0.34969327 0.026184825 0.09256151 0.26801178 0.079319425 -0.07103443 -0.25242427 0.19905412
0.1017535 -0.1689461 -0.1733686 0.03588132 -0.19413324 0.046141542 0.29742178 -0.3385112
00000000: 512a dcbd 0a1a 23be c60e 0fbe a4a9 a1be
00000010: 8cba 863e 7ba6 b3bd 5e8e 59bd 15a9 803d
00000020: b39c a4bd 84fe 1c3e 32cb 043e 0fef c4be
00000030: 4c04 bdbe ba40 d53e 4f4e e0be 9b62 cbbe
00000040: 8599 ccbd e2b9 74be 7dcb 02be 008e c6bb
00000050: eed6 afbd 0108 c9be c912 633e e37f a7bb
00000060: 6ac6 1c3d 76c7 c63e 481f a6be bfbe 4bbd
00000070: 36b6 cdbd caf6 f4bd ea1e 14bd 576d ddbd
00000080: d822 433b f2df 33bd 6fd9 d6bd 72ee 58bd
00000090: 3d50 ac3e 3cd2 1bbe 8749 573e 1205 b13b
000000a0: 2b48 363d a2b6 3b3e b9fd 3ebb f532 48be
000000b0: 0980 213c 63a7 c4bd e70b 303b 68b6 753d
000000c0: 5734 283e 11f5 2d3e bcf4 6b3d d1f9 a8be
000000d0: 9a85 92be 6845 213e 07fb 32be 829b 0bbe
000000e0: ca6b 9bbe 8fcd 6abd 87e5 12bd 4ddb e4bd
000000f0: b7cb 62be f1c5 b4be 12c4 833e 743b efbd
00000100: 486a 2b3e 01ed 24bd c28a 7abe 4bc4 e23d
00000110: e7b5 d6be 6847 46be d7e5 f4be bb1e 27be
00000120: afdc ba3d 14a1 893e 26fa 44be eb36 88be
00000130: 26f1 ce3e 2e5e 1ebd 8b8b 00be 1212 b1bd
00000140: 9949 5b3e 5da2 843e b405 3cbe a679 f9bd
00000150: d6e0 4abe dcbf 653e 00ef f7bd cd38 d63d
00000160: cc4b 3f3e e894 ff3d 9a23 22bc 8932 8bbe
00000170: 15e2 a9be 023f 6e3e d00f 9abe 62f0 c4be
00000180: aa96 6fbe dcbf cdbd 3653 52bc 1ccf dabd
00000190: 4deb d83d fa36 4b3d c73a e43e 2482 91be
000001a0: 3df9 c0bd 746d f0bd 5490 e3bd b152 5d3e
000001b0: 267a cdbe 4dcc d9be 7370 9dbe 5725 14be
000001c0: 04ef c13e 973c cfbd a738 11bc f0a0 81be
000001d0: 7fdc 9f3e db4b 45be 012e 77be 1c2c 94bc
000001e0: c71c 113e a892 803e 9839 a5be 0baf 72be
000001f0: b5bf a53d fe86 e2bd c6f0 593d 53e8 f63d
00000200: 498e cd3c 5496 883d a638 1abd b282 9ebe
00000210: f6ea e3be 6841 943d 0f31 d5be f268 96be
00000220: 94e2 a6be 836d 21be 9926 db3d b2a8 94be
00000230: 134e 4f3e 4ebc 3fbe 8d16 d53e 07f0 0ebe
00000240: 2622 66be 050a c33e 996d 49be c657 e63e
00000250: 2952 1dbf 7141 f4bd 5f65 6abe 8f02 36be
00000260: 112b d13d 0f32 db3e 6900 a53e e7af 5dbe
00000270: 4aaa 993e 73c3 4cbe 5ab3 1fbe 53c9 823e
00000280: 7b92 8b3c 8a49 a1be 149c c63e dd6a 95bd
00000290: 707e 3fbe 3a3e 69bd 002f cbbc ceca a7bc
000002a0: 2d6d e23d 7dcc e93d 969c 3cbd e38c f63c
000002b0: 0055 8abe facc 073e a11a c1bd f327 c3be
000002c0: 3d35 853d be2e 0ebd 6ec5 90bd b858 e73e
000002d0: b223 23be 9aa9 7d3e 6e47 69bd 15fb 723e
000002e0: 550d 213d e123 a6bd 8439 133e 7cbd 983e
000002f0: 16c3 20bd 7d2d 303d 1cb6 debd c6fd eabd
00000300: 62c9 6abe a13b 43be 4b11 1dbd 0ff8 86be
00000310: 67da 15be 87e3 413e 7084 75be 6b8d b4bd
00000320: d66e 623e 2c3b 98be a565 a4bd 0c00 b43d
00000330: d917 bd3e 937a 83bc 76d0 ab3d 44ce 043a
00000340: bf66 76be 215d 1b3e 3752 94bd 0d04 58bd
00000350: 79fe a3bd 6eb2 393e aad8 84bd fb1f 6abc
00000360: cf8b 1f3e 2118 413e 4c3e f23d b5cf 4b3e
00000370: a8c4 8c3e bf59 b23c 26c1 1abe 9799 45be
00000380: 8e45 243e ac79 c9bc 8ccf bf3d ddc6 5b3d
00000390: 90ba 8b3b 0ce3 5a3e 284a b33d 1171 01be
000003a0: 2b3c 343d cb8d b8be c39e 36be 2574 8a3e
000003b0: 415e 52be 232c a5bd eab2 843e 3d29 89bd
000003c0: ff0a b3be 8f81 d63c e490 bd3d d738 893e
000003d0: 3972 a23d 807a 91bd c13d 81be d8d4 4b3e
000003e0: 2464 d03d 3500 2dbe 8a87 31be 4af8 123d
000003f0: ddca 46be eafe 3c3d ab47 983e 5751 adbe

encoder.conv.convs.1.bias f4 [40]
0.110130124 0.12756826 0.19353825 -0.023856161 -0.08266338 0.013608814 -0.0836642 -0.06555252
-0.052756514 -0.02301026 0.043640513 0.043402366 -0.039508462 -0.06623806 -0.04142206 -0.07110768
0.13118191 -0.029332142 -0.07136454 -0.02148663 -0.046656266 0.1739982 0.14694835 0.018695485
-0.0038428996 0.1265824 0.12635966 0.16419198 -0.08152705 -0.05356956 0.17538697 0.007116377
-0.037071995 0.052721694 -0.055219002 0.0087157795 0.010099423 -0.040147457 -0.043359496 -0.07015357
00000000: e78b e13d 41a1 023e e42e 463e ff6d c3bc
00000010: 6b4b a9bd 81f7 5e3c 2358 abbd 6640 86bd
00000020: 3717 58bd 0380 bcbc 65c0 323d aec6 313d
00000030: a0d3 21bd d2a7 87bd 2eaa 29bd e7a0 91bd
00000040: 8d54 063e f649 f0bc 9227 92bd bb04 b0bc
00000050: a41a 3fbd 962c 323e a179 163e 4627 993c
00000060: 28d9 7bbb d19e 013e 6d64 013e f121 283e
00000070: a7f7 a6bd c16b 5bbd a498 333e 7f30 e93b
00000080: ced8 17bd b4f2 573d 522d 62bd a1cc 0e3c
00000090: 0d78 253c a971 24bd ba99 31bd adac 8fbd

encoder.conv.convs.1.lin.weight f4 [40, 40]
0.35932875 0.1471989 0.45224193 0.16619359 -0.3732473 -0.0016532091 0.14530541 0.0067424346
-0.28070486 -0.6647984 -0.10825548 -0.47900447 0.13234347 -0.029416922 -0.80169326 0.2863869
-0.29236066 -0.7619583 -0.27583277 0.33109823 0.51590294 -0.2544087 -0.08252282 -0.26410404
-0.058010995 0.111368366 0.13894571 -0.615902 0.5071127 0.20347127 0.4569663 -0.3953922
-0.43157727 0.09671039 -0.49970695 0.44592297 -0.2056992 -0.4147927 0.2886473 -0.82264394
0.038962502 0.2861406 0.015294836 0.36377206 0.37034956 0.10401794 0.2414482 -0.2746354
-0.09668986 -0.16947913 0.20115738 -0.18827474 0.28545436 0.09955263 -0.025297377 0.23450528
0.2798212 -0.2718443 0.21172442 -0.014690946 0.21470813 0.14355238 0.0512734 -0.20673223
-0.024082966 -0.08050456 -0.21121779 -0.17412135 0.30462733 0.35524046 0.32427627 0.0979872
0.19699906 0.116467625 -0.2517154 0.059930526 0.3081817 -0.1676245 0.14149365 -0.24145728
0.15167195 0.3978852 0.35446757 0.045259316 0.24408688 0.028212652 0.47298843 -0.1613979
-0.18381414 -0.19511569 0.09540806 0.2297699 -0.017275207 -0.15377381 0.10921379 0.31071386
0.445334 -0.249011 -0.09046629 0.037622977 0.49129385 -0.28553084 0.32709643 0.14872804
0.14245401 -0.19761297 -0.35555026 0.15240645 0.40383452 -0.04549176 0.1714272 0.35022655
0.16194259 0.053513445 -0.16713439 0.0629476 0.11658357 0.20011048 0.331571 -0.22030874
-0.3045783 -0.029226923 0.05399311 -0.102872744 0.03418367 0.03187912 0.12470295 0.047363628
0.29546452 0.2709718 0.29692388 0.11311146 -0.24440843 -0.15260556 0.21189824 -0.051692642
0.009623518 0.16183133 -0.09174199 0.18311055 0.09598873 0.07492726 0.014487456 0.14959778
-0.18961357 0.05203376 0.11142187 -0.0638527 -0.103795454 -0.22316535 0.073009364 -0.01513763
-0.12690619 -0.08841848 0.015465461 -0.082492016 -0.17492534 0.29443902 -0.16916862 0.19144894
-0.1039062 0.101886205 -0.13423486 0.27962527 -0.17157076 -0.23570393 -0.37624872 0.13684975
-0.15239108 -0.08652097 -0.14603491 -0.13509677 0.12767746 -0.07379519 -0.14093609 0.27425313
-0.09805606 -0.027739765 0.00826032 0.011346061 0.14116828 -0.14294808 -0.043094937 -0.042085048
-0.30633426 0.078344226 0.05794219 -0.079468474 -0.037165057 0.11313429 0.16973379 -0.35140723
-0.09495243 -0.2645312 -0.20348471 -0.25342447 -0.18106551 -0.44776356 0.07230603 -0.08041467
0.18074977 -0.30833012 -0.12413924 -0.2668914 -0.24718712 -0.020955028 -0.14082319 -0.062262777
0.49187708 0.38880703 0.3411911 0.2348374 -0.17089121 0.11817441 0.0851072 -0.13333769
0.079845555 0.32065398 -0.03776545 -0.114970535 -0.23897879 0.13008791 -0.12505347 0.05086511
-0.23704644 -0.057433248 0.37519464 0.07145479 -0.32479364 0.22410592 -0.26337966 -0.012284616
-0.035061944 0.10989853 0.45020851 0.16274546 0.12419408 0.22017147 0.047629442 0.20565063
-0.27536792 -0.24202226 -0.051852256 0.091898546 0.06239741 -0.26101306 0.06557272 0.09409931
0.0032296344 -0.15839645 0.12183533 0.3843223 0.090942815 0.03050473 0.2654058 -0.35830823
00000000: f0f9 b73e 4fbb 163e 418c e73e a72e 2a3e
00000010: 451a bfbe 7eb0 d8ba f1ca 143e a4ef dc3b
00000020: 8cb8 8fbe 3a30 2abf 0db5 ddbd 1340 f5be
00000030: 0c85 073e c2fb f0bc c53b 4dbf 4ea1 923e
00000040: 4cb0 95be b30f 43bf f439 8dbe b585 a93e
00000050: 3712 043f db41 82be b901 a9bd a538 87be
00000060: f09c 6dbd 1915 e43d c947 0e3e c1ab 1dbf
00000070: 23d2 013f c65a 503e 7df7 e93e d970 cabe
00000080: b2f7 dcbe 1910 c63d 97d9 ffbe 0450 e43e
00000090: d0a2 52be b55f d4be 94c9 933e cb98 52bf
000000a0: 2597 1f3d 0581 923e 3197 7a3c 5540 ba3e
000000b0: 759e bd3e 5c07 d53d 323e 773e 039d 8cbe
000000c0: 5505 c6bd f08b 2dbe 33fc 4d3e 18cb 40be
000000d0: 1327 923e 40e2 cb3d 723c cfbc 2722 703e
000000e0: b944 8f3e 2d2f 8bbe 49ce 583e 4bb2 70bc
000000f0: 73dc 5b3e 65ff 123e 0f04 523d 9db1 53be
00000100: a449 c5bc 93df a4bd 7a49 58be de4c 32be
00000110: 1df8 9b3e 14e2 b53e 8a07 a63e 83ad c83d
00000120: 1fba 493e 9486 ee3d d7e0 80be b679 753d
00000130: fec9 9d3e c2a5 2bbe b6e3 103e 9440 77be
00000140: e44f 1b3e 9cb7 cb3e c67c b53e d561 393d
00000150: e9f1 793e 381e e73c 8a2b f23e 7e45 25be
00000160: c639 3cbe 68cc 47be 4d65 c33d cd48 6b3e
00000170: bc84 8dbc e276 1dbe 7bab df3d e315 9f3e
00000180: d102 e43e bdfc 7ebe 6446 b9bd 8d1a 1a3d
00000190: de8a fb3e 1931 92be 2f79 a73e 2a4c 183e
000001a0: 77df 113e 0e5b 4abe af0a b6be 7010 1c3e
000001b0: 66c3 ce3e 9155 3abd 9d8a 2f3e e550 b33e
000001c0: 47d4 253e ea30 5b3d 4725 2bbe acea 803d
000001d0: 5ec3 ee3d c3e9 4c3e adc3 a93e 9d98 61be
000001e0: b0f1 9bbe 4d6d efbc e127 5d3d f2ae d2bd
000001f0: 2d04 0c3d ae93 023d 4364 ff3d 5d00 423d
00000200: 2047 973e d1bc 8a3e 6806 983e fba6 e73d
00000210: 3446 7abe a244 1cbe dafb 583e aabb 53bd
00000220: f6ab 1d3c 1db7 253e 39e3 bbbd 5581 3b3e
00000230: bd95 c43d 7773 993d cb5c 6d3c 2930 193e
00000240: 0f2a 42be 5a21 553d 2631 e43d 34c5 82bd
00000250: b692 d4bd 7585 64be ef85 953d d203 78bc
00000260: b2f3 01be bf14 b5bd d862 7d3c 93f1 a8bd
00000270: a11f 33be b6c0 963e 8a3a 2dbe 310b 443e
00000280: c6cc d4bd b7a9 d03d dd74 09be 0b2b 8f3e
00000290: 3fb0 2fbe 5f5c 71be aca3 c0be 5722 0c3e
000002a0: 680c 1cbe e831 b1bd 2d8a 15be cf56 0abe
000002b0: e1bd 023e ef21 97bd 8d51 10be e86a 8c3e
000002c0: 9ed1 c8bd 813e e3bc 4b56 073c d4e4 393c
000002d0: 6b8e 103e fb60 12be 5184 30bd 5f61 2cbd
000002e0: d8d7 9cbe f072 a03d ca54 6d3d 5ec0 a2bd
000002f0: 633a 18bd f3b2 e73d b2ce 2d3e a6eb b3be
00000300: 6b76 c2bd a270 87be 4c5e 50be dac0 81be
00000310: 3d69 39be 4441 e5be 2f15 943d 72b0 a4bd
00000320: 7816 393e 72dd 9dbe b73c febd fda5 88be
00000330: 9f1e 7dbe e1a9 abbc f433 10be 4107 7fbd
00000340: 50d7 fb3e b711 c73e 9ab0 ae3e 3779 703e
00000350: 1bfe 2ebe 6d05 f23d af4c ae3d ad89 08be
00000360: 1186 a33d c22c a43e f2af 1abd ac75 ebbd
00000370: dbb6 74be c435 053e 040e 00be ef57 503d
00000380: 4dbc 72be 203f 6bbd 8319 c03e e456 923d
00000390: 5a4b a6be 067c 653e b3d9 86be 6a45 49bc
000003a0: 1d9d 0fbd 7b12 e13d bb81 e63e bfa6 263e
000003b0: 7759 fe3d a174 613e 1717 433d 1496 523e
000003c0: 06fd 8cbe afd4 77be 0863 54bd 4e35 bc3d
000003d0: 6d94 7f3d 81a3 85be fd4a 863d 24b7 c03d
000003e0: 46a8 533b ae32 22be cd84 f93d e4c5 c43e
000003f0: 3a40 ba3d 0ee5 f93c 45e3 873e 2d74 b7be

encoder.conv.convs.2.bias f4 [40]
0.14926355 0.1947746 -0.04558171 -0.010237644 -0.10889374 0.2818004 -0.039354518 -0.0057143793
-0.06084285 -0.0318034 -0.04470931 0.18936934 -0.00094078574 -0.046942618 0.00451798 -0.008092059
-0.05886011 -0.025943477 0.0 -0.06128637 0.18531607 0.009559381 0.1559369 -0.03999532
0.12643516 0.09679382 -0.008277347 0.061979897 0.012830872 0.054879915 0.042531587 -0.019763509
-0.08817248 -0.021972049 0.13472052 -0.027974842 -0.01779557 0.023795575 -0.006241644 -0.03695082
00000000: 8bd8 183e fe72 473e e3b3 3abd cbbb 27bc
00000010: ae03 dfbd 2448 903e 3432 21bd b03f bbbb
00000020: 5a36 79bd 4844 02bd 1c21 37bd 09ea 413e
00000030: 109f 76ba e746 40bd 900b 943b 8e94 04bc
00000040: 4c17 71bd 6a87 d4bc 0000 0000 6b07 7bbd
00000050: 7fc3 3d3e f39e 1c3c ecad 1f3e 22d2 23bd
00000060: 3878 013e d73b c63d b69d 07bc a2de 7d3d
00000070: 9438 523c c3c9 603d 9a35 2e3d 15e7 a1bc
00000080: c693 b4bd bafe b3bc 2df4 093e 7f2b e5bc
00000090: 04c8 91bc f0ee c23c b486 ccbb be59 17bd

encoder.conv.convs.2.lin.weight f4 [40, 40]
0.2429819 0.06501459 0.4651905 -0.07686369 0.42206514 -0.14226943 0.2204605 0.24742374
-0.24658358 -0.13969637 -0.15165688 0.12066738 0.19868146 0.1364482 0.23256646 0.06743246
0.10260417 -0.088735566 0.0638323 0.060829643 0.21039993 -0.09702844 0.23139611 0.024025494
0.16474257 0.3849528 0.38703933 0.1212104 0.080159046 -0.06595471 0.27779198 0.16686767
-0.06200381 0.09306637 -0.13967979 -0.073121816 0.17363364 -0.1146207 0.15457466 0.059338827
0.45389774 0.22548088 0.45055172 -0.021933904 -0.09945522 0.01547051 -0.10108723 0.16239244
0.21873559 -0.39453653 -0.2926986 0.34325525 0.29456246 -0.08152409 0.11872767 0.16074757
0.013578469 -0.07845289 0.22223176 0.19731511 0.1201013 0.4717878 0.2151319 -0.047078405
0.017441694 0.1927316 0.3533297 0.40681276 0.15895294 -0.052548897 0.023911819 0.17824334
0.025706677 0.28620648 -0.11701143 -0.088024445 -0.1584178 -0.2513862 -0.1379691 -0.24613386
-0.0010345535 -0.16754207 -0.07893374 -0.07038824 -0.18158925 -0.07684682 0.2206113 0.19024603
0.016572034 -0.17897747 -0.018829752 0.1689336 0.04899955 -0.006838158 -0.15969197 -0.25802508
-0.24175522 -0.18605064 0.18394402 -0.31658852 -0.008103624 -0.29418936 -0.16379817 0.019689621
0.0533223 0.197161 -0.17078786 -0.28148916 0.08745688 -0.16061062 -0.23190172 0.050079256
0.21661481 -0.0320922 -0.069247365 -0.09579138 -0.16712378 -0.074474 0.027954197 -0.032723345
-0.24663432 -0.17358297 -0.037119195 -0.013937212 -0.0942209 0.10868333 0.117528744 0.045937147
-0.04810018 0.10468355 -0.052788556 0.051787563 -0.09730872 -0.1898642 0.08480851 -0.011156366
-0.24475399 -0.21758576 0.025796529 -0.16994327 -0.1535937 -0.0044922573 0.1027959 -0.052462235
-0.18019022 -0.2334345 -0.08697211 0.15876558 -0.15602879 0.15380037 -0.10399343 -0.0022287138
0.12508619 -0.051853243 0.095889345 -0.18706833 0.1545712 0.1681709 0.2555654 -0.030242756
0.12525761 0.06078901 0.17479661 0.11431715 -0.14885455 0.17450006 -0.20318907 -0.057815526
-0.043326437 -0.10618555 0.12385813 -0.052421156 -0.16187648 -0.21473786 -0.2245336 -0.027933516
-0.13380711 -0.0066361497 0.16315068 0.18388067 0.17960839 -0.33543923 -0.08557821 -0.28295353
-0.153761 0.17141305 -0.16347003 -0.08084439 -0.28867197 -0.15799464 0.09206241 -0.34903678
0.011641135 -0.28961197 -0.15710682 -0.029775525 -0.25652578 -0.25448743 -0.295498 0.043915182
0.1468368 0.111984685 0.4145109 0.06396926 -0.20786963 -0.055282116 -0.038898837 -0.12091987
0.10373734 -0.40678498 -0.08988083 0.3876429 0.16013306 -0.19244261 -0.2337915 0.18181288
0.4067606 -0.19606437 -0.13699764 0.29413086 -0.22211637 0.33704153 0.14998852 -0.052159503
0.009080724 0.032916304 0.2987257 0.19750874 -0.029699106 0.13137451 0.21339606 0.34250644
0.11447882 0.25197276 -0.23792888 -0.01769454 0.23776118 0.14641565 0.038795713 -0.32322404
-0.24018961 -0.075824544 0.0901097 0.0045763827 0.105278194 0.15636264 -0.09784037 0.2063216
0.0099746445 0.0014051518 -0.31104633 0.0077162627 -0.25430617 -0.00027932564 -0.058149055 -0.1937671
00000000: 3fd0 783e 5f26 853d 732d ee3e b66a 9dbd
00000010: ec18 d83e 14af 11be 66c0 613e a65c 7d3e
00000020: 6880 7cbe 910c 0fbe f14b 1bbe 7620 f73d
00000030: 2773 4b3e 14b9 0b3e e725 6e3e 081a 8a3d
00000040: 2322 d23d feba b5bd 82ba 823d 8128 793d
00000050: 1473 573e d9b6 c6bd 1af3 6c3e 1dd1 c43c
00000060: 47b2 283e 8918 c53e 052a c63e 283d f83d
00000070: 6d2a a43d 4313 87bd c03a 8e3e 5cdf 2a3e
00000080: b5f7 7dbd 9599 be3d 3808 0fbe e4c0 95bd
00000090: 04cd 313e 42be eabd d248 1e3e 450d 733d
000000a0: 4965 e83e 76e4 663e b7ae e63e bbae b3bc
000000b0: 2eaf cbbd 0678 7d3c d206 cfbd 344a 263e
000000c0: 39fc 5f3e b100 cabe 97dc 95be 27bf af3e
000000d0: e4d0 963e 1af6 a6bd 7e27 f33d 039b 243e
000000e0: 3a78 5e3c e9ab a0bd b990 633e f90c 4a3e
000000f0: acf7 f53d 2c8e f13e 894b 5c3e 49d5 40bd
00000100: e2e1 8e3c 6f5b 453e a1e7 b43e c349 d03e
00000110: 8fc4 223e 833d 57bd b8e2 c33c 6c85 363e
00000120: cf96 d23c a889 923e b0a3 efbd 2946 b4bd
00000130: 4738 22be b1b5 80be c647 0dbe 840a 7cbe
00000140: db99 87ba 2690 2bbe 03a8 a1bd b627 90bd
00000150: 88f2 39be de61 9dbd eee7 613e dbcf 423e
00000160: 13c2 873c df45 37be da40 9abc eefc 2c3e
00000170: c1b3 483d a012 e0bb 4b86 23be dd1b 84be
00000180: ae8e 77be 0f84 3ebe d25b 3c3e e417 a2be
00000190: 10c5 04bc fd9f 96be b5ba 27be 214c a13c
000001a0: 7c68 5a3d 93e4 493e 03e3 2ebe 591f 90be
000001b0: 981c b33d 1c77 24be a577 6dbe e81f 4d3d
000001c0: 46d0 5d3e 1c73 03bd 90d1 8dbd 452e c4bd
000001d0: 7f22 2bbe d385 98bd 3300 e53c ea08 06bd
000001e0: b58d 7cbe bcbf 31be 4c0a 18bd e758 64bc
000001f0: e3f6 c0bd 5e95 de3d e9b2 f03d 9728 3c3d
00000200: b204 45bd 5464 d63d d038 58bd 321f 543d
00000210: cb49 c7bd c36b 42be 16b0 ad3d 31c9 36bc
00000220: caa0 7abe cdce 5ebe 3e53 d33c 9c05 2ebe
00000230: ab47 1dbe c933 93bb a886 d23d a4e2 56bd
00000240: c983 38be 7409 6fbe 6f1e b2bd 7293 223e
00000250: 03c6 1fbe d87d 1d3e 82fa d4bd 9d0f 12bb
00000260: 9816 003e 1164 54bd a261 c43d d78e 3fbe
00000270: ea47 1e3e fe34 2c3e 78d9 823e a8bf f7bc
00000280: 8843 003e e6fd 783d e2fd 323e 1c1f ea3d
00000290: 546d 18be 25b0 323e cc10 50be f9cf 6cbd
000002a0: 1077 31bd cf77 d9bd 55a9 fd3d 91b7 56bd
000002b0: f3c2 25be 3ee4 5bbe 23ec 65be d4d4 e4bc
000002c0: bb04 09be 0f74 d9bb f910 273e 374b 3c3e
000002d0: 43eb 373e b1be abbe a143 afbd 49df 90be
000002e0: 8673 1dbe e786 2f3e b064 27be be91 a5bd
000002f0: d0cc 93be 59c9 21be 388b bc3d f3b4 b2be
00000300: 76ba 3e3c 0548 94be 9ce0 20be cdeb f3bc
00000310: 5957 83be 2d4c 82be 844b 97be 68e0 333d
00000320: 635c 163e 3a58 e53d c63a d43e 5102 833d
00000330: c7db 54be 806f 62bd 6354 1fbd d6a4 f7bd
00000340: 3e74 d43d 1f46 d0be 7113 b8bd 2179 c63e
00000350: ecf9 233e ad0f 45be 0a67 6fbe 282d 3a3e
00000360: ed42 d03e 19c5 48be 1c49 0cbe 5298 963e
00000370: 7972 63be b590 ac3e 9796 193e 34a5 55bd
00000380: 51c7 143c 3fd3 063d 93f2 983e bb3f 4a3e
00000390: 8a4b f3bc 0a87 063e 7f84 5a3e 015d af3e
000003a0: df73 ea3d 9302 813e a1a3 73be 24f4 90bc
000003b0: ab77 733e fced 153e 41e8 1e3d 9f7d a5be
000003c0: 44f4 75be e649 9bbd 6f8b b83d 7bf5 953b
000003d0: 189c d73d 871d 203e 8860 c8bd f845 533e
000003e0: b16c 233c 122d b83a 7741 9fbe b4d8 fc3b
000003f0: 6b34 82be 7472 92b9 b42d 6ebd e26a 46be

encoder.conv.convs.3.bias f4 [40]
-0.058337234 0.067949794 -0.14456297 -0.004627158 -0.021470504 0.109962575 0.042764504 -0.042672273
0.0 0.11198718 0.13318029 -0.022665717 -0.030975312 0.10370831 -0.011112568 -0.018942881
0.12344616 0.010575778 -0.035404727 -0.02304254 -0.0078159515 -0.0048994687 -0.017801957 0.11985288
0.004730661 -0.10301834 0.04056098 0.46819216 0.09408075 -0.0062467507 -0.0120714335 -0.0885397
0.14524168 0.100916184 -0.040177796 0.025437638 -0.08454081 -0.0005352434 0.1228736 0.15479416
00000000: 06f3 6ebd 4329 8b3d 5108 14be 6a9f 97bb
00000010: e9e2 afbc 0f34 e13d d529 2f3d 1fc9 2ebd
00000020: 0000 0000 8959 e53d 6a60 083e 74ad b9bc
00000030: f0bf fdbc 0665 d43d 7d11 36bc 1a2e 9bbc
00000040: 57d1 fc3d 0746 2d3c 8c04 11bd b5c3 bcbc
00000050: 7a0e 00bc b98b a0bb 69d5 91bc 6d75 f53d
00000060: a903 9b3b 48fb d2bd 4523 263d e2b6 ef3e
00000070: 69ad c03d 8bb1 ccbb 43c7 45bc 4d54 b5bd
00000080: 3cba 143e 25ad ce3d 7991 24bd 9862 d03c
00000090: bb23 adbd 944f 0cba 27a5 fb3d 5c82 1e3e

encoder.conv.convs.3.lin.weight f4 [40, 40]
-0.09224956 -0.3229 -0.0014628874 0.23774502 0.23568542 -0.19411542 -0.20008768 -0.1167968
-0.0885823 -0.21418871 -0.07353672 -0.04896071 0.017613925 0.21589522 0.059947394 -0.2575996
-0.046062984 0.042868543 -0.07988563 0.035947435 -0.29928902 0.26726043 -0.46239623 -0.20290267
-0.4108852 -0.15456757 0.24822743 -0.23597255 -0.0032922023 0.00076899363 0.3328444 0.118705526
-0.34699222 0.36771712 -0.15083052 -0.14517781 -0.21741238 0.10154987 0.14528371 0.22188736
-0.0046686013 -0.134307 -0.041991275 -0.021268502 -0.14359602 -0.12442111 -0.051864184 -0.17590213
-0.13529347 -0.067399725 -0.07765583 -0.22975554 0.23166129 -0.22894986 0.24354322 0.23308907
-0.0067260265 -0.06356613 -0.1447745 -0.17208236 -0.14150196 0.3047141 0.016500207 0.20246881
-0.14932987 -0.18551458 -0.15096259 -0.1309877 -0.04985233 -0.04405766 -0.25988013 -0.104336895
-0.1423343 0.32095155 -0.26410398 0.01713159 0.050210282 0.057572424 0.17818189 0.30954897
-0.085932285 -0.17680804 -0.12825112 0.23160107 0.21845804 -0.21307606 -0.04014011 0.10540823
0.41689163 -0.063277006 0.110155545 -0.007382601 0.20986384 0.20580177 0.17347096 0.22115311
-0.100418776 0.091478154 0.12495302 0.22731283 -0.15312754 0.050243985 -0.09545323 -0.16522518
0.14580834 -0.20176728 -0.07586401 -0.34985766 0.015171935 -0.08670417 0.28697398 0.059918832
0.25710776 -0.027437974 0.08951389 -0.1284 -0.1927105 0.19693239 0.07113246 0.13168679
-0.027651345 -0.24838623 -0.17487338 -0.114074074 -0.26206383 -0.23849255 0.1362415 0.054078568
-0.05942137 -0.022154795 0.09139288 0.076547146 -0.12061836 -0.07589309 -0.16192465 -0.16116099
-0.040505257 0.0929724 0.006906759 0.06486288 -0.17864135 -0.24868228 -0.23297839 -0.14224061
0.13195577 0.170783 0.21325147 0.25296643 0.1217998 0.20110165 -0.018100647 0.030210076
0.1525069 -0.03817509 0.1603326 0.2701546 -0.042209804 -0.040744707 -0.10886761 -0.18339097
0.14339212 -0.17168806 0.008993352 0.26741743 -0.04018704 0.0076281377 -0.13985136 0.041098043
0.16850908 0.10132599 -0.163349 -0.2703182 0.19573297 0.16673608 0.015825223 -0.2688265
0.15778266 -0.23958932 0.12900667 0.08968928 -0.21277478 0.010275666 -0.22357938 0.13146862
0.211375 -0.07507383 -0.18518135 0.16058189 0.009589625 0.2167396 -0.11647033 0.022569252
-0.12147599 0.06472046 -0.110436104 -0.022355422 -0.15136781 -0.04920006 -0.1163498 -0.31148726
0.26813072 0.4754716 -0.077435896 -0.058748115 -0.14327668 0.1988968 -0.1320025 -0.17986906
-0.19706492 0.006101699 0.18008937 -0.01548794 -0.013993354 -0.23902829 0.20445311 0.020823902
0.13001741 -0.021028342 0.2540341 -0.30184793 0.23700383 -0.18277909 0.3949078 0.22497737
0.37381053 0.13646744 0.068215385 0.17812544 0.25926033 -0.10932262 -0.91527176 -0.016801475
-0.30230916 0.0053031794 0.29134417 0.21112932 -0.07268281 -0.24454696 -0.02030076 0.20681258
-0.048727266 -0.023329502 -0.13826148 -0.16724063 -0.05611464 0.05354169 0.11888808 -0.014489311
0.17014298 0.11460464 0.21399133 -0.12795848 -0.1461839 0.06664692 -0.015109531 0.028089903
00000000: 56ed bcbd 2653 a5be 5bbe bfba 6e73 733e
00000010: 8557 713e 31c6 46be c9e3 4cbe 2933 efbd
00000020: a36a b5bd 4954 5bbe 6b9a 96bd 078b 48bd
00000030: 144b 903c a313 5d3e 668b 753d 18e4 83be
00000040: 8aac 3cbd ed96 2f3d 149b a3bd 9e3d 133d
00000050: 693c 99be 5cd6 883e 33bf ecbe b8c5 4fbe
00000060: 8c5f d2be f646 1ebe 552f 7e3e caa2 71be
00000070: fdc1 57bb 4a96 493a 956a aa3e e21b f33d
00000080: f7a8 b1be 6b45 bc3e 5173 1abe 7ea9 14be
00000090: 5aa1 5ebe 61f9 cf3d 41c5 143e 7136 633e
000000a0: 11fb 98bb c687 09be 0bff 2bbd 483b aebc
000000b0: d60a 13be 7fd0 febd 8a6f 54bd b01f 34be
000000c0: 5f8a 0abe de08 8abd 050a 9fbd 0945 6bbe
000000d0: 9e38 6d3e d571 6abe 6563 793e e7ae 6e3e
000000e0: 0066 dcbb f62e 82bd c43f 14be 5c36 30be
000000f0: e4e5 10be 7d03 9c3e 712b 873c fc53 4f3e
00000100: eee9 18be 89f7 3dbe f095 1abe a421 06be
00000110: f531 4cbd ce75 34bd 020f 85be 95ae d5bd
00000120: 15c0 11be c353 a43e a338 87be 8c57 8c3c
00000130: 4ca9 4d3d 10d1 6b3d 5075 363e 347d 9e3e
00000140: 44fd afbd 2b0d 35be 4354 03be d528 6d3e
00000150: 77b3 5f3e 9c30 5abe f569 24bd 45e0 d73d
00000160: d272 d53e 6097 81bd 3b99 e13d bfe9 f1bb
00000170: 8ce6 563e b3bd 523e 5fa2 313e f675 623e
00000180: 5ca8 cdbd e658 bb3d 5ee7 ff3d b2c4 683e
00000190: 77cd 1cbe a3cc 4d3d fc7c c3bd ca30 29be
000001a0: c84e 153e 159c 4ebe 975e 9bbd 8b20 b3be
000001b0: b593 783c f591 b1bd 41ee 923e 736d 753d
000001c0: a1a3 833e 9ac5 e0bc 0f53 b73d 4a7b 03be
000001d0: e755 45be a5a8 493e e5ad 913d e7d8 063e
000001e0: 1385 e2bc f658 7ebe 0212 33be ab9f e9bd
000001f0: 3b2d 86be 6437 74be e482 0b3e 7d81 5d3d
00000200: d363 73bd f97d b5bc 312c bb3d c0c4 9c3d
00000210: c206 f7bd d66d 9bbd 93cf 25be 6307 25be
00000220: d7e8 25bd 5068 be3d 1852 e23b d4d6 843d
00000230: c2ed 36be 91a6 7ebe e391 6ebe 86a7 11be
00000240: 6a1f 073e bde1 2e3e 985e 5a3e d184 813e
00000250: 2c72 f93d 97ed 4d3e cf47 94bc 1f7b f73c
00000260: c52a 1c3e 7c5d 1cbd 3b2e 243e b451 8a3e
00000270: 30e4 2cbd ece3 26bd fbf5 debd d8ca 3bbe
00000280: 62d5 123e ffce 2fbe da58 133c f0ea 883e
00000290: 2a9b 24bd 75f5 f93b 3235 0fbe 6c56 283d
000002a0: a58d 2c3e 0084 cf3d f644 27be 2667 8abe
000002b0: 396e 483e ddbc 2a3e e6a3 813c a1a3 89be
000002c0: c791 213e e756 75be 531a 043e 03af b73d
000002d0: a2e1 59be 445b 283c fef1 64be b69f 063e
000002e0: b072 583e 4fc0 99bd 2ea0 3dbe 946f 243e
000002f0: cd1d 1d3c fcf0 5d3e ff87 eebd 27e3 b83c
00000300: 67c8 f8bd 298c 843d 532c e2bd b822 b7bc
00000310: 2a00 1bbe 0186 49bd ce48 eebd 427b 9fbe
00000320: 6e48 893e 0371 f33e b696 9ebd dda1 70bd
00000330: 1fb7 12be 9aab 4b3e aa2b 07be 982f 38be
00000340: 63cb 49be c3f0 c73b 5969 383e 21c1 7dbc
00000350: 6144 65bc d5c3 74be 285c 513e e396 aa3c
00000360: 4923 053e a143 acbc c210 823e d08b 9abe
00000370: 22b1 723e 712a 3bbe 5b31 ca3e 7860 663e
00000380: 1864 bf3e 1fbe 0b3e 82b4 8b3d 8466 363e
00000390: c5bd 843e 8ae4 dfbd 404f 6abf 3fa3 89bc
000003a0: 44c8 9abe 4bc6 ad3b 102b 953e 4932 583e
000003b0: bada 94bd 856a 7abe c84d a6bc adc6 533e
000003c0: 3e96 47bd 831d bfbc 6b94 0dbe 2141 2bbe
000003d0: 77d8 65bd 884e 5b3d 987b f33d 9364 6dbc
000003e0: f639 2e3e d6b5 ea3d 8b20 5b3e 8c07 03be
000003f0: 3bb1 15be 2e7e 883d f78d 77bc cc1c e63c

encoder.conv.convs.4.bias f4 [40]
-0.036956854 0.02692036 -0.026446192 0.2020209 0.13892825 0.0 -0.02795049 -0.07752818
0.0036323946 -0.10537174 0.029651042 -0.0192617 -0.021307318 -0.14925104 0.11111898 0.104593195
-0.059497867 -0.1479632 -0.066521585 0.29524165 0.001874294 0.03477763 -0.03885334 -0.034582585
-0.03148714 -0.013833126 0.0 -0.03820572 -0.01037577 0.304321 0.16216911 0.016301624
-0.031150812 0.09832413 0.19139054 0.09208611 0.15189032 0.014485089 -0.019391792 0.029895727
00000000: 1260 17bd 1688 dc3c afa5 d8bc 91de 4e3e
00000010: 3543 0e3e 0000 0000 6df8 e4bc 18c7 9ebd
00000020: 780d 6e3b 24cd d7bd bee6 f23c b6ca 9dbc
00000030: af8c aebc 44d5 18be 5992 e33d f534 d63d
00000040: 09b4 73bd aa83 17be 783c 88bd ea29 973e
00000050: dfaa f53a fd72 0e3d ae24 1fbd 78a6 0dbd
00000060: a9f8 00bd 56a4 62bc 0000 0000 9a7d 1cbd
00000070: 22ff 29bc f6cf 9b3e a90f 263e fc8a 853c
00000080: fd2f ffbc 295e c93d e2fb 433e a497 bc3d
00000090: 2389 1b3e de52 6d3c 89db 9ebc e2e7 f43c

encoder.conv.convs.4.lin.weight f4 [40, 40]
-0.25692922 -0.21825305 0.099976666 0.21921983 -0.05881878 0.17714833 -0.16500634 0.11881519
-0.08957295 -0.17479108 -0.21021849 -0.26004583 0.24202202 0.017639207 0.24973615 -0.16838579
0.0368937 -0.277833 -0.17333305 0.14439006 -0.22763598 0.066212036 -0.27054802 0.14350985
-0.20807055 -0.1869886 -0.055804532 -0.066744156 -0.15290065 -0.047945805 0.17184402 -0.12978788
0.06958532 0.013266182 0.21594739 0.07559922 0.066003785 -0.16516714 -0.31473476 0.07000284
0.026327124 -0.16922385 -0.09393698 0.1374542 0.27215508 0.16024745 -0.09766884 0.0003071978
0.17443295 -0.37305468 0.056279536 0.2626351 -0.22723964 -0.075886436 0.16045158 0.13840201
-0.06797682 0.3474822 0.07359308 0.14738418 0.19696954 0.25872123 -0.15431213 -0.1603235
0.19161837 -0.25118363 0.12980159 0.10957235 0.17033204 -0.04694858 -0.20980445 -0.62176883
0.18489887 -0.12626413 -0.1874601 0.13534395 -0.017433083 0.03309184 -0.27735955 -0.13464683
-0.24805574 -0.010079143 -0.25182912 -0.25873703 -0.14843383 -0.26068872 0.22187705 0.15241253
-0.25618058 0.2111151 0.10098032 -0.012936331 0.07879681 0.19131579 -0.23833683 0.013444294
-0.20397733 -0.025093311 0.09602622 -0.047211803 0.1567629 0.15983942 0.17415166 0.17836353
0.077876665 -0.13328846 -0.08270387 -0.16557737 -0.106304035 -0.059856314 -0.24623719 -0.0068439804
0.24042861 -0.2040335 -0.26541105 -0.2599182 0.19974457 0.04165427 -0.15740643 -0.17973904
-0.08447088 0.28291306 -0.18058315 -0.08423311 -0.27027243 -0.052715085 0.10858167 0.02975171
0.2546857 -0.12802884 -0.18463945 -0.2542395 -0.0736386 -0.033648726 -0.11129808 -0.24936895
0.20732735 -0.019979192 0.07667306 -0.036848594 -0.0047846558 0.06137824 -0.09841594 -0.05768093
0.082155205 -0.084060594 0.23353809 0.22923844 -0.23120439 -0.1061546 -0.26796463 -0.25653335
0.27986625 0.19236343 -0.3392319 -0.028343525 -0.38936287 0.006804016 -0.14196587 -0.21825884
0.05352532 -0.15256417 -0.12444104 -0.09200511 0.043872762 -0.18560986 -0.26829857 0.03252537
0.24171783 0.10502243 0.18587875 -0.24591137 -0.15168364 -0.18204764 0.1751107 -0.07936675
0.22853008 0.26822376 -0.10041382 0.0352703 -0.06502751 -0.07193287 -0.15236723 0.18152823
-0.055748153 0.0708489 0.21387286 -0.23435403 -0.2646768 -0.0384321 -0.1872352 0.078284726
0.19251245 -0.018556068 0.21625182 -0.06526401 0.06595476 0.24353473 0.113279566 0.13427307
0.031207543 -0.048794117 -0.22049025 -0.20396365 -0.18803638 -0.0020522438 -0.19672817 -0.105889305
-0.08984882 0.20021355 -0.22625215 0.25041196 0.24958454 -0.10447906 -0.047473293 -0.2338231
0.054883335 -0.22931384 -0.13727556 -0.02221488 -0.09974289 -0.0049240855 -0.057535302 0.17600028
0.008674029 0.18802084 -0.23681504 -0.0052554836 -0.24498802 -0.011574959 0.2085059 0.0976946
-0.12865253 -0.2731081 -0.031508643 -0.05204646 0.028016414 0.013205961 -0.027574377 -0.039559282
-0.21649656 -0.08957558 0.04153879 0.23964296 -0.08215445 -0.069578744 -0.090179965 -0.2239055
0.18699828 -0.18602988 0.17278647 -0.23408546 -0.10867855 0.10987084 0.045345798 0.17708293
00000000: 3a8c 83be ba7d 5fbe 91c0 cc3d 2a7b 603e
00000010: f6eb 70bd 5f66 353e 6cf7 28be 6155 f33d
00000020: 0672 b7bd 6ffc 32be 8443 57be ba24 85be
00000030: 9fd4 773e 1980 903c d5ba 7f3e 536d 2cbe
00000040: d91d 173d 2140 8ebe 387e 31be fdda 133e
00000050: 6819 69be 2d9a 873d 4585 8abe 3ff4 123e
00000060: 7210 55be f179 3fbe 4b93 64bd 29b1 88bd
00000070: fd91 1cbe d262 44bd e1f7 2f3e 1de7 04be
00000080: c082 8e3d 665a 593c 5021 5d3e c4d3 9a3d
00000090: fe2c 873d 9321 29be ea24 a1be a65d 8f3d
000000a0: fbab d73c 0449 2dbe 0862 c0bd cbc0 0c3e
000000b0: e957 8b3e e817 243e 9a06 c8bd 640f a139
000000c0: 8d9e 323e 0601 bfbe 5f85 663d 1c78 863e
000000d0: 82b1 68be 596a 9bbd 6b4d 243e 42b9 0d3e
000000e0: 6e37 8bbd 30e9 b13e f8b7 963d e1eb 163e
000000f0: 62b2 493e 1c77 843e 0004 1ebe d82b 24be
00000100: 9b37 443e 249b 80be b5ea 043e 7867 e03d
00000110: 866b 2e3e 274d 40bd fad6 56be 3e2c 1fbf
00000120: 2156 3d3e 624b 01be 8af5 3fbe 9b97 0a3e
00000130: d3cf 8ebc 4f8b 073d 1202 8ebe dce0 09be
00000140: 5302 7ebe fd22 25bc bfef 80be 2e79 84be
00000150: 0aff 17be fe78 85be bd33 633e 0812 1c3e
00000160: 1a2a 83be 8f2e 583e c5ce ce3d e8f2 53bc
00000170: 3960 a13d 49e8 433e 920e 74be 7545 5c3c
00000180: 6fdf 50be 7d90 cdbc 65a9 c43d 2a61 41bd
00000190: 7486 203e f2ac 233e d054 323e eea4 363e
000001a0: cd7d 9f3d c57c 08be a660 a9bd 1d8d 29be
000001b0: eeb5 d9bd e52b 75bd 9a25 7cbe 7843 e0bb
000001c0: eb32 763e 28ee 50be f5e3 87be 0014 85be
000001d0: d789 4c3e ab9d 2a3d 272f 21be 830d 38be
000001e0: 12ff acbd fbd9 903e caea 38be 6982 acbd
000001f0: 2661 8abe c6eb 57bd 1160 de3d dcb9 f33c
00000200: 2a66 823e fe19 03be 2012 3dbe ae2b 82be
00000210: d6cf 96bd 3fd3 09bd 3ff0 e3bd 935a 7fbe
00000220: 9f4d 543e 67ab a3bc c406 9d3d 8dee 16bd
00000230: 9ac8 9cbb c067 7b3d 4c8e c9bd d742 6cbd
00000240: fd40 a83d f627 acbd 9c24 6f3e 7bbd 6a3e
00000250: d8c0 6cbe 9567 d9bd a932 89be 5758 83be
00000260: a14a 8f3e ebfa 443e ceaf adbe ae30 e8bc
00000270: 925a c7be 39f4 de3b 805f 11be 3f7f 5fbe
00000280: 5e3d 5b3d c839 1cbe f2da febd 2d6d bcbd
00000290: edb3 333d 8310 3ebe 6e5e 89be 5339 053d
000002a0: e184 773e 0016 d73d 0057 3e3e 31d0 7bbe
000002b0: f552 1bbe b26a 3abe 3850 333e 098b a2bd
000002c0: ca03 6a3e a054 893e c3a5 cdbd 9777 103d
000002d0: 252d 85bd 8a51 93bd 2806 1cbe 89e2 393e
000002e0: 2d58 64bd 3a19 913d 7d01 5b3e 81fa 6fbe
000002f0: b883 87be fa6a 1dbd 96ba 3fbe be53 a03d
00000300: fc21 453e e502 98bc 1e71 5d3e 23a9 85bd
00000310: 4a13 873d 2b61 793e 1eff e73d e17e 093e
00000320: f6a6 ff3c 57dc 47bd 32c8 61be d9db 50be
00000330: 9c8c 40be f07e 06bb 1c73 49be 7edc d8bd
00000340: a802 b8bd c804 4d3e a5ae 67be ff35 803e
00000350: 1793 7f3e 1ef9 d5bd 5b73 42bd 536f 6fbe
00000360: 59cd 603d 3fd1 6abe f791 0cbe fbfb b5bc
00000370: 0046 ccbd 395a a1bb 23aa 6bbd 6b39 343e
00000380: 841d 0e3c 8988 403e a47f 72be 3136 acbb
00000390: 24de 7abe e6a4 3dbc 9282 553e 1b14 c83d
000003a0: 7dbd 03be d3d4 8bbe 350f 01bd ab2e 55bd
000003b0: ae82 e53c d15d 583c a9e3 e1bc ea08 22bd
000003c0: 46b1 5dbe 6773 b7bd 9424 2a3d f764 753e
000003d0: 9840 a8bd 4d7f 8ebd 46b0 b8bd 7c47 65be
000003e0: 7a7c 3f3e 9e7e 3ebe f0ee 303e 19b4 6fbe
000003f0: dc92 debd f703 e13d 84bc 393d 3a55 353e

encoder.conv.convs.5.bias f4 [40]
0.020401716 -0.016288025 -0.026371665 0.0 0.011120053 -0.04984769 0.0013084682 -0.03252533
0.18292215 -0.027300956 -0.03340438 -0.016924622 -0.082122065 -0.03183096 0.0607604 -0.006493101
-0.012084122 -0.07475163 -0.07039917 0.30758592 -0.07012608 0.36790842 -0.14719498 0.1555064
-0.06858786 0.23699227 -0.12203427 0.30238906 0.31335637 -0.017154373 -0.08289544 -0.028988551
0.09000361 -0.033066064 0.0 0.011919306 -0.11293766 0.07714541 0.006240059 -0.0901678
00000000: 8021 a73c 776e 85bc 6409 d8bc 0000 0000
00000010: e230 363c 172d 4cbd e880 ab3a 4839 05bd
00000020: f24f 3b3e 41a6 dfbc 08d3 08bd 81a5 8abc
00000030: 9d2f a8bd 2e61 02bd e6df 783d 14c4 d4bb
00000040: 7bfc 45bc 6217 99bd 712d 90bd e77b 9d3e
00000050: 439e 8fbd 7e5e bc3e 48ba 16be 123d 1f3e
00000060: cb77 8cbd 1aae 723e 1aed f9bd bdd2 9a3e
00000070: 3f70 a03e 5487 8cbc 16c5 a9bd 6679 edbc
00000080: d053 b83d 4870 07bd 0000 0000 3149 433c
00000090: dc4b e7bd 6afe 9d3d 6979 cc3b e5a9 b8bd

encoder.conv.convs.5.lin.weight f4 [40, 40]
-0.14850001 0.12610601 -0.1714471 0.0626421 -0.18851732 0.2509119 -0.12819788 0.12975857
-0.050385013 -0.07703897 -0.042535026 -0.013557613 -0.14915432 0.033647962 0.19161774 0.20452768
0.09791754 -0.2167589 -0.114922605 0.050657544 0.0039241496 0.43376046 -0.02724589 0.016138475
-0.23217396 0.017824927 -0.111329116 0.12072224 0.16380751 -0.07669756 0.19980553 -0.01783428
-0.36476263 -0.15997593 0.0943934 -0.055920187 0.4480289 0.39081356 -0.19699001 0.09414927
-0.024918225 -0.036514014 -0.025325263 0.023392934 0.082904905 -0.14171958 0.2706268 -0.27715644
0.13910924 0.14872758 -0.11798273 0.13456172 0.1332288 0.11794323 -0.04321919 -0.14198926
0.20092072 0.13831234 -0.21084887 0.0073217885 -0.17712176 -0.10813277 0.18306671 -0.05332205
0.17239547 0.22170144 0.050797164 -0.13242976 0.086355634 -0.034411404 -0.017061114 -0.07880453
-0.27013937 0.2648608 -0.09927456 -0.19317263 -0.017273337 -0.27923453 -0.07878972 -0.1833625
0.080340154 -0.08940592 0.020017229 0.20129858 -0.113362655 0.08947188 0.01106149 -0.2616684
0.012916386 -0.21259367 -0.21899402 0.05899508 -0.24870838 0.13803203 -0.18306512 -0.29766637
0.051756967 -0.15335053 0.17332557 -0.034521755 0.03819889 -0.29892355 0.14855199 0.053633653
-0.092370264 0.25763237 -0.06619493 0.049451236 0.11852535 -0.24834757 -0.13078885 -0.004411392
0.17044279 -0.22728878 -0.14599574 -0.1153623 0.13954839 0.16172472 -0.052246567 0.097351044
-0.20780759 -0.08352458 0.16817018 -0.096330844 -0.08412244 0.12529682 -0.14664212 0.01453498
-0.20846401 -0.20818354 -0.21376413 -0.094027646 0.18527414 0.08595448 -0.060924564 0.24251223
0.058614865 -0.10326297 -0.21296653 -0.083046496 0.1285517 0.059224185 -0.16529563 0.06502174
-0.10613935 -0.21246779 -0.180887 -0.20933604 -0.19030523 -0.24600017 -0.16883673 -0.18492045
0.15042305 -0.2092342 0.1396936 0.018752653 0.037803568 -0.08679082 0.0868853 -0.04955188
0.22964267 0.1247378 0.016880373 -0.18798037 0.06858244 0.016014991 0.24124962 -0.030937353
-0.03964157 0.0005983719 0.31077665 0.24519986 -0.11692019 -0.074303605 -0.18770765 0.06288727
0.34287673 0.15913899 -0.24582496 0.008460841 0.061975755 -0.18779604 0.026348015 0.030109826
0.1958358 -0.26135942 0.049243305 0.21373291 -0.17434342 0.0639202 0.16155246 0.3101272
0.17770469 0.17891306 -0.3783055 -0.45117334 -0.047521003 -0.03030028 -0.15955575 0.41033384
-0.21438889 -0.20424041 -0.0833907 -0.26865467 0.08890467 -0.18411537 0.27015182 0.0674246
0.26635423 -0.15225902 0.24845256 -0.03640753 -0.096230194 -0.16002724 -0.023384169 -0.10141667
0.17665304 0.25713897 -0.07077578 -0.0009280219 0.16556436 0.02334598 -0.26035663 -0.20219322
-0.19625117 -0.12043705 0.12686168 0.011474269 -0.06353 -0.0048509324 0.027496118 0.16463092
0.1771858 0.03461298 -0.117116444 -0.13561276 0.013224752 -0.0382874 -0.26179403 -0.16426274
0.0685193 -0.016671611 -0.12769352 -0.043963894 -0.19043513 0.030186677 0.18839851 0.049032245
0.1109622 0.07945756 -0.1759188 -0.058617476 -0.07650137 -0.38410136 -0.1444856 0.009853764
00000000: 6310 18be ef21 013e d48f 2fbe 804a 803d
00000010: af0a 41be 8677 803e 4e46 03be 6edf 043e
00000020: 8460 4ebd 9cc6 9dbd 3539 2ebd c020 5ebc
00000030: e9bb 18be 72d2 093d 7137 443e b46f 513e
00000040: fe88 c83d 0cf6 5dbe 8b5c ebbd 497e 4f3d
00000050: 2796 803b da15 de3e c632 dfbc d634 843c
00000060: 03bf 6dbe 9505 923c 8500 e4bd 393d f73d
00000070: 28bd 273e 9c13 9dbd d299 4c3e 3219 92bc
00000080: 2bc2 babe bbd0 23be 5451 c13d 910c 65bd
00000090: 0b64 e53e b718 c83e c0b7 49be 55d1 c03d
000000a0: 4e21 ccbc b88f 15bd ed76 cfbc 8aa2 bf3c
000000b0: 0cca a93d f01e 11be 998f 8a3e 73e7 8dbe
000000c0: a772 0e3e 0b4c 183e eea0 f1bd 8cca 093e
000000d0: 216d 083e 388c f13d 9b06 31bd a265 11be
000000e0: 29be 4d3e c0a1 0d3e c4e8 57be 9deb ef3b
000000f0: 685f 35be b774 ddbd d775 3b3e 3968 5abd
00000100: 7088 303e b405 633e b010 503d ab9b 07be
00000110: 39db b03d f9f2 0cbd c0c3 8bbc 4564 a1bd
00000120: b54f 8abe d69b 873e 7650 cbbd 0ccf 45be
00000130: d080 8dbc d4f7 8ebe 815c a1bd 61c3 3bbe
00000140: 6189 a43d 731a b7bd 2cfb a33c 3721 4e3e
00000150: ae2a e8bd 083d b73d 403b 353c 67f9 85be
00000160: 409f 533c 28b2 59be f83f 60be d3a4 713d
00000170: 69ad 7ebe 4558 0d3e 6c75 3bbe ba67 98be
00000180: 1dff 533d ec07 1dbe 427c 313e af66 0dbd
00000190: 7076 1c3d 820c 99be 031e 183e f6ae 5b3d
000001a0: 9f2c bdbd 64e8 833e 3591 87bd 618d 4a3d
000001b0: 6bbd f23d d34e 7ebe 83ed 05be 708d 90bb
000001c0: 8e88 2e3e 64be 68be e87f 15be 1243 ecbd
000001d0: c6e5 0e3e 2a9b 253e 7f00 56bd fc5f c73d
000001e0: 83cb 54be ef0e abbd ce34 2c3e 1b49 c5bd
000001f0: 6348 acbd cf4d 003e 5a29 16be 2024 6e3c
00000200: 9777 55be 112e 55be fce4 5abe 9191 c0bd
00000210: 81b8 3d3e e708 b03d 098c 79bd 2055 783e
00000220: 2416 703d 897b d3bd e613 5abe 4814 aabd
00000230: 0fa3 033e 0f95 723d 4243 29be 1e2a 853d
00000240: 965f d9bd 2891 59be 713a 39be 305c 56be
00000250: 60df 42be 78e7 7bbe 89e3 2cbe c95b 3dbe
00000260: 8008 1a3e 7d41 56be d70b 0f3e 2a9f 993c
00000270: ead7 1a3d 63bf b1bd ecf0 b13d eaf6 4abd
00000280: 7327 6b3e 8876 ff3d b548 8a3c ed7d 40be
00000290: f374 8c3d df31 833c 240a 773e 5570 fdbc
000002a0: 335f 22bd 0fdc 1c3a 1e1e 9f3e ac15 7b3e
000002b0: da73 efbd 7d2c 98bd 6f36 40be 0acb 803d
000002c0: 8a8d af3e 55f5 223e 8ab9 7bbe 579f 0a3c
000002d0: 4ada 7d3d 9b4d 40be cbd7 d73c e2a8 f63c
000002e0: 2e89 483e e7d0 85be 59b3 493d cddc 5a3e
000002f0: 1587 32be 98e8 823d 026e 253e fec8 9e3e
00000300: 38f8 353e fc34 373e 42b1 c1be 3100 e7be
00000310: 62a5 42bd 4b38 f8bc 9562 23be 4717 d23e
00000320: c388 5bbe 6624 51be bec8 aabd 1b8d 89be
00000330: a713 b63d bd88 3cbe 5751 8a3e e915 8a3d
00000340: 955f 883e cae9 1bbe 596a 7e3e 1020 15bd
00000350: 5614 c5bd 2ede 23be 2890 bfbc 8bb3 cfbd
00000360: 89e4 343e b8a7 833e e4f2 90bd 7f46 73ba
00000370: b489 293e 1240 bf3c 774d 85be bd0b 4fbe
00000380: 11f6 48be b3a7 f6bd 07e8 013e 93fe 3b3c
00000390: 041c 82bd 92f4 9ebb 8a3f e13c 0295 283e
000003a0: 3270 353e 57c6 0d3d bfda efbd 12de 0abe
000003b0: a1ac 583c 40d3 1cbd de09 86be 7e34 28be
000003c0: d953 8c3d e792 88bc 17c2 02be 7c13 34bd
000003d0: 6d01 43be 0d4a f73c 8aeb 403e 09d6 483d
000003e0: 2640 e33d a5ba a23d 0f24 34be e118 70bd
000003f0: c0ac 9cbd efa8 c4be 08f4 13be af71 213c

encoder.conv.convs.6.bias f4 [40]
-0.079396464 -0.008536171 0.08069442 0.20062083 0.0 -0.027957132 -0.085768014 0.21339227
0.32155174 0.0 -0.06697803 0.15486386 -0.018381938 -0.009210496 -0.030710047 -0.027502036
-0.04524895 0.061863374 0.06443578 -0.030606763 -0.35492525 -0.07452528 0.0 -0.029738879
-0.02309903 -0.036734324 -0.06849224 0.075798266 0.25752994 -0.102201425 -0.018790763 -0.2263548
-0.074306846 -0.11045489 -0.23466265 0.25721872 0.013017035 -0.11190492 -0.16368186 -0.039983828
00000000: 9d9a a2bd 4cdb 0bbc 1e43 a53d 8c6f 4d3e
00000010: 0000 0000 5b06 e5bc 24a7 afbd 8183 5a3e
00000020: 6ea2 a43e 0000 0000 c72b 89bd a294 1e3e
00000030: b895 96bc 9fe7 16bc a393 fbbc f34b e1bc
00000040: f756 39bd 7364 7d3d e8f6 833d 09bb fabc
00000050: c3b8 b5be b6a0 98bd 0000 0000 f39e f3bc
00000060: 2d3a bdbc bb76 16bd a945 8cbd 1f3c 9b3d
00000070: f7da 833e fb4e d1bd 16ef 99bc 8dc9 67be
00000080: 302e 98bd 2c36 e2bd 684b 70be 2cb2 833e
00000090: 6745 553c 682e e5bd 389c 27be 15c6 23bd
